normal/cfm/models/10050_model.pt (torch, 535792 bytes, 8 tensors)

net.0.weight f4 [256, 3]
000000 7c 12 bf bd 61 74 52 3e 97 8b 4b be 68 22 f2 be
       -0.093296975 0.20552208 -0.19877468 -0.47291875
000010 75 f5 4b 3f 39 b6 b1 be eb bc e0 3e 5e 5f 5c 3e
       0.7967141 -0.34709337 0.43894133 0.21520755
000020 33 49 b0 3e d9 d0 62 3e 22 4f a2 3e 29 03 88 3e
       0.34430847 0.22149982 0.31701 0.2656491
000030 c8 f4 93 be 14 9c 3f bf 36 25 0d 3f 5a 73 b4 3e
       -0.2889769 -0.7484753 0.55134904 0.35244256
000040 aa 31 bc bd a2 1d d8 3e f6 c4 8f 3e 60 4a 2a be
       -0.0918916 0.42210108 0.28079957 -0.16629934
000050 ac cd 67 3e 72 b7 72 bd e2 97 82 3e 96 95 21 3c
       0.22637051 -0.05925698 0.25506502 0.009862324
000060 10 ec dc bd d2 ad 17 3f 8d 2a a9 3e 1f 48 90 3c
       -0.10787213 0.59249604 0.33040276 0.017612515
000070 17 ae 26 be af 7d f2 be 4c 10 37 3d 90 dd 27 bf
       -0.16277348 -0.47361514 0.044693276 -0.6557245
000080 88 08 36 3e 5a 47 aa 3b b4 27 e8 be cd ce aa be
       0.17776692 0.005196494 -0.4534279 -0.333609
000090 9e ba 41 3e d0 7f 0c bf 72 03 d8 be ef a9 6c 3d
       0.18918845 -0.54882526 -0.4219013 0.05777925
0000a0 f4 bd ee 3d 56 9c e7 be 7a 65 a7 be cf b7 f7 be
       0.116573244 -0.45236462 -0.32694608 -0.48382422
0000b0 43 02 e8 be 6d 2a f7 bd 23 f2 96 3b 3c f2 6e 3e
       -0.45314226 -0.12068639 0.0046065017 0.23334593
0000c0 78 bd f9 bd bb a4 37 3f 16 7b 8e bb 13 27 01 bf
       -0.121943414 0.71735734 -0.004348169 -0.5045025
0000d0 00 db 9b 3f 3c 1e 7b be e6 8b c5 3d 87 50 7f 3d
       1.2176208 -0.24523252 0.09645824 0.062332656
0000e0 c3 55 86 be f5 c6 08 bf a6 7c 67 bf 6c 63 44 3e
       -0.26237306 -0.53428584 -0.90424573 0.19178551
0000f0 0b 0f fb bd 7d 2d 84 3e 05 70 21 3e 4f 70 a1 be
       -0.122587286 0.25815955 0.15765388 -0.31530997
000100 1b 6a 65 be 04 be 0b 3f b5 b6 fe bc cd 31 8c be
       -0.22403757 0.54586816 -0.03109298 -0.27381745
000110 26 a6 29 3f 05 8c 02 3e 61 54 82 3e a3 48 a6 be
       0.6626915 0.12748726 0.25455 -0.32477292
000120 07 38 0d bf 6c 21 9f 3f ab 50 e6 3e b3 71 1b bc
       -0.55163616 1.2432075 0.4498342 -0.009487557
000130 90 2b 1c 3f d4 df 17 3f 2e 75 18 bf 81 03 a0 3f
       0.6100397 0.5932591 -0.595538 1.2501069
000140 62 18 5f 3e 54 1b 2c 3c 78 85 c2 3e a7 b5 03 bf
       0.21786645 0.010504562 0.37992454 -0.51449054
000150 e6 77 0d bf 13 03 5b bf 78 27 4c 3d f1 28 5f be
       -0.55261075 -0.85551566 0.049842328 -0.21792962
000160 5a d6 38 3e 0a 00 a5 3e 44 0c 1c be 89 9a a0 be
       0.18050519 0.32226592 -0.15239054 -0.313679
000170 12 8e ef bd 36 61 ba 3e 75 94 12 bf 1b d0 4b be
       -0.1169702 0.3640229 -0.5725778 -0.19903605
000180 8b f9 c7 be b6 7e ee 3c a2 3b df be 4c 45 f3 3d
       -0.39057574 0.029113155 -0.43600184 0.11878452
000190 3d 45 87 3d 60 6d b2 be 81 9a e9 be 44 8e 3a bf
       0.06605003 -0.34849072 -0.4562569 -0.7287333
0001a0 3a 01 77 bc 1b 2c 81 3d 75 50 f9 3b f5 0b c8 3d
       -0.015075976 0.063072406 0.007608468 0.097679056
0001b0 27 24 d7 bd 74 3d d4 3b 93 42 c2 3d 63 d5 ed 3e
       -0.105049424 0.0064770523 0.09485354 0.46451864
0001c0 8f 59 1b 3f e7 5b 19 bf ed 8a ba 3e 6b 29 e6 3e
       0.6068353 -0.59905857 0.36434117 0.44953474
0001d0 8d d0 03 3f 79 a9 e3 bd 6a 01 e3 be 69 92 85 3e
       0.514901 -0.11116309 -0.44337016 0.26088265
0001e0 46 c9 eb bd ef 53 f9 3e fb 09 f9 be 83 cd 09 3d
       -0.11512999 0.4869685 -0.48640427 0.033643257
0001f0 c1 cf 0f be cf b7 0e 3e 7c a9 a4 be 65 c6 23 bf
       -0.14044096 0.13937305 -0.32160556 -0.639746
000200 01 1c be 3d 06 48 62 3e 05 9f e4 be d2 20 d9 3e
       0.09282685 0.22097787 -0.44652572 0.42407852
000210 86 a9 ec 3d 19 01 ea be 3c df 97 3b 17 26 df be
       0.115557715 -0.45703962 0.004634766 -0.43583748
000220 e6 b7 90 3f d8 e5 6d 3e 65 bb 18 be 44 f9 e9 3e
       1.1306121 0.2323221 -0.14915235 0.45697987
000230 e3 91 b9 3d 2a 78 2e be 78 92 41 bf 92 6f 5a be
       0.09061029 -0.17038026 -0.7561412 -0.21331623
000240 67 54 8c be 0e fb 98 3f 17 1b f8 3e 25 45 5f be
       -0.27408144 1.1951616 0.48458168 -0.2180372
000250 f8 21 aa be 89 8f 52 be bb 46 06 bf 7d bc b4 3e
       -0.3322904 -0.20562567 -0.52451676 0.35300055
000260 19 fa 91 bd 9c ea d3 be 48 f5 91 3f e0 2e df be
       -0.071277805 -0.4138993 1.1402979 -0.4359045
000270 6a 23 89 bd b3 67 ba 3e 44 35 fc 3e 0d e3 95 be
       -0.06696208 0.3640724 0.49259388 -0.29274788
000280 f1 11 a1 be c6 2f 26 be 5c b8 54 bd d9 dc bf 3d
       -0.31459 -0.16229162 -0.05193363 0.09368295
000290 bf b4 db be f8 28 44 be 7f b6 54 3f 43 b5 8a 3e
       -0.42911336 -0.19156253 0.83090967 0.27091417
0002a0 fe ce be 3e ef e6 a4 bd 4a ec 5a be 17 ce 16 3e
       0.37267298 -0.080518596 -0.213792 0.14727055
0002b0 09 b8 8d 3e 59 02 a2 bd 98 87 5f 3d f1 af 37 3d
       0.2767947 -0.07910604 0.05457267 0.044845525
0002c0 b1 83 7d bc 67 4f 2c be 24 5c 3e 3e f2 c0 fe be
       -0.015473292 -0.16827165 0.18589836 -0.4975658
0002d0 8e 78 54 be fb 5c 1f be 88 be f0 3e 30 5a 87 3e
       -0.20749113 -0.15562813 0.47020364 0.26435995
0002e0 b2 12 a5 3e 07 91 ce be a0 5a 6f 3e a7 65 b4 3e
       0.32240826 -0.40345022 0.23374414 0.35233805
0002f0 8b b9 d1 3e 83 ec 9f 3e 72 e1 bb be b0 64 f6 3e
       0.4096187 0.31235132 -0.3669544 0.48123693
000300 c9 5a 6c 3e 2c f2 ee 3e 7f 12 92 3e 79 84 c3 3e
       0.23081507 0.46669137 0.28529736 0.38187006
000310 13 05 da 3e 60 83 02 3f c9 a2 35 be 3d ca 38 3f
       0.42581996 0.5098171 -0.17737879 0.7218359
000320 4d 86 a2 be 89 7a c2 be dd c1 91 3f dd ce 86 3e
       -0.31743088 -0.37984112 1.1387287 0.263297
000330 b2 94 89 3e bc 91 e7 be 40 8e c9 3e 5c 95 11 bf
       0.26871258 -0.45228374 0.3936634 -0.5686853
000340 53 e7 2c bf ba 8c e6 bd 6f f8 62 be 14 32 1d 3f
       -0.6754047 -0.1125731 -0.22165082 0.6140454
000350 d2 f0 0b 3f 06 ef 39 3e 3c 9b 0c be 26 84 81 be
       0.5466434 0.18157586 -0.13731092 -0.25296134
000360 51 6d 13 bd ef 0e 13 be 51 a3 3e be a9 4d b9 3e
       -0.035992924 -0.14361165 -0.18616988 0.36192062
000370 00 79 57 be 97 24 3a 3e cc a5 17 3d 39 27 8a be
       -0.21042252 0.1817802 0.03702335 -0.2698305
000380 10 36 97 be 87 6d bb be ea 5a 36 3f 8b a9 92 3e
       -0.29533434 -0.36607 0.71232474 0.28644976
000390 44 80 94 be fa 0a 30 3f 10 c7 de be f1 6f 3b be
       -0.2900411 0.6876675 -0.43511248 -0.18304421
0003a0 6a 32 57 be 17 40 2c 3e 26 75 db 3e 7b a0 e8 3e
       -0.21015325 0.16821323 0.42862815 0.45434937
0003b0 e8 9c 4f be 56 b0 c3 3d 2c e1 40 3e 53 8a f1 3e
       -0.20274699 0.09555118 0.18835896 0.47175846
0003c0 c9 53 5a 3e bc ef de be 06 78 fa 3e d4 04 e1 3e
       0.21321024 -0.43542278 0.48919696 0.43948996
0003d0 3a 5f 67 be df 51 9b 3e e8 cc 94 3d 68 44 ec be
       -0.2259492 0.303359 0.07265645 -0.4614594
0003e0 e4 5b 22 3f 59 30 09 be f5 8e 38 3f 96 6c 8e 3e
       0.63421464 -0.1339735 0.72093135 0.2781722
0003f0 4b b8 b7 bc 48 42 49 3f 59 0d 01 3f 88 26 35 3e
       -0.022426745 0.7861676 0.5041099 0.1769048

net.0.bias f4 [256]
000000 9a 70 a3 be 2a 9c 7c 3e c8 d3 6a 3e ab cc e8 be
       -0.31921846 0.24668947 0.2293235 -0.4546865
000010 4a b7 bd 3e 19 42 d4 bd 89 9d a7 3e f8 7b 10 bf
       0.370539 -0.103641696 0.32737377 -0.5643916
000020 04 55 05 bf 65 10 91 3e e9 29 05 3f c6 ce 82 3e
       -0.5208285 0.2833282 0.52017075 0.2554838
000030 96 a1 0a 3f cb 59 fe be 1e 56 bc 3e 71 17 7f 3d
       0.5415281 -0.49677882 0.36784452 0.062278215
000040 6d 79 8e 3d d0 36 83 3e 6b 00 55 3e 4a 34 0f 3f
       0.06956754 0.25627756 0.2080094 0.5593916
000050 11 90 10 3f 07 03 61 3e 82 a6 0b 3f 77 b9 99 be
       0.5646983 0.21973811 0.54550946 -0.3002431
000060 9b 82 e6 3e c3 39 16 3f fd 01 a9 3e cf 1f e6 3e
       0.4502152 0.5868189 0.3300933 0.44946143
000070 b5 a7 ab 3e 80 3c d2 3e 1d a6 ba be 04 b7 0c bf
       0.33526388 0.41061783 -0.3645486 -0.5496676
000080 fd 2d c1 3e 26 0c a2 bb e5 84 aa 3e 74 f6 3a be
       0.377304 -0.004945296 0.33304515 -0.18258077
000090 04 e4 b5 3e f4 3e fa be ba 3d 48 be ed d5 f0 bd
       0.35525525 -0.48876154 -0.19554797 -0.11759553
0000a0 69 e6 c4 be 7d a6 36 3e c4 75 ee 3c 42 94 d7 be
       -0.3845704 0.17836948 0.02910889 -0.421053
0000b0 93 d2 ed be e7 5f 61 3d 69 dc ba 3e cd b5 ec 3e
       -0.46449718 0.0550231 0.36496285 0.46232453
0000c0 a0 79 d9 be 87 24 6c bd b7 1a c9 3d 28 08 a9 3d
       -0.42475605 -0.057652023 0.098195486 0.08253509
0000d0 d5 41 fd be 1e 05 5a bd a6 9a 23 bd cc 31 a2 bd
       -0.49464288 -0.053227536 -0.039942406 -0.07919654
0000e0 34 1f fc 3d 98 bb 9a bd a4 1b 2d 3d c6 b9 15 bf
       0.12310639 -0.07555312 0.04226269 -0.5848659
0000f0 3c 76 b3 3e f9 b3 8c 3e 0b 2f d7 3d ec 62 c8 bd
       0.35051143 0.27481058 0.105070196 -0.09784493
000100 3a 73 0c bd 5c 97 85 3e e4 71 8e 3e 84 00 cf be
       -0.034289576 0.2609204 0.27821267 -0.4043008
000110 88 be fb be b6 ec d0 3e ac 31 2e 3d 8d 87 53 3e
       -0.491688 0.40805596 0.04252784 0.20657177
000120 97 92 6c be e4 29 1d be 85 bd 22 3e a1 b6 d0 bb
       -0.23102795 -0.15348011 0.15892608 -0.0063694273
000130 36 70 73 3e 96 b6 6f be b0 9f a7 bd b5 04 69 3e
       0.23773274 -0.23409495 -0.08184755 0.22755702
000140 ab 45 0b 3e 29 9c 31 be 67 70 d2 3e d5 cb a3 be
       0.13600795 -0.17344727 0.4110138 -0.3199145
000150 84 52 15 bf 1f 69 a2 3e e0 e7 f5 3e 1e 5f 92 be
       -0.58329034 0.31720826 0.4802847 -0.28588194
000160 f1 e2 e2 be d6 ee 0c 3f 07 c2 eb bd 74 c3 0f 3f
       -0.44313768 0.55051935 -0.11511617 0.5615761
000170 da 74 08 bf b9 02 90 3e b0 94 f0 3e 11 b5 b1 3e
       -0.533033 0.28127077 0.4698844 0.34708455
000180 e1 fb 12 bf a5 1b 09 3e 12 a1 50 3e bf 33 2f 3d
       -0.57415587 0.13389452 0.20373943 0.04277396
000190 d4 b3 20 bc ac 00 8a be d1 aa c2 3e 28 b0 6f be
       -0.009808499 -0.26953638 0.38020948 -0.23407042
0001a0 7c d1 f9 3e 91 e1 90 3d f4 67 19 3e dc ff e9 be
       0.48792636 0.070742734 0.14981061 -0.45703018
0001b0 11 7c 60 be a9 de 6d bd 88 b3 aa 3e 8b da 2c 3c
       -0.21922328 -0.058073673 0.33340096 0.010550152
0001c0 5e bc ad 3d d2 73 35 3e 93 8e 99 be 85 78 a4 3e
       0.08483194 0.17719963 -0.29991588 0.321232
0001d0 f6 c6 76 3d 00 01 4d be 4b 50 d4 bc d0 5a 10 3e
       0.060248338 -0.20019913 -0.025917193 0.14097142
0001e0 c6 8a 9f be 0c d4 db 3e 88 25 b9 3e 50 62 f8 be
       -0.31160563 0.42935216 0.36161447 -0.48512506
0001f0 e4 e0 d9 3d c1 69 c7 3d 58 ba 13 bf 3e 2b 08 3f
       0.106385976 0.09736968 -0.57706213 0.5319098
000200 90 80 0e 3f 15 45 98 be 4a cd fe bb e7 a5 53 3e
       0.5566492 -0.29740205 -0.007775937 0.20668755
000210 0d 31 81 3e 0c 29 b9 be 39 64 9e 3d 66 4e bd 3e
       0.25232735 -0.3616413 0.0773396 0.36973876
000220 17 0e aa 3e ec 39 c9 be 4e b8 cf be e2 bf 4c 3e
       0.33213875 -0.39302003 -0.405703 0.19995072
000230 bd 24 ec 3d 36 96 d7 bd 71 6a d3 3d 3c 57 ad be
       0.11530445 -0.10526697 0.103230365 -0.33855617
000240 b8 18 87 3e 2d 08 f2 3e 5e 80 b4 be 10 b6 55 be
       0.26386046 0.47271863 -0.35254186 -0.20870233
000250 b3 b8 b0 3e d5 d4 c3 be f7 00 93 3b bb 0b b0 3d
       0.34515914 -0.38248315 0.004486199 0.085959874
000260 ad fb 14 bf 39 5d 55 be 3e c3 80 be 28 de 29 be
       -0.58196527 -0.20836343 -0.25148958 -0.16588652
000270 aa 7d de 3e 8a e0 df 3e 26 09 18 ba c6 80 0b bf
       0.4345525 0.43725997 -0.0005799703 -0.5449337
000280 5b b7 a2 3e 3a f6 c2 be 79 14 00 3f f3 6e fe be
       0.31780514 -0.3807848 0.5003124 -0.49694023
000290 3c 1e 0d 3e 6a 46 38 3d 5a 17 16 3e d9 81 c8 be
       0.13781065 0.044989027 0.14657345 -0.39161566
0002a0 8b 6b 84 3e f6 90 6d be dd 78 0c bf 41 1b 3e 3e
       0.258633 -0.2319983 -0.5487192 0.18565084
0002b0 ca 9a ea be c9 fd ae be 4c 93 d7 3e e6 32 43 bb
       -0.4582122 -0.34177998 0.42104566 -0.0029784977
0002c0 8d df d2 bd 60 f8 09 3e ef 7b 0c be d1 a2 10 bf
       -0.10296545 0.13473654 -0.13719152 -0.5649844
0002d0 ee 92 e5 3e 6e 83 c5 be 85 31 11 3f db a9 2c be
       0.4483866 -0.38576835 0.56716186 -0.1686167
0002e0 a8 9b a1 3d 09 2b 99 3e 94 2a 57 be e8 69 17 be
       0.07891017 0.29915646 -0.21012336 -0.14786494
0002f0 cc cf e2 bd db 96 36 3e b0 89 e0 be b2 cc cd be
       -0.1107479 0.17830984 -0.43855047 -0.40195233
000300 64 36 0f be a1 58 25 be f5 d1 ff 3d 4e 3f fb 3e
       -0.13985592 -0.1614709 0.12491218 0.49071735
000310 75 1a 98 be 52 3b 00 3f 98 19 9a 3d 1d 66 dd 3e
       -0.29707685 0.50090516 0.07524413 0.4324197
000320 b2 51 bd be ad 13 aa 3d 2d c7 b3 3d 73 bf cf be
       -0.3697639 0.08304534 0.08778224 -0.40575752
000330 bf 4f 04 3f ff 48 e4 be c1 f5 03 3f 6d 51 e9 3b
       0.5168418 -0.44586942 0.51546866 0.0071203024
000340 45 aa e2 3e bd 7d bb be 0a f9 2a be 5c ed 00 3e
       0.4427053 -0.36619368 -0.16696563 0.12590545
000350 cf fd d7 3e e6 bd 93 3e e0 a4 d4 be d9 3a 7d bc
       0.42185828 0.2885582 -0.4153204 -0.015455925
000360 5a 70 35 bd c5 23 89 3e 0d 28 0f bf 37 74 b4 be
       -0.0442966 0.26785102 -0.5592049 -0.35244915
000370 70 40 b7 be ee 6e c0 be 6b d8 4a 3d 58 96 b5 be
       -0.3579135 -0.37584633 0.0495228 -0.35466266
000380 26 6f 8f bd e0 4e e0 3e 7a af 81 be 08 1d e7 be
       -0.07003622 0.43810177 -0.2532919 -0.45139337
000390 37 8d c2 bd 28 ce 05 3f e9 ac 76 3e da 9b 0c be
       -0.09499591 0.52267694 0.24089397 -0.13731328
0003a0 e2 54 07 3f 38 39 89 3e 6c 69 f1 3e ce 19 00 bf
       0.52863896 0.26801467 0.47150743 -0.50039375
0003b0 e9 00 a6 3d af c2 f3 be b4 30 9c bd d4 ea f8 be
       0.08105642 -0.4760947 -0.07626477 -0.4861666
0003c0 69 07 14 be 1b 20 8d 3e 01 d9 86 3d 75 cf 0f bf
       -0.14455952 0.27563557 0.06584359 -0.5617593
0003d0 30 d1 f0 bc fc 9e c5 3e 0e c2 a6 3e 0b d4 07 be
       -0.029396623 0.38597858 0.32569927 -0.13264482
0003e0 6f a4 5c be 3b 7d ae be a4 8c 65 3e 3d 4c ab 3e
       -0.21547101 -0.34079918 0.22416931 0.33456603
0003f0 38 8a 01 3e 40 2c 18 bf 47 af 84 be 48 bd 0c bf
       0.12650383 -0.5944252 -0.25914976 -0.5497632

net.2.weight f4 [256, 256]
000000 24 41 55 bd bd 0b 16 3d fc 46 12 3c de 69 54 3d
       -0.052064076 0.03663229 0.008928057 0.051858775
000010 ce d3 54 bd 4d ff 63 3c 69 38 7b 3c 08 cf 86 bc
       -0.051959805 0.013915849 0.015333273 -0.016456142
000020 63 4b 65 3d 04 bb e0 bd 2f a3 1d bd e1 33 11 3a
       0.055980098 -0.109731704 -0.038485702 0.00055390416
000030 a6 8c 1c bd fe 08 2f bd 72 0d b7 bb f8 3e 19 bd
       -0.03822007 -0.042733185 -0.0055863196 -0.037413567
000040 1a f5 c5 bc f9 b6 84 bd d8 21 aa 3b f5 c1 e3 bc
       -0.024164725 -0.06480212 0.005192023 -0.027802447
000050 2c c6 02 3c b2 ce 73 bd 6b 6c 9b 3d 6a 67 9f bd
       0.007981818 -0.059523292 0.075890385 -0.077833965
000060 d3 68 a7 bc ce 44 e2 bc 6b 01 95 bc 3e 4a 27 bd
       -0.020435726 -0.0276207 -0.018189153 -0.040842287
000070 bb 79 f5 bc f5 c1 05 bd 39 71 44 bd 7f 24 20 bd
       -0.029965272 -0.032655675 -0.04795954 -0.039097305
000080 32 09 78 b8 b2 7e 83 bc e6 59 16 3d 48 fa ce bc
       -5.913637e-05 -0.016051624 0.036706828 -0.025265828
000090 05 7d bc bb c9 b0 1a 3c 87 99 d0 3c 01 c7 e3 bc
       -0.005752208 0.009441563 0.025463833 -0.027804853
0000a0 3d 62 0c 3d 7b 90 be 3b 3a 39 39 3d 24 ad 31 3c
       0.034273375 0.0058155633 0.04522059 0.010844503
0000b0 07 2e 9d 3c c8 7d 89 bd 31 36 00 3d 94 ce 3b bd
       0.019186987 -0.06713444 0.03130168 -0.045851305
0000c0 aa 89 48 3d e0 46 60 3d 55 37 d2 3c e1 21 76 bc
       0.04895941 0.05475509 0.02566115 -0.015022726
0000d0 48 de 3b 3d dc 07 ed 3b 1b 8c 4c bb 0d 93 03 3d
       0.04586628 0.007233603 -0.003121144 0.03212266
0000e0 8a 5e fe 3c 05 c5 5a bd 9c a1 ab 3c 3e 1f eb 3b
       0.03105094 -0.05341055 0.020951085 0.007175355
0000f0 9d eb 2a bc 49 e5 17 3c 05 ba 2c 3d a3 a9 67 3d
       -0.010432151 0.009270974 0.04216959 0.056558263
000100 27 20 66 bd 59 1e 2b bc 58 06 c1 bc f5 16 c2 ba
       -0.056183007 -0.010444247 -0.023562595 -0.0014807867
000110 bf 68 c5 3c 1c 29 5d bd 03 39 0f bc 51 f1 75 bd
       0.024097798 -0.053994283 -0.00874162 -0.06004459
000120 38 f6 e1 3c 8b 26 47 3d 4b 8d 08 3d b5 78 20 bd
       0.027583227 0.04862074 0.033337872 -0.039177615
000130 a4 47 41 bd 2f 80 f6 bc 21 6e 82 3c 17 01 95 bc
       -0.047187462 -0.03009042 0.015921654 -0.018188996
000140 e9 61 27 bd 62 36 26 3d ef ff 61 bc 76 23 9f 3d
       -0.04086486 0.040579207 -0.0137939295 0.077704355
000150 a8 44 70 bd 6c ac 80 bd e9 36 41 bd 78 35 24 bc
       -0.058659226 -0.06282887 -0.047171507 -0.010022514
000160 d9 e5 23 bd ff 7d ee 3c 0b a2 ef bb 31 3b c4 3c
       -0.04001412 0.029112814 -0.007313018 0.023954006
000170 41 1d 13 3d 09 8d b9 bc cc 73 15 bb ef 0d 56 bb
       0.03591657 -0.022650259 -0.0022804616 -0.0032662114
000180 3e b8 ec bc 36 ab ea bc 9e 5d 40 bc 2f 14 53 bd
       -0.028896447 -0.028646093 -0.01174107 -0.05153292
000190 83 bf 4d bc 24 96 8c bd 7c d9 0b 3d de 16 53 3d
       -0.012557867 -0.068645746 0.034142956 0.05153548
0001a0 e9 59 03 3d ad 46 ff 3b 28 72 ba bc d1 2a 36 3d
       0.032068167 0.0077904076 -0.022759512 0.044474427
0001b0 74 53 63 bc 15 71 2f 3d 47 73 4f ba f5 0c 72 3d
       -0.013874877 0.042832453 -0.0007913601 0.059094388
0001c0 cf 8a 27 bd dc 8f 25 3d ce 83 69 bc a1 1f 30 bd
       -0.040903863 0.040420398 -0.014252616 -0.042998914
0001d0 b0 d5 73 bd a2 f1 24 bd 63 25 e2 bc 78 f2 4e bd
       -0.05952996 -0.0402695 -0.027605718 -0.050524205
0001e0 4a 50 45 3d 29 0c b3 3c ac 0f 42 3d 0a c6 7c bd
       0.048172273 0.021856384 0.047378227 -0.061712302
0001f0 5b 6c 2b 3c df f8 98 3c 32 98 47 3c e8 a2 81 b9
       0.010462846 0.018673358 0.012182282 -0.00024726172
000200 9a 8c cf 3d 10 a8 35 bd c5 a1 08 bd 96 40 5d bd
       0.101342395 -0.04434973 -0.0333574 -0.054016672
000210 b1 ca 1d bd d3 7b b4 3c 4c 2f 5e bd dc 53 7b 3c
       -0.03852338 0.0220317 -0.054244325 0.015339818
000220 e3 dd a3 bd d0 d8 e8 bc 6c 1b 36 bd 9d e3 45 3d
       -0.08001306 -0.028423697 -0.044459745 0.048312772
000230 d2 f7 d4 3c 9c 79 d7 ba 07 f5 26 3d 19 01 0e bd
       0.025997076 -0.0016439441 0.04076102 -0.034669016
000240 b3 01 2d 3c aa f8 58 bd 04 46 1a bd f0 22 64 bd
       0.010559487 -0.05297152 -0.03766443 -0.05569738
000250 7c da b8 3c 5a 3b 72 bb 3b da 98 bd 90 d0 c3 bc
       0.022565119 -0.0036961646 -0.07463499 -0.023903161
000260 a9 9e 88 bc 53 ce 48 3d 21 c7 52 bd 90 66 c8 3c
       -0.016677218 0.04902489 -0.051459435 0.024462968
000270 d4 1b 20 bd 76 eb 3c bd 30 a1 61 3c cb ce 7f 3d
       -0.03908904 -0.04612299 0.01377134 0.062453073
000280 76 b5 8b bb 0f 0f 45 3a 6a 26 36 be ad 2d 09 3d
       -0.004263575 0.00075171975 -0.17788091 0.033490825
000290 0d 98 13 bd bc 91 50 3d 3c f9 d7 3c 5a 62 3e bd
       -0.03603368 0.050920233 0.026363961 -0.046480514
0002a0 a3 cd f5 3c 57 59 e0 bc 92 90 e0 3b 39 46 39 3b
       0.030005282 -0.02738635 0.0068531716 0.0028270616
0002b0 88 b8 88 bc 5b 94 25 3c 0e 11 83 3d 36 43 a2 bc
       -0.016689554 0.0101061715 0.06399737 -0.01980744
0002c0 a0 59 1e bd 81 d3 36 bc 73 26 3f bd fd 35 f4 3a
       -0.03865969 -0.011158825 -0.046667527 0.0018631812
0002d0 7a 15 4a 3b 7a d7 c6 3c ab bd 87 3d aa b7 72 3d
       0.0030835555 0.02427267 0.06627973 0.059257187
0002e0 fd 34 04 ba ed 38 50 bc bf e6 22 3c 4b 6b c9 3c
       -0.0005043296 -0.012708885 0.0099427095 0.024587294
0002f0 6f 6f 3b bd 72 df e4 bc ac 23 0f bd 55 b3 5a 3d
       -0.04576057 -0.027938578 -0.03494613 0.05339368
000300 72 2e 0e 3d 4c 8e ad 3c 1b 87 28 bd f8 36 8d bd
       0.034712262 0.021186016 -0.04114447 -0.0689525
000310 28 a9 eb bc 52 20 81 bd 31 b4 f6 bc 62 72 ac 3c
       -0.028767183 -0.06304993 -0.030115219 0.021050636
000320 20 10 87 3d 3f 67 81 b9 a5 05 81 bd 86 0b 74 3d
       0.065948725 -0.00024681722 -0.06299905 0.059581302
000330 4a 06 41 bd cc e8 46 3d 0b c1 31 3d 74 1c e6 3c
       -0.04712514 0.048561856 0.04339699 0.02808974
000340 2a cd 0b 3d b9 1b f1 3c 48 9e b4 3c e3 c5 f3 bc
       0.034131207 0.029432165 0.02204813 -0.029757446
000350 c3 89 34 bd 29 ea 3d bd 77 bf 02 bd db a3 a8 bc
       -0.044076692 -0.04636589 -0.031920876 -0.020585945
000360 ac 49 00 bd cc f4 57 3d 74 dc 35 3d 13 d1 29 bd
       -0.03132026 0.05272369 0.044399694 -0.041459154
000370 be 09 4b 3a 1c 26 9e 3c 26 4a 14 3d 70 59 94 bb
       0.0007745287 0.019305281 0.036203526 -0.0045272633
000380 4e fa 65 bd ed 47 00 bd 19 b3 06 3d 35 b8 9a 39
       -0.056146912 -0.031318594 0.032885645 0.00029510414
000390 43 ab f8 3b f3 b3 f8 3c 93 75 83 3c 54 ab bb 3c
       0.0075887754 0.030359244 0.016047275 0.022908844
0003a0 93 38 51 3d d4 52 3a 3d 98 c4 7e bc 4c b6 05 3d
       0.051079344 0.045489147 -0.015549801 0.032644555
0003b0 89 25 ec 3c f0 44 8d 3c f9 4d 79 bd a1 83 da 3a
       0.028826492 0.017244786 -0.060865376 0.0016671309
0003c0 78 6e da b8 d3 30 93 bb c3 cd 05 3d e5 12 38 3d
       -0.000104156265 -0.0044919043 0.032666933 0.044939894
0003d0 2a 9b b1 bc d0 a4 77 3c 66 79 66 3d 7e 22 2b 3d
       -0.021680433 0.015114978 0.05626812 0.04178094
0003e0 d1 26 70 3c cf 9a 49 bb da 5a 8e bb 56 39 9b bd
       0.014657692 -0.003076244 -0.0043443264 -0.07579295
0003f0 1a c5 8b 3d d2 26 0e 3d 3c 83 f1 3b c7 9c ac 3c
       0.068247035 0.03470499 0.0073703807 0.021070851

net.2.bias f4 [256]
000000 0d 8f 3d 3d 42 52 78 bd b0 61 14 bd 7b 51 3c 3d
       0.046279002 -0.060625322 -0.036225975 0.045976143
000010 fc 46 06 bc 70 ff ec bd e8 9b 70 bc 1f 66 c6 bd
       -0.008195635 -0.11572158 -0.014685608 -0.09687447
000020 42 ab 43 3d c5 c1 3b bc 7e cc cd bc 2b 6e aa bc
       0.047770746 -0.0114597725 -0.025121924 -0.020804485
000030 ad 39 d1 3b 10 e4 70 3d 6c 1c 8b bd 94 2b a7 bc
       0.0063850493 0.058811247 -0.067925304 -0.020406522
000040 7f d3 16 3d a5 b7 36 bc de 04 cc 3a 9f ad f4 bc
       0.036822792 -0.011152183 0.0015565415 -0.029867945
000050 21 99 08 bd 2f 24 49 3c 39 90 72 bd 40 e0 b8 bd
       -0.03334916 0.012276693 -0.059219573 -0.09027147
000060 6c 29 df bc ee 88 ea bc 1c 86 0f bd 16 dc b3 bb
       -0.027241431 -0.028629746 -0.035040006 -0.005488883
000070 cf 2e 2e 3d 39 16 33 bd 66 e6 cc 3c 25 ea a4 bc
       0.04252511 -0.043722365 0.025012206 -0.02013118
000080 39 21 7a bd d0 4e 2d bb cb c7 3f bd 7f d8 90 3c
       -0.06106684 -0.002644468 -0.046821397 0.017681358
000090 0a ff 33 bc b1 b7 2a bb fa 9b 8e bc d6 bd e8 3b
       -0.010986099 -0.002604943 -0.01740836 0.0071027083
0000a0 87 5a 88 bd 5f ce 18 bd cf 4a 33 3d e6 e5 d4 bd
       -0.06657892 -0.037306186 0.043772515 -0.10395412
0000b0 39 c4 54 3c 95 be fd bc 34 6a 50 bd 59 9f f2 bb
       0.012986236 -0.030974666 -0.050882533 -0.0074042496
0000c0 38 5a ce bd 6c 4e fb bc 0f 26 8a 3c 15 17 b3 bd
       -0.100758016 -0.030677043 0.01686385 -0.08744637
0000d0 ce fb 23 bc a2 a7 df bd 5c 04 21 bd ba 38 41 3c
       -0.010008765 -0.10920645 -0.039310798 0.01179331
0000e0 96 4c a5 bd 53 39 57 bd d0 65 09 3d d0 10 29 bd
       -0.08071248 -0.052544903 0.03354436 -0.0412758
0000f0 d6 a4 8c 3d d8 4a 8b bd 46 72 86 bd bf 2f d4 bd
       0.068673775 -0.06801385 -0.06564765 -0.10360669
000100 3a 4a d9 bc 37 fe 96 3c 90 8b 34 3d 99 a7 b4 3c
       -0.026524652 0.018431766 0.04407841 0.022052573
000110 e4 ba 08 3b 06 7d 36 3d 89 e8 91 bc 1b 71 26 bd
       0.0020863349 0.044552825 -0.017811077 -0.04063521
000120 98 a4 bb bc 0a 2a ea 3b c8 88 8d 3c 95 b8 59 bd
       -0.022905633 0.0071461247 0.017277136 -0.053154547
000130 f4 53 c8 bd 39 4a 4c 3d e3 0b 82 3d 67 63 a7 3d
       -0.09781638 0.04987547 0.063499235 0.08173256
000140 8c a0 9b bd 1d 60 0a bc 18 b9 a9 bd 6c e4 18 3b
       -0.07598981 -0.008445767 -0.08287257 0.002332951
000150 cf 01 0f bd c1 c1 11 bb 77 11 34 bd 24 cb dc bc
       -0.034913834 -0.002224073 -0.04396197 -0.026952334
000160 4f 96 eb bd 57 47 be bd 90 ac cd bd de 54 7d bd
       -0.115032785 -0.09290951 -0.10042679 -0.061848514
000170 92 0e 9e bd 47 a9 3f 3d 96 fc 9e bd 69 35 72 3d
       -0.07717623 0.046792295 -0.07763021 0.059132967
000180 8f f7 40 3c 58 4b 87 3c 33 1e 08 3c cc 53 a9 bd
       0.011777773 0.016515419 0.008307981 -0.08267936
000190 fd 09 d8 bc b0 58 d1 bc c6 e7 06 bc 9a a3 3a bd
       -0.02637195 -0.025554985 -0.00823397 -0.04556618
0001a0 57 45 02 bd fa 82 2b bd 84 0e 84 3d 51 61 82 bd
       -0.03180441 -0.041872956 0.06448081 -0.06366218
0001b0 98 e5 e6 bd 05 c9 a7 3c 76 ed 1f bd 7c a3 71 bd
       -0.1127426 0.020481596 -0.03904482 -0.0589938
0001c0 95 7c c3 3c a9 9b cd bd 33 92 1f bd 24 27 e5 bc
       0.023863116 -0.100394554 -0.038957786 -0.027972765
0001d0 f3 9c 56 3d 1c f1 d1 bd 16 ae 38 3d 1f 1d e2 3c
       0.052395772 -0.10251066 0.045087896 0.027601777
0001e0 76 97 05 3c 25 cb a1 bc ef d0 65 bd 1b 37 17 3d
       0.008153787 -0.019750187 -0.056107458 0.036917787
0001f0 55 c8 14 3d a2 87 ca 3c 64 ef 9a bd 88 25 c0 bd
       0.036323864 0.024722878 -0.075651914 -0.093821585
000200 26 61 27 3d 46 3d 49 3c 29 99 c8 bd b4 7c c6 bc
       0.040864132 0.012282675 -0.09794838 -0.024229385
000210 8d aa 77 bd 9c 6a 30 bd c4 b3 41 bd 49 61 94 3c
       -0.060465384 -0.04307042 -0.04729058 0.018112795
000220 13 a1 b9 bd 95 d0 d1 bc ce 3c 9c bb 70 53 45 3c
       -0.090639256 -0.025612155 -0.0047679907 0.012043819
000230 4e 88 58 3d 53 3f 1b bd 00 f6 52 3d e7 31 3f 3d
       0.052864365 -0.037902188 0.051504135 0.04667845
000240 fa de 9e 3d 21 52 78 bd 63 88 bc bd e9 2b 6b 3b
       0.07757373 -0.0606252 -0.09205701 0.0035884327
000250 13 49 25 bc a9 3e 0c bd df 73 b4 3c df 70 14 bd
       -0.010088223 -0.034239445 0.022027908 -0.036240455
000260 ad b2 5b bb 51 ac a1 bc 61 12 69 3d 4f fa ad bc
       -0.0033523247 -0.019735487 0.056902293 -0.02123752
000270 87 c9 39 bd a4 b6 d9 bd 74 d4 31 bd 9f e0 93 3d
       -0.045358207 -0.10630539 -0.0434155 0.072205774
000280 35 21 5c 3d b6 fd 63 3d 2d 5a 69 3d 63 3a c1 bd
       0.053742606 0.05566188 0.056970764 -0.094349645
000290 96 4d 51 bd 62 53 b1 bc f2 f4 c4 bd af e4 d9 bc
       -0.051099382 -0.021646205 -0.09617032 -0.026598303
0002a0 91 b1 88 3d 02 b5 d1 bb bf 7b 16 bd db a5 ad bc
       0.06674493 -0.0063997516 -0.036739107 -0.02119725
0002b0 b1 05 9b ba 73 5a 88 bd 15 80 0c bd e5 08 e7 bd
       -0.0011827258 -0.06657877 -0.034301836 -0.11280993
0002c0 af 84 cb bc f5 70 2f bd f0 a4 9c bc 12 41 ed 3b
       -0.024843542 -0.042832334 -0.019121617 0.007240423
0002d0 a4 cf 32 bd 57 24 9e bd bd 83 bb 3c d4 5b e3 ba
       -0.043655053 -0.07721775 0.022889966 -0.0017346092
0002e0 bd aa 98 bd 0d df 38 bd 5e 39 3f bd 62 8a 5c bd
       -0.07454441 -0.045134593 -0.04668557 -0.05384291
0002f0 11 2e 0c 3d d3 22 bd bc c5 73 ad 3c d9 c7 70 3d
       0.03422362 -0.023087895 0.021173367 0.05878434
000300 28 6a b7 3c 5e 00 38 3d e2 50 0a bd 5e 88 bb 3c
       0.022389486 0.044922225 -0.033768542 0.022892173
000310 ec 4c 3b bd 71 2e b8 bb 57 b1 7e 3d 64 b0 91 bd
       -0.045727655 -0.0056207706 0.062180843 -0.07113722
000320 fd ea 11 bc da 4e bc bd 56 2f 49 bc 43 73 5a bd
       -0.008906123 -0.09194727 -0.012279352 -0.05333258
000330 63 19 80 3d f0 7a d2 ba be 07 cb bd ba 5c 29 bc
       0.06254842 -0.0016058367 -0.09913586 -0.010337049
000340 5a 0b f8 bc 33 2d f2 3c 0f a5 9c bd a5 f1 a3 bc
       -0.03027885 0.029562568 -0.0764867 -0.020012686
000350 21 f2 de bd 25 8a 91 3a ea 16 64 3d 6a bd 1c bd
       -0.10886026 0.0011103792 0.055685915 -0.038266577
000360 b0 75 8c bd b8 ca 4c bd b5 4b 5f bd c5 fb 73 3c
       -0.068583846 -0.049998015 -0.05451556 0.0148915695
000370 54 44 84 3b 55 18 b1 3c 90 e9 84 3d c3 1a 96 3d
       0.0040364657 0.021618048 0.06489861 0.07329323
000380 d4 0d 53 bc e4 9f b0 3c 5a a4 30 3d 13 e0 0f 3d
       -0.012881715 0.021560617 0.043125488 0.035125803
000390 e6 7d 90 bd ac b5 b3 bd 32 3b b7 3b b4 8f 76 bd
       -0.07055263 -0.087748855 0.0055917734 -0.06019564
0003a0 a9 33 ee bd 2e 68 e6 bd e4 47 90 bd 0d 6c ee bd
       -0.11630947 -0.112503394 -0.07044962 -0.11641703
0003b0 7d 8d a0 bb ab 70 fc bc ac 11 80 bd e4 95 57 bb
       -0.004899679 -0.030815443 -0.06253371 -0.0032895738
0003c0 03 2d 7a 3c 15 70 ac bd 83 b5 0f bd c2 a4 7a 3d
       0.015269521 -0.084198155 -0.035085212 0.06119228
0003d0 35 cb 8d bc 7c cc ea bd 38 84 38 3c a4 a2 b1 bc
       -0.01730881 -0.114647835 0.011261992 -0.021683998
0003e0 09 a4 66 ba 42 8f 83 bc f6 86 7c bd 89 04 cb bc
       -0.0008798247 -0.016059522 -0.061652146 -0.024782436
0003f0 5f 2d 9b bc 1f 8f b2 bd de 20 07 3d d1 0e 08 bc
       -0.018942533 -0.087187044 0.03299033 -0.008304314

net.4.weight f4 [256, 256]
000000 40 c9 15 3d 27 61 16 bc b4 65 5d bd 39 f1 88 bd
       0.03656888 -0.009178436 -0.05405207 -0.066866346
000010 1e 07 9e ba 64 26 12 3d e3 2e 1f 3d fe 3b a2 3c
       -0.0012056564 0.035681143 0.038863074 0.019803997
000020 8f 25 e9 3c c5 36 6a 3d 3f 7d fe bc 35 c5 6a 3b
       0.028460292 0.05718114 -0.031065581 0.003582311
000030 f5 79 10 bd e3 3e 9a bc d6 77 8e bc d9 ae 98 3c
       -0.035272557 -0.018828815 -0.017391127 0.018638061
000040 6a 6e 6a 3c 9c 14 6a 3b d3 ea 6a 3d d5 9e be bc
       0.014308551 0.003571785 0.057352852 -0.023269096
000050 0f d9 39 bd dd c0 d6 3c 44 9f 9b bc af 82 51 bb
       -0.04537302 0.026215011 -0.018996842 -0.0031968763
000060 f7 5b c6 3c 9d c3 cd 3c 92 18 e3 3c c3 76 a5 3c
       0.024213774 0.02511769 0.027721677 0.020198232
000070 85 04 62 3c 47 1b 88 bc c9 61 10 3d bc b7 de bb
       0.013795023 -0.01661457 0.035249505 -0.006796805
000080 8f 15 19 bd e8 85 47 3b 34 69 7d bd 3c 48 27 bc
       -0.037374076 0.0030444805 -0.061867908 -0.010210093
000090 54 10 95 bc 28 ed 3b bd 9e 00 8d 3c f2 3d ee 3c
       -0.018196262 -0.045880467 0.017212208 0.029082272
0000a0 61 bd 49 3d 58 81 33 3d 26 ea 30 bd 0b ed 7d bd
       0.04925287 0.043824524 -0.04319205 -0.06199364
0000b0 4c 1b 18 bd 42 56 a1 3c 65 e6 eb bc 3e 4f bb bc
       -0.037135407 0.019694451 -0.028796384 -0.022864934
0000c0 42 dc 42 3d a8 0b 34 3d 53 13 56 3c db 2e 35 bd
       0.047573335 0.04395643 0.013066131 -0.044234138
0000d0 fd 77 d5 bb 10 13 5e bc 86 ae 4d 3d b4 e7 93 bc
       -0.006514548 -0.01355435 0.050215267 -0.01805482
0000e0 33 f4 5c 3d 23 43 5c bc 8f a7 3e bd 80 23 10 3d
       0.053943824 -0.013443741 -0.046546515 0.035190105
0000f0 2b cf 2a 3d 04 bf 19 3d a0 3f c2 b9 da c9 66 3d
       0.041701477 0.037535682 -0.00037049968 0.056344844
000100 2f e4 99 bc a3 da a0 bd 78 73 8b bc 9a a5 02 bc
       -0.018785564 -0.07854202 -0.017022833 -0.007974053
000110 2f 1a 07 3a d4 f2 d0 3c 4a fa 96 bc 7e cf 2d 3c
       0.0005153743 0.025506414 -0.018429894 0.010608552
000120 e1 e1 3b 3d b8 28 16 bd a5 07 10 bb f4 56 0e bd
       0.04586971 -0.036659926 -0.0021977213 -0.034750894
000130 72 ec 85 bd 09 55 41 3d fd 9f 5e 3d 6d bf ab 3c
       -0.06539239 0.047200236 0.054351795 0.020965302
000140 ee 2c 5a bc 02 3f 0c bc 4d b1 3d 3d bd fa 11 bc
       -0.013316376 -0.008559944 0.046311665 -0.008909878
000150 84 b0 75 bd 4a 31 da bc ed 7a 7d 3d c0 b3 e8 bc
       -0.05998279 -0.026634831 0.06188481 -0.028406024
000160 f3 02 57 3d c6 78 28 3d db 1b 42 bd 64 2e 4c 3d
       0.052493047 0.041130804 -0.047389846 0.04984893
000170 77 62 92 3b 92 dc 26 3c e9 f9 41 bd c2 7d 89 bc
       0.0044673043 0.010184424 -0.047357474 -0.016783599
000180 ee 67 c8 3c 6e a8 f7 bc 1c c6 fa bc ab 91 2d bc
       0.02446362 -0.03023168 -0.030612044 -0.010593812
000190 fb 87 75 3c 46 94 10 bd ef 48 0e 3d 42 94 9a bc
       0.014986034 -0.035297655 0.034737524 -0.018869523
0001a0 e9 3f 54 3c 52 6d 1d 3d b7 2f 89 bc c1 71 56 3c
       0.0129546905 0.038434334 -0.016746385 0.0130886445
0001b0 bd 55 7a bd 90 c3 34 3d d8 c7 6c bc 65 90 eb 3c
       -0.061116923 0.044131815 -0.014451943 0.028755376
0001c0 d4 db 45 bd 6c 3d 2e bd d8 7c 39 3d 3e f9 1c bd
       -0.048305348 -0.042539045 0.045285076 -0.038323633
0001d0 3a 0f e0 3c ea 55 40 3d 7f be 23 3d 39 02 90 3b
       0.02735101 0.046956934 0.039976593 0.004394796
0001e0 1f 9a 49 3d 45 b5 37 3c 72 42 41 bd bf 91 91 3c
       0.049219247 0.011212652 -0.047182508 0.017769692
0001f0 e7 1e 29 bd 7b ae b2 3c 58 86 d6 3a 40 66 00 3d
       -0.041289236 0.021811714 0.0016366942 0.031347513
000200 40 44 1c bd 54 96 2c bd 8b 06 6d bb b4 62 b9 bc
       -0.038151026 -0.04213555 -0.003616723 -0.022630073
000210 c9 fc ac 3a de 79 68 3a 05 81 a4 3c d6 42 81 3a
       0.0013197894 0.0008868257 0.020081053 0.0009861838
000220 61 97 a7 bc 44 89 7a 3c c2 2e 1b bd e6 ae 36 bd
       -0.020457925 0.015291516 -0.03788639 -0.04460039
000230 af 30 93 bd a1 5b 54 3c 01 4d 3d bd 0a 98 1e bd
       -0.0718702 0.012961299 -0.046216015 -0.038719214
000240 e8 78 b3 bc 00 59 46 bb a1 05 04 bd 66 f1 61 bb
       -0.021908239 -0.003026545 -0.03223193 -0.003447616
000250 da 76 49 bd bc 2c af 3c bb db 04 3d b3 bb f4 3c
       -0.04918561 0.021383636 0.032436114 0.029874658
000260 ea 2b 69 bb 9d ac 5b bc b5 63 f5 bb 1f 9f 2e 3d
       -0.0035579153 -0.013407853 -0.0074886926 0.04263222
000270 7b 88 82 3c b7 1c 5a bc 07 28 10 bd cf b1 ce bc
       0.01593422 -0.01331251 -0.035194423 -0.02523127
000280 18 c1 9d 3c c5 29 43 3c 38 41 d9 3b fb 31 2a bd
       0.019257113 0.011911814 0.006630089 -0.04155157
000290 62 11 47 bc e0 4f ea 3c 45 ee 54 bd 3c 01 85 bc
       -0.0121501405 0.02860254 -0.051985044 -0.01623594
0002a0 bd 2d 49 3d 2f 6c 83 bc f7 c0 3b bd 0d 9c b6 3c
       0.049115885 -0.016042797 -0.045838322 0.022291208
0002b0 f4 a6 e0 bc 99 40 0a 3d af 85 8c 3b 92 1f 35 bc
       -0.02742336 0.03375301 0.0042883973 -0.01105489
0002c0 ef 4e 44 3d 83 c8 34 bd ff 42 5f bd 7f e4 07 bc
       0.04792684 -0.044136535 -0.05450725 -0.008294224
0002d0 25 f1 30 bd ed 11 78 bd 30 4a 10 bd 12 57 a8 bc
       -0.043198723 -0.06056397 -0.035227 -0.02054933
0002e0 3f 86 15 bd 86 72 c8 bc fc 5d 11 3d 84 17 20 bd
       -0.03650498 -0.024468672 0.03549002 -0.039084926
0002f0 ad a2 d5 bb 8b 64 06 bd 48 18 9b bc c9 80 06 bd
       -0.0065196366 -0.03281073 -0.018932477 -0.032837663
000300 bf 4c aa bc 9a 3d 38 bd 41 c4 80 bd 84 5a 51 3d
       -0.020788549 -0.044980623 -0.062874325 0.051111713
000310 e9 90 06 bd fd 84 1f 3c 07 9e 0f 3d d1 18 4e 3c
       -0.03285304 0.009736297 0.035062816 0.012579159
000320 2a 43 30 3d a3 09 06 3c 4e 2a 7c 3c e8 cf 6c 3d
       0.043032803 0.0081810085 0.015390946 0.057815462
000330 ff 2e 3d 3c 08 61 db 3c 27 bc 92 bb d3 3d db 3c
       0.011546849 0.026779667 -0.004477996 0.026762879
000340 26 0d 53 3d 09 e4 df ba 1d da b7 bc 9f 12 68 3d
       0.05152621 -0.001708151 -0.022442872 0.056658383
000350 e1 70 d6 3b c5 72 fd 3c a8 17 80 3c 8c 92 3a bd
       0.006544218 0.030938515 0.01563628 -0.045549914
000360 77 63 3f 3d 3b 4f 19 bd 38 a8 23 3c a6 70 0d bd
       0.046725716 -0.037429076 0.009988837 -0.034531258
000370 96 ce 98 3c aa e9 d9 3c 4b b7 f2 3a 88 24 f1 bc
       0.018653195 0.026600678 0.001851776 -0.029436365
000380 9f b0 2c ba fa 5c 9c 3c d8 e8 f5 3c ac ed 57 3d
       -0.0006587598 0.019087303 0.030018255 0.052716896
000390 58 01 90 bd 1c b0 09 3d 91 c8 ab 3c 8e 66 eb bc
       -0.07031506 0.033615217 0.020969661 -0.028735425
0003a0 1f e8 2f 3c 3f cc e3 bb b4 5d 45 bd 27 b3 0c bd
       0.010736494 -0.0069518383 -0.048185065 -0.03435054
0003b0 22 0a 65 bc 2d 46 e0 bb 6a c4 cf 3c b1 54 ed bb
       -0.013979467 -0.006844303 0.025362212 -0.007242762
0003c0 a2 2f bb bc da 19 07 bd 8f cd c3 3c 69 fa aa 3c
       -0.022849862 -0.03298364 0.023901729 0.020871358
0003d0 c8 e9 cb 3c d6 65 3b 3c 4d 4f 77 bd c4 e3 68 3d
       0.024891749 0.011437854 -0.06037836 0.05685784
0003e0 6f 78 ef 3c 59 ca 4b 3b 09 c2 15 3d d2 fe b9 bc
       0.029232232 0.003109595 0.036562 -0.022704516
0003f0 69 e6 ee bc a6 27 b6 3c ba 9f 3c 3d be f4 d4 bb
       -0.029162602 0.022235703 0.046050765 -0.006498902

net.4.bias f4 [256]
000000 eb 2d 35 bd e2 be 15 bd 3f 18 50 bd d6 78 86 bc
       -0.044233244 -0.036558993 -0.050804373 -0.016415041
000010 99 20 0d bd 9e 3d 93 3d f9 3e 99 bd 54 69 2e 3b
       -0.034454916 0.07189487 -0.07482714 0.0026613073
000020 54 85 3a bd 42 4e c0 3c 8d 62 1c bd 93 f6 47 3c
       -0.045537308 0.023474816 -0.038179923 0.012204784
000030 ba 3f fb bb 2a eb 16 3c f8 58 1c 3d 45 8f 75 3d
       -0.007667509 0.009211341 0.038170785 0.059951086
000040 04 fd 86 bd 7f bd 83 3c 77 81 2f 3d 15 f8 30 bd
       -0.06591228 0.01608157 0.042848077 -0.04320534
000050 4f c4 4f bc 8c 3e 5f bb 6a 63 dc bc c4 30 42 3d
       -0.012681081 -0.003406438 -0.026902873 0.047409788
000060 7a 3e 35 bc 01 f6 af bd ee ce e1 3c ca dd 27 3d
       -0.011062259 -0.085918434 0.027564492 0.040983
000070 93 c6 56 bd 7c fd 6a 3d ac 5b 11 3d 01 47 be 3c
       -0.05243547 0.057370648 0.035487816 0.023227217
000080 7b 60 26 3d d8 a8 d1 3b 3b c9 2f bd 95 e0 0b bd
       0.040619355 0.0063983016 -0.042916518 -0.034149725
000090 d4 bf 07 3d 56 90 9f 3c a5 1c 90 3c f4 9f 1d bd
       0.033141926 0.019478004 0.017591784 -0.03848262
0000a0 bc 63 d9 bb ed 1d 8c bd e8 7d 88 3d c6 85 1a bd
       -0.0066342037 -0.068416454 0.0666464 -0.037725233
0000b0 27 f0 87 bd c7 dd 90 bd 21 1e f3 bc b8 d9 9e bc
       -0.06637602 -0.07073551 -0.029677453 -0.019390926
0000c0 5b 0b b2 bd 40 2b d0 3c 68 63 b0 bd 4e 00 86 bc
       -0.08693572 0.025411248 -0.0861271 -0.016357567
0000d0 bf 15 25 bd 47 19 52 bc e2 54 88 bd 86 e4 83 3d
       -0.04030394 -0.012823409 -0.06656815 0.06440072
0000e0 e4 5b 36 bd a1 6f 15 3c 53 ce d3 3c 68 5a 6a 3d
       -0.044521227 0.009120853 0.025855219 0.057215124
0000f0 1d 0e cf ba ea 64 7b bb 88 44 0a bc c1 1e 80 3d
       -0.0015797053 -0.003835971 -0.008439191 0.06255866
000100 26 92 5e 3d bd 25 50 3d 43 92 05 3c 50 72 71 3d
       0.054338597 0.05081724 0.008152547 0.058946908
000110 b1 f6 55 3c 48 d9 fe bb 98 c2 71 bd f3 c7 45 bd
       0.013059304 -0.007777367 -0.05902347 -0.04828639
000120 1e 38 f0 3c 81 c3 6b 3d c4 46 13 bd 68 87 07 3d
       0.029323634 0.057559494 -0.03595616 0.033088118
000130 de 25 3e bd 9a f6 58 bb eb 8c 81 bc c0 fb 9e bb
       -0.04642283 -0.003310597 -0.015814265 -0.0048517883
000140 82 36 f2 bb 3d fb a4 bc d1 d0 fd 3a 14 c2 88 ba
       -0.0073917517 -0.020139331 0.00193646 -0.0010433816
000150 6a f7 33 bd 35 d4 6b bd 7b 07 8f bd 1b 47 dd 3c
       -0.043937124 -0.057575423 -0.06983849 0.027011445
000160 e8 d7 69 bb 95 c8 9d bc 1a 24 fd 3c f4 1f 41 bd
       -0.0035681669 -0.019260684 0.030901004 -0.047149613
000170 ce e6 7d bd c8 61 e4 bc 70 2d 42 bc 82 fb 08 3d
       -0.06198769 -0.027878657 -0.011851653 0.03344298
000180 97 74 0d 3d d5 22 ef 3c 9d ae e1 bc 03 e1 a2 bc
       0.034535017 0.029191414 -0.027549082 -0.019882685
000190 c5 ee cd bc 54 68 f1 3c 9b 57 8a 3d 65 d5 02 bc
       -0.025138268 0.029468693 0.06754991 -0.0079854475
0001a0 7b 59 d0 3c ed c1 83 bb bd 5c f7 bc d3 e1 a6 bc
       0.025433293 -0.0040209205 -0.030195588 -0.020371353
0001b0 8c 6a 7a bc 9a f5 50 3d 20 a2 13 bd 3b 4c 2d bd
       -0.015284192 0.051015474 -0.036043286 -0.042309027
0001c0 a3 03 34 bd 15 e5 2b bd 46 41 e5 bc de 87 0f 3d
       -0.04394878 -0.041966517 -0.027985226 0.035041682
0001d0 4d 56 f1 3c 3b 99 78 3d 5d 40 72 3d fc 0a 7e bc
       0.029460097 0.060693007 0.059143413 -0.015505549
0001e0 ed b0 8b 3c 7e 0a b6 bd 37 05 a0 3c 3a 1d 22 bc
       0.017052138 -0.0888872 0.019533737 -0.0098946635
0001f0 f5 6b 12 bd 8a 24 9c bd ec be 22 bd 53 e0 03 bd
       -0.035747487 -0.07624157 -0.03973286 -0.032196354
000200 bb 9a 3b bd 7a 0c 3a bd be 2b 91 bc a9 41 61 3c
       -0.04580186 -0.045422055 -0.017721053 0.013748565
000210 db 17 3e bd a0 de 86 bc ad 16 b0 bc bc 53 85 3b
       -0.04640947 -0.016463578 -0.021495188 0.00406882
000220 4b dc cd bc 3a 00 8e bd 22 2d 03 bc 7d 5b 0b bd
       -0.025129458 -0.06933637 -0.008006366 -0.034022797
000230 c7 fc 0e 3d 59 a1 15 3d 3f 98 0b bc 1f 58 ef bb
       0.034909036 0.036530826 -0.008520185 -0.007304206
000240 aa c9 32 bd 48 1a c6 3c e7 88 18 bd bd a1 41 bd
       -0.043649353 0.024182454 -0.037239935 -0.047273386
000250 03 e7 a2 bd 39 21 82 3c 01 9d c6 bb 8f 2e 5b 3d
       -0.07954218 0.015884982 -0.006061197 0.0535112
000260 0e a3 76 bd ec 35 ac bd 31 7f 51 bd 82 28 c8 bd
       -0.060214095 -0.08408722 -0.05114669 -0.09773351
000270 26 7c 7a bd 9a ff 0e 3c cd b8 81 3b 7a 1d 9b bd
       -0.061153553 0.008727932 0.0039587975 -0.075739816
000280 e5 a5 b3 3c 48 04 b0 3c 1d bc 6f 3b 0c 57 55 3c
       0.02192969 0.021486416 0.003658063 0.013021242
000290 3a 86 b5 3c 2a 07 37 bd 27 02 69 3d 5f bf 24 3c
       0.02215873 -0.044684567 0.05688682 0.010055392
0002a0 2f cd 8f bd b9 7e 18 3d a9 33 81 3c b7 40 7f bd
       -0.070215575 0.037230227 0.015771704 -0.062317576
0002b0 10 a7 87 bd ee 0a 11 3d 31 a3 75 bd b3 04 46 38
       -0.066236615 0.035410814 -0.059970085 4.7211255e-05
0002c0 fb 74 5d 3d ff 30 87 bc 96 28 f4 bb 99 5f 42 3d
       0.05406664 -0.016502855 -0.0074511273 0.04745445
0002d0 fb 13 41 bd a7 63 63 bc 88 f4 03 bc 94 77 50 bd
       -0.047138195 -0.013878739 -0.008053906 -0.05089529
0002e0 fa 6c a3 bc 31 53 0c bd 2b 52 5f bd 98 6d 23 bd
       -0.019949425 -0.034259025 -0.05452172 -0.03989944
0002f0 ae 9d 2e bd b4 16 e2 3c bf e7 28 3d cb f4 2c bc
       -0.042630844 0.027598716 0.041236635 -0.01055641
000300 31 c4 45 bd b1 7b 27 bd 57 25 14 3c 51 79 8a 3c
       -0.048282806 -0.040889446 0.009042106 0.016903551
000310 b9 ac 2c bd 19 27 c7 bc b5 bf 82 3d e5 2d 67 bc
       -0.04215691 -0.024310635 0.063842215 -0.014110063
000320 a1 fb bf 3c c7 50 83 3c d9 e9 95 bd e0 49 a2 3c
       0.023435416 0.016029729 -0.073199935 0.019810617
000330 3c 23 36 bd c7 ff d8 bc 19 2a e3 bc 38 32 28 3c
       -0.044467196 -0.026489152 -0.027730035 0.010265879
000340 83 5b ab bc 0c aa a7 bd 0b d1 1b 3d 5b 38 ab bb
       -0.02091766 -0.08186731 0.038041156 -0.005225224
000350 8f 1b 54 bd be 21 ac bc 13 56 c5 bc b5 58 59 bd
       -0.051784094 -0.021012183 -0.024088895 -0.053063113
000360 96 c0 54 3c 19 38 b2 3c bd 0d f3 bc 7c 12 16 bd
       0.012985369 0.021755265 -0.029669637 -0.03663872
000370 4e 50 a3 bd 7d 2e 65 bd 66 25 57 3d a6 ca 2c bd
       -0.07974301 -0.055952538 0.0525259 -0.042185448
000380 d7 0d 12 3d d3 0d 0b bc 7b 4c 25 3d af 08 3c bc
       0.03565773 -0.008487183 0.04035614 -0.01147668
000390 87 f3 7e bd dd 2f 17 3b 1d e8 10 3d 59 5c 60 3c
       -0.062243965 0.00230693 0.03537761 0.013693892
0003a0 6b 4f 4c bd c8 cc 52 bd a5 b8 38 3b 4d e3 f1 3c
       -0.049880426 -0.051464826 0.0028186229 0.02952733
0003b0 5f f8 a0 bc 83 23 69 bd 69 07 ab bb 20 6d de 3b
       -0.019649683 -0.056918632 -0.005219389 0.006787911
0003c0 80 ee 30 bd fc da d2 bb 40 b6 6b 3d c1 3a 32 3d
       -0.0431962 -0.0064347964 0.057546854 0.043513063
0003d0 f9 df 1b 3d 63 29 18 3b 50 07 df bc 13 0d 53 bd
       0.038055394 0.0023218028 -0.027225167 -0.05152614
0003e0 95 ef 77 bd a9 f2 12 bc da 66 56 bd ec ed 0d bd
       -0.060531218 -0.0089689875 -0.05234418 -0.034650728
0003f0 13 50 56 bd 7a 9d 47 3d 2a a8 b5 bd ac 9d 2b bd
       -0.05232246 0.048734166 -0.088699654 -0.041898414

net.6.weight f4 [2, 256]
000000 25 cc 88 b9 4f 7b a2 bb 1b a1 8e 3d 87 33 9c bb
       -0.0002609204 -0.004958547 0.06964322 -0.0047668847
000010 6f ab 4b ba 01 da 0c bd c2 c1 9b 3d 28 17 da b7
       -0.0007769381 -0.034387592 0.07605316 -2.5998408e-05
000020 b8 b6 b6 bc 31 6b e2 3d 7c 41 d7 3a 87 75 b0 3d
       -0.022303924 0.110556014 0.0016422714 0.086161666
000030 76 6d 8e 3d 6c cb e7 3d ad 6a 82 bc fe ea 65 bd
       0.06954472 0.113180965 -0.015920008 -0.05613231
000040 95 c5 cd 3d 17 9f 27 b9 d1 47 a0 ba 10 5d f9 b6
       0.100474514 -0.00015985627 -0.0012228434 -7.431612e-06
000050 c0 96 5e 3a 9c 7a ed ba 66 b1 2a 3a b3 86 a0 b9
       0.00084910914 -0.0018118205 0.000651142 -0.00030617937
000060 e4 c5 e2 3d b3 bc 04 3e 7c 04 08 bb 5f 68 20 ba
       0.11072901 0.12962608 -0.0020754626 -0.0006119068
000070 59 15 bf 3d 4f 21 8b b9 c6 af e3 3d 78 0d a3 3d
       0.093302436 -0.00026536963 0.111175105 0.07961553
000080 ea 90 43 39 45 70 38 b8 cb f8 3c bb 94 dd 0a 3d
       0.00018650634 -4.3973578e-05 -0.0028834816 0.03390272
000090 d8 85 16 38 ed 8f 6c b7 39 7f eb 3d 7a 39 b0 3d
       3.588744e-05 -1.41002065e-05 0.11498875 0.08604713
0000a0 f0 b6 ea 3d 36 e8 cd 3d 46 fa fd b9 9f 04 ed 3d
       0.11460674 0.10054056 -0.0004844239 0.11573147
0000b0 c8 17 7b ba 56 0b b3 3d c8 43 af 3a 40 fe 0f b9
       -0.0009578434 0.087423965 0.0013371641 -0.00013732258
0000c0 45 ce 89 3d e3 b0 ca 3d 45 f5 9b 3d 74 b7 fa 3d
       0.06728796 0.0989702 0.07615141 0.12242022
0000d0 d3 fe fe 39 56 28 a9 3d 4b 6c a0 3b 9f 37 ba 3a
       0.00048636514 0.082596466 0.004895722 0.001420725
0000e0 61 01 fa bc e5 9b 8c ba dd ac 33 3d f7 60 46 3a
       -0.030518236 -0.0010727613 0.043866027 0.00075675495
0000f0 f7 c7 98 3d e5 2f 45 bd 17 06 ce 3d ae e2 b1 b9
       0.07460015 -0.04814138 0.10059755 -0.0003392896
000100 46 57 f7 39 4d 1d dc 3a f4 28 77 ba b4 dc 7f 3a
       0.00047176535 0.00167934 -0.0009428405 0.00097603654
000110 59 57 b1 3d 12 ec cf 3d ae 6b ce 3d e5 33 a5 ba
       0.08659238 0.10152449 0.10079132 -0.0012603967
000120 7c 77 b5 3d 36 e6 33 bc 73 84 9c 3d 16 e6 70 3c
       0.088606805 -0.0109801795 0.0764245 0.014703294
000130 8d 13 ff 3d 05 41 58 bc ad ed da 3d 19 4d 04 bc
       0.12454901 -0.013199096 0.10689864 -0.008075022
000140 e6 4c 15 bd ca ee 83 39 77 96 d9 3d b6 7f 74 39
       -0.03645029 0.0002516418 0.10624402 0.0002331723
000150 c0 cf ed b6 0e 14 43 bc e4 e9 d1 3d af f2 ba ba
       -7.0873357e-06 -0.011906637 0.10249689 -0.0014262999
000160 24 6e 59 3b 4e b7 aa b9 9c 22 ff 3d 8f e5 b4 3d
       0.0033177221 -0.000325615 0.12457773 0.08832847
000170 b0 76 bb 3d 60 6f 99 ba ba bc 0f ba 48 bf a2 ba
       0.09153497 -0.0011706166 -0.00054831395 -0.0012416625
000180 23 33 f5 3d d0 e6 9b bb 49 70 1d ba 5f 59 c2 bb
       0.11972644 -0.0047577396 -0.00060058065 -0.005931064
000190 e5 de 32 b9 e0 e7 35 ba 27 ef 8e ba cf 07 b0 3d
       -0.00017058438 -0.0006939154 -0.0010905013 0.08595239
0001a0 c8 66 1d 3a 38 8b ee ba 58 7a e2 3d 7c 48 9a b9
       0.00060043903 -0.0018199449 0.110584915 -0.00029427174
0001b0 59 1a cc 3d d9 54 f4 b9 ef 89 c2 3d 9a 0a f8 3d
       0.09965963 -0.00046602523 0.09498965 0.12111397
0001c0 2e ad 9c 3a 4c 8b 8b 3d ca 85 96 3b da c6 f1 bb
       0.0011953467 0.06813678 0.0045935856 -0.0073784413
0001d0 c9 ca 4d bd 47 db 02 bc 44 0c 90 39 e1 7c 9f 3d
       -0.05024222 -0.00798685 0.0002747496 0.07787491
0001e0 e2 67 b2 3d bc df f1 3d 69 e9 ae 3d 40 24 a8 37
       0.0871122 0.11810252 0.08540613 2.004404e-05
0001f0 3d 8e f3 3d 1c b7 f9 3d 08 a7 c4 3d 2e 97 d9 3d
       0.11892364 0.121931285 0.09602171 0.10624538
000200 7b ab c3 3d 56 c3 7b ba e6 02 ff 39 01 5b dc 3d
       0.09554192 -0.00096039975 0.0004863955 0.10759545
000210 a0 fd 50 3a 70 b6 9a 3d 9b 26 cb 3d 10 55 72 bb
       0.00079723634 0.075543284 0.09919473 -0.003697697
000220 db 80 2d 3d 4d 7a cb 3d aa ab 79 bc a4 3a 63 b8
       0.042359214 0.099354364 -0.015238682 -5.417563e-05
000230 c7 a8 00 bd 06 26 a4 bb 86 1a d1 3d 3c 28 42 3a
       -0.03141096 -0.0050094156 0.10210137 0.0007406508
000240 91 65 2a ba 4e d1 c1 b9 5a 1b 87 bc 87 e0 b7 3d
       -0.000650012 -0.00036967773 -0.016492534 0.08978372
000250 45 c9 bb 3d 51 bb da 3d 35 a9 9c 3a ae b4 40 3a
       0.091692485 0.10680259 0.0011952283 0.0007351142
000260 a3 d9 7a 3d 40 e5 fb 3d bc 53 ed 37 ba 85 a8 3c
       0.06124271 0.12299585 2.8291593e-05 0.020571578
000270 a0 f0 e8 3d ba 1b 1f 3a 00 02 0c ba 2a 1f a5 3d
       0.113740206 0.00060695 -0.0005340874 0.08062585
000280 09 2d 9a 3d 35 ce 99 b9 5b 32 27 ba 73 96 30 bd
       0.07528121 -0.0002933607 -0.0006378048 -0.04311223
000290 c9 ac e9 3d 84 f4 9f 3a df 47 18 ba a0 f7 62 ba
       0.11409909 0.0012203609 -0.00058090495 -0.0008658115
0002a0 91 d3 9d 3d 7c ae d1 ba 5d de ea 39 34 e2 b1 ba
       0.07706369 -0.0015997435 0.00044797632 -0.0013571442
0002b0 5c 78 e6 3d ee 7c 9d 3a 22 ff ab 3b 54 ca f1 3d
       0.112534255 0.0012015381 0.00524892 0.11806169
0002c0 06 95 03 ba e0 c1 77 b8 93 06 1c ba cc 9a 0f ba
       -0.00050194596 -5.906995e-05 -0.00059519074 -0.00054780836
0002d0 8e fb ea 3d ea 73 9e ba ff f5 92 3d 89 9f 6b ba
       0.114737615 -0.0012088988 0.07175826 -0.0008988311
0002e0 d0 ea 01 ba aa 9b 60 3a 94 0e c8 3d 63 8b ce bb
       -0.0004955949 0.00085681176 0.097684056 -0.0063032373
0002f0 11 6c d8 3d 74 47 ef 3d 60 ee 85 ba 61 ea e8 b9
       0.10567487 0.116835505 -0.0010218136 -0.00044425114
000300 d2 c7 24 bb 4e 9f e2 39 61 0f 00 3a 72 43 f3 39
       -0.0025143516 0.0004322477 0.0004885104 0.00046398822
000310 32 6d 86 3d 00 52 fc 3d 98 e6 8a 3a a4 d1 ee 3d
       0.06563796 0.12320328 0.0010597287 0.116610795
000320 5b d7 1a bb 60 48 3d bd b7 be 02 3e 71 29 9b 39
       -0.0023626897 -0.0462116 0.12768064 0.0002959478
000330 46 7a fb b9 d8 77 05 3e 87 80 b2 3d ee 3e df ba
       -0.00047965551 0.13033998 0.08715921 -0.0017032304
000340 8f 7b b4 b9 73 26 9c 3d dd 43 ab 3a 79 ed 13 3a
       -0.00034424334 0.07624521 0.001306649 0.0005642991
000350 88 fb 37 3a 65 36 02 3e a8 33 14 bd 10 10 dc b9
       0.0007018377 0.12716062 -0.036182076 -0.00041973637
000360 f4 68 a9 3d bd d5 64 b9 84 a2 ed 3a 77 d0 03 ba
       0.08271971 -0.00021823398 0.0018130098 -0.0005028317
000370 8f b5 05 3e 19 f7 aa 3d ab e6 12 3a 8c 29 1c 3a
       0.1305754 0.083479114 0.000560383 0.00059571187
000380 73 5c c4 b8 ff 87 34 bd 52 f1 75 bc 57 30 43 b9
       -9.363228e-05 -0.04407501 -0.0150111485 -0.00018614657
000390 1f d5 e9 3d 1b 45 92 3d 36 c7 8d bc 50 99 af 3d
       0.11417603 0.07142087 -0.017306905 0.08574164
0003a0 67 06 c0 ba 13 a5 f2 3d f8 92 d3 ba e5 54 15 3b
       -0.0014650346 0.11847892 -0.0016141823 0.0022786197
0003b0 53 5c 98 3d 81 fa b0 3d 0c ff 9e 3d f6 47 a1 b9
       0.074394844 0.0864153 0.0776349 -0.00030761928
0003c0 90 a5 ad 3d e1 a5 71 bc 48 74 8b ba d6 55 3d 39
       0.08478844 -0.014749021 -0.0010639513 0.00018056421
0003d0 fb 15 98 bc 4f 66 05 3e c0 c9 04 bd 91 87 c4 3d
       -0.018565169 0.13027309 -0.032418966 0.0959617
0003e0 1c 68 a1 3d 17 31 98 3d 66 98 f0 3d c4 35 f3 3d
       0.078811854 0.07431238 0.11747818 0.11875489
0003f0 f8 7b 20 3a 53 a0 2c ba 45 b7 c9 3d 35 b7 a2 39
       0.00061219884 -0.00065851695 0.09849409 0.00031035548

net.6.bias f4 [2]
000000 57 5a 7c bd 66 12 11 3d
       -0.061609592 0.035417937
