normal/cfm/models/12300_model.pt (torch, 535792 bytes, 8 tensors)

net.0.weight f4 [256, 3]
000000 ee fd 4f bd 36 22 4f 3e f4 b5 f6 bd 07 d6 f0 be
       -0.050779276 0.20227894 -0.120464236 -0.4703829
000010 02 e8 69 3f d1 03 b7 be c7 e5 bc 3e d4 51 44 3e
       0.9136964 -0.357451 0.36894056 0.1917184
000020 2e 63 a2 3e e2 bd 3f 3e 9b 98 99 3e 9b 4b 93 3e
       0.31716293 0.18724778 0.2999924 0.2876862
000030 ef 09 8c be 6a 39 49 bf e0 38 10 3f 5c 24 94 3e
       -0.2735133 -0.7860323 0.56336784 0.2893399
000040 9c be cf bd 55 81 e3 3e f2 d9 26 3e 3f 9f 3b be
       -0.10143778 0.4443461 0.16294077 -0.18322466
000050 d1 22 56 3e b4 e5 07 bd 76 19 8c 3e 72 12 8e 3d
       0.20911719 -0.033178046 0.27363175 0.06937112
000060 90 60 de bd a3 ba 19 3f 3e 82 b1 3e 05 0e 8e 3c
       -0.108582616 0.6005041 0.3466968 0.01734067
000070 46 13 22 be 8d 43 04 bf fe 89 11 3d 2c 58 26 bf
       -0.15827665 -0.51665574 0.03553199 -0.6497829
000080 7f 04 31 3e cd 02 38 3c 12 86 e1 be fd 14 a8 be
       0.17286871 0.0112311365 -0.440476 -0.32828513
000090 0f 25 33 3e 88 e2 0a bf 7e 71 ee be be 19 7f 3d
       0.17494605 -0.5425191 -0.46570963 0.06228041
0000a0 f7 6e d0 3d 34 c8 f1 be 4a f6 98 be 84 0f 14 bf
       0.10177415 -0.47223055 -0.29875404 -0.57836175
0000b0 f6 66 d7 be 68 ba 5f bd 8d 5b 44 3c 65 fe 84 3e
       -0.4207074 -0.05462113 0.011984718 0.25975338
0000c0 68 b5 fe bd 3b 09 3e 3f 80 ae 25 bc dd f0 03 bf
       -0.12436944 0.74232835 -0.010112405 -0.51539403
0000d0 83 86 ab 3f 23 c1 85 be 0c fa 5e 3d f7 e7 71 3d
       1.3400425 -0.26123914 0.054437682 0.05905911
0000e0 4d 8b a8 be 5d bc 06 bf 3c 5c 7e bf 9b 82 45 3e
       -0.32918778 -0.5263117 -0.9935949 0.19288103
0000f0 fa bb 00 be 1b 38 85 3e 51 05 1a 3e 08 c2 9a be
       -0.12571707 0.26019368 0.1504109 -0.3022616
000100 ab 1a 70 be 6a 29 0a 3f e7 b4 14 bd 68 07 8a be
       -0.23447673 0.5396944 -0.036305334 -0.26958776
000110 36 97 34 3f 8f fa e8 3d 89 23 7e 3e b4 8b b2 be
       0.7054323 0.11375915 0.24818243 -0.3487221
000120 a9 02 0a bf 04 6a ad 3f 6f 3e e5 3e ca 4b 07 bd
       -0.5391031 1.3547978 0.44774196 -0.033031262
000130 92 54 19 3f d4 40 15 3f 13 28 17 bf 6e ea be 3f
       0.5989467 0.58302045 -0.59045523 1.4915292
000140 65 22 5c 3e e3 7f e2 3c 22 4d ba 3e 36 2d 0b bf
       0.21497495 0.027648872 0.36386973 -0.5436586
000150 b4 b0 09 bf 46 08 72 bf af 3e 66 3d f1 c1 4f be
       -0.5378525 -0.94543874 0.056212123 -0.20288827
000160 19 56 48 3e e2 2f 98 3e 31 2d 09 be de 1c aa be
       0.19564094 0.29724032 -0.13396145 -0.3322515
000170 b0 82 af bd 7b 83 b0 3e b6 fb 13 bf 50 64 38 be
       -0.085698485 0.34475312 -0.57805955 -0.18007016
000180 09 c7 85 be f5 c1 aa 3d 50 6a b6 be be d4 a4 3d
       -0.26128414 0.083377756 -0.35627985 0.0804839
000190 26 31 82 3d 2a 52 ce be e7 69 e0 be af ea 53 bf
       0.063570306 -0.4029706 -0.43830797 -0.82779974
0001a0 64 2e 10 bc 45 4f 8b 3c 1e fd a1 3a 91 13 44 3e
       -0.008800123 0.017005572 0.001235876 0.19148089
0001b0 7b c6 bc bd 00 03 ec 3b 23 8f 0c 3d 02 ed e1 3e
       -0.09217545 0.007202506 0.034316193 0.44126135
0001c0 51 79 18 3f 5f 35 21 bf 6d df a3 3e 90 a7 d5 3e
       0.59560114 -0.6297206 0.32006398 0.41729403
0001d0 17 2c 03 3f 95 06 e4 bd 36 ac eb be 06 47 8d 3e
       0.5123915 -0.11134068 -0.46029824 0.2759325
0001e0 ef 82 bf bd dc 0b fc 3e 6a 5c eb be b2 27 a9 3b
       -0.093511455 0.49227798 -0.45968944 0.0051622028
0001f0 01 86 d7 bd a8 a8 0a 3e 2b c8 96 be f4 23 36 bf
       -0.10523606 0.135409 -0.2944959 -0.7114861
000200 96 a6 ee 3d d6 a9 3d 3e 52 63 e1 be c0 52 ef 3e
       0.116528675 0.18521819 -0.44021088 0.4674282
000210 66 91 e6 3d 7d 67 e8 be 01 db eb 3c 12 e9 d4 be
       0.11258201 -0.45391455 0.028790953 -0.4158407
000220 f6 3e a4 3f 63 ff 67 3e 39 12 1c be 3e fd ee 3e
       1.2831714 0.22656016 -0.15241326 0.46677583
000230 7d 83 ad 3d 98 f6 27 be 0f d5 48 bf 37 63 4b be
       0.08472345 -0.16402662 -0.784501 -0.19862066
000240 fb 04 86 be 23 94 9d 3f ed 87 fb 3e 99 68 4d be
       -0.26175675 1.2310833 0.4912714 -0.20059432
000250 e5 e5 af be ab a1 33 be 9d 1c 0b bf 7a 6e f0 3e
       -0.34355083 -0.1754214 -0.54340535 0.46959287
000260 bc 44 bc bd 6f 0a d6 be f5 1f 9f 3f 41 55 db be
       -0.091927975 -0.41804835 1.2431628 -0.4283848
000270 25 42 88 bd c5 8d b9 3e 8f c4 04 3f 6f 30 84 be
       -0.06653241 0.36240974 0.51862425 -0.25818202
000280 22 de af be a6 ad 07 be b5 79 89 3b 08 0b a9 3d
       -0.3434916 -0.13249835 0.004195417 0.08254057
000290 1a b3 c8 be 72 be 44 be bc 08 58 3f 1f 9b 8f 3e
       -0.39199144 -0.19213274 0.8438833 0.28048036
0002a0 dd 82 90 3e e4 eb b2 bd 79 55 8e be 14 5a f1 3d
       0.2822484 -0.08736399 -0.27799585 0.11784759
0002b0 3f 72 87 3e 4b 19 d8 bd 1f 0b 18 3c bc 60 b5 3c
       0.2645435 -0.10551699 0.009279995 0.022140853
0002c0 23 4b 0e bd 08 55 21 be dc 5e 3f 3e e8 a2 c7 be
       -0.034739625 -0.15755093 0.1868853 -0.38991475
0002d0 f0 28 36 be 8c b8 28 be b7 b9 f4 3e 55 cc 73 3e
       -0.17789054 -0.16476649 0.4779794 0.23808415
0002e0 55 25 a3 3e 8e 9e e2 be 93 ef 4d 3e 2a 76 a8 3e
       0.3186442 -0.44261593 0.20110922 0.32902652
0002f0 49 e0 cb 3e 2c bb 77 3e 95 92 b9 be 56 35 02 3f
       0.39819553 0.24192494 -0.36244646 0.50862634
000300 36 71 2a 3e 25 b1 cb 3e 00 64 86 3e 8b 3c b2 3e
       0.16644749 0.39783588 0.2624817 0.34811816
000310 41 ef d0 3e 21 fc 00 3f 2d f4 34 be 28 c2 3f 3f
       0.40807536 0.5038472 -0.1767127 0.74905634
000320 f8 b2 a8 be 52 01 b7 be 90 90 9e 3f 24 89 84 3e
       -0.32949042 -0.35743195 1.2387867 0.2588588
000330 e7 28 7a 3e 70 f3 ea be 92 3c df 3e a7 e2 09 bf
       0.24429666 -0.45888853 0.436009 -0.5386147
000340 a2 fd 48 bf ea f7 be bd 71 1f 4e be 13 1b 25 3f
       -0.7851201 -0.093246296 -0.20129181 0.64494437
000350 9c c4 0d 3f 29 76 0b 3e fe 2f 0d be 6d ae ae be
       0.5537813 0.13619293 -0.13787839 -0.3411745
000360 e3 f4 cb 3c ce ad bb bd 5c 3f b7 bd 9f f3 91 3e
       0.024897045 -0.0916401 -0.08947632 0.2850618
000370 b1 61 61 be 7a 76 44 3e a8 b5 16 3d 4f 44 88 be
       -0.22009923 0.1918582 0.036794335 -0.26614615
000380 b2 18 9c be 8f 27 b0 be 3c 45 4b 3f e4 3e 91 3e
       -0.3048759 -0.3440518 0.7940252 0.28368294
000390 d0 a3 8b be 0d 39 3f 3f 00 f1 da be 34 31 10 be
       -0.27273417 0.7469643 -0.42761993 -0.1408127
0003a0 3d be 66 be 2f e1 51 3e dd 35 c8 3e 5d dd e2 3e
       -0.22533508 0.20496057 0.39103594 0.44309512
0003b0 3c 57 7b be 69 53 a3 3c 1b 23 1f 3e 4b f2 e0 3e
       -0.24544996 0.019937234 0.15540735 0.43934855
0003c0 96 e4 3d 3e 8d 04 de be 2b ae 08 3f 49 ca af 3e
       0.1854423 -0.43362847 0.5339076 0.3433402
0003d0 47 3f 79 be 2d 69 aa 3e 51 22 64 3d 2e 5b ec be
       -0.24340545 0.33283368 0.05569679 -0.46163315
0003e0 71 f9 2c 3f d6 99 07 be 3c 14 3c 3f 10 71 91 3e
       0.6756812 -0.13242278 0.73468375 0.28406572
0003f0 09 22 02 bd 46 01 4f 3f 69 04 02 3f 65 df 02 3e
       -0.03177074 0.8086132 0.5078798 0.12780531

net.0.bias f4 [256]
000000 e3 f5 81 be a1 41 73 3e 8c 8f 3d 3e fb 2f fd be
       -0.2538291 0.23755504 0.1851179 -0.4945067
000010 15 21 b9 3e 71 8e 3b be b0 47 88 3e 37 96 0a bf
       0.36158052 -0.18316056 0.26617193 -0.5413546
000020 ff 9d 08 bf 3e 12 a0 3e fa 88 02 3f f3 cf 87 3e
       -0.5336608 0.31263918 0.5099026 0.2652584
000030 40 9e 08 3f ba ea df be 59 1c ca 3e 15 fd 29 3d
       0.5336647 -0.4373377 0.39474753 0.041501123
000040 1e 8c 60 3d 22 94 76 3e ba 3d 4f 3e 95 2d 0e 3f
       0.054821126 0.24079946 0.2023839 0.555383
000050 cf 86 0d 3f ee 4c 51 3e 17 96 02 3f c1 39 8f be
       0.55283827 0.20439503 0.5101027 -0.2797375
000060 01 d0 e4 3e 12 50 10 3f 12 ed a7 3e 4e 03 e9 3e
       0.44689944 0.5637218 0.32798058 0.45510334
000070 03 09 ab 3e 09 01 c9 3e 4c 06 b2 be c7 9a 11 bf
       0.33405313 0.39258602 -0.3477043 -0.56876796
000080 c0 cf ef 3e 49 5b 26 3d 1e 25 aa 3e 6d 5f 73 be
       0.46838188 0.0406144 0.33231443 -0.23766871
000090 71 6c b8 3e 82 43 fc be 1b c8 67 be 6e 30 09 be
       0.36020234 -0.49270254 -0.22634928 -0.1339738
0000a0 23 fa af be 36 cc c2 3d fa 41 2b 3d 11 21 f4 be
       -0.34370527 0.095116064 0.041810967 -0.47681478
0000b0 b5 09 e9 be 11 99 3c 3d c1 0e b5 3e a2 a6 e9 3e
       -0.45515218 0.046044413 0.3536282 0.45634943
0000c0 7f cc de be bb 67 39 bd f6 90 95 3d 2b c6 b6 3d
       -0.43515393 -0.04526494 0.0730304 0.08924516
0000d0 04 75 03 bf 17 19 14 bd 46 b0 dc 3d 28 42 b7 bd
       -0.51350427 -0.03615674 0.10775809 -0.08948165
0000e0 27 ee a0 3d 39 52 b3 bd c0 4b 0e 3d b0 83 10 bf
       0.07857924 -0.08755917 0.03474021 -0.5645094
0000f0 e2 07 ab 3e 6f 43 86 3e 40 c7 82 3d 23 9c 47 be
       0.33404452 0.26223323 0.0638566 -0.19493155
000100 39 e7 8f bd b6 d7 62 3e 86 32 8a 3e 63 f1 d3 be
       -0.07026524 0.221526 0.2699167 -0.413951
000110 27 83 06 bf 9f 01 da 3e 0b 68 f5 3c 74 bd 4c 3e
       -0.5254387 0.42579362 0.029956838 0.19994146
000120 39 47 24 be 8c f2 67 be 1a 89 31 3e 61 8f 67 bc
       -0.16042794 -0.22651118 0.17337456 -0.014133305
000130 71 fe 7e 3e e7 65 5e be 42 76 df bd ba c1 01 3e
       0.24901749 -0.2171856 -0.10911228 0.12671557
000140 e1 2e ad 3d 39 95 87 be 6f 70 c1 3e 3e c6 aa be
       0.08456207 -0.26481035 0.37781093 -0.33354372
000150 01 a2 17 bf 2f 62 a5 3e 91 46 eb 3e 20 f5 af be
       -0.59231573 0.3230147 0.45952275 -0.34366703
000160 32 6e 00 bf 29 db 0c 3f 95 a0 00 be 9c 22 0f 3f
       -0.50168145 0.5502191 -0.12561257 0.55912185
000170 29 15 0c bf a2 ab 99 3e 31 37 f9 3e 35 0b b3 3e
       -0.5471979 0.30013758 0.4867492 0.34969488
000180 e7 51 15 bf a1 fa 01 3e 38 88 19 3e 4a 65 0d 3d
       -0.583281 0.12693264 0.1499337 0.034520425
000190 f7 de f9 3c 81 20 94 be a3 c2 be 3e 29 9f 78 be
       0.030501826 -0.2893105 0.3725787 -0.24279465
0001a0 d8 52 f8 3e b6 b8 64 bc f6 0c 0f 3e 99 db e5 be
       0.48500705 -0.013960054 0.13969788 -0.44894102
0001b0 1c 47 82 be 52 d2 82 bd b2 ec a9 3e 41 0d a0 bb
       -0.25444877 -0.06387772 0.33188397 -0.0048843925
0001c0 19 32 cb 3d 71 d0 0c 3e b9 78 ba be 87 83 ac 3e
       0.09921665 0.13751389 -0.3642023 0.33694097
0001d0 5b 0c 53 3d 25 4e 3b be ec df 19 bd 04 ce 38 3e
       0.051525455 -0.18291529 -0.037567064 0.18047339
0001e0 f4 1c be be 7f 1d d3 3e a0 df a9 3e 65 71 f6 be
       -0.37131464 0.4123344 0.33178425 -0.48133388
0001f0 83 32 65 3d 83 d4 8a 3d f0 46 27 bf b6 c0 01 3f
       0.055956375 0.06778815 -0.6534262 0.5068468
000200 36 34 07 3f 64 fb 6a be 4b 45 ca ba 76 cf 9e 3e
       0.5281404 -0.2294746 -0.0015432028 0.31017655
000210 ef a0 6a 3e 47 c2 b4 be 0b 2d b3 3d b7 c4 b5 3e
       0.22912954 -0.35304472 0.08748826 0.35501644
000220 a7 0d a9 3e ee 80 c2 be ec 7f be be 43 00 5e 3e
       0.33018228 -0.3798899 -0.37206972 0.21679787
000230 07 91 6b 3d 6e c9 ca bd d0 99 f2 3d 4a bc 8a be
       0.057511356 -0.09901701 0.11845744 -0.27096778
000240 35 d6 82 3e 19 5e ed 3e 73 35 af be d3 05 45 be
       0.25554052 0.46360853 -0.34220466 -0.19240503
000250 64 a0 af 3e 7f ef bf be e9 fd 3b 3d 20 4a 89 3d
       0.34302056 -0.3748741 0.045896444 0.06703591
000260 fb d3 f7 be cf 20 96 be 03 35 7e be 44 52 51 be
       -0.48403916 -0.29321906 -0.2482491 -0.20441538
000270 e3 d8 c9 3e cf 5f da 3e 01 38 0f bd 3e 84 f3 be
       0.39423284 0.4265122 -0.03496552 -0.4756183
000280 a1 d7 a5 3e 3d 36 be be ea 31 12 3f 44 da f1 be
       0.32391074 -0.37150756 0.5710741 -0.47236836
000290 f4 34 32 3e 4c 4d d0 3c 74 8f 1e 3e 12 bb ca be
       0.17403013 0.025427483 0.1548441 -0.39595848
0002a0 2a 57 84 3e 79 cd 56 be fe da 08 bf 5d 2a 32 3e
       0.2584775 -0.20976819 -0.53459156 0.17398973
0002b0 bc e9 ea be 6b 41 b3 be 0c 9f c8 3e 71 b2 0b bd
       -0.4588145 -0.35010847 0.39183843 -0.03410572
0002c0 e3 a1 ed bd 9d 31 d3 3d 17 c3 71 be 96 dc 08 bf
       -0.11603143 0.10312197 -0.23609577 -0.5346159
0002d0 a3 ce dd 3e 38 dd ba be 74 91 0c 3f cc 5b 32 be
       0.43321714 -0.36496902 0.54909444 -0.1741783
0002e0 1a 17 97 3d d3 3a 9f 3e fc 0f 46 be bf 8e a6 bd
       0.07377453 0.31099567 -0.19342035 -0.081326954
0002f0 1e 01 ba bd 23 91 4d 3e 48 b0 de be e4 7b c1 be
       -0.09082244 0.20074897 -0.43493867 -0.37789834
000300 6a 9d 19 be 99 bf 1c be 58 d4 d6 3d 55 a9 f9 3e
       -0.15001455 -0.15307464 0.1048972 0.48762003
000310 29 0d b0 be d7 89 ff 3e 07 af a9 3d be f4 d1 3e
       -0.3438504 0.4990985 0.08285337 0.41007036
000320 4c 39 c5 be 6d 91 8e 3d 0a 97 ac 3d 31 13 d6 be
       -0.38520277 0.069613315 0.08427246 -0.41811517
000330 df 86 e6 3e 48 48 e2 be 5b c4 04 3f 72 ac b5 bd
       0.45024773 -0.4419577 0.51862115 -0.08870782
000340 4a 1b dd 3e 49 3d bf be c3 87 de bd a7 74 07 3e
       0.43184882 -0.37351444 -0.10865738 0.13228093
000350 6f fb cf 3e 64 88 6d 3e a9 4a da be 8b b8 cb bd
       0.40621516 0.2319656 -0.42635086 -0.09947308
000360 12 a2 88 bd 2e 8b 69 3e 98 f4 f6 be ce a6 a5 be
       -0.066715375 0.22806999 -0.48233485 -0.32353824
000370 11 e3 bd be a0 85 be be 4f 4b 83 3d 82 6d cd be
       -0.370873 -0.37211323 0.06410848 -0.4012261
000380 8d 71 6c bd 89 64 d6 3e bd de 6f be 19 d6 f8 be
       -0.057725478 0.41873577 -0.23424812 -0.48600844
000390 ff d9 b2 bd 1d 98 0c 3f a9 e1 38 3e 9b 61 60 be
       -0.08732986 0.54919606 0.18054833 -0.21912234
0003a0 9a 97 ee 3e 72 97 a5 3e a0 c2 f0 3e 88 da 15 bf
       0.46600038 0.32342106 0.47023487 -0.5853658
0003b0 37 17 f5 3c 80 22 fe be e8 e2 f7 bd 8a c6 11 bf
       0.029918296 -0.49635696 -0.12103826 -0.5694357
0003c0 9c 14 df bd 3f 6e 89 3e 13 4b 8b 3c ad ab 1f bf
       -0.10892603 0.26841924 0.017003572 -0.6237133
0003d0 02 83 81 bd 36 1d aa 3e 0f 25 8d 3e 95 07 0e be
       -0.06323816 0.3322541 0.27567336 -0.1387008
0003e0 52 7a 53 be a6 d9 b6 be b4 d5 4b 3e f0 5e a9 3e
       -0.2065213 -0.35712928 0.1990574 0.33080244
0003f0 b1 e7 05 3e 00 ff 11 bf df 34 5d be bc 63 06 bf
       0.13076665 -0.57029724 -0.216022 -0.5249593

net.2.weight f4 [256, 256]
000000 ec 5c 3e bd 03 db 0a 3d a8 ca b3 3b bf 59 4e 3d
       -0.046475336 0.033900272 0.005486805 0.050378557
000010 c2 03 4d bd 38 f4 4c 3c d7 95 4c 3c 8b 9e e0 bb
       -0.05005241 0.012509398 0.0124868965 -0.0068548373
000020 8a c8 90 3d 24 6f 06 be 0a 7e 18 bd c5 71 ec 39
       0.070695 -0.13128334 -0.037229575 0.00045098193
000030 01 85 2e bd c2 52 25 bd 78 7a cd bb ef 82 1c bd
       -0.04260731 -0.040362127 -0.006270703 -0.038210806
000040 b8 67 a2 bc dd 81 90 bd d8 00 99 ba 1c c9 0b bd
       -0.019824848 -0.070560195 -0.0011673225 -0.03412734
000050 3a aa 5c 3b d6 6d 85 bd 11 e8 a4 3d db 99 a8 bd
       0.00336708 -0.0651509 0.08052076 -0.082324706
000060 56 c6 fc bc 0a 18 f3 bc be 3f f3 bc e0 02 67 bd
       -0.030856293 -0.029674549 -0.02969348 -0.056399226
000070 28 e1 04 bd dc 65 2a bd 46 be 2c bd b2 d7 1d bd
       -0.03244129 -0.041601047 -0.042173646 -0.03853578
000080 ae f4 f7 b9 a2 9e ae bc e1 6e 0b 3d 4c ed cc bc
       -0.00047293812 -0.021315876 0.03404129 -0.025015496
000090 63 2d 4e bc d5 90 80 3b 41 52 bb 3c 92 2e 97 bc
       -0.012584063 0.0039235153 0.02286637 -0.018454824
0000a0 92 fa 30 3d c4 12 72 3b b7 74 3b 3d 9e 22 7e 3c
       0.043207712 0.0036937455 0.045765605 0.015511183
0000b0 bc e9 c9 3c c3 51 8b bd 72 c8 10 3d fa 82 2d bd
       0.024647586 -0.06802704 0.03534741 -0.042361237
0000c0 66 54 86 3d 00 0d 69 3d a5 56 e1 3c 95 72 7a bc
       0.065590665 0.056897163 0.027507136 -0.015286108
0000d0 fb 6f 84 3d f0 a0 16 3c d9 cd 74 bb 63 c4 3b 3d
       0.06466671 0.009193644 -0.003735414 0.045841586
0000e0 3a 12 df 3c a1 cc 6c bd c2 09 97 3c 19 c4 6c 3c
       0.02723037 -0.057812337 0.01843727 0.01445105
0000f0 67 fd a1 bc 21 53 08 3b 35 53 1f 3d 1f 70 68 3d
       -0.019774152 0.0020801502 0.03889771 0.056747552
000100 41 9e 73 bd d6 82 65 bc a0 8c a4 bc 85 ca 25 3b
       -0.059477095 -0.0140082445 -0.020086586 0.0025297713
000110 61 fc e2 3c 52 c6 61 bd cc e4 50 3b d4 e6 83 bd
       0.027708234 -0.055120774 0.0031874655 -0.06440511
000120 a0 94 04 3d 4e 09 3f 3d 01 24 e4 3c 2a 03 2f bd
       0.032368302 0.046639733 0.0278492 -0.042727627
000130 3b 7a 42 bd 25 97 e7 bc 1b 44 35 3c 62 c2 a0 bc
       -0.04747985 -0.028270314 0.011063601 -0.019623939
000140 72 d7 23 bd 97 6b 1e 3d da d7 28 bc d9 6b ba 3d
       -0.040000387 0.038676824 -0.010305369 0.091026016
000150 15 f2 4f bd 9d c7 89 bd 53 cb 49 bd 3c b5 2f b9
       -0.050767977 -0.06727526 -0.04926617 -0.00016756816
000160 72 dd 0c bd 4e f3 de 3c ab 50 bb bb a5 72 8a 3c
       -0.034390874 0.027215626 -0.0057164035 0.01690037
000170 96 83 14 3d d2 42 b8 bc b5 1e 64 bb fc 1e c4 3a
       0.036258303 -0.0224928 -0.0034808342 0.0014962847
000180 0d a5 27 bc e7 68 b1 bc 0d c4 08 bc 0f 18 5d bd
       -0.010232222 -0.021656467 -0.008347523 -0.053978022
000190 f2 ac e4 bc c1 71 94 bd 9d 5d 22 3d 95 93 86 3d
       -0.027914498 -0.07248259 0.039640058 0.06571118
0001a0 89 0e 11 3d 0c df 1d 3c 81 6c e0 bc 70 78 70 3d
       0.035414252 0.009635698 -0.027395489 0.05870861
0001b0 94 c8 8a bc e1 c3 55 3d b0 ee 0a bc 2c 34 73 3d
       -0.016941346 0.052188758 -0.008479759 0.059375927
0001c0 ed 95 1b bd b8 5d 23 3d 4e d6 81 bc fe 34 31 bd
       -0.037984777 0.0398843 -0.015849259 -0.043263428
0001d0 86 0c 84 bd d4 85 10 bd e2 12 de bc 50 94 5a bd
       -0.06447701 -0.03528388 -0.027108613 -0.053364098
0001e0 f1 82 42 3d bc 62 87 3c ca 2d 30 3d e2 c2 7e bd
       0.047488157 0.016526572 0.043012418 -0.062197573
0001f0 10 59 df 3b f1 bd fd 3c 36 1c 58 3c 98 f8 c6 bb
       0.006816037 0.03097436 0.01319032 -0.006072115
000200 6f d4 dd 3d ba fa 4d bd c0 6a e3 bc f8 84 71 bd
       0.10831534 -0.05028794 -0.027760863 -0.0589647
000210 0b 89 2c bd 8b 5f dc 3c 2d 13 6a bd 4e 3f 21 3c
       -0.04212288 0.026901027 -0.057147194 0.009841753
000220 b9 b4 ad bd db 8f da bc 91 bb 1f bd df de 4c 3d
       -0.08481736 -0.026679924 -0.038997237 0.050017234
000230 67 2d b0 3c c8 be b7 bb b0 8e 31 3d fd 97 09 bd
       0.021506025 -0.0056074597 0.043348968 -0.033592213
000240 aa 8d 86 3c 6e 64 80 bd 13 28 0e bd 15 20 57 bd
       0.016424973 -0.062691554 -0.034706187 -0.05252083
000250 79 d7 7f 3c 40 49 c3 3a 7d ed b9 bd a6 bf e4 bc
       0.0156153375 0.001489915 -0.090785004 -0.027923416
000260 65 cf 40 bc 50 40 4e 3d 3a 24 41 bd ed ef ac 3c
       -0.011768197 0.050354302 -0.04715369 0.0211105
000270 bc a2 30 bd 6a 95 59 bd 1b 28 24 3c 38 13 8d 3d
       -0.043123946 -0.053121008 0.0100193275 0.06888431
000280 7d 78 62 39 e4 fe ba 3b ae f2 97 be 89 f0 ed 3c
       0.00021597925 0.005706655 -0.29677337 0.02904536
000290 e6 37 16 bd 1f 1c 69 3d a6 ed ed 3c 66 87 3f bd
       -0.036674403 0.056911584 0.029043984 -0.046759985
0002a0 61 7c c6 3c aa 9c c8 bc 2b c4 38 3c 5a 8c 8b 3a
       0.02422923 -0.024488766 0.011277239 0.0010646686
0002b0 8c 6b 1d bb ce 0f 8e 3c 09 61 57 3d ea 0b 39 bc
       -0.0024020402 0.01734152 0.052582774 -0.011294344
0002c0 93 9a 06 bd df 9e 50 bc c9 2a 41 bd 3b 55 3c 3c
       -0.032862257 -0.01273319 -0.047159944 0.01149493
0002d0 f9 07 44 3b 70 e9 df 3c 53 28 7d 3d 58 ad 76 3d
       0.0029911979 0.027332991 0.061806034 0.060223907
0002e0 3f bb e8 bb 6f 10 94 bc 4e 2d 77 3c 9b 55 e9 3c
       -0.0071023996 -0.018074242 0.015086485 0.028483203
0002f0 49 a7 2d bd fa e6 1a bd 97 77 0c bd 95 68 64 3d
       -0.042395864 -0.037817933 -0.034293737 0.0557638
000300 6e a9 16 3d 0d a7 fc 3c 6e 57 3a bd ab ce 91 bd
       0.036782674 0.030841375 -0.045493536 -0.07119497
000310 92 4d 01 bd 5e ed a3 bd 0e 56 d3 bc a0 52 81 3c
       -0.031568117 -0.080042586 -0.02579787 0.015786469
000320 97 ed 97 3d 39 04 15 3b d3 fe 83 bd e1 3b 89 3d
       0.074183635 0.0022738113 -0.06445088 0.06700874
000330 57 62 50 bd c9 9e 62 3d f9 76 38 3d 69 ef d7 3c
       -0.050875034 0.05532721 0.045035336 0.026359277
000340 d0 e3 dc 3c 7e cf eb 3c 77 82 f2 3c 2d 38 dc bc
       0.026964098 0.028785463 0.029603226 -0.026882255
000350 b0 eb 4b bd de 1a 4c bd 1f 5b 07 bd 97 43 b2 bc
       -0.049785316 -0.04983031 -0.033045884 -0.021760745
000360 37 46 0f bd 28 1b 5c 3d 14 07 50 3d 73 e5 0c bd
       -0.03497907 0.053736836 0.050788 -0.034398507
000370 7c 05 8d 3c 17 63 fe 3c f6 32 1d 3d fa 16 23 bb
       0.01721453 0.03105311 0.03837868 -0.0024885521
000380 72 a8 54 bd 80 95 1b bd 95 5d 11 3d 22 6e 15 bb
       -0.051918454 -0.03798437 0.035489637 -0.002280124
000390 23 94 85 3c c1 56 ee 3c 23 f1 80 3c 79 19 e1 3c
       0.016305989 0.029094102 0.015739983 0.027477967
0003a0 6e 42 3f 3d 65 65 2e 3d a4 b1 c4 bc 51 06 02 3d
       0.04669421 0.042577166 -0.024010487 0.031744305
0003b0 83 3d df 3c 48 0a 6b 3c 20 f4 80 bd 30 38 86 3c
       0.02725101 0.014345713 -0.06296563 0.016384214
0003c0 15 11 1a bc 86 a3 df bb 34 5b ec 3c 41 a6 75 3d
       -0.009403487 -0.0068249134 0.028852083 0.059973005
0003d0 50 21 cf bc f8 d6 4a 3c 7d 06 5a 3d c4 18 4f 3d
       -0.02528444 0.012380354 0.053228844 0.050560728
0003e0 40 78 6e 3c 58 8e 67 3b 73 69 14 bc 68 d2 a1 bd
       0.014555037 0.0035332646 -0.009058344 -0.0790146
0003f0 70 47 95 3d 26 03 29 3d a9 34 3b 3c fc ae 23 3d
       0.07289016 0.04126277 0.011426129 0.0399618

net.2.bias f4 [256]
000000 29 1a 0d 3d 93 60 b2 bd 54 ac 03 bd c2 48 3c 3d
       0.034448776 -0.08709826 -0.032146767 0.045967825
000010 31 0d 0d bc 05 b0 f4 bd 16 45 96 bc 2b 09 cf bd
       -0.008609102 -0.119476356 -0.01834349 -0.101091705
000020 c5 c3 f2 3c 49 c1 93 bc 3d 3c aa bc 90 df 4c bc
       0.029634366 -0.018036501 -0.020780677 -0.012504473
000030 f4 77 15 3c 72 ca ac 3d 3f ed 88 bd 1c 07 b4 bc
       0.009122837 0.08437051 -0.06685876 -0.021976046
000040 4a 1a 3c 3d ed 75 d7 3c 94 8d 70 3c 3b a6 03 bc
       0.04592351 0.026301349 0.014682192 -0.008035238
000050 fd a5 1a bd 1b 2f c5 3b 2f a9 9e bd 00 05 c1 bd
       -0.037755955 0.0060175783 -0.07747113 -0.09424782
000060 5c 25 cf bc 18 91 27 bd 59 d6 c6 bc 5b 65 3f bb
       -0.025286369 -0.040909857 -0.02427213 -0.00292047
000070 6c e2 9e 3d a0 ea 3d bd 09 09 e2 3c cd 90 ca bc
       0.0775803 -0.046366334 0.027592199 -0.02472725
000080 42 11 65 bd 10 94 c1 bb c6 aa 29 bd 40 29 c6 ba
       -0.05592466 -0.005907543 -0.041422628 -0.0015118495
000090 9c 6a a0 bc f4 68 ee 3b 00 ec 90 bc bc d1 96 3c
       -0.019582085 0.007275695 -0.017690659 0.018410556
0000a0 49 3b 9c bd 25 ca 4d bd 6d 39 3b 3d 4a ab da bd
       -0.07628495 -0.05024161 0.045709062 -0.10677202
0000b0 35 85 18 3c bd 72 71 bd 17 b2 62 bd 8a df 9b ba
       0.009309103 -0.058947314 -0.05534562 -0.0011892181
0000c0 60 40 ca bd 28 7d b4 bc 59 f6 b2 bb 46 be b9 bd
       -0.0987556 -0.022032335 -0.005461496 -0.09069495
0000d0 37 e1 c4 ba 13 3f e1 bd 84 cc 30 bd c1 ac f4 3b
       -0.0015020733 -0.109983586 -0.04316379 0.007466883
0000e0 b0 93 ae bd 9c c6 5c bd ce 7d 3d 3d 1a 19 23 bd
       -0.08524263 -0.053900346 0.046262555 -0.03981886
0000f0 ec ba 93 3d 4b cb 78 bd cc 5d 96 bd 40 4e da bd
       0.07213387 -0.06074075 -0.07342109 -0.10659456
000100 69 d4 29 bc 22 a9 d0 3c 53 d4 98 3d d2 5b fb 3c
       -0.010365584 0.025471274 0.07462373 0.030683432
000110 c8 2d 2b 3c 2c 2a 26 3d 6d 63 aa bc a1 be 4f bd
       0.010447927 0.040567562 -0.020799363 -0.050718907
000120 fe aa 08 bd 51 ca 1a ba 88 50 42 3d 78 4b 61 bd
       -0.033366196 -0.0005904781 0.04744008 -0.055003613
000130 58 9e d1 bd 24 4e 51 3d c8 2e d7 3d 9b 85 ec 3d
       -0.1023528 0.05109991 0.1050697 0.11548921
000140 cc 55 ae bd 84 95 bf bc 5e e2 b6 bd e5 fe 6c 3b
       -0.08512458 -0.023386724 -0.08929895 0.0036162671
000150 d8 d6 e4 bc 0e 73 0d bb 34 75 33 bd 77 6d 1b bd
       -0.027934477 -0.002158347 -0.043812945 -0.03794619
000160 d5 d7 e6 bd 34 a1 c4 bd 4f 0c d0 bd 21 00 70 bd
       -0.112716354 -0.096010596 -0.10158598 -0.058593873
000170 f4 82 93 bd 30 40 4e 3d 96 14 a0 bd 5b 28 90 3d
       -0.07202712 0.050354183 -0.078164265 0.07038947
000180 9b d5 01 3c af ac bc 3c 3e 17 01 3c e8 8d ad bd
       0.007924463 0.02303156 0.0078790765 -0.08474332
000190 74 a7 ed bc 25 1c db bc e4 a7 03 bc ff 50 93 bd
       -0.029010512 -0.026746819 -0.008035634 -0.07193183
0001a0 39 c5 80 bc 04 2e 44 bd 15 ca 96 3d 38 f0 90 bd
       -0.015719043 -0.047895446 0.07362763 -0.07077068
0001b0 a6 ba e3 bd 55 48 11 3d 18 49 34 bd 03 ab 6b bd
       -0.11119585 0.03546937 -0.04401502 -0.057536136
0001c0 84 c7 ee 3a 21 2a d1 bd 7a 31 3c bd 40 04 a3 bc
       0.0018217419 -0.102131136 -0.045945622 -0.019899487
0001d0 54 15 42 3d 67 b4 d5 bd d1 32 3f 3d 59 2f a8 3c
       0.04738362 -0.104348 0.04667932 0.02053039
0001e0 bd 72 a5 3b cc 46 3f bc ff e8 6e bd bc 4c 10 3d
       0.0050490783 -0.011674594 -0.05832767 0.03522943
0001f0 e8 fb 08 3d bd 97 04 3d 1f ed a6 bd 7e a6 ca bd
       0.03344336 0.03237127 -0.08150696 -0.09895037
000200 71 11 43 3d c0 04 a7 3c 03 5a d0 bd dd 1c ea bc
       0.047624055 0.020388007 -0.101734184 -0.028578216
000210 17 47 82 bd 72 6d 35 bd 31 8f 46 bd 7c c0 88 3c
       -0.063612156 -0.04429383 -0.0484764 0.016693346
000220 e2 d2 c3 bd 49 ef 03 bd 9e ef f9 bb cb e1 10 3c
       -0.09561707 -0.032210622 -0.0076274415 0.008842896
000230 52 dc 14 3d 33 3e 2d bd 1f 9a 46 3d e8 43 1d 3d
       0.036342926 -0.042295646 0.048486825 0.03839484
000240 45 f5 c0 3d 9e 50 67 bd 47 3f cb bd ff 74 ac bc
       0.094217815 -0.056473367 -0.099241786 -0.021051882
000250 6d 60 02 bc 2f 37 20 bd 97 20 f9 bb f9 be 42 bd
       -0.00795756 -0.039115127 -0.007602762 -0.047545407
000260 e6 70 cb 3a f2 8b e3 bc d1 c6 97 3d 03 79 80 bc
       0.0015521317 -0.027776692 0.07410968 -0.015682703
000270 f2 aa 46 bd de a4 dc bd 2e c1 0d bd b0 83 b1 3d
       -0.04850287 -0.107736334 -0.03460806 0.086676955
000280 ec 2e 84 3d b2 f0 6f 3d b9 e6 4d 3d 24 86 c4 bd
       0.06454262 0.058579154 0.050268862 -0.09595898
000290 63 a3 46 bd ce 1f f8 bc 8b be c7 bd 18 34 e5 bc
       -0.04849566 -0.030288603 -0.0975314 -0.027978942
0002a0 c8 2c 82 3d 64 5a 2d bc 35 14 23 bd 9c 5b b4 bc
       0.063561976 -0.010580633 -0.039814193 -0.022016339
0002b0 6b 86 17 bc 71 f0 89 bd a7 91 2d bd 35 5d f8 bd
       -0.009248356 -0.06735314 -0.042375233 -0.12127153
0002c0 22 f6 b1 bc 85 fe 1f bd 8c e0 f3 bc 81 ea 82 3b
       -0.02172381 -0.039061088 -0.029770158 0.00399524
0002d0 d8 fe 28 bd 4e 31 a4 bd 2b 98 8d 3c 22 f5 ce 38
       -0.041258663 -0.080172166 0.017284473 9.868505e-05
0002e0 14 45 9d bd 7f 8a 3a bd 89 19 54 bd 23 e2 32 bd
       -0.07679191 -0.045542236 -0.051782165 -0.043672692
0002f0 05 67 34 3d 51 25 9a bc c8 39 0b 3c 1f a1 9d 3d
       0.04404356 -0.018816622 0.008497663 0.07696747
000300 3e af 74 3c a3 85 20 3d 47 00 28 bd 6e 71 18 3d
       0.014934359 0.039189946 -0.04101589 0.03721755
000310 f9 11 5b bd 10 80 d2 bb b6 01 89 3d b4 1a 8b bd
       -0.053483937 -0.0064239576 0.066897795 -0.067922026
000320 2a 9a 7e ba b5 1e c2 bd c1 54 54 bc b7 de 75 bd
       -0.0009712303 -0.09478513 -0.01295966 -0.06002685
000330 be ba af 3d 39 11 5a ba b9 d7 df bd d9 3d 57 3b
       0.0858054 -0.00083186064 -0.10929818 0.003284326
000340 e3 54 df bc e4 0c c3 3c de 57 a2 bd 30 50 15 bd
       -0.027262157 0.023809858 -0.079269156 -0.036453426
000350 44 aa d2 bd 26 9c a6 3c 52 79 b9 3d 8c 6b 17 bd
       -0.10286382 0.02033813 0.09056343 -0.0369678
000360 c3 29 9a bd 0a 3b 5f bd c2 a5 57 bd 94 3a c5 3c
       -0.07527497 -0.054499663 -0.052648313 0.024075784
000370 e4 b4 8f bb 5e 9d c8 3b b0 76 91 3d 6b c2 c7 3d
       -0.0043855775 0.0061222753 0.07102716 0.09753879
000380 20 65 93 bc fa 44 fd 3b 05 82 2b 3d 64 fd 1b 3d
       -0.017992556 0.00772917 0.041872043 0.03808345
000390 40 e3 94 bd e5 df b5 bd cf c6 16 3d 51 35 82 bd
       -0.07269907 -0.08880595 0.036810692 -0.063578255
0003a0 82 54 f0 bd 04 b4 f0 bd 4e a2 9c bd c0 31 1d be
       -0.117348686 -0.11753085 -0.07648145 -0.1535101
0003b0 f6 42 2e 3b c8 ad 07 bd af cf 96 bd 06 bc 59 bc
       0.0026590205 -0.033124715 -0.07363831 -0.013289457
0003c0 42 e2 06 3d 0a 58 c1 bd 96 ca 15 bd 86 74 6a 3d
       0.03293062 -0.0944062 -0.036570154 0.05724003
0003d0 8b eb cc bc 61 92 ea bd da f7 cb 3b f5 73 19 bd
       -0.02501466 -0.11453701 0.0062246146 -0.0374641
0003e0 40 45 37 bb 44 0f b2 bc ea a2 5c bd e1 b5 01 bd
       -0.002796486 -0.021735795 -0.053866304 -0.031667594
0003f0 17 bf 61 bc c0 7b c1 bd 66 34 27 3d e7 2d 8e bc
       -0.0137784695 -0.094474316 0.040821455 -0.017355872

net.4.weight f4 [256, 256]
000000 e3 b2 f1 3c 18 6b 49 bc 9b 61 90 bc ff 0d 3f bd
       0.029504245 -0.0122936 -0.017624667 -0.046644207
000010 86 65 d8 ba 59 f4 0f 3d f3 d0 13 3c 46 a8 9d 3c
       -0.0016509749 0.035145137 0.009021985 0.019245278
000020 29 e7 8d 3c 23 d9 67 3d 4c 33 01 bd aa 96 fe bb
       0.01732214 0.056603562 -0.03154306 -0.0077694254
000030 89 e0 15 bd 7b 22 84 bc 47 1d 92 bc 1c e0 93 3c
       -0.036591087 -0.016129723 -0.017836226 0.0180512
000040 b0 9a b0 ba fd b0 a7 ba 81 33 7f 3d ac 99 cd bc
       -0.0013473835 -0.0012793835 0.062304977 -0.02509769
000050 b0 2b 39 bd d8 25 44 3c b2 f9 ac bc 2d 0d 78 bb
       -0.04520768 0.011971913 -0.021115158 -0.003784965
000060 62 63 c2 3c c9 f3 c8 3c cd 24 91 3c 4f 5d d3 bb
       0.02372903 0.024530308 0.017717743 -0.0064503322
000070 33 f1 3b 3c 4d 5c ff 38 21 b1 55 3d b7 11 b4 bc
       0.011471081 0.0001217654 0.052170876 -0.021981103
000080 a7 e8 18 bd 3f 14 20 3b ed 0b 06 bd 37 c5 d8 bc
       -0.03733125 0.002442613 -0.032726217 -0.026461227
000090 25 1b 0c 3a 0b 71 39 bd e2 5c 8b 3c 23 1f af 3c
       0.0005344621 -0.04527382 0.017012063 0.021377152
0000a0 71 ad 51 3d 21 d6 16 3d 88 18 25 bd 83 04 80 bd
       0.051190797 0.036825303 -0.040306598 -0.062508605
0000b0 41 0b 24 bd 4e 4f 9c 3c 2a 46 f1 bc be 03 aa bc
       -0.040049795 0.019080784 -0.029452402 -0.020753738
0000c0 a8 09 41 3d d9 85 22 3d 08 fc 10 3c d2 7b 37 bd
       0.04712835 0.03967843 0.008849151 -0.04479582
0000d0 11 af 65 3b c3 fa 67 bc 75 42 6b 3d 0c 18 11 3c
       0.0035046975 -0.014158907 0.057436425 0.008855831
0000e0 00 f7 40 3d 50 59 3e bc ee c1 ab bc 34 4b f9 3c
       0.047110558 -0.011617973 -0.020966496 0.030431367
0000f0 e2 6a 23 3d 4c 15 1e 3d ca 18 2c bd ab 65 64 3d
       0.039896853 0.03859453 -0.04201583 0.05576102
000100 f4 eb f4 bb df 71 62 bd c0 6f 9f bc 47 dd c4 3b
       -0.007474417 -0.055284377 -0.019462466 0.0060078236
000110 b6 a8 a3 39 cc 3e 08 3d 92 ae d6 bc be 3b 41 bc
       0.00031215482 0.033263013 -0.026206288 -0.011794029
000120 80 bf a3 3c 67 43 c7 bc e4 fd a2 ba 3d b0 10 bd
       0.019988775 -0.024324132 -0.0012435284 -0.035324324
000130 1e 0d 87 bd 4d 7d 01 3d 3a 50 32 3d 56 22 a0 3c
       -0.06594299 0.031613637 0.04353354 0.019547623
000140 d3 b6 89 3b 67 d6 72 bc ff 5a 3b 3d a3 19 14 bc
       0.0042027025 -0.014821625 0.045741078 -0.009039315
000150 d8 7f 0c bd 2e 95 de bc 2b eb 7f 3d 87 56 ee bc
       -0.03430161 -0.027170744 0.062480133 -0.029093994
000160 a9 46 55 3d eb 0a 26 3d 03 7f 44 bd cd 81 f6 3c
       0.05206934 0.040537756 -0.04797269 0.03009119
000170 2e 62 8e 3b 3d dd 0d 3c 79 4c 38 bd 58 bf 63 bc
       0.0043452 0.008658704 -0.044994805 -0.0139006
000180 99 e8 ae 3c e1 10 e5 bc 0f 70 e0 bc 62 5d 36 bc
       0.021351146 -0.02796215 -0.027397184 -0.011130663
000190 3b 6d 6b 3c ed c2 12 bd 38 d3 c9 3b d5 a8 0c bc
       0.014369304 -0.035830427 0.0061592124 -0.008585175
0001a0 47 a7 50 3c 1d 04 1b 3d 31 4d 1f bc 44 d3 c2 3c
       0.0127351945 0.03784572 -0.009722994 0.02378238
0001b0 fa 32 7c bd c5 89 49 3d 68 48 98 bc ba 0c e7 3c
       -0.061572053 0.049203653 -0.018589213 0.02820431
0001c0 a9 9e 67 bd dd 78 30 bd 58 04 81 3c 47 a1 2b 3b
       -0.056547794 -0.043084014 0.015749142 0.0026188658
0001d0 e2 b1 8e 3c dc 09 3e 3d 50 ab d5 3c 6f 25 2b bc
       0.017418806 0.04639612 0.026082665 -0.010445937
0001e0 40 72 3d 3d 09 23 e8 3b 55 1d df bc 11 56 f6 3a
       0.046251535 0.0070842546 -0.027235666 0.001879396
0001f0 09 11 ec bb 68 c4 b2 3b ff de 5c 3a 83 39 fc 3c
       -0.007204179 0.0054555424 0.0008425563 0.030789142
000200 5e ca 6c bc 02 72 28 bc 08 19 89 bb 4b 16 be bc
       -0.014452545 -0.010281088 -0.004183892 -0.02320399
000210 f4 ba 78 bc 33 a2 a2 39 1b 93 c1 3b 8c 75 ff bc
       -0.015181292 0.00031019896 0.005907429 -0.03118398
000220 d0 49 ac bc ff db 70 3c e3 34 1d bd dc c2 01 bd
       -0.02103129 0.014700889 -0.038380515 -0.031679973
000230 fd 8a 7c bd 1b fd f7 3c b6 ca c6 3b 09 d6 1a bd
       -0.061655987 0.030272057 0.0060666455 -0.037801776
000240 2f 8c a8 bb e9 c0 66 bb 19 ec 0e bd 17 e2 51 3b
       -0.0051436643 -0.0035210198 -0.03489313 0.003202563
000250 14 af 4a bd 32 c3 aa 3c 38 b5 e1 3c 43 df ed 3c
       -0.049483374 0.02084503 0.027552232 0.029037124
000260 05 f5 20 bc 29 54 68 bc 20 71 ce 3b 35 a5 2a 3d
       -0.009824042 -0.014180222 0.0063001066 0.04166146
000270 07 8d 53 3b 93 63 65 bc 33 e4 ec bc 13 f5 b2 3a
       0.0032280104 -0.014000791 -0.028917408 0.001365336
000280 71 a3 7a 3c 96 b3 27 bc 10 ba c6 bc b5 91 2c bd
       0.0152977565 -0.010235688 -0.024258643 -0.042131145
000290 c1 9d 68 bc 39 cf 2c 3c a5 ca 56 bd 0f 1f 74 3c
       -0.014197768 0.010547453 -0.05243935 0.014899983
0002a0 34 e1 43 3d 33 5d 3a bc 3b f9 3d bd 01 b9 b1 3c
       0.047822192 -0.0113747595 -0.046380263 0.021694662
0002b0 2c 1a 98 bc d7 cf 04 3d 48 80 11 3b 5b e3 3e bc
       -0.018567167 0.032424774 0.0022201706 -0.011650885
0002c0 9d 63 48 3d 52 af 12 bd c8 1a c6 bc 86 eb 40 3b
       0.048923124 -0.03581173 -0.024182692 0.0029437258
0002d0 5a 75 32 bd cd 8f 7a bd e3 26 e6 bc 91 7f 37 bd
       -0.043568946 -0.061172295 -0.028094715 -0.04479939
0002e0 3a d6 17 bd 89 50 cc bc 63 f7 83 3c 6a 56 67 bc
       -0.037069537 -0.024940746 0.016109174 -0.014119724
0002f0 69 46 e8 bb e8 2c 06 bd 8b 0e ae bc ab fc c6 ba
       -0.0070884717 -0.03275767 -0.021247169 -0.0015181502
000300 0d 4a 06 3b d0 35 2b bd d8 fe 81 bd 36 ee 25 3c
       0.0020490915 -0.041799366 -0.06347436 0.010127595
000310 92 d4 ba bc 21 66 cf bc 2e 95 13 3d 19 a9 4d 3c
       -0.02280644 -0.025317254 0.03603094 0.012552523
000320 68 ad 0c 3c a0 5c fb 3b 54 09 bd bb 70 22 93 3d
       0.008586265 0.007670954 -0.0057689343 0.07184303
000330 45 7b ca 3c 8e d6 a4 3c ab 26 a7 bb 5e 78 5d ba
       0.024716983 0.020121839 -0.005101045 -0.0008448417
000340 fd 89 50 3d 0b 94 02 bb 7f 2a 6d bc 23 0e a6 3c
       0.050912846 -0.0019924666 -0.014475464 0.020270413
000350 f0 83 c5 3b aa f8 76 3b f9 a1 27 3c 52 2e 3c bd
       0.006027691 0.0037684836 0.010231488 -0.045942612
000360 30 73 2f 3d db c2 1b bd 72 c1 95 3c 2f fa 01 bd
       0.04283446 -0.038027626 0.018280718 -0.031732734
000370 07 3a 76 3c 3c 63 a1 3c d4 eb b2 3a 70 d6 ef bb
       0.015028483 0.019700639 0.0013650605 -0.007319264
000380 d5 b8 da bc f7 c9 9d bc 9c 62 1b bc 63 3f 04 3d
       -0.026699463 -0.019261343 -0.0094839595 0.032287013
000390 66 37 91 bd 2a 58 08 3d 96 e9 c3 3c 3c dc ef bc
       -0.070906445 0.033287205 0.023915093 -0.02927982
0003a0 93 5d 27 3c 9c e3 f7 bb 51 a8 47 bd 82 7c 13 bd
       0.010215181 -0.007564975 -0.048744503 -0.03600741
0003b0 45 d6 a7 bc 7f 6f f2 bb f5 85 de 3c 37 76 db 3b
       -0.020487914 -0.0073985453 0.027163485 0.006697442
0003c0 48 28 33 bc 7c 72 09 bd b8 ae bf 3c 3b 98 ea 3c
       -0.010934897 -0.033556446 0.023398742 0.028637042
0003d0 c5 e2 ad 3c e7 5b 33 3c 87 e1 1d bd e5 72 66 3d
       0.021226296 0.010947204 -0.038545158 0.056261916
0003e0 6d ed 02 3d 82 ba d5 bb b5 2d 30 3d ff 48 a2 3b
       0.031964708 -0.0065224776 0.04301234 0.0049525495
0003f0 93 7d ee bc 05 42 b1 3c 8f 74 9f 3c 4c 80 41 bc
       -0.029112613 0.021637926 0.01946476 -0.0118103735

net.4.bias f4 [256]
000000 71 a9 32 bd fc 56 20 bd 08 34 65 bd c4 15 87 bc
       -0.043618623 -0.039145455 -0.055957824 -0.01648987
000010 b4 e6 0d bd 3e ff 7f 3d a6 ba a3 bd fd 77 c9 3a
       -0.034643844 0.062499277 -0.07994585 0.0015370842
000020 97 9b 4f bd f0 29 a1 3c 30 99 11 bd 61 ce f9 3b
       -0.05068549 0.019673318 -0.03554648 0.0076234792
000030 9a a1 eb bc 0b 6f c5 3b e0 57 04 3d c2 f0 54 3d
       -0.028763581 0.0060252002 0.032310367 0.051987417
000040 6d f5 8e bd 48 c4 70 3c 79 c9 2d 3d 6c 58 35 bd
       -0.06980405 0.014695235 0.042428467 -0.04427378
000050 69 de 33 bc e8 23 b0 bb bb 1d e9 bc 66 d4 43 3d
       -0.01097832 -0.005375374 -0.02845656 0.04780998
000060 73 cb 65 bc ec ab b5 bd 39 45 c6 3c f9 9f 2b 3d
       -0.014025557 -0.08870682 0.02420293 0.04190061
000070 6c 4d 66 bd 6e 2e 6b 3d 0c 06 04 3d ab ac 9a 3c
       -0.05622618 0.057417326 0.03223233 0.018881163
000080 c0 94 2a 3d 42 aa bd 3b df 00 26 bd 99 b1 24 bd
       0.041645765 0.0057881186 -0.040528174 -0.040208433
000090 15 20 08 3d 47 1d a7 3c 5c 1e 6d 3c 2d 3c 2b bd
       0.03323372 0.020399703 0.01447257 -0.041805435
0000a0 8c 9a 1c bc 35 7c 91 bd 41 ca 8a 3d 8e bf 28 bd
       -0.009558331 -0.07103769 0.06776858 -0.041198306
0000b0 32 41 86 bd 04 47 99 bd 8f 20 c3 bc bd 5f 94 bc
       -0.06555404 -0.07484248 -0.023819236 -0.018112058
0000c0 7f 80 c0 bd 5f af b7 3c 1f 05 ba bd 1a 05 9d bc
       -0.09399509 0.02242249 -0.09083008 -0.019167472
0000d0 6b b9 15 bd 9e 42 81 bc 7d bb 8a bd 78 4c 87 3d
       -0.03655378 -0.015778836 -0.06774042 0.06606382
0000e0 22 ce 63 bd 41 f9 26 3c 0a ab 9c 3c 95 93 72 3d
       -0.055616505 0.010191263 0.019124527 0.059222776
0000f0 04 75 c2 bb a0 f8 42 bc f3 3b 58 bc b3 9c 80 3d
       -0.0059343595 -0.011900097 -0.013197887 0.06279888
000100 9a d6 5c 3d 84 86 58 3d 51 f3 c7 3b 67 75 6b 3d
       0.053915597 0.05286266 0.0061020036 0.05748501
000110 29 bb 10 3c 0a 48 42 bc 09 0a 81 bd 8e 4d 63 bd
       0.008833685 -0.011857996 -0.06300742 -0.055493884
000120 00 8a d3 3c 2b d7 5e 3d 52 ac 23 bd 24 41 e4 3c
       0.02582264 0.05440442 -0.03995926 0.027863093
000130 0b 7f 4e bd 63 4d 84 39 1b 99 9d bc aa 0b d6 bb
       -0.050414126 0.0002523466 -0.019238045 -0.006532152
000140 85 1c 9c bc 1f 81 9f bc 2e 6e f6 ba 94 b7 5a 3b
       -0.019056568 -0.01947075 -0.0018801147 0.0033373581
000150 2f 0d 37 bd 5e 88 67 bd 2d ed 96 bd 6f 4f d2 3c
       -0.044690307 -0.056526534 -0.073694564 0.025672643
000160 dc 89 b9 bb c3 b7 94 bc 8e a5 e3 3c 36 59 50 bd
       -0.005662186 -0.01815403 0.027788904 -0.05086633
000170 ba 14 87 bd 02 c9 ea bc 88 c8 2b bc 5b d0 06 3d
       -0.0659575 -0.028660301 -0.010484822 0.032913547
000180 5d d7 03 3d dc 1c 0a 3d 5a c2 d6 bc 2a d4 b4 bc
       0.03218781 0.03371893 -0.02621572 -0.022073824
000190 64 5d c5 bc 33 9a ee 3c 79 e5 8b 3d 2e a3 4d bc
       -0.024092384 0.029126262 0.06830878 -0.012551112
0001a0 9c f1 da 3c 94 20 ca bb 01 98 06 bd be ec b3 bc
       0.026726536 -0.0061684344 -0.032859806 -0.021963473
0001b0 af bd 9c bc 69 d6 52 3d c0 da 24 bd 04 58 38 bd
       -0.019133417 0.05147401 -0.04024768 -0.045005813
0001c0 60 71 36 bd b4 6e 40 bd 22 66 d9 bc 47 43 22 3d
       -0.044541717 -0.046980575 -0.026537959 0.039614942
0001d0 14 30 a0 3c d4 16 6e 3d 27 e0 6e 3d ed 44 a5 bc
       0.019554175 0.05812724 0.058319237 -0.020174468
0001e0 50 f0 64 3c 5b 09 be bd 59 1c 6f 3c 76 40 2e bc
       0.013973311 -0.09279128 0.014594161 -0.010635486
0001f0 61 18 22 bd b5 ab a3 bd e3 d7 31 bd b2 4c 12 bd
       -0.03957403 -0.07991735 -0.043418776 -0.035717674
000200 5e 9f 4c bd bd 42 31 bd ce 61 a0 bc 14 60 26 3c
       -0.049956672 -0.043276537 -0.019577887 0.010154743
000210 0b fb 31 bd 57 c1 a4 bc 2b 94 cf bc 94 4a 34 3b
       -0.043452304 -0.020111723 -0.025339207 0.0027510272
000220 27 5c ec bc e5 73 97 bd f8 10 75 bc cd 50 05 bd
       -0.028852535 -0.07395152 -0.014957659 -0.03254776
000230 38 ec bf 3c 91 20 04 3d 49 f6 3e bc 2e ee ae bb
       0.023428068 0.03225762 -0.011655399 -0.005338452
000240 1f 40 33 bd f9 8f c8 3c d9 04 32 bd 18 f5 51 bd
       -0.043762323 0.024482714 -0.043461654 -0.05125913
000250 07 35 ac bd c9 89 3f 3c ec 2c d5 bb 5b 89 61 3d
       -0.08408552 0.011690565 -0.0065055992 0.055062633
000260 aa 95 85 bd eb 6a b4 bd 81 b3 51 bd eb e9 d5 bd
       -0.06522687 -0.088094555 -0.05119658 -0.10445007
000270 24 d7 85 bd f6 50 09 3c a3 5f 9a 3b 2c d2 a5 bd
       -0.065351754 0.008381119 0.004711108 -0.08096728
000280 da cc 47 3c 08 89 a6 3c a3 94 6e 3b 68 e7 7e 3a
       0.0121948365 0.020329013 0.0036404512 0.0009723813
000290 8c 30 96 3c b6 dc 31 bd bf 96 66 3d 93 b8 27 3c
       0.018333696 -0.043423377 0.056296106 0.010236877
0002a0 06 45 98 bd 8e 47 16 3d 78 dd 70 3c 2e 7b 7b bd
       -0.0743504 0.036689334 0.01470124 -0.06139677
0002b0 c0 9d 8e bd 91 91 15 3d 44 f5 83 bd 8a fd 2b bb
       -0.06963682 0.036515776 -0.06443265 -0.002624365
0002c0 68 1f 60 3d 08 af 92 bc 2a a6 14 bc 7b c5 43 3d
       0.05471745 -0.017905727 -0.00907282 0.047795754
0002d0 0f 29 52 bd cd 99 5b bc 2c a8 51 bc 89 80 52 bd
       -0.051308688 -0.013403368 -0.012796443 -0.051392112
0002e0 72 49 89 bc ca 3c 0a bd 42 79 6f bd e6 55 2a bd
       -0.016758654 -0.03374938 -0.05846525 -0.041585825
0002f0 79 28 3c bd 27 d6 c5 3c a7 d0 21 3d 0d 9a 35 bc
       -0.045937035 0.024149967 0.039505627 -0.011084092
000300 cb be 3e bd 38 9c 25 bd 5f 29 0b 3c 93 5c 8c 3c
       -0.046568673 -0.040432185 0.00849375 0.017133987
000310 9b 46 42 bd b3 a5 e7 bc f1 a1 89 3d eb 52 91 bc
       -0.047430616 -0.028277254 0.06720341 -0.017739734
000320 27 1e b4 3c cf 36 0e 3c 69 36 9c bd 21 02 ac 3c
       0.021987034 0.00868006 -0.076275654 0.020997109
000330 1b fc 3b bd 9a 9a f2 bc 7e 3d 02 bd b6 19 24 3c
       -0.045894723 -0.029614735 -0.031796925 0.010015896
000340 95 6f aa bc 0c 38 b0 bd 9a aa 20 3d 44 51 ba bb
       -0.02080516 -0.0860444 0.0392252 -0.005685957
000350 37 e5 4c bd ad 0f c9 bc 72 9d 10 bd 4f 93 5f bd
       -0.050023284 -0.024543608 -0.0353064 -0.054583844
000360 6c 0e 07 3c 72 50 aa 3c 17 80 dc bc 86 30 2b bd
       0.008243185 0.020790312 -0.026916547 -0.041794322
000370 e7 fa a9 bd cf 02 7b bd 0c df 5c 3d ee 67 26 bd
       -0.08299809 -0.061281975 0.05392365 -0.04062646
000380 94 c6 12 3d aa 69 9c bc 1c ab 08 3d 6f b4 24 bc
       0.03583391 -0.019093353 0.033366308 -0.010052784
000390 b5 4b 85 bd 86 9f e1 ba 55 e2 1d 3d 2a 2b 34 3c
       -0.065085806 -0.0017213679 0.038545925 0.010996619
0003a0 b6 64 54 bd 29 9e 62 bd e9 6a 85 3b 0e d7 05 3d
       -0.051853858 -0.055326615 0.0040715826 0.032675795
0003b0 c4 90 bc bc ca 8e 77 bd c9 f7 1f bc 18 e2 a5 3b
       -0.023018248 -0.06043891 -0.009763666 0.005062353
0003c0 61 59 41 bd 50 d7 32 bc 8a 77 6c 3d 07 2c 3f 3d
       -0.04720438 -0.010915592 0.05773119 0.046672847
0003d0 8e ce 02 3d b7 ca 48 ba be 9e 1f bd 77 bd 64 bd
       0.031935267 -0.00076596014 -0.038969748 -0.05584475
0003e0 b9 9d 85 bd 5d 25 7a bc 8e 8c 64 bd 71 c3 19 bd
       -0.06524224 -0.015267697 -0.055798106 -0.037539903
0003f0 ab 4b 53 bd e1 22 4e 3d bd 42 bb bd 91 ba 25 bd
       -0.051585834 0.050326232 -0.09143589 -0.040461127

net.6.weight f4 [2, 256]
000000 f8 4d 57 b9 c5 2d 41 ba cd d9 a1 3d 78 11 b0 ba
       -0.00020533043 -0.0007369186 0.0790287 -0.001343294
000010 60 b2 41 b9 09 dd 0b bc 37 05 af 3d d1 bb b3 3a
       -0.00018472364 -0.008536586 0.085459165 0.001371259
000020 72 7a 43 bb 86 a7 f5 3d 0c fa a4 ba d8 b1 c3 3d
       -0.0029827622 0.11994843 -0.0012586727 0.095554054
000030 6f 57 a1 3d ca 0a fb 3d 7c f1 7e ba f2 07 0c bd
       0.07878005 0.12257917 -0.0009725315 -0.034187265
000040 ff 03 e1 3d 16 d0 d0 b9 25 d2 54 39 6d 62 dd 39
       0.1098709 -0.00039827888 0.0002029618 0.00042225738
000050 7f 09 02 3a 16 9d a1 3a ee e1 3e 39 a8 d4 69 ba
       0.00049605215 0.001233014 0.00018203977 -0.0008919933
000060 dc 05 f6 3d 7f 5c 0e 3e cc 68 a7 3a 71 fc e5 3a
       0.12012836 0.13902472 0.0012772321 0.0017546547
000070 38 4e d2 3d 23 ec 36 ba 47 ee f6 3d d9 4f b6 3d
       0.10268825 -0.0006977936 0.120571665 0.089019485
000080 c7 54 06 3a a8 71 5f 3a aa 6c d4 ba 3c a6 30 3d
       0.0005124327 0.0008523711 -0.0016206701 0.043127283
000090 4d e0 a5 b9 29 a2 85 39 a7 bb fe 3d 95 7a c3 3d
       -0.0003163837 0.00025488556 0.124381356 0.09544865
0000a0 fc f3 fd 3d 9a 29 e1 3d fc 88 2d ba cb 1f 00 3e
       0.12400052 0.10994263 -0.00066198385 0.12512128
0000b0 71 a8 bc 38 52 4c c6 3d 20 da e8 38 0f 40 87 ba
       8.995913e-05 0.09682526 0.00011103251 -0.0010318774
0000c0 1e 0d 9d 3d 4e f1 dd 3d 6e 34 af 3d 84 fb 06 3e
       0.076685175 0.10837041 0.08554922 0.13181883
0000d0 b5 d9 75 ba 38 6a bc 3d 35 fa d5 3a c0 c0 aa 3a
       -0.0009378449 0.09199947 0.0016325178 0.0013027415
0000e0 6a ec 62 bb fe 60 00 3a ef 4f 4b 3d 51 40 42 bb
       -0.0034625777 0.00048972655 0.049636777 -0.0029640386
0000f0 2d 0a ac 3d 44 ff b9 bc 36 3e e1 3d dc 33 30 ba
       0.084003784 -0.022704728 0.10998194 -0.0006721595
000100 53 f6 75 ba 3a 73 fb ba ae f2 92 39 60 c5 c9 b9
       -0.00093827135 -0.001918412 0.000280281 -0.00038484763
000110 b4 97 c4 3d 0b 27 e3 3d 12 ab e1 3d 30 75 01 3c
       0.095992476 0.11091431 0.11018957 0.007901475
000120 fd b8 c8 3d 7b c6 9c ba 50 c7 af 3d 5b 39 b4 3c
       0.09800909 -0.0011961007 0.08582938 0.022000005
000130 8d 29 09 3e 03 e1 20 bc e4 2b ee 3d de 4b cb 39
       0.13394757 -0.009819272 0.11629465 0.00038775703
000140 65 78 18 bc 54 cd d9 b9 fa d4 ec 3d 7e be 7a ba
       -0.009306048 -0.00041542447 0.115640596 -0.0009565129
000150 fd 38 64 3a d1 e4 16 bc 8d 27 e5 3d 16 6b 1a 3b
       0.00087060017 -0.0092098275 0.11189184 0.0023562363
000160 db 43 83 b9 df a2 a3 b9 14 30 09 3e 70 25 c8 3d
       -0.00025036823 -0.0003121113 0.13397247 0.09772766
000170 5d b0 ce 3d 0a ee d3 ba db 9e 00 bb f8 22 38 ba
       0.100922324 -0.0016168964 -0.0019625935 -0.0007024254
000180 02 3a 04 3e 60 55 7f bb 90 3a 3e b7 b7 11 c5 b9
       0.12912753 -0.00389608 -1.1338518e-05 -0.00037587967
000190 48 57 7a 3a 5c 90 60 ba 73 24 08 3a a9 45 c3 3d
       0.0009549749 -0.0008566433 0.00051934196 0.09534771
0001a0 dd 64 9e ba 81 b6 8c 39 8a ba f5 3d 4c 0d 59 3a
       -0.0012084503 0.00026838857 0.1199847 0.00082798745
0001b0 ba 57 df 3d 4c 73 e4 ba a9 c8 d5 3d eb a4 05 3e
       0.109054044 -0.0017429381 0.104386635 0.13051192
0001c0 a0 5b 6c b8 4d c7 9e 3d b4 e7 74 3b 19 16 c0 bb
       -5.6352117e-05 0.07752857 0.003736955 -0.0058620092
0001d0 af 41 ee bc 52 8c 14 b9 82 74 57 3a 0e b6 b2 3d
       -0.029084055 -0.00014166653 0.000821896 0.087261304
0001e0 fb a9 c5 3d f8 8d 02 3e db 20 c2 3d d1 db a0 3a
       0.09651562 0.1274947 0.09478923 0.0012272542
0001f0 f3 65 03 3e af 79 06 3e 64 e3 d7 3d d9 d4 ec 3d
       0.1283186 0.13132356 0.10541418 0.11564035
000200 d2 e5 d6 3d b6 82 2c 3a 72 48 4a 3b 3a 9c ef 3d
       0.104930535 0.0006580757 0.0030865935 0.1169972
000210 09 67 77 3a 34 f9 ad 3d 6f 64 de 3d 66 7c d9 ba
       0.00094376557 0.08494797 0.10859 -0.001659286
000220 f2 c0 47 3d e1 b8 de 3d 11 c8 2c 39 9b b5 85 ba
       0.04876799 0.108751066 0.00016477729 -0.0010201217
000230 d2 bc 9e bb a4 66 f0 ba 66 59 e4 3d 40 4e 0c 3a
       -0.0048442865 -0.0018341136 0.11149864 0.00053522363
000240 bb 93 5f 3a 89 b1 f1 ba cf 3a dc 39 fe 20 cb 3d
       0.00085287885 -0.001843975 0.00042005486 0.09918402
000250 ac 08 cf 3d 3b f7 ed 3d f5 e8 7c 3a e8 61 b2 3a
       0.10109076 0.11619421 0.00096477504 0.0013609501
000260 6e ab 90 3d a8 8f 07 3e 95 4f b0 b8 3b b0 66 3c
       0.070639476 0.13238394 -8.407157e-05 0.014080103
000270 34 28 fc 3d ec 03 75 ba 5d 75 17 3a f3 60 b8 3d
       0.12312356 -0.00093465927 0.00057776814 0.090028666
000280 cd 04 ad 3d 3d 75 3a 3a 9d 5c f1 ba 4e 19 8b bc
       0.08448181 0.0007112807 -0.0018414442 -0.01697984
000290 15 eb fc 3d 2a 09 e0 3a c0 be d7 b6 46 31 03 3b
       0.12349526 0.0017092575 -6.4297055e-06 0.0020018383
0002a0 d5 14 b1 3d 4c 63 ae b8 d3 a9 27 ba c9 49 fc b9
       0.086465515 -8.315462e-05 -0.000639585 -0.0004812016
0002b0 40 b7 f9 3d f0 23 87 b9 6b d9 c3 3a 43 85 02 3e
       0.12193155 -0.00025775982 0.0014942115 0.12746148
0002c0 9a 2e 05 3b 98 28 97 ba 41 d6 4e 3a 3c 4f 9e 39
       0.0020321966 -0.0011532484 0.00078902027 0.00030195143
0002d0 65 39 fe 3d e8 d0 11 ba 2a 36 a6 3d aa a1 45 ba
       0.12413291 -0.00055624405 0.081158 -0.00075390434
0002e0 12 60 b4 ba 6f fc ff 3a fd 49 db 3d 2d 7a 15 ba
       -0.0013761541 0.0019530187 0.107074715 -0.00057021045
0002f0 a9 ab eb 3d 88 42 01 3e 92 ab 10 ba 22 45 bb ba
       0.11507351 0.12623036 -0.000551873 -0.0014287571
000300 86 a9 46 ba fd 02 0a ba 52 ae 14 3a b2 41 ab 3a
       -0.00075783615 -0.00052647275 0.00056717277 0.0013065843
000310 b4 a1 99 3d 90 c7 07 3e 4b ad 00 39 bb 06 01 3e
       0.075015455 0.13259721 0.00012271588 0.12600224
000320 ef ef 03 b9 56 03 b8 bc ae 5e 0c 3e a6 e6 b5 ba
       -0.00012582516 -0.022462528 0.13707992 -0.0013877943
000330 a0 35 56 b8 aa 16 0f 3e 66 bb c5 3d 2e 12 dd ba
       -5.1071518e-05 0.1397349 0.09654884 -0.001686638
000340 e6 1d 7d 39 16 65 af 3d 90 1c 7d ba 0e f4 7c 39
       0.00024139098 0.085642025 -0.000965544 0.0002412351
000350 36 d2 98 ba ae d5 0b 3e 9d 18 2d bc 12 75 a9 39
       -0.0011659327 0.13655731 -0.01056495 0.00032321416
000360 58 a6 bc 3d 90 d9 72 3a e0 c0 d2 ba 27 15 0b bb
       0.09211415 0.0009263987 -0.001607921 -0.0021222325
000370 36 55 0f 3e 3d 30 be 3d 2b ce 92 39 a2 03 3a 3a
       0.13997349 0.092865445 0.00028000897 0.0007095878
000380 61 ec eb 3a 28 10 a2 bc d2 e6 47 3a bb 32 77 ba
       0.0017999524 -0.019783095 0.00076256425 -0.00094298617
000390 c6 14 fd 3d 26 84 a5 3d 4f 9a 88 bc 1e db c2 3d
       0.12357478 0.08081846 -0.016675143 0.095144495
0003a0 06 46 9f b9 4f f0 02 3e ed b0 17 bb 83 76 4a ba
       -0.00030379015 0.12786983 -0.0023146227 -0.0007723348
0003b0 53 9f ab 3d cf 3b c4 3d 7c 3e b2 3d 4c ed 5e 3a
       0.08379998 0.0958172 0.08703324 0.0008503988
0003c0 ba e0 c0 3d 89 ec 81 39 44 7c 93 3a 3a 16 91 39
       0.09417863 0.0002478103 0.0011252244 0.00027673115
0003d0 a2 a0 80 ba e6 05 0f 3e f9 b8 96 bb 0e c4 d7 3d
       -0.0009813497 0.13967094 -0.004599687 0.10535441
0003e0 6c aa b4 3d b5 72 ab 3d d6 e9 01 3e de 39 03 3e
       0.08821568 0.08371488 0.12686858 0.12815043
0003f0 6d c9 e7 b9 54 98 d6 b9 26 f5 dc 3d 70 81 e8 b8
       -0.00044209827 -0.00040930754 0.10788946 -0.00011086732

net.6.bias f4 [2]
000000 30 6f 91 bd f6 8a 13 3d
       -0.071012855 0.036021195
