moons/rnode/models/73000_model.pt (torch, 535856 bytes, 8 tensors)

net.0.weight f4 [256, 3]
00000000: f1b7 debb 93dd 263c d88b 90b9 1ff8 9dbe
00000010: 1d43 83be 091e f5be a989 923e b6cb 30bf
00000020: 6397 4bbf 04e0 b8be db09 8d3e 51dd 663d
00000030: b5af 86be 43e2 53be 9db9 d2be 2a97 853e
00000040: a624 873c 988f bd3d a852 e53e c8b6 37bf
00000050: 97f4 12bf fdd2 6ebe 798f e13b 69ab e93d
00000060: 6ba0 9cbe 0851 f5bc 335c 833e f3ae e3bd
00000070: b235 98bd 01cb 39be 15f2 80be e617 00bf
00000080: 8b7a 06be 0870 9a3c e656 a93a ae6e 12bf
00000090: 87f0 febc 11d8 913d 8753 d3bf c358 0f3d
000000a0: 6e03 bc3b d7f7 83be 71c6 503d b861 033d
000000b0: 6340 c6be 5c7b f9bd fcde b3be 7541 32be
000000c0: 6ec5 94be 3643 593f 0f2d 9d3e 02fc 86bc
000000d0: 2b51 86bf 4c60 8b3e 8317 1bbc 50b5 ec3a
000000e0: b39f d93c 4639 c93e ee09 4dbe e165 aabe
000000f0: cf46 c4be f8f3 623e 2e43 393e 60e0 39bc
00000100: 52b8 823b 5620 1a3e 4d27 fdbd 5225 08be
00000110: 2847 0cbe 76c2 3fbc be63 cfbc cb1c 8e3d
00000120: 315b 2fbe 23e8 14be d9c1 08bf 7a6a 2fbf
00000130: f934 9f3e 33df c0be 931d c13e 49c2 22bf
00000140: 58e9 abbf b547 d83d cb6e f8bc f31b 07bf
00000150: a1af 3cbf 93c8 1d3e a63a a6be d4d0 d23d
00000160: 5b69 113e 0272 553e 1616 943c 235c fbbd
00000170: c61b 953c 4305 903e 1088 85bd 4945 303f
00000180: c43e 15bf 2d91 823e ccdc 93bd f538 9d3c
00000190: 0d65 ff3b f9bc a6be f4e2 e6bc 0d49 74bc
000001a0: e27b 26bf 06fc 243d ec87 0abc d4a1 fc3c
000001b0: 1966 67bc a29a 363d b023 58bf 6145 e93d
000001c0: 648a cc3e c2e8 873d 89c5 5fbf bb0d e63d
000001d0: ba3a 64be 0ee0 8b3d 6b58 bfbb 15da 053d
000001e0: 54fd d3bc 2c9e 593d 0db9 e23d 3910 c4bd
000001f0: 4afd 02be 618d 57be 52d2 f73b 5d1f c7bd
00000200: 630c 263e 77d2 5e3d a690 79bf b6dc 17be
00000210: 0189 3e3e 1b0a 35bd a360 f13e 2b98 2c3b
00000220: 91fd 97bd 53a9 083e 2d5b 2cbe 2836 d13d
00000230: 56b5 273e 3540 13be b8a2 48be 41f3 2cbf
00000240: a404 e1be 391a 6cbf 768b 193f 93be ad3c
00000250: 4853 16bd 4696 39be eb28 b5be e900 68bf
00000260: 93a9 d0be 976b 17bf 0ded 09bf bc76 5cbf
00000270: 2a18 73be 8966 803e db1f 663e b13d 923c
00000280: ccdf b8bd 1763 663e a7e8 503c df1b a1bb
00000290: 2910 a0be 611e 5d3e 7ecd 7fbd f1ff 253d
000002a0: 43d2 023e b95a 5ebd 8c2b 9ebf d5dd 023c
000002b0: 6c1c 3c3b 40e5 ab3d c36c d13c 9c50 533d
000002c0: 12f9 45bd b04a 55be a23d 24bd e555 49be
000002d0: c9cb b4bc c145 cf3d fef3 0abe 17b3 ccbd
000002e0: 5efd a53d 24a4 69bc 80cf 853e f79e 04be
000002f0: 685d 93be 2929 eb3e b652 fbbe 6bff 12bf
00000300: 9b9b 003d 4869 f13e 0c8c 263f b730 833e
00000310: 4fb0 433f c97d 0b3f 497d 2c3e 61cf 913e
00000320: b2a7 abbf 35e5 16bf d952 d1be 4d8c c2be
00000330: 422a 5b3e 7f07 6fbd cc0c 103f 5255 e3be
00000340: 5160 8a3e f507 263d 41a8 35be 0423 753e
00000350: 9f9d 5e3e b71d bd3d 6ae5 c2bd 659a 433e
00000360: 4387 683c 8676 b5bd ae80 58bd 7aa3 603e
00000370: f4ae 69bd 1136 ba3e 79d6 293d bb3a eabd
00000380: fd60 4ebd 154c 84ba b010 9e3c 3209 d23c
00000390: 96d9 a33e 5919 1d3f 9263 88bf deeb 043e
000003a0: 7070 03bd de58 9f3e 47fe 863c d0bd 823d
000003b0: 4439 e63d 45b6 8e3e 15a3 273f 9503 a73e
000003c0: 9846 5d3e e54c 83be 4fe2 5a3f b76b 863e
000003d0: 9074 67bb 0db3 e93e fdb0 f8bd b4f7 9ebe
000003e0: a11a 7dbe 5eaf b6be 5c09 443e 1eeb 3fbe
000003f0: f729 b4be 6930 933d 1ad8 c33e b0d9 593b
-0.00679683 0.010184663 -0.00027570012 -0.30853364 -0.2563714 -0.47874478 0.2862065 -0.6906084
-0.7952787 -0.3610841 0.27546582 0.056363408 -0.2630593 -0.20691781 -0.41157237 0.26091892
0.016496968 0.09255904 0.44789624 -0.7176328 -0.57404464 -0.23322673 0.0068835584 0.11409647
-0.3059114 -0.029945865 0.2565628 -0.11117353 -0.074321166 -0.18143846 -0.25184694 -0.50036466
-0.13132684 0.018852249 0.0012919575 -0.57200134 -0.031120552 0.071212895 -1.6509866 0.03499676
0.0057377135 -0.25775024 0.0509705 0.032075614 -0.38720998 -0.12181732 -0.3513106 -0.17407782
-0.29056877 0.8486818 0.3069844 -0.016477589 -1.049352 0.27221906 -0.009466055 0.0018059406
0.026565408 0.3930151 -0.20023319 -0.33280852 -0.38335273 0.22163379 0.18092033 -0.011344999
0.003989258 0.15051398 -0.12361012 -0.13295487 -0.13699019 -0.011704078 -0.025316115 0.069390856
-0.1712463 -0.14541678 -0.5342079 -0.68521845 0.31095102 -0.37670287 0.37717876 -0.63577706
-1.3430586 0.10560552 -0.030326268 -0.5277702 -0.7370549 0.15408544 -0.3246662 0.10293737
0.14200346 0.20844272 0.018076938 -0.12273433 0.01820172 0.28129014 -0.065200925 0.6885572
-0.582989 0.25501385 -0.07219848 0.019192198 0.0077940286 -0.3256605 -0.028184392 -0.014909995
-0.6503278 0.04027941 -0.008455258 0.030838884 -0.014123463 0.044581063 -0.84429455 0.11390186
0.39949334 0.06636192 -0.8741079 0.11233088 -0.22288027 0.068298444 -0.0058393977 0.032678682
-0.025877632 0.05312936 0.11070452 -0.09573407 -0.12791935 -0.21050026 0.007562914 -0.09722779
0.16215663 0.054399934 -0.9748634 -0.14830288 0.1860695 -0.04419909 0.4714404 0.0026335816
-0.07421411 0.13345842 -0.16831656 0.102154076 0.16377768 -0.14379962 -0.19593322 -0.67558676
-0.43948853 -0.9222751 0.59978426 0.021209037 -0.036700517 -0.18123731 -0.3538278 -0.9062639
-0.40754375 -0.59148544 -0.53877336 -0.86118674 -0.23739687 0.25078228 0.2247309 0.017851682
-0.09027061 0.22498737 0.012750781 -0.0049166526 -0.3126233 0.2159362 -0.062451832 0.040527288
0.12775521 -0.05428574 -1.235704 0.007987459 0.0028703464 0.08393335 0.025564557 0.051590547
-0.048333235 -0.20829272 -0.04009784 -0.19661672 -0.022069829 0.101207264 -0.13569638 -0.09995096
0.081049666 -0.014260326 0.26134872 -0.12951265 -0.287822 0.4592984 -0.4908654 -0.57420987
0.031398397 0.47150636 0.65057445 0.25623104 0.764409 0.5448881 0.16844667 0.2847853
-1.3410552 -0.5894349 -0.4088352 -0.37997666 0.21402839 -0.05835676 0.56269526 -0.44401032
0.2702661 0.040534932 -0.17739965 0.23939139 0.21739815 0.09234183 -0.095164135 0.19101866
0.014192405 -0.08860497 -0.052857094 0.21937361 -0.057051614 0.36369374 0.041464303 -0.11436983
-0.050385464 -0.0010093475 0.019295067 0.02563915 0.32001942 0.613668 -1.0655386 0.12980601
-0.03208965 0.31122488 0.01647867 0.0638386 0.11241391 0.27873436 0.6548322 0.3261992
0.2160896 -0.25644603 0.8550157 0.26254055 -0.003531728 0.45644417 -0.12143133 -0.31048357
-0.2471719 -0.3568067 0.19144195 -0.18742034 -0.35188267 0.07186968 0.3825081 0.0033241324

net.0.bias f4 [256]
00000000: 9e18 4ebb f201 0a3f db31 4b3f c726 b2be
00000010: acce ee3e 6e1d 78bf dac0 653f 87a5 4cbf
00000020: 1ea2 65bf 2a53 4f3e 96a4 b23e eca1 cfbd
00000030: 4a8d 263f a55a e8be 8c6f 143f 0e0d c43d
00000040: 4ef7 f8be 8d98 653f 6352 02bd f76d 093f
00000050: 5656 01bf 291e 25be 3ddb 58be bbbf 75bd
00000060: af20 44bf d540 cbbe 4364 47bf ba16 2f3f
00000070: 449f 26be 198a dbbd 9cc5 b9be 4101 8ebf
00000080: bb0c cfbe 53a1 d2bd c765 283f 3b10 27be
00000090: 5c70 7c3e 1c89 85bf 3ea7 e8be 2f47 83be
000000a0: 0a83 7dbe a343 7b3e 8272 823e 8722 4bbf
000000b0: fd2c 3ebf 9272 aebe 0696 93be 7ae8 ed3e
000000c0: 13f2 2ebf f486 1dbe cace 8d3f dea5 55bf
000000d0: 66b4 ccbe 813c 193e d587 1dbd 93e6 583e
000000e0: 2535 123f 68fb cdbd b35c 23bd b7ef 56bf
000000f0: 508d cd3d a85f ddbd 0239 ca3e c5eb 603f
00000100: bfde cdbe 8789 57be 1401 163c df2c 74bf
00000110: eea3 5dbf 81a7 d9be 2299 acbe 24de cd3e
00000120: 0b45 80be 414f 65bf bba4 ba3d 4461 91be
00000130: 9c90 90bd 1c2b 01bf 228b 7abe c594 143e
00000140: 232d 8bbf 141b 77bf 0ad5 cd3e d1fe 61be
00000150: e710 62bf 550f dd3e 19a7 03bf cf4f 16be
00000160: ed9d 30bf b3dd d5bd 394e 06be f89c 62bf
00000170: 73a9 25bf dfff 0bbf 6d0f 253e c8bf bebd
00000180: 45b5 c6be 1459 3dbe eb97 41be 1ebf 4abe
00000190: 6d9c 53bd 94d5 e5be 4de2 473c 418c a1be
000001a0: 95f1 9d3d 7c6e 893e 5511 cc3d c2ec 43bf
000001b0: b2d0 773e 0387 313e fe30 dd3e 2f1f 7dbe
000001c0: ea96 2ebe a837 63be 6de6 8a3d 293e ff3e
000001d0: 6b3a f23c 0f65 cfbe 4306 18bf 860f c0bd
000001e0: 2927 ed3b f09b 9cbe 9dc5 733f fc2a 90ba
000001f0: 7d73 103e c811 283d dcf0 5dbf 9387 253f
00000200: 9638 92be 7abb eebd 31d3 34be ac36 39bd
00000210: cfda 803f a4d3 823e e2f9 e83e e99d 193f
00000220: ffcd 17bf 5a00 19bf 807a 68be 5401 41be
00000230: 44ec f33e cfa1 bcbd a3ba 7dbc 980e e1be
00000240: 1079 d53e acef 6b3e 277f f0be 439b 993e
00000250: 5d6c 94be 39c1 16bf 21c3 95bd b256 323f
00000260: 6598 c1be d48a 09bf 75c9 90be 6c56 8cbf
00000270: a2e1 3a3e 3324 cfbe 987d b53e 6fd5 d7be
00000280: 7500 e7be f2e1 ddbe 57b0 20be 36e8 e8be
00000290: b310 65be 5b42 cebe 22c4 24be 3c88 47bf
000002a0: 1ef7 ddbd f046 a0be d490 babe e5c6 3c3e
000002b0: 402a 2abf fc38 95be c88b 18be 4d4f 203c
000002c0: 2b45 8fbe 68e1 4f3d a72f 65be 3775 26be
000002d0: de57 e0be 5d5e 20bf 86c0 613d 4cf7 92be
000002e0: 29c7 5dbe 01df 3cbe 630c a2bf c839 20bd
000002f0: 4794 c4bd 0942 f33d 0ac1 83bf bed9 8dbf
00000300: 1802 a2be 2ca8 bebd eebe 3b3f 3178 7b3e
00000310: ed6b 9dbf 739c 2bbe 8985 1abe 0c22 373f
00000320: 285f b7be fda9 2c3d 0f07 bbbd 9c1a a1be
00000330: 3b3e 4f3f fc0b 353f c821 25bf 293c 3bbf
00000340: e425 013f 4738 ddbe 13eb 6dbd c0a6 04be
00000350: 9412 813e 6856 89bf e078 77bf b276 31bf
00000360: 7b80 67bf 028d c83e f690 c0be 9ac8 e5be
00000370: 2f7b fbbe a9c9 b7be 930f 513e 750f 123f
00000380: b6f5 90bb a1ee 283f 3ca1 b0be 21bc 9dbf
00000390: 31d1 b9be be9b 2a3f c44f 763e bf9c 7abe
000003a0: ee86 c73e ecf3 a5bd fc2a d6bd e2d3 54bf
000003b0: 29d6 38bf 9f10 8d3f 34bf 51bf decf 92be
000003c0: a149 f3bd 154d 61bf d503 4a3e e615 bfbe
000003d0: bb3d 863e 1003 433f 8d49 533f 2d66 80be
000003e0: 6877 59bf 658a 4bbf 6c71 bf3e e3bb cd3e
000003f0: 628c 3bbe 2044 d3be 2413 72be a9f6 12bf
-0.0031447778 0.5390922 0.7937295 -0.3479521 0.46642053 -0.96919906 0.89747393 -0.79940075
-0.89700496 0.20246568 0.34891194 -0.10138306 0.6505934 -0.45381656 0.5798271 0.095728025
-0.48626179 0.896859 -0.03181685 0.5368342 -0.50522363 -0.16124786 -0.21177383 -0.0599973
-0.7661237 -0.396979 -0.7788736 0.68394053 -0.16271693 -0.107196994 -0.36283576 -1.1094133
-0.404394 -0.102846764 0.657803 -0.16314785 0.24652237 -1.0432467 -0.45440096 -0.25640246
-0.24757019 0.2453752 0.25477988 -0.7934956 -0.74287397 -0.34071785 -0.28825396 0.46466428
-0.68338126 -0.15383512 1.1078732 -0.8345622 -0.39981383 0.14964487 -0.038459618 0.21181707
0.5711234 -0.100577176 -0.039883327 -0.83959526 0.10036719 -0.108092606 0.39496619 0.87859756
-0.40209004 -0.21048556 0.0091555305 -0.9538097 -0.8657826 -0.42510608 -0.3371058 0.40208542
-0.25052676 -0.89574057 0.09113451 -0.2839452 -0.07058832 -0.50456405 -0.24467137 0.14509876
-1.087315 -0.9652569 0.40201598 -0.22069861 -0.8830704 0.4317576 -0.51426846 -0.14678882
-0.68990976 -0.104426764 -0.13115777 -0.88520765 -0.64711684 -0.54687303 0.16119166 -0.09313923
-0.38810173 -0.18491012 -0.18905608 -0.19799468 -0.05166285 -0.4488951 0.01219995 -0.31552318
0.07712094 0.26842105 0.09964243 -0.7653314 0.24200705 0.17336659 0.4320144 -0.24718927
-0.17049757 -0.221892 0.067822315 0.49852112 0.029568871 -0.4050679 -0.59384555 -0.09377961
0.0072373343 -0.3058772 0.9522341 -0.0010999138 0.14106555 0.041032583 -0.8669565 0.64659995
-0.28558797 -0.11656852 -0.17658688 -0.045218155 1.0066775 0.25552094 0.45503145 0.60006577
-0.592987 -0.5976616 -0.2270298 -0.18848163 0.47641194 -0.0921055 -0.015486392 -0.43956447
0.41693926 0.23040646 -0.4697201 0.30001268 -0.28988925 -0.58888584 -0.073126085 0.69663537
-0.3781158 -0.5372746 -0.282787 -1.0963874 0.18250135 -0.40457305 0.35447383 -0.42155024
-0.45117536 -0.43336445 -0.15692268 -0.45489663 -0.22369651 -0.40285 -0.16090444 -0.7794225
-0.108381495 -0.3130412 -0.3643862 0.18435247 -0.6647072 -0.29145038 -0.14897072 0.009784532
-0.27982458 0.050752074 -0.22381459 -0.16255651 -0.43817037 -0.62643987 0.055115245 -0.28704298
-0.21658005 -0.18444444 -1.266003 -0.039117604 -0.09598594 0.118778296 -1.0293286 -1.1082075
-0.31642222 -0.0930942 0.7333821 0.24557568 -1.2298561 -0.167589 -0.15090002 0.71536326
-0.35814786 0.0421543 -0.09132206 -0.31465614 0.8095433 0.7072141 -0.6450467 -0.7313867
0.5044844 -0.43207 -0.058085512 -0.12954235 0.25209486 -1.0729494 -0.96668816 -0.6932174
-0.9043042 0.3917008 -0.37610596 -0.4487961 -0.4911742 -0.35896042 0.20416097 0.57054836
-0.0044238223 0.6598912 -0.34498012 -1.2323037 -0.36292413 0.66643894 0.24053866 -0.24473856
0.3897013 -0.08103165 -0.10457417 -0.8313581 -0.7220178 1.1020697 -0.8193238 -0.28674215
-0.11879278 -0.8800824 0.19728024 -0.37321395 0.26218972 0.7617655 0.82534105 -0.25077954
-0.84947824 -0.7950805 0.37391222 0.4018241 -0.1831527 -0.41262913 -0.23640114 -0.57407624

net.2.weight f4 [256, 256]
00000000: 82bd e3bd da7e 4a3e 1554 7b3c ec87 6e3e
00000010: d256 f63d f398 ba3c ddc1 adbe db7e 0ebe
00000020: 261a 1dbe 805f dd3c 4666 9a3c 65f3 2a3e
00000030: 7449 f8bc ef4c ce3d 0589 8cbd 8a7d 2f3e
00000040: 5150 1e3e c19e 68bd 24b3 aebc e4bf 403e
00000050: 82fc 3bbd 0075 3f3d 272a afbd 8626 033d
00000060: 2d81 6ebb 8efb b3bd 1da3 4abd f2ad e2bd
00000070: 5fdf 08be 9c30 dd3d ac71 b83d 87e5 21bd
00000080: a577 8e3c f82f 103e daf6 f53d d27e 103e
00000090: fbbd 223d 2ac9 893d bf52 903d 4bad 0a3e
000000a0: 6750 973d e235 563d abff 133e 73c4 f6bd
000000b0: be38 bf3d 5679 81bd 589b 803d 3261 5d3b
000000c0: 8e4c 10be dd5d 553e 7724 fd3c 04c5 2bbe
000000d0: 8725 7f3e e551 c23c 6a14 0a3e c301 c0bc
000000e0: 7a9b ed3d 04f8 523d 291c 3bbd ecc9 323d
000000f0: b366 2c3e 437d 20be 29c5 033f f5be 283e
00000100: 2610 4d3e 704b bfbc 04d4 6cbd e2c4 d7bd
00000110: 8fd8 c13d fe61 17bd 6a21 623e 07f8 47be
00000120: 3732 153e eef1 5a3d 2608 2d3e b3ae ff3d
00000130: 6717 cebd b911 a83d da62 033e b57f 1fbe
00000140: cdda a9be 0f82 373d 3ad4 60be b26b 323e
00000150: 5883 86be 1061 4f3e 1e7b a3bd 847b 0f3d
00000160: adc6 c93c ba31 7cbb e9cc 853d 757d 1d3e
00000170: 0ecb c13d f76c d33d 1c9b 1b3e 7623 303e
00000180: 2bcb 453d d511 293e c1e4 8fbd 0f1c 3d3d
00000190: 559a 143e 6677 5a3c 7b63 4d3d 8504 6bbd
000001a0: 07f6 24be d77b 173e 23f5 f8bc 2582 063e
000001b0: 0593 31be eef4 133d 4f6d 4d3e 2449 5c3e
000001c0: efde 9c3d 0998 b63e 6904 813d 7e5d 333d
000001d0: b451 29be d98c dc3d 7735 a7bc 61ba f23d
000001e0: 28e7 adbe c92d 15bc 89c2 263d 2f47 ddbb
000001f0: ce91 1abe 1a0c 5bbe b3e6 8a3d 4073 1dbe
00000200: f98b e73d d621 bc3d 7d41 f13d b1e8 973d
00000210: 5faa 55bc 0ec6 94bc f179 e23d cceb c23e
00000220: 49ea 02be 3753 4f3d 3b45 953d a82f 80bc
00000230: 2831 853e 5e98 c43c b588 cfbd 18e1 6c3d
00000240: cad1 653e 3d7c ad3d e704 1d3c f2bb c2bc
00000250: 1ace 583e 9b7a 85be 9538 ad3d dd62 a23d
00000260: df9c 903d a55a 1cbc 5e06 3b3c 4d34 a93d
00000270: b139 403d c865 11be 7fe7 d4be e0d5 293e
00000280: 9fc8 0d3e 5e10 903d 2c2a 0f3d 6666 123e
00000290: a874 213e 12fc cc3d 8f21 4e3e 92c9 a6bd
000002a0: 24b4 0c3e 1fbf 8b3d d09b 6abd a154 443e
000002b0: 5da8 353d f51f bb3e 2861 5e3e fb76 3abe
000002c0: 30ac 88bd 6484 4b3e b610 3b3c 3049 d83d
000002d0: a199 15bf 2c4b a23d dfcb 37bc 0f1d 193e
000002e0: 1dc0 183e eb45 df3d c3dc a4bd 5e26 ff3d
000002f0: eeb4 e83d 4252 253e c327 26be 6791 1dbe
00000300: a6e7 543e 8351 d33d 1465 12be d49f 01be
00000310: 57e9 abbd 110b e03d caed 1a3e 6368 b13e
00000320: c261 fb3d 1c57 223d b2ba 38bc 5574 b13e
00000330: e276 edbd c7ee ff3d 1daf 34be 31ea 6b3d
00000340: c013 793b ae60 1c3e f368 833d 109f 033e
00000350: a565 393e 9bd3 e0be 3019 ae3c f6b3 923d
00000360: 2472 38be 8770 4cbd 1dc1 0e3e 9479 823d
00000370: f881 113d 1758 0d3e 61b9 2d3e 1316 7dbd
00000380: 308f 03be 71e6 2e3e 77f2 233e 55d3 3abd
00000390: 8d0a 793d dd39 f93d 2395 fbbd f029 1f3e
000003a0: 6190 3b3d f7af 9e3e 4d8e 843c acd7 e43d
000003b0: 7afd 1fbd b184 bebd 29db fcbc b505 823e
000003c0: 70e0 223e b47f 833c be3f b23e 0d98 da3d
000003d0: 4f14 053e 42f2 a93d 8cbf 63be fadc 323e
000003e0: 128e b0be 1123 8bbd 0a77 163e cad3 383e
000003f0: 7dc9 703e ce10 0c3e 7622 0c3e 09bb 8f3d
-0.1112013 0.19774953 0.015339871 0.23294038 0.120282784 0.02277801 -0.33936968 -0.13915579
-0.15342006 0.027023077 0.018847596 0.1669441 -0.030308463 0.10073268 -0.06862072 0.17137733
0.15460326 -0.056792025 -0.021325655 0.188232 -0.045895107 0.04674244 -0.08552962 0.03201916
-0.0036392913 -0.087882146 -0.049471963 -0.11068334 -0.1336646 0.10800287 0.09006056 -0.039525535
0.017391035 0.14080799 0.12009974 0.14110878 0.03973196 0.06727822 0.070470326 0.13542669
0.073883824 0.05229748 0.14452998 -0.120491885 0.093369946 -0.06321971 0.062796295 0.0033779857
-0.14091703 0.20836587 0.030901177 -0.16774374 0.2491666 0.023720691 0.1348435 -0.02343834
0.116019204 0.051506057 -0.045681152 0.0436496 0.16836052 -0.15672784 0.5147272 0.16479094
0.20025691 -0.023351401 -0.05781938 -0.10535599 0.094651334 -0.036958687 0.22083059 -0.19528209
0.14569937 0.05345338 0.1689764 0.12484493 -0.100630574 0.08206505 0.12830678 -0.1557606
-0.33174744 0.044801768 -0.21955958 0.17423895 -0.26272082 0.2025187 -0.07982467 0.035029903
0.024630869 -0.0038481788 0.06533224 0.1537989 0.09462558 0.10323518 0.15195888 0.17201027
0.04828946 0.16510709 -0.07026053 0.046169337 0.14511998 0.013334131 0.0501437 -0.057377357
-0.16109477 0.14793335 -0.030390328 0.13135584 -0.1734124 0.036122255 0.20061229 0.21512276
0.07659709 0.3566287 0.06299669 0.043790333 -0.16535074 0.10769052 -0.020411236 0.11851955
-0.3396542 -0.009105154 0.040712867 -0.0067528705 -0.15094683 -0.21391335 0.06782284 -0.15375996
0.113059945 0.09186141 0.11780069 0.07417429 -0.013041108 -0.018160846 0.11058415 0.38070524
-0.12784685 0.05061647 0.07288595 -0.015647724 0.26014066 0.023998436 -0.10133497 0.057831854
0.2244331 0.08470962 0.009583688 -0.02377126 0.21172372 -0.26070103 0.08458058 0.07929013
0.07061171 -0.009543096 0.011415092 0.08261929 0.04693002 -0.14198983 -0.41582868 0.16585493
0.13846062 0.07034372 0.034952328 0.14296874 0.15767157 0.10009016 0.20129989 -0.08143915
0.13740593 0.06823563 -0.0572775 0.19172908 0.044350017 0.3654782 0.2171675 -0.1820945
-0.06673467 0.19874722 0.011417558 0.105608344 -0.58437544 0.07924494 -0.01121804 0.14952491
0.14917035 0.10902008 -0.080499195 0.1245849 0.113626346 0.1614466 -0.16226105 -0.15387498
0.20791492 0.103182815 -0.1429637 -0.12658626 -0.083941154 0.10939611 0.15129772 0.34649953
0.12274505 0.039633855 -0.01127498 0.34659067 -0.11594941 0.12496715 -0.17644925 0.05759639
0.0038006157 0.15271255 0.06416502 0.12853646 0.1810518 -0.43911442 0.021252245 0.07163231
-0.18012291 -0.049912002 0.13940854 0.063708454 0.03552434 0.13803135 0.16965248 -0.06178863
-0.1284759 0.17080094 0.16010462 -0.0456117 0.060801078 0.1216924 -0.12284305 0.15543342
0.045791987 0.30993626 0.016181136 0.11173949 -0.039060093 -0.093026526 -0.030866222 0.2539498
0.15905929 0.016052105 0.34814256 0.10673533 0.12996028 0.0829816 -0.22241038 0.17467108
-0.3448339 -0.06793798 0.14693847 0.18049541 0.23514362 0.13678285 0.13685021 0.07018096

net.2.bias f4 [256]
00000000: 1abf 83bd 8147 9dbc ed93 18ba 3b9c 423d
00000010: 6139 c5bb 9a55 dbbc 39a1 0fbd 7b2b 17be
00000020: f0a4 a13d 7078 9e3d d7b9 893d 3a38 013c
00000030: 8411 b13d bb0d 96bd f9a3 25be f3c8 a13d
00000040: 932d f1bd 4547 b73d c457 81bd 47b1 48be
00000050: 84b2 34bd 6cac 27be 4a41 833d 2a46 8fbe
00000060: eae7 cf3d 6978 3ebc b440 0cbe 6598 e0bd
00000070: 9d1c ffbd 9d0a 1dbe b035 1ebd 1686 13be
00000080: 1e1a 67bd a65c 983d 3412 74be a277 b1be
00000090: 16fa 0bbe d194 0ebe 8f73 ef3d 3c54 eabd
000000a0: 9a5a a93d bfb1 e1bc d97b 4dbe 4ef6 09bc
000000b0: bce1 6cbb 2c09 a83d 5caf 7f3d c818 783d
000000c0: fbed 2e3d f403 2cbe 39c7 28be a808 47be
000000d0: bed8 8cbe 7f87 113d 7e70 2bbe 7875 f0bd
000000e0: a80d a6be cafa f1bd 1ead 083d 0245 5f3d
000000f0: 184d 3f3e 7905 40be f4f0 1abe 0d7c 44be
00000100: 79a3 d0bd 2611 7fbe 6c2f d03d 1315 2ebe
00000110: b326 16be 390e 8d3d 5ad7 32bd 808c 9b3d
00000120: 2151 763c 70c9 0fbd 1583 6e3d 5152 98bc
00000130: bc50 4bbe 2989 35be 5ce1 883d 7327 003e
00000140: cb0b 483c 634c 9d3d 50d0 bfbd dd53 7c3c
00000150: 2bbf 89be 303b 85bd d7a6 73be e6e0 75bd
00000160: 32d2 58be eedf 8e3b 5a89 00be fe73 c3bb
00000170: c853 c53c 9814 da3d af90 4fbd 37cf bd3d
00000180: eb96 143d aafe b9be fe9d 2a3e 05e5 0e3d
00000190: 43d6 00be 19ff 09be ea3c 5abe a3bf ba3d
000001a0: a333 2f3d cf36 d73d 8250 953d 9a9f d9be
000001b0: ef89 87be 7687 70bd 7e60 433d b324 c83d
000001c0: 40b7 eb3c f09b ed3c 6e07 18be 8ca8 353d
000001d0: ba82 87bd f915 93bd 3360 16be f176 8ebb
000001e0: a08c b0bd 5b4c 29be b6ab 48bc 1fcc bbbc
000001f0: 9f60 64be 597c 993d c626 52be 5694 423b
00000200: 76f5 763c 42a1 e2bd 6854 88bd 0ef5 01b9
00000210: 2d2f a23d 9edd c8bc f764 8cbe a990 ccbd
00000220: 2a3b 9fbc ca34 363d 3869 32be c8c4 1ebe
00000230: fb56 253e 9340 323d 706f 983d a903 863d
00000240: e070 e43c 725b dfbb d76d 5c3d 8fed 8d3d
00000250: 2d8b 8dba 65f6 44be 63c6 19be ea13 493d
00000260: 7e1a f0bb cf0f c53c a09a 2f3e 3cdb 58bd
00000270: d67a 04be beb0 4e3c bbcd 42be e37c 86be
00000280: c207 263d 3523 513d 540b 293e 5288 3abd
00000290: 2238 d03d 5760 8bbd d38c cdbb fca6 77be
000002a0: c0e9 e33d a073 78bd 52e4 24be ad9c 47be
000002b0: b95d 563d 1303 d3be 383e 2ebe 5bf0 2ebe
000002c0: 70fb 683b 8ab6 f0bd c7d9 4ebd 5a2a babe
000002d0: 720f 0d3b 9dec b4bd a61a 4bbd 25bb 80be
000002e0: a32b 87bb d1a9 253d b5c7 56bd 76d6 e6bd
000002f0: 589c a0bd ff39 02be 6caa 6cbc c173 0e3e
00000300: 2b50 d73c ed32 643d f9ee 27bc 852d 76bd
00000310: 8010 093d f81f 32be f5e6 8abc 42d8 18bd
00000320: 734a 84be 726f 79be 2f24 b53b ad8b 62be
00000330: 1100 b4be 1398 be3c ad56 54be 49b2 30bd
00000340: 90ae 013e 9bae 5abc 34cc fcbd 83ba 343e
00000350: cec5 06bd 7199 edbe 5627 94bd 9ad9 b3bd
00000360: 4cc4 6cbe fdec c7bd 38a1 4bbe 436d f4bc
00000370: 51d5 8fbd da4f 20be 9105 2ebc b584 823d
00000380: 0ba3 88be 8df8 4b3d 5e7b 7a3d 0ea8 73bd
00000390: 09ac e1bd f6f8 43be eac7 11be b56b 28bd
000003a0: ddb7 7abd b4fa 43be 8be4 2abe 2ad1 6abe
000003b0: a674 32be 43ac e9bd 4ebe d3bd 7ae7 3ebe
000003c0: 1149 2d3d ef1f 19bb 5139 803d 4c88 57bc
000003d0: 3067 e9bc 2dfb 86be a8c5 efbd e4ca ae3d
000003e0: 25ff 2dbe 28e4 2dbe 2dad 76bd 7a10 43be
000003f0: 3c33 12be a2be a23c 994b 9abe 1767 f43d
-0.06432934 -0.019199135 -0.00058203825 0.047512274 -0.006018803 -0.026774216 -0.035065863 -0.1476268
0.078927875 0.077378154 0.06724899 0.007886941 0.08645919 -0.07326838 -0.16175832 0.07899656
-0.11776271 0.089491405 -0.06315568 -0.19598876 -0.04411556 -0.16374367 0.06408937 -0.27983218
0.10151656 -0.011625388 -0.13696557 -0.10966567 -0.124566294 -0.1533608 -0.03862542 -0.14406618
-0.05642139 0.07439546 -0.23835069 -0.34661585 -0.13669619 -0.13923956 0.11691963 -0.11441848
0.08269234 -0.027550576 -0.20066775 -0.00842054 -0.003614529 0.082048744 0.062423095 0.06057051
0.042707425 -0.16798383 -0.16482247 -0.19436896 -0.2750911 0.03552961 -0.16742131 -0.117411554
-0.32432294 -0.11815412 0.033368222 0.05450917 0.18681753 -0.18752088 -0.15130979 -0.19187947
-0.1018743 -0.24908885 0.10165295 -0.17000227 -0.146632 0.068874784 -0.043662407 0.075951576
0.015033991 -0.035104215 0.05823048 -0.018593939 -0.19855016 -0.17728104 0.06683609 0.12515049
0.012209843 0.07680585 -0.09365904 0.015400854 -0.26903662 -0.0650543 -0.23794113 -0.060028933
-0.21173933 0.0043601906 -0.12552395 -0.005964755 0.024087802 0.10648459 -0.05067509 0.09268039
0.03627674 -0.36327106 0.16661832 0.03488638 -0.12581734 -0.13476218 -0.213123 0.09118583
0.042773854 0.10508501 0.07290746 -0.4250458 -0.26472422 -0.058722936 0.047699444 0.09772625
0.028773904 0.02900502 -0.14846584 0.044350192 -0.06616731 -0.07181925 -0.14685135 -0.004347675
-0.08620572 -0.16533034 -0.01224797 -0.022924481 -0.22302483 0.074944206 -0.20522603 0.0029690466
0.015073171 -0.11065914 -0.06656724 -0.00012393689 0.07919154 -0.024519738 -0.2742078 -0.09988529
-0.019437391 0.044483937 -0.1742295 -0.15504754 0.16146462 0.043518614 0.0744313 0.06543667
0.027885854 -0.006816321 0.05381569 0.06930076 -0.0010798924 -0.19234617 -0.15017085 0.049091257
-0.007327377 0.02405539 0.17148829 -0.052943453 -0.12937483 0.012615381 -0.19023792 -0.26267156
0.040534742 0.051058967 0.16508228 -0.04554016 0.101669565 -0.06805485 -0.006272891 -0.24184793
0.11128569 -0.060657144 -0.16102722 -0.19493361 0.052335475 -0.41213283 -0.17015922 -0.17083876
0.003555026 -0.117535666 -0.050500657 -0.36360437 0.0021524099 -0.08834193 -0.04958596 -0.2514278
-0.004125075 0.040445153 -0.05243655 -0.11271374 -0.0784232 -0.12717436 -0.014444929 0.13911344
0.026283344 0.05571263 -0.010249847 -0.060102005 0.033463 -0.17395008 -0.016955832 -0.037315615
-0.2583805 -0.2435892 0.005527995 -0.22123595 -0.351563 0.023265874 -0.20736189 -0.043138776
0.12664247 -0.013347293 -0.12343636 0.17649274 -0.032903485 -0.4640613 -0.07234065 -0.087817386
-0.23121756 -0.09761999 -0.19885719 -0.029837256 -0.07023109 -0.15655461 -0.010621444 0.06372968
-0.26686892 0.049797583 0.06115281 -0.05948644 -0.11019141 -0.1913794 -0.14236417 -0.041118342
-0.061210502 -0.19138604 -0.16688745 -0.22931352 -0.1742731 -0.114098094 -0.10339032 -0.18642989
0.04230601 -0.0023364981 0.06260932 -0.013155054 -0.028491586 -0.26363507 -0.11707622 0.08534792
-0.16991861 -0.16981566 -0.060223747 -0.19049254 -0.14277357 0.019866291 -0.301358 0.11933725

net.4.weight f4 [256, 256]
00000000: 8ba1 ce3c 1b35 c4be 0c27 d9bc a73c 863d
00000010: 064b 9e3c 7749 a03d 3203 e43c 96be b53d
00000020: 7a05 b1bb b344 c3bb 1ec1 663d 94cf 3fbd
00000030: 2da6 b93c 040c 7dbe c1a6 933c aed8 9f3d
00000040: fe4a 4d3d 57c1 16bd a80b 533d 4bb4 ebbb
00000050: e9aa 953d ec67 87bd a5c9 b6bc 4bb8 5b3d
00000060: 474b bc3d 9ad5 a73d 8d58 113e dd3a 1fbd
00000070: 5118 4cbe 1a33 f7bd ec90 0b3d 8011 7c3d
00000080: 0d85 da3c 851c b93b 0763 95bd 9af1 533d
00000090: 0719 2a3c a244 9fbc 2df8 553d 7802 de3d
000000a0: 873c f7bc 6686 2a3d 1ba6 9cbe 3389 43bc
000000b0: ddc2 41bf c735 bb3d bdb6 d73b b813 3d3d
000000c0: 8bbd 8d3c 5ee9 a53d dcae eebc 2884 cfbd
000000d0: 9253 2c3e e34f 19be a0ed ce3d 54dc 03be
000000e0: 2f45 99bb d466 88bd 2ceb cdbd b999 0d3d
000000f0: 8b9e 1cbe 830f 213e 654d b1bd 0fcb 4d3e
00000100: 1aaf 3e3b f0e7 96bd 6afc a7bd b520 f53d
00000110: 7aa4 153e 71f6 2f3e ea20 d8bd ea1a 71bc
00000120: a6c2 63bd 8afa 8bbd c838 f1bc 9ad2 843d
00000130: c8b4 ddbc f7c1 953d 7413 8d3d 8e54 9e3d
00000140: ed3e 3f3c dcd0 79bd 4869 0f3e 447b e9bd
00000150: 0990 8b3d 232f 25bd 0401 cbbd 2f0c 963d
00000160: 92cc 3fbd 6122 9b3d 9767 c7bc 3c91 b43c
00000170: 27a3 12bc bd9b 093d 3dbc 3b3e c81b 833c
00000180: b51e 553c 620c fb3d 5120 1fbe b342 883d
00000190: fc14 0e3e 32c3 3c3e e44e 97bb d356 26be
000001a0: 0811 59bd fade a2bd dc88 b03d 19c2 133e
000001b0: 2c26 2b3e d06c 5b3d a49a 3fbd 0a32 40bd
000001c0: af33 a0bd 7f52 813d a894 a73c 3a9e 753d
000001d0: 7e8f 39bd 2849 193d 1ae5 9c3d b6bc 973c
000001e0: fd88 e4bd 6f94 143c 37f2 19be 6b96 69bc
000001f0: 21aa 673e d878 63bd 99b6 053e b46e 1f3c
00000200: 1920 22bd 338b cfbd 3cf9 da3b 26ee bc3d
00000210: 6793 57bc 5c2d ddbc 2e46 3a3e 8880 683d
00000220: ae88 73bb 3c67 303c 7159 ff3b 0257 723d
00000230: c608 cabc 5ae5 ab3d 1500 62bd 74d4 22bd
00000240: cdff d53c 02aa 70ba 9409 b0bd 91c2 b7bc
00000250: d700 9abd 48e6 a63c 6da6 973c e56e bf3d
00000260: 18d5 8abd 1e37 d43c f6b9 69be 2a16 303b
00000270: 0ed9 fbbc e156 cc3d 7829 47bd dcfc ff3d
00000280: a66b c9bb 33d9 ea3c ca1d dfbd 9e8f f63d
00000290: 7dc5 12be b0bd dfbc 648d 9abd a016 aabc
000002a0: 7f7f 16bd 3eeb d03d fd9d e23c 5c65 98be
000002b0: 8fe7 0e3d 5041 393e 672c 06bd 3a69 25bc
000002c0: 34f2 c33b e662 ebbd 8379 21be 20f3 dc3d
000002d0: d8f7 38bd da0a b2bd 20eb 5dbc 47b9 473d
000002e0: b526 30bd d1a7 88bd a4ce 93bc d9b2 47be
000002f0: ed20 66bd 7141 85bf 4334 7f3c 5952 20bd
00000300: 421c 013d 1c4a 2c3c e734 09bd 39f1 00be
00000310: 606d e9bd 4984 e03d ac14 4abe 63ca 183e
00000320: bba9 a53d 3479 9bbd 246a b53d 87aa 81bd
00000330: 3814 093e f8fe aa3d 30d8 2a3c 62af f4bd
00000340: 2cbd 2dbe deec 01bd 08d5 bdbc 95c8 fb3d
00000350: 4399 8c3d 8cdd 3c3e d1b4 3f3d 7d3f a8bd
00000360: 2df0 ed3d fcff ddbc 6e47 eabc 2cf1 05bd
00000370: dce6 c7bc f0ed e83b 9753 823d 6744 2f3e
00000380: 04e2 543e 9c33 043e 4b37 31be 3c78 133e
00000390: 0026 263d 39c5 b3bd 3ce2 5fbe af73 173d
000003a0: 8a3a 5e3c 11e9 41bd 017f 24bd 0b88 f73c
000003b0: 5a74 39be d9cb 833b b6a2 21bc ea28 87bd
000003c0: 968b 4dbd e235 98bd 34b2 9f3c 46c4 a63d
000003d0: 215d 933d 3004 0cbb 8cc4 003e e474 ad3d
000003e0: a32c 863d b172 e73d 0ca6 2a3d 629b d6be
000003f0: 0fe0 b83d 2186 8e3c 83d4 3d3e bb5f 95bd
0.025223514 -0.38321766 -0.026507877 0.06554537 0.019322883 0.07826512 0.027833555 0.08874242
-0.005402264 -0.0059591173 0.056336515 -0.04682882 0.022662247 -0.24711615 0.01802385 0.07805
0.050120346 -0.036805477 0.05152479 -0.0071931235 0.07307989 -0.066116184 -0.022312948 0.053642552
0.091940455 0.08195038 0.14193936 -0.038874496 -0.19931151 -0.12070294 0.034073755 0.061540127
0.026674772 0.0056491517 -0.072942786 0.05174408 0.010381944 -0.019441906 0.052238632 0.108403146
-0.030180229 0.04163208 -0.30595478 -0.011934566 -0.7568796 0.091411166 0.0065830634 0.046161383
0.017302295 0.08101152 -0.029136114 -0.10132629 0.16828755 -0.1497188 0.10103917 -0.12877017
-0.004677437 -0.06660238 -0.10054621 0.03457043 -0.15294854 0.15728574 -0.0865734 0.20096992
0.0029096068 -0.07368457 -0.08202441 0.11969129 0.14613524 0.17183854 -0.10553153 -0.0147158895
-0.055605553 -0.06834896 -0.02944602 0.064854816 -0.027063742 0.073123865 0.06888476 0.07730971
0.0116727175 -0.0609902 0.14005005 -0.11400464 0.06814582 -0.040328156 -0.09912303 0.073265426
-0.046825953 0.07574917 -0.024341388 0.02204191 -0.008950031 0.03359579 0.18333526 0.016004458
0.013007809 0.12258221 -0.15539671 0.06653347 0.13875192 0.18433836 -0.004617559 -0.16244058
-0.052994758 -0.07952686 0.08619854 0.14429511 0.1671378 0.05357057 -0.046778336 -0.04692272
-0.07822358 0.06314563 0.020456627 0.05996535 -0.04530286 0.037423283 0.07660885 0.018522602
-0.11158941 0.009068592 -0.15033804 -0.014257054 0.22623493 -0.055535167 0.13057937 0.0097309835
-0.039581392 -0.10133972 0.006682543 0.09225111 -0.013157702 -0.026999168 0.18190834 0.056763202
-0.0037160325 0.0107668005 0.0077926447 0.05916501 -0.024662387 0.08393355 -0.05517586 -0.039753392
0.026122952 -0.00091806066 -0.08595577 -0.022431644 -0.075196914 0.020373479 0.018511975 0.09347323
-0.06778926 0.025905188 -0.22824845 0.002686868 -0.030743148 0.09977508 -0.048623532 0.12499401
-0.006146866 0.028668022 -0.10894354 0.120391116 -0.14333148 -0.02731213 -0.07546499 -0.020762742
-0.036742684 0.10201119 0.027663225 -0.2976483 0.0348888 0.18091321 -0.03275719 -0.010095889
0.0059798006 -0.11493473 -0.1576901 0.1078856 -0.045158237 -0.08693476 -0.013544828 0.04876068
-0.043005664 -0.066726334 -0.01804287 -0.19501819 -0.056183744 -1.0410596 0.015576425 -0.039141033
0.03152109 0.010515716 -0.033497717 -0.12592019 -0.11397815 0.109627314 -0.19734448 0.14920954
0.08089014 -0.07591477 0.08858135 -0.06331354 0.13386619 0.08349413 0.01042752 -0.11947514
-0.16966695 -0.031720035 -0.02317287 0.12294117 0.0686517 0.18443888 0.0468033 -0.082152344
0.116180755 -0.027099602 -0.028598513 -0.032700703 -0.024402075 0.0071084425 0.063636 0.17115937
0.20789343 0.12910312 -0.17306249 0.14401335 0.040563583 -0.087778516 -0.21863645 0.03697556
0.0135637615 -0.04734141 -0.040160183 0.030216238 -0.18110791 0.0040221033 -0.0098654535 -0.065996006
-0.050181948 -0.07432152 0.019494154 0.08142905 0.07195497 -0.00213648 0.12574977 0.08469561
0.065514825 0.113011725 0.04166226 -0.41915423 0.09027111 0.017397942 0.18538098 -0.0729365

net.4.bias f4 [256]
00000000: 1158 4ebe 48a6 29be 56a7 8dbd 6779 2ebe
00000010: c3a8 53be 569b f4bd b0d7 ebbc 33bf fabd
00000020: 6729 0dbe f2cb 46bc bafc f5bc 3e6f 52bd
00000030: b3e1 5c3d a37d 1e3d e33c 37be cdff 20bc
00000040: 2b51 10be c0b8 7dbc 5479 a93c 51a5 3bbe
00000050: 075c f4bd b77c c5bc 0c58 67be 69c1 a738
00000060: 9d90 16be 8315 9abe 888a f9bd f678 a8bd
00000070: 88cb 34be 02d3 5f3d cf5e 50be 0308 363d
00000080: 5ed5 3aba 9481 44be 9909 f6bc fe35 60bd
00000090: 24eb e6bd 33b9 003d 60e2 f63c 5031 74bd
000000a0: 7407 56be a878 30be 7e5f 7d3c 6c6f dcbc
000000b0: 6235 94bd 6499 86be ef56 5cbd 65d3 0cbd
000000c0: 0b07 42be 22ca b0bd f115 48be b05a 3abb
000000d0: 9f73 54bd 7ec8 933c 2723 b9bd 9c41 403d
000000e0: 0921 81bd 7892 f4bd 4060 123d aed9 a53b
000000f0: 4c41 27be 3e19 58be 268f 0dbe 9425 823c
00000100: 2807 d33a ae55 80bd 5ca7 17bd 7c60 563d
00000110: bd33 2fbd 66eb b13c 98c7 f1bd abad 7abd
00000120: 5d2a 993d 7031 11be 3efc e23b 3a2b 7b3d
00000130: f353 3ebe a361 48bc 4331 24bd 8fc8 3cbd
00000140: 5818 1ebd 5bb6 92bc caaa 653d ceff 39be
00000150: 46a4 6abe 6551 78be f783 87be 2628 03be
00000160: 6990 75bd 954e 1cbd 0420 9dbd 3fbd a8bc
00000170: c909 75bd f22b 1abe 7032 30bd 80a7 1d3d
00000180: 3ac5 d2bd 60ac 983c ad1a babc e3de a3bd
00000190: eb11 1cbe b023 20be 87fb 4e3d f190 a7bd
000001a0: 0ba5 29bd 1be2 88bb 606e 24be a83d 1cbe
000001b0: b6ba 703b 2069 00bc 8457 2abe 0167 c43c
000001c0: d5ef 4fbd 7a35 2abb 43b6 19be c01f 5cbd
000001d0: 47d8 4bbc a6f6 c3bc f4d4 413d 3d49 e4bd
000001e0: 1451 bbbd d66e 01be 5d68 033d 4eac a83c
000001f0: d1e3 99bd 237a b7bd bcfe 21be 112f 73bc
00000200: 09cc 0cbd cfb6 a6bd fb51 1f3c bf92 ffbd
00000210: c13e a2bd f1cf 1abd 78cd 12be c689 1bbe
00000220: 80f5 8abb f29b 53be bdd2 76bc c03b acbc
00000230: 2688 f53c 4406 113d f9a1 79bb be3a 693c
00000240: 536a 63bd a4bb fdbc dfa4 b1bd c175 45bd
00000250: 7fe7 a0bc 47a2 dcbb 5d13 62be 87d2 b5bd
00000260: ee7c 3abd 611e 63be eda0 5cbe 6747 11bd
00000270: bae7 06bd 7e23 1eba 9969 04be 309c 2cbe
00000280: 6131 833d 0072 cbbd b18c 32be 8aa1 73bc
00000290: 0caf 8cbc d865 94bd c067 1f3d 33c6 dabd
000002a0: 6f7d 58bd 6cac a3bd b095 f5bd 752c 09be
000002b0: c792 12be 7590 713c 4446 48be 55ca b8bd
000002c0: 4f3c b2bd 0513 34be 2427 a0bb 1e3d 273d
000002d0: 6e88 98bd 8242 65bc 95f2 ecb9 5e12 34bd
000002e0: e7ca b1bb ec84 44be 8ef0 1dbd 351a 19be
000002f0: 57e8 43be adaf e7bd d45b 09be 2420 23bd
00000300: 7219 85bd e476 29be 8881 77be 5de8 ff3c
00000310: cc80 a4bd 6282 3dbe c3b9 c63c 9a02 ee3a
00000320: a010 a93c d531 5bbe ad49 42be 3dd6 0a3c
00000330: 81ab 1fbe 5955 dcbd 7a4d 1abe 27a3 5fbd
00000340: 2f85 a3bd a0b2 36bd 2932 a43b e24e 05bc
00000350: 7d3d 3bbd 40be 03be dff2 c4bd fb2b 7ebd
00000360: dcf4 ddbd 8da1 a4bb cdf3 b0bc 954e 48be
00000370: c448 9fbd 216e b7bc 9925 993c 602a 51bd
00000380: 5787 7fbd 11e4 a9bd 929d ad3c e08a a9bd
00000390: 4a59 55bd 19ee 20be 3935 a13c 3ade 5cbe
000003a0: 5150 8ebd 9fb6 adbd 14af 98bd a234 233c
000003b0: 7b62 2cbe 71fa 6abe dbd8 65be f6e2 4fbc
000003c0: ab82 273c 1985 563b 0517 423d 7491 2fbb
000003d0: 3bd3 3a3d 087b 95bd 5982 50be 33f8 2dbe
000003e0: 4cb9 3cbe 6ae9 04be f4fc 40be b2a6 46be
000003f0: 19c9 4ebd 3671 28bd d94f 4abe 15e4 a1bd
-0.20150782 -0.16567338 -0.069166824 -0.17038499 -0.20669846 -0.119436905 -0.028789371 -0.122434996
-0.13785325 -0.012133585 -0.030027736 -0.05137562 0.05392618 0.038694035 -0.1789432 -0.009826613
-0.14093463 -0.015485942 0.020687737 -0.18324782 -0.11931615 -0.02410732 -0.22592181 7.999206e-05
-0.14703603 -0.30094537 -0.12184626 -0.082261965 -0.17655766 0.054644592 -0.20348667 0.044441234
-0.0007127131 -0.19190055 -0.030033873 -0.05473899 -0.11275318 0.03142662 0.03013724 -0.05961734
-0.2090128 -0.17233527 0.015464662 -0.026908599 -0.072367445 -0.26288903 -0.053793844 -0.03438129
-0.18947999 -0.08632304 -0.1953962 -0.0028435402 -0.051868077 0.018039938 -0.09039908 0.04693757
-0.06305129 -0.11941999 0.035736322 0.00506135 -0.16333503 -0.21103379 -0.13824138 0.01588706
0.0016100155 -0.06266342 -0.03702484 0.05233811 -0.04277395 0.021718692 -0.118056476 -0.06120078
0.07478783 -0.14179015 0.0069270423 0.06132052 -0.18586712 -0.01223031 -0.040086042 -0.046089705
-0.038597435 -0.01790922 0.05607108 -0.18163988 -0.22914228 -0.242498 -0.2646787 -0.12808284
-0.059952173 -0.03816088 -0.07672122 -0.020598052 -0.059823785 -0.15055826 -0.04301685 0.03848982
-0.10291524 0.018636882 -0.022717798 -0.08001497 -0.1524121 -0.15638614 0.050532844 -0.08181942
-0.041417163 -0.0041773445 -0.1605773 -0.15257895 0.0036732382 -0.007837564 -0.16634947 0.023974897
-0.05076583 -0.0025971816 -0.15010934 -0.053741217 -0.012441701 -0.023921322 0.04732223 -0.111467816
-0.09146324 -0.12639937 0.03208195 0.020589974 -0.07514156 -0.089588426 -0.1581983 -0.0148427645
-0.03437427 -0.08140337 0.0097241355 -0.124791615 -0.079221256 -0.037795965 -0.14336193 -0.15189275
-0.0042406917 -0.20664957 -0.015064892 -0.021024585 0.029972147 0.035406366 -0.0038090928 0.014235197
-0.05552132 -0.030973263 -0.08674025 -0.048208002 -0.019641636 -0.006733212 -0.22077699 -0.088780455
-0.0455293 -0.22179557 -0.21545763 -0.035468485 -0.032935835 -0.00060325104 -0.12930907 -0.16856456
0.06405903 -0.09933853 -0.17436482 -0.014870057 -0.017173313 -0.07245988 0.038917303 -0.10682335
-0.052853998 -0.07991871 -0.11991441 -0.13395865 -0.14313804 0.014743914 -0.19558054 -0.09022967
-0.08702909 -0.1758538 -0.0048874784 0.04082977 -0.07447897 -0.0139929075 -0.00045194165 -0.04396283
-0.005425799 -0.1919133 -0.03855949 -0.14951403 -0.191316 -0.11312804 -0.13413936 -0.039825574
-0.06498994 -0.1654926 -0.24170506 0.03123873 -0.080323786 -0.18506768 0.0242585 0.0018158734
0.02063781 -0.21405728 -0.18973418 0.00847393 -0.15592767 -0.10758466 -0.15068617 -0.054598954
-0.07984387 -0.044603944 0.0050108624 -0.008136483 -0.045712937 -0.12865543 -0.096166365 -0.06205366
-0.10837719 -0.005024141 -0.021600628 -0.19561227 -0.07777551 -0.02239138 0.018694686 -0.051065803
-0.06238493 -0.08295453 0.0211933 -0.082784414 -0.052087106 -0.15715827 0.019678699 -0.21569148
-0.06948913 -0.08482098 -0.074552685 0.009961279 -0.16834442 -0.22947098 -0.22446005 -0.012688389
0.010224025 0.003273314 0.047385234 -0.0026789578 0.0456116 -0.07298857 -0.20362224 -0.16989212
-0.1843006 -0.12979665 -0.18846494 -0.19399527 -0.05048475 -0.04112359 -0.19757022 -0.07904831

net.6.weight f4 [2, 256]
00000000: ac99 f6bd 7b40 353d b3dd 75b8 efe5 d33d
00000010: d64e 10bc 2e78 d3bd 6647 9e39 d9b8 22ba
00000020: b998 05bc ae92 cfb7 9aa0 a6b8 4125 4e3c
00000030: ab3e 13be 1f9c d639 fcdf 9a3d 7b45 10ba
00000040: fc1e 97bc 4d03 13ba 204b 82b9 b86a 9cb7
00000050: bc8d 1d39 731d dcb7 fcc7 d7bd 3817 c7b9
00000060: c719 d23c 2f5f 94bc a92f 8abc 1aaf ef3a
00000070: 3259 c33d 24fc cab8 eda4 0abb b2c3 10ba
00000080: 822b f839 39c8 8abd 87b1 8e39 0470 7539
00000090: 8d09 333c e6a8 0a3a 0527 e7b9 1047 12bc
000000a0: 5c8a e83b 8ad9 ea3d f71c 08b8 9d44 d1b9
000000b0: dc66 1639 847a 893c 55b9 fcb9 7a62 0438
000000c0: 2b27 623a 9e73 993d 17b9 653b 8ff9 2838
000000d0: a2c7 3bba 327e 38b9 a758 00b9 c8bf 1738
000000e0: e76c d637 7975 09bc 8ab0 893a fad3 9a37
000000f0: 92e7 103e 58f1 bb3d 01e5 bc3d f3d8 39ba
00000100: 10f0 c3b9 81dc 0dbe 7c54 133a 7d41 a239
00000110: 70e7 8bbd e581 26ba ec31 1239 f569 d138
00000120: e445 43b9 6648 073d 68b2 ea39 dd5f 8cb7
00000130: 8d24 b7bc fddb 37ba f456 8ab8 0286 d638
00000140: 17ad 163a ce29 2c3a 347c ca39 d57c 6c3d
00000150: f643 86bd 2f02 283d 42a6 0b3e 176c 01bb
00000160: 4b47 09ba eb75 063a 51d6 893b 803a 323a
00000170: a8c4 8e39 9646 5c3d a0cc c4b8 a33a 95b9
00000180: 8641 2a3d 32d1 5eb9 ee66 31b9 76e1 5bba
00000190: 2bb2 16bc a06a 313d c71b b4b7 9de2 b8bc
000001a0: 54c2 263e b7b0 4bb9 a4b9 0b3d b520 1f3c
000001b0: 0dbd 103a 00a9 e6b9 eaeb c7bd 9f03 3aba
000001c0: cac1 fd37 8429 953a ba90 653d 171f 9939
000001d0: 18da 9839 e7c7 68b8 1e40 7c3a f087 873d
000001e0: 9cbb 673c fafb c638 b503 a639 b3ba ae3d
000001f0: f547 bab9 2df9 f8b9 54a3 f6b8 1fad 403a
00000200: 502c d1b9 9f1e 3c38 2b4e f03d 4b3f 19bd
00000210: f26e cfb9 325b d23a 9bef f13c 0cd5 4aba
00000220: 868c 0cba 8ef5 acbc 8506 e039 d4c3 103a
00000230: dbce c838 1400 ee39 eac1 2b3a d53f 9f37
00000240: a55f 8bb8 1be9 0dba f638 fd39 2741 5638
00000250: d6f7 b339 508e a0b9 9091 8bbd 4984 2a3d
00000260: 58da 3139 854e 323d 4eeb 0bbd da2c 1fb9
00000270: 7593 3db9 11e1 bf39 70fd 80bd f1cf 16bc
00000280: 99d8 feb8 4a38 26bd 66bf 4cbb 84da 12b9
00000290: 261a 8bb8 5a27 36ba b0a9 693a 1a80 723a
000002a0: 3b67 fcb7 64fb 49bd 556b c43c c43d 1837
000002b0: 3776 c93d fb64 0138 9e21 803c 05e6 d43d
000002c0: 650d 043a 4e88 813d 943c 593a 20b3 4539
000002d0: a75b 6db9 6ff6 0f3a f76d 8fb9 933b 4939
000002e0: 877b dcb9 999c e8bd 8616 7039 161c f8bd
000002f0: b028 4b3c 401a 2c3d bba9 8fbe 83a2 9e3a
00000300: 987f 08b8 6463 a0bc ae87 8d3b 73e2 c539
00000310: 22bf d3b9 af5e 673d 3323 f8ba 1e22 7d39
00000320: d6cc 4ab8 27a6 15be 0788 043e 4c50 6739
00000330: 3830 aebd a863 8d3d 8319 483d 5aea 1939
00000340: fd98 28ba fc11 fd37 e807 d0b9 e3fb b137
00000350: b110 da39 6cd8 103d 6de5 78b9 91d5 d439
00000360: 4f71 363c 29d4 f638 f032 793a 0776 363d
00000370: 5382 2cb9 e689 1d3a ba56 c939 276a 453a
00000380: fed8 babb 1095 423a d99b ae38 fc77 a1b8
00000390: 101a e739 dea9 263e 4b58 60b9 3dac 83bd
000003a0: 4109 c4b8 2c1e bc39 832c fbb9 336c 5a3a
000003b0: 7692 faba 2479 5b3c 5add 203e e305 6a3a
000003c0: 4485 003a 7441 bd38 a597 62b9 144e 98ba
000003d0: 8b53 ae3d 3425 16bb 6767 8dbd 467e b93b
000003e0: ba51 493a 158f 573d 5291 03bc 5393 a13c
000003f0: 63ff 10b7 97a2 1bb9 18d3 133d 31a2 f9b9
-0.12041029 0.044250946 -5.8619025e-05 0.10346591 -0.008807858 -0.10325657 0.00030189304 -0.0006207354
-0.008154088 -2.4744626e-05 -7.945411e-05 0.012582124 -0.14379375 0.0004093358 0.07562253 -0.00055035175
-0.018447392 -0.0005608097 -0.00024851505 -1.8646344e-05 0.00015025487 -2.6239757e-05 -0.10536191 -0.00037973537
0.025647057 -0.018111793 -0.01686843 0.0018286437 0.09538497 -9.6790754e-05 -0.0021155432 -0.0005522325
0.00047334662 -0.06776471 0.0002721662 0.0002340675 0.01092757 0.000528945 -0.00044088825 -0.008928075
0.007096572 0.114672735 -3.2451902e-05 -0.00039914707 0.00014343433 0.016782053 -0.0004820327 3.1562966e-05
0.00086270523 0.07492755 0.003505295 4.028674e-05 -0.00071632315 -0.00017594619 -0.00012240057 3.6179816e-05
2.55615e-05 -0.008389824 0.0010504883 1.845694e-05 0.14150837 0.09176892 0.092233665 -0.0007089518
-0.0003737216 -0.13853647 0.0005620194 0.0003094784 -0.068312526 -0.0006351753 0.00013942242 9.985633e-05
-0.00018622685 0.03302803 0.0004476488 -1.673394e-05 -0.022356296 -0.0007013677 -6.596549e-05 0.00010229276
0.00057478383 0.00065675087 0.0003862098 0.057736237 -0.06555931 0.041017707 0.13637641 -0.0019748264
-0.0005236759 0.00051292655 0.0042064567 0.00067988783 0.0002723087 0.053778253 -9.384123e-05 -0.00028463182
0.041566394 -0.00021249501 -0.0001691838 -0.00083877833 -0.009197752 0.043314576 -2.1470607e-05 -0.022568995
0.16285068 -0.0001942542 0.034112588 0.009712388 0.0005521335 -0.00043994933 -0.09761794 -0.00070958765
3.025019e-05 0.001138017 0.056046225 0.00029205598 0.00029154192 -5.5499284e-05 0.00096225913 0.06617725
0.014143851 9.48831e-05 0.0003166475 0.08531704 -0.00035530297 -0.00047487897 -0.00011760616 0.0007350016
-0.00039896602 4.485121e-05 0.11733659 -0.037413877 -0.00039564777 0.0016048907 0.029533198 -0.0007737435
-0.0005361516 -0.021113183 0.00042729467 0.0005522345 9.575273e-05 0.00045394956 0.0006552028 1.8984001e-05
-6.645852e-05 -0.00054134586 0.0004829836 5.1082254e-05 0.00034326193 -0.0003062361 -0.06814873 0.041630063
0.00016961375 0.043531913 -0.03415995 -0.0001518013 -0.00018079377 0.00036598046 -0.06298339 -0.0092048505
-0.00012152008 -0.040581025 -0.0031242012 -0.00014005048 -6.632907e-05 -0.0006948613 0.000891353 0.0009250656
-3.0088811e-05 -0.04931201 0.023976961 9.074287e-06 0.09837001 3.0850042e-05 0.01564103 0.10395435
0.00050373963 0.06324826 0.000828692 0.00018854113 -0.00022636224 0.00054917386 -0.00027357016 0.00019191047
-0.00042053705 -0.11357994 0.00022896574 -0.12114732 0.012399837 0.04201722 -0.28059182 0.0012102876
-3.2543758e-05 -0.019578643 0.004319153 0.00037743486 -0.0004038746 0.05648678 -0.0018931389 0.0002414067
-4.835132e-05 -0.14614163 0.12942515 0.0002205979 -0.08505291 0.069037735 0.048852455 0.0001467852
-0.00064314884 3.0168325e-05 -0.00039678742 2.1217338e-05 0.00041592636 0.035362646 -0.00023736591 0.0004059491
0.011135413 0.00011769712 0.00095061865 0.044546153 -0.00016451748 0.0006009623 0.00038402324 0.00075307715
-0.005702137 0.0007422725 8.3259954e-05 -7.699427e-05 0.00044079171 0.16275737 -0.00021395196 -0.06429336
-9.347732e-05 0.00035880634 -0.00047907614 0.0008332163 -0.0019117135 0.013395581 0.15709439 0.0008927269
0.00049026706 9.024414e-05 -0.00021609532 -0.0011619949 0.08512028 -0.0022910358 -0.06904488 0.005660805
0.000767972 0.052626688 -0.0080302525 0.01972357 -8.642531e-06 -0.00014842521 0.036089987 -0.00047613823

net.6.bias f4 [2]
00000000: 7eec 90bd 7df9 2f3d
-0.07076357 0.04296254
