moons/rnode/models/92000_model.pt (torch, 535856 bytes, 8 tensors)

net.0.weight f4 [256, 3]
000000 74 7d 28 3c b5 eb b4 bb 8b bd 3a bc 5f b1 a8 be
       0.010283817 -0.0055212625 -0.01139773 -0.32947823
000010 29 61 89 be 1f 5b 00 bf 87 09 bc 3e 4a 38 22 bf
       -0.2683194 -0.5013904 0.3672602 -0.6336714
000020 00 c7 3f bf 2e 14 a3 be 6b fd 9b 3e 59 1a 6f 3e
       -0.74913025 -0.31851333 0.3046678 0.23349895
000030 8a f9 86 be 7e 75 91 be 4b ce d3 be 80 d8 59 3e
       -0.26362258 -0.28409952 -0.41368327 0.21273994
000040 90 c5 26 3c fc 5e 3e 3e 57 f8 c7 3e 97 4a 51 bf
       0.0101789385 0.18590921 0.39056656 -0.8175444
000050 b9 27 2e bf 41 18 81 be 44 1c 44 3b 0e 84 90 3d
       -0.6802936 -0.25213817 0.0029924074 0.070564374
000060 22 13 83 be 30 6a 48 bd 28 8b c9 3d 33 bc 03 be
       -0.25600535 -0.048929393 0.09840995 -0.12864761
000070 c7 fd ef bd cc 40 4a be e1 af a0 bb 44 41 6b bd
       -0.11718326 -0.1975128 -0.004903779 -0.05743529
000080 7e b7 81 bf 38 71 78 3c 71 a2 9b bb 45 18 f0 be
       -1.0134122 0.015163712 -0.004749589 -0.46893516
000090 ae f3 25 3d 93 40 fd bc bd 80 d2 bf f1 52 3c 3d
       0.040515594 -0.03091458 -1.6445538 0.045977537
0000a0 02 03 09 bc 0e 33 44 be 66 c0 85 3b c7 ce a7 3b
       -0.0083625335 -0.19160101 0.0040817736 0.0051210853
0000b0 b3 dc da be 21 a7 bc bd de 09 07 be 2d 9d 59 bd
       -0.42746505 -0.09211565 -0.13187358 -0.05312841
0000c0 78 c4 c8 be 8d a5 0c 3f 7f 82 2a 3f a9 5c 7f bc
       -0.39212394 0.5494011 0.6660537 -0.015586057
0000d0 08 0d 6e bf 08 8c c6 3d a4 6f 7e bb 99 40 0d 3b
       -0.92988634 0.096946776 -0.0038823867 0.0021553396
0000e0 76 85 69 3d 56 72 ab 3e 36 ee 65 be 29 a9 c9 be
       0.057012044 0.3348567 -0.22454152 -0.3938687
0000f0 2d f5 a8 be 14 67 5e 3e de 73 cb 3e 55 55 82 3c
       -0.32999554 0.21719009 0.39736837 0.01590983
000100 f3 df 5b 3a 0e eb b5 bc 63 fa 9b bd 43 d1 2a bd
       0.0008387558 -0.02220681 -0.07616117 -0.041703474
000110 87 69 db bd a2 64 a3 3c e4 83 85 ba e5 53 1d 3d
       -0.10713487 0.019945446 -0.0010186401 0.038410086
000120 90 b3 b1 bd 23 e0 2f be 21 0e bd be ac 39 3b bf
       -0.08676827 -0.17175345 -0.36924842 -0.73134875
000130 54 c8 af 3e df 7c f1 bd b4 86 43 3f 75 e1 0a be
       0.34332526 -0.117913954 0.76377416 -0.13562568
000140 ca c7 29 bf 02 75 a3 3d 27 2d 08 3c d1 f4 02 bf
       -0.6632048 0.07981302 0.008311546 -0.5115481
000150 d1 66 d9 3e b2 f6 b1 be e7 69 07 be 75 88 ec 3d
       0.42461255 -0.34758526 -0.13223992 0.115494646
000160 c7 a3 31 3e 12 b3 b1 bd b8 95 04 3d 57 b9 d2 bd
       0.17347632 -0.08676733 0.032369345 -0.10289257
000170 6a 40 d2 3c 5e 93 92 3e eb 84 e7 bc 4c 27 31 3f
       0.02566548 0.28628057 -0.028261622 0.6920059
000180 40 77 07 bf 7e 11 89 3e ae 04 26 3e c2 fd 57 3c
       -0.52916336 0.26771158 0.16212723 0.013183059
000190 a1 ff 2d bc 06 94 64 be b6 ad 8a bd ef 98 84 bd
       -0.010620029 -0.22322091 -0.06771414 -0.06474482
0001a0 26 bb 6c bf 2b 75 e9 3c d4 04 10 bc 3c 4f e9 3c
       -0.92473066 0.028498253 -0.008790214 0.028480165
0001b0 11 09 9a bc c3 d4 8b 3c 05 c8 5e bf eb db 89 3e
       -0.018803151 0.017069226 -0.87023956 0.26925597
0001c0 e8 d6 8b 3e 11 62 32 be 70 d6 83 bf 0a f0 96 be
       0.27312398 -0.17420222 -1.0299816 -0.2948001
0001d0 3d a0 bb 3d ed ad 54 3d 61 ec 5e bc d8 32 01 3d
       0.091614224 0.05192368 -0.013606162 0.03154263
0001e0 b4 88 18 3d c5 cc bb 3b ac 29 35 3e 20 0e 15 be
       0.037239745 0.0057311975 0.17691678 -0.1455617
0001f0 92 5b 1b be 40 97 69 be 07 94 0c 3a 23 16 66 bd
       -0.1517165 -0.22811604 0.0005362634 -0.056173455
000200 e8 bf 8b 3b b5 4f fc 3e e6 c1 8d be 42 56 b1 bd
       0.0042648204 0.49279562 -0.27686995 -0.086590305
000210 90 97 41 3e 10 f2 12 bd ed 11 ef 3e 60 59 a5 3c
       0.18905473 -0.03587538 0.46693364 0.020184219
000220 86 ed 3c bc 6c 1e 07 3e 59 b3 ff bd ba 5f 9b 3d
       -0.011531239 0.13195199 -0.1248538 0.07586618
000230 0b 7b 82 3e ee ea 01 be 5e 8f 05 bd 2b 1f 15 bf
       0.254845 -0.12687275 -0.03260743 -0.58250684
000240 bd cb 1d bf 58 d3 82 bf 6a 27 cb 3e f9 fe aa 3c
       -0.61639005 -1.0220747 0.39678508 0.020873534
000250 da 97 22 bd 02 07 e7 bd 90 2a ad be 9e 93 52 bf
       -0.0396956 -0.112806335 -0.33821535 -0.82256496
000260 1d 2f ee 3d f9 e6 d3 be 8c c2 40 bf c1 c2 71 bf
       0.1163008 -0.41387156 -0.75296855 -0.94437796
000270 a8 22 78 be c1 98 55 3e 44 77 8c 3e 25 ca 0e bd
       -0.2423197 0.20859052 0.27434742 -0.03486075
000280 8e 69 1c 3c 2b 2b ad bc 67 31 8d 3b fb 0e e4 bb
       0.009546651 -0.021138748 0.0043088677 -0.0069597936
000290 7b 71 40 be 10 15 05 3e 21 b3 4c bd 1e d6 03 be
       -0.1879329 0.12996316 -0.049975518 -0.12874648
0002a0 00 1b 30 3e 47 34 ae 3d f3 91 83 bf cb 45 2a 3b
       0.171978 0.08506065 -1.0278915 0.0025981541
0002b0 f8 ad 94 3b 19 2f 39 be cf 4e 1e bc 65 68 b5 3a
       0.0045373403 -0.18084373 -0.009662344 0.0013840316
0002c0 8a d3 e5 bb 18 9b 31 be 3a 02 01 bd a7 cb a4 3d
       -0.007013743 -0.1734432 -0.031496264 0.08046656
0002d0 6a 05 3e bb 0b 4f 83 3c b7 6b dd bd 77 21 39 bd
       -0.0028994926 0.016028902 -0.108115606 -0.04519793
0002e0 13 a2 89 3d e6 d9 6f 3c 39 70 84 3e 07 af 14 be
       0.06720366 0.014639353 0.2586687 -0.14519893
0002f0 72 49 c2 be df af ee 3e 2b 54 04 bf b9 79 2b bf
       -0.3794666 0.46618554 -0.5169093 -0.6698261
000300 fa da 5d 3d af d8 c6 3e 98 1d cb 3e 31 1e 02 3f
       0.05416391 0.3883719 0.39671016 0.5082732
000310 e8 5d f4 3e 4e 80 11 3f e4 7e 86 3e e5 df 35 bc
       0.47727895 0.568364 0.26268685 -0.011100744
000320 2f 14 a9 bf 6d 72 6f be 45 0c 01 bf af 1d e7 be
       -1.3209285 -0.23383494 -0.50409347 -0.45139834
000330 e9 ab 5f 3e 43 49 46 bd e3 84 12 3f d1 65 ba be
       0.21842922 -0.04840971 0.5723402 -0.36405805
000340 ce 8b 93 3e 85 61 ae 3e 27 cc 2e be 54 9a 62 3e
       0.288176 0.34058776 -0.17070065 0.22129184
000350 a3 9d 87 3e 3b 59 84 3d 3d 2a 25 bd fe 3a 73 3d
       0.26487455 0.06462332 -0.040323485 0.05938243
000360 33 60 b5 3c 91 61 9a bd 32 66 9e 38 83 d5 67 3e
       0.022140598 -0.075381406 7.5530625e-05 0.22640042
000370 95 78 1b bd 2f a6 47 3e cc 4c 3b 3d 6c 91 18 bb
       -0.037956793 0.19496988 0.045727536 -0.0023280038
000380 c9 23 11 be 43 23 f8 3b d5 ac 05 3d 22 27 9b 3d
       -0.14173807 0.007572563 0.03263553 0.07575823
000390 6b b4 04 3f 27 88 b1 be 38 89 a2 be fc 73 08 3e
       0.51837796 -0.34674188 -0.31745315 0.13325495
0003a0 aa 70 00 bd 17 35 91 3e 98 bd 28 3c a6 55 2a 3b
       -0.031357445 0.28360817 0.010299109 0.0025990992
0003b0 52 0e d2 3d 5f ad 4c 3e 63 72 2a 3f 90 b6 5e 3e
       0.10256638 0.19988011 0.6658079 0.2174933
0003c0 c4 3b 0c 3f fe a9 e2 3e bc f9 4b 3f dd 05 87 3e
       0.54778695 0.4427032 0.7967794 0.2637166
0003d0 2f 8d 02 bd f8 97 82 3e 3f 9d 7e bd f8 e3 2d bd
       -0.031872924 0.25506568 -0.06216168 -0.042453736
0003e0 31 d8 25 bf 8f d3 a2 be 63 7d 34 3e 72 91 04 3e
       -0.64783007 -0.3180203 0.17625956 0.12946108
0003f0 a3 de 96 be 0e 0e 00 bd e4 49 f3 3d 04 eb 9f bb
       -0.29466733 -0.031263404 0.11879328 -0.004880311

net.0.bias f4 [256]
000000 26 de 79 bc c2 6a f5 3e 83 9a 3d 3f 8c 3e cb be
       -0.015250718 0.47933012 0.7406389 -0.39696157
000010 f1 94 d0 3e cf 92 7c bf b5 4e 55 3f 21 73 4d bf
       0.40738633 -0.9866151 0.8332322 -0.802538
000020 63 e7 7a bf e1 87 42 3e da 10 c4 3e c9 11 a4 bd
       -0.9800932 0.18997146 0.38294107 -0.08011205
000030 14 85 3f 3f 51 b2 d8 be ef a6 e2 3e 54 80 c3 3e
       0.74812436 -0.42323545 0.44267985 0.38183844
000040 6a 64 32 bf e6 6a 81 3f 15 92 1c bd 6e ae 06 3f
       -0.6968447 1.0110748 -0.038225252 0.5260991
000050 ac 6f 05 bf a7 e5 84 3d 4d 48 1a 3d aa 01 87 3d
       -0.5212352 0.06489115 0.037666608 0.06592114
000060 d3 81 f0 be aa 7e fa be 0f 9d 3c bf f0 0d 29 3f
       -0.46974048 -0.48924762 -0.7367715 0.6603689
000070 5b 0b e4 3e 2d 50 d6 3d 71 d1 a8 be fb 04 90 bf
       0.44539914 0.10464511 -0.3297229 -1.125152
000080 4e 5f 0a bf bd 08 93 bd ec bb e9 3e f3 1d f0 bd
       -0.54051673 -0.07179401 0.45651186 -0.11724462
000090 63 56 78 3e 6a c4 80 bf e6 7f 56 be f3 a8 4a be
       0.24251704 -1.0059941 -0.20947227 -0.19791012
0000a0 92 df a2 3c e6 75 6d 3e ee d0 11 3e 24 85 67 bf
       0.019881997 0.23189506 0.14239857 -0.9043753
0000b0 28 49 3e bf 29 c2 25 be fe b6 8c be d8 ef 07 3f
       -0.7433038 -0.16187347 -0.27483362 0.5310035
0000c0 4f 81 05 bf 2b 1a 0b be 71 00 54 3f f5 92 99 bf
       -0.52150434 -0.13584201 0.82813174 -1.1997973
0000d0 f6 a2 c7 be 8b 76 1a bd 33 1d 57 bc 3f e1 4a 3e
       -0.38991517 -0.037710708 -0.01312952 0.19812487
0000e0 40 35 0d 3f 3a 4a c0 3d 0e 05 8b bb 2b f3 2c bf
       0.5515938 0.093891576 -0.004242546 -0.67558545
0000f0 2f 11 0c 3d 40 93 6b bd f2 4b ad 3e f2 fb 4e 3f
       0.034196075 -0.057513475 0.33847004 0.8085319
000100 2e be 1f bf 35 bc 8d be 82 b4 a6 3e c1 bf a0 bf
       -0.62399566 -0.27682653 0.32559592 -1.2558519
000110 f7 f4 5e bf 77 20 fe be 5d cb a2 be 72 5e 8d 3e
       -0.87092537 -0.49634144 -0.3179578 0.2761112
000120 e0 01 6b be f6 e7 63 bf 18 04 19 bd e7 2d 2f be
       -0.22949934 -0.8902582 -0.03735742 -0.17107354
000130 05 e6 29 3f 75 e2 ff be b7 0a fe bd b4 09 0a 3e
       0.66366607 -0.4997746 -0.124043874 0.13480264
000140 2b cc 3e bf 05 52 7d bf c4 91 a5 3e 00 08 8f be
       -0.74530286 -0.98953277 0.32337773 -0.2793579
000150 70 a4 83 bf fa bb e5 3e f6 1c 11 bf 0d 39 59 be
       -1.0284557 0.44869977 -0.56684816 -0.2121317
000160 ec 0b 31 bf 6f 67 d4 be 52 91 e2 bc 3a 2c 46 bf
       -0.69158816 -0.41485164 -0.027657185 -0.77411234
000170 82 0f 21 bf e8 5b 13 bf a1 5d 59 3f cf 5d 5b bd
       -0.6291429 -0.5756211 0.8490849 -0.05355626
000180 1a 3a a3 be 94 78 de bd 18 fb c5 bb 77 e5 f0 3c
       -0.31880265 -0.10862842 -0.0060418956 0.029406292
000190 5c 09 45 bd 16 e2 bf be 36 ef 5b 3e 62 93 f5 be
       -0.04810463 -0.37477177 0.2147797 -0.47964007
0001a0 45 49 71 3f f1 49 9f 3e 85 a5 34 bd 0d ce 43 bf
       0.94252425 0.311111 -0.044103164 -0.76486284
0001b0 e8 49 6f 3d 64 4b ae bd c8 6d dd 3e e3 2c 5c be
       0.058420092 -0.08510473 0.4324782 -0.21501498
0001c0 fd 12 21 be a2 55 51 be 5b ce ca 3e 54 ed dd 3e
       -0.157299 -0.20442823 0.39610562 0.4334513
0001d0 b8 c1 cb 3b 99 e7 94 be c5 44 d3 be 38 e6 9a bd
       0.0062181614 -0.29082945 -0.41263404 -0.07563442
0001e0 5f f6 c0 3d 4a 93 d3 be 55 21 54 3f 5d 18 6d 3c
       0.094219916 -0.4132331 0.8286336 0.014471141
0001f0 6b 00 56 3e a2 83 a2 3d 39 89 5e bf ff 02 07 3f
       0.20898597 0.07935263 -0.86928135 0.52738947
000200 07 41 94 3e dc 91 06 bd b4 dc 06 be 4d b4 83 bd
       0.28955862 -0.032853946 -0.13170129 -0.06430874
000210 66 55 72 3f 74 ea 7e 3e 1b 6b e9 3e 24 96 0c 3f
       0.9466156 0.24894124 0.45589527 0.54916596
000220 6a c1 2a 3f f5 72 13 bf b0 52 37 be 08 03 0f bf
       0.66701376 -0.57597286 -0.17902637 -0.55864
000230 b3 f0 fb 3e 9f b7 03 bd 48 ca 9a be db 44 cf be
       0.49207076 -0.032157537 -0.30232453 -0.4048222
000240 31 e2 df 3e b6 43 6b 3e e0 74 e1 be 40 1d 97 3e
       0.43727258 0.22975048 -0.4403448 0.29514503
000250 c9 5f 5b be 34 84 68 bf 2e ec 90 bd 3f 75 34 3f
       -0.21423258 -0.90826726 -0.07076298 0.70491403
000260 e4 76 99 be c5 45 b3 be 33 1f 3a be df c6 8c bf
       -0.2997352 -0.35014167 -0.18175964 -1.0998191
000270 e5 10 18 3e 98 49 13 bf 6d 8b 10 3f c5 39 c4 be
       0.14850195 -0.5753417 0.56462747 -0.38325325
000280 e2 46 12 bf 84 ff ca be 95 38 bf 3b 62 2a d1 be
       -0.5713941 -0.39648068 0.0058356025 -0.40852648
000290 d2 a9 3d be c9 fb 86 be b5 8e e4 bd 83 bf 44 bf
       -0.18521813 -0.26363972 -0.11160032 -0.76854724
0002a0 74 16 77 bd 25 3b 68 be a1 bb 26 bf 50 87 2a 3e
       -0.060324147 -0.22678812 -0.6513005 0.1665318
0002b0 f2 59 29 bf ec aa 6a be 91 57 e8 bd 4a f5 fe bc
       -0.6615287 -0.22916764 -0.11344827 -0.031122822
0002c0 2e 56 1c be fd a4 31 3d 4c 45 08 3e 1a 5a 17 3e
       -0.1526725 0.043370236 0.13307685 0.14780465
0002d0 08 ad 4f bf 4f 9b 0e bf c2 6f 4c be 82 8a 64 be
       -0.811234 -0.5570573 -0.19964507 -0.22318462
0002e0 7a ee eb bd f8 ac b5 bd 25 cb 9b bf e6 96 7b 3c
       -0.11520095 -0.08870882 -1.217137 0.015355801
0002f0 82 c9 87 bd cc b0 09 3e c8 82 8c bf 87 ca 98 bf
       -0.066302314 0.13446349 -1.0977411 -1.1936806
000300 7b 72 97 be bf 7e 8f 3d c9 b4 22 3f b4 e7 d8 3e
       -0.2957953 0.07006597 0.63557106 0.42364275
000310 a1 93 f8 be 9c df 09 be 69 4d 02 be 23 70 24 3f
       -0.48550132 -0.13464206 -0.12724842 0.6423361
000320 04 1e 8e be fa f9 e9 3c 7d 41 b3 bd 17 52 8d be
       -0.27757275 0.02856158 -0.08752725 -0.27601692
000330 12 86 4c 3f f7 60 2a 3f 9b eb f1 be cb bd 41 bf
       0.79892075 0.66554207 -0.47250065 -0.75680226
000340 aa 05 14 3f 7b c1 cd be 7e 2c d5 3c 95 12 cf bd
       0.5782114 -0.40186676 0.026022192 -0.10110966
000350 1f c4 46 3e 62 0b a3 bf 16 fd 59 bf 61 a9 29 bf
       0.19410752 -1.2737849 -0.85151803 -0.66274077
000360 3b b6 62 bf 6c cb 4a 3e 8a a0 9d be 94 62 e3 be
       -0.8855931 0.19804162 -0.30786544 -0.44411147
000370 3e cc e0 be 97 ce af be 4c 5e 0b 3e 5b d3 39 3f
       -0.43905824 -0.34337303 0.1361019 0.7258813
000380 26 0a cb 3d f5 39 2a 3f 9e 3d 4c be 0b cd a3 bf
       0.09914045 0.66494685 -0.1994538 -1.2796949
000390 e7 cd 76 be 31 da 2c 3f ca ea 5d 3e aa 92 49 be
       -0.24101983 0.67520434 0.21671596 -0.19684854
0003a0 3e b9 de 3e 1a b4 3f be 6c 81 d5 bd 5c 6f 4c bf
       0.43500704 -0.18721047 -0.10425076 -0.7985742
0003b0 7f 34 22 bf 40 ea 87 3f 19 e3 4d bf 0d e5 96 be
       -0.6336135 1.0618362 -0.8042465 -0.29471627
0003c0 08 d8 b2 bd d5 b1 83 be 94 fd 1d 3e f9 ef e5 be
       -0.08732611 -0.25721613 0.15428764 -0.44909647
0003d0 8c 1d ca 3e 82 75 00 3f 2c 1d 42 3f ab 30 19 3c
       0.39475667 0.501793 0.7582576 0.009349982
0003e0 3b 6d 6e bf 15 17 4f bf 4c 97 7f 3e 13 cb ad 3e
       -0.9313542 -0.80894595 0.24960059 0.33943996
0003f0 a8 0b 14 be 79 1d c8 be 6a 02 4a be a7 34 0b bf
       -0.14457572 -0.39084986 -0.19727483 -0.54377216

net.2.weight f4 [256, 256]
000000 6f e3 b1 bc cc 77 1d 3e a6 3e 85 bd cc 68 7d 3e
       -0.021714894 0.1537773 -0.0650609 0.24747008
000010 7e 16 c6 3d e5 79 63 3d f7 80 d4 be c4 23 e1 bd
       0.09672259 0.05553617 -0.41504642 -0.1099315
000020 47 9b df bd 35 9a f7 bc ef 8d b5 bd 12 3e bc 3d
       -0.10918289 -0.030224899 -0.08864962 0.091915265
000030 b6 9a 7e be ec d5 dd 3d bd 36 1b be a2 4b 4b 3e
       -0.24863705 0.10831818 -0.151576 0.1985307
000040 25 2d 10 3e f0 6b 46 bd 02 13 62 3c 53 9f 18 3e
       0.14079721 -0.04844278 0.013798477 0.14904527
000050 64 31 9d bd c4 bd d0 3d cb 72 25 be e0 8a 1a 3d
       -0.07675436 0.10192445 -0.16157071 0.037730098
000060 09 25 9e 3b 0e cb 07 be 89 9b 7a 3d 6d 7b 3f be
       0.0048261923 -0.13261053 0.061183486 -0.18699427
000070 de 98 56 be 8c 7c 66 3d 41 71 db 3d 60 f4 64 3d
       -0.20956752 0.05627112 0.10714961 0.055897117
000080 19 21 84 bc 46 01 a7 3d 8e a6 73 bd cb 1e 48 3e
       -0.016129063 0.0815454 -0.05948501 0.19542997
000090 68 94 0b be 92 85 d4 3d e6 dd c1 3d 87 bf 43 3e
       -0.13630831 0.10377039 0.09466152 0.1911603
0000a0 99 b2 1a 3e 17 f9 63 3b 21 c5 01 3e 1e 9a 06 bd
       0.15107192 0.003478592 0.12672855 -0.03286182
0000b0 23 9e 41 3e 11 7f 20 3b 72 95 84 3d f2 6c 2d be
       0.1890798 0.00244898 0.06473817 -0.1693609
0000c0 35 b6 c2 bd 66 cb 3f 3e 93 1a 1e 3d 38 aa 0e be
       -0.095074095 0.18729934 0.038599562 -0.13932121
0000d0 c5 86 84 3e fa 4e cc 3d 20 d8 fc 3c cb b9 2d bd
       0.2588407 0.09976001 0.030864775 -0.042413514
0000e0 69 3d 01 3c d3 43 da bd 75 50 b7 bd 79 3e 89 3d
       0.0078881765 -0.10657468 -0.08950893 0.06701369
0000f0 2c 8a d7 3d d0 2c ad bd 5b 71 f4 3e da 3f 12 3e
       0.10524401 -0.08455813 0.47742733 0.1428217
000100 88 bc a7 3e 5c 40 c9 3d 66 df b6 bd 73 a7 7a bd
       0.32761025 0.09826729 -0.089293286 -0.06119485
000110 47 38 42 3e 7e 0f a0 bd 34 41 87 3e ad 03 56 be
       0.1896678 -0.07815455 0.26416934 -0.2089984
000120 ff f4 1e 3e a6 62 ca 3d 03 99 0f 3e a7 c4 1a 3e
       0.15523146 0.09882097 0.14023213 0.1511408
000130 1a 0b 91 bd c1 bb 35 3e 3c 6c 63 3e cf d9 09 be
       -0.070821956 0.17747404 0.22209257 -0.13461994
000140 f8 e7 82 be 4f 3d c5 3d 5d b3 e5 be ad 8e f5 3d
       -0.25567603 0.09630834 -0.44863406 0.11990104
000150 8e 86 4e be 7e 5e 0e 3a ae 35 e4 bd d5 f4 21 bd
       -0.20168516 0.00054309506 -0.11143051 -0.03954013
000160 24 55 f6 3d 5e b4 90 bd 55 49 4b 3e 0e 49 35 3e
       0.12027958 -0.07065652 0.19852193 0.1770365
000170 42 4d 0f 3e 1c f5 aa 3d a6 07 b8 3d 5e de b6 3d
       0.13994315 0.08347532 0.08985834 0.08929132
000180 04 2a c8 3d aa 56 1b 3e 08 3d 41 3e 82 4f ae 3d
       0.09773639 0.15169778 0.18870938 0.08511259
000190 c7 55 4e 3d dc ac a2 3d 82 5a 6e bd 15 5e 4e bd
       0.050374772 0.079431266 -0.058191784 -0.050382692
0001a0 b3 43 56 be 5a b0 e3 3d 2c 0e a3 bd c4 82 68 3e
       -0.20924263 0.11117621 -0.079616874 0.22706133
0001b0 15 2e 3c be d8 7a 6f 3d ea 70 0f bd f2 7c 67 3e
       -0.18376954 0.058466762 -0.035019793 0.22606257
0001c0 b1 f9 3b 3c ca 7e b5 3e a7 57 72 3d 07 a2 eb bb
       0.011473105 0.35448295 0.059165623 -0.007190946
0001d0 12 45 2f be 55 21 14 3e 59 89 05 3d e2 cc 4b 3d
       -0.17116192 0.1446584 0.032601688 0.04975594
0001e0 12 1b d3 be 6d 35 92 bd 92 4f df bb f3 a9 e8 3a
       -0.4123159 -0.071390964 -0.0068149054 0.0017750844
0001f0 62 2b 0f be 63 7a 5d be fe f0 27 3e b8 f1 7f be
       -0.13981393 -0.21628718 0.16400525 -0.24994552
000200 9d 95 35 3d ad d3 35 3e 6b 07 0b 3e cd b8 57 bc
       0.044332135 0.17756529 0.13577048 -0.0131666185
000210 49 95 45 bd 59 ab a1 bd df 3c 3a 3d ad c9 b0 3e
       -0.048238073 -0.0789401 0.045468207 0.34528866
000220 68 2a 43 bd eb 1c d1 3d f4 e3 b0 3d da ec c4 bd
       -0.047647864 0.10210594 0.086372286 -0.09615488
000230 a1 4b 22 3d 74 9d 13 3e 95 df 29 be 80 d8 ea 3d
       0.039622907 0.14415532 -0.16589196 0.11467075
000240 e0 44 3a 3d c0 bd fa bd 58 a5 78 3d eb 2e 4b be
       0.04547584 -0.12243223 0.06070456 -0.19842117
000250 1a b7 44 3e 72 d8 79 be 0e 0a b8 3b 8e 40 b7 3d
       0.19210473 -0.24398974 0.005616433 0.0894786
000260 af 48 dd 3d 38 95 87 3d 11 19 88 3d ae 31 16 3e
       0.10804879 0.06620258 0.06645406 0.14667389
000270 44 5c ad ba 86 82 ab bd 5c c6 13 bf 19 06 39 3e
       -0.001322635 -0.08374505 -0.5772455 0.18068732
000280 98 d3 2f 3e 9d 02 f2 3d e3 99 cc 3c b4 04 26 3e
       0.1717056 0.11816905 0.024975723 0.16212732
000290 c0 b0 21 3e 05 93 2f 3e 0a 1c 23 3e 35 25 6e bd
       0.15790081 0.17145927 0.15928665 -0.058140952
0002a0 d3 f3 57 3e 25 de 05 3e 40 96 8a bd ad 57 83 bc
       0.21089105 0.13073023 -0.06766939 -0.016033018
0002b0 05 7f 10 3e 08 0c a1 3e a0 9b 9c 3e 80 7c f0 bd
       0.14110954 0.31454492 0.30587482 -0.117424965
0002c0 5b c6 ff bc 08 22 11 3e ad 54 51 3d af 58 ef bc
       -0.031222513 0.14173138 0.051106144 -0.029217092
0002d0 82 42 10 bf 07 71 0a 3e 3f 59 98 3d 77 6c 4e 3e
       -0.5635148 0.13519679 0.07438897 0.20158564
0002e0 79 ce 26 3e 0b 03 d3 3d 1b 79 19 bd 9d 10 04 3e
       0.162897 0.10303315 -0.03746901 0.12896962
0002f0 65 87 8f 3d 83 4b 0c be 2a 5e 1f be d6 af 72 be
       0.07008246 -0.1370068 -0.15563264 -0.23699889
000300 3e 77 4c 3e 95 79 86 bb a8 3b 24 be 97 66 cd bd
       0.19967362 -0.004103849 -0.16038382 -0.10029333
000310 42 f4 e3 bd 48 2d 43 3d 00 e3 e0 3d 2c 65 a5 3e
       -0.11130573 0.047650605 0.10980797 0.3230375
000320 1d 4b 51 3e da c4 97 3d c6 78 11 3e 71 17 ba 3e
       0.2043881 0.07410593 0.14206228 0.3634601
000330 ec 15 8a be d6 ab d6 3d 76 82 52 be 44 bd 1d 3e
       -0.2696985 0.10481994 -0.2055758 0.1540423
000340 28 09 60 be b9 10 57 3e e2 18 f5 39 59 31 aa 3d
       -0.21878493 0.21002473 0.0004674858 0.083101936
000350 5c 09 ff 3d 1c 92 d2 be 85 07 72 3d f6 30 fe 3d
       0.12452957 -0.41127098 0.059089202 0.12411682
000360 6c 30 cc bd 26 12 93 be 76 25 2f 3e 3a 00 22 3e
       -0.09970173 -0.28724784 0.17104134 0.15820399
000370 e0 b1 a1 3d f6 92 1d 3e 79 cd 6f 3d 67 9f b0 bd
       0.07895255 0.15388092 0.058545563 -0.086241536
000380 d6 f6 37 be 83 bf 51 bc b0 78 43 3e f7 17 97 37
       -0.17965254 -0.012802008 0.19089007 1.8011762e-05
000390 00 e5 80 3d d1 fb 79 bd 25 7b 28 be c7 e6 35 3e
       0.06293678 -0.061031166 -0.16453226 0.17763816
0003a0 71 0d 2e be d6 b1 b2 3e a5 5d 72 3d c2 89 40 3e
       -0.16997315 0.34901303 0.059171338 0.1880255
0003b0 87 a8 e3 3c ca 71 f9 bd f0 4c 85 3c f9 90 54 3e
       0.027790321 -0.12179907 0.016272038 0.20758428
0003c0 8d 85 e3 3d 19 00 93 3d 57 67 98 3e 18 96 90 3d
       0.11109457 0.07177753 0.29766342 0.07059878
0003d0 31 c3 15 be 22 79 d1 bd 22 fe 9c be 05 9b 45 3e
       -0.14625241 -0.102281824 -0.30662638 0.19297417
0003e0 a6 e1 9d be cb 6a 0e bd 41 a3 8e bd d6 6b 11 3e
       -0.3083622 -0.034769814 -0.06964732 0.14201292
0003f0 88 73 5a 3e 17 86 19 3e 45 a4 0b 3e b4 e2 f7 3d
       0.21333134 0.14992557 0.13636883 0.12103787

net.2.bias f4 [256]
000000 79 cb c4 bd 8b 72 3d bc 89 8d 64 bd 5c 2b 11 3d
       -0.09609122 -0.011562954 -0.05579904 0.03544174
000010 be d9 8d bb ae b1 82 bc 9f 34 4c bc 58 0d 5d bd
       -0.0043289354 -0.015953865 -0.012463718 -0.053967804
000020 5b 7d 25 3c 1c ff 01 3e 9e 44 9e 3d 63 0c 01 bd
       0.010100688 0.12694973 0.077279314 -0.031505954
000030 01 57 87 3d 98 da bd bd 96 49 5a be 58 b8 04 3d
       0.066083916 -0.09270209 -0.21317133 0.032402366
000040 e5 04 17 be e4 de f5 3d 5b 61 af bd 2e 5f 5a be
       -0.14747961 0.12005404 -0.08563491 -0.2132537
000050 7b 3f 83 bd 38 97 20 be 05 24 ad 3d 0b ce 9d be
       -0.06408592 -0.15682685 0.08454136 -0.3082126
000060 7d 81 f5 3d b1 9a 22 3d e3 a8 19 be 16 83 a9 bd
       0.119875886 0.039698306 -0.15005831 -0.08276956
000070 b0 4f 0f be 1e 05 5a be a8 cd 3f bc 70 e0 1a be
       -0.13995242 -0.21291015 -0.011706747 -0.15124679
000080 00 f5 56 bd 46 f0 c0 3d c6 f0 87 be 72 3d e0 be
       -0.052479744 0.094208285 -0.26550883 -0.4379688
000090 02 57 11 be 29 1a 11 bd 5a fd 11 3d 63 1a f6 bd
       -0.14193347 -0.03542534 0.035642006 -0.120167516
0000a0 c8 48 d8 3d 22 47 1b bd d4 00 3c be a6 a2 b8 3c
       0.10560757 -0.037909634 -0.18359691 0.022538494
0000b0 d0 7f a2 3c 2d 3a 53 3d 54 f8 c1 3d c7 5a 6b 3d
       0.019836336 0.051569153 0.09471193 0.05745962
0000c0 4d b8 a2 3c 27 80 58 be 42 10 42 be 18 d3 5a be
       0.019863272 -0.21142636 -0.18951514 -0.21369588
0000d0 e6 fa 96 be c3 ff f3 bc fa 85 16 be f2 ed 33 be
       -0.29488295 -0.029785043 -0.14699546 -0.17571238
0000e0 65 b9 d3 be a5 10 13 be 41 76 00 3b 2e 31 65 3d
       -0.41352382 -0.14361818 0.0019601735 0.055955105
0000f0 3b 5d 4b 3e 70 7b 3a be 8c 22 2f be 46 cd 58 be
       0.19859783 -0.1821115 -0.17103022 -0.21172056
000100 db c9 dc bd 87 f3 96 be fe d9 f5 3d cc bc 3d be
       -0.107806884 -0.29482672 0.12004469 -0.18529052
000110 89 fd 84 be ea 21 ee 3c 0d e1 1f 3d 6d e0 af 3d
       -0.25974682 0.029068906 0.039032985 0.08587728
000120 a5 a0 19 bc c4 24 5d bd 55 03 20 3d 69 e6 0e 3c
       -0.00937668 -0.05399014 0.039065678 0.008721926
000130 05 45 4a be 51 43 26 be 64 ba dc 3d 39 ec 12 3e
       -0.19752891 -0.16236617 0.10777739 0.14347924
000140 d8 af 82 bb 8f 8b 78 3d 72 10 b7 bd 90 9b 87 b7
       -0.0039882474 0.06067997 -0.089386836 -1.6165694e-05
000150 3e d2 b1 be 11 09 d7 bd 1a 94 87 be 4e 6a d2 bd
       -0.34730715 -0.10499776 -0.2648018 -0.10274182
000160 68 2a 62 be 62 8a 02 3d c7 c5 f0 bd 62 bf b0 3c
       -0.22086489 0.031870253 -0.11756473 0.021575633
000170 c2 f1 45 bd f6 9f 96 3d b1 ca 4a bd ac 2d 4e 3d
       -0.04832626 0.07354729 -0.049509708 0.050336525
000180 ee 0e f2 3c 6e ef e0 be ac ca 27 3e 62 b6 31 bd
       0.029548135 -0.4393267 0.16385907 -0.043386824
000190 e4 6e 21 be 5b f8 03 be 89 67 75 be de 88 de 3d
       -0.15764958 -0.12887709 -0.23965277 0.10865949
0001a0 b8 e6 9f bb f8 91 e4 3d 22 51 c3 3d 36 bd 03 bf
       -0.0048797987 0.11160654 0.09536959 -0.5146059
0001b0 8c 6c 85 be 79 08 96 bd c3 d5 f8 3c 04 bc 5c bc
       -0.26059377 -0.07325835 0.030375367 -0.013472561
0001c0 94 c3 c3 bc 27 f5 bc bc 52 c8 0f be 94 cd 69 3c
       -0.02389697 -0.023066116 -0.1404126 0.014270205
0001d0 b2 52 56 bd 14 f6 5e bd 64 80 0d be d1 b4 0d 3c
       -0.05232496 -0.054433897 -0.13818508 0.008649067
0001e0 83 5d d2 bd 32 10 42 be 87 e1 11 3d 22 40 8d bc
       -0.10271742 -0.1895149 0.03561547 -0.017242495
0001f0 78 c1 50 be f9 56 99 3d 13 e3 82 be e7 7e e0 bc
       -0.20386302 0.07487292 -0.2556387 -0.027404262
000200 ad e6 39 bc 0b b9 fb bd 58 3b c3 bd 7e da 89 bd
       -0.011346501 -0.122911535 -0.09532803 -0.06731127
000210 e8 e2 c7 3d 9b 69 87 3c 0c fc 96 be 28 c8 0f be
       0.09760076 0.016529849 -0.29489172 -0.14041197
000220 c1 08 29 bd 23 0d 9b 3d f2 b2 39 be 93 81 26 be
       -0.041268114 0.07570865 -0.18134668 -0.16260366
000230 7e 45 3b 3e 63 93 b3 3d 7d 43 fb 3c dd 43 72 3c
       0.18288228 0.08768346 0.03067183 0.014786688
000240 64 c6 95 3c 4c 73 07 3d 48 92 96 3d 36 0c 1d 3c
       0.018283077 0.03306894 0.0735212 0.009585431
000250 ee 1d 66 bd 62 ef 6d be 18 a2 32 be 5f af bb 3d
       -0.056180887 -0.23235849 -0.17444646 0.09164309
000260 3b 14 a4 bc 3c 56 f3 bb 59 25 1a 3e 31 52 76 bd
       -0.020029178 -0.0074260514 0.1505331 -0.060136978
000270 57 a0 20 be fd 3d da bc 6a dd 53 be f6 bd a9 be
       -0.15686165 -0.026640886 -0.20689932 -0.3315274
000280 35 70 78 bd 93 82 13 3c 46 c6 46 3e 04 10 bc bc
       -0.060653884 0.009003299 0.19411573 -0.022956856
000290 c3 8d 0b 3e 5c e4 a1 bd 97 17 22 bd 09 87 86 be
       0.13628297 -0.07904884 -0.03957328 -0.262749
0002a0 84 3d 03 3e 1d f9 42 bd 35 d4 1a be 85 c4 70 be
       0.12816435 -0.047600854 -0.15120013 -0.23512466
0002b0 d2 8e 97 3c 08 fb fa be ff 01 51 be 10 a2 43 be
       0.01850072 -0.49019647 -0.20410918 -0.1910479
0002c0 fe e6 15 bc 7a 3a 19 be 5f 42 c1 bd d8 0c e7 be
       -0.009149311 -0.14963713 -0.094364874 -0.45126987
0002d0 12 a6 db bc 3a 47 21 be 5a ec 1e bd 08 47 83 be
       -0.026812587 -0.15749827 -0.03879962 -0.2564013
0002e0 f6 c6 e4 3b 1b c6 6d 3d fb 76 5c bd 73 3a b7 bd
       0.006981726 0.058050256 -0.053824406 -0.08946695
0002f0 0a e9 e5 bd 65 99 fd bd 48 d1 eb bb 22 f0 18 3e
       -0.11226089 -0.12382773 -0.007196579 0.14935353
000300 fb 51 8a 3c b4 c6 6d 3d ff 22 6e bc a6 61 80 bd
       0.016884794 0.058050826 -0.014534711 -0.06268625
000310 b5 fe 26 3d 4c a1 5a be 31 27 8c bd b5 cf 41 bd
       0.04077025 -0.21350592 -0.06843413 -0.047317225
000320 fd 34 88 be a8 18 7d be b3 e8 de 3c 6f 29 80 be
       -0.26602927 -0.24716437 0.027210569 -0.2503161
000330 d4 ed dc be 58 6f 8d 3c f0 d5 6b be 17 b8 2e bd
       -0.43150198 0.017265007 -0.2303083 -0.04265603
000340 17 4f 15 3e ad f2 21 bd 02 30 03 be e9 16 40 3e
       0.14580952 -0.039538074 -0.12811282 0.1875874
000350 92 06 4f bd 25 17 0a bf c4 20 9f bd 5b 70 ab bd
       -0.050543375 -0.53941566 -0.077699214 -0.083710395
000360 c2 58 7e be d5 9f dd bd 0c 1e 56 be 51 c4 8c bd
       -0.24838546 -0.10821501 -0.209099 -0.06873382
000370 d5 19 03 be 25 8f 40 be d0 7c ec 3b 18 a4 98 3d
       -0.12802823 -0.18804605 0.0072170272 0.074531734
000380 39 8d a9 be 26 de 3c bc 2c 0a 4d 3e 80 f5 79 bd
       -0.33115557 -0.011527574 0.20023412 -0.061025143
000390 a6 aa 1c be 59 76 4e be 05 30 34 be 86 c2 03 bd
       -0.15299472 -0.20162334 -0.17596443 -0.032167934
0003a0 0c 46 6b bd 4e 45 6f be ad 69 74 be 77 b0 8b be
       -0.05743985 -0.23366281 -0.23868437 -0.2728307
0003b0 a3 af 4c be c4 c0 48 bc 61 c7 e1 bd 3b bc 5b be
       -0.19988875 -0.01225299 -0.11024357 -0.21458523
0003c0 f2 b6 87 3d 5c 4b a4 3d 21 16 07 3d 4b 16 07 3c
       0.06626691 0.08022186 0.03298009 0.008245061
0003d0 fc 81 c5 bd 8f fd 9a be f5 35 f1 bd 92 a5 ff 3d
       -0.09643933 -0.30271575 -0.117778696 0.12482752
0003e0 e0 95 66 bd 84 c7 34 be a3 53 a9 bd 71 8e 59 be
       -0.056295276 -0.17654234 -0.082679056 -0.21245743
0003f0 1d da 44 be 88 c5 65 3c a2 62 bf be a6 4d ff 3d
       -0.19223829 0.014024146 -0.37379938 0.12465982

net.4.weight f4 [256, 256]
000000 2a 6c d2 3c ad 74 c9 be 99 42 4b 3b d2 cb 0b 3d
       0.025686342 -0.3934683 0.0031015037 0.034129925
000010 2b df 68 3d 65 5d 73 3d 88 3e 4a bd fe 13 59 3d
       0.056853455 0.05941524 -0.04937604 0.05299758
000020 fc 15 99 3d c4 70 20 bd 25 e1 78 3d 68 1c 70 bd
       0.07474896 -0.03917004 0.06076159 -0.05862084
000030 60 2f 6d 3c 06 a1 5d be a3 50 bb 3b 36 7b a1 3d
       0.014476627 -0.21643457 0.0057163998 0.07884829
000040 0c 59 9b bd c3 2e dd bd 93 72 5d bc cd 6f 8b bd
       -0.07585344 -0.10799935 -0.013516086 -0.06808434
000050 54 7a 5e bc 9a 03 cf bd 39 e7 29 3d 33 f2 71 3d
       -0.01357897 -0.10108109 0.041480277 0.05906887
000060 ac 42 0a 3e f3 db cf 3d 49 53 09 3e 3e ca f5 bb
       0.13501996 0.10149374 0.13410677 -0.007500916
000070 a4 8a 25 be c3 37 c8 bd 82 bb 8a bc 51 10 7b 3d
       -0.16166168 -0.09776261 -0.016935114 0.061294857
000080 7e 96 b8 3d 96 20 d3 3b cd e0 96 bd 16 00 6c 3d
       0.09013079 0.0064430935 -0.07367096 0.05761727
000090 71 93 33 bd c2 df 35 3c fe 79 c2 3c 3e 1d bd 3d
       -0.043841783 0.011100711 0.023739811 0.09234093
0000a0 e4 77 06 bd f8 15 43 3d c8 aa ac be e4 0f 25 bd
       -0.03282918 0.047628373 -0.33724046 -0.040298358
0000b0 71 98 43 bf be 86 bb 3d 92 56 ae 3c 0d c2 e5 3c
       -0.7640448 0.091565594 0.021281514 0.028046632
0000c0 e7 f0 ee bc e6 59 0a 3e 1f 1c bc bc e7 93 f1 bd
       -0.029167606 0.13510856 -0.022962628 -0.11795788
0000d0 16 46 37 3e cb 62 87 bd da b0 02 bd ed 45 3a be
       0.1789783 -0.0661064 -0.03190694 -0.18190737
0000e0 49 6c 93 bc 07 2a 6c bd f9 c3 fc bd 80 c1 20 3d
       -0.01799597 -0.057657268 -0.12342066 0.039247036
0000f0 7a f2 76 be 7a fb 79 3e 59 05 c5 bd 28 92 5d 3e
       -0.24115935 0.24412337 -0.096201606 0.21637785
000100 87 fa 98 bc e6 ea ab bd 34 d3 09 be 9c b5 f1 3d
       -0.018674148 -0.08394413 -0.13459474 0.11802217
000110 52 a8 1b 3e ba c8 e1 3d 9f 5b aa bd c6 fd ad 3c
       0.15200928 0.11024614 -0.083182566 0.021239173
000120 20 2a 4a bd eb b9 f8 bd ac 35 ab bc b7 0f 56 3c
       -0.04935658 -0.12144836 -0.020899616 0.01306527
000130 2c 13 5d bd 42 c6 56 bd 42 2a f4 3c 76 ef b7 3d
       -0.05397336 -0.052435167 0.029805306 0.089812204
000140 0a 78 13 3d a4 c3 5b bd f7 d1 06 3d 0d 92 21 bd
       0.03600315 -0.053653374 0.03291508 -0.039445926
000150 ab 9c 92 3d 3d 92 0f bd f4 a9 ea bd 20 3c 4a 3d
       0.07158788 -0.035051573 -0.11458197 0.049373746
000160 b0 2b 4f bd b6 12 b6 3d df e4 5f bb 6e 2c 7b 3c
       -0.050578773 0.088902876 -0.0034163517 0.015330417
000170 5d 5c 12 bd 5c c5 5a b9 9f de 2f 3e 52 b6 c5 3c
       -0.035732616 -0.00020863622 0.17174767 0.024134789
000180 f9 47 54 3d 18 8a 03 3e ea f1 06 be 72 64 5d 3d
       0.05182645 0.12845647 -0.1317822 0.05405087
000190 d7 c4 13 3e af 92 67 3e c2 5a 78 3c ca ca 25 be
       0.14430557 0.22614549 0.015158357 -0.16190639
0001a0 45 67 03 bd 5b ac e3 bd 5b 95 9d 3d 08 c6 19 3e
       -0.032080907 -0.111168586 0.07694503 0.15016949
0001b0 f0 b9 38 3e 15 d9 76 3d b8 a5 68 bd 5d 64 83 bd
       0.1803968 0.06026562 -0.056798667 -0.06415627
0001c0 40 7d c2 bd 43 55 f2 3c 33 17 33 3d ba 74 27 3d
       -0.09496546 0.029581672 0.043723296 0.040882803
0001d0 e9 8c e6 bc e6 70 65 3c 0a ea d8 3d 26 60 f8 bb
       -0.028143363 0.014003968 0.105915144 -0.007579821
0001e0 86 0d 1f be d7 f6 27 39 d9 74 fb bd 71 52 8b bd
       -0.15532503 0.00016018316 -0.12278146 -0.06802834
0001f0 20 a3 8c 3e a2 be 0b bd 96 aa 81 3e e9 66 94 bb
       0.27468204 -0.03411735 0.2532546 -0.0045288694
000200 53 fc 16 bd 88 61 f7 bd 40 09 b0 bd 66 8b 04 3e
       -0.03686173 -0.120791495 -0.08595514 0.12943801
000210 85 e1 44 b9 dc fb e5 bc ef be 31 3e 15 ff 8b bc
       -0.00018776029 -0.028074197 0.17357992 -0.017089406
000220 cf 33 20 bd 4c 9a 4e 3d 17 98 19 3d 4d 6e 7f 3d
       -0.03911191 0.050440118 0.03749856 0.06236105
000230 4a fa 28 bd 04 bd 96 3d e9 04 aa bd ba b3 1c bd
       -0.04125432 0.073602706 -0.08301718 -0.038257338
000240 fe 4e f8 3c 78 63 85 bc 58 37 ce bd f4 90 4e bd
       0.030311104 -0.016282782 -0.1006915 -0.050431207
000250 4d cb c9 bd 7a 63 62 3c c3 1f 2f bd 2a a5 9e 3d
       -0.0985323 0.013817662 -0.0427549 0.07746346
000260 ea 23 6a 3d 05 89 52 bc 62 ae 1e be ea ac 21 3c
       0.057163157 -0.012850051 -0.1549621 0.009867886
000270 6f 1a bb bb 25 98 65 3d 95 bf 6c b9 fb c2 05 3e
       -0.0057099382 0.0560533 -0.00022578084 0.1306266
000280 dd b5 a3 bd 3c 51 43 3d 43 aa 08 be b3 7f 8f 3d
       -0.07993672 0.047684893 -0.133462 0.070067786
000290 2b b7 0d be e7 03 3a bd 58 a1 9b bd 46 c9 a6 3b
       -0.13839404 -0.045413878 -0.07599133 0.0050899116
0002a0 e4 72 9c bd 79 17 37 3e 3b 15 5e 3d c4 d5 a0 be
       -0.07639101 0.17880048 0.054219466 -0.3141309
0002b0 5b b5 80 3c 71 45 3f 3e e7 84 84 3c 79 2c a1 bc
       0.015711477 0.18678834 0.016176654 -0.019674527
0002c0 0a 15 25 bd f1 d5 ea bd da 22 6b be bc fa e8 3d
       -0.040303268 -0.11466587 -0.22962514 0.11375949
0002d0 c4 65 28 bd 7e 1a 16 3d 0c 4b 04 3d 55 a8 97 3d
       -0.041112676 0.03664636 0.032298133 0.07405154
0002e0 a6 c1 71 bd d8 5e 8f bd d1 f3 18 bd ab 05 41 be
       -0.05902257 -0.07000512 -0.037341896 -0.18849818
0002f0 92 e2 52 bd 70 2f 90 bf 58 c1 20 bc cf cf e3 bc
       -0.051485606 -1.1264477 -0.009811722 -0.027809052
000300 a4 b4 b6 bc 6f 0a 0f bd 8c 65 66 bc c0 ce be bd
       -0.022302933 -0.03492206 -0.014062297 -0.09316778
000310 a7 cd b6 bd 0d a5 0a 3e a7 ff 90 be d1 44 aa 3d
       -0.08925944 0.13539524 -0.28320047 0.08313907
000320 65 62 d3 3d 75 ee be bd dc cd 07 3e 5c 98 f9 bd
       0.10321502 -0.09322826 0.13262123 -0.12187263
000330 52 18 0f 3e 18 06 fa 3d 44 38 31 3d 57 41 c7 bd
       0.13974121 0.122081935 0.04326655 -0.097292595
000340 c6 98 12 be 7d 83 a3 3c 53 2b a1 bd d8 b1 39 3e
       -0.14316091 0.01996016 -0.078695916 0.18134248
000350 d0 f3 38 3d a2 e1 42 3e d7 9c 88 bd 2f 91 1a be
       0.045154393 0.19031385 -0.0667054 -0.15094446
000360 68 77 eb 3d 06 90 d4 bd 0e 47 46 bd 45 50 8e bc
       0.11497384 -0.10379033 -0.048407607 -0.01737226
000370 bb e0 26 bd e2 1a 83 3c 03 4e cc 3d 14 54 d0 3d
       -0.040741663 0.01600403 0.09975817 0.10172287
000380 43 35 7e 3e 24 ab c6 3d 36 7c 21 be 35 2f 21 3e
       0.24825005 0.09700611 -0.15770039 0.15740664
000390 41 b0 8f 3d 94 a3 34 bd de 25 7a be cb c3 87 bd
       0.0701604 -0.044101313 -0.24428508 -0.066291414
0003a0 b8 5d aa 39 87 52 2d bd 1e 67 0c bd fc 3d 28 3c
       0.00032494753 -0.042315032 -0.034278028 0.0102686845
0003b0 96 50 58 be ad 28 97 3b cd 53 bc bc 9f 03 d4 bd
       -0.21124491 0.004613003 -0.022989178 -0.10352253
0003c0 16 c9 0b be 8d 6a 67 3c 71 97 1c 3d e2 c1 17 3d
       -0.13650927 0.014124525 0.038230363 0.037050135
0003d0 2b ef 85 3d c4 b2 bb bc 21 32 2f 3e 2e 59 1b bc
       0.06539758 -0.02291239 0.17108966 -0.009481711
0003e0 ce 47 56 3c b5 73 07 3e 77 7d 63 3c 24 b8 d3 be
       0.013078643 0.13227732 0.013884894 -0.41351426
0003f0 8a 11 b4 3d d4 c7 99 bc b8 d8 43 3e 8f cb 7e bd
       0.08792408 -0.018772043 0.1912564 -0.062205847

net.4.bias f4 [256]
000000 1d 5c 54 be bc ee 46 be 49 9e ac bd 2d 2b 52 be
       -0.20738263 -0.19427007 -0.08428628 -0.20524283
000010 ac 61 65 be 53 b5 02 be 47 ac 09 bd 00 8a 07 be
       -0.2240054 -0.12764482 -0.033611562 -0.13236237
000020 15 db 0d be 2f ea a1 bc f1 2c 1c bd b8 17 b3 bd
       -0.13853104 -0.019764988 -0.038128797 -0.08744758
000030 91 12 62 3d 0c 01 18 3d 3b 25 20 be 8f 1c 5a ba
       0.055193488 0.037110373 -0.15639202 -0.00083202956
000040 f6 ac 35 be 0b da 84 bc 76 3c 87 3c d1 92 37 be
       -0.1774176 -0.016217252 0.016508322 -0.179271
000050 2c 67 0a be 6a 04 c7 bc e5 61 6f be b8 84 f8 bc
       -0.1351592 -0.024294097 -0.23377188 -0.030336723
000060 6d 62 2a be 66 ac a7 be 26 cd 0a be 63 75 e1 bd
       -0.16639109 -0.32748717 -0.1355482 -0.11008718
000070 c1 23 3e be 8f bb 4c 3d f8 b2 87 be 1e a7 34 3d
       -0.18568327 0.049983557 -0.2650373 0.044104688
000080 ab 0e 0e bb 69 b4 34 be 3a f3 31 bd c0 40 55 bd
       -0.0021676223 -0.17646946 -0.04344485 -0.052063704
000090 a3 84 0e be 60 f0 f3 3b 22 20 d5 3c 52 a7 5c bd
       -0.13917784 0.0074444264 0.026016299 -0.053870507
0000a0 1a 56 47 be 79 e2 40 be d2 dc 71 3c 43 4d c0 bc
       -0.19466439 -0.18836392 0.01476212 -0.023474341
0000b0 c3 87 98 bd 08 82 92 be 2c 69 61 bd 6b 88 0d bd
       -0.074477695 -0.2861483 -0.05503194 -0.034553926
0000c0 7b 93 5c be cb 57 be bd bc 52 57 be 7a 72 42 bc
       -0.21540634 -0.09294089 -0.21027654 -0.011868114
0000d0 ad 98 59 bd 6f 8a 87 3c b7 70 d7 bd e6 51 2d 3d
       -0.05312412 0.016545502 -0.105195455 0.042314433
0000e0 34 e5 92 bd b7 28 ea bd 99 6b 1c 3d f3 8a fb 3b
       -0.07172623 -0.11433547 0.03818855 0.007676476
0000f0 b9 2d 37 be 21 96 7c be 96 c4 1d be 5b f9 8e 3c
       -0.17888536 -0.24666645 -0.15407023 0.017452886
000100 44 21 36 3b 85 bd 84 bd 9b 4a 42 bd f2 86 3f 3d
       0.0027790824 -0.064814605 -0.04743443 0.046759553
000110 08 3a c3 bd f5 ab 7e 3c 1f c5 ea bd f5 2a 73 bd
       -0.09532553 0.015543927 -0.11463379 -0.05936714
000120 a1 bb 51 3d fd bc 34 be d8 05 4e 3b 60 e1 68 3d
       0.051204327 -0.17650218 0.0031436589 0.05685556
000130 91 34 5a be ec 64 9a bc fd 14 34 bd a6 71 39 bd
       -0.21309115 -0.018846951 -0.04396533 -0.0452744
000140 f7 ab 66 bd 62 eb 39 bc a5 23 c8 3c f3 97 43 be
       -0.056316342 -0.011347624 0.02443106 -0.19100933
000150 4c c4 77 be aa df 6b be 56 42 98 be 25 93 2a be
       -0.24195975 -0.2303454 -0.2973811 -0.16657694
000160 f1 92 44 bd cb 45 15 bd 6c 85 21 be 0c cb bd bc
       -0.047991697 -0.036443513 -0.15773553 -0.02316811
000170 d2 ef 88 bd 92 52 33 be 1a 6b 38 bd 75 1a 13 3d
       -0.06686367 -0.17511967 -0.045024015 0.035913903
000180 60 79 23 be 80 08 8e 3c 1c 70 da bc 41 06 94 bd
       -0.1596427 0.017338037 -0.026664786 -0.07227755
000190 43 6e 3e be af 49 34 be 2d 72 46 3d 0a 7e d2 bd
       -0.18596749 -0.17606233 0.04844873 -0.10277946
0001a0 97 a3 14 bd 91 fd 03 bc 88 c9 3b be 09 c2 3f be
       -0.036288824 -0.00805606 -0.18338597 -0.18726362
0001b0 7e f2 2e bc fb b3 12 3a 92 61 36 be 87 5a 83 bc
       -0.010677932 0.0005596277 -0.17810658 -0.016034378
0001c0 1f 42 58 bd e4 78 cf 3a f7 b1 43 be 7d 3b 62 bd
       -0.052797433 0.0015828875 -0.19110857 -0.055232514
0001d0 31 d0 ec bb 16 c7 19 bd 14 fe 16 3d 78 75 f0 bd
       -0.007226967 -0.03754338 0.0368634 -0.117411554
0001e0 2a 8a b9 bd 5d 33 07 be ce 12 62 3c ca bf ad 3c
       -0.09059556 -0.13203187 0.013798429 0.021209616
0001f0 c6 ad b2 bd 8a 72 c3 bd 9c 02 2e be b6 c3 b1 bc
       -0.08724551 -0.09543331 -0.16993183 -0.021699768
000200 72 e4 1a bd 81 df ab bd 57 c5 5e 3c f9 80 05 be
       -0.03781552 -0.08392239 0.013596854 -0.1303748
000210 df 2f aa bd e8 c4 02 bd 1c be 1d be 19 57 18 be
       -0.08309912 -0.031926066 -0.15404552 -0.14876975
000220 72 01 24 bc aa 52 82 be 0c 32 81 bc 6d 64 f0 bc
       -0.01001011 -0.25453693 -0.015770935 -0.029344762
000230 42 ef 0b 3d 76 48 f1 3c 48 8d 32 bc 9d 4f d1 3b
       0.03416372 0.029453497 -0.010897942 0.0063876645
000240 e8 2a 58 bd 9d 82 ad bc 0d 55 aa bd 45 1a ad bd
       -0.052775294 -0.021180445 -0.083170034 -0.08452276
000250 a7 8b 21 bd 07 be 44 bc 31 98 7d be bd 53 b4 bd
       -0.039439823 -0.012008197 -0.24765088 -0.08805034
000260 b9 94 87 bd 21 2a 41 be f9 5c 61 be 4a 07 23 bd
       -0.066201635 -0.18863727 -0.22008123 -0.039801873
000270 cf 6a 24 bd 1e 86 84 3b f4 8d 08 be 3f 4c 3b be
       -0.040140923 0.0040443083 -0.13335401 -0.18290804
000280 88 64 85 3d ba d2 c6 bd 6c 19 52 be c7 64 42 bc
       0.065133154 -0.09708162 -0.2051751 -0.0118648475
000290 77 e8 c1 bc bb e4 9a bd 13 47 21 3d b1 72 c1 bd
       -0.023670418 -0.07563158 0.039374422 -0.09445704
0002a0 c0 b9 57 bd 9b 0a ad bd 65 0e 13 be 20 73 18 be
       -0.05266738 -0.084492885 -0.1436096 -0.14887667
0002b0 f5 48 28 be 7b 33 bd 3a 79 90 55 be 1d be eb bd
       -0.16434081 0.0014434898 -0.20855893 -0.115108706
0002c0 b7 40 9f bd 7a 74 63 be 03 13 51 bb 90 1c 49 3d
       -0.07776015 -0.22212401 -0.00319022 0.049099505
0002d0 1d c2 c6 bd 51 35 35 bd ae 94 6b b9 da 04 2a bd
       -0.09704993 -0.0442403 -0.00022466734 -0.041508533
0002e0 22 32 ee bc 38 5b 4d be 05 f4 31 bd bd cb 21 be
       -0.02907664 -0.20054328 -0.043445606 -0.15800376
0002f0 7b 33 54 be 0a 09 fb bd 87 66 1b be ad 23 50 bd
       -0.20722763 -0.122575834 -0.1517583 -0.050815273
000300 a9 1d 8d bd 70 d5 3d be ca b6 86 be 2a 3c db 3c
       -0.06890423 -0.18538451 -0.26311332 0.026762087
000310 a4 38 b5 bd a1 51 79 be 13 e8 b3 bb c0 86 da 3a
       -0.08848694 -0.24347545 -0.005490312 0.0016672239
000320 7c 02 99 3c 83 0e 6f be e1 51 52 be 65 b2 f3 3b
       0.018677942 -0.2334538 -0.20539047 0.007437038
000330 00 63 2d be b9 22 ee bd 4c 6f 29 be fe 7f 50 bd
       -0.16932297 -0.116277166 -0.16546363 -0.050903313
000340 e7 64 90 bd 22 d6 7b bd 8e 39 51 3c b1 68 1f bc
       -0.070504956 -0.06148351 0.01277007 -0.00972955
000350 63 c8 32 bd 34 cc 12 be 5e 27 d3 bd 8f 7a 82 bd
       -0.043648135 -0.1433571 -0.10310243 -0.063710324
000360 e4 bc 08 be 39 42 15 bc 6b 53 c0 bc be 18 60 be
       -0.13353306 -0.009110027 -0.023477277 -0.21884438
000370 30 0c 9e bd d2 6f d9 bc 56 6d a3 3c 67 7c 43 bd
       -0.07717168 -0.026542578 0.019949596 -0.04772606
000380 8e 5e 97 bd 4d 2a b0 bd 8c 1e 80 3c 9f 92 9f bd
       -0.07391082 -0.08601818 0.015639566 -0.07791638
000390 90 9a 6c bd 27 54 3f be 8c 58 46 3c 9a 4f 7c be
       -0.05776459 -0.18684445 0.012106072 -0.2463974
0003a0 b4 40 8e bd ae 9a af bd 8c 01 86 bd f1 c0 22 3c
       -0.06945935 -0.08574425 -0.06543264 0.009933696
0003b0 ae d1 3f be 6d fc 81 be 2d 9d 89 be 12 4f 95 bc
       -0.1873233 -0.25387898 -0.26877728 -0.01822618
0003c0 f1 46 6b bc 95 5a 2f bb 60 83 3a 3d f0 a7 9d 3b
       -0.0143601755 -0.0026756872 0.045535445 0.0048112795
0003d0 7f 6a 37 3d 32 d5 cb bd 7b 05 6f be b4 35 3c be
       0.044779297 -0.09952773 -0.23341934 -0.18379861
0003e0 ce 81 3e be 13 cf ff bd fa 10 75 be 44 c1 72 be
       -0.18604204 -0.12490668 -0.23932257 -0.23706537
0003f0 fa 5d 56 bd 7a 49 2f bd f1 29 50 be 0a 92 9c bd
       -0.052335717 -0.042794682 -0.203285 -0.07645042

net.6.weight f4 [2, 256]
000000 7b 54 0e be ac 9c 6b 3d 5f 9c 86 39 02 18 d4 3d
       -0.13899414 0.05752246 0.00025674977 0.103561416
000010 ad 1d 6c bc 6d 16 1d be f8 bc 49 39 27 9d 77 3c
       -0.014411372 -0.15340586 0.0001923925 0.015113152
000020 fb 71 c4 bd d9 d6 82 38 4b 9d 21 39 ad 24 9d 3c
       -0.095920525 6.2389016e-05 0.00015412753 0.019182527
000030 bc d4 8c bd 81 69 9b 39 c4 4e 60 3c 38 23 0b ba
       -0.06876513 0.0002964251 0.013690654 -0.0005307677
000040 d5 06 b6 bd 30 47 2d b8 6e 7b c0 39 cb 64 96 b7
       -0.08888022 -4.1312713e-05 0.00036713056 -1.7928329e-05
000050 c9 c8 4c 3a 48 4c 62 39 bf ad cf bd 99 34 8e 3c
       0.0007811902 0.00021581457 -0.10140561 0.017359065
000060 df 29 51 3c af 15 bc bc aa c2 11 bc 60 2e 7c 3b
       0.0127663305 -0.022959558 -0.008896509 0.003847979
000070 e9 87 8c 3d a9 55 0c 39 7f 56 91 3c 77 a9 d9 b5
       0.0686186 0.00013383351 0.01774144 -1.6217081e-06
000080 48 fd ee b7 c6 62 46 39 68 f4 26 b9 a7 0d 9e 39
       -2.8489754e-05 0.00018919547 -0.00015922042 0.0003014628
000090 25 d2 40 bb 54 f4 8c bb ed 73 a9 b9 83 0f 0e bb
       -0.002942213 -0.004301587 -0.00032320563 -0.0021676726
0000a0 62 37 78 3a 4f b4 09 3e 1d 3a 5d b9 89 06 73 b8
       0.0009468702 0.13447689 -0.00021097851 -5.79418e-05
0000b0 c6 fd fd b8 b1 ab c5 3c 50 18 26 3a db ce 4b 3a
       -0.00012111249 0.02412972 0.00063360203 0.00077746593
0000c0 de 3d 8c 3c 8b 9b a1 3d fc 2f 90 3a 61 33 39 39
       0.017119344 0.078909956 0.0011000629 0.00017662115
0000d0 32 23 bc b9 c4 01 a7 39 bc 28 fa 3a 4c 4c 8e 36
       -0.00035884377 0.00031854038 0.0019085626 4.240812e-06
0000e0 00 33 13 b7 bb 1a 8f bb 88 8c 76 b9 4b 4e 86 39
       -8.773757e-06 -0.0043672 -0.0002351274 0.00025616804
0000f0 07 01 0a 3e 71 0b 8a 3d b9 31 60 3d 23 99 53 38
       0.13476954 0.067404635 0.05473492 5.044894e-05
000100 67 95 01 3a 49 45 8c bd d2 03 fc 3a f5 14 77 b9
       0.0004943222 -0.068491526 0.0019227213 -0.00023563563
000110 ac d7 41 bd 1e a0 11 39 aa 49 6d 39 a2 7b 52 b9
       -0.04732482 0.00013887926 0.00022629523 -0.00020073217
000120 f9 e5 74 ba 2c b9 3d 3d 79 b6 3b b8 49 75 38 b9
       -0.000934213 0.04631917 -4.4754215e-05 -0.000175913
000130 c7 0d 80 bd 2d 17 b2 38 80 9a 72 39 24 7d 42 39
       -0.06252628 8.492018e-05 0.00023136474 0.000185479
000140 fe e0 ec bb cb bc c9 b8 35 b4 6c 3a 5d b8 dc 3c
       -0.0072289696 -9.619592e-05 0.00090295385 0.02694338
000150 63 5b 97 bd c8 24 14 bb 0b 64 09 3e b1 99 82 3b
       -0.073904775 -0.002260493 0.1341707 0.0039856066
000160 c8 60 bb 36 c7 c5 07 38 17 65 b9 3c 99 18 64 39
       5.584301e-06 3.2370703e-05 0.022631211 0.00021752938
000170 41 8f 24 b8 3b ab b6 3d 43 cb 09 39 19 4d 01 3a
       -3.9234063e-05 0.08919378 0.00013141059 0.0004932448
000180 b5 05 2a 3d 3d b9 8f b9 3f 06 2e 39 6f b6 4a 39
       0.04150935 -0.000274131 0.0001659626 0.00019332183
000190 f1 e0 c9 bc 14 e6 08 3c 9a 43 2e b9 bd 6b 47 ba
       -0.024643393 0.008355636 -0.00016619117 -0.0007607302
0001a0 99 a4 1a 3e 5d 94 7b 38 8e 42 33 3c 8d 51 02 3d
       0.15101852 5.9981237e-05 0.010941161 0.031816054
0001b0 48 b1 80 b8 49 a8 2a 38 93 0d a9 bd 6c 74 8b bb
       -6.136537e-05 4.0687886e-05 -0.08254542 -0.004255822
0001c0 f8 93 c0 39 ce e9 f5 39 26 44 3d 3d 31 52 0b ba
       0.0003673134 0.0004690424 0.04620757 -0.00053146767
0001d0 d3 d6 12 39 b8 3e 68 3b 8a 8d 16 bb ba ac b3 3d
       0.00014003673 0.0035437774 -0.0022972547 0.08773179
0001e0 ac e7 64 3c af 0c 36 39 22 e1 1f bb 35 58 d2 3d
       0.0139712505 0.00017361598 -0.0024395664 0.102707304
0001f0 8c 1d f2 39 3d 1b 96 39 a5 23 0c 3c 07 55 21 38
       0.0004617985 0.00028630524 0.00855342 3.846458e-05
000200 41 c8 2b ba c1 18 ba 38 03 4b 21 3d ad 97 99 bb
       -0.00065529725 8.873782e-05 0.039378177 -0.0046872706
000210 1b 55 bd 38 1e 3f 12 39 7f 75 6c 3c 21 6e 60 38
       9.0280744e-05 0.00013947158 0.01443231 5.3508327e-05
000220 52 e9 0c 38 a1 3d 0c 3c 1b 37 91 b9 7f ee f1 ba
       3.3595898e-05 0.008559615 -0.00027697612 -0.0018457918
000230 ef 67 ff b9 f8 4a 31 b9 e9 56 63 b9 5d 08 a2 b9
       -0.00048714827 -0.00016907963 -0.00021680784 -0.0003090528
000240 38 e3 4d b9 d1 17 02 b9 21 00 1c b9 ae 0c d8 3b
       -0.00019634969 -0.00012406638 -0.00014877367 0.0065933084
000250 43 c3 89 3b fd 75 3e 39 66 c1 9a bd 7f 4d 51 3d
       0.004204185 0.00018163766 -0.07556419 0.051099297
000260 f8 8d 3f 3b 95 39 9c bc a0 89 6a bc 40 d4 63 39
       0.0029228907 -0.019070426 -0.014315039 0.00021727476
000270 da a0 86 39 9d ae 9f 38 03 9b 95 bd 4d 08 e3 ba
       0.00025678315 7.614235e-05 -0.07304957 -0.0017321199
000280 91 cf 28 b9 c7 40 5b bd 62 ca 0d ba 86 87 30 ba
       -0.00016099053 -0.053528573 -0.00054088805 -0.0006734062
000290 70 f2 8f 39 64 2e 08 3a bc da 66 39 72 ba f3 39
       0.00027455715 0.0005194901 0.00022015994 0.00046487484
0002a0 dc 7a 5f 39 dd 28 5e bd 6f 4c de 3c 85 db 47 3c
       0.00021312706 -0.05423819 0.027136056 0.012198334
0002b0 06 98 c9 3d 6c 3c 16 3b ba 9a 22 bb 88 0e e2 3d
       0.09843449 0.0022924198 -0.0024811462 0.11037928
0002c0 36 49 2a ba bc 67 dc 3d f8 18 49 b9 8f b5 86 b9
       -0.00064958946 0.10761973 -0.00019178155 -0.00025693743
0002d0 cd 2c 48 b8 a6 92 fc 3b e4 6a 9f 39 6f ea 89 b9
       -4.772544e-05 0.0077079115 0.00030406483 -0.00026305343
0002e0 e8 72 f5 bb 43 02 8f bd 5f bf af b8 98 4f d4 bd
       -0.0074905045 -0.06982853 -8.380296e-05 -0.10366744
0002f0 99 29 13 3b c8 f4 5c 3d 36 de a3 be 11 ab 1c b8
       0.0022455214 0.05394438 -0.3200547 -3.7352616e-05
000300 5e 60 0d 37 b7 03 f5 bb f8 24 f7 bc bc b6 81 b8
       8.426692e-06 -0.0074772495 -0.030168995 -6.185236e-05
000310 c6 cd 84 38 c5 0d 1c bc 2a b9 c9 bb ab 60 d5 b7
       6.332579e-05 -0.009524767 -0.0061561065 -2.5436593e-05
000320 88 98 b2 b8 53 c0 16 be 43 15 d8 3d 51 d5 3c 39
       -8.5161126e-05 -0.14721803 0.1055093 0.00018008544
000330 98 56 93 bd d5 46 19 3c c3 8c 3f 3d 7b 40 de b8
       -0.07194251 0.009355267 0.0467651 -0.00010597795
000340 b7 41 e4 38 de c8 c4 3a a7 c2 f9 b8 4e cf 47 39
       0.000108841276 0.0015013476 -0.00011909502 0.00019055346
000350 bc 3a f0 39 d6 d2 c0 3c 62 71 29 39 50 06 c0 b8
       0.00045820128 0.023538034 0.00016159334 -9.156449e-05
000360 ae 5c d1 39 de 9b a7 39 9e 68 dc 38 04 89 a6 3d
       0.00039932638 0.00031968852 0.00010509904 0.081316024
000370 66 9d d1 38 16 02 f1 39 ee 6c 3f ba 30 2e 57 38
       9.995214e-05 0.00045968656 -0.00073023036 5.130301e-05
000380 02 a7 6a bb 6f ef f6 b8 95 ed c4 b7 e2 15 01 b8
       -0.003580511 -0.00011774792 -2.3475654e-05 -3.0776377e-05
000390 6e af 86 36 64 9a e1 3d b1 52 61 38 24 fe 17 bd
       4.013934e-06 0.11015776 5.3721193e-05 -0.0371076
0003a0 5a 11 29 39 c8 b3 ab 39 74 0f 3e 3a d0 a3 88 b8
       0.0001612356 0.0003274961 0.00072502275 -6.515498e-05
0003b0 d3 80 22 ba 86 ba 28 3c ba 89 3c 3e d8 24 03 39
       -0.0006199006 0.010298377 0.18411914 0.00012506859
0003c0 fe ea 91 3b 2e 1a 4c ba db bd 72 39 fc c2 0d 3a
       0.004453062 -0.00077858835 0.00023149645 0.0005407778
0003d0 d7 43 bf 3d 1f 18 00 3c ea ed b5 bd 2c 87 b8 39
       0.09339111 0.007818251 -0.08883269 0.00035195926
0003e0 50 e4 40 3c e3 37 2d 3d fa 56 ae bc 5e d1 6e bc
       0.011773184 0.042289626 -0.021281708 -0.014576284
0003f0 03 20 39 ba ef 76 07 3a 5d ab ca 3c 54 37 c8 b9
       -0.000706196 0.0005167564 0.024739916 -0.00038188195

net.6.bias f4 [2]
000000 0c 14 91 bd ac db d7 3c
       -0.07083902 0.026349865
