moons/node/models/13000_model.pt (torch, 535856 bytes, 8 tensors)

net.0.weight f4 [256, 3]
-0.1554294 0.234434 -0.21960366 -0.5669236 0.18271905 -0.35197657 0.52107304 0.21736854
0.36703146 0.29810947 0.28694662 0.21578403 -0.28051394 -0.5004843 0.47002164 0.48289236
-0.08894726 0.34457088 0.41453293 -0.15412693 0.22448757 -0.19190712 0.19474019 -0.005034762
-0.21430367 0.31850186 0.28362808 0.0017012208 -0.100438945 -0.37933883 0.082621045 -0.5710409
0.1648133 -0.055898957 -0.3405363 -0.41746372 0.2270173 -0.49955922 -0.3686904 -0.016744794
0.12194604 -0.44297418 -0.36424103 -0.1467143 -0.44074628 -0.2262164 -0.0090264585 0.192943
-0.052357513 0.48323196 0.09080045 -0.57311845 0.43198642 -0.2535317 0.16820094 0.07503396
-0.16444914 -0.50950843 -0.3992616 0.17370312 -0.09624315 0.24602418 0.07121418 -0.3754528
-0.064499274 0.5242485 0.007967282 -0.20123485 0.55521834 0.16974883 0.23339479 -0.21136916
-0.49449715 0.4315367 0.4077564 0.05336131 0.54974693 0.57073575 -0.5342318 0.1854583
0.21178176 -0.040531214 0.219229 -0.37751824 -0.5247212 -0.3981934 0.054367863 -0.2284716
0.08461374 0.27365586 -0.21170919 -0.23688772 -0.12306968 0.41419062 -0.51533234 -0.2105446
-0.5310877 0.028814131 -0.45834577 0.21430969 0.08590617 -0.23955476 -0.46746582 -0.38009286
-0.0017392436 0.17846172 0.04218456 0.043215696 -0.11551525 0.07606312 -0.007957557 0.5256163
0.57233584 -0.5508148 0.43609634 0.44022074 0.49032333 -0.09648466 -0.30439973 0.25356787
-0.1686173 0.47728994 -0.48376682 0.1440517 -0.11273737 0.2466922 -0.46234384 -0.21622865
0.10057853 0.30877942 -0.4553413 0.47001073 0.12586829 -0.3949398 -0.057710703 -0.44798145
0.30515483 0.24038847 -0.10197424 0.32720786 0.06601872 -0.09939263 -0.5697024 -0.20890537
-0.46871313 0.4353207 0.463287 -0.31601351 -0.23933858 -0.1946675 -0.5613749 -0.11174342
-0.066406496 -0.4763872 0.5590457 -0.47112226 -0.102029815 0.19671077 0.4758727 -0.42280796
-0.13849483 -0.15494339 -0.22249374 0.086304605 -0.47326186 -0.17845973 0.4400374 0.3285893
0.511426 -0.11555291 -0.03408745 0.2133301 0.22398591 -0.062941454 0.12785845 0.0168267
-0.012329062 -0.28161144 0.34270537 -0.50664186 -0.2641134 0.037429016 0.37629023 0.33611497
0.20339869 -0.38793012 0.2978936 0.34702536 0.39976415 0.45315272 -0.33871448 0.44658798
0.3304289 0.4698439 0.30411893 0.44189703 0.38841194 0.4608717 -0.20917583 0.460126
-0.33331478 -0.50096554 0.47415152 0.25645423 0.3213711 -0.37467894 0.37052643 -0.5421076
-0.25268736 -0.0856029 -0.23931813 0.33051258 0.52380556 0.27724528 -0.16621402 -0.02912429
-0.2315953 -0.18202561 -0.19923499 0.4637038 -0.16233253 0.14379986 0.02334219 -0.19263516
-0.29448664 -0.3979956 0.24414656 0.30298215 -0.43675387 0.19999726 -0.43757465 -0.28234926
-0.15707837 0.1592051 0.5046982 0.41457522 -0.16513042 0.23544487 0.29384944 0.49937892
0.27884796 -0.35443324 0.38702565 0.5679572 -0.19581497 0.27559307 0.13718551 -0.40931535
0.53048503 -0.12214281 0.45880854 0.31914887 0.036994703 0.45980793 0.491365 0.29699412
00000000: e228 1fbe 770f 703e c8df 60be e821 11bf
00000010: b41a 3b3e 4636 b4be 0b65 053f dc95 5e3e
00000020: 8ceb bb3e cea1 983e abea 923e 7df6 5c3e
00000030: 869f 8fbe bd1f 00bf ada6 f03e ab3d f73e
00000040: fb29 b6bd 986b b03e a93d d43e 73d3 1dbe
00000050: 12e0 653e 4d83 44be f969 473e a5fa a4bb
00000060: 6c72 5bbe ad12 a33e b337 913e 7ffb de3a
00000070: efb2 cdbd b338 c2be 3935 a93d bd2f 12bf
00000080: d1c4 283e 4ef6 64bd c65a aebe cebd d5be
00000090: 3977 683e 3ac6 ffbe fdc4 bcbe 612c 89bc
000000a0: d8be f93d 83cd e2be cd7d babe 463c 16be
000000b0: 7fa9 e1be 46a5 67be b6e3 13bc da92 453e
000000c0: d574 56bd 2e6a f73e 96f5 b93d e4b7 12bf
000000d0: 532d dd3e e8ce 81be de3c 2c3e 68ab 993d
000000e0: 5b65 28be 256f 02bf 046c ccbe 3bdf 313e
000000f0: 211b c5bd c3ed 7b3e bdd8 913d 593b c0be
00000100: 3218 84bd 2635 063f 3489 023c 8210 4ebe
00000110: ca22 0e3f a3d2 2d3e 0bff 6e3e 2871 58be
00000120: bb2e fdbe 61f2 dc3e 72c5 d03e 6491 5a3d
00000130: 37bc 0c3f bd1b 123f 6ac3 08bf c8e8 3d3e
00000140: 51dd 583e 0f04 26bd 917d 603e 124a c1be
00000150: 2154 06bf 01e0 cbbe d6b0 5e3d 76f4 69be
00000160: f849 ad3d 9f1c 8c3e 4bca 58be b292 72be
00000170: f50b fcbd cb10 d43e d2ec 03bf 0199 57be
00000180: 5df5 07bf 9d0b ec3c 4cac eabe 0074 5b3e
00000190: 93ef af3d d84d 75be ae57 efbe 889b c2be
000001a0: 55f7 e3ba abbe 363e b8c9 2c3d f102 313d
000001b0: 4293 ecbd fbc6 9b3d 6a60 02bc ca8e 063f
000001c0: 9a84 123f 3302 0dbf 0548 df3e 9d64 e13e
000001d0: a90b fb3e c099 c5bd 48da 9bbe a6d3 813e
000001e0: 03aa 2cbe 595f f43e 49b0 f7be 4a82 133e
000001f0: dae2 e6bd e19c 7c3e 55b8 ecbe 0b6b 5dbe
00000200: 1efc cd3d 5618 9e3e 7f22 e9be 3fa5 f03e
00000210: 9ee3 003e 8d35 cabe 0f62 6cbd d35d e5be
00000220: 413d 9c3e 6528 763e dfd7 d0bd ca87 a73e
00000230: d334 873d 5d8e cbbd 04d8 11bf 4aeb 55be
00000240: 2bfb efbe 5be2 de3e f433 ed3e 86cc a1be
00000250: 2c15 75be eb56 47be 44b6 0fbf bcd9 e4bd
00000260: 2100 88bd 06e9 f3be 9e1d 0f3f f036 f1be
00000270: 02f5 d0bd 8c6e 493e 96a5 f33e 497a d8be
00000280: 97d1 0dbe 7ba9 1ebe 66d5 63be 78c0 b03d
00000290: 614f f2be 26be 36be 954c e13e db3c a83e
000002a0: d0ec 023f 01a7 ecbd 489f 0bbd 3573 5a3e
000002b0: 905c 653e 73e7 80bd 53ed 023e 26d8 893c
000002c0: d6ff 49bc 602f 90be 1477 af3e 48b3 01bf
000002d0: df39 87be 2b4f 193d 1da9 c03e 4317 ac3e
000002e0: bf47 503e c79e c6be 8385 983e 4fad b13e
000002f0: e3ad cc3e a203 e83e fc6b adbe 2ea7 e43e
00000300: fa2d a93e 618f f03e 7ab5 9b3e 5440 e23e
00000310: eedd c63e 60f7 eb3e 3032 56be a395 eb3e
00000320: 3ca8 aabe 473f 00bf fdc3 f23e f84d 833e
00000330: c18a a43e ebd5 bfbe a4b5 bd3e 90c7 0abf
00000340: 3d60 81be 9350 afbd d00f 75be f238 a93e
00000350: 1f18 063f 18f3 8d3e 0234 2abe 1096 eebc
00000360: 5127 6dbe ec64 3abe 4204 4cbe 966a ed3e
00000370: 803a 26be 4540 133e 1f38 bf3c 2742 45be
00000380: f4c6 96be 14c6 cbbe 8e01 7a3e 7a20 9b3e
00000390: 349e dfbe 15cc 4c3e c909 e0be 1590 90be
000003a0: 27d9 20be a906 233e e733 013f 3443 d43e
000003b0: f317 29be 7618 713e 6f73 963e 98ae ff3e
000003c0: 29c5 8e3e 4678 b5be 3a28 c63e a565 113f
000003d0: b883 48be 891a 8d3e 5c7a 0c3e c891 d1be
000003e0: decd 073f 0226 fabd f4e8 ea3e 7b67 a33e
000003f0: c287 173d f26b eb3e 3194 fb3e 9d0f 983e

net.0.bias f4 [256]
-0.30975813 0.23943934 0.24356695 -0.41156957 0.35726103 -0.040826492 0.36661106 -0.5629495
-0.5113173 0.2361565 0.5021045 0.19640017 0.5365443 -0.5409452 0.40147704 0.12041539
0.18955442 0.24502623 0.20267378 0.5446655 0.5462486 0.2449845 0.55794543 -0.32101294
0.41277897 0.5747256 0.3224019 0.5205252 0.366753 0.40893313 -0.34811625 -0.5596539
0.35147595 -0.0547278 0.36022842 -0.13904734 0.3583544 -0.5249851 -0.2116797 -0.002281012
-0.43093398 0.29822752 0.047037095 -0.38777983 -0.51154804 0.06706197 0.3840298 0.55084336
-0.41585827 -0.002212196 0.11830478 0.05782339 -0.42293316 -0.02249898 -0.104458295 0.034449924
0.1698375 -0.08977465 0.018520817 -0.51588476 0.3442653 0.24736954 0.107609585 -0.042322915
-0.025362005 0.26666257 0.28165707 -0.40036702 -0.46845275 0.42959836 0.06969271 0.22020446
-0.21985851 -0.10470698 0.12316762 0.024614599 0.231164 -0.20048268 -0.10876751 0.30728632
0.18514505 -0.089445226 0.4265694 -0.20270978 -0.55256903 0.31046468 0.43645453 -0.28286257
-0.39715037 0.5624875 -0.03807908 0.56884015 -0.50322664 0.32640147 0.50513446 0.3835144
-0.5453267 0.24367698 0.19473268 0.07200192 0.012078804 -0.30416265 0.40036538 -0.21702084
0.5333585 0.1390397 0.13975218 -0.43037182 -0.14834787 -0.066135585 0.30324855 0.028533684
0.10209284 0.19629155 -0.26964557 0.33197826 0.058279265 -0.11620846 0.028589433 0.06797329
-0.2763152 0.40119237 0.3619397 -0.49722978 0.13163325 0.11376667 -0.50646263 0.5173683
0.534083 -0.40309387 0.008160463 0.18838726 0.2832564 -0.33312145 0.040439833 0.3247462
0.3181065 -0.43786687 -0.3321236 0.16616045 0.16448773 -0.105263114 0.14012577 -0.4247702
0.3680907 0.4290674 -0.44908747 -0.16179156 0.3272111 -0.34441704 -0.025197333 0.06270035
-0.56848717 -0.14355482 -0.35221922 -0.1601164 0.46456978 0.39452407 0.00471672 -0.4703145
0.2763077 -0.37468442 0.43219414 -0.4912318 0.17254177 0.053189304 0.16050717 -0.4288663
0.29194227 -0.19823034 -0.5238786 0.19149163 -0.38817993 -0.2989073 0.4308299 0.012249471
0.06971501 0.14551832 -0.033875085 -0.5468489 0.46264887 -0.35987929 0.55743206 -0.14051202
0.07272754 0.30020586 -0.2034327 -0.17728315 -0.045881193 0.1224164 -0.49924767 -0.34979865
0.0609688 -0.050018433 0.10824233 0.4730018 -0.2818522 0.4021585 0.10852729 0.41892675
-0.38910404 0.062699854 0.042796724 -0.46526176 0.5177737 -0.4037085 0.54198104 0.08848233
0.42699277 -0.38797188 -0.2576678 0.10318068 0.37976852 0.3189349 -0.4066332 0.032306727
-0.04131078 0.27020314 -0.52688575 -0.3171952 -0.2902864 -0.36622286 0.09765062 -0.30542392
-0.038471155 0.44895157 -0.20359112 -0.43280408 -0.13154846 0.5614622 0.29614413 -0.089133434
0.57365865 0.17358004 0.49614632 -0.4347849 0.114808 -0.46585667 -0.047962733 -0.39506468
-0.15034615 0.3052874 0.11901949 -0.46469823 -0.0030675319 0.4042629 0.34536403 -0.15502217
-0.18118583 -0.3107219 0.19217639 0.27139783 0.09572938 -0.5436351 -0.2271905 -0.5676541
00000000: 9e98 9ebe 962f 753e 9d69 793e 3fb9 d2be
00000010: ebea b63e ae39 27bd 72b4 bb3e 751d 10bf
00000020: b1e5 02bf 02d3 713e ec89 003f 201d 493e
00000030: f85a 093f 627b 0abf 668e cd3e 589c f63d
00000040: 8e1a 423e 28e8 7a3e b789 4f3e 336f 0b3f
00000050: f3d6 0b3f 37dd 7a3e 83d5 0e3f cf5b a4be
00000060: c457 d33e 3821 133f dd11 a53e 2441 053f
00000070: 0dc7 bb3e af5f d13e 4b3c b2be 7a45 0fbf
00000080: a8f4 b33e 422a 60bd dc6f b83e 6d62 0ebe
00000090: 3a7a b73e 6c65 06bf 90c2 58be 087d 15bb
000000a0: 61a3 dcbe 47b1 983e f8a9 403d 148b c6be
000000b0: d0f4 02bf c957 893d 8e9f c43e 1204 0d3f
000000c0: 60eb d4be 7dfa 10bb c749 f23d 38d8 6c3d
000000d0: b28a d8be c84f b8bc 3bee d5bd 5d1b 0d3d
000000e0: e2e9 2d3e c6db b7bd f8b8 973c 0611 04bf
000000f0: 8b43 b03e 714e 7d3e 6a62 dc3d cb5a 2dbd
00000100: fbc3 cfbc ff87 883e 5b35 903e e8fc ccbe
00000110: 0ad9 efbe 51f4 db3e 0dbb 8e3d 477d 613e
00000120: 9722 61be 9d70 d6bd 4e3f fc3d 8ea4 c93c
00000130: 41b6 6c3e 554b 4dbe 80c1 debd a254 9d3e
00000140: aa96 3d3e 0f2f b7bd 4e67 da3e 2793 4fbe
00000150: 2a75 0dbf 3af5 9e3e f876 df3e 5dd3 90be
00000160: 4b57 cbbe 2eff 0f3f cff8 1bbd 829f 113f
00000170: 76d3 00bf 181e a73e 7e50 013f 005c c43e
00000180: 889a 0bbf 7586 793e 0168 473e be75 933d
00000190: 2de6 453c 35bb 9bbe b1fc cc3e b63a 5ebe
000001a0: 2f8a 083f 6c60 0e3e 321b 0f3e b259 dcbe
000001b0: 81e8 17be 1872 87bd 6543 9b3e 79bf e93c
000001c0: 0d16 d13d a700 493e fc0e 8abe 0ef9 a93e
000001d0: 3db6 6e3d b3fe edbd 6334 ea3c 9535 8b3d
000001e0: 3079 8dbe 1669 cd3e 2950 b93e e794 febe
000001f0: deca 063e 80fe e83d 89a7 01bf 4072 043f
00000200: aab9 083f 5262 cebe 76b3 053c 97e8 403e
00000210: fc06 913e e58e aabe 3da4 253d 2245 a63e
00000220: dbde a23e 1630 e0be 1b0c aabe f725 2a3e
00000230: 796f 283e 3094 d7bd 217d 0f3e 7b7b d9be
00000240: 6276 bc3e b9ae db3e cbee e5be b0ac 25be
00000250: 3788 a73e 6e57 b0be a36a cebc 0b69 803d
00000260: 6088 11bf 0900 13be 1456 b4be 8ef5 23be
00000270: 17dc ed3e 0fff c93e b78e 9a3b 10cd f0be
00000280: 3478 8d3e a3d6 bfbe 8d48 dd3e bc82 fbbe
00000290: caae 303e 07dd 593d fe5b 243e 5d94 dbbe
000002a0: 7579 953e e5fc 4abe e81c 06bf 6216 443e
000002b0: 85bf c6be 610a 99be bd95 dc3e 01b2 483c
000002c0: bec6 8e3d c102 153e 9ac0 0abd 4afe 0bbf
000002d0: 50e0 ec3e 1942 b8be deb3 0e3f 62e2 0fbe
000002e0: 2df2 943d 95b4 993e a950 50be b789 35be
000002f0: ebed 3bbd 73b5 fa3d 649d ffbe cf18 b3be
00000300: 6cba 793d 21e0 4cbd 28ae dd3d 4b2d f23e
00000310: ee4e 90be b8e7 cd3e 8e43 de3d 917d d63e
00000320: a538 c7be c868 803d 9e4b 2f3d ca36 eebe
00000330: d18c 043f e1b2 cebe 45bf 0a3f 3936 b53d
00000340: cc9e da3e 40a4 c6be 09ed 83be 6450 d33d
00000350: 0571 c23e 6f4b a33e 3a32 d0be 0f54 043d
00000360: 7e35 29bd 1158 8a3e fce1 06bf 6967 a2be
00000370: 6ba0 94be 9081 bbbe 0cfd c73d 8660 9cbe
00000380: ee93 1dbd fbdc e53e 317a 50be 7f98 ddbe
00000390: a4b4 06be fdbb 0f3f 34a0 973e 978b b6bd
000003a0: 4bdb 123f f7be 313e e406 fe3e 209c debe
000003b0: 7520 eb3d c484 eebe 9274 44bd eb45 cabe
000003c0: 57f4 19be a14e 9c3e 7ec0 f33d edec edbe
000003d0: a508 49bb 8cfb ce3e 8ed3 b03e 22be 1ebe
000003e0: c788 39be f116 9fbe e3c9 443e a8f4 8a3e
000003f0: c40d c43d ab2b 0bbf a0a4 68be c751 11bf

net.2.weight f4 [256, 256]
-0.049030725 0.05018858 0.010664573 0.054801203 -0.043815926 0.014053542 0.016255233 -0.017472867
0.039849527 -0.048182044 -0.04640388 0.007421039 -0.031797707 -0.023539213 0.0062794825 -0.034103714
-0.013080266 -0.044902213 0.015150281 -0.013811197 -0.007622782 -0.04969221 0.03882488 -0.06017285
-0.001357024 -0.028142069 0.0041207 0.022513356 -0.018438745 -0.032163255 -0.04463972 -0.035299007
0.0091639785 -0.0046340786 0.048608746 -0.022083651 -0.0067800456 0.022360016 0.026935842 -0.032366056
0.039790876 0.0024680996 0.05486922 0.0025900062 0.018532226 -0.051936302 0.016147124 -0.036456056
0.03823245 0.061598193 0.03574705 0.00094249233 0.017625187 0.013697484 0.0025594006 0.0073452774
0.036058385 -0.045170337 0.025365414 0.008619307 -0.0039518736 0.020816203 0.042981483 0.05395067
-0.053020354 -0.009020681 -0.023051834 0.009007121 0.017967267 -0.042059883 -0.024733078 -0.055325925
0.031139283 0.0506356 0.051347744 -0.02859906 -0.035900712 -0.025653526 0.02378284 -0.020714872
-0.046963144 0.041823566 -0.031269256 0.057703096 -0.062115606 -0.05465551 -0.045129895 -0.012809406
-0.04794384 0.04225024 0.003725541 0.04284227 0.037157487 -0.013405755 0.00893363 0.011777856
-0.03791098 -0.023385188 -0.021612974 -0.039251313 0.029503917 -0.06206516 0.038593028 0.039908618
0.03338982 0.0029569133 -0.014788403 0.045620978 -0.009958975 0.036479257 0.030248934 0.058936995
-0.03545361 0.035104096 -0.013418591 -0.030771073 -0.052581627 -0.036652308 -0.017551389 -0.04124878
0.04805111 0.030340603 0.05140628 -0.033564195 0.0139825195 -0.03138239 0.013327923 0.0050278963
0.021815943 -0.029573925 -0.041346066 -0.044038016 -0.036179967 0.025315845 -0.044614043 0.021260388
-0.056458693 -0.014741114 -0.041992184 0.05907507 0.032733116 0.016417183 0.047212776 -0.030111978
0.019066816 -0.038168322 -0.040652677 -0.051952418 0.03394611 -0.0013546292 -0.031612385 -0.020298636
-0.014944536 0.04487022 -0.04603799 0.029067127 -0.038973697 -0.03279824 0.017573332 0.063043386
0.0019190465 0.014228331 -0.039469656 0.056271147 -0.026537178 0.037645116 0.034575004 -0.03807391
0.03699976 -0.023886383 0.009334787 0.007112396 -0.04692669 0.01533908 0.061493296 -0.045690373
-0.03110069 -0.014710013 -0.047650475 0.0062550376 0.017149007 0.028847022 0.05687716 0.06152958
0.013516909 0.0045265015 0.012753052 0.038841713 -0.039862115 -0.0015188523 -0.025185259 0.058390226
0.045757312 0.01975761 -0.033576712 -0.056836557 -0.02151921 -0.043102015 -0.019584449 0.026283419
0.050234336 -0.0039149392 -0.05264382 0.048081562 -0.045268167 0.05046254 0.056945276 0.028542677
0.04563438 0.03286766 0.023290627 -0.036691155 -0.033134036 -0.04465138 -0.018227454 -0.022014225
-0.022910722 0.046591904 0.04497106 -0.04041922 -0.026945455 0.014023085 0.042960543 -0.01044074
-0.05241543 -0.02133968 0.038374614 0.0024172305 0.013921764 0.043883797 0.0084939385 0.018952137
0.05254416 0.055691816 0.0048013087 0.033442464 0.028509226 0.026593883 -0.05900552 -0.011211606
0.030821037 0.0066087074 0.036918815 0.027536495 -0.016496213 0.015906382 0.057084423 0.035431787
0.021838287 -0.0003691507 0.00021425671 -0.059559543 0.061847895 0.03668506 0.011058292 0.028047368
00000000: 71d4 48bd 8a92 4d3d 76ba 2e3c 3a77 603d
00000010: 5478 33bd d440 663c b229 853c 4223 8fbc
00000020: 4239 233d 895a 45bd ff11 3ebd 302c f33b
00000030: 503e 02bd 4fd5 c0bc 1ec4 cd3b 56b0 0bbd
00000040: 9d4e 56bc 62eb 37bd e238 783c 5c48 62bc
00000050: 88c8 f9bb 0f8a 4bbd d606 1f3d ce77 76bd
00000060: 2bde b1ba 328a e6bc f006 873b ee6d b83c
00000070: da0c 97bc 9ebd 03bd 24d8 36bd b195 10bd
00000080: 8324 163c 78d9 97bb f719 473d c6e8 b4bc
00000090: 252b debb 5a2c b73c 8ea8 dc3c 4592 04bd
000000a0: c2fb 223d d7bf 213b 8cbe 603d 18bd 293b
000000b0: e5d0 973c 29bb 54bd f946 843c f252 15bd
000000c0: a199 1c3d 634e 7c3d 806b 123d 9711 773a
000000d0: b262 903c 696b 603c 9ebb 273b a7b0 f03b
000000e0: f5b1 133d 8804 39bd 21cb cf3c fe37 0d3c
000000f0: b87e 81bb be86 aa3c 5a0d 303d 61fb 5c3d
00000100: df2b 59bd 7acb 13bc 33d7 bcbc 9b92 133c
00000110: 1730 933c fc46 2cbd 069d cabc 709d 62bd
00000120: cf17 ff3c 4667 4f3d 0352 523d 9348 eabc
00000130: a00c 13bd 5827 d2bc 3bd4 c23c 3cb2 a9bc
00000140: 6d5c 40bd 304f 2b3d 3114 00bd 155a 6c3d
00000150: ef6c 7ebd 75de 5fbd 20da 38bd 8bde 51bc
00000160: c360 44bd 960e 2d3d 3528 743b 607b 2f3d
00000170: 7332 183d d0a3 5bbc 5c5e 123c e9f7 403c
00000180: 8b48 1bbd 4b92 bfbc b10d b1bc fcc5 20bd
00000190: 33b2 f13c 0a38 7ebd b913 1e3d 3877 233d
000001a0: c4c3 083d c6c8 413b 0f4b 72bc 10dd 3a3d
000001b0: f82a 23bc 466b 153d 9dcc f73c eb67 713d
000001c0: ce37 11bd 50c9 0f3d a6d9 5bbc 9e13 fcbc
000001d0: d55f 57bd bb20 16bd eec7 8fbc 7bf4 28bd
000001e0: 3ed1 443d db8c f83c 648f 523d 9c7a 09bd
000001f0: f016 653c d28a 00bd 5c5d 5a3c 0dc1 a43b
00000200: 59b7 b23c 0445 f2bc 7e5a 29bd 3561 34bd
00000210: 7231 14bd 2d63 cf3c 37bd 36bd 442a ae3c
00000220: 3b41 67bd b784 71bc ffff 2bbd b3f8 713d
00000230: 2913 063d 547d 863c 2f62 413d 65ad f6bc
00000240: 0332 9c3c 6356 1cbd 6c83 26bd 0fcc 54bd
00000250: 140b 0b3d d08d b1ba fd7b 01bd 5349 a6bc
00000260: edd9 74bc d6c9 373d 5592 3cbd 2f1e ee3c
00000270: e2a2 1fbd 7357 06bd f3f5 8f3c e41c 813d
00000280: 8488 fb3a f21d 693c efaa 21bd 937c 663d
00000290: 7f64 d9bc c431 1a3d 859e 0d3d 63f3 1bbd
000002a0: 0f8d 173d 60ad c3bc eff0 183c 1a0f e93b
000002b0: 3336 40bd c450 7b3c 65e0 7b3d d425 3bbd
000002c0: e0c6 febc 4402 71bc 252d 43bd 0ff7 cc3b
000002d0: 137c 8c3c 9750 ec3c 06f8 683d 7106 7c3d
000002e0: 0776 5d3c 0c53 943b 2df2 503c 7d18 1f3d
000002f0: 7546 23bd 3a14 c7ba 5151 cebc 972a 6f3d
00000300: 056c 3b3d b6da a13c bc87 09bd 73cd 68bd
00000310: 0e49 b0bc bd8b 30bd 916f a0bc 5350 d73c
00000320: 85c2 4d3d e448 80bb 0ca1 57bd 2cf1 443d
00000330: 1d6b 39bd cfb1 4e3d 733f 693d 55d2 e93c
00000340: 1eeb 3a3d 3da0 063d fccb be3c 7749 16bd
00000350: 8eb7 07bd 5ee4 36bd be51 95bc 2d57 b4bc
00000360: 44af bbbc 27d7 3e3d 9333 383d a08e 25bd
00000370: b7bc dcbc 15c1 653c 65f7 2f3d a30f 2bbc
00000380: 90b1 56bd 8dd0 aebc b32e 1d3d 666a 1e3b
00000390: 1c18 643c 7fbf 333d 292a 0b3c 8341 9b3c
000003a0: 8c38 573d 1a1d 643d 4c54 9d3b f7fa 083d
000003b0: 2e8c e93c 6adb d93c c6af 71bd e2b0 37bc
000003c0: 667c fc3c db8d d83b 2f38 173d 3794 e13c
000003d0: 1123 87bc 1a4e 823c 5bd1 693d ec20 113d
000003e0: 35e6 b23c 918a c1b9 19aa 6039 b5f4 73bd
000003f0: 3854 7d3d 1343 163d d72d 353c 98c3 e53c

net.2.bias f4 [256]
0.049017344 0.035769533 -0.041021626 0.038193554 0.046922684 -0.051323842 -0.019007022 -0.03635424
0.056067336 0.056678526 0.028330203 -0.02227061 0.053470157 0.04996673 0.0006352967 0.047863543
0.030677175 0.044640947 0.006979964 -0.057205502 -0.009104397 0.01840286 -0.032307927 -0.024410915
0.029608687 0.035517298 -0.04329931 -0.017526219 0.026250148 -0.009238237 0.005634521 -0.027669724
-0.013756105 0.061731465 -0.047781877 0.02228967 0.002848488 0.051992167 0.0623041 0.007314396
-0.044606827 -0.043247044 0.060269594 -0.03711714 0.020584896 0.062232047 0.016832983 -0.022709273
-0.026877217 -0.006995243 0.021296954 -0.037797976 -0.031007994 -0.044366576 -0.02418564 0.020029228
-0.029545637 -0.0061000176 0.028377056 -0.01770567 0.051204473 -0.019106323 -0.052422743 -0.044627916
0.004860372 0.008116637 0.022683593 0.008382741 0.057810374 0.03574767 -0.006843145 -0.031172229
-0.012866702 0.036191422 -0.017625155 0.016584048 -0.032138664 0.05000278 0.053290233 0.023159567
-0.039278045 0.007941987 -0.011546717 0.044677332 -0.04470021 0.058486827 -0.032534942 0.029712105
-0.057418212 -0.024432773 -0.04178946 -0.05528705 -0.014088146 0.047065016 -0.036903888 0.037000366
0.041164797 0.05545974 0.025563233 -0.014849423 0.02961975 0.037857268 -0.0019595646 -0.038890522
0.026906533 0.023511617 0.04709857 -0.037256144 -0.061368342 -0.00017089136 -0.014873875 0.022593785
0.018550012 -0.035271533 -0.02534884 -0.023335429 0.04804692 -0.04457546 0.03241537 0.03888947
0.036493707 -0.023832966 -0.042594638 0.027853793 0.041896373 0.015489428 -0.046500143 -0.032392316
0.0101408325 0.0048449268 -0.047841642 0.040197816 -0.051743094 0.027357059 -0.05039753 0.023561932
-0.010591565 0.04376968 0.056979947 0.0051449467 0.058323257 0.010364439 0.0419317 0.047552474
0.060508475 0.0022282903 -0.061844893 0.016620394 0.05971947 0.058265675 0.013005377 0.02692254
-0.011673062 -0.013909937 0.04498612 0.041022655 -0.049537446 -0.04189288 -0.052195273 0.05752655
0.030453425 0.06277585 0.060529727 -0.03461676 -0.02679769 -0.016447661 -0.029484032 -0.027247023
0.04253617 -0.008206938 0.032382436 0.051053718 0.0004437803 -0.022563973 -0.0019425689 -0.04224719
-0.028192203 -0.029715598 0.004224449 0.0038795425 0.012786584 -0.011710021 0.05127477 -0.0051934873
-0.0025280805 0.02576791 -0.052754704 -0.056477457 0.020638574 -0.044557482 0.023619922 0.043266267
0.04252926 0.043883868 0.03576123 0.01225153 -0.033386033 -0.028130976 0.05134724 -0.013623885
-0.021892795 -0.04631662 -0.009053145 -0.03219382 0.036511995 -0.01097712 -0.040037002 -0.01733999
0.045462396 0.053216893 -0.059256393 -0.002909165 -0.05006061 -0.020806812 0.056605175 0.016767746
-0.040246222 0.008884742 -0.044324804 0.0201685 0.018532077 0.023992041 0.056972794 0.06037014
-0.019518139 0.030100383 0.045518722 0.020936899 -0.016308162 -0.029403154 -0.035932075 0.005459439
-0.047207564 -0.05083679 -0.0073965783 -0.024977883 -0.008706346 0.025895694 -0.047479056 -0.00014637435
-0.00029390675 -0.010460629 0.025927749 0.044046964 -0.00985643 -0.048067365 0.016221305 0.04232492
-0.0026243785 -0.0021172776 -0.059121415 -0.019586708 -0.032903906 -0.027199663 0.025767824 0.025179295
00000000: 69c6 483d 1383 123d 4b06 28bd d870 1c3d
00000010: 0032 403d f338 52bd 9db4 9bbc 2fe8 14bd
00000020: dda6 653d be27 683d be14 e83c db70 b6bc
00000030: 8603 5b3d eaa9 4c3d 0a8a 263a 900c 443d
00000040: b34e fb3c 6dd9 363d 2fb8 e43b 5150 6abd
00000050: 9c2a 15bc 98c1 963c 5155 04bd 66f9 c7bc
00000060: eb8d f23c 967a 113d 9e5a 31bd 2593 8fbc
00000070: 8d0a d73c f95b 17bc caa1 b83b 9eab e2bc
00000080: 4961 61bc 22da 7c3d eeb6 43bd d398 b63c
00000090: b3ad 3a3b bdf5 543d 9532 7f3d 9aad ef3b
000000a0: a6b5 36bd d023 31bd 40dd 763d 2408 18bd
000000b0: a8a1 a83c 08e7 7e3d 53e5 893c cc08 babc
000000c0: 9c2d dcbc 5a38 e5bb f376 ae3c 0dd2 1abd
000000d0: 7a04 febc bab9 35bd f720 c6bc 5614 a43c
000000e0: b109 f2bc a8e2 c7bb 0077 e83c 7b0b 91bc
000000f0: c8bb 513d dd84 9cbc 3bb9 56bd c3cb 36bd
00000100: c143 9f3b a5fb 043c f1d2 b93c c457 093c
00000110: 92ca 6c3d 266c 123d 763c e0bb e75c ffbc
00000120: dcce 52bc 753d 143d a162 90bc 45db 873c
00000130: d5a3 03bd b7cf 4c3d dc46 5a3d 22b9 bd3c
00000140: 04e2 20bd 1c1f 023c 712e 3dbc 94ff 363d
00000150: 9117 37bd e28f 6f3d 5c43 05bd cd66 f33c
00000160: 5c2f 6bbd 3d27 c8bc 6d2b 2bbd ac74 62bd
00000170: f8d1 66bc 3fc7 403d 8828 17bd b28d 173d
00000180: 6b9c 283d c129 633d fc69 d13c ff4a 73bc
00000190: 1ea5 f23c 3910 1b3d 0a6c 00bb ab4b 1fbd
000001a0: 176b dc3c 6f9b c03c 6eea 403d e699 18bd
000001b0: 5f5d 7bbd 4d31 33b9 8eb1 73bc 9a16 b93c
000001c0: 32f6 973c e278 10bd 5fa8 cfbc f129 bfbc
000001d0: d9cc 443d c294 36bd fbc5 043d 914a 1f3d
000001e0: 6d7a 153d 5a3d c3bc b777 2ebd a32d e43c
000001f0: 889b 2b3d 5fc7 7d3c ef76 3ebd cead 04bd
00000200: bc25 263c 31c2 9e3b 99f5 43bd 77a6 243d
00000210: 91f0 53bd e91b e03c a46d 4ebd f404 c13c
00000220: 3e88 2dbc d647 333d ce63 693d f196 a83b
00000230: 5ee4 6e3d 9ccf 293c 93c0 2b3d 62c6 423d
00000240: bcd7 773d 8208 123b 1251 7dbd 7e27 883c
00000250: 679c 743d fda7 6e3d 8114 553c a98c dc3c
00000260: 5f40 3fbc 81e6 63bc 5e43 383d 5f07 283d
00000270: c7e7 4abd de97 2bbd b6ca 55bd f6a0 6b3d
00000280: 7679 f93c a090 803d 05ee 773d 4eca 0dbd
00000290: d486 dbbc 3fbd 86bc 7f88 f1bc 2635 dfbc
000002a0: 683a 2e3d 6576 06bc 72a3 043d b41d 513d
000002b0: 2fab e839 15d8 b8bc cc9d feba 640b 2dbd
000002c0: 56f3 e6bc 206e f3bc 3f6d 8a3b ec3f 7e3b
000002d0: d27e 513c 63db 3fbc 7e05 523d 212e aabb
000002e0: 27ae 25bb 3917 d33c 5115 58bd e854 67bd
000002f0: 3a12 a93c e881 36bd 917e c13c f837 313d
00000300: 2933 2e3d 92bf 333d 5e7a 123d a4ba 483c
00000310: cbbf 08bd ef72 e6bc 7c51 523d b736 5fbc
00000320: 8558 b3bc 7fb6 3dbd a453 14bc abdd 03bd
00000330: 9a8d 153d 61d9 33bc d7fd 23bd 980c 8ebc
00000340: c736 3a3d f5f9 593d d5b6 72bd b1a7 3ebb
00000350: 5b0c 4dbd 0c73 aabc d4da 673d 835c 893c
00000360: 39d9 24bd 4f91 113c ed8d 35bd 6938 a53c
00000370: 95d0 973c f58a c43c 4e5c 693d ae46 773d
00000380: 81e4 9fbc 1495 f63c d771 3a3d dc83 ab3c
00000390: b298 85bc e2de f0bc 832d 13bd 18e5 b23b
000003a0: b85c 41bd 3d3a 50bd ff5e f2bb 6b9e ccbc
000003b0: 10a5 0ebc 3523 d43c 6679 42bd 117c 19b9
000003c0: 7f17 9ab9 0f63 2bbc 6e66 d43c 976a 343d
000003d0: dd7c 21bc 49e2 44bd 8be2 843c e55c 2d3d
000003e0: c4fd 2bbb 06c2 0abb 4c29 72bd 4e74 a0bc
000003f0: 3fc6 06bd d4d1 debc 0b17 d33c cf44 ce3c

net.4.weight f4 [256, 256]
0.043821406 -0.026384117 -0.047695246 -0.057479154 0.00403968 0.041706614 0.050109606 0.027510958
0.043155834 0.061371997 -0.023544036 0.02144519 -0.030543176 -0.0077607664 -0.0116539635 0.026681308
0.01873615 0.0047078826 0.053510044 -0.010840794 -0.05279949 0.029738536 -0.03915772 0.0028218369
0.031522334 0.03323454 0.023979153 0.031906754 0.017395915 -0.053132985 0.055339087 -0.00959682
-0.031705763 0.010716831 -0.058349337 0.0075160987 -0.0067477645 -0.042422567 0.020300282 0.02803315
0.024980787 0.04976811 -0.058675252 -0.055383798 -0.046228755 0.0008613429 -0.021655925 -0.024441529
0.052600306 0.03809932 0.027360778 -0.037602022 0.0012164159 -0.0059193037 0.028780278 -0.020109478
0.034226768 -0.010018935 -0.04496926 0.011063711 0.019405758 0.043438032 -0.0046196994 0.060800936
-0.021628698 -0.06199433 -0.01349043 0.0054663443 0.0029020237 0.03531461 -0.012967454 0.011087987
0.06255008 -0.040040005 0.0046125394 -0.027832763 -0.060040917 0.053712133 0.053650357 0.038484935
-0.015514204 -0.023969067 0.05013111 -0.0153623335 -0.059341427 -0.019353293 0.053552486 -0.028107112
0.057834707 0.048787963 -0.03960943 0.060423 0.0051983213 0.012422945 -0.05503928 -0.013087191
0.027592434 -0.02463577 -0.038008306 -0.0032999779 0.022533016 -0.029351875 0.053949233 -0.0003228046
0.018622607 0.046316758 0.015101978 0.0037629528 -0.053858887 0.060055718 -0.01895179 0.033672303
-0.030712508 -0.034804195 0.052660875 -0.030118192 0.030059574 0.05328036 0.051825956 0.013266972
0.039701052 0.010348552 -0.061234664 0.017823335 -0.049974527 0.017613603 -0.005666956 0.037813053
-0.025140414 -0.040645655 -0.0102551645 -0.017189153 0.0010408058 0.008991847 0.036808066 0.0062120664
-0.015681919 0.022741102 -0.033283375 -0.047675215 -0.058154184 0.0006871974 -0.052743107 -0.0350621
-0.01997562 0.0050068526 -0.03610063 -0.0027558154 -0.04037933 0.027291685 0.045270626 0.036663152
-0.009844762 -0.028503688 -0.009023826 0.043370906 0.024070103 -0.008461006 -0.035059962 -0.016437534
0.011557079 -0.0005704935 0.012566156 -0.033778574 -0.015203654 0.036025964 -0.04895153 -0.0036207528
0.050531317 -0.008053984 -0.043270312 0.027466094 -0.02157325 0.041444242 -0.0056627193 -0.005571397
0.05262808 -0.044268634 -0.05523655 -0.0054964377 -0.037141908 -0.054243647 -0.04900536 -0.033190243
-0.030728761 -0.021486018 0.04282975 -0.014486316 0.010585322 -0.026510697 -0.03379343 -0.032802485
-0.024177874 -0.036019683 -0.055491418 0.06005905 -0.03181456 0.020190662 0.04193759 0.017522829
0.06069596 0.0114577785 0.006863187 0.034354288 0.00086994073 0.046833668 0.0030599746 0.027064508
0.05895531 -0.014113696 -0.030915963 0.059673663 0.014540003 0.049691062 0.005866489 -0.038626183
0.053179182 -0.029316192 -0.004235682 -0.04648038 0.019099029 0.035469994 0.012218888 -0.013499456
0.009914593 0.012728001 0.04542648 0.05914184 -0.062225837 0.03735107 0.035579365 -0.023122126
0.017594112 0.0010343564 -0.043644294 -0.039030366 0.0006909306 0.0009178405 0.026494352 -0.006755587
-0.011258878 -0.027169427 0.030951068 0.0129844425 0.045398198 0.01830674 -0.057726596 0.048920676
0.04737601 0.008819812 0.032242324 -0.009240769 -0.016954388 0.0283291 0.05673331 -0.02682526
00000000: 137e 333d 8123 d8bc 175c 43bd 436f 6bbd
00000010: 4b5f 843b 8ed4 2a3d bb3f 4d3d a95e e13c
00000020: 2cc4 303d 3461 7b3d 6cdf c0bc d3ad af3c
00000030: af35 fabc 074e febb 44f0 3ebc c292 da3c
00000040: 8e7c 993c 9544 9a3b 592d 5b3d 969d 31bc
00000050: 4744 58bd 3b9e f33c d863 20bd 91ee 383b
00000060: 901d 013d f120 083d ee6f c43c a8b0 023d
00000070: e181 8e3c f9a1 59bd 3dab 623d fb3b 1dbc
00000080: e7dd 01bd a695 2f3c b7ff 6ebd 9b49 f63b
00000090: 5a1c ddbb 49c3 2dbd c74c a63c c7a5 e53c
000000a0: 82a4 cc3c a5d9 4b3d 7655 70bd 1fda 62bd
000000b0: 5d5a 3dbd becb 613a c467 b1bc 9a39 c8bc
000000c0: 6b73 573d 080e 1c3d b623 e03c 9404 1abd
000000d0: 2570 9f3a b8f6 c1bb 9ec4 eb3c a2bc a4bc
000000e0: 5e31 0c3d 7626 24bc b031 38bd 9144 353c
000000f0: d3f8 9e3c 14ec 313d d960 97bb 670a 793d
00000100: ab2e b1bc c4ed 7dbd f706 5dbc 051f b33b
00000110: e12f 3e3b 0da6 103d 7275 54bc 63aa 353c
00000120: 421a 803d fd00 24bd c924 973b 8901 e4bc
00000130: 77ed 75bd 4101 5c3d 7ac0 5b3d 61a2 1d3d
00000140: 4a2f 7ebc c75a c4bc 4756 4d3d 4cb2 7bbc
00000150: ff0f 73bd cc8a 9ebc da59 5b3d e340 e6bc
00000160: 16e4 6c3d e3d5 473d 7f3d 22bd 1c7e 773d
00000170: ae56 aa3b 9c89 4b3c de70 61bd a86b 56bc
00000180: 8709 e23c f4d0 c9bc 99ae 1bbd 7144 58bb
00000190: 2997 b83c 5873 f0bc dff9 5c3d 1a3e a9b9
000001a0: 708e 983c a4b6 3d3d 496e 773c df9b 763b
000001b0: 239b 5cbd fcfc 753d c940 9bbc f8eb 093d
000001c0: cc98 fbbc d88e 0ebd eeb2 573d 6dba f6bc
000001d0: 7f3f f63c 823c 5a3d 7447 543d b75d 593c
000001e0: 929d 223d f98c 293c 33d1 7abd 3e02 923c
000001f0: 17b2 4cbd 674a 903c dfb1 b9bb dce1 1a3d
00000200: 45f3 cdbc 0f7c 26bd 4705 28bc 44d0 8cbc
00000210: a66b 883a 8a52 133c 0ec4 163d 978e cb3b
00000220: 5e77 80bc 8c4b ba3c 2654 08bd 1647 43bd
00000230: 1533 6ebd 0925 343a 2809 58bd 479d 0fbd
00000240: e9a3 a3bc 8610 a43b 41de 13bd e99a 34bb
00000250: cc64 25bd d092 df3c b16d 393d 1a2c 163d
00000260: ed4b 21bc 9180 e9bc abd8 13bc b1a5 313d
00000270: aa2e c53c 08a0 0abc 099b 0fbd 02a8 86bc
00000280: e759 3d3c 2c8d 15ba 47e2 4d3c 675b 0abd
00000290: bf18 79bc f68f 133d 6681 48bd 274a 6dbb
000002a0: edf9 4e3d dbf4 03bc 363c 31bd 9300 e13c
000002b0: 62ba b0bc 70c1 293d 558e b9bb 4490 b6bb
000002c0: 8b90 573d 0753 35bd b83f 62bd 761b b4bb
000002d0: 1d22 18bd 962e 5ebd d8b9 48bd 7ef2 07bd
000002e0: e2ba fbbc 7203 b0bc 3f6e 2f3d 0358 6dbc
000002f0: 0f6e 2d3c f62c d9bc fb6a 0abd e65b 06bd
00000300: ad10 c6bc 6089 13bd f84a 63bd 7a00 763d
00000310: fc4f 02bd e366 a53c c0c6 2b3d 098c 8f3c
00000320: 549c 783d 68b9 3b3c 96e4 e03b 15b7 0c3d
00000330: bc0c 643a a9d4 3f3d db89 483b 63b6 dd3c
00000340: 207b 713d 223d 67bc 7943 fdbc 5f6c 743d
00000350: 3139 6e3c db88 4b3d ad3b c03b 7d36 1ebd
00000360: 6ad2 593d 8328 f0bc 7acb 8abb 3662 3ebd
00000370: 9175 9c3c fc48 113d bb31 483c d32c 5dbc
00000380: d170 223c 1b89 503c 1e11 3a3d b73e 723d
00000390: 85e0 7ebd 70fd 183d abbb 113d 9d6a bdbc
000003a0: 8721 903c 3e93 873a 5cc4 32bd 4ede 1fbd
000003b0: 911f 353a 3c9b 703a af0a d93c f95d ddbb
000003c0: 2877 38bc 6b92 debc 188d fd3c b3bc 543c
000003d0: 76f3 393d 04f8 953c b972 6cbd 0c61 483d
000003e0: 590d 423d f980 103c 8710 043d 9866 17bc
000003f0: eee3 8abc 6e12 e83c 3061 683d a6c0 dbbc

net.4.bias f4 [256]
-0.0540783 -0.04552543 -0.017962947 -0.02861749 -0.044063576 0.054536086 -0.02873515 -0.0044131638
-0.059490234 0.046023846 -0.03545978 0.040797517 0.030646048 0.033372045 0.030247912 0.03287818
-0.039355937 0.0037734865 0.029248282 -0.047456734 -0.018973237 -0.012150226 -0.031514984 0.045998387
0.01370121 -0.062930346 0.019311953 0.036953177 -0.028791048 0.052149855 0.061305806 0.059999764
0.033274904 -0.0029967227 -0.0470945 -0.027195867 0.028322855 0.030936345 0.0414 -0.011563725
0.021896724 -0.042983014 0.059067424 -0.01598286 -0.057433955 -0.03982028 -0.033858106 -0.025544079
-0.03734609 0.04702559 -0.060300753 0.0068658036 -0.04608988 0.016712174 -0.049368434 0.05350787
-0.060358737 0.007624497 0.044658646 0.051728368 0.029603528 -0.02783769 0.018516175 0.057528563
0.04913503 0.039903153 -0.0024911822 0.062814765 0.044337124 0.018128444 -0.03178552 -0.054349106
0.059902284 0.044621345 0.0025538914 0.05614196 -0.02218729 -0.009961962 0.0072168508 -0.010390786
-0.025279004 -0.028606715 0.030585468 -0.010990268 -0.048649848 -0.061791718 -0.041225076 0.021263678
0.014039872 -0.025493672 0.058189344 -0.017098248 -0.03370412 -0.035503913 -0.019101884 0.03349118
0.06115551 0.038803358 -0.026471684 -0.025433518 -0.029578988 0.022787446 0.058570877 0.022251526
0.015515892 -0.010997585 -0.005306785 -0.03246556 0.0126495855 0.04426941 -0.009020963 -0.017606493
-0.051637456 -0.012013656 -0.021100603 0.0075219343 0.0055955993 0.05379447 0.05191821 0.015271402
0.044232506 -0.06282265 0.04969123 -0.019343367 -0.013340788 -0.049580112 -0.008511816 -0.007559557
-0.019603748 -0.05210058 -0.031210484 0.038887646 -0.05098064 0.017285062 0.0037129724 -6.8465897e-06
0.00064744026 -0.038683716 -0.02502041 -0.04067244 0.017332563 0.036468457 0.019144168 -0.01190236
-0.04195014 0.016588546 -0.049132537 -0.021415073 -0.05157745 0.040313885 -0.009428178 0.046804883
-0.028629635 -0.0569836 -0.060431167 -0.05861173 -0.033710282 0.024033645 -0.0029302111 -0.03561235
0.058401488 0.014051231 -0.003639585 -0.0087393215 0.04686281 -0.05465368 0.052317005 0.0028225647
-0.03905011 0.032895993 0.010580441 -0.055938754 -0.043726217 0.038166437 -0.048771594 0.02540378
0.0478022 -0.029031843 -0.0129703265 0.03889677 -0.022511724 -0.022036368 0.01984617 -0.059474688
-0.02655133 -0.044109736 -0.025655556 -0.049412176 -0.015992733 0.05380223 0.03161275 -0.017018378
-0.052235804 -0.04354932 0.0011275031 0.0017726965 -0.011499006 -0.0004186476 0.059958838 0.012007547
0.039374925 -0.007913854 -0.048487112 0.012998701 -0.05652653 -0.0038649004 -0.0005185774 0.00014161108
-0.035808034 -0.051155258 0.033160117 -0.0020959813 -0.04091026 0.005488319 -0.04171241 -0.05992602
0.041956976 0.017495558 -0.035397552 -0.029170323 -0.056069575 -0.02790605 0.040304646 -0.054730806
0.032029293 -0.029675888 0.03126216 -0.022589793 -0.03971786 0.03185586 0.03743702 0.04182985
-0.05694409 -0.028371096 -0.007904506 0.03952308 0.018301368 -0.027873285 0.035457816 0.0023026606
-0.0132834045 -0.017804792 0.047624525 0.032475825 0.025149178 0.02700744 -0.047705356 -0.026587768
-0.024878366 0.04037072 -0.027134765 -0.011067258 -0.058633216 0.041157868 -0.062406994 -0.053283714
00000000: 3581 5dbd e078 3abd 0827 93bc 3a6f eabc
00000010: 027c 34bd 3b61 5f3d fa65 ebbc 4d9c 90bb
00000020: 08ac 73bd 8083 3c3d 463e 11bd 4c1b 273d
00000030: 6c0d fb3c 20b1 083d 78ca f73c 45ab 063d
00000040: b133 21bd 994c 773b 189a ef3c fe61 42bd
00000050: c36d 9bbc be11 47bc db15 01bd ce68 3c3d
00000060: 0a7b 603c a0e1 80bd 1a34 9e3c 375c 173d
00000070: 34db ebbc 169b 553d cc1b 7b3d 50c2 753d
00000080: 444b 083d aa64 44bb 2ae6 40bd dec9 debc
00000090: 5505 e83c 386e fd3c 0c93 293d c775 3dbc
000000a0: c260 b33c f50e 30bd aff0 713d 7dee 82bc
000000b0: de3f 6bbd 971a 23bd ccae 0abd d141 d1bc
000000c0: 37f8 18bd e89d 403d ecfd 76bd 89fa e03b
000000d0: bec8 3cbd f8e7 883c 8e36 4abd 112b 5b3d
000000e0: b93a 77bd ebd6 f93b fceb 363d 20e1 533d
000000f0: 1983 f23c de0b e4bc 3caf 973c 12a3 6b3d
00000100: d041 493d 7d71 233d 1a43 23bb 07a5 803d
00000110: d89a 353d 1a82 943c 8931 02bd 2b9d 5ebd
00000120: 195c 753d dfc4 363d 305f 273b 1df5 653d
00000130: 1fc2 b5bc 7f37 23bc 557b ec3b 1e3e 2abc
00000140: ea15 cfbc a158 eabc 608e fa3c 8610 34bc
00000150: 1045 47bd 5019 7dbd a0db 28bd 2a31 ae3c
00000160: 7e07 663c 1bd8 d0bc f357 6e3d a011 8cbc
00000170: 550d 0abd 8d6c 11bd 8e7b 9cbc 0c2e 093d
00000180: 337e 7a3d 45f0 1e3d 25db d8bc f459 d0bc
00000190: a24f f2bc bdac ba3c 04e8 6f3d d548 b63c
000001a0: 5e36 7e3c 372f 34bc 8ae4 adbb 9bfa 04bd
000001b0: 3540 4f3c d753 353d a9cc 13bc 7e3b 90bc
000001c0: cc81 53bd edd4 44bc 2cdb acbc 8f7a f63b
000001d0: 4a5b b73b 9757 5c3d 30a8 543d e734 7a3c
000001e0: 252d 353d 29a9 80bd 0889 4b3d fb75 9ebc
000001f0: 5293 5abc 8414 4bbd 2575 0bbc 29b6 f7bb
00000200: 0a98 a0bc 6b67 55bd 21ad ffbc a748 1f3d
00000210: 13d1 50bd 6799 8d3c 5755 733b c2bb e5b6
00000220: fbb8 293a d172 1ebd 9af7 ccbc 2598 26bd
00000230: 05fd 8d3c f35f 153d 3bd4 9c3c 1e02 43bc
00000240: e9d3 2bbd b4e4 873c 333f 49bd aa6e afbc
00000250: e042 53bd 2c20 253d a578 1abc 7ab6 3f3d
00000260: b288 eabc a367 69bd ac86 77bd da12 70bd
00000270: cb13 0abd 35e2 c43c c908 40bb 41de 11bd
00000280: 6636 6f3d 2237 663c 1b86 6ebb 5f2f 0fbc
00000290: 38f3 3f3d 8adc 5fbd 5b4a 563d c7fa 383b
000002a0: 02f3 1fbd f3bd 063d 9659 2d3c 0920 65bd
000002b0: 431a 33bd 6954 1c3d b9c4 47bd 971b d03c
000002c0: 3dcc 433d 30d4 edbc 7e81 54bc 3852 1f3d
000002d0: 826a b8bc 9d85 b4bc 6f94 a23c bb9b 73bd
000002e0: 2d82 d9bc 69ac 34bd 9a2b d2bc 6c64 4abd
000002f0: 3103 83bc ba5f 5c3d 5f7c 013d 206a 8bbc
00000300: 36f5 55bd c660 32bd bac8 933a d359 e83a
00000310: 5466 3cbc ee7d dbb9 6697 753d 4dbb 443c
00000320: 9a47 213d 1ca9 01bc 6c9a 46bd 81f8 543c
00000330: 5d88 67bd 454a 7dbb 24f1 07ba 6f7d 1439
00000340: 72ab 12bd 2d88 51bd e7d2 073d bb5c 09bb
00000350: 8491 27bd 5bd7 b33b a2da 2abd fd74 75bd
00000360: 14db 2b3d d852 8f3c 06fd 10bd 9af6 eebc
00000370: 36a9 65bd 3b9b e4bc 7c16 253d 692d 60bd
00000380: 2631 033d d91a f3bc c00c 003d 3b0e b9bc
00000390: 32af 22bd 4a7b 023d 9057 193d c755 2b3d
000003a0: 353e 69bd 806a e8bc e781 01bc f4e2 213d
000003b0: c0ec 953c 8456 e4bc 373c 113d 3ce8 163b
000003c0: a3a2 59bc 5bdb 91bc ef11 433d 5f05 053d
000003d0: a605 ce3c b53e dd3c b166 43bd 97ce d9bc
000003e0: b7cd cbbc c55b 253d ba49 debc 7253 35bc
000003f0: 6229 70bd 2795 283d 7a9e 7fbd 0640 5abd

net.6.weight f4 [2, 256]
-0.035777558 -0.057681333 0.019966966 -0.004988993 -0.039154585 -0.059858903 0.00033613518 -0.038746838
-0.055483904 0.039557673 0.002145563 0.01983364 0.021194562 0.03754344 -0.046740003 -0.06263885
0.02839913 -0.0060269493 -0.05334637 -0.033123456 -0.020843536 -0.024341412 -0.031504147 -0.038026113
0.03841486 0.057961795 -0.014729435 -0.018565554 0.03860302 -0.040043924 0.03902062 0.0034039952
-0.019655097 -0.052366693 -0.0059085744 -0.030114407 -0.02386227 0.023403445 0.051565643 0.0137113985
0.047280103 0.023579443 -0.04298852 0.049495745 0.009327966 0.015617576 -0.026015174 -0.018636547
0.001970051 0.026613822 0.012024277 0.050683763 -0.014527992 0.010512637 0.000669093 -0.020389201
-0.05820729 -0.024097616 -0.0146162 -0.0406483 0.0059303963 -0.06228621 0.03987722 -0.04724665
-0.03328983 -0.045274876 -0.013030622 -0.0034400937 0.014000453 0.03489692 0.02935731 -0.010248715
0.015936336 -0.06271059 0.003810166 -0.0040570693 0.05639167 0.0003159772 0.034617543 -0.049873866
-0.05981607 -0.06082514 0.032372423 -0.017941454 -0.028087376 -0.004390234 0.030080654 -0.0303529
-0.00030130558 -0.013060642 0.050306324 0.012800142 0.039299235 -0.018791849 -0.031478748 -0.0019391276
0.05010731 0.01575396 -0.00709253 -0.046787526 -0.02541516 -0.03082968 -0.020016253 0.018707443
-0.0036422908 -0.04706627 0.03800278 -0.018482976 0.04123525 -0.037414704 0.021720858 0.047622476
-0.037603218 0.016552905 0.020642186 0.00059682765 -0.058984924 -0.043283805 -0.04054505 0.0242562
0.0155730825 0.04787381 0.03083888 -0.040014345 0.047860287 0.0499428 0.024568755 0.030984104
0.03400893 -0.0032944153 -0.051966816 0.03372271 -0.0064317537 0.0030191084 0.02439358 -0.038911138
-0.0040293047 0.025186976 -0.05876788 -0.007627437 -0.059993833 -0.005791817 0.029799348 -0.018340271
0.0023527492 -0.03692738 -0.04790286 0.017484775 0.01913897 0.041271854 -0.01116419 -0.009336706
0.009597127 0.052910745 -0.047504894 0.029345661 0.052109417 0.004424843 -0.044862654 0.008212968
0.023134183 -0.045829788 -0.039167475 -0.05895266 0.041637946 -0.004424096 -0.03553815 -0.0091022
0.018530985 -0.012969009 -0.027975094 0.0022951046 0.040008806 0.00096960884 0.015722161 0.045330703
-0.013584422 -0.051472295 -0.04425214 -0.032580342 0.040739 -0.007814333 0.009041412 -0.005498168
-0.011631582 -0.027880684 0.043982793 -0.060826488 0.034123346 0.04413512 -0.047129527 -0.037083127
-0.004125985 -0.035374973 -0.04694072 -0.028175067 0.021985726 0.049379986 -0.03450959 0.06151306
0.004538661 -0.061646312 0.056626257 -0.030665388 -0.061069496 0.058711246 0.03304333 -0.009413368
-0.048104193 0.014192824 -0.015653549 0.0028494068 0.017927302 0.061509598 -0.054695502 -0.047787692
0.014330492 -0.032750797 -0.040155932 -0.0062148757 0.059958324 0.02256519 -0.023213446 -0.05718745
-0.01609073 -0.061448462 -0.05293506 -0.045279216 0.03971813 0.016081974 0.002227569 0.012934351
-0.021694325 0.048872177 -0.04649037 0.04519392 0.0060066707 0.015508363 0.0056056036 -0.022757076
0.025344608 -0.058157172 -0.039779212 -0.02453643 -0.051476285 0.05792964 -0.06304829 0.02192939
0.0039557926 0.0053560026 0.04791514 0.052123636 -0.035959795 -0.052803244 0.03777923 -0.045483686
00000000: 7d8b 12bd 4343 6cbd c391 a33c b57a a3bb
00000010: 8f60 20bd 9c2e 75bd 4d3b b039 01b5 1ebd
00000020: 1743 63bd 3a07 223d 939c 0c3b 287a a23c
00000030: 38a0 ad3c 26c7 193d 7272 3fbd cc48 80bd
00000040: 4ba5 e83c b77d c5bb b981 5abd 76ac 07bd
00000050: 10c0 aabc a467 c7bc 7e0a 01bd 45c1 1bbd
00000060: e658 1d3d 5969 6d3d ba53 71bc ca16 98bc
00000070: 331e 1e3d 1905 24bd 16d4 1f3d 9015 5f3b
00000080: ba03 a1bc 757e 56bd b79c c1bb 7db2 f6bc
00000090: cf7a c3bc 95b8 bf3c 7f36 533d c6a5 603c
000000a0: c8a8 413d ad29 c13c bb14 30bd 0dbc 4a3d
000000b0: 53d4 183c dde0 7f3c c61d d5bc acab 98bc
000000c0: f91b 013b 3b05 da3c 7901 453c c799 4f3d
000000d0: d106 6ebc 323d 2c3c 1266 2f3a 4107 a7bc
000000e0: c46a 6ebd 5d68 c5bc c978 6fbc d57e 26bd
000000f0: c553 c23b d31f 7fbd 4c56 233d b485 41bd
00000100: eb5a 08bd 2672 39bd 647e 55bc 3273 61bb
00000110: 2862 653c 13f0 0e3d be7e f03c 3aea 27bc
00000120: eb8c 823c 696e 80bd fab3 793b 2af1 84bb
00000130: f4fa 663d bea9 a539 20cb 0d3d 8a48 4cbd
00000140: b201 75bd c823 79bd f298 043d f5f9 92bc
00000150: 7f17 e6bc f4db 8fbb b46b f63c a5a6 f8bc
00000160: 8df8 9db9 4efc 55bc 010e 4e3d b0b7 513c
00000170: 3cf8 203d 5df1 99bc dcef 00bd 532a feba
00000180: 533d 4d3d 730e 813c 7468 e8bb 47a4 3fbd
00000190: 7433 d0bc 868e fcbc 20f9 a3bc 5a40 993c
000001a0: 80b3 6ebb 90c8 40bd cea8 1b3d 9c69 97bc
000001b0: 4be6 283d 2940 19bd f1ef b13c c90f 433d
000001c0: d505 1abd f599 873c cd19 a93c 6d74 1c3a
000001d0: 2d9a 71bd 5c4a 31bd 9112 26bd f0b4 c63c
000001e0: 3e26 7f3c 5417 443d d2a1 fc3c 15e6 23bd
000001f0: 2609 443d d290 4c3d 6a44 c93c 60d2 fd3c
00000200: f34c 0b3d 1ee7 57bb 28db 54bd d320 0a3d
00000210: 76c1 d2bb 3cdc 453b 0cd5 c73c 4961 1fbd
00000220: 4208 84bb eb54 ce3c 97b6 70bd 94ef f9bb
00000230: 18bc 75bd 48c9 bdbb c31d f43c 563e 96bc
00000240: 9530 1a3b 2a41 17bd ca35 44bd 3b3c 8f3c
00000250: 54c9 9c3c ad0c 293d 02ea 36bc fcf8 18bc
00000260: 453d 1d3c f0b8 583d 7e94 42bd 5066 f03c
00000270: af70 553d 46fe 903b e7c1 37bd af8f 063c
00000280: e683 bd3c 04b8 3bbd 136e 20bd 5878 71bd
00000290: 8d8c 2a3d 02f8 90bb 7490 11bd 6521 15bc
000002a0: 4bce 973c f77b 54bc 062c e5bc 7769 163b
000002b0: 46e0 233d 592d 7e3a c3cb 803c b0ac 393d
000002c0: 3291 5ebc 9dd4 52bd bb41 35bd f772 05bd
000002d0: f0dd 263d b007 00bc 6e22 143c fa29 b4bb
000002e0: 6492 3ebc 0866 e4bc 4d27 343d 3225 79bd
000002f0: ecc4 0b3d 07c7 343d e40a 41bd 7ae4 17bd
00000300: 4533 87bb 59e5 10bd ea44 40bd 66cf e6bc
00000310: 691b b43c ab42 4a3d ee59 0dbd 1ef5 7b3d
00000320: 0cb9 943b d880 7cbd eff0 673d fb35 fbbc
00000330: 0224 7abd 347b 703d 7158 073d 873a 1abc
00000340: e708 45bd 0589 683c df3b 80bc 1dbd 3a3b
00000350: 47dc 923c 7df1 7b3d 6408 60bd 07bd 43bd
00000360: 71ca 6a3c b325 06bd 8c7a 24bd 28a6 cbbb
00000370: dc96 753d a2da b83c 202a bebc 633d 6abd
00000380: b5d0 83bc 62b1 7bbd 6fd2 58bd b376 39bd
00000390: 7aaf 223d 58be 833c 68fc 113b 9aea 533c
000003a0: 4cb8 b1bc 312e 483d b06c 3ebd 431d 393d
000003b0: 9bd3 c43b ca16 7e3c 36af b73b 0c6d babc
000003c0: 7f9f cf3c 3736 6ebd 87ef 22bd a000 c9bc
000003d0: ccd8 52bd a147 6d3d 761f 81bd 44a5 b33c
000003e0: 989f 813b 6881 af3b aa42 443d 987f 553d
000003f0: 944a 13bd 3748 58bd 65be 1a3d 1a4d 3abd

net.6.bias f4 [2]
0.0071249576 0.028945575
00000000: 7a78 e93b 451f ed3c
