moons/node/models/43000_model.pt (torch, 535856 bytes, 8 tensors)

net.0.weight f4 [256, 3]
0	0xbe1f0e0b	-0.155327
1	0x3e6fcb23	0.23417334
2	0xbe623f58	-0.22094476
3	0xbf119711	-0.56871134
4	0x3e3c4a16	0.18387637
5	0xbeb516e2	-0.3536902
6	0x3f05da39	0.52286106
7	0x3e5de463	0.21669154
8	0x3ebb4ccb	0.36582026
9	0x3e994b51	0.29940274
10	0x3e92520e	0.28578228
11	0x3e5b8cbd	0.21440406
12	0xbe8fc2d2	-0.28078324
13	0xbf0033d0	-0.5007906
14	0x3ef17789	0.4716151
15	0x3ef7e771	0.48418763
16	0xbdb905dd	-0.090343215
17	0x3eafc628	0.3433087
18	0x3ed476ea	0.41496974
19	0xbe1c65b8	-0.15273178
20	0x3e6756e4	0.2259174
21	0xbe446c9a	-0.19182053
22	0x3e4727d9	0.19448794
23	0xbbbdeab8	-0.005795803
24	0xbe5a2d83	-0.21306424
25	0x3ea2dbb1	0.31808236
26	0x3e921ea4	0.28539002
27	0x3b238496	0.0024950854
28	0xbdcc469f	-0.099744074
29	0xbec14e55	-0.37755075
30	0x3da85686	0.08219628
31	0xbf11ba8d	-0.5692528
32	0x3e2a1cb4	0.16612512
33	0xbd698fb6	-0.05702182
34	0xbeae0731	-0.33989862
35	0xbed6a82e	-0.41925186
36	0x3e69d84c	0.22836417
37	0xbf0056fe	-0.5013274
38	0xbebbdaba	-0.36690313
39	0xbc875dde	-0.016524252
40	0x3df874d1	0.12131656
41	0xbee3b4fd	-0.4447402
42	0xbebac8e2	-0.36481386
43	0xbe163a23	-0.14670615
44	0xbee293df	-0.44253442
45	0xbe687b62	-0.22703317
46	0xbc084f29	-0.0083196545
47	0x3e442341	0.19154073
48	0xbd54bbca	-0.051936902
49	0x3ef7c7b8	0.4839456
50	0x3db70829	0.08937103
51	0xbf1276d1	-0.5721255
52	0x3edd8bb5	0.4327065
53	0xbe80fece	-0.251944
54	0x3e2d9e02	0.16954806
55	0x3d971e2b	0.07378801
56	0xbe29df4c	-0.16589087
57	0xbf02256f	-0.5083837
58	0xbecc7927	-0.39936182
59	0x3e333ecc	0.17504424
60	0xbdc3bcbf	-0.09557485
61	0x3e7a8bc5	0.2446738
62	0x3d921736	0.071333334
63	0xbec059ce	-0.37568516
64	0xbd820ac8	-0.063497126
65	0x3f06aa3c	0.5260351
66	0x3c198fe4	0.009372685
67	0xbe4f71d3	-0.20258264
68	0x3f0e61ae	0.556178
69	0x3e2d71a0	0.16937876
70	0x3e6e0ce0	0.23247099
71	0xbe59a2c0	-0.2125349
72	0xbefc74fe	-0.49308008
73	0x3edc24fc	0.42996967
74	0x3ed1afad	0.40954342
75	0x3d5e4437	0.054264273
76	0x3f0c4707	0.5479588
77	0x3f11dfb2	0.56981957
78	0xbf09389a	-0.5360199
79	0x3e3f5e17	0.18688236
80	0x3e5a6a84	0.21329695
81	0xbd2b89ab	-0.041879337
82	0x3e61dd06	0.2205697
83	0xbec23472	-0.37930638
84	0xbf064aad	-0.52457696
85	0xbecb85c5	-0.39750496
86	0x3d64ee51	0.05589134
87	0xbe6a59f3	-0.22885875
88	0x3dab58d3	0.08366551
89	0x3e8b8245	0.27247825
90	0xbe59d308	-0.21271908
91	0xbe735c7d	-0.2376575
92	0xbdf8d845	-0.12150625
93	0x3ed39dcf	0.41331336
94	0xbf04063f	-0.5157203
95	0xbe58f3c1	-0.21186735
96	0xbf08463f	-0.5323219
97	0x3cf752e6	0.030190896
98	0xbeeb96ac	-0.4601339
99	0x3e5b03f7	0.21388231
100	0x3dad1ee9	0.08453161
101	0xbe76b03a	-0.24090663
102	0xbeef6e01	-0.46763614
103	0xbec225f2	-0.37919575
104	0xb9b20d23	-0.00033960593
105	0x3e36bdd9	0.17845859
106	0x3d2ac741	0.04169393
107	0x3d2a9125	0.041642327
108	0xbdea36c8	-0.1143623
109	0x3d995f0c	0.07488832
110	0xbc0751d3	-0.0082592545
111	0x3f06199a	0.52382815
112	0x3f1277f8	0.5721431
113	0xbf0d7760	-0.55260277
114	0x3edef165	0.43543544
115	0x3ee24a88	0.44197488
116	0x3efb2ef6	0.49059266
117	0xbdc4e3a1	-0.09613729
118	0xbe9b8583	-0.303753
119	0x3e814c6b	0.25253615
120	0xbe2baa7c	-0.16764253
121	0x3ef3ad05	0.4759294
122	0xbef75eda	-0.48314553
123	0x3e15098a	0.1455442
124	0xbde9e023	-0.11419704
125	0x3e7de92e	0.24795982
126	0xbeebfa0d	-0.4608921
127	0xbe5df764	-0.21676403
128	0x3dcf6325	0.10126332
129	0x3e9eedfe	0.3104095
130	0xbee9ae55	-0.45640817
131	0x3eefbadf	0.4682226
132	0x3e014873	0.12625293
133	0xbeca14bc	-0.39468944
134	0xbd6f58e1	-0.05843437
135	0xbee61f05	-0.4494554
136	0x3e9d2536	0.30692452
137	0x3e774471	0.24147202
138	0xbdce0f76	-0.10061543
139	0x3ea6ea4a	0.32600623
140	0x3d8a2f3b	0.0674729
141	0xbdc9fddc	-0.09862873
142	0xbf118d08	-0.5685582
143	0xbe5485f7	-0.20754229
144	0xbef0d258	-0.4703548
145	0x3edfa122	0.43677622
146	0x3eee105c	0.46496856
147	0xbea27a63	-0.31734
148	0xbe73c7d6	-0.238067
149	0xbe48b791	-0.19601275
150	0xbf0ff6f1	-0.5623618
151	0xbde5325d	-0.11191247
152	0xbd84defa	-0.06487842
153	0xbef4d366	-0.47817534
154	0x3f0f92ce	0.5608338
155	0xbef04c90	-0.46933413
156	0xbdd00c1c	-0.1015856
157	0x3e4980d2	0.19678047
158	0x3ef48fe3	0.47766027
159	0xbed871c5	-0.422743
160	0xbe0e720f	-0.13910697
161	0xbe20099a	-0.15628663
162	0xbe63640b	-0.22206132
163	0x3dadd76f	0.08488356
164	0xbef339c1	-0.47505
165	0xbe36c2a3	-0.17847686
166	0x3ee223da	0.44167978
167	0x3ea904ce	0.33011478
168	0x3f027c10	0.50970554
169	0xbdee4f09	-0.116361685
170	0xbd0c8aed	-0.034312177
171	0x3e5a5719	0.21322288
172	0x3e64165b	0.22274153
173	0xbd81a7c0	-0.06330824
174	0x3e0313a7	0.12800466
175	0x3c7f141b	0.015568758
176	0xbc63ea97	-0.013910911
177	0xbe9016e7	-0.28142473
178	0x3eaf5bf4	0.34249842
179	0xbf013e18	-0.5048537
180	0xbe87c8fa	-0.2652052
181	0x3d1f067d	0.038824547
182	0x3ec0e570	0.37675047
183	0x3eac15de	0.33610433
184	0x3e5165d2	0.20448998
185	0xbec72338	-0.38894057
186	0x3e9832dc	0.29726303
187	0x3eb25b89	0.3483546
188	0x3ecd3c60	0.40085125
189	0x3ee8d022	0.45471293
190	0xbeae5607	-0.3405001
191	0x3ee422b6	0.44557732
192	0x3ea9125a	0.33021814
193	0x3ef12b71	0.47103456
194	0x3e9acb1a	0.3023308
195	0x3ee2e4c1	0.4431515
196	0x3ec659f5	0.38740507
197	0x3eeb0d27	0.45908472
198	0xbe5531bf	-0.20819758
199	0x3eebdd95	0.4606749
200	0xbea9bddc	-0.33152664
201	0xbf002659	-0.50058514
202	0x3ef34d89	0.47520092
203	0x3e82acde	0.25522512
204	0x3ea556db	0.32292828
205	0xbec09706	-0.37615222
206	0x3ebd1208	0.3692782
207	0xbf0acf03	-0.54222125
208	0xbe814876	-0.25250596
209	0xbdb1e81c	-0.086868495
210	0xbe7670c5	-0.24066456
211	0x3ea968de	0.3308782
212	0x3f05a2ef	0.5220174
213	0x3e8e1446	0.27749842
214	0xbe28d3ea	-0.16487089
215	0xbcee7f5b	-0.029113462
216	0xbe6dac39	-0.23210229
217	0xbe3a29cb	-0.18180005
218	0xbe4aadae	-0.19792816
219	0x3eee0c3a	0.46493703
220	0xbe279a7c	-0.16367525
221	0x3e11c1ee	0.14234135
222	0x3cc7e551	0.024401339
223	0xbe45a9f9	-0.1930312
224	0xbe97216c	-0.29517686
225	0xbecc6254	-0.39918768
226	0x3e7b6261	0.24549247
227	0x3e9a361a	0.301194
228	0xbedf17c4	-0.4357282
229	0x3e4b7228	0.19867766
230	0xbee02891	-0.4378095
231	0xbe90f874	-0.28314555
232	0xbe1fb074	-0.15594655
233	0x3e2260eb	0.15857284
234	0x3f00beb7	0.5029101
235	0x3ed51743	0.4161931
236	0xbe28450f	-0.16432594
237	0x3e6fed3e	0.23430344
238	0x3e95d10d	0.29261056
239	0x3f001b2f	0.5004148
240	0x3e8f900d	0.2803959
241	0xbeb63fc5	-0.35595527
242	0x3ec53dda	0.38523751
243	0x3f11dad5	0.56974536
244	0xbe49e410	-0.19715905
245	0x3e8c78c6	0.27435893
246	0x3e0cb533	0.13740997
247	0xbed124c3	-0.4084836
248	0x3f08430e	0.5322732
249	0xbdfd0102	-0.12353708
250	0x3eebc60e	0.4604954
251	0x3ea27d26	0.31736106
252	0x3d13dbf1	0.036098424
253	0x3eeb63cd	0.4597458
254	0x3efaaa31	0.4895797
255	0x3e98d3cc	0.29849088

net.0.bias f4 [256]
0	0xbe9f82fe	-0.31154627
1	0x3e73d1ce	0.23810503
2	0x3e788a9b	0.24271624
3	0xbed381dd	-0.41310015
4	0x3eb7cd1e	0.3589868
5	0xbd2b2326	-0.041781567
6	0x3ebc8bdf	0.36825463
7	0xbf106891	-0.56409556
8	0xbf0275fc	-0.5096128
9	0x3e733293	0.23749761
10	0x3f00e466	0.5034851
11	0x3e47bd8d	0.19505902
12	0x3f09d028	0.53833246
13	0xbf0af092	-0.5427333
14	0x3ecca406	0.3996889
15	0x3df3cb39	0.11903996
16	0x3e40d85b	0.18832533
17	0x3e7c2786	0.24624452
18	0x3e4e535f	0.20148991
19	0x3f0be463	0.54645365
20	0x3f0be3dd	0.54644567
21	0x3e7be287	0.24598132
22	0x3f0f125d	0.55887395
23	0xbea51031	-0.32238916
24	0x3ed42eb6	0.41441888
25	0x3f130b11	0.5743876
26	0x3ea5fbeb	0.3241876
27	0x3f04cbf4	0.5187371
28	0x3ebcb16d	0.36854115
29	0x3ed0cff1	0.40783647
30	0xbeb151eb	-0.3463281
31	0xbf0fb9f8	-0.5614314
32	0x3eb30a48	0.3496878
33	0xbd666b50	-0.056254685
34	0x3eb9542e	0.36197037
35	0xbe100e11	-0.14067866
36	0x3eb75163	0.3580428
37	0xbf06d63b	-0.5267064
38	0xbe58cf76	-0.2117289
39	0xbb5e02db	-0.0033876214
40	0xbedc5fcd	-0.4304184
41	0x3e996f23	0.29967603
42	0x3d458fb9	0.048232768
43	0xbec77574	-0.38956797
44	0xbf031ece	-0.5121888
45	0x3d8c11bb	0.06839319
46	0x3ec57024	0.3856212
47	0x3f0d7942	0.5526315
48	0xbed40359	-0.41408804
49	0xbb73ef20	-0.0037221387
50	0x3df56b23	0.11983325
51	0x3d72e763	0.0593027
52	0xbed7a052	-0.42114502
53	0xbcc490e4	-0.02399487
54	0xbdd900c1	-0.10595847
55	0x3d13366d	0.035940576
56	0x3e2e0250	0.1699307
57	0xbdb7773c	-0.08958289
58	0x3c8ab898	0.016933724
59	0xbf039bd6	-0.5140966
60	0x3eb08459	0.34475973
61	0x3e7cc3ad	0.2468402
62	0x3ddc1d68	0.10747796
63	0xbd302efe	-0.043013565
64	0xbcdc00a0	-0.026855767
65	0x3e87a9e9	0.2649682
66	0x3e911fbb	0.2834452
67	0xbecdbaee	-0.4018168
68	0xbef0520e	-0.46937603
69	0x3edb2f65	0.42809597
70	0x3d8c3e2d	0.068477966
71	0x3e61b812	0.22042874
72	0xbe609562	-0.21931985
73	0xbdd95d00	-0.106134415
74	0x3dfb2bc4	0.12264207
75	0x3cbd2019	0.023086594
76	0x3e6c44b0	0.23073077
77	0xbe4deec6	-0.20110616
78	0xbddd4341	-0.10803843
79	0x3e9dd744	0.30828297
80	0x3e3c371a	0.18380395
81	0xbdb95277	-0.09048932
82	0x3edb51ae	0.42835754
83	0xbe511d54	-0.20421344
84	0xbf0de84f	-0.554326
85	0x3e9ef6a4	0.31047547
86	0x3ee06158	0.43824267
87	0xbe91bd65	-0.2846481
88	0xbecc3ddf	-0.39890954
89	0x3f10745e	0.5642756
90	0xbd228cab	-0.039684933
91	0x3f112a52	0.567052
92	0xbf005e5e	-0.5014399
93	0x3ea65a15	0.32490602
94	0x3f00db4e	0.5033463
95	0x3ec371a0	0.38172626
96	0xbf0bc4b9	-0.5459705
97	0x3e78083f	0.24221896
98	0x3e48e9c5	0.19620426
99	0x3d90bf10	0.07067692
100	0x3c5bb0d4	0.013408858
101	0xbe9af754	-0.3026682
102	0x3ecc2197	0.39869377
103	0xbe5ccd55	-0.21562703
104	0x3f0870ab	0.5329692
105	0x3e0fe11e	0.14050719
106	0x3e107ac9	0.14109339
107	0xbedb75e1	-0.42863372
108	0xbe177e44	-0.1479426
109	0xbd876519	-0.0661108
110	0x3e9b7c3f	0.3036823
111	0x3cdd28fa	0.026997078
112	0x3dcfa017	0.101379566
113	0x3e4794ff	0.19490431
114	0xbe8a5cba	-0.2702387
115	0x3ea90eb7	0.3301904
116	0x3d714ff4	0.05891414
117	0xbdf11918	-0.117723644
118	0x3cde4faa	0.027137596
119	0x3d8e3ba5	0.0694497
120	0xbe8e0dcd	-0.27744904
121	0x3ece5376	0.4029805
122	0x3eb90664	0.36137688
123	0xbefdce8e	-0.4957165
124	0x3e082f4f	0.13299297
125	0x3deac52a	0.11463387
126	0xbf01add0	-0.5065584
127	0x3f0433a8	0.5164132
128	0x3f084495	0.5322965
129	0xbecd8437	-0.40139934
130	0x3bd8112b	0.0065938435
131	0x3e3f6dd1	0.18694235
132	0x3e91f15c	0.28504455
133	0xbea9a485	-0.3313333
134	0x3d21778c	0.03942065
135	0x3ea71f7e	0.32641214
136	0x3ea22f6c	0.31676805
137	0xbee112ef	-0.43959758
138	0xbeaaf640	-0.33391
139	0x3e299bf4	0.16563398
140	0x3e274ef6	0.16338715
141	0xbdd46025	-0.103699006
142	0x3e10dd05	0.14146812
143	0xbed8911b	-0.42298207
144	0x3ebd60bc	0.36987865
145	0x3edb8636	0.42875832
146	0xbee6d92b	-0.4508756
147	0xbe264092	-0.16235569
148	0x3ea69e5d	0.32542697
149	0xbeb141ce	-0.34620517
150	0xbcc27f64	-0.023742385
151	0x3d838bae	0.06423126
152	0xbf11fd90	-0.5702753
153	0xbe11a079	-0.14221372
154	0xbeb4e7c7	-0.35333082
155	0xbe23a110	-0.15979409
156	0x3eeec657	0.46635696
157	0x3ec91552	0.3927408
158	0x3bba1137	0.0056783217
159	0xbef12dcb	-0.4710525
160	0x3e8e20cc	0.27759397
161	0xbec0c0f8	-0.37647223
162	0x3edd8810	0.4326787
163	0xbefc5dc3	-0.49290285
164	0x3e2f4d4d	0.17119332
165	0x3d581b8c	0.052760646
166	0x3e22faaf	0.1591594
167	0xbedaa9fe	-0.4270782
168	0x3e94a4a4	0.2903186
169	0xbe4c5c75	-0.19957145
170	0xbf066b7c	-0.5250776
171	0x3e452850	0.19253659
172	0xbec6f213	-0.38856563
173	0xbe987281	-0.2977486
174	0x3edbab5d	0.42904177
175	0x3c42a648	0.011880465
176	0x3d8b9022	0.068146005
177	0x3e166637	0.1468743
178	0xbd102bdc	-0.035198078
179	0xbf0c737a	-0.54863703
180	0x3eec933e	0.46206087
181	0xbeb92c79	-0.36166742
182	0x3f0ec333	0.557666
183	0xbe11435d	-0.14185853
184	0x3d95c9d9	0.0731389
185	0x3e98ca35	0.29841772
186	0xbe4ef119	-0.20209159
187	0xbe36e947	-0.17862426
188	0xbd360a94	-0.04444368
189	0x3df7eaca	0.12105329
190	0xbefeb388	-0.49746346
191	0xbeb4032b	-0.35158667
192	0x3d7c20a5	0.06155457
193	0xbd530815	-0.05152138
194	0x3ddd4544	0.10804227
195	0x3ef29bf4	0.47384608
196	0xbe9133e5	-0.28359905
197	0x3ececbe1	0.40389922
198	0x3de102ea	0.10986884
199	0x3ed59371	0.4171405
200	0xbec804d7	-0.39066193
201	0x3d837c56	0.064201996
202	0x3d28eaaa	0.041239418
203	0xbeed4cb9	-0.46347597
204	0x3f0417a1	0.51598555
205	0xbecf6e71	-0.40513948
206	0x3f0b297b	0.5436017
207	0x3db8346d	0.089943744
208	0x3eda225c	0.4260434
209	0xbec5bc4e	-0.38620228
210	0xbe84b18f	-0.25916716
211	0x3dd31eb7	0.10308593
212	0x3ec1e569	0.3787034
213	0x3ea2995d	0.31757632
214	0xbed0517d	-0.4068717
215	0x3d02ab33	0.03190155
216	0xbd2e18bc	-0.042504057
217	0x3e8b41b0	0.27198553
218	0xbf07572c	-0.5286739
219	0xbea351c9	-0.31898335
220	0xbe956c51	-0.291842
221	0xbebc6bf0	-0.368011
222	0x3dc4ece8	0.09615499
223	0xbe9d4ae4	-0.307212
224	0xbd205210	-0.03914076
225	0x3ee4f29b	0.44716343
226	0xbe501a20	-0.20322466
227	0xbede5106	-0.4342119
228	0xbe070493	-0.13185339
229	0x3f0f46cd	0.5596741
230	0x3e9844ce	0.29739994
231	0xbdb9b786	-0.090682074
232	0x3f13006b	0.5742251
233	0x3e32bd81	0.17455103
234	0x3efd66c6	0.49492472
235	0xbeddb270	-0.433002
236	0x3de9494d	0.11390934
237	0xbeef35ec	-0.46720827
238	0xbd47d243	-0.048784506
239	0xbecb304b	-0.39685282
240	0xbe1b5ca2	-0.15172055
241	0x3e9d38fb	0.30707535
242	0x3df5eb4c	0.1200777
243	0xbeeed747	-0.4664862
244	0xbb9409cf	-0.004517771
245	0x3ece1897	0.40253136
246	0x3eb02fe4	0.34411538
247	0xbe1d52ee	-0.15363666
248	0xbe3b0036	-0.18261799
249	0xbe9e2ca5	-0.30893436
250	0x3e43c62a	0.19118562
251	0x3e8bdf08	0.27318597
252	0x3dc126d8	0.09431237
253	0xbf0adfb6	-0.54247606
254	0xbe6a043b	-0.22853176
255	0xbf10dc97	-0.56586593

net.2.weight f4 [256, 256]
0	0xbd4efafd	-0.05053233
1	0x3d47b056	0.04875215
2	0x3c40e629	0.011773624
3	0x3d5dd176	0.054154836
4	0xbd304e0e	-0.04304319
5	0x3c7e5ec2	0.015525522
6	0x3c916a67	0.017750932
7	0xbc9b9db1	-0.018996092
8	0x3d1d34e2	0.03838051
9	0xbd44abd6	-0.048015438
10	0xbd387d93	-0.045041632
11	0x3c01b176	0.007915845
12	0xbcf90e5c	-0.030402355
13	0xbcc865e5	-0.02446265
14	0x3ba3eb79	0.0050024358
15	0xbd0e70d1	-0.03477556
16	0xbc58a4d2	-0.01322289
17	0xbd3d8a4a	-0.04627446
18	0x3c852ab5	0.016255716
19	0xbc67bf8f	-0.014144792
20	0xbbeb0dde	-0.007173284
21	0xbd4c9cfb	-0.049954396
22	0x3d23ada7	0.03996053
23	0xbd7bc166	-0.061463736
24	0xbad9577a	-0.0016581856
25	0xbce1af56	-0.027549427
26	0x3b4af6dd	0.0030969896
27	0x3cbca357	0.023027105
28	0xbc9d7fca	-0.019225974
29	0xbd02ddb1	-0.031949703
30	0xbd3aac30	-0.045574367
31	0xbd0f7b5d	-0.035029758
32	0x3bfc96a5	0.007708388
33	0xbb7ff9fa	-0.003905891
34	0x3d442cbc	0.047894225
35	0xbcac479c	-0.02103024
36	0xbbd37e11	-0.0064542373
37	0x3cad05e9	0.021120982
38	0x3ce3e708	0.027820125
39	0xbd0235f5	-0.03178974
40	0x3d1cf685	0.038321037
41	0x3b7e17fe	0.0038771625
42	0x3d5bb4e0	0.053639293
43	0x3b7c06e8	0.0038456265
44	0x3c966b90	0.018361837
45	0xbd5a1b73	-0.053248834
46	0x3c86d395	0.016458312
47	0xbd107337	-0.035266127
48	0x3d16ccff	0.036816593
49	0x3d786567	0.06064358
50	0x3d0c66cb	0.03427772
51	0xb9f3d78c	-0.00046509167
52	0x3c848be9	0.016179996
53	0x3c4a78ce	0.012357904
54	0x3a898be0	0.0010493957
55	0x3bdceebb	0.006742326
56	0x3d19b54c	0.037526414
57	0xbd384bdf	-0.04499423
58	0x3cdb3370	0.026757926
59	0x3be87fe9	0.007095326
60	0xbb7baa1b	-0.0038400951
61	0x3cb3eee8	0.021964505
62	0x3d33ca9c	0.043894395
63	0x3d62d875	0.05538221
64	0xbd5613f6	-0.05226513
65	0xbc0484da	-0.008088315
66	0xbcc69845	-0.02424253
67	0x3bf856f2	0.007578724
68	0x3c9b5e62	0.018965904
69	0xbd31497e	-0.04328298
70	0xbccbfa57	-0.024899645
71	0xbd5cb33e	-0.053881876
72	0x3cf69cc6	0.030104052
73	0x3d553277	0.05205008
74	0x3d536656	0.051611267
75	0xbcf503a9	-0.029908972
76	0xbd18ef3f	-0.037337538
77	0xbcdb7199	-0.026787566
78	0x3cc74b3e	0.02432787
79	0xbca2c454	-0.019869007
80	0xbd3a82f4	-0.045535043
81	0x3d31397c	0.043267712
82	0xbcf438f0	-0.029812306
83	0x3d67162f	0.05641764
84	0xbd8216a0	-0.063519716
85	0xbd5a25a8	-0.053258568
86	0xbd3675a2	-0.044545777
87	0xbc691baa	-0.014227787
88	0xbd41acf4	-0.04728408
89	0x3d290a13	0.041269373
90	0x3b25f88e	0.0025325152
91	0x3d2e9338	0.042620867
92	0x3d128464	0.03577079
93	0xbc60a306	-0.013710743
94	0x3c09fc79	0.008422011
95	0x3c404a6f	0.011736496
96	0xbd1fdb35	-0.03902741
97	0xbcb68ef4	-0.022284962
98	0xbca4acbb	-0.020101896
99	0xbd267b78	-0.040645093
100	0x3cf0a173	0.02937386
101	0xbd7bd407	-0.061481502
102	0x3d193c11	0.0374108
103	0x3d1ddb26	0.038539074
104	0x3d0812ef	0.03322118
105	0x3b8fc307	0.0043872627
106	0xbc5b9bc0	-0.013403833
107	0x3d392f4f	0.045211133
108	0xbc1647b9	-0.009172373
109	0x3d0fce0e	0.03510862
110	0x3cef6a29	0.029225426
111	0x3d76c104	0.060242668
112	0xbd150a34	-0.036386684
113	0x3d128e63	0.03578032
114	0xbc56fa33	-0.013121176
115	0xbd0398d2	-0.032128163
116	0xbd544afb	-0.05182932
117	0xbd1b710d	-0.03794961
118	0xbc9b1173	-0.018929219
119	0xbd28b99c	-0.041192636
120	0x3d4a9112	0.049454756
121	0x3cfe30bd	0.0310291
122	0x3d56c37d	0.052432526
123	0xbd0f7ee7	-0.035033133
124	0x3c74d601	0.014943601
125	0xbcf7fce8	-0.030271962
126	0x3c652c3d	0.013987598
127	0x3bbd1969	0.0057708514
128	0x3cb6d35a	0.022317577
129	0xbcfb49dd	-0.03067487
130	0xbd25dd5c	-0.040494308
131	0xbd38d70b	-0.045126956
132	0xbd0ea2a4	-0.034823075
133	0x3cc6850d	0.024233365
134	0xbd329a87	-0.0436044
135	0x3cb37bd1	0.021909626
136	0xbd6b21b5	-0.057405192
137	0xbc7673e7	-0.015042282
138	0xbd2fc5e4	-0.042913333
139	0x3d6c2b10	0.057658255
140	0x3d0b47a9	0.034003887
141	0x3c7a722b	0.015286009
142	0x3d3c4296	0.04596194
143	0xbcfb443f	-0.03067219
144	0x3ca59a66	0.020215224
145	0xbd1a294f	-0.03763705
146	0xbd28156f	-0.041036066
147	0xbd5aaebb	-0.053389292
148	0x3d0d9655	0.034567196
149	0xbb1ed838	-0.0024237763
150	0xbd03a576	-0.032140218
151	0xbc9f9c79	-0.019483792
152	0xbc848528	-0.016176775
153	0x3d3d87e0	0.04627216
154	0xbd427649	-0.047476087
155	0x3cf9cd22	0.030493323
156	0xbd1b413e	-0.037904017
157	0xbd086607	-0.033300426
158	0x3c99326f	0.018700806
159	0x3d7d497d	0.061837662
160	0x3a14eed2	0.0005681339
161	0x3c6411aa	0.013920227
162	0xbd1f0cdb	-0.03883062
163	0x3d64f346	0.055896066
164	0xbce5576f	-0.027995793
165	0x3d1f8514	0.038945273
166	0x3d0eb49e	0.03484022
167	0xbd21f0de	-0.03953635
168	0x3d1c1147	0.038102414
169	0xbccd151b	-0.025034478
170	0x3c08230d	0.008309138
171	0x3c062b77	0.008189074
172	0xbd3e6e26	-0.046491764
173	0x3c64d221	0.013966114
174	0x3d7ca954	0.06168492
175	0xbd360946	-0.044442438
176	0xbd00a72e	-0.031409435
177	0xbc765f0e	-0.015037311
178	0xbd3f43b7	-0.046695437
179	0x3b9c843a	0.004776505
180	0x3c820c4b	0.015875002
181	0x3ce20609	0.027590768
182	0x3d6b1a41	0.057398085
183	0x3d7fdcea	0.06246654
184	0x3c55dc4f	0.013053014
185	0x3bbd711f	0.0057813074
186	0x3c45137a	0.012028569
187	0x3d1abfca	0.03778056
188	0xbd2677b9	-0.04064152
189	0xbac47c6f	-0.0014990697
190	0xbcda8ee9	-0.026679473
191	0x3d6aef78	0.05735728
192	0x3d3bddac	0.0458657
193	0x3ca587e9	0.020206409
194	0xbd03ba24	-0.03215994
195	0xbd682574	-0.056676343
196	0xbca91c8c	-0.020643495
197	0xbd2cff4a	-0.04223565
198	0xbc9be710	-0.019031078
199	0x3cde505e	0.027137931
200	0x3d47a78f	0.04874378
201	0xbba4b8ca	-0.0050269114
202	0xbd5d416e	-0.054017477
203	0x3d3f04e9	0.046635542
204	0xbd335201	-0.043779377
205	0x3d4bac95	0.049725134
206	0x3d67b26b	0.056566637
207	0x3cf594e7	0.029978229
208	0x3d3ee7db	0.046607833
209	0x3d0175aa	0.031606354
210	0x3cb2ba9f	0.021817503
211	0xbd1338a2	-0.03594268
212	0xbd04fa6d	-0.032465387
213	0xbd3197ca	-0.043357648
214	0xbca0cec2	-0.01962984
215	0xbca9c763	-0.020724958
216	0xbcb165c0	-0.021654963
217	0x3d448ae9	0.047984038
218	0x3d34729f	0.044054624
219	0xbd27d32b	-0.04097287
220	0xbce79185	-0.028267631
221	0x3c639508	0.013890512
222	0x3d2af10e	0.041733794
223	0xbc148186	-0.009064084
224	0xbd5b1a98	-0.05349216
225	0xbca2cdb2	-0.019873474
226	0x3d17ba6d	0.037043024
227	0x3b355b2e	0.0027672756
228	0x3c4cad04	0.012492422
229	0x3d31ca1d	0.04340564
230	0x3c237135	0.009975721
231	0x3c8f4046	0.017486703
232	0x3d5bdc0e	0.053676657
233	0x3d5e6bcf	0.054302033
234	0x3b8a2bdd	0.0042166547
235	0x3d0a3267	0.033739474
236	0x3cf58e77	0.02997516
237	0x3cdc94ff	0.026926516
238	0xbd6bcfb6	-0.057571135
239	0xbc3a08d1	-0.011354641
240	0x3cfa6763	0.030566877
241	0x3bc9ffcf	0.006164528
242	0x3d1ab8a9	0.037773762
243	0x3ce644df	0.028109012
244	0xbc770d82	-0.015078904
245	0x3c8e4d18	0.017370746
246	0x3d6feace	0.058573537
247	0x3d0b58aa	0.034020104
248	0x3cab7d12	0.020933662
249	0xbae92fc9	-0.001779073
250	0x3aa13ea8	0.0012301998
251	0xbd78f1a5	-0.060777325
252	0x3d8081ca	0.06274755
253	0x3d126acf	0.03574639
254	0x3c25530d	0.010090602
255	0x3ce0e00d	0.027450586

net.2.bias f4 [256]
0	0x3d4c0548	0.049809724
1	0x3d18ae4e	0.037275605
2	0xbd2e4c76	-0.042553388
3	0x3d195554	0.03743489
4	0x3d3a2fa7	0.0454556
5	0xbd51e7d0	-0.051246464
6	0xbc9bb738	-0.019008264
7	0xbd1a9e1f	-0.037748452
8	0x3d6b6e87	0.057478454
9	0x3d670be2	0.056407817
10	0x3cf3acb9	0.029745447
11	0xbcaac85c	-0.020847492
12	0x3d550c2c	0.05201356
13	0x3d4e5ac1	0.05037952
14	0xba5d0404	-0.00084310793
15	0x3d482c9d	0.04887067
16	0x3cf68352	0.030091915
17	0x3d30e122	0.043183453
18	0x3bb196a9	0.0054195714
19	0xbd6fc6bc	-0.058539137
20	0xbc2d0353	-0.010559875
21	0x3ca26af2	0.019826386
22	0xbcfbb505	-0.030725965
23	0xbcd4134c	-0.025888108
24	0x3ce6c406	0.028169643
25	0x3d0b1141	0.033952
26	0xbd348fa3	-0.044082295
27	0xbc8bed86	-0.017081033
28	0x3ce13881	0.027492763
29	0xbbfeee8d	-0.0077799023
30	0x3b871525	0.0041223937
31	0xbce4c5ff	-0.027926443
32	0xbc799916	-0.015234252
33	0x3d78890c	0.060677573
34	0xbd4a34e4	-0.049366847
35	0x3ca96a9e	0.020680722
36	0x3b874181	0.0041276817
37	0x3d4efdb3	0.050534915
38	0x3d824ed8	0.063626945
39	0x3c10caec	0.008837443
40	0xbd3358c0	-0.04378581
41	0xbd3258e3	-0.0435418
42	0x3d70fb31	0.058833305
43	0xbd11e744	-0.035620943
44	0x3c9ca75b	0.01912277
45	0x3d826164	0.06366232
46	0x3c84ff6a	0.016235072
47	0xbcc570dd	-0.024101669
48	0xbce81a2e	-0.028332796
49	0xbc0a2248	-0.008431025
50	0x3ca27527	0.019831253
51	0xbd20c6a5	-0.039251942
52	0xbcff455f	-0.031161008
53	0xbd34aa8f	-0.04410797
54	0xbcb98673	-0.022647118
55	0x3c9de5dc	0.019274645
56	0xbcfed7bd	-0.031108731
57	0xbbf7be43	-0.0075605228
58	0x3cddd7ae	0.027080383
59	0xbc855138	-0.01627408
60	0x3d55de2c	0.052213833
61	0xbca8947b	-0.020578614
62	0xbd5ccb9b	-0.05390511
63	0xbd347c28	-0.044063717
64	0x3b5fad55	0.0034130414
65	0x3c015e4a	0.007896015
66	0x3cad65bf	0.02116668
67	0x3bde2ae8	0.006780017
68	0x3d669592	0.056294985
69	0x3d0cd3ab	0.03438155
70	0xbc0740f3	-0.008255231
71	0xbcf37c29	-0.02972229
72	0xbc5d4da7	-0.013507283
73	0x3d14185d	0.036156047
74	0xbc91bdc2	-0.017790679
75	0x3c76eac1	0.015070618
76	0xbd09a837	-0.033607688
77	0x3d4fe6bc	0.050757155
78	0x3d602d14	0.05473049
79	0x3cb18d88	0.021673933
80	0xbd1e6fa8	-0.038680702
81	0x3c181c1d	0.0092840465
82	0xbc24f447	-0.010068006
83	0x3d313136	0.04325982
84	0xbd311778	-0.043235272
85	0x3d698601	0.05701256
86	0xbcfe1506	-0.031015884
87	0x3ce7ea98	0.028310105
88	0xbd6ba9c6	-0.057534955
89	0xbcd49fbf	-0.02595508
90	0xbd316ea3	-0.043318402
91	0xbd63142b	-0.055439156
92	0xbc7de3b2	-0.015496181
93	0x3d46b098	0.048508257
94	0xbd1d3fbf	-0.03839087
95	0x3d1190c4	0.03553845
96	0x3d24873f	0.040168043
97	0x3d5d3cd4	0.05401309
98	0x3cc5567b	0.024089089
99	0xbc84dbf0	-0.016218156
100	0x3ce62919	0.028095769
101	0x3d14d04e	0.036331467
102	0xbb10ffa5	-0.0022125032
103	0xbd1939d2	-0.037408657
104	0x3cd0637c	0.025438063
105	0x3cb99507	0.02265407
106	0x3d451c43	0.048122656
107	0xbd1ef709	-0.03880981
108	0xbd80b4f3	-0.06284513
109	0xb9b2de30	-0.00034116348
110	0xbc862452	-0.01637474
111	0x3cc5d309	0.024148481
112	0x3c8c6b9d	0.017141158
113	0xbd140163	-0.036134135
114	0xbcdbe222	-0.026841227
115	0xbcbd7e0c	-0.023131393
116	0x3d427cff	0.047482487
117	0xbd3c6d0e	-0.04600244
118	0x3cffcf0f	0.031226663
119	0x3d1ca547	0.03824356
120	0x3d0f3ccc	0.03497009
121	0xbcb77d05	-0.022398481
122	0xbd2c92d5	-0.042132217
123	0x3cd865be	0.026415702
124	0x3d2775f2	0.040883966
125	0x3c8ac06a	0.016937453
126	0xbd446be7	-0.047954466
127	0xbd0a962e	-0.03383463
128	0x3c0d6646	0.008630341
129	0x3b91966c	0.0044429805
130	0xbd481c77	-0.04885527
131	0x3d1eb207	0.038744
132	0xbd56db8d	-0.052455474
133	0x3cdc28a0	0.02687484
134	0xbd519de8	-0.05117598
135	0x3cbd8559	0.023134874
136	0xbc152ce7	-0.009104944
137	0x3d2d9867	0.04238167
138	0x3d63c68b	0.055609267
139	0x3bc70ecd	0.0060747624
140	0x3d74dbd3	0.059779953
141	0x3c109eac	0.008826893
142	0x3d2feefb	0.04295252
143	0x3d3d56c8	0.04622534
144	0x3d7db25f	0.061937686
145	0x3a578b38	0.00082223443
146	0xbd81c173	-0.06335726
147	0x3c940469	0.01806851
148	0x3d78e6b2	0.060766883
149	0x3d74cd3c	0.05976604
150	0x3c686a69	0.014185526
151	0x3cde12c1	0.027108552
152	0xbc2737e3	-0.0102061955
153	0xbc75fae1	-0.0150134275
154	0x3d3e57b9	0.046470378
155	0x3d2721f5	0.04080387
156	0xbd44d553	-0.048055004
157	0xbd317bbf	-0.043330904
158	0xbd509438	-0.050922602
159	0x3d672cfa	0.056439377
160	0x3d01086e	0.03150218
161	0x3d8371f0	0.06418216
162	0x3d71f7d9	0.059074257
163	0xbd13cdd8	-0.03608498
164	0xbcd6af16	-0.026206534
165	0xbc7761a1	-0.01509896
166	0xbcf91d61	-0.030409517
167	0xbcd3a4e3	-0.02583546
168	0x3d34b161	0.044114474
169	0xbc1e92b6	-0.009678533
170	0x3cfd60e7	0.030929996
171	0x3d4e8759	0.050422046
172	0x39776076	0.0002359169
173	0xbcc4c300	-0.024018764
174	0xba95aa62	-0.0011418576
175	0xbd3272b1	-0.04356641
176	0xbcf04787	-0.029330982
177	0xbcffbc5c	-0.031217746
178	0x3b5c9592	0.0033658487
179	0x3b1c1a0b	0.0023819234
180	0x3c433711	0.011914984
181	0xbc57fb02	-0.0131824035
182	0x3d4c0ddd	0.04981791
183	0xbbd965d0	-0.0066344514
184	0xbb832e2c	-0.004003307
185	0x3cc6d760	0.02427262
186	0xbd5e13d0	-0.054218113
187	0xbd6b189a	-0.05739651
188	0x3c9c9d6d	0.019118035
189	0xbd3bd12a	-0.04585377
190	0x3cb7292b	0.022358498
191	0x3d376999	0.04477844
192	0x3d285018	0.04109201
193	0x3d3a0de7	0.045423415
194	0x3d1107e6	0.035407923
195	0x3c322b08	0.010874517
196	0xbd08544e	-0.033283524
197	0xbceab12a	-0.028648932
198	0x3d514e4c	0.05110006
199	0xbc774674	-0.015092481
200	0xbcb035b1	-0.021509977
201	0xbd40c4ee	-0.047062807
202	0xbc1d02c2	-0.009583177
203	0xbd0821c0	-0.03323531
204	0x3d0f6762	0.035010703
205	0xbc458772	-0.012056218
206	0xbd2a2b2a	-0.04154507
207	0xbc99c232	-0.018769357
208	0x3d35ecf0	0.044415414
209	0x3d543891	0.05181176
210	0xbd741834	-0.059593394
211	0xbb8f5be8	-0.0043749698
212	0xbd532460	-0.05154836
213	0xbcb1708f	-0.021660117
214	0x3d6e1643	0.0581267
215	0x3c8a734c	0.016900681
216	0xbd2af2d5	-0.04173549
217	0x3bfd3c32	0.007728123
218	0xbd2f9b56	-0.04287275
219	0x3cadfdaf	0.02123913
220	0x3ca38e2e	0.019965257
221	0x3cc165b1	0.02360806
222	0x3d633410	0.055469573
223	0x3d7160ab	0.05893008
224	0xbc97b22f	-0.018517582
225	0x3cfcc6c6	0.030856501
226	0x3d3aa7a5	0.045570035
227	0x3ca28dd2	0.019843016
228	0xbc92101e	-0.01782995
229	0xbcfba29c	-0.030717187
230	0xbd18e2af	-0.037325557
231	0x3b83115d	0.0039998726
232	0xbd3b302f	-0.04570025
233	0xbd51c2c3	-0.05121113
234	0xbc119e30	-0.0088878125
235	0xbcd6b5cc	-0.026209734
236	0xbc12e8e5	-0.008966659
237	0x3cc82517	0.024431748
238	0xbd3c8618	-0.04602632
239	0x3ab34c54	0.0013679364
240	0x3a914dbd	0.001108579
241	0xbc437ac1	-0.011931122
242	0x3cc89e5d	0.024489576
243	0x3d357d78	0.04430911
244	0xbc322cd7	-0.010874948
245	0xbd4ac1cd	-0.04950123
246	0x3c88ee79	0.016715275
247	0x3d2a1ed5	0.04153331
248	0xbb87448f	-0.004128046
249	0xbada4c63	-0.0016654845
250	0xbd71cfc1	-0.05903602
251	0xbcacb4c6	-0.021082293
252	0xbd09f3e0	-0.033679843
253	0xbceae734	-0.0286747
254	0x3cce2fac	0.025169216
255	0x3ccffd70	0.025389403

net.4.weight f4 [256, 256]
0	0x3d38ffa3	0.04516567
1	0xbcd163f2	-0.025560353
2	0xbd42f75a	-0.047599174
3	0xbd66c223	-0.056337487
4	0x3b9ac95f	0.0047237123
5	0x3d257c90	0.040401995
6	0x3d5000ed	0.050782133
7	0x3cd5b222	0.026085917
8	0x3d36148e	0.044453196
9	0x3d774583	0.060369026
10	0xbcbd8aff	-0.023137568
11	0x3cb852e7	0.022500468
12	0xbcfac4b8	-0.030611381
13	0xbc12e02d	-0.0089645805
14	0xbc541673	-0.012944805
15	0x3cd0d69d	0.02549296
16	0x3c9abf22	0.018889967
17	0x3bbffe57	0.005859177
18	0x3d564145	0.05230834
19	0xbc1dd55c	-0.009633388
20	0xbd536349	-0.051608358
21	0x3cfce6a4	0.030871697
22	0xbd1b8f50	-0.03797847
23	0x3ae32713	0.0017330371
24	0x3cf98b61	0.030461969
25	0x3d030ac8	0.031992704
26	0x3cb9c892	0.022678647
27	0x3d072d5a	0.033002235
28	0x3c9762a0	0.018479645
29	0xbd55c4ce	-0.05218964
30	0x3d681c61	0.05666769
31	0xbc326e16	-0.010890504
32	0xbd07157b	-0.03297947
33	0x3c1ae3f0	0.009453759
34	0xbd6a4e0f	-0.05720335
35	0x3c0b20f6	0.008491745
36	0xbbb8ba16	-0.0056374175
37	0xbd330fb4	-0.043716148
38	0x3ca77768	0.02044268
39	0x3ce56bd7	0.028005524
40	0x3cd3b66a	0.025843818
41	0x3d515d8b	0.0511146
42	0xbd6af347	-0.057360914
43	0xbd6827fc	-0.056678757
44	0xbd39e077	-0.045380082
45	0x3b145dbe	0.0022638883
46	0xbcbb8b91	-0.022893699
47	0xbcd05661	-0.025431814
48	0x3d5200bc	0.05127023
49	0x3d1c8074	0.03820844
50	0x3cea2633	0.028582668
51	0xbd1f6076	-0.03891035
52	0x3adeacb2	0.0016988723
53	0xbbecc55a	-0.0072256746
54	0x3cf3a15e	0.029740032
55	0xbc9e2d04	-0.019308574
56	0x3d0ccd9a	0.034375764
57	0xbc399a79	-0.011328333
58	0xbd37e80e	-0.04489904
59	0x3c496996	0.01229324
60	0x3c9c3556	0.019068401
61	0x3d2c9cf4	0.04214187
62	0xbbb36162	-0.0054742554
63	0x3d7406f3	0.05957694
64	0xbcbbca90	-0.022923738
65	0xbd780142	-0.060548075
66	0xbc75581c	-0.01497462
67	0x3bde87b8	0.0067910813
68	0x3b0681c2	0.002052412
69	0x3d159063	0.03651465
70	0xbc3faff5	-0.011699666
71	0x3c4ab7fd	0.012372968
72	0x3d82ddef	0.06389987
73	0xbd26a937	-0.04068872
74	0x3bb8f2ad	0.0056441636
75	0xbcee182d	-0.029064262
76	0xbd7b1589	-0.061299834
77	0x3d616d7a	0.055036046
78	0x3d5808a7	0.052742627
79	0x3d187f33	0.03723068
80	0xbc7face8	-0.015605189
81	0xbcbfc172	-0.023407672
82	0x3d47d310	0.04878527
83	0xbc875e54	-0.016524471
84	0xbd726bcf	-0.059184846
85	0xbca8cbde	-0.020605024
86	0x3d60d0fd	0.054886807
87	0xbce9f1d8	-0.028557703
88	0x3d67a0af	0.056549724
89	0x3d4370ca	0.047714986
90	0xbd26aa3c	-0.040689692
91	0x3d7ca553	0.061681103
92	0x3b97660c	0.004620319
93	0x3c624dc7	0.013812489
94	0xbd63b154	-0.055589035
95	0xbc6c21e2	-0.014412375
96	0x3ce654d1	0.028116615
97	0xbcd5c950	-0.02609697
98	0xbd1aaca5	-0.037762303
99	0xbb97f127	-0.004636902
100	0x3caf767a	0.021418799
101	0xbcfa763c	-0.030573957
102	0x3d60d5d6	0.05489143
103	0xb852dcb9	-5.0273466e-05
104	0x3c8fe981	0.017567398
105	0x3d382561	0.044957522
106	0x3c65b4b5	0.014020135
107	0x3b3191ca	0.0027094954
108	0xbd5f9b22	-0.054591306
109	0x3d780e7b	0.060560685
110	0xbc92f4b8	-0.017938957
111	0x3d076096	0.033051096
112	0xbcf34452	-0.029695664
113	0xbd142e38	-0.03617689
114	0x3d5ca137	0.053864684
115	0xbcebe869	-0.028797345
116	0x3cfe6398	0.03105335
117	0x3d5612cf	0.05226403
118	0x3d594ff8	0.05305478
119	0x3c61f7cd	0.0137919905
120	0x3d255ead	0.040373493
121	0x3c1766a2	0.009240778
122	0xbd7928aa	-0.060829796
123	0x3c9bf9e6	0.01904006
124	0xbd4792b0	-0.048723876
125	0x3c95f917	0.018307252
126	0xbbb0fdef	-0.005401365
127	0x3d1596dd	0.036520828
128	0xbcc7ae80	-0.0243752
129	0xbd212e66	-0.03935089
130	0xbc239669	-0.009984591
131	0xbc97c2fc	-0.018525593
132	0x3b1b1b4d	0.0023667396
133	0x3bfc1ae1	0.007693634
134	0x3d1b8b6b	0.037974756
135	0x3ba5d06a	0.0050602453
136	0xbc7a31fd	-0.015270707
137	0x3cafb7e9	0.02145
138	0xbd08d323	-0.03340448
139	0xbd3de258	-0.046358436
140	0xbd6909c8	-0.056894094
141	0xba0428fe	-0.00050415087
142	0xbd5d9621	-0.054098252
143	0xbd0a589b	-0.033775907
144	0xbca82a41	-0.02052796
145	0x3b70680b	0.0036683108
146	0xbd176da0	-0.03696978
147	0xbabf56f5	-0.0014598059
148	0xbd262e54	-0.040571526
149	0x3cea85aa	0.02862819
150	0x3d340bcd	0.043956567
151	0x3d109783	0.035300743
152	0xbc204dbf	-0.009784161
153	0xbce83868	-0.02834721
154	0xbc041373	-0.008061278
155	0x3d2cd4c4	0.042195097
156	0x3cce52bf	0.02518594
157	0xbc1c6fb8	-0.00954812
158	0xbd0abb3c	-0.033869967
159	0xbc84e198	-0.016220853
160	0x3c2652d0	0.01015158
161	0xb9d17978	-0.00039954088
162	0x3c608636	0.013703873
163	0xbd0f4db8	-0.034986228
164	0xbc63887d	-0.013887522
165	0x3d18a267	0.037264254
166	0xbd42e03b	-0.047577124
167	0xbb14a924	-0.0022683823
168	0x3d53c0ed	0.05169766
169	0xbbe04f59	-0.0068453965
170	0xbd33cf7e	-0.04389905
171	0x3cdc6e0a	0.02690794
172	0xbca5ad74	-0.02022431
173	0x3d243240	0.040086985
174	0xbb9e8497	-0.0048375833
175	0xbbe10d33	-0.0068680285
176	0x3d584ae9	0.052805815
177	0xbd354344	-0.044253603
178	0xbd5ccfdb	-0.053909164
179	0xbb8d4805	-0.004311564
180	0xbd1d993d	-0.038476218
181	0xbd635361	-0.05549944
182	0xbd43f3f3	-0.04784007
183	0xbd0bde49	-0.034147535
184	0xbcfdee64	-0.030997463
185	0xbcb1b3a5	-0.021692107
186	0x3d34affd	0.044113148
187	0xbc76abd8	-0.015055619
188	0x3c2cc1b5	0.01054423
189	0xbcd951bd	-0.026528234
190	0xbd0a8086	-0.033813976
191	0xbd06dd70	-0.032926023
192	0xbcc98022	-0.024597231
193	0xbd0fd79c	-0.03511773
194	0xbd689325	-0.056780953
195	0x3d709dff	0.058744427
196	0xbcf98934	-0.030460931
197	0x3ca57c04	0.020200737
198	0x3d2da657	0.042394962
199	0x3c84f249	0.016228812
200	0x3d7bb17a	0.06144855
201	0x3c353e0e	0.011062158
202	0x3c050b1e	0.008120326
203	0x3d120b9c	0.035655603
204	0x39bc0479	0.00035861487
205	0x3d427671	0.047476236
206	0x3aea52b4	0.0017877431
207	0x3cd3649d	0.025804812
208	0x3d6c427a	0.057680584
209	0xbc614264	-0.013748739
210	0xbd0143f2	-0.03155894
211	0x3d7a0537	0.06104013
212	0x3c587b84	0.013213042
213	0x3d501c55	0.05080827
214	0x3ba0b80e	0.0049047535
215	0xbd21475a	-0.039374687
216	0x3d5e595f	0.05428445
217	0xbcfaf813	-0.03063587
218	0xbbaa96a8	-0.005205948
219	0xbd3b365b	-0.045706134
220	0x3c94ac94	0.018148698
221	0x3d1271f2	0.035753198
222	0x3c451eec	0.012031298
223	0xbc5fab72	-0.013651716
224	0x3c37d5a4	0.0112203695
225	0x3c3a9273	0.011387455
226	0x3d3d4469	0.04620782
227	0x3d779ab4	0.06045027
228	0xbd821c0a	-0.06353004
229	0x3d13d558	0.036092132
230	0x3d0f96cb	0.035055917
231	0xbcbe37b0	-0.023219913
232	0x3c875ba8	0.016523197
233	0xb9619f9c	-0.00021517131
234	0xbd3877d6	-0.04503616
235	0xbd1f066b	-0.03882448
236	0x3ab60ed6	0.001388992
237	0xb9d406f5	-0.00040440974
238	0x3cce6ba7	0.025197817
239	0xbc029807	-0.007970816
240	0xbc391927	-0.011297501
241	0xbcd861b3	-0.026413774
242	0x3cf2d81f	0.02964407
243	0x3c68b505	0.014203315
244	0x3d3d5789	0.04622606
245	0x3c8add99	0.01695137
246	0xbd66fc19	-0.056392763
247	0x3d4b1f4c	0.049590394
248	0x3d460394	0.048343256
249	0x3c0b9d76	0.008521428
250	0x3d04ac4d	0.03239088
251	0xbc1d58ef	-0.009603723
252	0xbc8049d8	-0.015660211
253	0x3ce52e3f	0.027976153
254	0x3d6ddd62	0.058072455
255	0xbcd109e3	-0.02551741

net.4.bias f4 [256]
0	0xbd57a42a	-0.052646793
1	0xbd3ca315	-0.046053965
2	0xbc8f4779	-0.017490136
3	0xbcf65206	-0.030068409
4	0xbd38a0d2	-0.045075245
5	0x3d650786	0.055915378
6	0xbcf63bd2	-0.030057821
7	0xbb43a422	-0.002985247
8	0xbd758592	-0.059941836
9	0x3d36c18a	0.044618167
10	0xbd0b004a	-0.033935823
11	0x3d27cc3d	0.04096626
12	0x3cfded50	0.030996948
13	0x3d02fd44	0.031979814
14	0x3cedb9b2	0.02901921
15	0x3d03f1a0	0.032212853
16	0xbd27275f	-0.04080903
17	0x3b110c2f	0.0022132506
18	0x3cea7d42	0.02862418
19	0xbd47bd12	-0.048764296
20	0xbc9030f9	-0.017601477
21	0xbc44a877	-0.012003056
22	0xbd04da6e	-0.032434873
23	0x3d3bd48f	0.04585701
24	0x3c48dc10	0.012259498
25	0xbd83cd59	-0.06435651
26	0x3c9182cf	0.01776257
27	0x3d12661c	0.03574191
28	0xbce9e158	-0.028549835
29	0x3d557308	0.052111655
30	0x3d75289c	0.05985318
31	0x3d6fb780	0.05852461
32	0x3d067114	0.032822683
33	0xbad834d7	-0.001649524
34	0xbd3de320	-0.04635918
35	0xbcd2255d	-0.025652582
36	0x3ce04920	0.027378619
37	0x3cfea238	0.031083211
38	0x3d239ff5	0.03994747
39	0xbc5570bb	-0.013027365
40	0x3ca75832	0.020427797
41	0xbd3601b8	-0.044435233
42	0x3d77bf92	0.06048543
43	0xbc8e5d9f	-0.017378626
44	0xbd6733c6	-0.05644586
45	0xbd2916e3	-0.041281592
46	0xbd0bc56e	-0.03412383
47	0xbcc5db8b	-0.024152538
48	0xbd137063	-0.035995852
49	0x3d3aae91	0.045576636
50	0xbd7b0398	-0.061282724
51	0x3bb0f4a1	0.005400256
52	0xbd3c8ff8	-0.046035737
53	0x3c7c5d4c	0.015403103
54	0xbd4e598f	-0.05037838
55	0x3d5570fc	0.052109703
56	0xbd76d0b5	-0.060257632
57	0x3c018b3e	0.007906733
58	0x3d3cb4b6	0.046070777
59	0x3d544097	0.05181941
60	0x3ce68d40	0.028143525
61	0xbce6dc97	-0.028181357
62	0x3c901990	0.017590314
63	0x3d71783c	0.058952555
64	0x3d4715e2	0.048604853
65	0x3d2911c9	0.041276727
66	0xbb81e081	-0.0039635305
67	0x3d7ece8a	0.06220869
68	0x3d2fa03c	0.04287742
69	0x3c892321	0.016740384
70	0xbd082527	-0.033238556
71	0xbd5d77a7	-0.054069187
72	0x3d6f692c	0.05844991
73	0x3d3b7ae2	0.045771487
74	0x3b82288c	0.0039721187
75	0x3d6bf410	0.057605803
76	0xbcc188b8	-0.023624763
77	0xbc0e8b9c	-0.008700278
78	0x3bbc6579	0.005749401
79	0xbc310cac	-0.010806244
80	0xbcd21f54	-0.025649704
81	0xbcdf0b11	-0.027226957
82	0x3d03acfd	0.032147396
83	0xbc1c2aa0	-0.009531647
84	0xbd48a4a9	-0.048985157
85	0xbd76fcad	-0.060299564
86	0xbd2ecf08	-0.04267791
87	0x3cb2aea8	0.021811798
88	0x3c4ebb90	0.012617961
89	0xbcc5b439	-0.024133788
90	0x3d687d30	0.056760013
91	0xbc98067c	-0.01855778
92	0xbd0fb5d8	-0.03508553
93	0xbd15b7aa	-0.03655211
94	0xbc90f404	-0.01769448
95	0x3d070f85	0.032973785
96	0x3d7422c2	0.05960346
97	0x3d1a4ace	0.037668996
98	0xbccdc56b	-0.02511855
99	0xbccce204	-0.025010116
100	0xbcfb2bbc	-0.030660503
101	0x3cb928d1	0.02260247
102	0x3d6c8f7f	0.057754036
103	0x3cc269e8	0.02373214
104	0x3c8b20b2	0.016983364
105	0xbc2151b0	-0.009846136
106	0xbbdd70fb	-0.006757853
107	0xbd0b74df	-0.034047004
108	0x3c3ad900	0.011404276
109	0x3d3b3cc1	0.045712236
110	0xbc2b373b	-0.01045018
111	0xbc9c0a30	-0.019047827
112	0xbd59d833	-0.0531847
113	0xbc39ee8b	-0.011348377
114	0xbcb0eb46	-0.021596562
115	0x3bc4f3c9	0.006010507
116	0x3bb47c40	0.005507976
117	0x3d5d7524	0.054066792
118	0x3d543b0e	0.05181413
119	0x3c8285db	0.015932968
120	0x3d2f384a	0.04277829
121	0xbd839b33	-0.06426086
122	0x3d4d0dd5	0.05006202
123	0xbca6f292	-0.020379338
124	0xbc724187	-0.014786131
125	0xbd5106bc	-0.051031813
126	0xbc212d58	-0.009837471
127	0xbc12715c	-0.00893816
128	0xbc98df2b	-0.018661102
129	0xbd58bf55	-0.052916843
130	0xbcff7b6b	-0.03118678
131	0x3d19524e	0.037432007
132	0xbd56efc4	-0.052474752
133	0x3c88f9be	0.016720649
134	0x3b1787bf	0.0023121682
135	0xbab62225	-0.0013895674
136	0x3b08b405	0.0020859253
137	0xbd246d94	-0.040143564
138	0xbcccd99d	-0.02500611
139	0xbd20878b	-0.039191764
140	0x3c8f338e	0.017480638
141	0x3d0f62a0	0.035006166
142	0x3c90fa27	0.017697407
143	0xbc2b1ec2	-0.010444345
144	0xbd2e1176	-0.04249712
145	0x3c8a2375	0.01686261
146	0xbd4527c4	-0.048133627
147	0xbcbc18d1	-0.022961052
148	0xbd4ec7cf	-0.05048352
149	0x3d1f20d1	0.038849656
150	0xbc17beb7	-0.009261779
151	0x3d455f66	0.048186682
152	0xbcf67555	-0.030085245
153	0xbd6f5306	-0.058428787
154	0xbd7a2d3b	-0.06107829
155	0xbd7602d8	-0.060061306
156	0xbd07e6f5	-0.033179242
157	0x3cb90add	0.022588188
158	0xbaccf4ff	-0.0015636979
159	0xbd181f56	-0.03713926
160	0x3d75260a	0.05985073
161	0x3c5af71e	0.013364581
162	0xbb8471a2	-0.0040418664
163	0xbc19eea6	-0.009395277
164	0x3d39fe86	0.045408748
165	0xbd65d891	-0.056114737
166	0x3d5bf8e2	0.05370415
167	0x3ac5df09	0.0015096377
168	0xbd256375	-0.040378053
169	0x3d053c21	0.032528047
170	0x3c207ca7	0.009795344
171	0xbd615ed8	-0.05502209
172	0xbd390c2e	-0.04517763
173	0x3d1656d3	0.036703896
174	0xbd4dd1f5	-0.05024906
175	0x3cc50275	0.024049023
176	0x3d40438a	0.04693941
177	0xbce26f91	-0.02764109
178	0xbc3dad07	-0.011576897
179	0x3d25238a	0.040317096
180	0xbcc48286	-0.02398802
181	0xbca88ef1	-0.020575972
182	0x3c96a390	0.01838854
183	0xbd6d9bd8	-0.058009952
184	0xbcdd0db3	-0.026984071
185	0xbd36281e	-0.044471852
186	0xbcddd6fb	-0.02708005
187	0xbd4c2246	-0.049837373
188	0xbc8f1578	-0.017466292
189	0x3d5673f4	0.052356675
190	0x3d0764b8	0.033055037
191	0xbc97a361	-0.018510522
192	0xbd58d19d	-0.052934278
193	0xbd356f99	-0.04429588
194	0x3b28edfd	0.0025776618
195	0x3acfc996	0.0015852924
196	0xbc546c36	-0.012965253
197	0xbaefde0c	-0.0018300428
198	0x3d7b4f5e	0.061354987
199	0x3c2da2d3	0.010597902
200	0x3d1b511a	0.03791914
201	0xbc0e127b	-0.008671398
202	0xbd4c8321	-0.04992974
203	0x3c51a6c6	0.01279611
204	0xbd63441c	-0.055484876
205	0xbbae3d5e	-0.005317374
206	0xb8ee4b44	-0.00011362744
207	0x399ad673	0.00029532946
208	0xbd0e9711	-0.034812037
209	0xbd4b399e	-0.049615495
210	0x3d044ec5	0.032301683
211	0xbb524a74	-0.0032087835
212	0xbd28cf37	-0.04121324
213	0x3b842d0c	0.0040336903
214	0xbd2fa012	-0.042877264
215	0xbd783b4f	-0.060603436
216	0x3d25f15c	0.04051338
217	0x3c8b1b84	0.016980894
218	0xbd0aea1a	-0.033914663
219	0xbcf5c4f7	-0.030001147
220	0xbd6b9c70	-0.057522237
221	0xbcd87959	-0.02642505
222	0x3d2add4d	0.041714955
223	0xbd5a3967	-0.0532774
224	0x3d087244	0.033312097
225	0xbcf64838	-0.030063733
226	0x3cfe0043	0.031005984
227	0xbcb8c34b	-0.02255406
228	0xbd289361	-0.041156176
229	0x3cf950eb	0.030434093
230	0x3d136894	0.035988405
231	0x3d25622c	0.040376827
232	0xbd634e45	-0.055494566
233	0xbcf31d51	-0.029677065
234	0xbbf60b4e	-0.007508672
235	0x3d1c00fb	0.038086873
236	0x3c91476b	0.01773425
237	0xbcf04795	-0.029331008
238	0x3d0d439f	0.034488317
239	0x3a4a78b5	0.0007723675
240	0xbc5074ae	-0.012723131
241	0xbc86a9ac	-0.016438328
242	0x3d48f8db	0.049065452
243	0x3d0aed95	0.033917982
244	0x3cceec38	0.025259122
245	0x3cd15fe6	0.025558423
246	0xbd465afe	-0.04842662
247	0xbce5ccfd	-0.028051848
248	0xbcd817d2	-0.026378546
249	0x3d1f7355	0.03892835
250	0xbce9881f	-0.02850729
251	0xbc4cb09b	-0.012493278
252	0xbd6d96b6	-0.058005057
253	0x3d2e0bdd	0.042491782
254	0xbd82c148	-0.06384522
255	0xbd54599d	-0.051843274

net.6.weight f4 [2, 256]
0	0xbd15f4b1	-0.03661031
1	0xbd6b6f75	-0.05747934
2	0x3ca55d16	0.020185988
3	0xbba75e26	-0.005107659
4	0xbd2507d0	-0.040290654
5	0xbd7af1d2	-0.061265774
6	0x3ae47cd5	0.0017432222
7	0xbd19f90e	-0.037591033
8	0xbd64fa5c	-0.055902824
9	0x3d27b76d	0.040946413
10	0x3a72ae10	0.0009257505
11	0x3c9801e4	0.018555589
12	0x3cad81eb	0.021180114
13	0x3d1c97cb	0.0382307
14	0xbd44b699	-0.0480257
15	0xbd8259b1	-0.063647635
16	0x3cf3b66c	0.029750071
17	0xbbd2a010	-0.0064277723
18	0xbd5db8d6	-0.05413135
19	0xbd08e451	-0.033420864
20	0xbcb58a99	-0.022160815
21	0xbcd226e7	-0.025653316
22	0xbd051670	-0.0324921
23	0xbd20c68a	-0.03925184
24	0x3d22ae4a	0.039716996
25	0x3d72cd4e	0.059277825
26	0xbc72a97e	-0.014810918
27	0xbca2a326	-0.019853186
28	0x3d19ff9c	0.037597284
29	0xbd266ff3	-0.040634107
30	0x3d24e149	0.04025391
31	0x3b987ca8	0.004653532
32	0xbca6d637	-0.020365817
33	0xbd59b48b	-0.053150695
34	0xbb9c5935	-0.0047713765
35	0xbcec9044	-0.028877385
36	0xbcc1e66f	-0.02366945
37	0x3cb623b7	0.022233827
38	0x3d5502d4	0.05200465
39	0x3c751baf	0.014960214
40	0x3d44bf92	0.04803426
41	0x3ccc739f	0.024957476
42	0xbd341d83	-0.043973457
43	0x3d503f22	0.05084146
44	0x3c09ca5e	0.0084100645
45	0x3c7ff5e8	0.015622593
46	0xbce002d7	-0.027345104
47	0xbc9b00b8	-0.018921241
48	0x3b36ac74	0.0027873786
49	0x3ce42adf	0.027852474
50	0x3c3ce690	0.01152958
51	0x3d5347ef	0.051582273
52	0xbc81ff87	-0.015868915
53	0x3c409aa4	0.011755619
54	0x3b01407d	0.0019722276
55	0xbc9cff1a	-0.01916461
56	0xbd6fc48e	-0.05853706
57	0xbcce4338	-0.025178537
58	0xbc5b041b	-0.013367678
59	0xbd2b26ac	-0.041784927
60	0x3bce8fca	0.006303762
61	0xbd8175e3	-0.06321313
62	0x3d22e9fc	0.039773926
63	0xbd44a248	-0.048006326
64	0xbd0b9341	-0.03407598
65	0xbd39dd52	-0.045377083
66	0xbc68ff5b	-0.014221038
67	0xbb0bc62d	-0.0021327839
68	0x3c76c81f	0.015062361
69	0x3d0ce16c	0.034394667
70	0x3cfb2463	0.030656999
71	0xbc34ac42	-0.011027398
72	0x3c8ac069	0.016937451
73	0xbd83412d	-0.06408916
74	0x3ba65994	0.0050765965
75	0xbb59680f	-0.0033173596
76	0x3d6c7d21	0.05773652
77	0xba7b2ffb	-0.000958204
78	0x3d12d7e8	0.035850435
79	0xbd51a96b	-0.05118696
80	0xbd7a5e6f	-0.061125215
81	0xbd78e71a	-0.06076727
82	0x3d0a2986	0.033731006
83	0xbc88e24c	-0.01670947
84	0xbceb542d	-0.028726662
85	0xbb931abf	-0.0044892724
86	0x3cff9f70	0.031203955
87	0xbcedb583	-0.029017216
88	0x3a5f1287	0.00085095357
89	0xbc679f14	-0.014137048
90	0x3d538c89	0.051647697
91	0x3c4fb212	0.012676733
92	0x3d1f530e	0.038897566
93	0xbc9a5159	-0.018837618
94	0xbcf671c1	-0.030083539
95	0xbb126dfb	-0.0022343385
96	0x3d508deb	0.050916594
97	0x3c6c2fc7	0.014415688
98	0xbbd5d72c	-0.0065258946
99	0xbd43d70b	-0.047812503
100	0xbcda12cd	-0.026620293
101	0xbd03b7cb	-0.0321577
102	0xbca920ff	-0.020645617
103	0x3ca38e8d	0.019965434
104	0xbb76af18	-0.0037640985
105	0xbd45f19e	-0.048326127
106	0x3d1f5330	0.038897693
107	0xbca0bca8	-0.019621208
108	0x3d2bd30c	0.041949317
109	0xbd1ebe2c	-0.03875558
110	0x3cb9c4a8	0.02267678
111	0x3d48a0cb	0.04898147
112	0xbd1f4b13	-0.038889956
113	0x3c7e6603	0.015527251
114	0x3c9f542e	0.01944932
115	0x3aeb7288	0.001796321
116	0xbd7699c7	-0.060205247
117	0xbd361230	-0.04445094
118	0xbd2b5e3f	-0.041837927
119	0x3cbc2c64	0.022970386
120	0x3c89f5f0	0.016840905
121	0x3d49281c	0.049110517
122	0x3cfbc2a1	0.030732455
123	0xbd2935ea	-0.041311182
124	0x3d495a89	0.049158607
125	0x3d522e16	0.051313482
126	0x3cd46037	0.025924785
127	0x3d04246b	0.032261293
128	0x3d06705f	0.03282201
129	0xbb7ce956	-0.0038591227
130	0xbd5a61c9	-0.05331591
131	0x3d0f5420	0.034992337
132	0xbbef41ec	-0.0073015597
133	0x3b8854a9	0.004160483
134	0x3cd2dbe5	0.02573962
135	0xbd23d182	-0.039994724
136	0xbb521494	-0.0032055723
137	0x3cd8ea08	0.026478782
138	0xbd7598f2	-0.059960313
139	0xbc0b8e89	-0.00851787
140	0xbd7b1944	-0.061303392
141	0xbbb83a06	-0.0056221513
142	0x3cf93d5a	0.030424763
143	0xbca011b7	-0.019539697
144	0x3a8035c5	0.000978165
145	0xbd1cbe02	-0.038267143
146	0xbd49c40c	-0.04925923
147	0x3c99333e	0.018701192
148	0x3ca77dbf	0.020445703
149	0x3d2eefdc	0.042709216
150	0xbc4cb8c4	-0.012495223
151	0xbc301247	-0.010746545
152	0x3c0aada8	0.008464254
153	0x3d5b7794	0.053580835
154	0xbd3f61d6	-0.046724163
155	0x3cf80564	0.030276008
156	0x3d559ad5	0.052149612
157	0x3bba01d0	0.0056764856
158	0xbd37eb2f	-0.044902023
159	0x3c1bcfdd	0.009510008
160	0x3cb37009	0.021904008
161	0xbd3b182c	-0.04567735
162	0xbd1f3fc2	-0.038879164
163	0xbd764b69	-0.06013051
164	0x3d2f3bc0	0.04278159
165	0xbb9de315	-0.00481833
166	0xbd17425b	-0.036928516
167	0xbc29411f	-0.0103304675
168	0x3c8de8a1	0.01732284
169	0xbc689f0d	-0.014198077
170	0xbced118c	-0.028939031
171	0x3b1dbe9d	0.0024069913
172	0x3d294c06	0.041332267
173	0xb9a0b25e	-0.00030650472
174	0x3c8becc2	0.017080668
175	0x3d3f1c49	0.046657834
176	0xbc6487e4	-0.0139484145
177	0xbd4d8af8	-0.05018136
178	0xbd3a8b96	-0.045543276
179	0xbd0b1339	-0.03395388
180	0x3d2c2042	0.04202295
181	0xbbd8535f	-0.0066017355
182	0x3c0c6c52	0.008570747
183	0xbbaf4c26	-0.005349654
184	0xbc3f1f7d	-0.011665222
185	0xbcd98fc7	-0.026557816
186	0x3d356060	0.044281363
187	0xbd7e1ea8	-0.062040955
188	0x3d113ef4	0.035460427
189	0x3d3968e0	0.045266032
190	0xbd3d79eb	-0.04625885
191	0xbd1c5328	-0.03816524
192	0xbbad975a	-0.0052975835
193	0xbd13afed	-0.036056448
194	0xbd3b7477	-0.045765366
195	0xbce727c0	-0.028217196
196	0x3cac058b	0.020998737
197	0x3d50024f	0.05078345
198	0xbd0d941d	-0.03456508
199	0x3d80e3ae	0.062934265
200	0x3b79dc55	0.0038125713
201	0xbd8129e2	-0.06306817
202	0x3d6d666e	0.057959013
203	0xbcfe57ce	-0.031047728
204	0xbd796f30	-0.060897052
205	0x3d758d61	0.059949283
206	0x3d053f57	0.03253111
207	0xbc06d7a6	-0.0082301255
208	0xbd45ef88	-0.048324138
209	0x3c66bc3c	0.0140829645
210	0xbc6f41c5	-0.014603083
211	0x3acf8e0c	0.001583518
212	0x3c8b2ab3	0.016988134
213	0x3d7c0568	0.061528593
214	0xbd60dff1	-0.054901067
215	0xbd44a083	-0.04800464
216	0x3c77b6fb	0.01511931
217	0xbd0b2242	-0.033968218
218	0xbd1fe207	-0.039033916
219	0xbba28d77	-0.0049607116
220	0x3d7b6e0d	0.06138425
221	0x3cb254a1	0.02176887
222	0xbcc916d2	-0.024547014
223	0xbd6616c7	-0.056174066
224	0xbc8a5002	-0.016883854
225	0xbd7fb102	-0.062424667
226	0xbd5b0452	-0.053470917
227	0xbd3cd3d0	-0.046100438
228	0x3d280419	0.041019533
229	0x3c732b50	0.0148418695
230	0x3ac224bd	0.0014811974
231	0x3c69e00c	0.014274608
232	0xbca86924	-0.020557947
233	0x3d492d29	0.049115334
234	0xbd43958a	-0.047750033
235	0x3d351698	0.044211
236	0x3b9e6a5e	0.0048344573
237	0x3c89ce12	0.016821895
238	0x3b9ef91d	0.004851474
239	0xbcb84151	-0.022492083
240	0x3cc99ff6	0.024612408
241	0xbd6f950c	-0.05849175
242	0xbd1df15d	-0.03856026
243	0xbcce33e7	-0.025171233
244	0xbd584768	-0.052802473
245	0x3d72006c	0.059082434
246	0xbd82a184	-0.06378463
247	0x3cbde02d	0.023178184
248	0x3baaff5a	0.0052184286
249	0x3baf82e4	0.0053561796
250	0x3d4a4228	0.049379498
251	0x3d58f10c	0.052964255
252	0xbd18bb94	-0.037288263
253	0xbd56cd9b	-0.052442174
254	0x3d1c63e0	0.038181186
255	0xbd355ffc	-0.04428099

net.6.bias f4 [2]
0	0x3bbbed8d	0.0057351054
1	0x3ce40ba2	0.027837578
