moons/node/models/47000_model.pt (torch, 535856 bytes, 8 tensors)

net.0.weight f4 [256, 3]
00000000: 83dd 1ebe e19a 6f3e 3a6e 62be 9ea6 11bf
00000010: ef6d 3c3e 0636 b5be d5e9 053f 00f1 5d3e
00000020: 8b2d bb3e 6260 993e 1d3c 923e 1f57 5b3e
00000030: d2d6 8fbe 7a24 00bf c996 f13e 5c01 f83e
00000040: 336d b9bd e8a6 af3e 2a96 d43e d335 1cbe
00000050: c485 673e 593d 44be d5f7 463e c5ad c3bb
00000060: 9f02 5abe 50bf a23e d63a 923e 807b 183b
00000070: 3817 ccbd 152f c1be 6fa1 a83d edaa 11bf
00000080: 364c 2a3e d13c 69bd 84f4 adbe 6ec7 d6be
00000090: 4e08 6a3e 9e66 00bf a1bb bbbe 7a24 86bc
000000a0: ba81 f83d cdd3 e3be 22e8 babe 590a 16be
000000b0: 1fb3 e2be 44aa 68be 2923 05bc 4012 443e
000000c0: f3ab 54bd ffe1 f73e d19a b63d 5c86 12bf
000000d0: e0a3 dd3e 4be0 80be 8fce 2d3e 3add 963d
000000e0: 2c0e 2abe 9123 02bf ff5e ccbe ac6d 333e
000000f0: 4e50 c3bd 8a5b 7a3e 4a82 923d 1444 c0be
00000100: 7d2c 82bd dcb9 063f aba2 1c3c 63a1 4fbe
00000110: 4e71 0e3f 423f 2d3e 57db 6d3e a0d1 59be
00000120: fb55 fcbe c805 dc3e edce d13e 7215 5f3d
00000130: 6737 0c3f 52ef 113f 3a48 09bf 178e 3f3e
00000140: 6599 5a3e 2d59 2cbd 9b0a 623e b253 c2be
00000150: 0d3b 06bf 9899 cbbe d4bd 653d 5c87 6abe
00000160: 60f1 aa3d 0563 8b3e 1502 5abe b880 73be
00000170: 116d f8bd 7fb6 d33e ac15 04bf d624 59be
00000180: b845 08bf fec5 f83c ecb5 ebbe 44d4 5a3e
00000190: 61bd ac3d 1adf 76be 444f efbe 4f24 c2be
000001a0: 08d1 11b9 a089 363e e204 2a3d c1b8 293d
000001b0: 5ae5 e9bd 59fc 983d cdf0 09bc fa09 063f
000001c0: 5868 123f 0087 0dbf 3fdc de3e 4c69 e23e
000001d0: e015 fb3e e576 c4bd f498 9bbe b247 813e
000001e0: aa7b 2bbe 0d8e f33e 7c7d f7be 7842 153e
000001f0: b345 eabd 2bfe 7d3e 8ce7 ebbe 8825 5ebe
00000200: 8bf9 ce3d af05 9f3e 72b8 e9be 9f9b ef3e
00000210: 0013 013e bcf5 c9be de2e 70bd c13c e6be
00000220: cc43 9d3e e23e 773e 36a6 cdbd 7ad7 a63e
00000230: d99b 8a3d 6960 cabd 687d 11bf fd56 54be
00000240: 5cf1 f0be 7cb6 df3e 1e28 ee3e 4c96 a2be
00000250: 48b3 73be 7be6 48be dff0 0fbf bd97 e5bd
00000260: fc75 84bd a6f2 f4be 6ea2 0f3f 502d f0be
00000270: 246e d0bd 34ac 493e 23af f43e 625d d8be
00000280: 1aa2 0ebe 7a38 20be 9034 63be ae73 ad3d
00000290: 0159 f3be 2494 36be 6341 e23e 0e24 a93e
000002a0: 637d 023f 63b0 eebd cb4d 0dbd ef25 5a3e
000002b0: 1f01 643e 4015 82bd c8e2 023e 73fb 7c3c
000002c0: 032d 67bc f003 90be a741 af3e 782e 01bf
000002d0: f0de 87be 46cd 1f3d b004 c13e f328 ac3e
000002e0: b280 513e 6d42 c7be cd13 983e 5772 b23e
000002f0: 7a58 cd3e deee e83e 4775 aebe 7603 e43e
00000300: 3bfe a83e e73e f13e daab 9a3e 22f9 e23e
00000310: 2044 c63e e7ed ea3e 2707 55be 71f5 eb3e
00000320: 9c9e a9be b916 00bf e151 f33e 8e8e 823e
00000330: 9f75 a53e 5ea4 c0be c9f2 bc3e 9ebf 0abf
00000340: 7e58 81be fa4c b2bd 08a0 76be 5d54 a93e
00000350: 6593 053f 9709 8e3e e5a4 28be d002 f0bc
00000360: 0989 6dbe 3d56 3abe 9881 4abe 8c20 ee3e
00000370: c4c9 27be 0e93 113e d6c0 c73c 0584 45be
00000380: ac40 97be b07a ccbe b493 7b3e da16 9a3e
00000390: 1c0f dfbe e54c 4b3e ba47 e0be 55ea 90be
000003a0: 73a9 1fbe 0b32 223e 17af 003f fd35 d53e
000003b0: 1542 28be 8abf 6f3e 53bc 953e cf2a 003f
000003c0: d6ae 8f3e 1f59 b6be 9a1e c53e 75ea 113f
000003d0: 4e13 4abe 8659 8c3e 91e4 0c3e 4215 d1be
000003e0: ae52 083f 8367 fdbd 8ae4 eb3e e65d a23e
000003f0: 16f5 133d 6f47 eb3e f18a fa3e 0bee 983e
-0.15514188 0.23398925 -0.2211236 -0.5689486 0.18401311 -0.3539278 0.52309924 0.21673965
0.36558184 0.29956347 0.28561488 0.21419953 -0.28093582 -0.5005566 0.47185352 0.48438537
-0.09054031 0.34307027 0.41520816 -0.15254907 0.22609621 -0.19164027 0.19430478 -0.0059716427
-0.21290062 0.31786585 0.28560513 0.002326697 -0.09965366 -0.37731233 0.08233916 -0.5690144
0.16630635 -0.056942765 -0.33975613 -0.41949028 0.2285473 -0.5015658 -0.36666587 -0.016374815
0.121341184 -0.4449753 -0.36505228 -0.14652385 -0.44277284 -0.22721201 -0.008126059 0.19147587
-0.051921796 0.4841461 0.08916248 -0.57236266 0.4328909 -0.25171122 0.16973327 0.07366414
-0.16606969 -0.5083552 -0.39916226 0.17522305 -0.09536801 0.24448982 0.07153757 -0.3755194
-0.06356142 0.5262735 0.009560267 -0.20276408 0.5564164 0.16918662 0.23228203 -0.21271372
-0.49284348 0.4297316 0.40978184 0.05446381 0.5477204 0.570058 -0.53625834 0.18706547
0.21347578 -0.042077232 0.22074358 -0.3795448 -0.52433854 -0.3976562 0.056089237 -0.22903198
0.0834682 0.27223983 -0.21289857 -0.23779571 -0.12130178 0.4135017 -0.5159557 -0.21205458
-0.5323138 0.030367848 -0.46037233 0.21370035 0.08434559 -0.24108544 -0.46740162 -0.37918326
-0.00013906148 0.17825937 0.041508563 0.04143596 -0.114206985 0.074700065 -0.008419228 0.52358973
0.57190466 -0.5528412 0.4352741 0.4422096 0.49040127 -0.0959299 -0.3039013 0.25250012
-0.16746393 0.47569314 -0.48337924 0.14576137 -0.11439075 0.24803989 -0.46075094 -0.21694005
0.1010619 0.31059024 -0.45648533 0.46798417 0.12604904 -0.39445293 -0.058638446 -0.44968227
0.30715787 0.24145082 -0.10041468 0.3258627 0.06768007 -0.0988167 -0.5683198 -0.20736308
-0.47059143 0.43693912 0.46514982 -0.31755292 -0.23798859 -0.19619171 -0.56226915 -0.112105824
-0.06467816 -0.47841376 0.56107223 -0.4690957 -0.10177258 0.19694597 0.4778987 -0.42258745
-0.13929024 -0.15646544 -0.2218802 0.0846933 -0.47528842 -0.17829949 0.4419051 0.3303532
0.50972575 -0.11654737 -0.034498017 0.21303533 0.22266053 -0.06351709 0.12781823 0.01544081
-0.014109853 -0.28128004 0.34229776 -0.5046153 -0.26537275 0.039014123 0.3769889 0.33624992
0.2045925 -0.38917866 0.29702607 0.3485286 0.40106565 0.4549474 -0.3407385 0.4453389
0.33006462 0.47118303 0.30209237 0.44330698 0.3872385 0.4588463 -0.2080351 0.46085694
-0.33128822 -0.5003467 0.47523406 0.25499386 0.323163 -0.37625402 0.3690398 -0.54198635
-0.25262827 -0.08706088 -0.24084485 0.33072177 0.5217803 0.2774169 -0.16469152 -0.029298216
-0.23196806 -0.1819696 -0.19775999 0.46509206 -0.16385561 0.14216253 0.024383944 -0.19288643
-0.29541528 -0.39937353 0.24568063 0.3009556 -0.43566215 0.19853552 -0.43804723 -0.2830378
-0.15591983 0.15839402 0.50267166 0.41642752 -0.16431458 0.2341291 0.29245242 0.5006532
0.28063077 -0.3561487 0.3849991 0.5699838 -0.19733927 0.2741205 0.13759066 -0.4083653
0.5325116 -0.12373259 0.460728 0.31712264 0.036122404 0.45952937 0.4893413 0.29869112

net.0.bias f4 [256]
00000000: 3ea2 9fbe 97a2 733e cb58 783e 04a1 d3be
00000010: 5eec b73e 7ff4 2bbd 1fab bc3e 3178 10bf
00000020: 5c66 02bf 8861 733e 06f4 003f a68e 473e
00000030: c8df 093f 3200 0bbf c684 cc3e f005 f43d
00000040: 6da9 403e 5258 7c3e 7d24 4e3e 03f4 0b3f
00000050: 7df3 0b3f c610 7c3e fd21 0f3f 712f a5be
00000060: f64d d43e b11a 133f 2b1b a63e 54bc 043f
00000070: add0 bc3e b1b0 d03e ab32 b1be 98c9 0fbf
00000080: 08eb b23e 3737 67bd 5c73 b93e 453d 10be
00000090: 673f b73e dbe5 06bf 8dfd 58be 4bbf 68bb
000000a0: 047f dcbe 718c 993e e1d8 443d b494 c7be
000000b0: 6e2e 03bf e05b 8c3d 648f c53e e288 0d3f
000000c0: 6be6 d3be 4d9a 80bb 24d6 f53d 4eb3 733d
000000d0: 1281 d7be 2d2b c6bc dc6b d9bd 230b 143d
000000e0: 87d5 2d3e 95e6 b7bd b014 893c 368c 03bf
000000f0: 99a3 b03e 3892 7c3e b64d dc3d b401 31bd
00000100: 0fa6 ddbc a98a 873e fb3e 913e 1eda cdbe
00000110: 3871 f0be 6712 db3e 06b0 8c3d a78a 613e
00000120: 37c0 60be 5aca d9bd a4be fa3d 6585 bb3c
00000130: 860c 6c3e a71d 4ebe 0684 ddbd 84f6 9d3e
00000140: 3a08 3c3e a6bf b9bd ee70 db3e 344c 51be
00000150: eff7 0dbf 64d7 9e3e 9880 e03e 8ddc 91be
00000160: 1f5d ccbe fe83 103f 7d59 23bd b21a 113f
00000170: 3557 00bf 6a3b a63e aecb 003f 6052 c33e
00000180: 59d4 0bbf 5fd9 773e a818 493e d759 903d
00000190: 4ea7 5d3c b0e7 9abe ac0e cc3e 759e 5cbe
000001a0: 0b61 083f 6117 103e aba9 103e 1457 dbbe
000001b0: 694c 17be 71ca 87bd 7f9b 9b3e 2283 db3c
000001c0: c032 cf3d 81b9 473e f37b 8abe 7def a83e
000001d0: 4c29 723d 2c86 f1bd 02b7 dc3c 57a4 8e3d
000001e0: 0d2d 8ebe b672 ce3e 95e7 b83e 55af fdbe
000001f0: 295f 083e 8a32 eb3d 70bd 01bf 0824 043f
00000200: 3f39 083f 0673 cdbe 9379 d13b f13e 3f3e
00000210: 9c10 923e 4585 a9be d0a4 203d be3e a73e
00000220: 2c10 a23e 2f32 e1be 8015 abbe dd6b 293e
00000230: 1420 273e 4ff3 d3bd b20b 113e db71 d8be
00000240: fc7f bd3e 7c6d db3e 6bf8 e6be 2976 26be
00000250: 687f a63e 0e61 b1be 39e8 c0bc 59f6 833d
00000260: 300d 12bf a271 11be 0707 b5be 67c5 23be
00000270: 3fe5 ee3e 12f6 c83e b7b7 c03b ff4c f1be
00000280: 0640 8e3e 38e0 c0be 4ca7 dd3e 037d fcbe
00000290: 6a1e 2f3e c469 573d 55cb 223e be8a dabe
000002a0: 9392 943e 558b 4cbe b375 06bf 345e 453e
000002b0: 5311 c7be 4153 98be 258c db3e dc0b 463c
000002c0: 8425 8b3d c396 163e f9f8 10bd 1a83 0cbf
000002d0: feac ec3e b94b b9be d3d2 0e3f 9e73 11be
000002e0: 8e34 963d f5aa 983e 39c2 4ebe 2718 37be
000002f0: a541 35bd aa82 f73d 5794 febe 6b22 b4be
00000300: f1f9 7c3d bdd4 53bd c8dd dc3d 18bb f23e
00000310: 2553 91be 1feb ce3e 7257 e13d f674 d53e
00000320: 1724 c8be b6e9 833d e718 283d 792d edbe
00000330: 0108 043f a18d cfbe 1b39 0b3f 0ca1 b83d
00000340: 1c03 da3e 0d9e c5be 70b6 84be 56b1 d23d
00000350: 8dca c13e 337a a23e bf6b d0be 91d8 013d
00000360: f4ed 2ebd f060 8b3e cc66 07bf 0971 a3be
00000370: 918b 95be 308b bcbe 5684 c43d 246a 9dbe
00000380: 142a 21bd 5bd3 e43e de4a 50be 4670 debe
00000390: 973b 07be 2d37 0f3f 0e64 983e c121 babd
000003a0: 0b10 133f 66ec 323e 9350 fd3e 8393 ddbe
000003b0: d6e0 e83d 2c55 efbe 0ca3 48bd 8b4f cbbe
000003c0: df8d 1bbe 3b58 9d3e aa58 f63d 87f6 eebe
000003d0: 47a0 9abb 57f9 cd3e b010 b03e 6d21 1dbe
000003e0: 1a2f 3bbe 7f0d 9ebe 48ea 433e 48fe 8b3e
000003f0: 5bba c03d 56ef 0abf 2433 6abe f7cc 10bf
-0.31178468 0.23792492 0.24252622 -0.41333783 0.3592252 -0.041981217 0.36849305 -0.564334
-0.5093744 0.23767674 0.5037235 0.1948801 0.5385709 -0.54297173 0.39945048 0.11915195
0.18814631 0.24643067 0.20131107 0.5466921 0.5466841 0.24615774 0.55911237 -0.32262757
0.4146573 0.574626 0.32442603 0.51849866 0.36877957 0.40759805 -0.3460897 -0.5616698
0.3494494 -0.05644914 0.36220825 -0.14085872 0.3579056 -0.5269448 -0.21190472 -0.003551441
-0.43065655 0.2998996 0.048058394 -0.3898064 -0.5124272 0.06853461 0.3858596 0.5528699
-0.41386732 -0.003924644 0.12003735 0.05949717 -0.4209066 -0.02419051 -0.10616276 0.036143433
0.16975985 -0.08979527 0.016733497 -0.5138582 0.34499815 0.24665153 0.1075701 -0.043214515
-0.027056722 0.26472977 0.28368363 -0.40205473 -0.4696138 0.42787477 0.06869511 0.22025548
-0.21948324 -0.106342986 0.12243393 0.022890756 0.23051652 -0.20128499 -0.10816197 0.3085214
0.18362513 -0.09069757 0.42859596 -0.20439225 -0.5545644 0.31023705 0.4384811 -0.2848858
-0.39914796 0.56451404 -0.039880265 0.5668136 -0.5013307 0.32467204 0.5031079 0.38148785
-0.5462089 0.24204014 0.19638312 0.070483856 0.013528658 -0.3025489 0.39854944 -0.21544822
0.53273076 0.14071418 0.14127223 -0.42839873 -0.14775242 -0.066304095 0.30392072 0.026795927
0.10117102 0.19504358 -0.2704769 0.32995215 0.059121415 -0.117931694 0.026942734 0.06964939
-0.27768746 0.40321892 0.36114183 -0.4954783 0.1331755 0.11484249 -0.50679684 0.5161748
0.5321235 -0.40126818 0.0063926666 0.18676354 0.28528297 -0.3310949 0.039219677 0.32665056
0.31652963 -0.439836 -0.3341484 0.16545053 0.1632083 -0.10349142 0.14164618 -0.42274365
0.37011707 0.42856967 -0.45111403 -0.16256012 0.32519078 -0.3464436 -0.023548232 0.064434715
-0.5705137 -0.14203504 -0.35356924 -0.15993272 0.46659276 0.39250237 0.0058812755 -0.47129056
0.2778322 -0.37671065 0.432917 -0.49314126 0.17101446 0.0525911 0.15897878 -0.42683977
0.29018077 -0.19975026 -0.52523345 0.19274217 -0.38880405 -0.29751018 0.4288036 0.012087788
0.06794265 0.14705949 -0.03539369 -0.54887545 0.46225733 -0.36190584 0.5579044 -0.1420426
0.07334243 0.2981793 -0.20191278 -0.17880307 -0.044252057 0.12085469 -0.4972255 -0.3518251
0.0617618 -0.051716555 0.10784489 0.47408366 -0.28383747 0.40413758 0.11003007 0.41690797
-0.39090034 0.06441061 0.041039374 -0.46323755 0.51574713 -0.40537742 0.5438401 0.09015092
0.42580497 -0.38597146 -0.2592044 0.102877304 0.37849846 0.31733856 -0.40707204 0.031700674
-0.0427074 0.27222395 -0.5289123 -0.31922176 -0.29208043 -0.36824942 0.095955536 -0.3074504
-0.03934677 0.446925 -0.2034106 -0.43445033 -0.13206325 0.55943567 0.29763836 -0.09088469
0.57446355 0.17472991 0.49475536 -0.43276605 0.11371009 -0.46744668 -0.04898362 -0.39709124
-0.15190838 0.30731377 0.1202863 -0.4667246 -0.0047188136 0.40229294 0.34387732 -0.15344782
-0.18279687 -0.30869672 0.1913234 0.2734244 0.094105445 -0.5427145 -0.22871071 -0.5656275

net.2.weight f4 [256, 256]
00000000: a1c9 4fbd 6cf3 463d 0801 443c eb04 5d3d
00000010: eb8b 2fbd c6b0 803c dafb 923c a53b 9dbc
00000020: a268 1c3d 6cf7 44bd b3ba 37bd 9df3 013c
00000030: 0588 f7bc bd08 cabc 76ac 9f3b c5ad 0dbd
00000040: 1621 56bc 1836 3ebd 25ad 863c 76cc 64bc
00000050: ab87 e4bb 3cca 4bbd 8e7e 243d ca92 7cbd
00000060: 2806 c0ba e812 e0bc 4015 543b aa41 be3c
00000070: 44f3 9cbc 0d0a 02bd f478 3bbd a442 10bd
00000080: 1bc6 f63b dbec 85bb 0a73 443d f95f adbc
00000090: 73e8 ccbb 0d67 ab3c 743a e53c d6de 01bd
000000a0: d627 1c3d e979 853b ed13 5b3d 4c93 813b
000000b0: bfcf 943c 4f8b 5abd b970 883c 6cbe 0fbd
000000c0: 150c 163d 67af 773d 8daf 0b3d 1a59 2aba
000000d0: 2ef9 823c 9271 473c 79ab 5f3a 30a3 e03b
000000e0: 6476 1a3d c4ec 38bd ee78 dc3c 5c08 e23b
000000f0: 1967 6ebb 345a b53c 7792 343d 4b9a 633d
00000100: c861 55bd b164 01bc 286b c7bc 2930 f23b
00000110: 4ad1 9a3c 8755 31bd 0d6e cabc 17f3 5bbd
00000120: cc04 f53c d3e4 553d bcf0 523d aecd f5bc
00000130: f2ae 19bd 6df6 dcbc eb8f c63c b82b a1bc
00000140: eebd 39bd baf7 313d 0ca1 f2bc 536c 663d
00000150: d67c 82bd a26f 59bd a3a8 35bd 2937 6cbc
00000160: 4c68 42bd 4156 293d 58fb 1b3b 2166 2f3d
00000170: f4b5 113d 7ebc 5fbc 7200 0b3c 52e5 413c
00000180: 4caa 20bd b03d b5bc 5815 a3bc 1f14 27bd
00000190: acf8 ee3c 5688 7cbd 1700 193d 7f25 1d3d
000001a0: e9d4 083d f3da 953b aeb1 58bc c58e 383d
000001b0: 00ec 13bc bd10 0f3d 91de ee3c 8d63 773d
000001c0: 48b5 15bd 4f5a 133d bd5b 56bc b6da 03bd
000001d0: 7cae 53bd 5a3d 1cbd cb0b 9cbc 113c 29bd
000001e0: 862c 4b3d 9dcb ff3c 168a 573d 404f 10bd
000001f0: 02ea 773c b55b f6bc 0235 623c 6478 c33b
00000200: 6477 b83c 00eb fcbc c4a8 25bd 869a 39bd
00000210: cedb 0dbd 64f8 c43c e6b7 32bd 0f0a b53c
00000220: a1b6 6abd 2db4 79bc 3a94 30bd a069 6b3d
00000230: 1409 0c3d 6b52 773c 3e8c 3b3d e6e2 fcbc
00000240: 68f6 a63c 1a5a 19bd c7e4 28bd 9476 5bbd
00000250: ce4a 0e3d 1270 2bbb fb77 04bd 3a1f 9ebc
00000260: f523 86bc 2747 3e3d e843 43bd 8b17 fb3c
00000270: 3d72 1abd ad98 07bd ffb5 9a3c eb7b 7c3d
00000280: 23f6 d039 c9c7 603c 3c3b 1ebd ba1f 643d
00000290: a4b7 e6bc 0037 203d 51c7 0e3d 29b9 22bd
000002a0: 63d8 1c3d bc9d cebc 1605 053c dc55 093c
000002b0: 5fbb 3ebd d3b0 613c 737d 7d3d ef62 35bd
000002c0: 8327 00bd f71a 73bc 337f 3ebd cc03 963b
000002d0: f751 823c 4676 e03c f8ea 6b3d bf99 7f3d
000002e0: ee78 543c 732e c23b 0c07 423c cfef 193d
000002f0: 743c 27bd 1798 d8ba 3a26 dcbc 0039 6a3d
00000300: b97d 3c3d c7cd a53c 5b0f 03bd 3782 67bd
00000310: f072 aabc 8033 2cbd 8374 9bbc e3e1 df3c
00000320: c8d8 463d e1f9 a1bb 3d01 5ebd d736 3e3d
00000330: 0289 32bd ece2 4a3d 4679 683d b816 f73c
00000340: e8a3 3f3d aea5 003d 9625 b13c 1d11 13bd
00000350: c52c 04bd 9fcf 30bd a547 a2bc 993d a8bc
00000360: 142d b1bc 234e 453d aea4 333d 259e 28bd
00000370: c4f1 e8bc e3c9 603c dc3d 2a3d c0bb 11bc
00000380: 66dc 5bbd 0c4b a1bc e6f6 163d 8d67 2f3b
00000390: 018f 493c 410d 323d 3faa 263c e9d6 8d3c
000003a0: cea8 5c3d 3eab 5d3d f9f8 8f3b 4bca 093d
000003b0: 9314 f73c a806 db3c a916 6bbd 5236 3dbc
000003c0: 91bf f83c 70d9 cd3b f67a 1b3d 27ae e43c
000003d0: ef46 74bc f0db 8f3c 72b2 703d 3692 0a3d
000003e0: 3784 aa3c 7e91 00bb f4f2 b93a e4a4 78bd
000003f0: d0b1 803d 9d9b 113d 5f24 223c d13c df3c
-0.050729398 0.04857199 0.0119631365 0.05395977 -0.042858046 0.015709292 0.017942358 -0.01919348
0.038185723 -0.048087522 -0.044855785 0.007931617 -0.030216226 -0.02466237 0.004872854 -0.034589548
-0.013069412 -0.046438307 0.016439984 -0.013964763 -0.0069741807 -0.049753413 0.040159754 -0.061663426
-0.0014650272 -0.027352765 0.0032361299 0.02322467 -0.019158967 -0.031747866 -0.045769647 -0.035219803
0.00753094 -0.0040870733 0.047961272 -0.021163927 -0.006253296 0.020923162 0.027981974 -0.031706654
0.038123928 0.0040733707 0.0534858 0.0039543267 0.018165467 -0.05335551 0.016655313 -0.03509371
0.036632616 0.06047001 0.034102965 -0.00064982625 0.015987959 0.012173073 0.00085323263 0.006855391
0.037710562 -0.045147672 0.026913133 0.006897969 -0.003637737 0.022137739 0.044084992 0.055567067
-0.052095205 -0.007897542 -0.024343088 0.007390995 0.018898625 -0.043294456 -0.02471068 -0.053698625
0.029909514 0.052220177 0.051499113 -0.030005302 -0.037520356 -0.026972974 0.024238547 -0.019674167
-0.045347147 0.04344914 -0.029617809 0.05625565 -0.06371467 -0.053084977 -0.044350278 -0.014417448
-0.047462747 0.041342024 0.0023800936 0.042822007 0.035573915 -0.01365578 0.008483993 0.011834459
-0.039224908 -0.022124141 -0.019907638 -0.040790673 0.02917131 -0.061653458 0.0373536 0.038365837
0.033406172 0.00457322 -0.013225956 0.04505803 -0.009028435 0.034928072 0.029158862 0.060397673
-0.036549836 0.035974797 -0.013083396 -0.032191 -0.051680073 -0.038144447 -0.019048592 -0.04131705
0.049603008 0.03122502 0.052621923 -0.03523183 0.015131475 -0.030073026 0.013806583 0.0059652794
0.022517867 -0.030873775 -0.04044415 -0.04531338 -0.03463345 0.024044223 -0.04363241 0.022099523
-0.057303075 -0.015240711 -0.04311011 0.05747378 0.034188345 0.015095334 0.045788042 -0.030869912
0.020381168 -0.037439443 -0.041233804 -0.05357988 0.034739308 -0.0026159328 -0.032340985 -0.019302
-0.016374568 0.046454575 -0.047672182 0.030650875 -0.037706602 -0.033104587 0.01888561 0.061641615
0.00039856238 0.0137195075 -0.03863071 0.05569432 -0.028163739 0.039114952 0.03485805 -0.039727364
0.0382923 -0.025221698 0.008118888 0.008382287 -0.04656541 0.013775068 0.061887216 -0.044283804
-0.03128768 -0.014837972 -0.046508025 0.0045780893 0.015908225 0.027400147 0.05759713 0.062402483
0.012968285 0.0059259473 0.0118425 0.037582215 -0.040829137 -0.0016524818 -0.026873697 0.057183266
0.046018336 0.020239724 -0.031997066 -0.056520667 -0.02080676 -0.0420413 -0.018976456 0.02732939
0.048546582 -0.004943118 -0.0542004 0.046439018 -0.043587692 0.049532816 0.05675628 0.0301622
0.046787173 0.031408004 0.021624368 -0.035904992 -0.032269258 -0.043166753 -0.019809553 -0.020537185
-0.02162794 0.04817022 0.043858223 -0.041166443 -0.028435595 0.013720009 0.0415629 -0.008894861
-0.053676985 -0.019689105 0.036856554 0.0026764602 0.012302161 0.04346967 0.010172426 0.017314391
0.053871922 0.054118387 0.0043936935 0.033640187 0.030161178 0.026736572 -0.057394657 -0.0115485955
0.030364783 0.006282024 0.03795906 0.027915074 -0.01490949 0.017560929 0.05876393 0.033830844
0.020814998 -0.001961797 0.0014186786 -0.060704127 0.06283915 0.035548795 0.009896367 0.02725068

net.2.bias f4 [256]
00000000: 1cd6 4c3d 0385 193d 9e17 2fbd d582 183d
00000010: 6f56 393d c50e 51bd df45 9dbc 1b4d 1bbd
00000020: f644 6c3d 24e7 673d ca52 f53c 972f a9bc
00000030: b240 543d 3792 4d3d 0b32 89ba 824d 483d
00000040: 7bde f43c 5515 303d 3b07 ab3b af83 70bd
00000050: ea43 30bc 5911 a43c ea0f fabc a2c5 d5bc
00000060: 2b34 e53c 4445 0a3d 3957 35bd b49d 8dbc
00000070: 26b4 e23c 8d90 f8bb 26a9 803b 0d78 e6bc
00000080: f5d8 7cbc 57c5 773d 3104 4bbd 69cc a73c
00000090: a77c 883b b431 4e3d a1bb 823d 1514 143c
000000a0: 4889 32bd a37d 31bd 192d 703d 781d 11bd
000000b0: 0507 9b3c 98c3 823d 9f4f 833c bcd4 c6bc
000000c0: 74be e9bc cd28 0dbc 75dc a03c 8092 21bd
000000d0: 6266 00bd 7575 35bd 9ff1 b7bc 554a 9c3c
000000e0: 0e3f 00bd 8743 febb d678 dc3c dfc2 83bc
000000f0: 7fad 563d 1839 aabc bf96 5dbd 06a8 33bd
00000100: 7427 533b 5115 fc3b dfe7 ab3c 398f d73b
00000110: 8ed0 653d 6803 0c3d 9476 0abc 17e6 f1bc
00000120: 67a0 60bc f347 133d e492 90bc f7a5 733c
00000130: 0d7f 0abd dabd 503d fcf9 603d fef3 af3c
00000140: 12dc 1ebd 981e 193c 0abe 21bc 2962 303d
00000150: 2a4b 30bd c3ba 683d 7b6c fcbc e852 e63c
00000160: 386e 6cbd ea3d d6bc d53c 32bd 69ee 63bd
00000170: eea4 80bc ff82 473d b00c 1ebd 4dc5 103d
00000180: 28ba 233d 827a 5c3d 81b7 c33c d239 86bc
00000190: 168c e43c defb 133d 0591 1ebb 576e 18bd
000001a0: 89c7 ce3c e833 ba3c fe46 443d 4ac5 1fbd
000001b0: 2b22 81bd 3aed 0eba e8c9 87bc 0579 c73c
000001c0: 7f08 8b3c d3c8 14bd 058a ddbc 7c36 bfbc
000001d0: dbab 413d 2036 3dbd 3c2e fe3c b4d5 1b3d
000001e0: 586f 0e3d a2d0 b5bc 3bcd 2bbd 62d3 d63c
000001f0: c5a4 263d 6d53 8c3c d136 45bd 8e61 0bbd
00000200: 7e29 0a3c 99a6 8a3b 5e5d 47bd 0ee6 1d3d
00000210: 5bf9 55bd cf30 dd3c f36b 52bd 46d5 bb3c
00000220: 74ed 11bc d4e9 2c3d 6803 633d 5fc9 cc3b
00000230: d8a8 753d ef53 0d3c bea1 2f3d b2a4 3c3d
00000240: 327e 7e3d 0b3e 243a fa2d 82bd d99b 953c
00000250: 6eb1 793d 8298 753d 9f10 653c 9075 dc3c
00000260: 5ffd 23bc 93db 75bc 4630 3f3d 98a3 273d
00000270: da04 44bd 7242 32bd 0938 51bd 845f 663d
00000280: db3e 003d 28d7 833d db2a 713d 5698 14bd
00000290: 8d04 d5bc c637 74bc 172e f8bc bf11 d2bc
000002a0: a685 353d 10d9 21bc 66db fb3c f1d2 4d3d
000002b0: c777 1538 d34e c6bc 8357 7bba 8a07 33bd
000002c0: 79f0 f1bc 11ad 00bd 034f 6a3b 9524 0f3b
000002d0: 2588 453c 9945 5bbc 363e 4b3d f3db dfbb
000002e0: daac 89bb 0e31 c53c 8ae1 5ebd 9fd0 6bbd
000002f0: 7413 9b3c faa0 3cbd f0bb b63c 613f 383d
00000300: 7e8a 273d 60dc 3a3d 6ecb 113d 07e3 2e3c
00000310: d901 09bd 9830 ecbc b074 503d f37d 7abc
00000320: e6e8 b1bc 0f9c 40bd 264e 20bc 4da7 07bd
00000330: e49c 0e3d d3d7 48bc 19f6 2abd 384e 9bbc
00000340: 474c 353d 5069 533d 89f0 74bd d8bb 95bb
00000350: bbf2 53bd 95fd b2bc 6fe1 6e3d 88b7 8b3c
00000360: 1dbf 2bbd 3ed5 f63b 02ca 2ebd daa4 af3c
00000370: 9f24 a53c 2214 c33c 1762 623d ac96 703d
00000380: e62d 99bc 5404 fb3c 78cf 393d 1fea a03c
00000390: 71b2 93bc e21d fdbc 74aa 19bd 0478 793b
000003a0: d164 3abd c78e 52bd dad4 14bc 9e4c d8bc
000003b0: 5d24 16bc da88 c63c 00bb 3bbd b52a cd3a
000003c0: 06a6 a93a 86ac 46bc b00b c73c 2857 363d
000003d0: 8d59 35bc ed9b 4bbd 5f0f 893c 14e4 2a3d
000003e0: 64a4 8dbb 1364 c0ba e492 72bd 114e aebc
000003f0: 6cc5 0abd df88 ecbc 0f87 cc3c f048 cf3c
0.050008878 0.037480365 -0.042747132 0.037234146 0.045248445 -0.051039476 -0.019198356 -0.03791533
0.057682954 0.056616917 0.029946703 -0.020652575 0.05181951 0.05018827 -0.0010467184 0.048902042
0.029891243 0.042989094 0.005219368 -0.058719333 -0.0107583795 0.020027803 -0.030525167 -0.026095215
0.027978977 0.033757463 -0.044272635 -0.017287113 0.027673792 -0.007585591 0.003926414 -0.028133417
-0.015432586 0.060490932 -0.049564544 0.020483213 0.0041652503 0.05034037 0.063834436 0.009037991
-0.043587953 -0.043332707 0.05863676 -0.035428494 0.018924246 0.06384963 0.016029177 -0.024271362
-0.028533198 -0.008615685 0.019636372 -0.039446354 -0.03134764 -0.04430147 -0.022454081 0.019078413
-0.031310134 -0.0077595147 0.026913088 -0.016084133 0.052411553 -0.020779178 -0.05409884 -0.04386141
0.003221956 0.007692971 0.020984588 0.006578353 0.056107096 0.034182936 -0.008451123 -0.02952866
-0.013710118 0.035957288 -0.017648168 0.014871112 -0.03381257 0.050962307 0.054925904 0.02147865
-0.038784094 0.009345673 -0.009871969 0.043062363 -0.043040432 0.056818735 -0.030813446 0.028115705
-0.0577223 -0.02615257 -0.043515045 -0.055647288 -0.015703645 0.048708912 -0.03858632 0.03534441
0.039972454 0.05382777 0.023891212 -0.016384993 0.02789883 0.03612887 -0.0024195325 -0.037214603
0.02524163 0.022729829 0.047919266 -0.03900651 -0.06305345 -0.00054522196 -0.016575769 0.024349699
0.016971825 -0.036324333 -0.027043352 -0.02334141 0.047283035 -0.046194196 0.031027906 0.0380456
0.034774154 -0.02219421 -0.04194377 0.026223842 0.04068448 0.017129624 -0.04814798 -0.034028582
0.008432744 0.004231286 -0.048673026 0.038549475 -0.052239757 0.027000813 -0.05137248 0.022928845
-0.008906711 0.042215183 0.05542317 0.0062495912 0.059975475 0.008625968 0.04287886 0.046055503
0.062132068 0.00062653486 -0.063564256 0.01826279 0.060960226 0.059959896 0.013981014 0.026911527
-0.010009139 -0.015005964 0.046676897 0.0409275 -0.04785619 -0.0435204 -0.05107883 0.056243435
0.031309944 0.06437522 0.05887876 -0.03627809 -0.026003147 -0.014905876 -0.030295415 -0.025643228
0.04431691 -0.009878412 0.030744266 0.050249998 3.563592e-05 -0.024207508 -0.00095879304 -0.04370836
-0.029533612 -0.03141505 0.003575266 0.0021841873 0.012056385 -0.013383293 0.049619876 -0.00683164
-0.0042015137 0.024071243 -0.05441431 -0.057572003 0.018930174 -0.046051957 0.022306412 0.044982318
0.04090356 0.045620322 0.035594396 0.010674245 -0.033449028 -0.028831765 0.050892532 -0.015288818
-0.0217175 -0.04702383 -0.009784257 -0.033118535 0.03481759 -0.012258488 -0.041738603 -0.018958196
0.044262197 0.051614106 -0.059799705 -0.004569512 -0.051745158 -0.021849433 0.05832046 0.017055288
-0.041930307 0.0075327447 -0.04267312 0.021440912 0.020159064 0.023813311 0.055269327 0.058737442
-0.018698644 0.030641712 0.045363873 0.019642888 -0.018029423 -0.030898038 -0.037516072 0.003806592
-0.045506302 -0.051405694 -0.009083951 -0.026403721 -0.009163943 0.024235178 -0.045832634 0.0015652986
0.0012943156 -0.012126094 0.024297565 0.044516712 -0.011068714 -0.04970925 0.016730962 0.04172142
-0.0043225754 -0.0014678262 -0.059222117 -0.02127746 -0.033879682 -0.028873859 0.024966745 0.025303334

net.4.weight f4 [256, 256]
00000000: 6bbc 393d 9290 d1bc 30bc 43bd a345 66bd
00000010: 2b01 993b f2c0 243d 6276 4f3d 5717 d43c
00000020: cad8 363d 5e4c 773d a7f3 bbbc 0be4 b93c
00000030: e32c fcbc 1125 15bc e11f 57bc e1d8 cf3c
00000040: 022b 993c 8d3e c53b 6aba 553d 6d3f 1bbc
00000050: 50d1 52bd 9f78 fe3c d0f8 1abd 5b89 d83a
00000060: 3730 f83c d664 023d 7f5a b83c 9780 073d
00000070: 0a0c 983c 7652 55bd a4c9 683d 256e 35bc
00000080: 34cf 07bd b614 183c e5d0 69bd 285e 0a3c
00000090: 383d b5bb 63cf 33bd 8804 a93c 82f7 e33c
000000a0: 8278 d33c 8229 523d 3838 6abd 54c4 68bd
000000b0: 3500 3abd 8503 213b 0de5 bcbc 84d5 d1bc
000000c0: 103b 513d 96cb 1b3d 4d73 eb3c 7327 20bd
000000d0: 21d3 ca3a d2d9 f2bb 3510 f43c c3ec 9ebc
000000e0: 0b07 0c3d 96a4 3cbc 2dab 38bd 2c01 4c3c
000000f0: 09b9 9d3c f2da 2b3d e5cd b2bb 4d6d 733d
00000100: 5d46 bdbc f53d 77bd 5d86 78bc 1988 e43b
00000110: 2326 073b 1214 163d fb09 3dbc 8463 4d3c
00000120: 183f 833d 6f55 26bd cdfd bb3b e26d efbc
00000130: 34be 7bbd 8033 623d 5da1 573d 72c9 173d
00000140: d9f5 7cbc 8e9a c0bc b810 473d 126d 88bc
00000150: 6d13 73bd 0b1c aabc a797 613d e301 e9bc
00000160: afe2 663d 4e23 433d aaf7 26bd fd5a 7d3d
00000170: b7af 9a3b cd66 653c d85c 63bd 4d31 6fbc
00000180: 8b6e e53c 5763 d7bc 9920 1bbd 1444 9ebb
00000190: cbb8 ae3c 2c8d fbbc f2f1 603d ce1c 1639
000001a0: 483a 8f3c 765a 373d 89c1 643c 7831 253b
000001b0: c175 5fbd 426c 773d 5d99 92bc 5ff7 073d
000001c0: c8c2 f1bc b4f3 14bd 47ff 5c3d 886e eabc
000001d0: d898 fe3c 1113 563d baf9 593d 5955 5f3c
000001e0: 2020 253d 9825 163c 1f59 79bd 653f 9d3c
000001f0: afe4 46bd 5088 973c 2dd1 b5bb e4fb 143d
00000200: 0268 c8bc c471 20bd cf4f 25bc 2b39 99bc
00000210: 1a7a 273b 5021 f63b 9420 1c3d a86d a23b
00000220: f00e 77bc 0442 ae3c 022d 08bd 682a 3dbd
00000230: ca5a 68bd 1640 25ba 8e5f 5ebd 8fa7 09bd
00000240: d6bd a6bc c3cf 633b d8da 17bd 5ab4 a8ba
00000250: 7df1 26bd f103 ec3c 2551 333d aed0 0f3d
00000260: 6314 1dbc 18b8 e9bc aa15 04bc 0353 2c3d
00000270: 7c7d cf3c afd0 1dbc 7a24 0abd 1067 86bc
00000280: 5a36 233c 72b0 58b9 2744 623c 9bdf 0fbd
00000290: 4960 60bc ae4f 193d 7019 42bd 5b49 08bb
000002a0: 1348 543d 1647 dbbb 9d93 34bd 0053 dd3c
000002b0: a62d a4bc 996a 233d c058 a0bb fb1d e7bb
000002c0: 65a8 573d f2c9 35bd 8106 5cbd 0c9a 88bb
000002d0: 1c60 1ebd 57df 63bd 1e70 43bd 9043 0cbd
000002e0: b18a fcbc b43c b0bc 936e 353d b4a9 78bc
000002f0: 7e8d 293c b2da dabc d548 0bbd 0c27 06bd
00000300: 6369 c8bc 3abb 0fbd 7452 69bd 01ee 6f3d
00000310: 1a08 f8bc 16ed a33c 34ff 2c3d 587e 833c
00000320: 4186 7b3d 5623 323c 20be 073c c6c4 123d
00000330: c3c5 2939 d12c 423d 1f7d d33a 23f9 d13c
00000340: 638c 6b3d 7e62 62bc 6d0a 02bd 9fc4 7a3d
00000350: 8166 553c 9732 503d 6093 9a3b 9d05 22bd
00000360: f7d0 5e3d 537f fcbc 06cc a8bb ac60 3bbd
00000370: 62f3 943c 0c32 133d 93f8 413c d9e6 62bc
00000380: b6bd 3a3c 4e78 373c a6e4 3c3d e95b 783d
00000390: 7f7a 82bd a21f 133d cfcf 0e3d 55d8 bcbc
000003a0: 8d43 873c 8cdd c7b9 0745 39bd 24cc 1fbd
000003b0: 969e a53a ab82 12ba 68e7 cc3c 91a4 05bc
000003c0: edd2 3bbc 52a0 d8bc 3495 f13c 9efa 6a3c
000003d0: 86e3 3c3d 8d75 893c 143f 66bd 2426 4b3d
000003e0: d8db 453d 307f 0e3c a3e7 033d 6b68 20bc
000003f0: ab8f 7dbc d380 e63c df9c 6e3d f887 cfbc
0.045345705 -0.025581632 -0.04778689 -0.056218755 0.0046693287 0.04022307 0.050650008 0.025890036
0.04464034 0.060375564 -0.02294333 0.022691747 -0.030783122 -0.009103076 -0.013130159 0.02537197
0.018697266 0.0060194195 0.05217973 -0.009475571 -0.051469147 0.031063376 -0.037834942 0.0016520427
0.030296428 0.031834446 0.02250409 0.033081617 0.018560428 -0.052080594 0.056832924 -0.011073624
-0.03315659 0.009282282 -0.057083983 0.0084453 -0.0055309795 -0.04389895 0.020632043 0.027827982
0.025814299 0.051309116 -0.05718252 -0.056827858 -0.045410354 0.0024568748 -0.023058439 -0.025614507
0.051081717 0.03803595 0.028741503 -0.03910012 0.0015474298 -0.00741122 0.029792884 -0.019400006
0.034186404 -0.01151385 -0.04508512 0.012451451 0.01925327 0.04195685 -0.0054566734 0.05943041
-0.02310484 -0.06036182 -0.015168753 0.006974232 0.0020622096 0.036640234 -0.011538024 0.012535933
0.064085186 -0.04060882 0.0057370425 -0.0292272 -0.06146069 0.055224895 0.052644122 0.037057348
-0.015439474 -0.023511197 0.04859993 -0.016653571 -0.059344698 -0.020765325 0.055076268 -0.028443282
0.056368526 0.04764109 -0.040763535 0.06185435 0.004720654 0.01400156 -0.055508465 -0.014599157
0.028006813 -0.026292486 -0.037872884 -0.004829893 0.02132835 -0.030706964 0.054918237 0.00014315845
0.017483845 0.044764005 0.013962158 0.0025206488 -0.05455566 0.060405977 -0.017895395 0.033194896
-0.029511824 -0.036365226 0.05395439 -0.028617159 0.031078741 0.052264277 0.053216673 0.013631188
0.04031384 0.0091642365 -0.060876008 0.019195268 -0.048557933 0.018497616 -0.0055486173 0.036373034
-0.024463657 -0.039170995 -0.010089829 -0.018704018 0.0025554956 0.0075112954 0.038117006 0.0049569197
-0.015079245 0.021271713 -0.033246048 -0.04618302 -0.05672721 -0.00063038 -0.054290347 -0.033607062
-0.020354193 0.0034761287 -0.03707394 -0.0012871132 -0.040757645 0.028810473 0.043778557 0.03511112
-0.00958738 -0.028530166 -0.008061806 0.042071354 0.02532839 -0.009632274 -0.033726193 -0.016406566
0.009961689 -0.00020665096 0.013810194 -0.035125356 -0.013694831 0.037429504 -0.04738754 -0.0020795676
0.051826548 -0.0066918237 -0.044086087 0.027017117 -0.020041298 0.03989658 -0.0048933923 -0.0070531345
0.052650828 -0.044382043 -0.05371714 -0.0041687544 -0.038665876 -0.055632915 -0.047714345 -0.03424412
-0.030827852 -0.02151332 0.044294905 -0.015177179 0.010348676 -0.02671561 -0.034005005 -0.03275208
-0.024464315 -0.035090663 -0.0569634 0.058576588 -0.0302773 0.020010512 0.04223557 0.016051456
0.06140733 0.010872683 0.008285075 0.03583219 0.00016190768 0.04740602 0.0016135311 0.025631493
0.05750693 -0.013817428 -0.031748224 0.06122267 0.013024927 0.050829496 0.0047172755 -0.039556134
0.054398503 -0.030822432 -0.0051512746 -0.04574649 0.01818246 0.0359364 0.01183905 -0.013848984
0.01139777 0.0111981165 0.046116494 0.060634527 -0.063710205 0.03591884 0.03486615 -0.023052374
0.016511703 -0.00038121303 -0.045231845 -0.039013043 0.0012635763 -0.0005588929 0.025012687 -0.0081569115
-0.011463863 -0.026443634 0.02949009 0.014341978 0.04611542 0.016779685 -0.0562125 0.04959692
0.048305362 0.008697316 0.032203328 -0.00979052 -0.015476148 0.0281376 0.058255073 -0.02533339

net.4.bias f4 [256]
00000000: a1d9 56bd 956e 3dbd 9796 8dbc 69f2 f7bc
00000010: d471 39bd 1ccf 653d 034b f7bc c490 37bb
00000020: 7757 76bd 75fb 353d 8231 0abd d790 283d
00000030: 8f8b ff3c 4f3f 023d 3514 ec3c 851e 033d
00000040: d3f2 27bd 9be8 033b 2cea e83c ba89 48bd
00000050: 1cc5 8ebc 2917 48bc 17ad 05bd 88f4 3a3d
00000060: 9bb6 453c df2f 84bd 6be9 8f3c 3993 113d
00000070: b129 ebbc 5144 563d 305d 743d 09eb 6e3d
00000080: a4a0 053d ab1c c1ba 1a9e 3ebd e57f d0bc
00000090: dea5 de3c 9729 003d 34d4 223d 65ae 58bc
000000a0: 94b2 a53c 72cc 36bd 0182 783d b5ec 8fbc
000000b0: b363 66bd cbdd 29bd 46a0 0cbd 663b c4bc
000000c0: efb1 12bd 48de 393d 1f65 7abd 4a79 aa3b
000000d0: b05c 3dbd f529 793c d226 4fbd 9b9f 543d
000000e0: a43b 76bd 7863 fc3b 5a7e 3d3d 8f66 533d
000000f0: 12ed e43c 3d83 e8bc 2aee 913c b044 723d
00000100: 0544 463d b8cd 293d 581b 88bb 1b01 7e3d
00000110: 27d4 2e3d 6090 873c 0ff0 08bd 1542 5ebd
00000120: 0b9e 6e3d c6c3 3b3d f0c2 883b d1c5 6c3d
00000130: 4018 c3bc 6fe9 0dbc ad1a b63b 9f55 34bc
00000140: 54c9 d3bc e475 ddbc 7384 043d 24ec 18bc
00000150: cf73 49bd a129 76bd 349a 2fbd c8e8 b03c
00000160: 2f89 4b3c b842 c4bc 48b1 673d 62a3 99bc
00000170: 4773 10bd 4761 15bd 8668 8fbc 525d 063d
00000180: 2957 733d 817f 193d eb4a ccbc fa68 cebc
00000190: 5cd0 fcbc 8276 b73c cabb 6b3d 4e16 c43c
000001a0: 7eac 8c3c d38d 22bc 1cec e3bb 6944 0cbd
000001b0: 925d 3b3c 0b05 3c3d 3970 2ebc 4ca1 9dbc
000001c0: 21a7 5abd d09e 36bc 9dd5 b1bc e46d be3b
000001d0: c3c1 ad3b 1b9f 5c3d fb62 533d 0519 843c
000001e0: 166b 2e3d 7c02 84bd 52e0 4d3d 668e a8bc
000001f0: 5a79 75bc 01d1 51bd 4f70 24bc a86e 15bc
00000200: 1153 97bc 42a4 58bd 8392 00bd 0486 183d
00000210: 5dc1 57bd cc5c 873c f716 0b3b a5e6 cfba
00000220: 1786 153b 8c3a 25bd fb8c cebc edc0 1fbd
00000230: 6091 8d3c 2796 0e3d 4959 8f3c 19c8 27bc
00000240: 153f 2dbd c570 883c 65ca 45bd 76b9 bdbc
00000250: 4152 4ebd ba55 1e3d 503d 14bc 6717 463d
00000260: 631d f8bc 0e17 70bd a9ff 7abd 76bb 76bd
00000270: e40c 07bd cd75 b73c 934d b4ba 5eef 18bd
00000280: 92f4 753d bcb4 573c da0f 84bb b638 1dbc
00000290: f332 393d e0a6 66bd 58b8 5c3d dd50 ad3a
000002a0: 97d7 25bd 3f69 043d 5634 1d3c 4f95 61bd
000002b0: 75d4 39bd aa83 153d 0c96 4ebd 1f94 c33c
000002c0: c874 3f3d 5ce2 e0bc 8180 3abc 4ff0 253d
000002d0: 1521 c6bc 8cee a6bc f107 953c 43cb 6cbd
000002e0: 1aa8 debc dcf7 36bd 9c60 dfbc 86f7 4cbd
000002f0: 28b6 90bc 66a7 553d 682d 083d d945 99bc
00000300: 36a9 59bd 7b3f 36bd adaf 353b 7ee6 cd3a
00000310: 39ad 57bc 182c 04bb 9600 7c3d bdcb 2a3c
00000320: 3e83 1a3d 734e 11bc 4347 4dbd 696c 4e3c
00000330: 5a80 62bd 51a7 b4bb ef64 b838 a388 2639
00000340: 5b39 0ebd 2268 4abd d97f 033d 40a9 4ebb
00000350: 41fe 27bd efab 7b3b 066d 30bd 170d 79bd
00000360: 122c 253d c073 893c 6e1f 0abd 1a6c f7bc
00000370: a467 6cbd 22e8 d6bc d5a5 2b3d 6876 59bd
00000380: 30f0 083d 13ea f7bc 4f5f fc3c aa76 babc
00000390: 8f58 29bd 81b3 f73c 4c9d 123d 6d96 243d
000003a0: c681 62bd 11bf f4bc 40c2 fcbb a736 1b3d
000003b0: f82f 923c fce6 f1bc 3f74 0c3d b469 163a
000003c0: 7bb1 4dbc 1820 85bc 8dc4 493d 95b9 0b3d
000003d0: ed42 cd3c 9ed0 cf3c e12d 47bd ed6b e7bc
000003e0: 64b8 d9bc 72a5 1e3d 760e ebbc 66e7 4fbc
000003f0: 7b5d 6ebd 2cd1 2e3d 262d 83bd 8490 53bd
-0.05245364 -0.046248037 -0.01728372 -0.030266957 -0.04527457 0.056105718 -0.030187136 -0.002800987
-0.060142007 0.04442926 -0.03373862 0.041153755 0.031194476 0.031798657 0.02881823 0.032011528
-0.04100306 0.0020127657 0.028431974 -0.04895947 -0.017427973 -0.012212553 -0.032635774 0.04564336
0.012067462 -0.06454443 0.017567357 0.035540793 -0.028706403 0.052311245 0.059659183 0.058329616
0.032623902 -0.0014733275 -0.046537496 -0.02545161 0.027178701 0.031289663 0.039753154 -0.013225173
0.020226754 -0.044628568 0.060670856 -0.017568925 -0.056247424 -0.041471284 -0.034332536 -0.023954105
-0.035814222 0.045378 -0.061131593 0.005202447 -0.04623097 0.015207757 -0.05057413 0.051910024
-0.06011547 0.0077022873 0.046263076 0.05161148 0.027945075 -0.028382892 0.01781376 0.059147537
0.048404712 0.041455954 -0.0041536503 0.062012773 0.042682793 0.016548336 -0.033432063 -0.05426224
0.05825619 0.045841 0.004173629 0.05780584 -0.023815274 -0.008661612 0.005557379 -0.011006742
-0.025852837 -0.027033754 0.032352876 -0.009333644 -0.04918271 -0.060098294 -0.04287167 0.021595374
0.012422844 -0.023957595 0.056565553 -0.018754665 -0.035266187 -0.036469724 -0.017505895 0.03280384
0.059409294 0.037475113 -0.024938067 -0.025196541 -0.030861072 0.022395376 0.057552136 0.023936417
0.017172094 -0.009921509 -0.0069556367 -0.03424493 0.011435883 0.045903247 -0.010646873 -0.019241951
-0.053382043 -0.011146262 -0.021708304 0.00581144 0.005302639 0.053862672 0.051608067 0.016125211
0.042582594 -0.06445786 0.050262757 -0.020575713 -0.014982546 -0.051224712 -0.010036542 -0.009120621
-0.018472226 -0.052891023 -0.031389724 0.037237182 -0.05267464 0.016523741 0.0021223405 -0.0015861584
0.002281552 -0.040339038 -0.02521371 -0.039002348 0.017281234 0.034811165 0.01749863 -0.010240578
-0.042296488 0.016655335 -0.04828872 -0.023159724 -0.050371412 0.038655974 -0.009047821 0.048362162
-0.03028745 -0.058615737 -0.061278973 -0.06023737 -0.032971278 0.022395039 -0.0013756029 -0.037337653
0.060047694 0.013165649 -0.00403021 -0.0095960405 0.045214605 -0.05631149 0.05388674 0.0013222952
-0.040488806 0.032326933 0.009594997 -0.055074032 -0.04536863 0.036502518 -0.050436065 0.02387434
0.04674223 -0.027451687 -0.011383177 0.04051238 -0.024185697 -0.02037742 0.018192263 -0.057811033
-0.027179766 -0.04466997 -0.027267747 -0.050040744 -0.017664984 0.052161597 0.033246428 -0.018710064
-0.053139888 -0.044494133 0.002772312 0.0015708951 -0.013163858 -0.0020167883 0.061523996 0.010424552
0.03772282 -0.008868801 -0.05011679 0.012599089 -0.055298187 -0.0055131097 8.792604e-05 0.00015881895
-0.034722667 -0.049415715 0.032104347 -0.0031533986 -0.04101396 0.003840204 -0.043072723 -0.0608035
0.04032523 0.016778827 -0.03372138 -0.030202914 -0.057716027 -0.026233736 0.041906197 -0.053091437
0.033432186 -0.030262982 0.030807165 -0.022761662 -0.04134422 0.030236961 0.03579454 0.04018252
-0.055299543 -0.029876264 -0.007713586 0.037893917 0.017845139 -0.029529087 0.03429055 0.0005737797
-0.012554522 -0.016250655 0.04925971 0.03411253 0.025056327 0.025368031 -0.048627738 -0.028249705
-0.026577182 0.038732 -0.028693419 -0.012689447 -0.05819462 0.04267995 -0.06405096 -0.051651493

net.6.weight f4 [2, 256]
00000000: db4f 16bd 61ad 6abd f597 a63c 12d5 a1bb
00000010: 879a 25bd 1fbc 7bbd 19fc fd3a 5d49 19bd
00000020: 39e0 64bd 047f 283d 01ff 463a 2bb1 963c
00000030: 9ea5 ae3c 995f 1d3d 8b77 45bd 4585 82bd
00000040: ed49 f53c 6e8a cdbb fbf1 5dbd 3a5a 08bd
00000050: 6e26 b7bc 7f88 d3bc 07bb 05bd af53 21bd
00000060: 0871 233d bd93 733d b3ec 74bc ca23 a4bc
00000070: f3e2 193d d4e1 26bd 4d78 253d 8264 9d3b
00000080: d765 a7bc 277a 5abd d4d9 97bb a628 ebbc
00000090: e606 c3bc 8bd9 b43c 9443 543d 1cd7 773c
000000a0: c15a 453d 64fd cd3c 3cd9 34bd f7e0 503d
000000b0: 143d 083c 9bb3 7c3c 887e e1bc 557d 99bc
000000c0: 3e12 373b 2f84 e53c 8402 3c3c a280 533d
000000d0: 0a8b 83bc e852 433c 22fe 0c3b c380 9bbc
000000e0: 13f6 6fbd fb61 cfbc d890 58bc b56e 2bbd
000000f0: ced2 d43b d69e 81bd 9581 223d 303f 44bd
00000100: 24af 0bbd dfa4 3abd cc04 6bbc 4b86 ffba
00000110: d9c7 773c f04d 0c3d 3d9f fc3c af8c 35bc
00000120: f5b4 8b3c 93a6 83bd 5395 ab3b c620 4dbb
00000130: ef29 6d3d 28c2 95ba 7b8b 133d 4576 52bd
00000140: b317 7bbd 4b83 79bd d4e4 0a3d 474d 87bc
00000150: 09d3 ebbc 3149 8ebb eb64 003d e731 ecbc
00000160: b1b0 833a 3c3b 6abc 5152 543d 73a1 523c
00000170: ed1c 203d 243e 99bc 95de f4bc c39a 09bb
00000180: db8c 503d 1820 693c 5f55 d8bb 731f 44bd
00000190: 5b5e dbbc 1479 04bd e2b5 a8bc 24fa a43c
000001a0: f563 6ebb 8e94 46bd eb93 1f3d 3a0c a2bc
000001b0: ec84 2c3d 297c 1fbd 6037 ba3c 8e61 493d
000001c0: 59fb 1fbd eb44 7d3c d55d 9e3c a32a fc3a
000001d0: 9229 77bd 5eb2 36bd 2518 2cbd d6bd ba3c
000001e0: 226a 8b3c 18d5 493d d9a4 fc3c 87fc 29bd
000001f0: 8c0a 4a3d 82f9 523d c7ba d53c 66e2 043d
00000200: 0eb6 053d 240e 70bb cc17 5bbd 7dfc 0f3d
00000210: 6654 eebb 9840 8c3b 2856 d43c ee4c 24bd
00000220: 86fa 52bb 135d da3c 9405 76bd 6784 0cbc
00000230: 4bd2 7bbd 27f0 b1bb 0afb f83c 5660 a1bc
00000240: 4838 4e3a c782 1dbd 4d8f 4abd 4a94 9a3c
00000250: c5f1 a83c 93b3 2f3d 157a 4fbc d424 33bc
00000260: 76dd 0c3c 5045 5c3d b78a 3fbd f69a f73c
00000270: d016 563d 6f33 c03b d2ba 38bd 9ddb 1e3c
00000280: 8f09 b23c 4997 3bbd ed80 1ebd 65ed 76bd
00000290: b5c5 2f3d 3429 99bb a609 18bd 745a 2cbc
000002a0: 42e5 8d3c 1552 6bbc e0f4 edbc 0108 293b
000002b0: 7e0e 2a3d f4f8 fdb9 706a 8d3c a0e0 3f3d
000002c0: 4426 62bc effa 4cbd 0953 3bbd c9d4 0bbd
000002d0: 33dc 2c3d 3e97 d4bb 352d 0d3c f32f b4bb
000002e0: 876e 3cbc 9e1b d8bc 781f 363d bec8 7ebd
000002f0: 3dfc 113d 2b1d 3a3d 392c 3ebd ab90 1cbd
00000300: 4396 b2bb 7f9a 13bd e39c 3bbd fbc9 e5bc
00000310: 2a59 ab3c 70cc 503d 0aff 0dbd 684c 813d
00000320: 8f31 803b 3f8e 81bd 822b 6e3d 4370 fdbc
00000330: a9f1 78bd bd43 763d a8de 053d 8463 04bc
00000340: 10be 45bd ac64 683c 286a 6dbc 332f b93a
00000350: fd80 8a3c 45d4 7c3d ab39 60bd 2b11 44bd
00000360: eff1 7a3c 54d0 0bbd 05a3 1fbd ab22 9dbb
00000370: 5233 7c3d 75d2 b23c 20a8 cabc e4b3 66bd
00000380: badf 8bbc 0b20 80bd 952c 5bbd 101f 3dbd
00000390: 3dc7 283d ac7f 703c 9943 c23a a8ff 6c3c
000003a0: ed64 a7bc 46f9 493d 9f35 44bd b657 343d
000003b0: 4061 9c3b 2c53 8b3c 5f62 a43b 85f8 b6bc
000003c0: d414 ca3c a84c 70bd 67a6 1dbd 9b89 cfbc
000003d0: 5e09 59bd 41a5 723d 43ac 82bd 1161 bf3c
000003e0: a0e3 b03b 4bc7 ac3b e70a 4b3d b4b2 593d
000003f0: 7080 19bd 181b 57bd 3738 1d3d dfbc 34bd
-0.03669725 -0.057294253 0.02033613 -0.00493873 -0.040430572 -0.061458703 0.0019377499 -0.03742348
-0.055877898 0.041136757 0.0007591099 0.018395027 0.021319207 0.038421247 -0.04820971 -0.063730754
0.029942477 -0.0062726056 -0.05418585 -0.03328917 -0.022357192 -0.025821922 -0.032649066 -0.039386448
0.039902717 0.059467066 -0.014949012 -0.020036597 0.03756995 -0.04074271 0.04039793 0.004803241
-0.020434303 -0.05333915 -0.0046341214 -0.028705906 -0.023807 0.022076389 0.05182226 0.01512697
0.048182253 0.02514524 -0.044152483 0.050995793 0.008315343 0.015423681 -0.027526155 -0.01873652
0.0027934457 0.028017132 0.011475209 0.051636346 -0.01605751 0.011921622 0.002151378 -0.018982297
-0.058584284 -0.025315275 -0.013218127 -0.041853625 0.0064948564 -0.06329124 0.03967436 -0.047911823
-0.034102574 -0.04556739 -0.014344405 -0.0019494978 0.015123331 0.034254014 0.03083765 -0.011080905
0.01705406 -0.06428256 0.0052363067 -0.0031300052 0.05790132 -0.0011425661 0.03602169 -0.051382322
-0.0613019 -0.060916226 0.033909634 -0.01651634 -0.028787153 -0.004342221 0.031346243 -0.028832389
0.0010047165 -0.014296349 0.051836316 0.012855875 0.039090086 -0.018706389 -0.029891292 -0.0020996786
0.05091558 0.014228843 -0.006601974 -0.047881555 -0.02677839 -0.03234203 -0.020594541 0.020138808
-0.0036375497 -0.048481517 0.038959425 -0.01978122 0.04211895 -0.038936768 0.022731483 0.0491653
-0.039058063 0.015458326 0.019331852 0.0019238781 -0.06034238 -0.044603698 -0.042015214 0.022795599
0.017018382 0.049275488 0.030840324 -0.041500594 0.049326465 0.05150748 0.026090039 0.032442473
0.032644324 -0.0036629522 -0.05348949 0.0351529 -0.0072732447 0.004280161 0.025919989 -0.04011243
-0.003219278 0.02665571 -0.060063913 -0.008576489 -0.061479848 -0.0054302397 0.030393142 -0.019699257
0.0007866663 -0.038454797 -0.04945307 0.018869538 0.020623097 0.042895865 -0.012663384 -0.0109340735
0.008597722 0.05377704 -0.04676315 0.030225258 0.05226785 0.0058655064 -0.04510004 0.009695915
0.021733074 -0.045798574 -0.038697172 -0.06028499 0.042913157 -0.0046741012 -0.037118576 -0.010519613
0.017321233 -0.014362832 -0.02904743 0.0025792124 0.041517727 -0.00048441405 0.017262667 0.04684508
-0.013803069 -0.050043996 -0.045733485 -0.034138475 0.042202186 -0.006487756 0.008616735 -0.00549888
-0.011500961 -0.026380356 0.044463605 -0.06220316 0.035640944 0.045437973 -0.046428893 -0.038223904
-0.0054500415 -0.03603601 -0.045803916 -0.028050413 0.02091654 0.050976217 -0.034667052 0.063134015
0.003912158 -0.063259594 0.05814696 -0.03093732 -0.06077734 0.060123194 0.032683045 -0.008080367
-0.04827696 0.014184158 -0.014490642 0.0014128446 0.01690721 0.061725874 -0.054742496 -0.047867935
0.0153164705 -0.034134224 -0.038973827 -0.0047953925 0.06157238 0.02182887 -0.024738371 -0.0563239
-0.017074455 -0.06256112 -0.053509314 -0.0461722 0.041205633 0.014678877 0.0014821171 0.01446525
-0.020433867 0.04930999 -0.0479027 0.04402896 0.0047723353 0.017007433 0.0050166096 -0.0223353
0.024668135 -0.058666855 -0.03848877 -0.02533417 -0.05298745 0.05923963 -0.063805126 0.023361715
0.0053982288 0.005272781 0.049570944 0.05314894 -0.037476003 -0.052516073 0.03838369 -0.044125434

net.6.bias f4 [2]
00000000: 6dbd b53b 92fa e33c
0.005546263 0.027829442
