checkerboard/node/models/1000_model.pt (torch, 535780 bytes, 8 tensors)

net.0.weight f4 [256, 3]
0	0xbd7acbc6	-0.06122949
1	0x3d8895bb	0.06669184
2	0xbeb5aaeb	-0.35481963
3	0xbf1446e2	-0.5792066
4	0x3e155310	0.14582467
5	0xbe99b7a7	-0.30022928
6	0x3f1c4fbb	0.6105916
7	0x3e851029	0.25988892
8	0xbda2930f	-0.079382055
9	0x3e859c4f	0.26095816
10	0x3e9c648e	0.30545467
11	0x3f251b51	0.64494807
12	0xbeaadb02	-0.33370215
13	0xbf1def8f	-0.6169366
14	0x3ef378ad	0.47553006
15	0x3f0aef00	0.54270935
16	0xbd43052d	-0.047612358
17	0x3e9a34ed	0.30118504
18	0x3f0f09c3	0.5587427
19	0xbdebc90a	-0.115129545
20	0xbdd099fc	-0.1018562
21	0xbdb63fe9	-0.08898909
22	0x3dbc5499	0.09195823
23	0xbde7c88f	-0.113175504
24	0xbe715bb9	-0.23570146
25	0x3ecacd17	0.39609596
26	0x3f1d260d	0.61386186
27	0xbc7f1705	-0.015569453
28	0xbd56b354	-0.052417114
29	0xbe85534b	-0.2604011
30	0xbd84cdd2	-0.064845696
31	0xbf411bf1	-0.7543326
32	0xbe80f7d6	-0.25189084
33	0xbd3fa292	-0.0467859
34	0xbe3276ec	-0.17428178
35	0xbf3dad52	-0.7409259
36	0x3e560c19	0.20903052
37	0xbf191788	-0.5980153
38	0xbed783a8	-0.42092633
39	0xbc0ff119	-0.0087855095
40	0x3da56d93	0.0807754
41	0xbf0c5564	-0.54817796
42	0xbe7a45a8	-0.24440634
43	0xbe41b7d0	-0.18917775
44	0xbf403db4	-0.7509415
45	0xbdd474e8	-0.103738606
46	0xbce568ba	-0.02800404
47	0x3eaa82c1	0.33302882
48	0x3bf30630	0.007416509
49	0x3ed2d54f	0.41178367
50	0xbebce308	-0.3689196
51	0xbf09eaaa	-0.53873694
52	0x3eb1a675	0.3469731
53	0xbf26b9f1	-0.65127474
54	0x3d994c3d	0.074852444
55	0x3d1a6024	0.037689343
56	0xbd9c146b	-0.07621082
57	0xbf323247	-0.6960797
58	0xbf05cd97	-0.5226683
59	0xbe829914	-0.25507414
60	0xbc1f4540	-0.0097211
61	0x3e2fa1b2	0.17151526
62	0x3df897c0	0.12138319
63	0xbe9a328a	-0.30116683
64	0xbd7a3b94	-0.061091974
65	0x3f21c6f1	0.63194185
66	0x3c91441c	0.017732672
67	0xbe904840	-0.28180122
68	0x3f29f899	0.66394955
69	0x3d781bbe	0.060573332
70	0x3daeed41	0.08541346
71	0xbeabd2bd	-0.33559218
72	0xbf00189d	-0.50037557
73	0x3e980f8b	0.29699358
74	0x3f0f3da3	0.55953425
75	0x3d690b97	0.05689582
76	0x3edbbf97	0.4291961
77	0x3f2f491f	0.6847095
78	0xbf2a89a8	-0.66616297
79	0x3df8ad65	0.121424474
80	0x3c6b15f6	0.014348498
81	0xbae94745	-0.0017797729
82	0x3e1a7604	0.15084082
83	0xbea21347	-0.31655332
84	0xbf338b2d	-0.7013424
85	0xbea4e8a0	-0.3220873
86	0xbe9209e1	-0.28523162
87	0xbe9bf5c3	-0.3046094
88	0x3dabfc24	0.083977014
89	0x3e8832b3	0.2660118
90	0xbda5b11a	-0.0809042
91	0xbdc12e4c	-0.094326586
92	0xbe8303a7	-0.25588724
93	0x3ef85c6f	0.4850802
94	0xbf085144	-0.53249
95	0xbd46bb1f	-0.048518296
96	0xbecbdbac	-0.39816034
97	0xbd16c1fd	-0.036806095
98	0xbf67756b	-0.9041354
99	0x3d764e50	0.06013328
100	0x3c7c40ce	0.01539631
101	0xbed08129	-0.4072354
102	0xbeff9105	-0.4991533
103	0xbee3fc8c	-0.44528615
104	0xbc020a47	-0.007937021
105	0x3d63166a	0.055441298
106	0x3ca0c173	0.019623494
107	0xbdd30dde	-0.10305379
108	0xbdcf8ba5	-0.10134057
109	0x3c4de468	0.012566663
110	0x3d8716d7	0.06596153
111	0x3f22dc1f	0.6361713
112	0x3f3fa762	0.7486478
113	0xbd5ed783	-0.054404747
114	0x3eb5d3c5	0.3551313
115	0x3ee6cb5d	0.4507703
116	0x3f473106	0.7780918
117	0xbe1d4157	-0.15356956
118	0xbe924aa9	-0.28572586
119	0x3db5cc94	0.08876911
120	0xbc7f5698	-0.01558461
121	0x3e4d4041	0.20044042
122	0xbf30d40c	-0.6907356
123	0x3e6b195b	0.22958891
124	0xbe650264	-0.22364193
125	0x3e3ab77e	0.18234059
126	0xbeeb6c64	-0.45981133
127	0xbe9805a7	-0.29691812
128	0x3e537354	0.20649463
129	0x3e98d53c	0.29850185
130	0xbef7bcbc	-0.4838618
131	0x3f14339e	0.5789126
132	0x3c483b3b	0.012221153
133	0xbe376303	-0.17908864
134	0xbe488b6f	-0.1958444
135	0xbef8b5e5	-0.48576275
136	0x3e37c262	0.17945245
137	0x3eb79f46	0.35863703
138	0xbc54acaf	-0.012980624
139	0x3e437348	0.19086945
140	0x3e508ba2	0.20365766
141	0xbe29d700	-0.16585922
142	0xbf18c8ab	-0.59681195
143	0xbf558939	-0.8341251
144	0xbed175a6	-0.4091007
145	0x3ecf4526	0.40482444
146	0x3e966401	0.29373172
147	0xbe42c14c	-0.1901905
148	0xbe5119e3	-0.20420031
149	0x3dde8087	0.108643584
150	0xbecd5673	-0.40105018
151	0xbdf5e4fb	-0.12006565
152	0xbf0d3228	-0.5515466
153	0xbe81ab11	-0.25325826
154	0x3e8bce3e	0.27305788
155	0xbf714a48	-0.9425397
156	0xb9e102ff	-0.00042917577
157	0x3e3f6c3e	0.18693635
158	0x3f4e7731	0.8065062
159	0xbe527e5a	-0.20556012
160	0xbdc6c152	-0.09704842
161	0xbef9be87	-0.48778173
162	0xbd94c12b	-0.07263406
163	0x3b28ffcf	0.002578724
164	0xbf24e541	-0.64412314
165	0xbdbbf761	-0.09178043
166	0x3f0109b5	0.50405437
167	0x3eb9184f	0.36151358
168	0x3f162421	0.5864888
169	0xbd974933	-0.073870085
170	0xbd67280e	-0.056434684
171	0x3e1a40d0	0.15063787
172	0x3e1be135	0.15222628
173	0x3e684611	0.22682978
174	0x3ce8233a	0.02833711
175	0x3c165939	0.009176546
176	0xbe4c4e36	-0.1995171
177	0xbe555f6a	-0.20837179
178	0x3e8326ed	0.25615636
179	0xbf1423f0	-0.57867336
180	0xbe986134	-0.2976166
181	0x3c772550	0.01508458
182	0x3ef1cc95	0.47226396
183	0x3e885125	0.26624408
184	0x3e55ccf5	0.20878966
185	0xbf2fc62f	-0.6866178
186	0x3ebbeadc	0.3670262
187	0x3eaaf2ad	0.33388272
188	0x3edc7666	0.4305908
189	0x3f113c08	0.56732225
190	0xbe444125	-0.19165476
191	0x3ef488f6	0.47760743
192	0x3ec7da48	0.39033723
193	0x3ece83ee	0.4033503
194	0x3eccbc85	0.3998758
195	0x3efaaab9	0.48958376
196	0x3f0e0dca	0.5548979
197	0x3e1bb0e3	0.15204196
198	0xbe16c678	-0.14724147
199	0x3f086109	0.53273064
200	0xbe9fa6af	-0.31181857
201	0xbead2cd6	-0.3382327
202	0x3e897022	0.26843363
203	0xbd1e8c4b	-0.038708013
204	0x3eb0b2ac	0.34511316
205	0xbeb9adf4	-0.36265528
206	0x3ea92959	0.33039358
207	0xbf1e96f1	-0.6194907
208	0xbe90de66	-0.28294677
209	0xbf080c48	-0.5314374
210	0xbe883b5e	-0.26607794
211	0x3e4b222e	0.19837257
212	0x3f3006fa	0.68760645
213	0x3e304157	0.17212425
214	0xbe08e709	-0.13369383
215	0x3e0d14be	0.13777444
216	0xbde7e59e	-0.11323093
217	0xbd82b3e6	-0.06381969
218	0xbead0272	-0.33790928
219	0x3ed53c55	0.41647592
220	0xbdc3e33d	-0.09564827
221	0x3eba2281	0.3635445
222	0x3d1cd003	0.038284313
223	0xbdfc18d4	-0.12309423
224	0xbeb84cde	-0.35996145
225	0xbeda68dc	-0.42658126
226	0x3e56eeff	0.20989607
227	0x3ec6514b	0.38733897
228	0xbf0024ba	-0.5005604
229	0x3e199b27	0.15000592
230	0xbedb8b9f	-0.4287996
231	0xbe556077	-0.2083758
232	0xbe1b55ea	-0.15169492
233	0x3edf1c15	0.43576112
234	0x3eeeb304	0.46620953
235	0x3ee3ff29	0.4453061
236	0x3e68d93d	0.2273912
237	0x3e3400a9	0.17578377
238	0x3e60fca4	0.21971375
239	0x3f24c2a7	0.64359516
240	0x3e7db7c5	0.24777134
241	0xbe99a08d	-0.30005303
242	0x3f080f3c	0.53148246
243	0x3f125b45	0.57170516
244	0xbe06aaf8	-0.13151157
245	0x3eeab5f8	0.45841956
246	0x3e450685	0.19240768
247	0xbf1f9768	-0.623404
248	0x3e374b99	0.17899932
249	0xbdaf883e	-0.08570908
250	0x3ef842c0	0.48488426
251	0x3efa6b7b	0.48910126
252	0x3cb9e057	0.022689981
253	0x3e7219a6	0.23642597
254	0x3e7e66c9	0.24843897
255	0x3e5ef005	0.21771248

net.0.bias f4 [256]
0	0xbed0e9fb	-0.40803513
1	0x3e7d2e52	0.24724701
2	0xbe66f375	-0.22553809
3	0x3d27c18f	0.040956076
4	0x3e77f1e4	0.24213368
5	0xbde0770a	-0.10960205
6	0x3badb1c4	0.0053007323
7	0xbf1ed7ec	-0.6204822
8	0xbe658473	-0.22413807
9	0x3eb8c880	0.3609047
10	0x3dab7eff	0.08373832
11	0xbe37769a	-0.17916337
12	0x3ed5f64e	0.41789478
13	0xbf0ab5b6	-0.5418352
14	0x3e1975ae	0.14986297
15	0x3e8fc3b7	0.28079006
16	0xbe8a1ca7	-0.26974985
17	0xbe2adeac	-0.16686505
18	0x3ea4a264	0.32155144
19	0x3debdb71	0.115164645
20	0x3f22b246	0.63553274
21	0x3ea63c2f	0.3246779
22	0x3f08296f	0.5318822
23	0xbed1f391	-0.4100614
24	0x3eff3cdd	0.49851122
25	0x3f3a1b50	0.72697926
26	0x3dbcbae0	0.09215331
27	0x3f19aedc	0.6003244
28	0xbcc2159e	-0.023691949
29	0x3ea8bb6e	0.32955498
30	0xbef0773f	-0.46965978
31	0xbed94501	-0.42435458
32	0xbdda86fc	-0.106702775
33	0xbe5dc831	-0.21658398
34	0x3e79d368	0.24397051
35	0xbe7a1446	-0.24421796
36	0x3ed156aa	0.40886432
37	0xbd958b2a	-0.07301934
38	0x3d09af39	0.03361437
39	0xbe84a789	-0.2590907
40	0xbf273951	-0.6532183
41	0x3e11277d	0.1417522
42	0x3daa6ce6	0.08321552
43	0xbea5ef23	-0.3240901
44	0xbf296985	-0.66176635
45	0x3e160057	0.14648567
46	0x3f0e78b0	0.55652905
47	0xbdaef601	-0.08543015
48	0xbf144f94	-0.57933927
49	0x3e98d94f	0.29853293
50	0xbec5168c	-0.38493764
51	0xbeed7f87	-0.46386358
52	0xbe0515e5	-0.12996633
53	0xbec7ce68	-0.39024663
54	0xbe7eeedf	-0.2489581
55	0x3b69ec2d	0.003569375
56	0x3dda654d	0.10663853
57	0x3e662296	0.22474131
58	0xbdf92852	-0.121658936
59	0xbf1a84a5	-0.6035865
60	0x3eb9c219	0.36280897
61	0xbe05652e	-0.13026878
62	0x3b1a722a	0.0023566582
63	0xbd958bb8	-0.0730204
64	0x3d2fe6c2	0.042944677
65	0xbded4dfb	-0.11587139
66	0x3e833792	0.25628334
67	0xbf3764e4	-0.7163832
68	0xbf006723	-0.50157374
69	0xbd2cb6a9	-0.042166386
70	0x3e3734ae	0.1789119
71	0x3eb4b577	0.35294697
72	0xbeae7d59	-0.34080008
73	0x3de4195e	0.11137651
74	0x3e29c2c1	0.16578199
75	0x3d943313	0.07236304
76	0x3e77bab5	0.24192317
77	0x3d71ddae	0.0590493
78	0x3e7ae6d1	0.24502112
79	0x3ee1b776	0.44085282
80	0x3e911b77	0.28341267
81	0x3d8ec60a	0.06971367
82	0x3d36a6b7	0.044592585
83	0xbd9f3ae9	-0.07774908
84	0xbf4d79c4	-0.80263925
85	0x3ed4a302	0.41530615
86	0x3f08feea	0.5351397
87	0xbf09f073	-0.5388252
88	0xbf04b68d	-0.5184105
89	0x3dc12177	0.09430211
90	0xbee5a582	-0.44852835
91	0x3dd19f26	0.10235433
92	0xbf156072	-0.5835029
93	0x3e3da427	0.1851965
94	0x3ea2b377	0.31777546
95	0x3e7522bb	0.2393903
96	0xbf13717c	-0.5759504
97	0xbe9835e9	-0.2972863
98	0x3e4f09fa	0.2021865
99	0xbd0748d5	-0.033028442
100	0xbd36e084	-0.04464771
101	0xbf219208	-0.6311345
102	0x3ef72fe2	0.4827872
103	0xbebc267a	-0.36748105
104	0x3eeb3342	0.45937544
105	0x3e97a498	0.29617763
106	0x3eb81112	0.35950524
107	0x3d1f9d44	0.03896834
108	0x3e4fd1ac	0.20294827
109	0x3e82173f	0.2540836
110	0x3c9d2990	0.019184858
111	0x3e7e62a3	0.24842314
112	0x3ebbc76d	0.36675587
113	0x3eb2a679	0.34892634
114	0xbe4a896f	-0.1977899
115	0xbe0f38c2	-0.13986495
116	0xbd502505	-0.050816555
117	0xbea86466	-0.32889098
118	0xbe8b53de	-0.27212423
119	0xbe87e451	-0.2654138
120	0xbeb1edc7	-0.34751722
121	0x3f15e2e6	0.58549345
122	0xbe784895	-0.24246438
123	0xbee2c6ee	-0.44292396
124	0xbd60a5d4	-0.054845646
125	0x3e34d46e	0.1765916
126	0xbf3bfd49	-0.7343336
127	0x3f294fcb	0.6613738
128	0x3eda4f14	0.42638457
129	0xbed51039	-0.4161394
130	0xbea0a0a6	-0.31372565
131	0xbddbfcc6	-0.10741572
132	0x3eb63740	0.35589027
133	0x3e58d5f7	0.21175371
134	0xbeb2be5a	-0.34910852
135	0xbe87b6cd	-0.26506653
136	0x3f1ba542	0.6079904
137	0xbf0ac68c	-0.5420921
138	0xbebb17c1	-0.3654156
139	0xbea4fc7b	-0.32223877
140	0xbeb10950	-0.34577417
141	0x3df216f4	0.11820784
142	0xbea5f3c5	-0.32412544
143	0xbf0ab49e	-0.5418185
144	0x3e95ae2a	0.2923444
145	0x3f082e8b	0.5319602
146	0xbf117ce6	-0.56831205
147	0xbeb283f6	-0.34866303
148	0xbe7de6ad	-0.24795027
149	0x3df05e50	0.11736739
150	0xbd641bad	-0.055690456
151	0xbd252268	-0.040316015
152	0xbf1ddf1c	-0.6166856
153	0xbf2e0d46	-0.67989004
154	0xbf194bea	-0.5988146
155	0xbf0d200d	-0.5512703
156	0x3ef6a529	0.48172882
157	0x3f1617b6	0.5862993
158	0x3ce90333	0.028443908
159	0xbf06030c	-0.523484
160	0x3e9d0d2a	0.30674106
161	0xbed51375	-0.41616407
162	0x3eef8957	0.4678447
163	0xbf07c3f8	-0.530334
164	0xbe5fe2b3	-0.21863823
165	0xbe85ab48	-0.2610724
166	0xbe963175	-0.29334608
167	0xbedb1b9f	-0.4279451
168	0x3ee1e54b	0.4412025
169	0xbec1cf7a	-0.37853605
170	0x3ab3131c	0.0013662311
171	0x3e887821	0.2665415
172	0xbf2b7479	-0.669746
173	0xbedd9029	-0.43274048
174	0x3ed9b9bd	0.4252452
175	0xbda3e45b	-0.0800254
176	0xbeb94978	-0.36188865
177	0xbd2e232c	-0.04251401
178	0xbd02ca7f	-0.031931397
179	0xbf16de81	-0.58933264
180	0xbcd46337	-0.025926216
181	0xbf1a9fe5	-0.6040023
182	0x3f11dfe9	0.56982285
183	0xbeda2a15	-0.4261023
184	0xbecf9043	-0.4053975
185	0x3ebf8a45	0.3741018
186	0x3e8dd103	0.27698526
187	0xbe46a14b	-0.19397466
188	0x3ea973e6	0.33096236
189	0xbe1f2b4f	-0.15543865
190	0xbec01b57	-0.3752086
191	0x3ddce822	0.10786463
192	0x3dbd0f3a	0.0923142
193	0xbeb8a3d2	-0.36062485
194	0x3de0146c	0.10941395
195	0xbd946694	-0.07246128
196	0xbf17194b	-0.5902297
197	0x3ef8596c	0.48505723
198	0xbe8d72bf	-0.27626607
199	0xbe3455a9	-0.17610802
200	0xbeea2d83	-0.45737848
201	0x3d4cdd43	0.0500157
202	0x3dc22210	0.09479153
203	0xbf20551e	-0.6262988
204	0x3e8857eb	0.26629576
205	0xbf304157	-0.688497
206	0x3f1862aa	0.5952555
207	0x3e1bfb4e	0.15232584
208	0xbded431a	-0.11585064
209	0xbef6ed40	-0.48227882
210	0xbeb44277	-0.3520696
211	0xbe89ff4c	-0.2695259
212	0x3f05d8d8	0.52284
213	0x3eb78fbf	0.35851857
214	0xbf2f8076	-0.6855539
215	0xbeca52a4	-0.39516175
216	0xbe9bc3a2	-0.30422693
217	0x3d289c41	0.04116464
218	0xbf24035e	-0.6406764
219	0xbec5e6cd	-0.3865265
220	0xbdf81ec2	-0.121152416
221	0xbf136770	-0.5757971
222	0xbebb77fb	-0.36614975
223	0xbeedc39f	-0.4643831
224	0x3ea05398	0.31313777
225	0xbd8001c8	-0.0625034
226	0xbf086626	-0.53280866
227	0x3c89c8ad	0.016819322
228	0xbeec26fb	-0.4612349
229	0x3e78265b	0.24233381
230	0x3e075553	0.13216142
231	0xbdac2994	-0.08406368
232	0x3f248eab	0.64280194
233	0x3e46e75f	0.19424199
234	0x3f118ec0	0.56858444
235	0x3d288fa8	0.041152626
236	0x3d180a8e	0.03711944
237	0xbf2c6073	-0.6733467
238	0x3cd3ca99	0.025853442
239	0xbef4cfb8	-0.47814727
240	0xbdf2a1c7	-0.11847263
241	0x3e5690c7	0.20953666
242	0xbc33f392	-0.010983365
243	0xbf083922	-0.5321218
244	0xbed0d732	-0.4078918
245	0x3f08ed09	0.53486687
246	0x3e6d6652	0.23183563
247	0x3dcffece	0.10156022
248	0x3df6cffc	0.120513886
249	0xbf029d70	-0.5102148
250	0x3e66d2f3	0.22541408
251	0x3f00ba8b	0.5028464
252	0xbea1d006	-0.31604022
253	0xbf0e4361	-0.5557156
254	0xbec23ad5	-0.3793551
255	0xbf12526e	-0.5715703

net.2.weight f4 [256, 256]
0	0xbd84ba3a	-0.064808324
1	0x3d6d4fb6	0.057937346
2	0x3c29bea1	0.010360391
3	0x3da4a96a	0.08040126
4	0xbcc93fb9	-0.024566518
5	0x3d0f30dc	0.034958705
6	0x3cfa796f	0.030575482
7	0xbcfe9cc0	-0.031080604
8	0x3d5c1b59	0.05373702
9	0xbd625fe3	-0.055267226
10	0xbd009ee9	-0.03140155
11	0xba22446c	-0.0006190005
12	0xbcadb725	-0.021205494
13	0xbd48a7db	-0.048988204
14	0xbbd2d736	-0.0064343465
15	0xbcd8b514	-0.026453532
16	0xbca4ddbd	-0.020125264
17	0xbd177ab6	-0.03698226
18	0x3cf4464e	0.02981868
19	0x39edc762	0.00045352714
20	0x3a9fd5b8	0.001219443
21	0xbd268bc6	-0.040660642
22	0x3d865e8c	0.06561002
23	0xbd9eddd2	-0.077571526
24	0x3c41cfb8	0.011829309
25	0xbc49b0c8	-0.012310214
26	0xba875f2b	-0.0010328045
27	0x3c9c0ff5	0.019050578
28	0xbc479501	-0.012181521
29	0xbcb4ee52	-0.022086296
30	0xbd5dac97	-0.054119673
31	0xbd090c1d	-0.033458818
32	0x3ca49dee	0.020094838
33	0xbcf6d409	-0.030130403
34	0x3d4c853d	0.049931753
35	0xbd197b13	-0.03747089
36	0xbb4a1c3f	-0.003083959
37	0x3cfa25f0	0.030535668
38	0x3d45b2ad	0.0482661
39	0xbd140fad	-0.036147762
40	0x3cf6eb8d	0.030141616
41	0x3cf239b2	0.029568527
42	0x3d51ac67	0.051189806
43	0x3b8e982d	0.004351637
44	0x3c30fe85	0.01080287
45	0xbd10f148	-0.035386354
46	0x3cbcfdd4	0.023070253
47	0xbcce6d45	-0.025198588
48	0x3d3d390a	0.046196975
49	0x3d8240ea	0.063600376
50	0x3d5ed208	0.05439952
51	0x3c7b2ad4	0.015330035
52	0x3d29db10	0.04146868
53	0x3c8dcfc9	0.017310994
54	0xbc81fd17	-0.015867753
55	0x3bff7ca4	0.0077968407
56	0x3d441027	0.047866967
57	0xbd1c666a	-0.038183607
58	0x3bc43de1	0.005988822
59	0xbb60d3dc	-0.0034305966
60	0x3bdc1f7e	0.0067176213
61	0x3b527626	0.003211388
62	0x3d627854	0.055290535
63	0x3d96a521	0.073557146
64	0xbd16a5ac	-0.03677909
65	0x3ba99e62	0.0051763514
66	0xbcf74726	-0.030185293
67	0x3c05ff4b	0.008178542
68	0x3cad1e44	0.021132596
69	0xbd075640	-0.03304124
70	0xbc904d4c	-0.017614983
71	0xbd29787b	-0.041374665
72	0x3cb53230	0.022118658
73	0x3d7cd92d	0.061730552
74	0x3d0c68c3	0.034279596
75	0xbc8dde68	-0.017317966
76	0xbd1c4516	-0.038151823
77	0xbc9844e7	-0.018587543
78	0x3d0dc6cb	0.034613412
79	0xbb069aa6	-0.0020538955
80	0xbc9ebedf	-0.019378124
81	0x3d6713fa	0.056415536
82	0xbc395fe3	-0.011314365
83	0x3d81773c	0.0632157
84	0xbd7e0054	-0.06201203
85	0xbd49904d	-0.04920988
86	0xbcf223b8	-0.029558048
87	0xbc813b94	-0.01577548
88	0xbd359304	-0.04432966
89	0x3d5931cc	0.053026006
90	0xbbe10e95	-0.0068681934
91	0x3d5bb705	0.053641338
92	0x3d2d8a4f	0.04236823
93	0xbc326335	-0.010887911
94	0x3b815149	0.0039464575
95	0x3b2c8331	0.0026323313
96	0xbd69ebee	-0.057109766
97	0xbcacf8b1	-0.021114679
98	0x3bf754d3	0.0075479536
99	0xbd52109e	-0.05128538
100	0xbc4392d5	-0.011936863
101	0xbda63268	-0.08115083
102	0x3d1ef6b9	0.03880951
103	0x3d7198e5	0.058983702
104	0x3cbac40e	0.022798564
105	0x3cd70619	0.026248025
106	0x3b35c055	0.0027733047
107	0x3d4ca07e	0.049957745
108	0x3bd2727e	0.00642234
109	0x3d0350ac	0.032059357
110	0x3c0d2c22	0.008616479
111	0x3d97ff22	0.074217096
112	0xbcea538c	-0.028604291
113	0x3d4bb228	0.04973045
114	0x3c9896af	0.018626539
115	0xbc832c17	-0.016012235
116	0xbd21028a	-0.039309062
117	0xbd3b94fc	-0.04579638
118	0xbc745ce1	-0.014914722
119	0xbd5179f7	-0.051141705
120	0x3d80707b	0.06271454
121	0x3d2ef07c	0.042709813
122	0x3d2374a5	0.039906163
123	0xbd312ae2	-0.043253787
124	0x3cb17f19	0.02166705
125	0xbbf25c53	-0.00739626
126	0x3a813152	0.0009856618
127	0x3c752430	0.014962241
128	0x3d204b2f	0.0391342
129	0xbd5b8533	-0.053593826
130	0xbd19b582	-0.037526615
131	0xbd73173d	-0.059348334
132	0xbcad60bc	-0.02116429
133	0x3cb66c4b	0.022268435
134	0xbd75bb7e	-0.05999326
135	0x3cd8b863	0.02645511
136	0xbd5460d0	-0.05185014
137	0xbcce67b2	-0.02519593
138	0xbd68baad	-0.056818653
139	0x3d8beb7b	0.06832024
140	0x3c11d7c7	0.008901543
141	0x3c9e8f92	0.019355569
142	0x3d67c49f	0.056583997
143	0xbd1cff1f	-0.03832924
144	0x3cdf1c4d	0.027235175
145	0xbcee47b4	-0.029086925
146	0xbd4affa8	-0.04956022
147	0xbd6e5ec9	-0.058195863
148	0x3cefbe9b	0.029265692
149	0xbbe26227	-0.0069086733
150	0xbd7d8e86	-0.0619035
151	0xbb135f71	-0.0022487307
152	0xbd0898b7	-0.033348765
153	0x3d4ffce1	0.050778273
154	0xbd64d9e7	-0.05587187
155	0x3c3b91a4	0.011448298
156	0xbc849704	-0.016185291
157	0xbcd50ef5	-0.026008109
158	0x3cb8bae3	0.022550052
159	0x3d694755	0.056952793
160	0xbb1f4adb	-0.0024306092
161	0xba80b631	-0.0009819922
162	0xbd004f33	-0.03132553
163	0x3cdf0a54	0.027226605
164	0xbcac84a6	-0.021059345
165	0x3d909a94	0.070607334
166	0x3cee2197	0.029068751
167	0xbd1fc29e	-0.03900396
168	0x3d68fb8d	0.056880523
169	0xbcfae918	-0.030628726
170	0x3bd37295	0.006452868
171	0x3cf92562	0.030413333
172	0xbd3b3d93	-0.04571302
173	0x3c52057b	0.012818689
174	0x3d9d8d56	0.07692973
175	0xbcf0fc96	-0.029417317
176	0xbd11d782	-0.035605915
177	0xbb40dfe0	-0.0029430315
178	0xbcf296fe	-0.029613014
179	0xbc04bb1d	-0.008101252
180	0x3cf6ab2a	0.030110914
181	0x3cc1bd2d	0.023649776
182	0x3d89556d	0.06705747
183	0x3d694500	0.05695057
184	0x3b410e33	0.0029457926
185	0x3b90bb9e	0.004416897
186	0x3a25111f	0.0006296802
187	0x3c2b90f9	0.010471576
188	0xbd394052	-0.045227356
189	0xbc8d613e	-0.017258283
190	0xbc8edfec	-0.017440759
191	0x3d82dd54	0.06389871
192	0x3d77e52a	0.060521282
193	0x3c7ea49f	0.015542178
194	0xbccdfcbe	-0.02514493
195	0xbd7b39b0	-0.061334312
196	0xbd3e21e0	-0.046419024
197	0xbd126b4e	-0.035746865
198	0xbcd36dde	-0.025809225
199	0x3d1c43f2	0.038150735
200	0x3d376f8d	0.044784117
201	0x3c8693dd	0.016427929
202	0xbd725578	-0.05916354
203	0x3d380ba5	0.04493298
204	0xbd0b46f1	-0.034003202
205	0x3d421e60	0.04739225
206	0x3d883899	0.0665142
207	0x3d2debc6	0.04246118
208	0x3cc939a6	0.024563622
209	0x3cd3ecb1	0.0258697
210	0x3c9dfd64	0.019285865
211	0xbd24a8f3	-0.040200185
212	0xbcba99fe	-0.022778507
213	0xbcbf2118	-0.02333121
214	0xbc95920b	-0.018258115
215	0xbc89516d	-0.01676246
216	0xbd1c84d1	-0.0382126
217	0x3d8478f9	0.06468386
218	0x3d197adf	0.037470695
219	0xbd44f320	-0.048083425
220	0xbd02e4cb	-0.031956475
221	0x3c137919	0.00900104
222	0x3d4da019	0.05020151
223	0x3c651155	0.013981183
224	0xbd5bb19c	-0.05363618
225	0xbd35e710	-0.04440981
226	0x3d225c5e	0.03963887
227	0x3cf81ab8	0.030286178
228	0x3cc12961	0.023579301
229	0x3ce9769f	0.028498946
230	0x3d12997f	0.035790917
231	0x3d160de7	0.036634352
232	0x3d9d7482	0.07688238
233	0x3d4c4b08	0.049876243
234	0x3c84a8c1	0.01619375
235	0x3d6e67e5	0.05820455
236	0x3d1a47cf	0.03766614
237	0x3cd8e3cd	0.026475811
238	0xbd3f8f4a	-0.04676751
239	0xbb53a578	-0.0032294672
240	0xb9c94892	-0.00038391777
241	0x3c195844	0.009359423
242	0x3d5d0df6	0.053968392
243	0x3d3f5371	0.046710435
244	0xbd1cf81f	-0.038322564
245	0x3d109c76	0.035305463
246	0x3d913f3a	0.07092138
247	0x3d11161d	0.03542148
248	0x3ceff84d	0.029293204
249	0xbb9f3609	-0.0048587364
250	0x3c0778cb	0.008268545
251	0xbd67b2f2	-0.05656714
252	0x3d8256a2	0.0636418
253	0x3ca5b313	0.02022699
254	0x39dd685a	0.00042230153
255	0x3c73371c	0.014844682

net.2.bias f4 [256]
0	0x3d89a6fb	0.06721302
1	0x3c9d2247	0.019181384
2	0xbd8aa0f5	-0.06768981
3	0x3d5a56cb	0.05330543
4	0x3cd9c8c4	0.02658499
5	0xbd733ca6	-0.05938401
6	0xbcc8dc68	-0.02451916
7	0xbd542084	-0.05178882
8	0x3d0a2da5	0.033734936
9	0x3d1e5793	0.038657736
10	0x3cad5f43	0.021163588
11	0xbd51defe	-0.051238053
12	0x3d22134c	0.039569184
13	0x3cf25e5b	0.029586008
14	0xbc996ee4	-0.018729635
15	0x3d678754	0.056525543
16	0x3b487ed9	0.0030593185
17	0x3cd66737	0.026172264
18	0xbc912140	-0.01771605
19	0xbda0f0b1	-0.07858408
20	0xbd2ad447	-0.04170635
21	0xbc3ab50d	-0.011395705
22	0xbc5c72d1	-0.013455109
23	0xbd362d63	-0.044476878
24	0x3c196064	0.00936136
25	0x3cedc0c0	0.029022574
26	0xbc765f62	-0.0150373895
27	0xbd04ccd0	-0.032421887
28	0xbb2b6f79	-0.0026158972
29	0xbd098f4f	-0.033583935
30	0xbc91fc62	-0.01782054
31	0xbd39f000	-0.045394897
32	0xbd103609	-0.035207782
33	0x3d1c5d38	0.038174838
34	0xbd9b8a45	-0.07594732
35	0x3b43362e	0.0029786932
36	0xbd3f3f0e	-0.046690993
37	0x3d070aeb	0.032969397
38	0x3da1e2c7	0.079045825
39	0x3cacd333	0.021096801
40	0xbc6e9557	-0.014561973
41	0xbd7c15e4	-0.061544314
42	0x3cdc28ca	0.026874918
43	0xbd10b579	-0.035329316
44	0x3c2bc7a3	0.010484609
45	0x3da476fd	0.08030508
46	0xbbac8077	-0.0052643376
47	0x3c8b2c8d	0.016989017
48	0xbc73e55a	-0.014886225
49	0xbc41dacb	-0.011831949
50	0xbacc7531	-0.0015598891
51	0xbd72e477	-0.059299912
52	0xbd55e2c2	-0.052218206
53	0xbd65253c	-0.055943713
54	0xbd8279d4	-0.06370893
55	0x3ce2d78d	0.027690673
56	0xbd466ed6	-0.048445545
57	0xbcc786c6	-0.024356257
58	0x3c479eff	0.012183904
59	0xbd21f8a3	-0.03954376
60	0x3d9794ab	0.07401403
61	0xbd0f11ef	-0.034929212
62	0xbd859b11	-0.06523717
63	0xbd5bea93	-0.053690504
64	0x3cda51e8	0.026650384
65	0xbd462963	-0.048379313
66	0x3cef7c33	0.029234027
67	0xbcdddea5	-0.027083704
68	0x3d2450e9	0.040116224
69	0x3d7049a3	0.058663975
70	0xbce3e641	-0.027819755
71	0xbd9fd0df	-0.07803511
72	0xbd15bc98	-0.03655681
73	0xbc6a54bd	-0.01430243
74	0xbb5fd265	-0.0034152505
75	0xbbfaa55c	-0.007649107
76	0xbd3dd964	-0.046349898
77	0x3cee39a3	0.029080218
78	0x3cd2687b	0.025684586
79	0x3c26664d	0.010156226
80	0xbd863d91	-0.065547116
81	0xb6f54dc0	-7.3106203e-06
82	0x3c8e9650	0.017405659
83	0x3d80c86e	0.06288229
84	0xbcea35f0	-0.028590173
85	0x3d31db4a	0.04342202
86	0xbbfe088a	-0.007752483
87	0x3d0c811a	0.03430281
88	0xbd7b0cf0	-0.061291635
89	0xbc4a6c08	-0.012354858
90	0xbd2f4be1	-0.042796973
91	0xbd82d6a0	-0.06388593
92	0xbd2dc838	-0.04242727
93	0x3c1f50b3	0.00972383
94	0xbd91d2b2	-0.07120265
95	0x3ca56d74	0.020193793
96	0x3ce6feca	0.028197665
97	0x3d38852c	0.045048878
98	0x3c70d05a	0.014698112
99	0xbcc28bd9	-0.023748325
100	0x3c17098a	0.009218583
101	0x3ca5f306	0.020257484
102	0xbce649aa	-0.028111298
103	0xbcf5937c	-0.029977553
104	0x3c49ad50	0.012309387
105	0xbb9eb97e	-0.0048438897
106	0x3cd87c56	0.026426475
107	0xbd5699b3	-0.052392673
108	0xbdaba937	-0.083818845
109	0xbca90368	-0.020631507
110	0xbb990d3f	-0.0046707685
111	0x3d239cfa	0.039944626
112	0x3c6b7807	0.0143718785
113	0xbd3bcc87	-0.04584935
114	0xbd705455	-0.058674175
115	0xbd2a6553	-0.041600537
116	0x3d655c4f	0.055996235
117	0xbd9001cc	-0.07031593
118	0x3c9c2077	0.01905845
119	0x3cd2b637	0.025721652
120	0x3c4f67b7	0.012659005
121	0xbcf6dbce	-0.030134108
122	0xbc20e3e9	-0.009819963
123	0xbc38f47e	-0.01128876
124	0x3c93fac4	0.01806391
125	0x3d187c04	0.037227646
126	0xbd7968de	-0.060891025
127	0xbd3c44cc	-0.045964047
128	0xbc2c19cd	-0.010504198
129	0xbc58961f	-0.013219385
130	0xbd871666	-0.06596069
131	0x3cad0475	0.02112029
132	0xbd66a52c	-0.056309864
133	0x3bf663c4	0.007519217
134	0xbd8de455	-0.069283165
135	0x3d1b3d88	0.037900478
136	0x3c87febb	0.016600957
137	0x3c4d038d	0.012513054
138	0x3cf5a821	0.029987397
139	0xbce0cdc0	-0.02744186
140	0x3da474ff	0.08030128
141	0x3c9a6f30	0.018851846
142	0x3d4971d1	0.04918081
143	0x3d4c9120	0.04994309
144	0x3d2f131c	0.042742833
145	0xbc945bcf	-0.018110184
146	0xbda40db4	-0.08010426
147	0x3be68086	0.007034364
148	0x3d77df09	0.060515437
149	0x3d24f3cb	0.04027156
150	0x3aaf4b86	0.0013373948
151	0x3cc16c97	0.02361135
152	0xbae60e3b	-0.0017551848
153	0x3c783016	0.015148183
154	0x3d5a3031	0.053268615
155	0x3d2369e2	0.0398959
156	0xbd5304ea	-0.05151836
157	0xbd98a3ac	-0.07453093
158	0xbd800d4d	-0.06252537
159	0x3d2b1730	0.04177016
160	0x3cee9980	0.029125929
161	0x3d5411a9	0.051774655
162	0x3ccaf082	0.024772886
163	0xbd10a0c8	-0.035309583
164	0x3bf22aee	0.0073903715
165	0xbca80227	-0.020508839
166	0xbd865faa	-0.06561215
167	0xbdaea5fa	-0.08527751
168	0x3c6d73f5	0.014492978
169	0xbcfbb764	-0.030727096
170	0x3ccc3305	0.024926672
171	0x3d1d9520	0.038472295
172	0xbba6e5a6	-0.005093294
173	0xbce4261a	-0.0278502
174	0x3abcadb2	0.0014395027
175	0xbd6460ca	-0.055756368
176	0xbd36814c	-0.0445569
177	0xbbf207b4	-0.007386172
178	0xbc5fbdee	-0.013656123
179	0xbcb57944	-0.02215255
180	0xbbcba514	-0.006214747
181	0xbd09569f	-0.033529874
182	0x3d8f3a57	0.06993549
183	0xbd2cf065	-0.042221446
184	0xbd12e460	-0.035862327
185	0x3c0e51e3	0.0086865155
186	0xbda9b3bb	-0.08286234
187	0xbda0f576	-0.07859318
188	0x3b5ad4ac	0.0033390922
189	0xbc94df18	-0.018172786
190	0x3d6a29b8	0.057168692
191	0x3d2488f7	0.040169682
192	0x3ce76c48	0.028249875
193	0x3d161b7e	0.036647312
194	0xba1eebf9	-0.00060623843
195	0xbb262002	-0.0025348668
196	0xbd42a261	-0.047518138
197	0xbc501c8b	-0.012702118
198	0x3cc02d9e	0.023459252
199	0xbb8ba7b6	-0.004261936
200	0xbd3ed44e	-0.04658919
201	0xbd6a1a3e	-0.057153933
202	0xbcf0dc47	-0.029401911
203	0xbd8fc9d1	-0.07020915
204	0x3ce116b7	0.027476652
205	0xbca2a5d1	-0.019854458
206	0xbd8bd91c	-0.0682852
207	0xbcfa36f4	-0.030543782
208	0x3d71092a	0.05884663
209	0x3d48a927	0.04898944
210	0xbd84cdc9	-0.06484563
211	0xbca33b04	-0.019925602
212	0xbd6f629b	-0.058443647
213	0xbd2ed1ec	-0.042680666
214	0x3d9f22ed	0.077703334
215	0x3cf4eef8	0.029899105
216	0xbd7e4ab4	-0.06208296
217	0xbbf32064	-0.0074196327
218	0xbd4e9a0c	-0.05043988
219	0x3d48eb4f	0.049052533
220	0x3d25116e	0.040299825
221	0x3d22b0cd	0.03971939
222	0x3d28f83c	0.04125236
223	0x3dca3b0a	0.09874542
224	0xbbd7323b	-0.0065672672
225	0x3d32b58b	0.043630164
226	0x3d2e0da8	0.042493492
227	0x3d3e6f42	0.046492822
228	0xbd104ffb	-0.035232525
229	0xbd4730bb	-0.048630457
230	0xbd74c474	-0.059757665
231	0xbc60d2a5	-0.013722097
232	0xbca050c5	-0.019569764
233	0xbd89c1b0	-0.06726396
234	0xbc9786e5	-0.01849694
235	0xbd3b5b76	-0.04574152
236	0xbc6503c5	-0.0139779495
237	0x3bf5e915	0.007504592
238	0xbd1155a8	-0.03548208
239	0xbc05c551	-0.00816472
240	0xbcb045f4	-0.021517731
241	0xbcf22bd1	-0.029561909
242	0x3bccc969	0.006249596
243	0x3bef715e	0.0073072156
244	0xbd1029f8	-0.035196275
245	0xbd8f85fd	-0.07007978
246	0xbcf82789	-0.03029229
247	0x3d198da4	0.037488595
248	0xbcfd5dd6	-0.030928534
249	0x3c72f983	0.014829996
250	0xbd7d692f	-0.06186789
251	0xbd02f157	-0.03196844
252	0xbd254806	-0.04035189
253	0xbd42422f	-0.0474264
254	0x3d25cb4e	0.04047709
255	0xbc10c225	-0.00883535

net.4.weight f4 [256, 256]
0	0x3c941018	0.01807408
1	0xbc11eb59	-0.008906209
2	0xbd24073f	-0.040045973
3	0xbd60901c	-0.054824933
4	0x3c18aac4	0.009318057
5	0x3d17b93a	0.03704188
6	0x3d6e21d9	0.05813775
7	0x3cd14cf3	0.025549388
8	0x3dae3621	0.08506418
9	0x3d2f6016	0.042816244
10	0xbc92b1a8	-0.017906979
11	0x3c4cb3b4	0.012494016
12	0xbd301c97	-0.042996015
13	0xbcad1f61	-0.021133127
14	0xbca9c150	-0.020722061
15	0x3c8859d0	0.016644388
16	0x3d0da7cb	0.034583848
17	0x3d38ae0f	0.04508787
18	0x3db827cc	0.08991966
19	0xbcb1eb92	-0.021718774
20	0xbd022a48	-0.031778604
21	0x3cd27319	0.025689648
22	0xbd17ddbd	-0.0370767
23	0x3cb53fa1	0.022125067
24	0x3d01e927	0.031716492
25	0x3cc327a3	0.023822611
26	0x3cce544a	0.025186677
27	0x3d5ec585	0.054387588
28	0x3d726940	0.059182405
29	0xbd7a4744	-0.06110312
30	0x3d2099ff	0.039209362
31	0xbc558954	-0.01303323
32	0xbd201e50	-0.03909141
33	0xbb9efd80	-0.004851997
34	0xbd494f9c	-0.049148187
35	0x3d0df977	0.034661736
36	0x3c60f77d	0.013730881
37	0xbd04e5b9	-0.032445643
38	0x3b756a67	0.0037447454
39	0x3babdb1d	0.005244626
40	0x3a5d1d18	0.0008434816
41	0x3d12c783	0.0358348
42	0xbcfa6b02	-0.030568603
43	0xbd809f57	-0.06280392
44	0xbd4a8e10	-0.049451888
45	0xbc89cd7a	-0.016821612
46	0xbd10b96d	-0.035333086
47	0xbc7a4e62	-0.015277477
48	0x3d61eadb	0.055155616
49	0x3d0c09ee	0.034189157
50	0x3d22ab0b	0.0397139
51	0xbd2f24e2	-0.042759784
52	0x3ca185df	0.019717155
53	0xbcd016ab	-0.025401434
54	0x3caab3de	0.02083772
55	0xbcaefc1a	-0.021360446
56	0x3d33b751	0.043875996
57	0xbc4f381c	-0.012647655
58	0xbd298f68	-0.04139653
59	0x3c52c39c	0.01286402
60	0x3c6838a9	0.014173665
61	0x3cfa55dc	0.030558519
62	0xbbb97120	-0.0056592375
63	0x3d677084	0.056503788
64	0xbcc4b374	-0.024011351
65	0xbd47f081	-0.048813347
66	0xbab9b6bc	-0.0014168839
67	0x3d2bf907	0.041985538
68	0xbc220fc7	-0.009891457
69	0x3cf95909	0.030437963
70	0x3c77b942	0.0151198525
71	0x3bdaf768	0.006682325
72	0x3dc4ca5e	0.09608911
73	0xbd62d90e	-0.05538278
74	0x3c0f486f	0.008745297
75	0xbd2848df	-0.04108512
76	0xbd832fb2	-0.064055815
77	0x3db66555	0.08906046
78	0x3d7e2cf9	0.062054608
79	0x3cfec1fc	0.031098358
80	0xbcc090bb	-0.023506513
81	0xbbe350cc	-0.006937122
82	0x3d7b3f3f	0.061339613
83	0xbcbe8bae	-0.023259964
84	0xbd4e5f42	-0.050383814
85	0xbce8d4e5	-0.028421829
86	0x3d2becdf	0.041973945
87	0xbd3bca6a	-0.045847334
88	0x3d592e47	0.05302265
89	0x3d1266f6	0.035742722
90	0xbd362873	-0.04447217
91	0x3da056e5	0.07829074
92	0x3d0a7970	0.033807218
93	0x3cbbd889	0.0229304
94	0xbd448e92	-0.04798753
95	0xbca6395f	-0.020291029
96	0x3d5e5d03	0.05428792
97	0xbd2372bb	-0.039904337
98	0xbc3430e2	-0.010997983
99	0xbc820122	-0.01586968
100	0x3cbfbc38	0.02340518
101	0xbb0eb194	-0.0021773325
102	0x3d8e690b	0.06953629
103	0xbcb9a149	-0.022659915
104	0x3cb51503	0.022104746
105	0x3d357f33	0.04431076
106	0x3d2a00a1	0.041504506
107	0x38cc9f01	9.757095e-05
108	0xbd5dba95	-0.054133017
109	0x3d2e0bb5	0.042491633
110	0xbc3ec679	-0.011643999
111	0x3cd4b602	0.025965694
112	0xbd52917f	-0.051408287
113	0xbd2c00ca	-0.04199294
114	0x3daaeb45	0.08345655
115	0xbcee8de2	-0.02912039
116	0x3d2b1358	0.041766495
117	0x3d5089cc	0.050912663
118	0x3d85d7da	0.06535311
119	0x3cd2b6ac	0.02572187
120	0x3d8c0567	0.06836968
121	0x3cdb3dcd	0.026762867
122	0xbd7e1783	-0.06203414
123	0x3cc740cc	0.02432289
124	0xbcb97f55	-0.022643724
125	0xbaec066b	-0.0018007284
126	0x3c6b0c91	0.014346258
127	0x3d8ea82d	0.06965671
128	0x3c8c829b	0.017152121
129	0xbc966f82	-0.018363718
130	0xbb9a5448	-0.004709754
131	0xbcac57ad	-0.0210379
132	0xbc29a552	-0.010354357
133	0x3c15aa86	0.009134894
134	0x3d66e7ac	0.056373283
135	0xbb5a54ab	-0.0033314626
136	0xbc84812f	-0.01617488
137	0x3c11cfc2	0.008899631
138	0xbd5e32ed	-0.054247785
139	0xbd82ec96	-0.063927814
140	0xbd55ded9	-0.052214477
141	0xbc62ee44	-0.013850752
142	0xbd9a3f78	-0.07531637
143	0xbd0dc676	-0.034613095
144	0xbd1b87fe	-0.03797149
145	0xbb84db2a	-0.0040544467
146	0xbd334d1e	-0.043774717
147	0xbabd2ac1	-0.0014432297
148	0xbd36850e	-0.044560485
149	0x3d290b78	0.041270703
150	0x3d4cb463	0.049976718
151	0x3d3c9fe0	0.046050906
152	0xbccbe4da	-0.024889398
153	0xbcb21a65	-0.021741102
154	0xbca4787a	-0.020076979
155	0x3d077ff3	0.033081006
156	0x3cc67fed	0.024230922
157	0xbc8111b4	-0.015755512
158	0xbcd668a5	-0.026172945
159	0x3c394d86	0.011309987
160	0x3d4bfcaa	0.049801506
161	0xbc539133	-0.012913036
162	0x3cb7cfc8	0.022437945
163	0xbd31f545	-0.043446798
164	0x3c11dfd1	0.00890346
165	0x3cef259f	0.029192744
166	0xbd17e669	-0.03708497
167	0xbb6ec963	-0.0036435954
168	0x3dd636cb	0.1045967
169	0x3ca0b2d8	0.01961653
170	0xbcb4e537	-0.022081954
171	0x3cb111ea	0.021614987
172	0xbce5ae57	-0.028037233
173	0x3d12d291	0.035845343
174	0xbcbb9af6	-0.02290104
175	0xbc2020db	-0.009773458
176	0x3d31a584	0.04337074
177	0xbd0b528e	-0.034014277
178	0xbd705f39	-0.05868456
179	0x3c16c702	0.009202721
180	0xbd7ddc30	-0.061977565
181	0xbd707721	-0.05870736
182	0xbd06b695	-0.032888968
183	0xbd2b1e0c	-0.0417767
184	0xbccfaade	-0.02535003
185	0xbcba805a	-0.02276628
186	0x3d867f52	0.06567253
187	0xbccd9339	-0.025094615
188	0x3c2a0ff8	0.010379784
189	0xbb51fe7c	-0.0032042554
190	0xbcb039eb	-0.021511992
191	0xbd4f33aa	-0.05058638
192	0xbd26d053	-0.040726017
193	0xbb62dcaa	-0.003461639
194	0xbd866ab2	-0.06563319
195	0x3d4edc87	0.05050328
196	0xbcccfc3f	-0.025022624
197	0x3c29eb5b	0.0103710545
198	0x3d35d98a	0.044396915
199	0xb8bc19bb	-8.969331e-05
200	0x3dbf828d	0.093510725
201	0x3d1be7de	0.038062923
202	0x3d0990ef	0.033585485
203	0x3c8a45c3	0.016878968
204	0xbc78f117	-0.015194199
205	0x3d7d24a0	0.061802506
206	0xbbf819ee	-0.0075714504
207	0x3d3d06eb	0.046149176
208	0x3d4ff732	0.050772853
209	0x3ba582aa	0.0050509768
210	0xbcf877f1	-0.03033063
211	0x3d6a08fa	0.057137467
212	0x3c37ef67	0.011226512
213	0x3d032a02	0.032022484
214	0x3bcf8507	0.0063329968
215	0xbd0915ab	-0.03346793
216	0x3dc859f1	0.0978278
217	0xbd2bdc7d	-0.04195832
218	0xbbd5aec1	-0.0065210764
219	0xbd32e72f	-0.043677505
220	0x3ccf78cd	0.025326157
221	0x3cc51334	0.024057008
222	0xbb14288d	-0.0022607178
223	0xbc76e309	-0.015068778
224	0x3cb0a677	0.021563752
225	0xba808395	-0.000980484
226	0x3d90545e	0.07047342
227	0x3d911144	0.07083371
228	0xbda34338	-0.07971805
229	0x3d08b663	0.033377063
230	0x3d86ec53	0.06588044
231	0xbd0e7fe7	-0.034789946
232	0x3c870d65	0.01648588
233	0xbb1883f9	-0.0023272021
234	0xbd0f8879	-0.03504226
235	0xbbab1b32	-0.005221748
236	0x3c1d6948	0.009607621
237	0x3c6b33a0	0.01435557
238	0xbca17171	-0.019707413
239	0xbcd42375	-0.025895813
240	0x3d1a26ff	0.037634846
241	0xbb9be79c	-0.0047578346
242	0x3d24dd3d	0.04025005
243	0xbbb8bb15	-0.0056375363
244	0x3d3b336c	0.045703337
245	0x3d1b7ef4	0.03796287
246	0xbd9806be	-0.07423161
247	0x3d92b65d	0.07163689
248	0x3d8fc410	0.07019818
249	0xbc8bf218	-0.017083213
250	0x3d05fff3	0.032714795
251	0xbc9cba46	-0.01913179
252	0xbb33112e	-0.0027323472
253	0x3d8309c1	0.06398345
254	0x3d764e68	0.060133368
255	0xbbdb4cbd	-0.0066924975

net.4.bias f4 [256]
0	0xbd7b305b	-0.061325412
1	0xbd631f46	-0.055449747
2	0xbd3eed9a	-0.046613313
3	0xbd2e77ac	-0.042594597
4	0xbd753521	-0.05986512
5	0x3d051342	0.03248907
6	0xbcfc1f2b	-0.03077658
7	0x3b6adc0d	0.0035836727
8	0xbd907295	-0.07053105
9	0x3d1ebb44	0.03875281
10	0xbc7b66eb	-0.015344362
11	0x3d28dcba	0.041226126
12	0x3d10343e	0.035206072
13	0x3ca03be6	0.019559812
14	0x3c9c8ea5	0.019110987
15	0x3c8130c5	0.015770325
16	0xbd84633e	-0.064642414
17	0xbbb761ce	-0.005596376
18	0x3cb54722	0.022128645
19	0xbd4d8d12	-0.050183363
20	0xbcac156d	-0.02100631
21	0xbcdbd2a4	-0.02683384
22	0xbd360d10	-0.04444605
23	0x3cee11cf	0.029061226
24	0x3b819fea	0.003955831
25	0xbd915478	-0.07096189
26	0xbc2bb98a	-0.010481248
27	0x3cbd022f	0.02307233
28	0xbcb03ad9	-0.021512436
29	0x3d3b34a4	0.0457045
30	0x3d1b1114	0.037858084
31	0x3d1be023	0.03805555
32	0x3cb64008	0.02224733
33	0xbcf0ac9f	-0.029379187
34	0xbd869c5b	-0.06572791
35	0xbcc00010	-0.02343753
36	0x3bbecd43	0.005822809
37	0x3d1057f6	0.035240136
38	0x3d111f7b	0.035430413
39	0xbcc99131	-0.024605365
40	0x3ba7042d	0.0050969333
41	0xbd268387	-0.040652778
42	0x3d691678	0.056906193
43	0xbc670530	-0.014100358
44	0xbd7565f5	-0.059911687
45	0xbd691fc9	-0.05691508
46	0xbd4d413f	-0.05011105
47	0xbcc3c5b5	-0.023897985
48	0xbd4cb574	-0.049977735
49	0x3d3a23d3	0.04544432
50	0xbd357849	-0.044304166
51	0x3c1d7bf2	0.00961207
52	0xbd79c8bd	-0.060982455
53	0x3b400873	0.002930191
54	0xbd75d48e	-0.06001716
55	0x3d52043f	0.05127358
56	0xbd976856	-0.073929474
57	0xbc1930b9	-0.009349995
58	0x3d1ed419	0.03877649
59	0x3d3f6ce7	0.046734717
60	0x3ca568c0	0.02019155
61	0xbd6c88a8	-0.057747513
62	0x3c8ce93a	0.017201055
63	0x3d5090a3	0.050919186
64	0x3d1a92ee	0.03773778
65	0x3d46bf68	0.048522383
66	0xbc448ee4	-0.011996958
67	0x3d6c74ba	0.057728507
68	0x3cff9f5e	0.031203922
69	0x3d14c83a	0.036323763
70	0xbd5526b5	-0.052038867
71	0xbd9088b8	-0.07057327
72	0x3cfb788d	0.030697132
73	0x3d4bf27e	0.049791805
74	0xbcaf84c6	-0.021425616
75	0x3d5828e2	0.052773364
76	0xbd213ade	-0.03936278
77	0xbcf62e16	-0.030051272
78	0xba0c23cd	-0.0005345911
79	0xbc60d45f	-0.013722508
80	0xbd20c4c4	-0.03925015
81	0xbd18e58c	-0.037328288
82	0x3d11017d	0.03540181
83	0xbbcac3e5	-0.006187903
84	0xbd69b9ad	-0.05706184
85	0xbd9253a6	-0.07144861
86	0xbd764bf8	-0.060131043
87	0x3c3e0cd9	0.011599743
88	0x3b867daa	0.004104336
89	0xbce5e839	-0.028064834
90	0x3d5e676a	0.054297842
91	0xbcd382e0	-0.025819242
92	0xbcd13160	-0.02553624
93	0xbd2a2775	-0.041541535
94	0xbc4408d7	-0.011964998
95	0x3d1fea97	0.03904208
96	0x3d552a2f	0.052042183
97	0x3c9e97b1	0.019359441
98	0xbcc5669e	-0.024096783
99	0xbd4122d3	-0.04715235
100	0xbd5b7a13	-0.053583216
101	0x3ba871d2	0.0051405216
102	0x3d5adf50	0.053435624
103	0xb9c6be4d	-0.00037907288
104	0x3bf8922c	0.0075857844
105	0xbccb077d	-0.024783844
106	0xbc8f16af	-0.017466871
107	0xbd376874	-0.04477735
108	0x3b30afce	0.0026960257
109	0x3d1fb91f	0.038994905
110	0xbd08e54a	-0.033421792
111	0xbcf47f1b	-0.029845765
112	0xbd8be01c	-0.06829855
113	0xbb478818	-0.0030446108
114	0xbd0d6681	-0.034521583
115	0xbc691826	-0.014226949
116	0xbc698cc5	-0.0142547535
117	0x3c965b54	0.018354096
118	0x3d39c1bc	0.045350775
119	0x3c6cc824	0.014452014
120	0x3d06e6b3	0.032934856
121	0xbdb74941	-0.08949519
122	0x3d69705c	0.05699192
123	0xbce7b186	-0.028282892
124	0xbd0a8d8d	-0.0338264
125	0xbd90ffa3	-0.07080009
126	0xbcd70de7	-0.026251746
127	0xbd029a13	-0.031885218
128	0xbc812de5	-0.015768955
129	0xbd763d71	-0.06011719
130	0xbd317817	-0.043327417
131	0x3c8a7bd9	0.016904758
132	0xbd536e2e	-0.051618747
133	0x3c77b30b	0.015118371
134	0x3bfef7e7	0.007781017
135	0xbcab970f	-0.020946054
136	0xbc36d1bc	-0.011158403
137	0xbd783796	-0.060599886
138	0xbccd6be9	-0.02507587
139	0xbd26999d	-0.04067384
140	0xb9e79acd	-0.0004417509
141	0x3ceff12d	0.029289806
142	0x3bbc8c32	0.0057540173
143	0xbcbbac2c	-0.022909246
144	0xbd422100	-0.047394753
145	0x3bd68b55	0.0065473714
146	0xbd277874	-0.040886357
147	0xbd1579d5	-0.03649314
148	0xbd795258	-0.060869545
149	0x3c42408d	0.01185621
150	0xbbdab694	-0.006674597
151	0x3d1fee34	0.039045528
152	0xbd022f28	-0.031783253
153	0xbd8aca09	-0.067768164
154	0xbd9f3ebb	-0.07775637
155	0xbd92b810	-0.071640134
156	0xbd00f9dd	-0.03148829
157	0x3ca3cd59	0.019995378
158	0xbc52c927	-0.012865341
159	0xbd527f38	-0.051390857
160	0x3d591082	0.05299426
161	0x3aa71183	0.0012746308
162	0xbb401268	-0.0029307846
163	0xbcb5d730	-0.022197336
164	0x3cba1df4	0.02271936
165	0xbd8ac3fa	-0.06775661
166	0x3ce72fdf	0.028221069
167	0xbbabc322	-0.0052417675
168	0xbd36ea66	-0.044657134
169	0x3ce38357	0.027772589
170	0xb97dde65	-0.00024210809
171	0xbd94034c	-0.07227191
172	0xbd2e4b5e	-0.042552345
173	0x3d2dd852	0.042442627
174	0xbd65dd6d	-0.05611937
175	0x3c8429e1	0.01613325
176	0x3d4b64e1	0.049656752
177	0xbd166b57	-0.03672346
178	0xbc5955d3	-0.013265091
179	0x3cb21b02	0.021741394
180	0xbd0ea4a8	-0.034824997
181	0xbc649e2e	-0.013953729
182	0x3cc80994	0.02441863
183	0xbd13d50f	-0.03609186
184	0xbcc44633	-0.023959255
185	0xbd2df695	-0.042471487
186	0xbd0a0e5a	-0.033705093
187	0xbd493866	-0.04912605
188	0xbd14c93b	-0.03632472
189	0x3d06cfb4	0.032912925
190	0x3cd79579	0.026316391
191	0xbd0bb6d6	-0.034109913
192	0xbd8d1a4c	-0.06889781
193	0xbd8641a8	-0.06555492
194	0x3c634283	0.013870838
195	0x3c5b78ae	0.0133954715
196	0xbd0b3f23	-0.03399576
197	0xbc9de408	-0.019273773
198	0x3d84165a	0.06449576
199	0x3b28185f	0.0025649292
200	0x3ca1dc44	0.019758351
201	0xbd1dfd23	-0.038571488
202	0xbd41ace5	-0.047284026
203	0x3c6ffb00	0.014647245
204	0xbd3f85d1	-0.046758477
205	0xbc6b3e8b	-0.014358173
206	0x3ab8f4fc	0.0014111097
207	0x3c51b95c	0.012800541
208	0xbd15ffeb	-0.036621016
209	0xbd523b5c	-0.05132614
210	0x3d01e09d	0.03170835
211	0xbced47c6	-0.028964888
212	0xbd13ff76	-0.0361323
213	0xbc41bc90	-0.011824742
214	0xbd51d427	-0.051227715
215	0xbd959ff8	-0.07305902
216	0x3cd3f6eb	0.025874576
217	0x3bdfa5b8	0.006825175
218	0xbd26b071	-0.04069561
219	0xbd4e2f2c	-0.050337955
220	0xbd7dd568	-0.0619711
221	0xbd1dfb4d	-0.038569737
222	0x3d280eb4	0.041029647
223	0xbd4c106e	-0.049820356
224	0x3c10daf6	0.008841267
225	0xbd182514	-0.037144735
226	0x3cf6b363	0.030114835
227	0xbd05f705	-0.03270628
228	0xbd58ea0a	-0.052957572
229	0x3d0c579a	0.03426323
230	0x3d3f4c8d	0.046703864
231	0x3caf5d39	0.021406757
232	0xbd2cf1e8	-0.042222887
233	0xbd104e2b	-0.035230797
234	0xbc5eb034	-0.013591815
235	0x3cc204af	0.023683874
236	0x3bb588fc	0.0055400115
237	0xbd1c2186	-0.038117908
238	0x3cdfdc6b	0.027326783
239	0xbc1c7baa	-0.009550968
240	0xbc3df7be	-0.011594711
241	0xbc786d3f	-0.015162765
242	0x3d002b71	0.03129143
243	0x3d57c13a	0.05267451
244	0x3adf5f1d	0.0017041896
245	0x3c9e26e8	0.019305661
246	0xbd667e9d	-0.05627309
247	0xbd0c7672	-0.034292646
248	0xbd28d562	-0.041219123
249	0x3cc16e67	0.023612214
250	0xbd1f88d4	-0.03894885
251	0xbcc39305	-0.023873815
252	0xbd88dbc1	-0.0668254
253	0x3ce20edc	0.027594976
254	0xbd93b3af	-0.07212006
255	0xbd25fca6	-0.040524147

net.6.weight f4 [2, 256]
0	0xbd9658b0	-0.073411345
1	0xbdb6b9fe	-0.08922194
2	0x3cf91946	0.03040756
3	0xbc448112	-0.011993663
4	0xbd80ec44	-0.06295064
5	0xbdc76abb	-0.09737154
6	0x3d02991b	0.031884294
7	0xbd2f9559	-0.04286704
8	0xbdcc6681	-0.099804886
9	0x3d47f2ac	0.048815414
10	0x3bd81f8b	0.006595557
11	0x3d33d21e	0.043901555
12	0x3aedbd22	0.0018138031
13	0x3dab68a4	0.08369568
14	0xbd90ca22	-0.07069804
15	0xbdce0327	-0.10059195
16	0x3dafbbf8	0.08580774
17	0xbd3988e3	-0.04529656
18	0xbdd5052f	-0.10401379
19	0xbd93ef9e	-0.07223438
20	0xbd5d6b5a	-0.054057457
21	0xbd8a402b	-0.0675052
22	0xbd730f58	-0.059340805
23	0xbdaf8376	-0.08569996
24	0x3dc16de5	0.09444789
25	0x3dd8f640	0.105938435
26	0xbcead645	-0.028666625
27	0xbd915bb1	-0.07097567
28	0x3db37653	0.08762803
29	0xbd855f8e	-0.06512366
30	0x3ddf5bad	0.10906158
31	0x3c8e4c9d	0.017370516
32	0xbd972bfc	-0.07381436
33	0xbda68950	-0.08131659
34	0xbb9d80c8	-0.0048066117
35	0xbd2ff47a	-0.04295776
36	0xbd3f82bf	-0.04675555
37	0x3d3a8745	0.04553916
38	0x3dcf64ca	0.10126646
39	0x3d6eb788	0.058280498
40	0x3dbdd32c	0.092687935
41	0x3d9271b6	0.07150595
42	0xbd91f51a	-0.071268275
43	0x3dad9c3e	0.084770665
44	0xbb3fc191	-0.0029259662
45	0x3d004011	0.0313111
46	0xbda474dc	-0.08030102
47	0xbd25d73a	-0.04048846
48	0x3c4a3e79	0.012343996
49	0x3d85e251	0.06537307
50	0x3d4a7a68	0.049433142
51	0x3dba93eb	0.09110244
52	0xbd5194ca	-0.051167287
53	0x3d4d8ced	0.050183225
54	0x3bf61eb6	0.0075109852
55	0xbc6d508f	-0.014484539
56	0xbda2fdde	-0.079585776
57	0xbd6f7662	-0.058462508
58	0xbcc57b09	-0.02410652
59	0xbda24f54	-0.07925287
60	0xbb8c5aae	-0.004283271
61	0xbddb2d77	-0.10702031
62	0x3d823a4b	0.06358775
63	0xbdb7d87d	-0.08976839
64	0xbdaf0ff5	-0.085479654
65	0xbd9b8bcc	-0.075950235
66	0xbc922c9f	-0.017843543
67	0xbb7fdbd6	-0.0039040945
68	0x3cccbcab	0.024992308
69	0x3d3890af	0.045059856
70	0x3d60d02d	0.054886032
71	0xbd782b8f	-0.060588416
72	0x3d269ed5	0.040678818
73	0xbd9b053a	-0.07569356
74	0x3d5ed2d2	0.054400273
75	0xbbafe616	-0.0053680046
76	0x3d7d0e7a	0.061781384
77	0x3c1c9c83	0.0095588
78	0x3d83260a	0.0640374
79	0xbdbf3f5a	-0.09338255
80	0xbdae010a	-0.08496292
81	0xbdab1290	-0.0835315
82	0x3d261641	0.040548567
83	0xbc373d54	-0.011184055
84	0xbd5adb8b	-0.05343203
85	0x3bbe4bae	0.0058073616
86	0x3d52f11f	0.051499482
87	0xbd65a8ff	-0.05606937
88	0x3b58beb3	0.003307265
89	0xbd2ff3ac	-0.042956993
90	0x3dc56489	0.09638316
91	0x3d7c095d	0.061532367
92	0x3d62ace9	0.05534068
93	0x3c093786	0.008375054
94	0xbd97f2fc	-0.074193925
95	0x3d683357	0.056689586
96	0x3da9e3ca	0.082954004
97	0x3be0e9b7	0.0068637985
98	0xbbf0f147	-0.0073529813
99	0xbdbc90ec	-0.09207329
100	0xbd5d479e	-0.054023378
101	0xbd51b5fd	-0.05119895
102	0xbd44feb1	-0.048094455
103	0x3c498f19	0.012302184
104	0xbc4b2753	-0.012399512
105	0xbdad154b	-0.08451327
106	0x3daef2b8	0.08542389
107	0xbcc2314b	-0.023705145
108	0x3dbeee59	0.09322805
109	0xbdaf5b05	-0.085622825
110	0x3d822ad3	0.06355824
111	0x3de222c5	0.11041788
112	0xbd3df40e	-0.046375327
113	0x3d077ee0	0.03307998
114	0x3c55de65	0.013053511
115	0x3c1d595b	0.009603824
116	0xbdc7875a	-0.09742613
117	0xbdd41c34	-0.10356942
118	0xbdad7c5a	-0.08470984
119	0x3d616a02	0.055032738
120	0x3d4b0576	0.049565755
121	0x3d8d020c	0.06885156
122	0x3d9c1b97	0.0762245
123	0xbd46be13	-0.048521113
124	0x3d8be1ac	0.06830153
125	0x3d9ccab2	0.076558486
126	0x3ce74b5e	0.02823418
127	0x3d9568e4	0.07295397
128	0x3d53faa8	0.051752716
129	0xbd102702	-0.03519345
130	0xbd9cdea4	-0.07659653
131	0x3d42cc05	0.04755785
132	0xbcb02551	-0.021502169
133	0x3bfeb451	0.0077729602
134	0x3d81e347	0.06342178
135	0xbdbd64c4	-0.09247735
136	0xbc0d02e9	-0.008606651
137	0x3d58a542	0.052891977
138	0xbdd6bb43	-0.10484936
139	0xbd01515a	-0.031571724
140	0xbdc1ea21	-0.09468485
141	0x38e84eb8	0.000110772846
142	0x3d9f6ab4	0.07784024
143	0xbd3ad751	-0.045615498
144	0xbdaa47b3	-0.08314457
145	0xbde8e5c3	-0.113719486
146	0xbd98e1a0	-0.074649096
147	0x3d05af5e	0.032637946
148	0x3d2ccff5	0.04219051
149	0x3df97e3e	0.12182282
150	0xbcd2731e	-0.025689658
151	0xbd04a555	-0.032384235
152	0x3d6b0e9c	0.05738698
153	0x3d80c43c	0.06287429
154	0xbd92f266	-0.0717514
155	0x3d1984c4	0.03748013
156	0x3d6e78ae	0.058220558
157	0x3c9cdf71	0.019149514
158	0xbd835787	-0.06413179
159	0x3c2c2b34	0.010508347
160	0x3cfc93b6	0.030832153
161	0xbd70cc91	-0.05878884
162	0xbd9b7b36	-0.0759186
163	0xbdc65d6a	-0.09685786
164	0x3d50f170	0.051011503
165	0xbc1a4692	-0.009416239
166	0xbd68fbbe	-0.056880705
167	0xbcf2493c	-0.029575936
168	0x3d35706f	0.04429668
169	0xbd064a0e	-0.032785468
170	0xbd72108e	-0.05909782
171	0xbbbc93a3	-0.0057549044
172	0x3dd0f7ff	0.102035515
173	0x3a326ae0	0.0006806087
174	0x3c5a1395	0.013310333
175	0x3dc696fe	0.09696768
176	0xbd5fb677	-0.05461737
177	0xbda59852	-0.080856934
178	0xbd6e18e5	-0.05812921
179	0xbd4b4d6e	-0.04963439
180	0x3d6b6a7c	0.0574746
181	0x397fad27	0.000243832
182	0x3d602873	0.054726075
183	0x3c68853e	0.014191924
184	0xbcf86419	-0.030321168
185	0xbd2f2e54	-0.04276879
186	0x3daf14a2	0.08548857
187	0xbdc79082	-0.097443596
188	0x3d29c626	0.041448735
189	0x3dd796bd	0.10526798
190	0xbd374187	-0.044740226
191	0xbd219a05	-0.039453525
192	0xbd118cfe	-0.03553485
193	0xbdcc2303	-0.099676155
194	0xbd878926	-0.06617956
195	0xbd7b2ed8	-0.06132397
196	0x3ce023a8	0.027360752
197	0x3db29d6f	0.08721434
198	0xbd634da9	-0.055493984
199	0x3dec3303	0.11533167
200	0x3cc6a233	0.024247264
201	0xbdd51860	-0.1040504
202	0x3dda3165	0.106539525
203	0xbd752f6a	-0.05985967
204	0xbdbefe8c	-0.09325895
205	0x3dd96943	0.1061578
206	0x3d894338	0.06702274
207	0xbc813942	-0.015774373
208	0xbdabdba9	-0.08391506
209	0x3d081a6b	0.03322832
210	0xbc35df8b	-0.01110066
211	0xbc5985b0	-0.0132765025
212	0x3cf88490	0.030336648
213	0x3dcd3db8	0.100215375
214	0xbdbb5b57	-0.09148281
215	0xbd9d76b6	-0.07688658
216	0x3cc86f8b	0.02446725
217	0xbd9a3c05	-0.07530979
218	0xbd12a5bb	-0.035802584
219	0x3c2f6063	0.010704133
220	0x3dbd340f	0.09238445
221	0x3d2f3e37	0.042783942
222	0xbce63fe3	-0.028106635
223	0xbda5afca	-0.0809017
224	0xbcf308d5	-0.029667297
225	0xbdd33ad3	-0.10313954
226	0xbddc6fb6	-0.10763495
227	0xbd9487a9	-0.072524376
228	0x3dd39b25	0.10332326
229	0x3cfd95b8	0.03095518
230	0x3b8d6e34	0.0043161158
231	0x3dbea278	0.09308332
232	0xbd13781f	-0.03600323
233	0x3d9afef6	0.07568161
234	0xbdbb8937	-0.09157031
235	0x3d85d8c5	0.06535486
236	0xbb201526	-0.0024426668
237	0x3d828c6e	0.06374441
238	0xbc8a5f33	-0.016891098
239	0xbd012400	-0.031528473
240	0x3d0a0b6c	0.0337023
241	0xbd9e1a33	-0.07719841
242	0xbd932f81	-0.07186795
243	0xbd0eb81c	-0.03484355
244	0xbdaf9ed9	-0.0857522
245	0x3ddf5183	0.10904219
246	0xbdd21114	-0.10257164
247	0x3d75afb1	0.059982006
248	0x3bd67af8	0.0065454207
249	0x3bbc393c	0.0057441276
250	0x3dbc4a31	0.091938384
251	0x3dc8ab79	0.09798331
252	0xbd80e35a	-0.06293364
253	0xbdc52c27	-0.09627562
254	0x3d7bfd5d	0.061520923
255	0xbd4bc651	-0.049749676

net.6.bias f4 [2]
0	0x3a2ec5e7	0.0006667063
1	0x3d091a13	0.033472132
