spirals/cfm/models/15000_model.pt (torch, 535792 bytes, 8 tensors)

net.0.weight f4 [256, 3]
-0.09922223 0.20765094 0.012723695 -0.28496322 0.09290975 -0.278487 0.5130664 0.17982475
0.31683674 0.29544318 0.1907772 0.47616294 -0.23788124 -0.41308683 0.5139618 0.54356784
-0.03740742 0.41216862 0.31796432 -0.092194654 -0.057061065 -0.21460348 0.15473427 0.25801745
-0.19493727 0.3210592 0.4228515 0.002308147 -0.04325813 -0.7372413 0.058383334 -0.3599256
-0.17149167 -0.029472874 -0.17372167 -0.53989846 0.16252397 -0.36014622 -0.6136954 0.005507505
0.0078097726 -0.18639253 -0.21582787 -0.063674316 -0.58626103 -0.000769494 -0.0030336657 0.34187376
-0.0006806296 0.34930697 -0.0019599404 -0.42485225 0.34398282 -0.2052308 0.10823833 0.024384055
-0.39461198 -0.40041047 -0.26914677 -0.08833533 -0.061712857 0.20269015 -0.3019566 -0.22890721
-0.07132033 0.66642827 -0.007924194 -0.084404215 0.8612629 0.042475667 0.025089156 0.101543315
-0.4122739 0.37383068 0.3565698 0.0882831 0.41378874 0.50692797 -0.43440378 0.12017668
0.16346623 -0.007369072 0.11638058 -0.8103317 -0.49168184 -0.2930384 0.03815688 -0.04203118
0.03501672 0.48166266 -0.13547304 -0.2164944 0.07444443 0.44986197 -0.6661639 -0.11240014
-0.2759059 0.020440133 -0.39929056 0.0409179 0.0129924165 -0.24391225 -0.35422933 -0.21931984
-0.054627042 0.004042982 0.0049190223 0.28227136 -0.09665234 0.036766868 -0.36743292 0.8780451
0.4963331 -0.59664035 0.4523138 0.46098328 0.513939 -0.08521048 -0.15911913 0.53168815
-0.15684305 0.53109366 -0.48809117 0.028973935 -0.019779406 0.5999812 -0.39624286 -0.14486928
0.16389301 0.259621 -0.5202312 0.56726813 0.100396186 -0.4570293 0.16907664 -0.33966538
0.24650061 0.25283858 -0.04801894 0.22655436 -0.19937502 -0.0841096 -0.36677203 -0.416003
-0.5060817 0.47946435 0.5046093 -0.15759806 -0.07950219 -0.2983206 -0.26750836 -0.11038072
-0.13045001 -0.3964563 0.4914152 -0.6429047 -0.00180061 -0.0002140179 0.8382574 -0.17952445
-0.07929812 -0.15366839 -0.05205798 0.013625116 -0.6378228 -0.13067356 0.37877786 0.392241
0.3153631 -0.055863008 -0.1561845 0.00057262613 0.00023258151 0.059642613 0.0013354688 -0.00055574736
-0.06243347 -0.40843144 0.4659082 -0.4317633 -0.0733903 -0.027940221 0.60923 0.26040837
0.134761 -0.61246777 0.20368446 0.18249713 0.376889 0.51396734 -0.31831592 0.45761302
0.27126497 0.47852215 0.39034697 0.3970761 0.2899696 0.58524984 -0.12534356 0.3041162
-0.48342273 -0.555682 0.5072739 0.35140958 0.35812652 -0.4083197 0.46940884 -0.39220202
-0.18436699 -0.1568959 -0.14278883 0.23124808 0.7756827 0.17964338 -0.08322317 -0.27811518
-0.080751956 -0.045486346 -0.2780917 0.44602227 -0.17458767 0.24705876 0.013873503 -0.08975594
-0.43012518 -0.39467528 0.194095 0.45162073 -0.2315213 0.078199424 -0.48121363 -0.21125257
-0.14170311 0.3783157 0.59136957 0.44776502 -0.33894137 0.04967959 0.060349476 0.5427746
0.17413218 -0.26135516 0.5896456 0.5963308 -0.19683404 0.3265511 -0.015738621 -0.096663125
0.42882812 -0.09535769 0.4588538 0.50996774 0.05304155 0.49368507 0.6722185 0.19709073
00000000: 0635 cbbd 73a2 543e 0b77 503c b3e6 91be
00000010: 7847 be3d d995 8ebe 5258 033f fb23 383e
00000020: 6d38 a23e 5444 973e 195b 433e a1cb f33e
00000030: 2497 73be 1e80 d3be 0093 033f 4327 0b3f
00000040: 8638 19bd c407 d33e 38cc a23e 8dd0 bcbd
00000050: ddb8 69bd 04c1 5bbe a972 1e3e dd1a 843e
00000060: a39d 47be df61 a43e fe7f d83e 4844 173b
00000070: 702f 31bd d9bb 3cbf 5d23 6f3d 2b48 b8be
00000080: 839b 2fbe 1971 f1bc 18e4 31be c936 0abf
00000090: af6c 263e 1665 b8be 241b 1dbf 4d78 b43b
000000a0: 1fe9 ff3b afdd 3ebe fb01 5dbe ae67 82bd
000000b0: 3415 16bf deb7 49ba 77d0 46bb 140a af3e
000000c0: 476c 32ba 5dd8 b23e 5872 00bb 3c86 d9be
000000d0: 841e b03e 0628 52be 0fac dd3d 12c1 c73c
000000e0: 950a cabe 9a02 cdbe 9bcd 89be 27e9 b4bd
000000f0: 9fc6 7cbd 028e 4f3e 0e9a 9abe a766 6abe
00000100: 6510 92bd 0b9b 2a3f 7bd4 01bc 1edc acbd
00000110: ba7b 5c3f f7fa 2d3d c687 cd3c f1f5 cf3d
00000120: 9115 d3be bc66 bf3e 5190 b63e c5cd b43d
00000130: 1edc d33e 08c6 013f 2c6a debe 311f f63d
00000140: b163 273e 4278 f1bb f158 ee3d e671 4fbf
00000150: b9bd fbbe 2109 96be 634a 1c3d e328 2cbd
00000160: b16d 0f3d 7d9c f63e 72b9 0abe b5b0 5dbe
00000170: 5276 983d 4f54 e63e b889 2abf 0b32 e6bd
00000180: 8a43 8dbe 1172 a73c d06f ccbe 8799 273d
00000190: 25de 543c 22c4 79be 8c5d b5be 6195 60be
000001a0: 9bc0 5fbd fe7a 843b c02f a13b df85 903e
000001b0: a9f1 c5bd db98 163d 2b20 bcbe 90c7 603f
000001c0: 5f1f fe3e 6cbd 18bf ad95 e73e 0006 ec3e
000001d0: 8291 033f d582 aebd 20f0 22be b71c 083f
000001e0: 779b 20be c1f5 073f 16e7 f9be bf5a ed3c
000001f0: 6c08 a2bc 5e98 193f 58e0 cabe 9d58 14be
00000200: 92d3 273e 0bed 843e df2d 05bf 7c38 113f
00000210: 849c cd3d bfff e9be 6d22 2d3e 9fe8 adbe
00000220: a86a 7c3e 0f74 813e 82af 44bd defd 673e
00000230: f728 4cbe a741 acbd 8bc9 bbbe 58fe d4be
00000240: 928e 01bf 5a7c f53e 132e 013f 6361 21be
00000250: 0bd2 a2bd 7abd 98be dbf6 88be 490f e2bd
00000260: b094 05be 52fc cabe c69a fb3e 6795 24bf
00000270: 7202 ecba fe69 60b9 0998 563f 42d5 37be
00000280: 0e67 a2bd 3f5b 1dbe c03a 55bd e13b 5f3c
00000290: 5b48 23bf 4acf 05be 2cef c13e d0d3 c83e
000002a0: 4677 a13e 9cd0 64bd d4ee 1fbe 4a1c 163a
000002b0: 20e1 7339 d04b 743d e60a af3a 93af 11ba
000002c0: 3dba 7fbd ed1d d1be 858b ee3e 1410 ddbe
000002d0: a74d 96bd e4e2 e4bc 7ff6 1b3f 3f54 853e
000002e0: cafe 093e b0ca 1cbf a992 503e 87e0 3a3e
000002f0: 98f7 c03e 5d93 033f 4efa a2be 414c ea3e
00000300: 3ee3 8a3e db00 f53e 8fdb c73e 8f4d cb3e
00000310: e576 943e efd2 153f 105a 00be 1eb5 9b3e
00000320: 2f83 f7be 2d41 0ebf b4dc 013f f5eb b33e
00000330: 5c5c b73e 480f d1be 5b56 f03e b4ce c8be
00000340: b3ca 3cbe 52a9 20be 3c37 12be 4ccc 6c3e
00000350: 2493 463f 6ff4 373e e970 aabd 1d65 8ebe
00000360: 4861 a5bd e44f 3abd 0962 8ebe 085d e43e
00000370: 1cc7 32be f9fc 7c3e b04d 633c f6d1 b7bd
00000380: 5e39 dcbe e112 cabe d7c0 463e d53a e73e
00000390: eb13 6dbe 0527 a03d a261 f6be 9852 58be
000003a0: 9f1a 11be 98b2 c13e ff63 173f 7541 e53e
000003b0: b989 adbe d37c 4b3d 0331 773d 47f3 0a3f
000003c0: b54f 323e 58d0 85be 04f3 163f 23a9 183f
000003d0: dd8e 49be b531 a73e 48ee 80bc 51f7 c5bd
000003e0: 5c8f db3e e44a c3bd e3ee ea3e 3f8d 023f
000003f0: 1942 593d 4ac4 fc3e 8316 2c3f 27d2 493e

net.0.bias f4 [256]
-0.3555982 0.36464065 0.08124723 -0.65106297 0.03266108 -0.24516985 0.3390976 -0.70406973
-0.7464234 0.4700306 0.5812406 0.46740487 0.7973179 -0.10206384 0.66824514 -0.14381848
0.24371104 0.28310493 0.39737743 0.5636863 0.53709096 0.0008777798 0.3180293 -0.1333571
0.20894402 0.28734228 0.23897444 0.69979036 0.2735424 0.10952599 -0.38119206 -0.7748114
0.5744381 0.19433166 0.32925883 -0.22086453 0.40053704 -0.5704193 -0.3867376 -0.21251516
-0.44143796 0.041536573 -0.20162731 -0.6155139 -0.688773 -0.105023615 0.40204126 0.70237553
-0.63364404 0.22755112 0.14691192 0.18970981 -0.63703626 0.08993136 0.21008793 -0.22934128
0.25210258 -0.03860022 0.054814063 -0.5365538 0.11664937 0.4406229 -0.08790246 -0.2609939
-0.23379649 0.0904706 0.54867136 -0.6277575 -0.73763674 0.48504108 -0.17039128 0.391245
0.09838145 -0.30609488 0.35159793 -0.20286067 0.5052416 -0.41928414 -0.08799953 0.040223785
-0.04375447 -0.25400466 0.11284195 -0.4129037 -0.7841827 0.55688584 0.32808572 -0.5352271
-0.61952436 0.6716914 -0.21412371 0.5024138 -0.72534037 0.47313938 0.7385263 0.5630079
-0.64433265 -0.005787823 -0.009220874 -0.083609685 0.29580206 -0.34425062 0.62041134 -0.42338368
0.71151876 -0.12300956 0.36499417 -0.65553373 -0.42143494 -0.009437784 0.5428245 -0.016796133
0.27313367 -0.0317687 -0.48768222 0.4116475 0.009747369 0.20211612 -0.20889242 0.34312868
-0.5339449 0.42932367 0.3474358 -0.5984668 -0.010838674 -0.091861576 -0.7229631 0.5595539
0.28793502 -0.04282229 0.019757042 0.48155972 0.03456341 -0.5364628 0.28294674 0.30821535
0.11498478 -0.5412484 0.011381814 0.40581256 0.3133173 0.0056139627 0.29326934 -0.26779073
0.54491454 0.4209627 -0.52271354 -0.3177923 0.50575274 -0.52009773 0.29037285 -0.118441075
-0.61333644 -0.38024357 -0.538004 -0.32144305 0.43006968 0.13694918 -0.12907809 -0.5302985
0.6092072 -0.3806433 0.5723078 -0.40542343 0.32352954 -0.2182171 0.3505328 -0.6814409
0.38855878 -0.38099334 -0.7010571 0.23096193 -0.6400705 -0.48455867 0.19883145 -0.2585508
-0.012308523 -0.11660676 -0.23938574 -0.68327147 0.58171475 -0.5371919 0.51947796 -0.33819222
0.29130477 0.5889627 -0.3282908 0.06823917 0.20934929 0.45652908 -0.73053926 -0.56092185
-0.15227106 -0.25786772 0.33453506 0.36159775 -0.37940753 0.6067651 0.24228236 0.42517424
-0.5727164 -0.15764606 0.30081317 -0.7518057 0.44835785 -0.48980093 0.6599277 -0.04931508
0.5798721 -0.60379386 -0.20922892 0.3440017 0.4011638 0.3045815 -0.5843886 -0.15080495
0.1102251 -0.014785872 -0.59344864 -0.5216876 -0.53275216 -0.5974522 0.12834549 -0.5574364
0.046231806 0.7340034 -0.40720218 -0.6495711 -0.22482285 0.81758523 -0.03897309 -0.2936534
0.51797867 0.51251394 0.5266673 -0.6740834 -0.08257679 -0.5982505 -0.16120158 -0.58107793
0.08782156 0.1200606 0.0062471586 -0.75468147 -0.12119955 0.3507063 0.22703587 -0.045780018
-0.3656568 -0.4952391 0.2855264 0.2525725 0.29318216 -0.4042511 -0.1815927 -0.5658714
00000000: f810 b6be 2eb2 ba3e f364 a63d 10ac 26bf
00000010: a0c7 053d ce0d 7bbe 339e ad3e ea3d 34bf
00000020: 9b15 3fbf daa7 f03e 2fcc 143f b14f ef3e
00000030: 071d 4c3f d906 d1bd 1d12 2b3f 2745 13be
00000040: 638f 793e 21f3 903e 0e75 cb3e bf4d 103f
00000050: cb7e 093f ce1a 663a bdd4 a23e c38e 08be
00000060: 6cf5 553e 871e 933e b7b5 743e 7625 333f
00000070: c00d 8c3e 2a4f e03d 9b2b c3be 0a5a 46bf
00000080: 600e 133f e1fe 463e 9d94 a83e 502a 62be
00000090: 3113 cd3e 0007 12bf 7902 c6be 939d 59be
000000a0: 2804 e2be 4122 2a3d 6477 4ebe 5292 1dbf
000000b0: 6d53 30bf 9f16 d7bd 5ad8 cd3e e2ce 333f
000000c0: 7f36 22bf 2903 693e 1470 163e 4a43 423e
000000d0: cf14 23bf ef2d b83d 4a21 573e 71d8 6abe
000000e0: 9713 813e 441b 1ebd b684 603d 975b 09bf
000000f0: dde5 ee3d 5399 e13e 3406 b4bd fea0 85be
00000100: 5968 6fbe a648 b93d ba75 0c3f b7b4 20bf
00000110: c3d5 3cbf 4e57 f83e 0d7b 2ebe 4451 c83e
00000120: 377c c93d 78b8 9cbe a504 b43e b5ba 4fbe
00000130: 8357 013f 69ac d6be 1939 b4bd b2c1 243d
00000140: e337 33bd e60c 82be ae19 e73d 1d68 d3be
00000150: 33c0 48bf 1290 0e3f dafa a73e a504 09bf
00000160: 2699 1ebf f8f3 2b3f 3f43 5bbe 319e 003f
00000170: e8af 39bf 533f f23e 0f10 3d3f 4921 103f
00000180: fcf2 24bf c7a7 bdbb 2613 17bc 8e3b abbd
00000190: 5e73 973e 9e41 b0be 47d3 1e3f bfc5 d8be
000001a0: 1826 363f 70ec fbbd 84e0 ba3e 0fd1 27bf
000001b0: 52c6 d7be efa0 1abc 8cf6 0a3f 0b98 89bc
000001c0: 2dd8 8b3e e51f 02bd 7cb1 f9be 76c3 d23e
000001d0: 6eb3 1f3c 87f7 4e3e e5e7 55be 90ae af3e
000001e0: 9db0 08bf 50d0 db3e 1be3 b13e 1f35 19bf
000001f0: b294 31bc ec21 bcbd 1c14 39bf ed3e 0f3f
00000200: 386c 933e 6d66 2fbd 85d9 a13c ff8e f63e
00000210: 5d92 0d3d a055 09bf 65de 903e 67ce 9d3e
00000220: 247d eb3d 418f 0abf ca7a 3a3c aac6 cf3e
00000230: 206b a03e 55f5 b73b 6627 963e de1b 89be
00000240: 857f 0b3f 6c88 d73e 8ed0 05bf acb5 a2be
00000250: 0379 013f 2025 05bf c0ab 943e 3c91 f2bd
00000260: 9e03 1dbf 49af c2be a1ba 09bf 2f94 a4be
00000270: 1832 dc3e 683c 0c3e 0c2d 04be a4c1 07bf
00000280: 01f5 1b3f aee3 c2be c482 123f a993 cfbe
00000290: aaa5 a53e 4e74 5fbe 0979 b33e e972 2ebf
000002a0: 2df1 c63e 8f11 c3be 7a78 33bf 4981 6c3e
000002b0: a9db 23bf 1318 f8be 799a 4b3e c560 84be
000002c0: b0a9 49bc 86cf eebd 8921 75be e1ea 2ebf
000002d0: 42eb 143f 6985 09bf 82fc 043f 8827 adbe
000002e0: e625 953e 42c6 163f bb15 a8be fac0 8b3d
000002f0: a95f 563e 2ebe e93e 9f04 3bbf 9398 0fbf
00000300: f2ec 1bbe 3d07 84be 2e48 ab3e 5723 b93e
00000310: b441 c2be f554 1b3f de18 783e 70b0 d93e
00000320: 8b9d 12bf f86d 21be 2f04 9a3e 5776 40bf
00000330: 298f e53e 30c7 fabe 06f1 283f 9cfe 49bd
00000340: 7f72 143f 3c92 1abf 1b40 56be fe20 b03e
00000350: 5765 cd3e 1bf2 9b3e 7e9a 15bf 9d6c 1abe
00000360: b2bd e13d 7140 72bc 40ec 17bf 528d 05bf
00000370: 7262 08bf a1f2 18bf 006d 033e 27b4 0ebf
00000380: 905d 3d3d a6e7 3b3f ce7c d0be 4b4a 26bf
00000390: f637 66be 444d 513f 3fa2 1fbd bd59 96be
000003a0: 409a 043f 1d34 033f abd3 063f bb90 2cbf
000003b0: 051e a9bd f226 19bf 0712 25be 86c1 14bf
000003c0: cadb b33d 55e2 f53d f7b4 cc3b ce32 41bf
000003d0: 7837 f8bd c78f b33e 177c 683e d483 3bbd
000003e0: 5e37 bbbe fb8f fdbe 8430 923e 2f51 813e
000003f0: f91b 963e 00fa cebe 70f3 39be f3dc 10bf

net.2.weight f4 [256, 256]
-0.056718353 0.04156927 -0.013166688 0.028103987 -0.05712533 0.020312537 0.018006947 -0.05268636
0.0228692 -0.07579275 -0.062058624 -0.012033824 -0.036616962 -0.038434714 0.006966422 -0.023523048
-0.016863013 -0.05199241 0.014321974 -0.022296926 -0.026903816 -0.061356533 0.05734914 -0.06368838
-0.029582493 -0.04581775 -0.010561422 0.0014838114 -0.012157467 -0.017085195 -0.054380514 -0.03950168
0.020266764 -0.011105063 0.046243373 -0.016850395 -0.01501407 -0.00674813 0.0105742 -0.030308645
0.036175177 0.03389703 0.08088923 -0.02647274 -0.008077134 -0.07665884 0.0020491316 -0.057528675
0.025225589 0.071120396 0.049285788 0.0062012533 0.03661232 0.026963228 0.0016384572 -0.00034964853
0.03406721 -0.03380253 0.0120174745 0.0022776064 -0.004481722 -0.0013776342 0.033589616 0.054605138
-0.056444615 -0.02397945 -0.025996793 0.00056608464 0.00022744844 -0.038698602 -0.05841223 -0.05175154
0.042221982 0.05676613 0.039708048 -0.062295854 -0.03680748 -0.018247206 -0.0010633366 -0.0064308695
-0.04598285 0.049175326 -0.01351688 0.059658602 -0.046156447 -0.04145194 -0.0580474 0.010185577
-0.067027055 0.050162233 0.01723227 0.029260792 0.04448685 -0.017291764 0.008953476 0.001738966
-0.072144344 -0.0359979 0.015993655 -0.04884758 0.009063556 -0.10475242 0.034255207 0.040912967
0.028268497 0.034205236 -0.01746664 0.023734124 -0.02397793 0.045244332 0.026294755 0.03345913
-0.038856864 0.024395887 -0.014749934 -0.020554129 -0.059990883 -0.022215145 -0.020147081 -0.06406216
0.051751193 0.014962312 0.028890003 -0.025493858 -0.00076754694 -0.006136639 0.01223353 -0.009214431
0.025353553 -0.05470343 -0.059227962 -0.034546092 -0.04196478 0.030368429 -0.06096785 0.01632532
-0.06594185 -0.039139584 -0.053206284 0.053773586 0.016672209 0.06697181 0.06937818 -0.04157205
-0.001919385 -0.053780634 -0.065836616 -0.041712772 0.030665688 0.0063644196 -0.049326744 -0.02515746
-0.023627205 0.029816942 -0.037359938 0.030546693 -0.03909952 -0.040746223 -0.013793037 0.06536499
0.007929299 0.0068777967 -0.009680463 0.035235025 -0.023518553 0.009853436 0.014288179 -0.05215998
0.033707514 -0.02083587 0.0026924442 0.004103422 -0.08266082 0.029420583 0.07123046 -0.06123566
-0.02900581 -0.017598353 -0.060177285 -0.00249445 0.026852159 0.05329583 0.04294716 0.040453464
0.008613978 -0.0013765375 -0.0020003342 0.011074095 -0.04493692 -0.020391606 -0.038314596 0.055410355
0.049534615 0.016902609 -0.03724968 -0.06895468 -0.013507947 -0.0766554 -0.033696655 0.020987533
0.055543076 -0.03500607 -0.05365979 0.051007226 -0.03882236 0.03444592 0.047393337 0.026157737
0.03508163 0.029804705 0.0047011604 -0.053840674 -0.048222683 -0.05370785 -0.03657787 -0.036010355
-0.024819193 0.028099695 0.038967185 -0.04968928 -0.025427118 -0.010066864 0.06578 -0.024706973
-0.046941888 -0.029951511 0.06421188 -0.019548832 0.016982442 0.04250344 0.04292309 0.01342278
0.042900674 0.059547618 -0.014482899 0.010947241 0.029869512 0.03977815 -0.054917358 0.007346211
0.022499809 -0.004846255 0.031770073 0.029285997 -0.037091184 0.024928037 0.06429575 0.032608915
0.012072824 -0.01670254 -0.0087015005 -0.06301907 0.03862295 0.03869388 0.0063687963 0.014638722
00000000: 8151 68bd 8a44 2a3d 18b9 57bc 553a e63c
00000010: 40fc 69bd 7a66 a63c 4e83 933c a7cd 57bd
00000020: 3058 bb3c 3b39 9bbd 2f31 7ebd 8429 45bc
00000030: abfb 15bd b86d 1dbd 9546 e43b 68b3 c0bc
00000040: 4d24 8abc fef5 54bd b6a6 6a3c 0ba8 b6bc
00000050: 6465 dcbc fd50 7bbd efe6 6a3d 0e6f 82bd
00000060: fc56 f2bc 65ab 3bbd d109 2dbc 737c c23a
00000070: 1d30 47bc 40f6 8bbc 1abe 5ebd 83cc 21bd
00000080: 7c06 a63c 03f2 35bc b169 3d3d d709 8abc
00000090: 93fd 75bc 6b1f ddbb 693f 2d3c d649 f8bc
000000a0: 6c2c 143d 9dd7 0a3d 41a9 a53d 5cdd d8bc
000000b0: f555 04bc 4fff 9cbd b94a 063b 30a3 6bbd
000000c0: e5a5 ce3c 92a7 913d e5df 493d e233 cb3b
000000d0: cdf6 153d fde1 dc3c 80c1 d63a 0851 b7b9
000000e0: 0f8a 0b3d 8674 0abd f1e4 443c e543 153b
000000f0: 69db 92bb bc91 b4ba 4495 093d a3a9 5f3d
00000100: 7832 67bd 8d70 c4bc 3af7 d4bc 4c65 143a
00000110: 3a7f 6e39 6d82 1ebd aa41 6fbd 6cf9 53bd
00000120: f5f0 2c3d 9a83 683d e8a4 223d f029 7fbd
00000130: 71c3 16bd 2a7b 95bc a85f 8bba 0bba d2bb
00000140: 8358 3cbd 116c 493d e775 5dbc 945c 743d
00000150: 8b0e 3dbd 82c9 29bd 1cc3 6dbd 68e1 263c
00000160: 7b45 89bd ea76 4d3d b12a 8d3c 54b4 ef3c
00000170: d837 363d 75a7 8dbc 9ab1 123c 04ee e33a
00000180: 6ac0 93bd 8972 13bd 2005 833c 6614 48bd
00000190: 4f7f 143c 7088 d6bd 304f 0c3d 5b94 273d
000001a0: 5693 e73c ca1a 0c3d 3316 8fbc 116e c23c
000001b0: 5d6d c4bc 1f52 393d 1968 d73c 710c 093d
000001c0: 6028 1fbd e2d9 c73c b5a9 71bc 2261 a8bc
000001d0: 00b9 75bd 89fc b5bc 7e0b a5bc 0633 83bd
000001e0: 0ff9 533d 7c24 753c baaa ec3c 7fd8 d0bc
000001f0: 3435 49ba dc15 c9bb 256f 483c 20f8 16bc
00000200: 41b2 cf3c b410 60bd 0599 72bd 3480 0dbd
00000210: 43e3 2bbd 36c7 f83c 6db9 79bd adbc 853c
00000220: 850c 87bd d450 20bd d5ee 59bd b141 5c3d
00000230: 2894 883c 8428 893d 2616 8e3d 7447 2abd
00000240: e093 fbba 1549 5cbd 59d5 86bd 03db 2abd
00000250: 9c36 fb3c 9f8c d03b d70a 4abd 0417 cebc
00000260: d78d c1bc a942 f43c bc06 19bd 0f3d fa3c
00000270: d126 20bd 83e5 26bd 31fc 61bc 14de 853d
00000280: e4e9 013c 245f e13b ce9a 1ebc 9a52 103d
00000290: fba9 c0bc 4e70 213c f718 6a3c b4a5 55bd
000002a0: e410 0a3d fdaf aabc b873 303b 0076 863b
000002b0: 134a a9bd 6f03 f13c 47e1 913d 3ed2 7abd
000002c0: 989d edbc 6c2a 90bc 757c 76bd ed79 23bb
000002d0: 0ff9 db3c ba4c 5a3d 5ce9 2f3d 88b2 253d
000002e0: a421 0d3c ef6c b4ba 0a18 03bb 1f70 353c
000002f0: c70f 38bd 4c0c a7bc c4ef 1cbd f8f5 623d
00000300: cfe4 4a3d 5777 8a3c 1f93 18bd 1c38 8dbd
00000310: 7050 5dbc 82fd 9cbd 8105 0abd 0cee ab3c
00000320: 2381 633d 8662 0fbd 5eca 5bbd f4ec 503d
00000330: 3204 1fbd 2a17 0d3d 841f 423d c048 d63c
00000340: c1b1 0f3d ff28 f43c 310c 9a3b 0a88 5cbd
00000350: 2685 45bd c3fc 5bbd add2 15bd 987f 13bd
00000360: 9f51 cbbc 5531 e63c 0e9c 1f3d fd86 4bbd
00000370: 884c d0bc 7def 24bc aab7 863d 4766 cabc
00000380: 2346 40bd df5c f5bc 8581 833d df24 a0bc
00000390: c31e 8b3c 1618 2e3d 1fd0 2f3d 38eb 5b3c
000003a0: 9eb8 2f3d 34e8 733d ae49 6dbc 0f5c 333c
000003b0: e8b0 f43c 6aee 223d 06f1 60bd 7cb8 f03b
000003c0: 8551 b83c 55cd 9ebb 5621 023d 30e9 ef3c
000003d0: edec 17bd e235 cc3c 7dad 833d ed90 053d
000003e0: 18cd 453c c4d3 88bc bd90 0ebc 2410 81bd
000003f0: 1933 1e3d 797d 1e3d 56b1 d03b 40d7 6f3c

net.2.bias f4 [256]
0.0919188 0.004093862 -0.0646142 -0.05873958 0.03995863 -0.14278884 -0.10376771 -0.16469246
-0.035726845 -0.0646334 -0.06928727 -0.052996054 0.034829434 0.04107523 -0.016308215 -0.08071659
-0.0053431094 -0.050148632 0.0018192393 -0.05298847 0.006569282 -0.08808416 -0.0820704 -0.14722884
-0.024694964 -0.00461646 -0.15826996 -0.091285974 0.006423282 0.0066687367 -0.04812078 -0.03696855
-0.0068742502 0.07108088 -0.10615842 -0.061163392 -0.053116303 0.00029118074 -0.06483754 0.015577595
-0.023052283 -0.07814182 -0.037161425 -0.15713066 -0.0008353073 0.09716478 -0.06408742 0.0013338026
-0.17620178 -0.1823914 -0.030453252 -0.05048977 -0.050295703 -0.14170392 0.023107214 -0.10654957
-0.15457316 -0.08643673 0.030201154 -0.14039549 0.041780822 -0.062045995 -0.15571839 -0.06136702
-0.038645077 0.014078154 0.0087124435 -0.053296942 -0.021389304 -0.07122759 -0.060678806 -0.07144185
-0.0267686 -0.048156977 -0.050343573 -0.012822588 -0.15329026 -0.05631937 0.16051427 -0.0814625
-0.058327116 -0.0023745955 0.024758628 0.04145027 -0.17263965 -0.022000812 -0.039894946 0.021722088
0.04186454 -0.117677726 -0.0744378 -0.1482871 -0.06464613 0.08472905 -0.13036622 0.045763932
-0.056159407 -0.04259944 -0.025802081 -0.121575266 -0.03693693 -0.0924607 -0.14547217 -0.20617521
0.028768206 -0.08769256 -0.068387754 -0.06584787 -0.071476236 -0.036067184 -0.14100221 0.077423535
0.02270639 -0.017540187 -0.049808107 -0.052212417 -0.037445236 -0.08738119 -0.05225462 -0.048693195
0.02940761 -0.160094 -0.06241208 0.03438468 0.00050221867 0.022790136 -0.16672875 -0.028615879
-0.0055452865 0.08310417 -0.06326293 -0.1057637 -0.15111211 0.029946288 -0.09051811 0.006461521
0.061364736 -0.058894187 0.02703962 -0.034824792 0.061089966 -0.09712998 0.010261251 0.014940377
0.11133719 -0.060854867 -0.091218 0.008198065 -0.04112707 0.1286989 -0.07196371 0.01528486
0.049395636 -0.030981312 0.052839924 0.055142432 -0.056448072 -0.05599316 -0.035006832 -0.014240121
0.08225537 0.03389706 0.02187282 -0.15483038 -0.08894123 -0.12664044 -0.032342695 -0.08441191
0.06521837 -0.105413295 -0.00010773013 0.016635874 -0.1065776 -0.097905874 -0.10369928 -0.19944279
-0.093143485 -0.07374883 -0.0622573 -0.02740661 0.047143962 0.043525167 0.04755962 -0.046508823
-0.006010208 -0.0036215468 -0.073697016 -0.16768803 0.05743025 -0.046019368 0.036003035 0.016402867
0.0017589758 0.025246348 0.09288868 0.039492104 -0.008904338 -0.021165531 0.020563154 -0.10872972
-0.046484195 -0.021930154 -0.093058355 -0.075089306 -0.0038880568 -0.07721543 -0.14329897 -0.034052256
0.032548536 0.08719225 -0.1659978 -0.12673204 -0.05840663 -0.016110297 0.19340464 0.11948607
-0.13713367 -0.060823612 -0.034016475 -0.13792022 0.0023106674 -0.005386792 0.08895278 0.12232906
-0.0829992 -0.02238592 -0.05192267 -0.06352785 -0.1062077 -0.15365137 -0.035511095 -0.12793146
-0.047794554 -0.058548566 -0.09333748 -0.122803785 -0.04383644 0.02403209 -0.05657663 0.011084522
-0.064185336 -0.025516199 0.0042926436 -0.006628885 -0.11442589 -0.07744659 -0.07221078 0.054959252
-0.105351605 -0.10004432 -0.104176566 -0.04981422 -0.08985468 -0.036084797 -0.0701829 0.03078625
00000000: ec3f bc3d ce25 863b 7354 84bd ea98 70bd
00000010: a9ab 233d 3d37 12be 2a84 d4bd 24a5 28be
00000020: 5056 12bd 845e 84bd 7ce6 8dbd 6412 59bd
00000030: 4fa9 0e3d 803e 283d ce98 85bc bd4e a5bd
00000040: 4015 afbb a768 4dbd 8b73 ee3a 700a 59bd
00000050: 2243 d73b 7865 b4bd 8714 a8bd 28c3 16be
00000060: 184d cabc ac45 97bb 8511 22be 24f4 babd
00000070: 657a d23b 6b85 da3b 4c1a 45bd 566c 17bd
00000080: 6441 e1bb da92 913d 9669 d9bd 7786 7abd
00000090: 7b90 59bd 9ea9 9839 8bc9 84bd 2b39 7f3c
000000a0: 24d8 bcbc d208 a0bd 9436 18bd dce6 20be
000000b0: 86f8 5aba 54fe c63d 4440 83bd fdd2 ae3a
000000c0: 3d6e 34be d0c4 3abe 1979 f9bc 5cce 4ebd
000000d0: de02 4ebd d51a 11be 574b bd3c a936 dabd
000000e0: 6d48 1ebe be05 b1bd 6968 f73c d6c3 0fbe
000000f0: 5e22 2b3d f123 7ebd a474 1fbe fc5b 7bbd
00000100: 4d4a 1ebd 0fa8 663c a3be 0e3c e54d 5abd
00000110: 9f38 afbc c5df 91bd 578a 78bd 1b50 92bd
00000120: d349 dbbc 4040 45bd 1035 4ebd d515 52bc
00000130: 1ff8 1cbe 24af 66bd da5d 243e d0d5 a6bd
00000140: 6ae8 6ebd 1a9f 1bbb 9bd2 ca3c c2c7 293d
00000150: 73c8 30be 0c3b b4bc e268 23bd 85f2 b13c
00000160: 277a 2b3d 0501 f1bd d872 98bd 93d8 17be
00000170: 3165 84bd 6d86 ad3d b97e 05be f672 3b3d
00000180: 6807 66bd c07c 2ebd e35e d3bc 74fc f8bd
00000190: 2e4b 17bd 095c bdbd a8f6 14be 981f 53be
000001a0: 4dab eb3c 2898 b3bd e10e 8cbd 40db 86bd
000001b0: 2262 92bd 2fbb 13bd e262 10be 3b90 9e3d
000001c0: c002 ba3c 70b0 8fbc 9603 4cbd b0dc 55bd
000001d0: 2d60 19bd e9f4 b2bd f108 56bd 8472 47bd
000001e0: 3ae8 f03c aeef 23be cfa3 7fbd f3d6 0c3d
000001f0: 53a7 033a 61b2 ba3c f1ba 2abe d96b eabc
00000200: 3cb5 b5bb 8532 aa3d ff8f 81bd a49a d8bd
00000210: 22bd 1abe eb51 f53c 8f61 b9bd 2bbb d33b
00000220: 9759 7b3d 083b 71bd 3182 dd3c 71a4 0ebd
00000230: 7939 7a3d 15ec c6bd ce1e 283c 7cc8 743c
00000240: c104 e43d f442 79bd 81d0 babd 2d51 063c
00000250: dc74 28bd a5c9 033e b661 93bd 596d 7a3c
00000260: 1453 4a3d 85cc fdbc ad6e 583d 08dd 613d
00000270: 1836 67bd 1559 65bd 5363 0fbd 654f 69bc
00000280: 8175 a83d a5d7 0a3d a12e b33c db8b 1ebe
00000290: d226 b6bd 08ae 01be c679 04bd 27e0 acbd
000002a0: 3591 853d ede2 d7bd 2ced e1b8 f547 883c
000002b0: 5b45 dabd e082 c8bd 4a60 d4bd bb3a 4cbe
000002c0: 03c2 bebd a009 97bd 8301 7fbd d483 e0bc
000002d0: 071a 413d 7247 323d e0cd 423d 0980 3ebd
000002e0: 47f1 c4bb 7957 6dbb 76ee 96bd 69b6 2bbe
000002f0: fb3b 6b3d ce7e 3cbd eb77 133d 4e5f 863c
00000300: 6f8d e63a 6ed1 ce3c 6c3c be3d 79c2 213d
00000310: 80e3 11bc 5663 adbc 0f74 a83c b0ad debd
00000320: 3666 3ebd dea6 b3bc 6195 bebd 6cc8 99bd
00000330: c5ce 7ebb 2023 9ebd f7bc 12be 617a 0bbd
00000340: 9d51 053d da91 b23d 54fb 29be 0bc6 01be
00000350: ca3b 6fbd bef9 83bc de0b 463e 1db5 f43d
00000360: c56c 0cbe 2e22 79bd dc54 0bbd f53a 0dbe
00000370: 916e 173b b083 b0bb e02c b63d a987 fa3d
00000380: 7cfb a9bd ad62 b7bc deac 54bd e41a 82bd
00000390: 6c83 d9bd c956 1dbe 1574 11bd 7700 03be
000003a0: 39c4 43bd 9fd0 6fbd b927 bfbd 8d80 fbbd
000003b0: d78d 33bd f2de c43c e5bc 67bd db9b 353c
000003c0: 9a73 83bd 5907 d1bc 4ea9 8c3b 1e37 d9bb
000003d0: 1f58 eabd 519c 9ebd 3fe3 93bd f41c 613d
000003e0: 95c2 d7bd 09e4 ccbd 865a d5bd ff09 4cbd
000003f0: bb05 b8bd a7cd 13bd 0dbc 8fbd 7233 fc3c

net.4.weight f4 [256, 256]
-0.0039377566 -0.027904859 -0.041871265 -0.00118611 0.04516736 0.05323048 0.07056983 0.108242236
0.09890384 0.083912835 0.013883051 0.0010581049 0.032450017 0.006763868 0.11375002 0.02379447
0.0021537964 0.061106637 0.05566206 -0.0062559866 -0.07443737 -0.012862569 0.056417137 0.046744402
0.077108 -0.074081436 0.053022996 0.06831579 0.034722846 0.0126468185 0.0826784 0.063701816
-0.025766771 -0.14233838 -0.039366275 0.078710616 0.03671492 -0.04979906 -0.11099385 0.06460503
-0.11963221 0.0752292 -0.0074377167 -0.048715662 -0.07813272 -0.16571248 -0.03654396 -0.17154598
0.056381945 0.007850305 0.11940759 -0.15688041 0.017506288 -0.003205556 0.012229934 0.05382629
0.088274725 -0.030609937 0.007810885 0.091906905 -0.027194863 -0.04366918 0.063044414 0.088538855
-0.108886585 -0.097435765 -0.009311902 0.05513154 0.015405183 0.07411689 -0.024540003 0.010736755
0.03899209 -0.06203836 -0.0074047665 -0.19543654 -0.08209959 0.1425414 -0.047345847 0.042887785
-0.008201193 0.0983854 0.05823229 -0.05707499 -0.011849047 -0.05239484 0.0072576934 -0.0227778
-0.32301983 0.008441106 -0.15332732 0.07104993 0.05575051 -0.02569799 0.013210012 0.011094137
0.060107987 0.0001052149 0.00068294146 -0.0022615504 0.022415655 -0.041392002 0.090108305 -0.10456263
0.04597688 0.1595664 0.020708043 -0.09674217 -0.037745163 0.06464388 0.02552729 0.015613087
-0.017389955 0.011670541 0.059325676 -0.009265608 0.058818232 -0.024712034 0.08498004 0.062464636
0.034622602 -0.13903904 -0.012331592 -0.01822236 -0.010068908 0.031849276 0.045083363 -0.03223721
-0.018532865 -0.093531325 0.032355815 0.059020545 0.0013422656 0.038528934 0.06063277 -0.05700642
-0.3481717 0.016454035 -0.094835185 0.07653096 -0.067873046 0.020744795 0.07280668 0.03519829
-0.14598238 0.049364746 -0.07230262 -0.00157408 -0.075146735 -0.12622485 0.054795217 0.16053662
-0.19535722 -0.007615829 0.03489584 0.019813692 0.0669895 0.028188642 -0.018741302 0.07872697
-0.03516726 -0.017282419 0.04034818 -0.035926074 -0.0026313043 0.090887986 -0.024589783 0.0026072124
0.0052293856 0.025569994 0.012449864 -0.13318402 -0.039199103 0.051681105 -0.032864768 0.0016386132
0.07608817 -0.019501744 -0.016098276 0.026227674 0.009470371 -0.2742075 -0.019709647 -0.15565616
0.021606822 0.027954288 0.045940083 0.084385276 -0.023937354 0.0017700563 0.017169546 -0.018287683
-0.009193614 0.085201554 -0.30572435 0.029434916 -0.08448114 0.018635936 0.026867876 -0.033528715
0.117634244 -0.0046152486 0.0007463011 0.040728033 0.12661386 0.09671995 0.0066986885 0.043023754
0.05541714 -0.012481137 -0.0269382 0.15025069 0.01603168 0.019374395 -0.27438727 -0.2708154
0.105309315 -0.029294012 -0.010510784 -0.229812 -0.029357815 0.04102056 0.016648069 -0.040442638
0.07505962 -0.005304915 0.103381984 0.15736592 -0.10118078 0.08740372 0.047846686 0.045697816
-0.07189336 0.026661366 -0.018586876 0.0027996467 0.062384322 0.030854117 0.00924129 0.043416485
0.08615245 0.011528325 0.15231594 0.027536144 0.09890272 0.07289038 -0.073594846 0.060123287
0.08748768 -0.015384669 0.009704065 -0.021072477 1.7972772e-05 0.06606145 0.078185156 -0.015622611
00000000: 4c08 81bb bb98 e4bc 3481 2bbd 3f77 9bba
00000010: 6901 393d 3408 5a3d ea86 903d 1bae dd3d
00000020: 198e ca3d 7eda ab3d bd75 633c 1cb0 8a3a
00000030: 4fea 043d 70a3 dd3b c5f5 e83d 9fec c23c
00000040: b526 0d3b f44a 7a3d e6fd 633d 05ff ccbb
00000050: 9f72 98bd 86bd 52bc a815 673d 0f77 3f3d
00000060: cdea 9d3d 02b8 97bd a42e 593d 26e9 8b3d
00000070: 8b39 0e3d 9a34 4f3c 4b53 a93d 1976 823d
00000080: d614 d3bc 27c1 11be 883e 21bd 0833 a13d
00000090: 6262 163d 19fa 4bbd be50 e3bd a44f 843d
000000a0: bb01 f5bd c411 9a3d 17b8 f3bb 138a 47bd
000000b0: 0c04 a0bd 88b0 29be 1faf 15bd c0a9 2fbe
000000c0: c1f0 663d 919e 003c f78b f43d 42a5 20be
000000d0: 5969 8f3c 4e14 52bb 1060 483c f578 5c3d
000000e0: 61c9 b43d b1c1 fabc 74f2 ff3b b039 bc3d
000000f0: c3c7 debc 74de 32bd 6e1d 813d dc53 b53d
00000100: eeff debd 678c c7bd f390 18bc 9cd1 613d
00000110: 0566 7c3c 99ca 973d 1e08 c9bc 37e9 2f3c
00000120: 2bb6 1f3d ef1b 7ebd afa3 f2bb 8420 48be
00000130: d423 a8bd 5ff6 113e b8ed 41bd 1aab 2f3d
00000140: 4c5e 06bc 497e c93d fb84 6e3d 77c7 69bd
00000150: 8122 42bc f99b 56bd f2d1 ed3b 8298 babc
00000160: db62 a5be 914c 0a3c d601 1dbe a082 913d
00000170: a65a 643d 9784 d2bc ce6e 583c 2fc4 353c
00000180: cb33 763d d2a6 dc38 6d07 333a 8536 14bb
00000190: 09a1 b73c a98a 29bd b48a b83d ef24 d6bd
000001a0: 4152 3c3d 6065 233e eaa3 a93c c220 c6bd
000001b0: ac9a 1abd 0364 843d 9b1e d13c 09ce 7f3c
000001c0: 6175 8ebc cc35 3f3c 7bff 723d c7ce 17bc
000001d0: 63eb 703d e470 cabc 040a ae3d ebda 7f3d
000001e0: 6ed0 0d3d 4060 0ebe 720a 4abc 0f47 95bc
000001f0: 10f8 24bc 6374 023d 55a9 383d 2a0b 04bd
00000200: 3cd2 97bc 5a8d bfbd 8887 043d 87bf 713d
00000210: f6ee af3a 84d0 1d3d 115a 783d 907f 69bd
00000220: 9043 b2be 9dca 863c f338 c2bd 44bc 9c3d
00000230: 0601 8bbd fdf0 a93c ab1b 953d 152c 103d
00000240: 687c 15be b032 4a3d 6513 94bd 5c51 ceba
00000250: 88e6 99bd 1641 01be f370 603d b663 243e
00000260: b90b 48be 348e f9bb f1ee 0e3d 5350 a23c
00000270: ca31 893d deeb e63c 5c87 99bc 9b3b a13d
00000280: 8b0b 10bd dc93 8dbc 2244 253d 3827 13bd
00000290: f671 2cbb 7b23 ba3d 8370 c9bc c4dd 2a3b
000002a0: 445b ab3b 2a78 d13c 84fa 4b3c 6461 08be
000002b0: 3d8f 20bd 91af 533d 359d 06bd bcc6 d63a
000002c0: 1dd4 9b3d 1fc2 9fbc 88e0 83bc 6bdb d63c
000002d0: 9d29 1b3c ed64 8cbe 2076 a1bc 5464 1fbe
000002e0: ca00 b13c 6400 e53c ab2b 3c3d 30d2 ac3d
000002f0: 4518 c4bc 3c01 e83a 26a7 8c3c 0dd0 95bc
00000300: d0a0 16bc 277e ae3d e787 9cbe 7e21 f13c
00000310: 7304 adbd 64aa 983c 051a dc3c 6855 09bd
00000320: 39ea f03d 833b 97bb 6ba3 433a 70d2 263d
00000330: 10a7 013e 1c15 c63d ac80 db3b ad39 303d
00000340: 15fd 623d af7d 4cbc 80ad dcbc 51db 193e
00000350: df54 833c 0db7 9e3c 7d7c 8cbe 51a8 8abe
00000360: 69ac d73d fff9 efbc 6c35 2cbc d653 6bbe
00000370: cd7f f0bc 2d05 283d 8861 883c 2ea7 25bd
00000380: dcb8 993d dad4 adbb efb9 d33d 8824 213e
00000390: de37 cfbd b900 b33d e3fa 433d a22d 3b3d
000003a0: d33c 93bd f068 da3c 8143 98bc 477a 373b
000003b0: b486 7f3d c6c1 fc3c c868 173c 7cd5 313d
000003c0: b270 b03d 4de1 3c3c b6f8 1b3e 7b93 e13c
000003d0: 828d ca3d 8d47 953d e5b8 96bd d643 763d
000003e0: be2c b33d fb0f 7cbc ccfd 1e3c 30a0 acbc
000003f0: 3cc4 9637 3a4b 873d 8a1f a03d fbf5 7fbc

net.4.bias f4 [256]
-0.107243486 -0.14686234 -0.04070651 -0.08955774 -0.09543786 0.027337799 -0.07109042 -0.011728498
-0.05840161 0.0036484988 -0.0073187873 0.016373312 0.032194167 -0.041423567 0.026947433 0.019263523
-0.111848414 -0.04619447 0.010897119 -0.07486319 -0.03367148 -0.030347085 -0.07679225 0.012904982
0.013366824 -0.10557895 0.027216233 -0.16461015 -0.02502155 -0.024688093 0.03536731 0.018938208
0.0048770704 9.968286e-05 -0.09912235 -0.17968304 0.040420312 -0.005228469 0.01219596 -0.005507447
0.04480711 -0.13214168 0.053863738 -0.04967013 -0.048176017 -0.13748766 -0.062163547 -0.07264573
-0.06494345 0.011001439 -0.08117787 -0.0048328745 -0.086598754 -0.02365428 -0.04018574 -0.0023260033
-0.03271238 0.0045347237 0.007957562 -0.0005915868 0.03282827 -0.051136848 -0.042999033 0.053724628
0.01807264 0.017655604 -0.03001599 0.023550885 0.021331988 -0.010335855 -0.005194218 -0.10106647
-0.0971326 0.111128375 0.0035364516 0.029441947 -0.025803152 -0.005920467 -0.028950712 0.0028475341
-0.035061385 -0.030228022 -0.035864033 -0.018804159 -0.07853298 -0.064008914 -0.11380425 -0.0061248215
-0.01202785 -0.023243444 0.034946803 -0.022566808 -0.051910844 -0.047404524 -0.032865886 0.04746246
0.07341808 0.07067388 -0.034349147 -0.01797384 -0.029084895 0.0069952053 0.06966727 -0.014853977
-0.021235034 -0.06710182 -0.048783466 -0.0345794 0.0072542513 0.0293318 -0.023868944 -0.0958651
-0.07568375 -0.034485552 -0.06381033 -0.021401908 0.0067721475 0.1308567 -0.007987309 -0.013565168
-0.006537498 -0.087004885 0.047936566 -0.04734731 -0.027222399 -0.16135462 0.03729201 -0.021640858
-0.10121844 -0.19117323 -0.026328415 0.045923654 -0.08849765 -0.1113402 -0.037097536 -0.03601611
-0.015523045 -0.08561907 -0.02590776 -0.068447195 0.016665464 0.025664952 0.03500574 -0.044847503
-0.038079366 -0.015483805 -0.09110175 -0.047010276 -0.09506438 -0.043955065 -0.032216676 0.01288776
-0.05205669 -0.18635531 -0.15672228 -0.0595705 -0.14937998 -0.003785112 -0.018946843 -0.08869219
0.054219853 -0.012965396 -0.015505553 0.00039273972 0.054602526 -0.06669071 0.003826343 -0.024125174
-0.08032032 0.016582796 -0.006729597 -0.15327467 -0.12508343 0.0060448004 -0.09304016 -0.07729001
-0.0028718575 -0.07001928 -0.01802367 -0.082797326 -0.13823573 -0.0470177 0.027956033 -0.051778167
-0.06347732 -0.102191694 -0.073443644 -0.02601005 -0.052388407 0.080545805 0.038920894 -0.027195545
-0.05225136 -0.044517722 0.00045927754 -0.02556868 -0.03861299 -0.089964464 0.07016433 -0.015186422
-0.005544695 -0.007892142 -0.0718593 0.010402776 -0.094593816 -0.0028286257 -0.0055549107 -0.0077775777
-0.028064122 -0.1823217 -0.007252738 -0.04406235 -0.03600324 0.009953144 -0.107508644 -0.08061199
0.024626482 -0.03551192 -0.100592405 -0.06611922 -0.05945225 0.0025740038 0.05507859 -0.09712735
0.014057504 -0.05901464 -0.004787242 -0.1790137 -0.048506603 0.013455679 0.0054940116 0.01795166
-0.06858838 -0.070997864 -0.0012659983 0.018285323 0.01589075 -0.08853403 0.05362478 -0.051760465
-0.035200767 -0.02801801 0.003976606 0.033547208 0.038787365 -0.032720987 -0.026928654 -0.076258525
-0.06442543 -0.008280149 -0.043150686 -0.051218472 -0.09793796 -0.025182817 -0.10984682 -0.07859042
00000000: 79a2 dbbd 1563 16be dfbb 26bd 0c6a b7bd
00000010: ed74 c3bd 85f3 df3c db97 91bd e328 40bc
00000020: 8736 6fbd a71b 6f3b 70d2 efbb 5321 863c
00000030: 08de 033d c2ab 29bd ddc0 dc3c 89ce 9d3c
00000040: c810 e5bd 6a36 3dbd d489 323c df51 99bd
00000050: 1beb 09bd 739a f8bc 4145 9dbd 6b6f 533c
00000060: 8600 5b3c c739 d8bd 94f4 de3c 908f 28be
00000070: fef9 ccbc af3e cabc 50dd 103d 4d24 9b3c
00000080: d5cf 9f3b d40c d138 a900 cbbd d5fe 37be
00000090: c58f 253d 9453 abbb 90d1 473c d077 b4bb
000000a0: a987 373d 2650 07be 39a0 5c3d e872 4bbd
000000b0: 3754 45bd 91c9 0cbe 349f 7ebd 49c7 94bd
000000c0: 1201 85bd 613f 343c 9540 a6bd 175d 9ebb
000000d0: b05a b1bd 9fc6 c1bc cd99 24bd dc6f 18bb
000000e0: 6bfd 05bd 0598 943b 6f60 023c b814 1bba
000000f0: f076 063d df74 51bd c11f 30bd 5b0e 5c3d
00000100: 130d 943c 7ca2 903c 18e4 f5bc c9ed c03c
00000110: 6cc0 ae3c b857 29bc 4234 aabb f0fb cebd
00000120: 75ed c6bd 4697 e33d d0c3 673b 3d30 f13c
00000130: 2261 d3bc 7a00 c2bb 0b2a edbc b29d 3a3b
00000140: 879c 0fbd c2a0 f7bc 2ae6 12bd 2e0b 9abc
00000150: e6d5 a0bd 1b17 83bd 3412 e9bd bab2 c8bb
00000160: 7610 45bc 0969 bebc 6124 0f3d 07de b8bc
00000170: 77a0 54bd 3f2b 42bd 619e 06bd ff67 423d
00000180: 385c 963d 78bd 903d b1b1 0cbd e03d 93bc
00000190: 7243 eebc 0938 e53b b7ad 8e3d 185e 73bc
000001a0: 18f5 adbc ae6c 89bd 2cd1 47bd 21a3 0dbd
000001b0: 12b5 ed3b 3e49 f03c ce88 c3bc ec54 c4bd
000001c0: 1500 9bbd b940 0dbd feae 82bd 0e53 afbc
000001d0: e4e8 dd3b 4cff 053e 34dd 02bc 7040 5ebc
000001e0: 8238 d6bb 9e2f b2bd 2259 443d 41ef 41bd
000001f0: 8201 dfbc 253a 25be 82bf 183d 2b48 b1bc
00000200: 9d4b cfbd eac2 43be b0ae d7bc 711a 3c3d
00000210: 423e b5bd 5506 e4bd 96f3 17bd a185 13bd
00000220: 5f54 7ebc 0d59 afbd 833c d4bc 0b2e 8cbd
00000230: 0386 883c 4e3f d23c 2e62 0f3d 04b2 37bd
00000240: 1cf9 1bbd c9af 7dbc 8e93 babd d98d 40bd
00000250: 1db1 c2bd 3a0a 34bd a2f5 03bd 2f27 533c
00000260: 6539 55bd edd3 3ebe ce7b 20be 3200 74bd
00000270: 11f7 18be a40f 78bb 6936 9bbc 40a4 b5bd
00000280: a315 5e3d d06c 54bc 010b 7ebc a2e8 cd39
00000290: e6a6 5f3d 2495 88bd 62c3 7a3b 28a2 c5bc
000002a0: fb7e a4bd a5d8 873c f483 dcbb 09f4 1cbe
000002b0: df15 00be 7613 c63b d78b bebd 3a4a 9ebd
000002c0: c635 3cbb 4566 8fbd 60a6 93bc a591 a9bd
000002d0: ab8d 0dbe a295 40bd 0d04 e53c 5815 54bd
000002e0: 6600 82bd e149 d1bd 9f69 96bd 0713 d5bc
000002f0: 3a95 56bd 33f5 a43d 846b 1f3d 31c9 debc
00000300: 8605 56bd 3758 36bd 30cb f039 6975 d1bc
00000310: a828 1ebd 4a3f b8bd 51b2 8f3d 78d0 78bc
00000320: 46b0 b5bb 0b4e 01bc f82a 93bd 6870 2a3c
00000330: 67ba c1bd 7760 39bb f805 b6bb 0ddb febb
00000340: bbe6 e5bc 8ab2 3abe 60a8 edbb b97a 34bd
00000350: 2278 13bd 8312 233c 7e2d dcbd e617 a5bd
00000360: 7abd c93c f274 11bd 6403 cebd 8369 87bd
00000370: 3484 73bd 9eb0 283b 169a 613d b4ea c6bd
00000380: 7251 663c 56b9 71bd 4cde 9cbb 5e4f 37be
00000390: dcae 46bd 3575 5c3c 1c07 b43b 5c0f 933c
000003a0: 1178 8cbd 5467 91bd dbef a5ba 1acb 953c
000003b0: 512d 823c 5451 b5bd a8a5 5b3d c802 54bd
000003c0: ae2e 10bd 0786 e5bc 304e 823b cc68 093d
000003d0: 80df 1e3d 7106 06bd 7b99 dcbc 6e2d 9cbd
000003e0: 7bf1 83bd 76a9 07bc c6be 30bd 76ca 51bd
000003f0: b293 c8bd 324c cebc 5ff7 e0bd 04f4 a0bd

net.6.weight f4 [2, 256]
-0.045003925 -0.061123606 -0.0002682583 -0.014563933 -0.015480495 -0.00032808655 -8.90139e-05 -0.00045401166
-0.0028887151 0.0010789705 -2.4190274e-05 -0.0012156768 -0.00050663284 0.017162487 -0.058805622 -0.04018342
0.036502797 -0.045973036 0.00050787686 -0.0008540322 -0.00010510502 -0.0013485614 -0.008192036 -0.00024072164
0.0006173001 0.05536041 -0.010297012 0.06364231 0.0010924808 -0.22170609 -0.00037981354 -0.0006982648
0.001129739 -0.023017531 0.0008202072 -0.048288126 -0.029074442 -0.0011080244 -0.00031297657 0.00041888532
0.07399647 0.032068323 -0.0003690797 -0.00068032683 -0.0005643541 0.04168192 0.0017460465 0.00024906985
0.00016079047 -0.0005107185 -0.00044320014 0.033983834 -0.0037029446 0.0059087067 0.000559459 -0.00046767158
-0.05445991 0.0005966307 6.1341416e-05 -0.0003324171 0.00027662117 -0.050979257 0.01697869 -0.00029380555
-0.00015236803 0.00063571177 0.0003993248 0.00017499753 0.0010676242 -0.00043645536 0.050144378 -0.0003025415
0.046854068 -0.09197633 0.0014939625 0.00018808656 -0.0068668146 -0.00039056677 0.001337869 -0.027678685
-0.00056011067 -0.00028778112 -0.027789718 -0.0001940126 -0.015602237 -0.014092554 0.065639764 0.00042019202
-0.00018064823 7.5707416e-05 0.0030451585 -0.00018710831 -0.0009417729 0.0014628787 -0.0027949635 0.00026624562
0.06436782 -0.005820257 -0.00042088592 -0.013946813 -0.0004861731 -0.0008773964 -0.0012788968 9.953488e-05
-0.00040180015 -0.0094185 0.029706929 -0.025594976 -0.0008352971 0.00040677315 -0.00068219943 0.016447978
-0.00017256252 0.00037783786 -0.0015952745 -0.0014839204 -0.06630576 -0.06699377 -0.047077864 -0.0011250845
0.002006884 0.033365794 -0.0012567138 -0.010011936 0.02668574 0.032865 0.034060657 0.014937182
0.0002616407 0.05958653 -0.016074376 0.018680848 0.0009850453 0.0070486795 0.0001556063 -0.014992676
-0.0008762062 0.0030824328 -0.036408104 0.00042949626 -0.03657527 -0.00012766481 0.045744088 -0.00085788476
0.0021745 0.0008513934 0.00010859008 -1.9485917e-05 0.001508088 0.008049695 0.0004290563 -0.00031910054
-0.0008609592 0.043534216 -0.055537306 0.0532553 0.032287475 0.0075368197 -0.001568514 0.006962604
0.00048091344 -0.005706408 -6.6569664e-06 -0.04889289 0.00075290195 0.0012526524 -0.0007473451 -2.9153893e-05
-0.00067074 0.0010627715 -0.0024957694 -0.00833274 0.10186219 0.0011112896 -0.001390268 0.04647578
-0.022727266 -0.00050321827 0.00011558658 -0.040150866 0.056496147 -0.0006787923 0.0012352166 0.0005701226
-0.00078885234 -0.001163323 -0.0011511758 -0.051060136 0.0012066875 0.04177231 0.00035032455 -0.028261216
0.0007936412 -0.00015955203 -0.00087877474 0.0011168693 -0.00070628745 0.047088973 0.0006686305 0.021755029
0.0011939406 -0.019094648 0.03404203 0.0019870554 -0.0069132773 0.08634826 -0.0015067352 -0.001135799
-0.00011439062 -0.01819871 -5.7899626e-05 -0.00040462558 -0.008020749 0.0432207 -0.048794433 -0.00074759347
0.0005376043 -0.0043416666 -0.0061670127 -0.00018175395 0.044998135 -0.0008316837 0.0013943064 -0.00089590263
0.0005605966 -0.024672968 -0.0045924364 -0.010804691 0.00015221408 8.765291e-05 0.00811919 0.001818009
-0.00042219704 0.001390006 0.0002558297 0.0006169884 -0.032879807 0.0025133514 0.008133515 -0.00014506745
-0.0002423813 -0.0004221346 -0.0005417597 -0.00030991423 -0.024965424 0.022899738 -0.041812632 -0.0010218747
-0.00071935257 -0.006166968 -0.000792111 -0.000884982 -0.005885499 0.016679928 0.00033367905 -0.0021860937
00000000: 0956 38bd bf5c 7abd 05a5 8cb9 909d 6ebc
00000010: e7a1 7dbc 0803 acb9 f9ac bab8 6a08 eeb9
00000020: 9950 3dbb 3e6c 8d3a 38ec cab7 5857 9fba
00000030: 8ecf 04ba 5898 8c3c 2ade 70bd 5f97 24bd
00000040: f583 153d 394e 3cbd 0a23 053a 21e1 5fba
00000050: d46b dcb8 36c2 b0ba e437 06bc 396a 7cb9
00000060: 4fd2 213a 99c1 623d ccb4 28bc e656 823d
00000070: 9331 8f3a ec06 63be b621 c7b9 c20b 37ba
00000080: c013 943a 438f bcbc 2c03 573a c5c9 45bd
00000090: 862d eebc 213b 91ba 0117 a4b9 d69d db39
000000a0: 768b 973d 135a 033d 0a81 c1b9 f657 32ba
000000b0: 2af1 13ba a9ba 2a3d 99db e43a 9795 8239
000000c0: dd99 2839 bde1 05ba 515d e8b9 a232 0b3d
000000d0: 1aad 72bb d39d c13b a8a8 123a d131 f5b9
000000e0: 5b11 5fbd 3567 1c3a 6ca4 8038 4548 aeb9
000000f0: 7707 9139 a0cf 50bd e516 8b3c ea09 9ab9
00000100: fbc4 1fb9 e5a5 263a 785c d139 8b7f 3739
00000110: 86ef 8b3a 0cd4 e4b9 3164 4d3d 6f9e 9eb9
00000120: 0dea 3f3d 165e bcbd 10d1 c33a 1a39 4539
00000130: 0403 e1bb fcc4 ccb9 6f5b af3a 69be e2bc
00000140: 64d4 12ba 54e1 96b9 43a7 e3bc dc6f 4bb9
00000150: 86a0 7fbc 75e4 66bc 246e 863d 384d dc39
00000160: 646c 3db9 1cc5 9e38 4891 473b 8132 44b9
00000170: 4fe1 76ba 10be bf3a b52b 37bb e296 8b39
00000180: 47d3 833d dbb7 bebb 5aaa dcb9 2c81 64bc
00000190: 0de5 feb9 1301 66ba a8a0 a7ba 62bd d038
000001a0: b4a8 d2b9 0d50 1abc f25b f33c 8eac d1bc
000001b0: d7f7 5aba 2b44 d539 a1d5 32ba e9bd 863c
000001c0: e6f1 34b9 8a18 c639 8818 d1ba 1b80 c2ba
000001d0: 50cb 87bd 0834 89bd b8d4 40bd 9277 93ba
000001e0: ed85 033b 92aa 083d 51b8 a4ba 1a09 24bc
000001f0: 0e9c da3c 739d 063d 3083 0b3d 15bb 743c
00000200: d22c 8939 0111 743d 69ae 83bc 9408 993c
00000210: a31c 813a 9cf8 e63b 402a 2339 d7a3 75bc
00000220: 34b1 65ba a402 4a3b aa20 15bd 032e e139
00000230: f3cf 15bd c3dd 05b9 275e 3b3d ace3 60ba
00000240: 0e82 0e3b 0b30 5f3a dbba e338 b075 a3b7
00000250: 09ab c53a dee2 033c f6f2 e039 f34c a7b9
00000260: feb1 61ba ef50 323d 167b 63bd 3b22 5a3d
00000270: df3f 043d 6df7 f63b 9996 cdba 8e26 e43b
00000280: 1c23 fc39 d2fc babb e85e dfb6 e943 48bd
00000290: 655e 453a 0a30 a43a 7be9 43ba 828f f4b7
000002a0: 99d4 2fba b24c 8b3a 1090 23bb 0b86 08bc
000002b0: 209d d03d b1a8 913a a739 b6ba 635d 3e3d
000002c0: 882e babc 68ea 03ba 1367 f238 3c75 24bd
000002d0: 8168 673d fbf0 31ba fee6 a13a 4874 153a
000002e0: fcca 4eba a47a 98ba 0de3 96ba 6f24 51bd
000002f0: b729 9e3a 7119 2b3d c4ab b739 1184 e7bc
00000300: 5c0c 503a 6c4d 27b9 935d 66ba ea63 923a
00000310: 2626 39ba 5ee0 403d 0947 2f3a 9a37 b23c
00000320: 007e 9c3a 616c 9cbc a86f 0b3d 4239 023b
00000330: c688 e2bb 5bd7 b03d a57d c5ba 17df 94ba
00000340: ffe4 efb8 7615 95bc 40d9 72b8 ed23 d4b9
00000350: 7669 03bc 3008 313d acdc 47bd 26fa 43ba
00000360: 04ee 0c3a 8a44 8ebb a714 cabb 3495 3eb9
00000370: f74f 383d 5905 5aba 29c1 b63a 02db 6aba
00000380: 00f5 123a f71e cabc 267c 96bb 2906 31bc
00000390: a89b 1f39 4cd2 b738 5a06 053c 424a ee3a
000003a0: 545a ddb9 dd30 b63a e220 8639 64bd 213a
000003b0: faac 06bd 0ab7 243b 6f42 053c 3f1d 18b9
000003c0: bc27 7eb9 f251 ddb9 e104 0eba fc7b a2b9
000003d0: 4a84 ccbc 3b98 bb3c b943 2bbd 6df0 85ba
000003e0: ef92 3cba 4714 cabb aba5 4fba 23fe 67ba
000003f0: 25db c0bb 58a4 883c a5f1 ae39 9144 0fbb

net.6.bias f4 [2]
0.019205108 0.040933028
00000000: 0854 9d3c 64a9 273d
