spirals/cfm/models/45000_model.pt (torch, 535792 bytes, 8 tensors)

net.0.weight f4 [256, 3]
0	0xbca130e5	-0.019676635
1	0x3d3607c5	0.044441003
2	0x3e4f29ae	0.20230743
3	0xbd52b846	-0.051445268
4	0x3c8b70d0	0.017021567
5	0xbec1a20b	-0.3781894
6	0x3ed8d843	0.42352495
7	0x3e499481	0.19685556
8	0x3e864d3f	0.2623081
9	0x3e8519bb	0.25996193
10	0x3e1df778	0.15426433
11	0x3f0a8434	0.54107976
12	0xbdcccf8f	-0.10000526
13	0xbe4d1773	-0.20028476
14	0x3ef15c3c	0.47140682
15	0x3f27e219	0.6557937
16	0x3c709783	0.014684561
17	0x3ec097b0	0.37615728
18	0x3e3741a6	0.17896137
19	0xbd88d575	-0.06681339
20	0xbe2b235f	-0.16712712
21	0xbe784c4a	-0.24247852
22	0x3df94f71	0.12173355
23	0x3e9adfa8	0.3024876
24	0xbe36fff1	-0.17871071
25	0x3ebfd71e	0.3746881
26	0x3ece7b2e	0.40328354
27	0xbc1bb24e	-0.00950296
28	0xbd3fc35f	-0.04681718
29	0xbf59d889	-0.8509603
30	0x3d57493b	0.052560072
31	0xbe57e43d	-0.2108316
32	0xbea07d26	-0.3134548
33	0x3b27c204	0.002559782
34	0xbda0074e	-0.07813893
35	0xbf1c3f9c	-0.6103456
36	0x3df29515	0.118448414
37	0xbe896854	-0.2683741
38	0xbf2ba36a	-0.67046225
39	0xbb663b9d	-0.0035130747
40	0x3bdf62aa	0.0068171816
41	0xbc4be184	-0.012443904
42	0xbdfd9d61	-0.12383533
43	0x3a8f85fa	0.0010949962
44	0xbf31d98a	-0.69472563
45	0x3a8a3838	0.0010545319
46	0x3ad9c18c	0.0016613468
47	0x3f0a5c21	0.5404683
48	0xbb7f3eea	-0.0038947412
49	0x3e1971d9	0.14984836
50	0xbdb2cae7	-0.08730107
51	0xbe7f1385	-0.2490979
52	0x3e207eca	0.15673366
53	0xbe51ee0c	-0.20500964
54	0x3d752443	0.059849035
55	0x3a9f9011	0.0012173672
56	0xbefa4098	-0.48877406
57	0xbe5ee9fe	-0.21768948
58	0xbe639e61	-0.22228386
59	0xbe3f8a61	-0.18705131
60	0xbcca864b	-0.024722239
61	0x3daa1403	0.08304598
62	0xbefd58d5	-0.49481836
63	0xbbdc82fb	-0.0067294813
64	0xbb889a08	-0.0041687526
65	0x3f0df6fd	0.55455
66	0xbc2233bb	-0.009900029
67	0xbd8ae090	-0.06781113
68	0x3f64f6c2	0.8943902
69	0x3a736db3	0.0009286061
70	0xba2a9e77	-0.00065085985
71	0xbc653b8c	-0.013991248
72	0xbe8b001a	-0.27148515
73	0x3e7df607	0.24800883
74	0x3e8a7208	0.27040124
75	0x3d98ea78	0.07466596
76	0x3e2a1639	0.1661004
77	0x3eab9ff2	0.33520466
78	0xbe8bdeff	-0.2731857
79	0x3d2c9752	0.042136498
80	0x3dd470e9	0.103730984
81	0xbcc541cf	-0.024079232
82	0x3da23324	0.079199106
83	0xbf66c68c	-0.9014671
84	0xbebfaab2	-0.37434918
85	0xbe75d98f	-0.24008773
86	0xbb45e92b	-0.0030198793
87	0xbba35346	-0.004984292
88	0x3b512d7f	0.0031917987
89	0x3ef137e0	0.47112942
90	0xbcbd1470	-0.023081034
91	0xbd00a0be	-0.031403296
92	0x3ea7f058	0.32800555
93	0x3f093985	0.5360339
94	0xbf6a1b01	-0.91447455
95	0xbd9d5872	-0.07682885
96	0xbe0bc140	-0.13647938
97	0x3cf81e8e	0.030288007
98	0xbf088e55	-0.5334218
99	0x3a6dd1c0	0.00090720877
100	0xbb0a1301	-0.0021068456
101	0xbe91280a	-0.2835086
102	0xbe055a08	-0.13022625
103	0xbe0b1407	-0.13581859
104	0xbdf80efb	-0.12112232
105	0x3be72a81	0.0070546274
106	0x3ba6e8d8	0.005093675
107	0x3ecff4e6	0.4061653
108	0xbd70c398	-0.058780283
109	0x3d219a44	0.03945376
110	0xbefac5ba	-0.48978978
111	0x3f8d9455	1.1060892
112	0x3f1a3f82	0.60253155
113	0xbf0c4279	-0.5478893
114	0x3eec2e92	0.4612928
115	0x3eeba018	0.4602058
116	0x3ef532e9	0.47890404
117	0x39863df0	0.0002560462
118	0xbaaf6504	-0.0013381545
119	0x3f13d993	0.57753867
120	0xbe5f988a	-0.21835533
121	0x3f256083	0.6460039
122	0xbedf7e01	-0.4365082
123	0x3c9b752e	0.018976774
124	0xbb7ddc71	-0.003873613
125	0x3f315ba8	0.6928048
126	0xbea7b1a5	-0.3275272
127	0xbe1b81ba	-0.15186206
128	0x3e491467	0.19636689
129	0x3e5dd2f8	0.2166251
130	0xbf246604	-0.64218163
131	0x3f013141	0.5046578
132	0x3e1a20f5	0.15051635
133	0xbf1643d4	-0.5869725
134	0x3e546fa1	0.20745708
135	0xbb5121b8	-0.0031910967
136	0xba0f9e98	-0.00054786494
137	0x3e686ba3	0.2269731
138	0xbc29faa9	-0.010374703
139	0x3dbc774a	0.0920244
140	0xbeb2ce36	-0.3492295
141	0xbd238def	-0.03993028
142	0xbe66429e	-0.2248635
143	0xbf097225	-0.53689796
144	0xbf1a7044	-0.60327554
145	0x3f11b44c	0.56915736
146	0x3ed7017d	0.41993323
147	0xba30acce	-0.0006739617
148	0xba25c794	-0.000632399
149	0xbea41409	-0.32046536
150	0x39b90b85	0.00035294532
151	0x3b1ebeb8	0.0024222564
152	0xbdaba717	-0.08381479
153	0xbebf0943	-0.37311754
154	0x3ef1acf8	0.47202277
155	0xbf16dd39	-0.5893131
156	0xbb7e38c8	-0.0038791168
157	0xbb32156a	-0.0027173408
158	0x3f7a73d2	0.9783298
159	0xbb6b4416	-0.0035898737
160	0x3b6398d3	0.0034728542
161	0xbc99b80d	-0.01876452
162	0xbcfa1eb5	-0.03053222
163	0xb9971eb0	-0.00028823828
164	0xbf2b910d	-0.67018205
165	0xbcec6978	-0.028858885
166	0x3df183de	0.1179273
167	0x3ed55cc4	0.41672337
168	0x3d8ea27f	0.069645874
169	0xbc931bd7	-0.017957611
170	0xbe6a8e07	-0.22905742
171	0x397dbf86	0.00024199308
172	0x3ba3d3b8	0.004999604
173	0xbb9e9d6c	-0.0048405435
174	0xbaa17698	-0.0012318669
175	0xb9d98494	-0.00041488244
176	0xbc4e7d9c	-0.01260319
177	0xbf0419e1	-0.5160199
178	0x3f19d4ca	0.60090315
179	0xbec6b7fa	-0.38812238
180	0xbca557dc	-0.020183496
181	0x3bebda51	0.007197656
182	0x3f1cd763	0.61266154
183	0x3db132e1	0.086522825
184	0x3d0b34df	0.03398597
185	0xbf20f6e8	-0.6287675
186	0xbb01fd31	-0.0019834752
187	0x3b063b46	0.0020482107
188	0x3e6ee847	0.23330794
189	0x3f246f64	0.6423247
190	0xbe91fa84	-0.2851144
191	0x3ec2bd5e	0.380351
192	0x3e4a2ea2	0.19744352
193	0x3ee42729	0.44561127
194	0x3ed35d22	0.41281992
195	0x3e9b54f7	0.3033826
196	0x3e83ac0f	0.25717208
197	0x3f035d44	0.5131419
198	0xbd9dabff	-0.07698821
199	0x3e5c4eec	0.21514481
200	0xbf0e4ca9	-0.55585724
201	0xbf3aa011	-0.7290049
202	0x3f10238e	0.5630425
203	0x3e8a3390	0.26992464
204	0x3edd9025	0.43274036
205	0xbefcbd3c	-0.49363124
206	0x3ed5a7be	0.4172954
207	0xbe5cd600	-0.2156601
208	0xbe37c9c5	-0.17948063
209	0xbe72ae0d	-0.23699208
210	0xb9e22b1f	-0.00043138207
211	0x39f42697	0.00046568058
212	0x3f44e2b9	0.7690845
213	0x3dc7a9ae	0.09749161
214	0xbd629bb9	-0.05532429
215	0xbec92b36	-0.3929078
216	0xb90bdf92	-0.0001333936
217	0xbb6004d5	-0.0034182568
218	0xbdc86100	-0.09784126
219	0x3ef2369c	0.4730729
220	0xbe16ca79	-0.14725675
221	0x3e5f5cd9	0.21812762
222	0x3c3fba87	0.011702186
223	0xbd86c7aa	-0.06581052
224	0xbeff03a8	-0.49807477
225	0xbe898f51	-0.26867154
226	0x3d8d29af	0.06892716
227	0x3ed471bd	0.41493025
228	0xbda19c5a	-0.0789115
229	0x3d3d1a98	0.04616794
230	0xbf105ed3	-0.5639469
231	0xbd95687f	-0.07295322
232	0xbd47b9fa	-0.048761345
233	0x3ef01135	0.46888128
234	0x3f354212	0.7080394
235	0x3efab43b	0.4896563
236	0xbe9be36f	-0.30446956
237	0x39a243f5	0.0003094968
238	0xbaa6d1dc	-0.0012727338
239	0x3f07b295	0.5300687
240	0x3aa14437	0.0012303655
241	0xbb4475e2	-0.002997749
242	0x3ef9f678	0.48820853
243	0x3f391726	0.72300947
244	0xbe35c6db	-0.17751639
245	0x3ea3ceec	0.31993806
246	0x3a8e9d6d	0.0010880657
247	0x3a113c14	0.00055402634
248	0x3e845635	0.2584702
249	0xbd054b6b	-0.032542627
250	0x3edbdc05	0.429413
251	0x3f0115c5	0.5042384
252	0x3d784bc9	0.06061915
253	0x3f1698af	0.58826727
254	0x3f26106c	0.6486881
255	0x3e0077a3	0.12545638

net.0.bias f4 [256]
0	0xbe954240	-0.29152107
1	0x3ec4bcde	0.38425344
2	0xbc84ea1c	-0.016224913
3	0xbf37ac0d	-0.71746904
4	0xbdead0f9	-0.114656396
5	0xbeb38048	-0.35058808
6	0x3eb03e26	0.34422415
7	0xbf4702b6	-0.7773851
8	0xbf61d055	-0.88208514
9	0x3f05e19d	0.52297384
10	0x3f12a0b6	0.57276475
11	0x3f0dcb7d	0.55388623
12	0x3f5e0745	0.8672984
13	0x3c37c8ee	0.011217339
14	0x3f35a566	0.70955503
15	0xbe96884a	-0.29400855
16	0x3e5b1e90	0.21398377
17	0x3e89d2a7	0.26918527
18	0x3ef07e57	0.4697139
19	0x3f0a7bb0	0.5409498
20	0x3f041771	0.5159827
21	0xbe766a54	-0.24063998
22	0x3dd9a9db	0.106281005
23	0x3c8cba56	0.017178696
24	0x3dc434dc	0.095803946
25	0x3d7166ae	0.058935814
26	0x3e3952f7	0.18098055
27	0x3f467eac	0.77537036
28	0x3e506f27	0.20354901
29	0xbe2a4cf6	-0.16630921
30	0xbe984c96	-0.2974593
31	0xbf61d323	-0.88212794
32	0x3f13a6fe	0.57676685
33	0x3e8e8d0f	0.27841994
34	0x3e9ed01b	0.31018147
35	0xbeb00585	-0.3437921
36	0x3eec1a87	0.4611399
37	0xbf2a8f60	-0.6662502
38	0xbf053f3d	-0.5204962
39	0xbeb40956	-0.35163373
40	0xbf0d25ee	-0.55136
41	0xbe1fec2d	-0.15617438
42	0xbe841dce	-0.2580399
43	0xbf4da44c	-0.8032882
44	0xbf4ca7d1	-0.7994357
45	0xbe2c05b9	-0.16799058
46	0x3ec97eda	0.39354593
47	0x3f372d6f	0.715537
48	0xbf527c88	-0.8222127
49	0x3e99f330	0.3006835
50	0x3d9c9695	0.07645909
51	0x3e6150fb	0.22003548
52	0xbf27d9f1	-0.6556693
53	0x3c4ec2cd	0.012619686
54	0x3ebf5bdf	0.3737478
55	0xbe9705ae	-0.2949652
56	0x3e906d8f	0.28208587
57	0x3c4720ff	0.012153863
58	0x3c5ccd24	0.013476644
59	0xbf1dfa33	-0.617099
60	0xbdff818c	-0.12475881
61	0x3f0e8a12	0.5567943
62	0xbe41a3c3	-0.18910126
63	0xbed4f650	-0.41594172
64	0xbe9dae1a	-0.3079689
65	0x3bc7a5e9	0.006092776
66	0x3f14c2b6	0.58109605
67	0xbf4f7d88	-0.8105092
68	0xbf688272	-0.90824044
69	0x3ef21bc9	0.47286823
70	0xbea621f8	-0.3244779
71	0x3ee2f765	0.44329372
72	0x3db0e5d9	0.0863759
73	0xbedc7279	-0.43056086
74	0x3ee5621a	0.44801408
75	0xbea747b4	-0.32671893
76	0x3f11b090	0.5691004
77	0xbee67008	-0.45007348
78	0xbe031da5	-0.12804277
79	0xbe796490	-0.24354768
80	0xbe8cb5aa	-0.2748235
81	0xbeaf8ecd	-0.34288636
82	0xbe480cbd	-0.1953611
83	0xbf083cb2	-0.53217614
84	0xbf70965d	-0.93979436
85	0x3f1f6e01	0.6227723
86	0x3e869503	0.26285562
87	0xbf163327	-0.586718
88	0xbf34cbd0	-0.70623493
89	0x3f2d4e78	0.6769786
90	0xbea08420	-0.31350803
91	0x3eda6688	0.4265635
92	0xbf5e8119	-0.8691574
93	0x3f0b937b	0.5452191
94	0x3f46cabe	0.7765311
95	0x3f10872a	0.56456244
96	0xbf2d9813	-0.6781017
97	0x3c8413b7	0.016122682
98	0xbe4aab06	-0.19791803
99	0xbe31e84a	-0.17373767
100	0x3e99548c	0.29947317
101	0xbecfc1c5	-0.40577522
102	0x3f2a085e	0.6641902
103	0xbf1736b1	-0.5906783
104	0x3f3b806e	0.73242843
105	0xbeab78e2	-0.33490664
106	0x3ede159f	0.4337587
107	0xbf4b6a8f	-0.7945947
108	0xbf0cab1d	-0.549486
109	0x3cc631f6	0.024193745
110	0x3f1d71d0	0.6150179
111	0x3d47e38d	0.048800994
112	0x3ed14b35	0.4087769
113	0xbe548eb7	-0.20757566
114	0xbf1a7052	-0.6032764
115	0x3ecb7629	0.39738587
116	0xbd5057a6	-0.050864838
117	0x3ed98731	0.42485955
118	0xbebaa43b	-0.36453423
119	0x3f08b9c1	0.5340844
120	0xbf244d8a	-0.64180815
121	0x3ecf7b06	0.40523547
122	0x3eb2075e	0.34771246
123	0xbf27bdd3	-0.65524024
124	0xbdc0ad3b	-0.09408041
125	0xbe8451db	-0.258437
126	0xbf6228b8	-0.8834338
127	0x3f08bc01	0.5341187
128	0x3dbe0c3d	0.09279678
129	0x3daf0a8b	0.08546933
130	0x3c50d394	0.012745757
131	0x3f1ba4e6	0.6079849
132	0xbc6e16ce	-0.014531804
133	0xbf1f1d5b	-0.6215417
134	0x3edcddd5	0.43137994
135	0x3e866b26	0.26253623
136	0xbc023129	-0.007946291
137	0xbf1f0158	-0.62111425
138	0x3c7f1156	0.015568098
139	0x3efe117c	0.49622715
140	0x3eacd44d	0.33755723
141	0x3c66603b	0.014061029
142	0x3e91b598	0.28458858
143	0xbe5fda0e	-0.21860525
144	0x3f0adfc0	0.54247665
145	0x3ed20ea4	0.41026795
146	0xbf1a377c	-0.6024091
147	0xbe98c132	-0.29834896
148	0x3f090105	0.5351718
149	0xbf1a642d	-0.60309106
150	0x3ecf4641	0.40483287
151	0xbe73f9f4	-0.23825818
152	0xbf2d16ac	-0.6761272
153	0xbf09432a	-0.5361811
154	0xbf27d02a	-0.6555201
155	0xbedf27f3	-0.43585166
156	0x3efa7bc9	0.48922566
157	0xbd3c35db	-0.045949798
158	0xbe5dd452	-0.21663025
159	0xbf0a0444	-0.5391276
160	0x3f38cf7f	0.72191614
161	0xbe9a4ce8	-0.301368
162	0x3f303bd3	0.68841285
163	0xbea8f797	-0.33001396
164	0x3ea71070	0.32629728
165	0xbec2c1a7	-0.3803837
166	0x3efb6751	0.49102262
167	0xbf51578f	-0.8177423
168	0x3ed7cefc	0.42150104
169	0xbecdda89	-0.40205792
170	0xbf492193	-0.78566855
171	0x3e9b8cc0	0.3038082
172	0xbf464f4e	-0.7746476
173	0xbf02921a	-0.51004183
174	0x3bfca68f	0.007710285
175	0xbec7e71b	-0.39043507
176	0xbd941470	-0.07230461
177	0xbea34200	-0.31886292
178	0xbeb5a5fc	-0.354782
179	0xbf40fec1	-0.75388724
180	0x3f13b0cc	0.57691646
181	0xbf1814b3	-0.59406585
182	0x3ee08af2	0.43856007
183	0xbe63b3f6	-0.22236618
184	0x3eb65bc2	0.3561688
185	0x3f299275	0.662391
186	0xbed750cc	-0.4205383
187	0x3d62c105	0.05535986
188	0x3ed070b4	0.40710986
189	0x3f158c28	0.58416986
190	0xbf483573	-0.7820656
191	0xbf34f316	-0.7068342
192	0xbe6ee082	-0.2332783
193	0xbeab41f2	-0.3344875
194	0x3ee3b7af	0.44476077
195	0x3e9c8404	0.3056947
196	0xbeffb1df	-0.49940392
197	0x3f33c501	0.7022248
198	0x3e91d212	0.28480583
199	0x3ed4b5b1	0.4154487
200	0xbf16f150	-0.58961964
201	0xbea9bc02	-0.3315125
202	0x3ece744d	0.40323105
203	0xbf5aa50b	-0.85408086
204	0x3eea3576	0.45743912
205	0xbf142695	-0.5787137
206	0x3f268c6b	0.6505801
207	0x3c84d561	0.016215028
208	0x3f1a0d82	0.6017686
209	0xbf20af93	-0.62767905
210	0xbde9919a	-0.114047244
211	0x3ed2b07b	0.4115027
212	0x3ebdde47	0.37083647
213	0x3e9ae73f	0.30254552
214	0xbf39eb72	-0.72624886
215	0xbe8c8f8e	-0.27453274
216	0x3e3fce7f	0.18731116
217	0xbdd3e9bb	-0.10347315
218	0xbf1c9d60	-0.61177635
219	0xbf0c4bb8	-0.5480304
220	0xbf2928b2	-0.6607772
221	0xbf373881	-0.71570593
222	0x3e36e32f	0.17860101
223	0xbf33faf3	-0.70304793
224	0x3e477840	0.19479465
225	0x3f45e8f4	0.77308583
226	0xbef06f31	-0.46959832
227	0xbf45b0d2	-0.7722293
228	0xbe9e9f84	-0.30981076
229	0x3f565749	0.83726937
230	0xbe8475ba	-0.25871068
231	0xbecfb7f6	-0.4057004
232	0x3eee4977	0.46540424
233	0x3f24619c	0.6421144
234	0x3efa96a9	0.4894307
235	0xbf45bf13	-0.7724468
236	0x3c6d36f2	0.014478432
237	0xbf2dd762	-0.67906773
238	0xbe419e2f	-0.18907999
239	0xbf1cf27c	-0.613075
240	0x3e47497a	0.19461623
241	0xbcda7676	-0.026667815
242	0xbd2798e3	-0.04091729
243	0xbf4cc545	-0.7998851
244	0xbe24ea42	-0.16104987
245	0x3eb25bd5	0.34835687
246	0x3e56a921	0.20962955
247	0x3c438afd	0.011934993
248	0xbf063e2d	-0.5243862
249	0xbf2b9506	-0.67024267
250	0x3e95952a	0.29215366
251	0x3dd551d8	0.10416001
252	0x3ebb2334	0.36550295
253	0xbea86ce5	-0.3289558
254	0x3c834afa	0.016026963
255	0xbf0cb686	-0.5496601

net.2.weight f4 [256, 256]
0	0xbd9d7927	-0.076891236
1	0x3d316e25	0.043317933
2	0xbcdbfea6	-0.026854824
3	0xbd0ef65a	-0.034902908
4	0xbdc54c59	-0.09633703
5	0x3cbb7fb7	0.022888048
6	0xbd03e3a7	-0.032199528
7	0xbd7628dd	-0.060097564
8	0x3d050660	0.032476783
9	0xbd2cb3ae	-0.042163543
10	0xbd544e81	-0.05183268
11	0xbbd070f7	-0.0063611227
12	0xbcfb2428	-0.03065689
13	0xbcca3c2c	-0.024686895
14	0xbc099e74	-0.008399595
15	0x3cb4ee7c	0.022086374
16	0xbd8a8386	-0.06763367
17	0xbd8399a6	-0.064257905
18	0x3d00cd1b	0.031445604
19	0xbd949d64	-0.072565824
20	0xbda4b0a7	-0.08041506
21	0xbd916da2	-0.07100989
22	0x3d976cee	0.073938236
23	0xbd71794b	-0.058953565
24	0xbd4f27d8	-0.050575107
25	0xbd9457d2	-0.07243313
26	0xbcc27e8a	-0.02374198
27	0xbc5a13c2	-0.013310375
28	0xbd39971c	-0.045310125
29	0xbccc9537	-0.024973495
30	0xbda9fc5c	-0.08300087
31	0xbc60da94	-0.013723988
32	0x3d5f859d	0.054570783
33	0x3b7ed44c	0.0038883863
34	0xbac38a9b	-0.0014918627
35	0xbca5e34f	-0.02024999
36	0xbcb80c09	-0.022466676
37	0xbc65b717	-0.014020703
38	0x3d6c74b4	0.057728484
39	0xbc8dc172	-0.017304156
40	0x3ba6b57b	0.005087552
41	0x3d6e59e4	0.058191195
42	0x3de99a29	0.11406357
43	0xbd58f0cd	-0.05296402
44	0x3b5d71d1	0.0033789764
45	0xbdc74097	-0.097291164
46	0xbd2bb33b	-0.041918974
47	0xbd2d13a0	-0.042255044
48	0x3d88cd5b	0.066797934
49	0x3d58a835	0.05289479
50	0xbbfb01fb	-0.007660148
51	0x3d34a358	0.04410109
52	0x3bf8cbf2	0.0075926716
53	0x3c7a0209	0.015259274
54	0x3c928518	0.01788573
55	0xbd1ed256	-0.03877481
56	0x3c0c54e6	0.008565163
57	0xbce86e23	-0.02837283
58	0x3ca708e1	0.020389976
59	0x3c6f81f0	0.014618382
60	0x3b992c28	0.0046744533
61	0x3c19b3a0	0.009381205
62	0x3c777e6e	0.015105827
63	0x3cc2262a	0.023699839
64	0xbd9537dc	-0.07286045
65	0xbc49e09a	-0.012321616
66	0xbd98a14a	-0.074526384
67	0x3d0b9e1d	0.034086335
68	0xbceb6200	-0.028733253
69	0xbdc6a840	-0.0970006
70	0xbdcacc7c	-0.099022835
71	0xbd8520fa	-0.065004304
72	0xbc90b5f6	-0.01766489
73	0x3d361f11	0.04446322
74	0x3d50b7d8	0.050956577
75	0xbdfb4da2	-0.12270667
76	0xbd30ae39	-0.0431349
77	0xbd6e19ad	-0.058129955
78	0x3b85f684	0.004088225
79	0xba4dd856	-0.0007852366
80	0xbd67c10f	-0.0565806
81	0x3d375b3e	0.04476475
82	0xbc1b5425	-0.009480511
83	0x3cd8c231	0.026459785
84	0xbd8bc403	-0.06824496
85	0xbd3771ca	-0.044786252
86	0xbddb77da	-0.10716219
87	0x3ced1447	0.028940333
88	0xbddf0771	-0.10890091
89	0xbb117f30	-0.0022201054
90	0xbceda10b	-0.029007455
91	0x3cf2844f	0.029604105
92	0x3ce08812	0.027408633
93	0xbd6260a7	-0.055267956
94	0xbca13dea	-0.019682843
95	0xbbddd4e9	-0.0067697656
96	0xbdd8569e	-0.10563396
97	0xbb6eb5d7	-0.0036424303
98	0x3d278341	0.040896658
99	0xbddcdc21	-0.10784174
100	0x3c01ddcf	0.007926418
101	0xbe31c067	-0.17358552
102	0xbc35154e	-0.011052443
103	0x3da650f2	0.08120908
104	0xbd044c1b	-0.032299142
105	0x3d874b3e	0.06606148
106	0xbb0bc0c4	-0.0021324614
107	0x3bb632db	0.0055602617
108	0x3cd8e464	0.026476093
109	0x3d46b828	0.04851547
110	0x3be0faec	0.0068658497
111	0x3cc36778	0.023853049
112	0xbd893998	-0.06700438
113	0x3b120ac7	0.0022284256
114	0xbd0e2f32	-0.034712978
115	0xb9fc0526	-0.0004806902
116	0xbcc393c7	-0.023874177
117	0xbcf4d166	-0.029885005
118	0xbdc2c3cd	-0.09510002
119	0xbd5fa185	-0.054597396
120	0x3d54775d	0.051871646
121	0xbc73961c	-0.014867332
122	0x3d1b3fb0	0.037902534
123	0xbd39c1d2	-0.045350857
124	0x3cbf01ad	0.023316229
125	0x3ba07253	0.004896441
126	0x3c39f660	0.011350244
127	0xbd07ace8	-0.03312388
128	0x3ca1d0f0	0.01975295
129	0xbd913a30	-0.070911765
130	0x3db4d6dc	0.08830044
131	0xbd5f193d	-0.05446743
132	0xbda467b6	-0.08027594
133	0x3d5af120	0.05345261
134	0xbd8a450b	-0.0675145
135	0xbcecaf65	-0.028892228
136	0xbd07159f	-0.032979604
137	0xbc4e2a97	-0.012583396
138	0xbdac04aa	-0.08399327
139	0x3c876d30	0.016531557
140	0x3d1b318e	0.037889056
141	0xbcadd6e3	-0.02122063
142	0x3dd4b354	0.103857666
143	0x3c03c675	0.008042921
144	0x3c21a460	0.00986585
145	0xbdb080f9	-0.086183496
146	0xbd08a5db	-0.033361297
147	0xbd37d566	-0.044881247
148	0x3cfe3ecc	0.031035803
149	0x3cb80dce	0.02246752
150	0xbd042218	-0.032259077
151	0xbcbaa6d5	-0.02278463
152	0xbd4f77d1	-0.050651375
153	0x3bbb8d52	0.005723634
154	0xbd6059e3	-0.054773223
155	0x3d47f1a7	0.048814442
156	0xbc845a98	-0.01615648
157	0xbdd6281a	-0.104568675
158	0xbd167722	-0.036734708
159	0x3d48dc95	0.04903849
160	0xbcb971f4	-0.022637345
161	0x3a5cabb0	0.00084179174
162	0xbd056ba7	-0.03257337
163	0x3d121994	0.035668924
164	0x3c22dc88	0.009940274
165	0xbaffe2fa	-0.00195226
166	0x3c3edd64	0.011649463
167	0xbdbd414e	-0.092409715
168	0x3d28e63a	0.041235186
169	0xbd90e5b0	-0.070750594
170	0xbd2dff46	-0.042479776
171	0x3cef720a	0.029229183
172	0xbdc836b2	-0.09776057
173	0x383460d4	4.3005522e-05
174	0x3d95cb29	0.0731414
175	0xbdb11ae7	-0.08647709
176	0xbd9eac12	-0.077476636
177	0x3c8fbd3d	0.01754629
178	0xbd5c6ebe	-0.05381655
179	0xbd0105de	-0.031499736
180	0x3d6d1265	0.05787887
181	0x3da3c4db	0.079965316
182	0x3c8d57ac	0.01725372
183	0x3cf20fda	0.029548574
184	0x3c5204d6	0.012818536
185	0x3c61398b	0.0137466295
186	0x3bcf859c	0.006333066
187	0xbae35804	-0.0017344956
188	0xbd1329eb	-0.035928648
189	0xbc6be9ac	-0.014398973
190	0xbdc8bed1	-0.0980202
191	0x3d18e147	0.037324216
192	0xbb45a5c2	-0.0030158614
193	0x3cee2df2	0.029074643
194	0xbcd3467d	-0.025790447
195	0xbdcbcadc	-0.09950802
196	0xbc14e4df	-0.00908777
197	0xbdb11d6f	-0.08648192
198	0xbcd4aece	-0.02596226
199	0x3d2183b1	0.03943223
200	0x3cb42202	0.021988872
201	0xbc4251c3	-0.011860314
202	0xbd7b7fce	-0.06140118
203	0x3ca2503f	0.019813655
204	0xbdc7adcd	-0.09749947
205	0x3d911fed	0.070861675
206	0x3c9b8628	0.01898487
207	0x3c8675db	0.01641362
208	0x3d8e52f2	0.06949414
209	0x3cb0c77b	0.021579495
210	0xbd380f60	-0.044936538
211	0xbd1ae9db	-0.03782068
212	0xbda98a4b	-0.082783304
213	0xbdb6a676	-0.08918469
214	0xbc9f3c8a	-0.019438047
215	0xbd4c38a6	-0.04985871
216	0xbd056144	-0.032563463
217	0x3c9aef5c	0.018912964
218	0x3d2785f9	0.04089925
219	0xbd5b1f27	-0.053496506
220	0xbc784d49	-0.015155145
221	0xbaf9db5d	-0.0019062568
222	0x3dc36901	0.09541512
223	0xbd8e6ac7	-0.0695396
224	0xbdb261c6	-0.08710055
225	0xbd92dd66	-0.07171135
226	0x3db95439	0.09049267
227	0x3b16a1c3	0.00229846
228	0x3d3d5f4f	0.04623347
229	0x3d256bed	0.04038613
230	0x3da328ad	0.07966743
231	0x3d2d1cfb	0.042263966
232	0xbc38c520	-0.011277467
233	0x3d247164	0.0401472
234	0xbd327673	-0.043569993
235	0x3cf21200	0.029549599
236	0xbce64062	-0.028106872
237	0x3d898471	0.06714714
238	0xbd8f5756	-0.0699908
239	0xbc1bba5b	-0.00950488
240	0x3cbcc7e9	0.023044543
241	0xbd759ae8	-0.059962183
242	0x3d08b5fb	0.033376675
243	0xbb59b965	-0.0033222076
244	0xbda4d846	-0.080490634
245	0xbcda4000	-0.026641846
246	0x3abad4c7	0.0014254086
247	0xbd094a5d	-0.033518184
248	0xbd187be9	-0.037227545
249	0x3cdd6a49	0.02702822
250	0x3c756b80	0.014979243
251	0xbd7128d9	-0.058876846
252	0x3d3e237b	0.046420556
253	0x3cc9b2d9	0.024621414
254	0x3bd99a97	0.006640743
255	0x3c68c0ee	0.014206154

net.2.bias f4 [256]
0	0x3dc6cc6b	0.097069584
1	0x3c975945	0.018475184
2	0xbd314016	-0.043274008
3	0xbdee2dff	-0.11629867
4	0x3d6bb87a	0.057548977
5	0xbe839a69	-0.25703743
6	0xbe3add6a	-0.18248525
7	0xbe963fb6	-0.29345483
8	0xbe75ee6d	-0.24016733
9	0xbe3c269c	-0.18374103
10	0xbe4e4bed	-0.20146151
11	0xbd6fd40d	-0.058551837
12	0x3d83b579	0.064310975
13	0x3d4ac944	0.049508348
14	0xbdab6329	-0.08368523
15	0xbe3ddc00	-0.18540955
16	0xbdcbe097	-0.099549465
17	0xbd9adbf6	-0.075614855
18	0xbe2ec338	-0.17066658
19	0xbe01f010	-0.12689233
20	0xbdb77b0c	-0.08959016
21	0xbe50c5d1	-0.20387961
22	0xbe838d8b	-0.25693926
23	0xbe875533	-0.2643219
24	0x3ce2f1ec	0.027703248
25	0xbd344dd1	-0.044019524
26	0xbe804534	-0.25052798
27	0xbe1dd08f	-0.1541159
28	0xbdcbfbd4	-0.09960142
29	0x3d360ede	0.044447772
30	0xbd3272eb	-0.043566626
31	0xbe089c63	-0.13340907
32	0xbcaade36	-0.020857912
33	0x3d0afcbf	0.033932444
34	0xbe38399f	-0.1799073
35	0xbe34dbc6	-0.17661962
36	0xbe099d68	-0.13438952
37	0xbdb30d5a	-0.08742781
38	0xbe316149	-0.17322268
39	0x3d265922	0.040612347
40	0x3c9382fa	0.01800679
41	0xbd8064e5	-0.06269244
42	0xbe0fdba2	-0.14048627
43	0xbe820af1	-0.25398973
44	0xbd12196e	-0.035668783
45	0xbb2b30f3	-0.0026121705
46	0xbe24d497	-0.16096722
47	0x3d30c9a9	0.043161068
48	0xbe9128b0	-0.28351355
49	0xbef4c21a	-0.47804338
50	0xbd3fcc51	-0.04682571
51	0xbdee2972	-0.11628999
52	0xbe124f97	-0.14288174
53	0xbe66ca2d	-0.22538061
54	0x3aef150b	0.0018240524
55	0xbe31dec1	-0.1737013
56	0xbe8f6693	-0.28007945
57	0xbe5e1f3b	-0.21691601
58	0x3d750bb3	0.05982561
59	0xbe5cf704	-0.21578604
60	0x3ce7f142	0.028313283
61	0xbe2bc424	-0.1677404
62	0xbe66d1f8	-0.22541034
63	0xbceac7d8	-0.028659746
64	0xbdad841a	-0.08472462
65	0x3b38961c	0.0028165644
66	0x3d1f6763	0.038916957
67	0xbdeaeeb9	-0.11471314
68	0xbe2a5d9d	-0.16637273
69	0xbe496e90	-0.19671082
70	0xbe38c284	-0.18042952
71	0xbe3567c6	-0.17715368
72	0xbd2274dc	-0.039662227
73	0xbdf4eea5	-0.1195958
74	0xbcaa388d	-0.020778919
75	0xbd39fa5f	-0.045404788
76	0xbe8a97e0	-0.27068996
77	0xbe06af45	-0.13152798
78	0x3e3d6ec4	0.18499285
79	0xbe13c535	-0.14430697
80	0xbd8f90c7	-0.07010036
81	0xbd48fa95	-0.0490671
82	0xbd46599f	-0.048425313
83	0xbd852f52	-0.06503166
84	0xbed009dd	-0.40632525
85	0xbe265e18	-0.16246831
86	0xbc6f9f78	-0.014625423
87	0x3cc56c0f	0.024099378
88	0x3d3512c2	0.044207342
89	0xbe4232ae	-0.18964645
90	0xbe11086a	-0.14163366
91	0xbe70111a	-0.23444024
92	0xbe3fe07f	-0.18737982
93	0x3d20e1d8	0.03927788
94	0xbe626bcc	-0.22111434
95	0x3d82b7f2	0.06382741
96	0xbe2bde0e	-0.16783926
97	0xbe6974e5	-0.22798498
98	0xbe041500	-0.12898636
99	0xbe3b3edc	-0.18285698
100	0xbdb8665d	-0.09003899
101	0xbe43cb99	-0.19120635
102	0xbe9245ee	-0.28568977
103	0xbe679707	-0.22616206
104	0x3d6da309	0.05801681
105	0xbe026d38	-0.12736976
106	0xbe50844f	-0.20362972
107	0xbda464f1	-0.080270655
108	0xbe6754e6	-0.2259098
109	0xbe3f42f2	-0.18677881
110	0xbe9ca322	-0.3059321
111	0x3d85236f	0.06500899
112	0x3c6b9e32	0.014380978
113	0xbc0d124e	-0.008610321
114	0xbd591d96	-0.05300673
115	0xbd74e788	-0.059791118
116	0xbe2a2ad4	-0.166179
117	0xbe28514a	-0.1643726
118	0xbe1d32c9	-0.15351404
119	0xbe25609d	-0.16150136
120	0x3d1243bc	0.035709128
121	0xbe51eb1b	-0.20499842
122	0xbd600c5c	-0.054699287
123	0xbd4cf780	-0.050040722
124	0xbd63a02f	-0.055572685
125	0x3ce8683c	0.028370015
126	0xbe8e8b58	-0.27840686
127	0xbe2d2c3a	-0.16911402
128	0xbc079063	-0.008274171
129	0x3dd8daff	0.10588645
130	0xbcfcba73	-0.030850625
131	0xbe872216	-0.26393193
132	0xbe82a4d3	-0.25516376
133	0x3d21985e	0.03945195
134	0xbe6cc026	-0.23120174
135	0x3d750c37	0.059826102
136	0x3d730fd9	0.059341285
137	0xbe03cc84	-0.12870985
138	0xbd876cf9	-0.06612582
139	0xbdc8213f	-0.09771966
140	0xbcc54eed	-0.024085486
141	0xbe3298e6	-0.17441139
142	0x3a6c1e5e	0.00090072106
143	0xbdc5eb1f	-0.096639864
144	0x3d56255e	0.05228173
145	0xbe7dc5c0	-0.24782467
146	0xbe308c2c	-0.17240971
147	0x3caea5bb	0.02131926
148	0xbe38d9e9	-0.18051876
149	0x3decf642	0.115704075
150	0xbe4573c3	-0.19282441
151	0xbd8fd9a6	-0.07023935
152	0xbbdda7db	-0.0067643947
153	0xbbfc10ad	-0.0076924176
154	0xbd0bfde7	-0.034177687
155	0x3d2f4cb2	0.04279775
156	0xbdfbc01e	-0.12292503
157	0xbe51ece0	-0.20500517
158	0xbd1b056b	-0.037846964
159	0xbcf5a62e	-0.029986467
160	0x3dd1fd5c	0.102534026
161	0x3cdfa00e	0.027298
162	0xbd726be6	-0.05918493
163	0xbe7b7311	-0.24555613
164	0xbd93be14	-0.07213989
165	0xbe0c99b6	-0.13730511
166	0xbd098c11	-0.033580843
167	0xbe5b260d	-0.21401234
168	0x3d81ba69	0.06334383
169	0xbe70552d	-0.23469992
170	0xbde2102b	-0.1103824
171	0xbc968b6b	-0.018377027
172	0xbe7d3382	-0.2472668
173	0xbe42c16c	-0.19019097
174	0xbe0e3d14	-0.13890487
175	0xbeadd56e	-0.33951896
176	0xbdc3362c	-0.09531817
177	0xbe1c53bd	-0.15266319
178	0xbd65a348	-0.05606392
179	0xbc934d36	-0.017981153
180	0xbaa51ec6	-0.0012597672
181	0xbc357aca	-0.0110766385
182	0x3ceec363	0.029145902
183	0xbda125aa	-0.07868512
184	0xbdba6356	-0.09100978
185	0xbb35beb1	-0.002773207
186	0xbd9d26b2	-0.07673396
187	0xbe7b4f4d	-0.2454197
188	0x3d8e5895	0.069504894
189	0xbceed944	-0.029156335
190	0x3d793c1b	0.060848337
191	0x3d176544	0.03696181
192	0xbb879ef7	-0.004138823
193	0xbc4b56b6	-0.01241081
194	0x3d252b7d	0.040324677
195	0x3cd0c432	0.025484178
196	0xbdb8e777	-0.090285234
197	0xbc228a75	-0.009920706
198	0xbdaaa9c7	-0.08333164
199	0xbe7e7df4	-0.24852735
200	0xbe4420be	-0.19153115
201	0x3b400411	0.0029299299
202	0xbe69d17f	-0.22833823
203	0xbda28bfc	-0.07936856
204	0xbe138a9d	-0.14408346
205	0xbe07dce8	-0.13267863
206	0xbe96886a	-0.2940095
207	0xbc4d0ac1	-0.012514771
208	0x3d4e9d63	0.050443064
209	0x3da23af4	0.07921401
210	0xbe709769	-0.23495258
211	0xbdf6b029	-0.12045319
212	0xbd59303a	-0.053024508
213	0xbc8ee041	-0.017440917
214	0x3e5eb253	0.21747713
215	0x3dd9aa49	0.106281824
216	0xbe84e87d	-0.25958624
217	0xbe1363a1	-0.14393474
218	0xbd3bdcaf	-0.045864757
219	0xbe81a779	-0.25323084
220	0xbc36ccb1	-0.011157201
221	0xbca16bf7	-0.019704802
222	0x3d8dc304	0.06921962
223	0x3d1a3d61	0.03765619
224	0xbdc44556	-0.09583537
225	0xbe3a9d93	-0.18224172
226	0xbe094d46	-0.13408384
227	0xbdc29e69	-0.095028706
228	0xbe40e9db	-0.18839209
229	0xbe5e3587	-0.21700107
230	0xbcd0dc92	-0.025495801
231	0xbdf48df3	-0.11941137
232	0xbe265caf	-0.16246293
233	0xbe26ac4f	-0.16276668
234	0xbdfb8a28	-0.122822106
235	0xbe7bf5a1	-0.24605419
236	0xbca48198	-0.020081326
237	0x3c5b6845	0.013391559
238	0xbd4db694	-0.05022295
239	0x3c6a49b9	0.014299803
240	0xbe2a1e09	-0.1661302
241	0xbe015360	-0.12629461
242	0xbe00d396	-0.12580714
243	0xbdfe4880	-0.12416172
244	0xbe2d32b5	-0.16913874
245	0xbdf4415e	-0.1192653
246	0xbe214079	-0.1574725
247	0x3d9f2dd6	0.077724144
248	0xbe201791	-0.1563399
249	0xbdd4930e	-0.10379611
250	0xbe0bd45e	-0.1365523
251	0xbd2bb3eb	-0.04191963
252	0xbe1e5da6	-0.15465412
253	0xbc5b4d61	-0.013385148
254	0xbe1422aa	-0.14466348
255	0xbda8cfd1	-0.08242763

net.4.weight f4 [256, 256]
0	0xbc1c26e3	-0.009530756
1	0xbd8cc6f3	-0.06873884
2	0xbb97c5d6	-0.004631738
3	0xbc8d32fe	-0.017236229
4	0x3c723a81	0.014784456
5	0xba769c02	-0.0009407402
6	0x3cc74332	0.024324033
7	0x3d647f26	0.05578532
8	0x3e201575	0.15633185
9	0x3d43dc35	0.047817428
10	0x3cb053e5	0.021524379
11	0xbcb69564	-0.022288032
12	0xbc431560	-0.011906952
13	0xbbf013fd	-0.0073266015
14	0x3e822107	0.25415823
15	0x3cd5abcd	0.026082898
16	0xbd8445f4	-0.06458655
17	0x3d6186a9	0.055060063
18	0x3e49e8d2	0.1971772
19	0xbb3dec39	-0.002897991
20	0x3842307c	4.629836e-05
21	0xbd5e85e9	-0.054326925
22	0x3e1027c2	0.14077666
23	0x3b39cacf	0.0028349643
24	0xbd068d59	-0.032849643
25	0xbe30f478	-0.17280757
26	0xbc1efeb4	-0.009704281
27	0xbb4a374e	-0.0030855718
28	0x3db20913	0.08693137
29	0xbd84a1e0	-0.06476188
30	0x3df05969	0.11735804
31	0x3e384e01	0.17998506
32	0xbc909ddf	-0.017653404
33	0xbe8c565a	-0.2740963
34	0xbc8ce26f	-0.017197816
35	0xbd140e26	-0.036146306
36	0x3de354af	0.111001365
37	0xbb73a6e5	-0.0037178334
38	0xbe846730	-0.25859976
39	0x3b41475e	0.0029492
40	0x3d51869b	0.05115376
41	0x3c6cdf91	0.014457599
42	0xbe0f3c9d	-0.13987966
43	0xbdb3d3ab	-0.08780607
44	0xbdf4d8ad	-0.1195539
45	0x3a64abb8	0.0008723098
46	0xbcaa0716	-0.020755332
47	0x3cb34b6d	0.021886552
48	0xbc2c0086	-0.010498172
49	0xbd143cc6	-0.03619077
50	0x3eb228fa	0.34796888
51	0xbe8497f3	-0.25897178
52	0x3ab033fe	0.0013443229
53	0xbc3209e5	-0.010866617
54	0x3cd5ce62	0.026099388
55	0x3daead7d	0.08529184
56	0x3d3c3277	0.045946565
57	0xbcea0dda	-0.028571058
58	0x3baa63a2	0.0051998654
59	0xbd63ec75	-0.055645425
60	0x3b81508e	0.0039463704
61	0xbd28670a	-0.04111389
62	0x3d12b1e5	0.035814185
63	0x3dd44f9a	0.10366745
64	0xbe4632c7	-0.19355308
65	0xbdf70203	-0.120609306
66	0x3bb09030	0.0053882822
67	0x3c9117b4	0.017711498
68	0xbc5ca583	-0.013467195
69	0x3da681d0	0.081302285
70	0xbdfbfecf	-0.1230446
71	0x3bccc6a2	0.006249265
72	0xbb077694	-0.0020670043
73	0xbd0a94d2	-0.033833332
74	0x3c7aeee4	0.015315745
75	0xbea7ead9	-0.32796362
76	0xbded3466	-0.1158226
77	0xbd9c2a20	-0.07625222
78	0xbdf980a2	-0.12182738
79	0x3cb66a72	0.022267554
80	0xbcb56c81	-0.022146465
81	0x3e4ede88	0.20202076
82	0x3e81c10a	0.2534259
83	0xbcf11a5d	-0.029431516
84	0xbc782cb3	-0.015147376
85	0xbd3ca82c	-0.04605882
86	0xbc66c66e	-0.014085395
87	0xbbc84e39	-0.0061128405
88	0xbe8bdf6a	-0.2731889
89	0x3b1801a8	0.0023194347
90	0xbe520531	-0.20509793
91	0x3d77a0fc	0.06045626
92	0x3d75c2fd	0.06000041
93	0xbd5835b7	-0.0527856
94	0xbcc34ab7	-0.023839338
95	0x3c29011e	0.010315208
96	0x3cc9c1f0	0.02462861
97	0xbd4db0a9	-0.050217304
98	0x3d65e77a	0.056128956
99	0xbd4542bf	-0.048159357
100	0x3ccd3ca5	0.025053332
101	0xbd507a78	-0.050898045
102	0x3b9d789f	0.004805639
103	0x3c667393	0.014065641
104	0x3cb472b3	0.02202735
105	0x3de25340	0.11051035
106	0xbd8eafa4	-0.069670945
107	0xbe4f0dfb	-0.20220177
108	0x3c9ab7c4	0.018886454
109	0x3c2abc03	0.010420802
110	0xbcc02231	-0.023453804
111	0xbc7817c8	-0.015142389
112	0xbc94c8ca	-0.01816215
113	0xbd1c5ef2	-0.038176484
114	0x3c4c596e	0.012472494
115	0x3cae15d0	0.021250635
116	0xbcd8f368	-0.026483253
117	0xbca5024f	-0.020142702
118	0x3d138be2	0.036022075
119	0x3c8d916b	0.017281255
120	0xbc273a9f	-0.010206847
121	0xbdb4353f	-0.087992184
122	0x3bcce9d5	0.006253461
123	0x3c1b92ff	0.009495496
124	0x3d39c5d9	0.045354698
125	0x3cd3f849	0.025875228
126	0xbd137fe3	-0.036010634
127	0x3dd92bbc	0.10604045
128	0xbcea075d	-0.028567964
129	0xbe3db266	-0.18525085
130	0x3c8ee2a9	0.017442064
131	0x3af6b9a0	0.0018823631
132	0xbe0cb2ae	-0.13740036
133	0x3c66577c	0.014058944
134	0x3d98778b	0.07444676
135	0xbddc8448	-0.10767418
136	0xbf18a739	-0.5963016
137	0xbce0cacf	-0.027440457
138	0xbe340b76	-0.17582497
139	0x3e64921a	0.22321358
140	0xbdbba512	-0.09162344
141	0xbcb078d7	-0.021541996
142	0x3de8a217	0.11359041
143	0x3cb53b7d	0.022123093
144	0xbe28acd4	-0.16472179
145	0x3db4eaa4	0.08833817
146	0xbbe308f6	-0.0069285585
147	0xbb7fcf02	-0.0039033298
148	0xbdbf4f40	-0.093412876
149	0xbdc0b25e	-0.09409021
150	0x3cb6f4a8	0.022333458
151	0x3e891c9d	0.26779643
152	0xbe2a1472	-0.16609362
153	0xbbbae873	-0.0057039796
154	0x3e282c8e	0.16423246
155	0xbd0c95e7	-0.034322646
156	0x3e187fc5	0.1489249
157	0x3e40448f	0.18776153
158	0xbd16309d	-0.036667455
159	0x3e95e825	0.29278675
160	0x3c9831b8	0.018578395
161	0xbcd4b9a9	-0.025967436
162	0x3d5c292b	0.0537502
163	0xbd504189	-0.05084375
164	0xbd5c61a9	-0.053804073
165	0x3ea487a2	0.3213473
166	0xbc09454c	-0.008378338
167	0x3d9bef92	0.07614054
168	0x3c063fbc	0.008193906
169	0xbcb439b8	-0.022000179
170	0x3d23bef8	0.039977044
171	0xbeaf4da4	-0.34238923
172	0xbd2eb33f	-0.04265141
173	0xbc6019f8	-0.013678066
174	0x3d5789e6	0.052621745
175	0xbcc274e1	-0.023737373
176	0x3e8548aa	0.26032
177	0xbc9b89ca	-0.018986601
178	0x3d8a8ae0	0.067647696
179	0x3c74a2b7	0.014931372
180	0xba23af6f	-0.0006244098
181	0xbe994c62	-0.29941088
182	0xbc0f7e54	-0.008758146
183	0xbea19713	-0.31560573
184	0x3d2dbc97	0.04241618
185	0x3c04b1c4	0.008099023
186	0x3d0ddb40	0.03463292
187	0xbd286a2d	-0.041116882
188	0xbd965b2e	-0.0734161
189	0xbbc41355	-0.00598375
190	0xbc613fb1	-0.013748095
191	0x3b9a4a05	0.004708531
192	0xbd20d8de	-0.03926932
193	0x3db6aa60	0.08919215
194	0xbf009630	-0.5022917
195	0x3a15f5d9	0.0005720533
196	0xbde1f518	-0.11033076
197	0x3cb2bc77	0.021818383
198	0x3cd1585a	0.025554825
199	0xbcc6c876	-0.02426551
200	0x3e1cc0ca	0.15307918
201	0x3c30fc89	0.010802397
202	0xbd5debdc	-0.05418001
203	0x3c0c7f86	0.008575326
204	0x3e7b13a3	0.2451921
205	0xbdb7fa8e	-0.089833364
206	0x3be2c1e2	0.0069200853
207	0x3d3c183f	0.04592156
208	0x3d1d2751	0.038367573
209	0x3c2ffba6	0.01074115
210	0xbd8f1274	-0.069859415
211	0x3e29b717	0.1657375
212	0xbc8c5719	-0.017131375
213	0xbd062781	-0.032752518
214	0xbf2a9f90	-0.66649723
215	0xbf0bb647	-0.5457501
216	0x3ce1911b	0.027535012
217	0xbc570da5	-0.013125812
218	0xbc08a5d6	-0.00834032
219	0xbe154dff	-0.14580534
220	0xbd0f66f2	-0.035010286
221	0x3e2b00c8	0.16699517
222	0x39d095de	0.0003978451
223	0x3a04acd5	0.00050611544
224	0x3e7349b7	0.23758589
225	0xbc4e9a5c	-0.012610044
226	0x3d2147a9	0.03937498
227	0x3efd9bf8	0.49533057
228	0xbdd645ab	-0.10462507
229	0x3daee63c	0.085400075
230	0x3cc2e0cc	0.023788832
231	0x3d786b35	0.060649116
232	0xbd9b25ff	-0.075756066
233	0xbb9028ba	-0.0043993862
234	0x3ca1c2ca	0.019746203
235	0x3c594624	0.013261352
236	0x3d268dcb	0.040662568
237	0xbbf225b6	-0.0073897494
238	0xbcbe0d7f	-0.023199795
239	0x3b5c43ea	0.0033609816
240	0x3dc766b4	0.09736386
241	0xbba1e7c3	-0.004940958
242	0x3ea2c971	0.31794313
243	0x3da9e756	0.08296077
244	0xbc08eadc	-0.008356776
245	0x3db7bcfb	0.08971592
246	0xbe2ca37a	-0.16859236
247	0xbc5e6c35	-0.013575603
248	0x3d7f4984	0.06232597
249	0x3e1f11b3	0.15534095
250	0x3cc4e592	0.024035249
251	0xbb204342	-0.0024454151
252	0xbcf085d4	-0.02936069
253	0xbaefebdc	-0.0018304545
254	0x3cff1420	0.031137526
255	0xbb0ead5b	-0.0021770808

net.4.bias f4 [256]
0	0xbdefa0d6	-0.11700599
1	0xbe943f57	-0.28954574
2	0xbd1b65ed	-0.037939
3	0xbdfcb22e	-0.123386726
4	0xbe08cb60	-0.13358831
5	0x3cb4e927	0.022083832
6	0xbdafec7c	-0.08590028
7	0xbcc07a8e	-0.023495939
8	0xbcfba18e	-0.030716684
9	0x3d1d20b3	0.038361263
10	0x3ab6c81a	0.0013945133
11	0x3d381247	0.044939306
12	0x3cfd842b	0.030946812
13	0xbdcbb8dc	-0.099473685
14	0x3d8f2518	0.06989497
15	0xbcfdb64f	-0.03097072
16	0xbe0ca1b8	-0.13733566
17	0xbd7873eb	-0.060657423
18	0x3c1e74be	0.009671388
19	0xbd627987	-0.05529168
20	0xbcbc2665	-0.022967527
21	0xbd325465	-0.043537516
22	0xbd534af2	-0.051585145
23	0x3c01736c	0.007901054
24	0x3cfbfe41	0.030760886
25	0xbe063c45	-0.13108929
26	0x3d285138	0.04109308
27	0xbe97a240	-0.29615974
28	0xbd013e68	-0.031553656
29	0xbd92162e	-0.07133137
30	0x3d8d3657	0.0689513
31	0x3c782abe	0.015146909
32	0x3b5ef3ee	0.0034019905
33	0xbd0b6293	-0.034029555
34	0xbdd780b6	-0.105225965
35	0xbe88fed2	-0.26756912
36	0x3da737c2	0.08164932
37	0x3c18f0f6	0.009334793
38	0x3d191523	0.037373673
39	0xbc7a2198	-0.015266798
40	0x3dc7535b	0.09732696
41	0xbe48681d	-0.19570966
42	0x3d37bc37	0.04485723
43	0xbd3a143e	-0.04542946
44	0xbd2bb924	-0.04192461
45	0xbe2ea514	-0.1705516
46	0xbdb0507a	-0.086091
47	0xbd4defaf	-0.05027741
48	0xbd86deaa	-0.065854385
49	0x3cab3922	0.020901266
50	0xbd8b51e7	-0.06802731
51	0x3caaa023	0.020828312
52	0xbd7852b2	-0.06062574
53	0xbc96df06	-0.018416893
54	0xbd9e74f7	-0.07737153
55	0xbca49db2	-0.020094726
56	0x3c3030d5	0.01075383
57	0x3c2bfcc6	0.010497278
58	0xbba0fcac	-0.0049129333
59	0xbcecfa46	-0.028927933
60	0x3ce3579b	0.027751734
61	0xbd6ec083	-0.058289062
62	0xbbc5970b	-0.0060299686
63	0x3d067fb7	0.032836642
64	0x3b5ba588	0.0033515412
65	0x3c00c423	0.007859263
66	0xbd1380f2	-0.036011644
67	0x3b94fdd1	0.004546859
68	0x3c3212f1	0.010868774
69	0xbc9a5ec9	-0.018844025
70	0x3d04f4af	0.03245991
71	0xbdf21242	-0.11819889
72	0xbe5731dd	-0.21015115
73	0x3e0451fd	0.12921901
74	0xbcb1b64b	-0.02169337
75	0x3d17c772	0.03705544
76	0xbd01d9f5	-0.031702
77	0xb9de9ed8	-0.00042461487
78	0x3c24f2f2	0.010067688
79	0x3b6184b3	0.003441137
80	0xbd66056b	-0.05615751
81	0xbcba2158	-0.022720978
82	0xbd74f654	-0.05980523
83	0xbc655184	-0.013996486
84	0xbdd20afb	-0.102560006
85	0xbdc4a854	-0.096024185
86	0xbdb8cd3d	-0.09023521
87	0xbbc4e0f6	-0.0060082627
88	0xbcafdec8	-0.021468535
89	0xbd00420c	-0.031312987
90	0x3d1d49d6	0.038400494
91	0xbd2812cc	-0.04103355
92	0xbd7c2ba0	-0.06156504
93	0xbd465c2f	-0.048427757
94	0x3c2f80c6	0.010711854
95	0x3d48f695	0.049063284
96	0x3e016f78	0.12640178
97	0x3dd1716b	0.10226711
98	0xbd6334cd	-0.055470277
99	0xbb9ed655	-0.0048473277
100	0xbc75b736	-0.014997294
101	0xba33a229	-0.0006852472
102	0x3da566c5	0.08076242
103	0xbcbd6099	-0.02311735
104	0xbce89325	-0.028390476
105	0xbdd5d432	-0.10440864
106	0xbd11e3d1	-0.035617653
107	0xbcbcb387	-0.023034824
108	0x3c29dbf4	0.010367382
109	0x3d0801d9	0.033204887
110	0xbc625fcd	-0.013816786
111	0xbd91af06	-0.07113461
112	0xbd764f76	-0.060134374
113	0xbd743150	-0.05961734
114	0xbceea10a	-0.029129524
115	0xb9d67f80	-0.00040912256
116	0x3ce1511d	0.027504498
117	0x3e22bb52	0.1589177
118	0x3c0a3556	0.008435568
119	0xbce01f55	-0.02735869
120	0xbc8202fe	-0.015870567
121	0xbdc73799	-0.09727401
122	0x3d25bd57	0.04046377
123	0xbccb3eab	-0.024810156
124	0xbba66826	-0.0050783334
125	0xbed165d6	-0.40898007
126	0x3de32254	0.11090532
127	0xbcab3246	-0.020897996
128	0xbdafd386	-0.08585267
129	0xbe609c5a	-0.21934643
130	0xbc418677	-0.011811844
131	0x3daea0b5	0.08526746
132	0xbdd830d6	-0.1055619
133	0xbee427a0	-0.4456148
134	0xbd2d6c56	-0.042339645
135	0xbe0d91c2	-0.13825133
136	0xbd35cbfa	-0.04438398
137	0xbd5961ec	-0.0530719
138	0xbcec11c6	-0.028817069
139	0xbd9a5e38	-0.07537502
140	0xbb3ef132	-0.0029135463
141	0x3c28e9f0	0.010309681
142	0x3d2c4198	0.042054743
143	0xbd740762	-0.059577353
144	0xbd69c659	-0.057073925
145	0xbca8c698	-0.02060251
146	0xbdc6df68	-0.0971058
147	0xbd724935	-0.059151847
148	0xbdda4d1e	-0.1065924
149	0xbeb98c6b	-0.36239943
150	0xbd41166a	-0.047140516
151	0x3ca3cd90	0.01999548
152	0xbd8271b1	-0.06369341
153	0xbee113a0	-0.43960285
154	0xbe89fc13	-0.2695013
155	0xbd286a1d	-0.041116823
156	0xbee08132	-0.43848568
157	0xbccded38	-0.025137529
158	0xbc632a92	-0.01386513
159	0xbe139bce	-0.14414904
160	0x3d4e7407	0.05040362
161	0xbd93ad43	-0.072107814
162	0x3b19374b	0.0023378904
163	0x3b2e5a5b	0.002660415
164	0x3d91781a	0.07102986
165	0xbd9675f7	-0.07346719
166	0xbc93ae6a	-0.018027503
167	0xbd001dee	-0.031278543
168	0xbd8f2986	-0.06990342
169	0x3d0de922	0.03464616
170	0x3c8fe8fc	0.01756715
171	0xbeba1280	-0.3634224
172	0xbe2bd3e9	-0.16780056
173	0x3b1e4c18	0.0024154242
174	0xbda9b455	-0.08286349
175	0xbe201f6c	-0.15636986
176	0xbd81463a	-0.06312223
177	0xbd9195ab	-0.07108625
178	0xbcd03624	-0.025416441
179	0xbe102ba8	-0.14079154
180	0xbe764679	-0.2405032
181	0xbd377753	-0.04479153
182	0x3c9530fb	0.018211832
183	0xbd6dda97	-0.05806979
184	0xbd8970c6	-0.06710963
185	0xbe00f8ea	-0.12594953
186	0xbd99d31e	-0.075109705
187	0xbd8a2f43	-0.06747296
188	0xbd8eea65	-0.06978301
189	0x3d7c8ce8	0.061657816
190	0x3d0c0fb9	0.03419468
191	0xbd02bb0c	-0.031916663
192	0xbd8ed2dc	-0.06973812
193	0xbcf4e10b	-0.029892465
194	0xbb630a86	-0.0034643724
195	0xbd68ab22	-0.05680383
196	0xbd3a0985	-0.045419235
197	0xbe6bbf2e	-0.23022148
198	0x3d45f2eb	0.048327368
199	0xba1b4f26	-0.0005924575
200	0x3d278dcc	0.040906712
201	0xbbe6a10c	-0.0070382413
202	0xbd97c1ea	-0.07410033
203	0xbc99beec	-0.018767796
204	0xbd8cde22	-0.06878306
205	0x3c8a9fad	0.016921842
206	0xbcb98f4e	-0.02265134
207	0xbc3f6610	-0.011682048
208	0xbc7723fb	-0.015084262
209	0xbe0ffcb6	-0.14061245
210	0x3bdf3c03	0.006812574
211	0xbd773a85	-0.060358543
212	0xbd8ff8c7	-0.070298724
213	0x3c47b5b9	0.012189322
214	0xbe0415c7	-0.12898932
215	0xbdb86b62	-0.09004857
216	0x3ce130bf	0.027489064
217	0xbc408811	-0.011751191
218	0xbe1a76f6	-0.15084442
219	0xbd8bd5d9	-0.068278976
220	0x3bb17a8f	0.0054162215
221	0x3b1c59c4	0.0023857215
222	0x3d50aac8	0.05094412
223	0xbde6114a	-0.112337664
224	0xbc71f743	-0.014768424
225	0xbcf9a021	-0.030471863
226	0x3ca9fae8	0.020749524
227	0xbe9079a7	-0.28217813
228	0xbd4fbdcc	-0.050718114
229	0x3c19d5c9	0.009389349
230	0xbce2ae7c	-0.027671091
231	0x3c843e65	0.016143033
232	0xbd5c4e37	-0.05378553
233	0xbd4ea4ae	-0.05045002
234	0x3cb5b7c3	0.022182351
235	0x3cc3c43a	0.023897279
236	0x3c17c7cb	0.009263943
237	0xbdc59b11	-0.09648717
238	0x3d4d9535	0.050191123
239	0xbd417df9	-0.047239278
240	0xbd2fea46	-0.04294803
241	0xbcd76e17	-0.026297612
242	0xbcb87c8b	-0.022520324
243	0x3d1c23ae	0.038119964
244	0x3cdbf78a	0.026851434
245	0xbdcdd013	-0.10049453
246	0xbd4e4a82	-0.050364025
247	0xbdaaaf1c	-0.08334181
248	0xbd827bb1	-0.063712485
249	0xbb7401b0	-0.003723245
250	0xbcb5825d	-0.022156889
251	0xbd8be7a3	-0.068312906
252	0xbdad815f	-0.08471941
253	0xbdd562a5	-0.104192056
254	0xbdd90dd1	-0.105983384
255	0xbd67c3be	-0.05658316

net.6.weight f4 [2, 256]
0	0xbd431f27	-0.04763713
1	0xbdb50917	-0.088396244
2	0xb9fbdee2	-0.0004804051
3	0xbc1bf217	-0.009518168
4	0xbc81cd70	-0.01584503
5	0xb68546e0	-3.97196e-06
6	0x3a214768	0.0006152303
7	0x395eb550	0.00021239114
8	0xb756ae80	-1.2796023e-05
9	0x3a9a7e69	0.0011786941
10	0xb9240712	-0.00015642893
11	0xbada98db	-0.0016677635
12	0x3aa05af0	0.0012234133
13	0x3c535dae	0.012900753
14	0xbd9362ee	-0.07196604
15	0xbd3654e0	-0.044514537
16	0x3cad5187	0.02115704
17	0xbd036fc6	-0.032089017
18	0x3aff7a74	0.001949145
19	0xba941e42	-0.0011300521
20	0x3973c5ac	0.00023247924
21	0x3a80c34b	0.0009823827
22	0xbacf5df5	-0.0015820848
23	0xb9057c40	-0.00012730155
24	0xba9cfb58	-0.0011976762
25	0x3ce9d7b3	0.028545236
26	0x393721a8	0.00017464778
27	0x3ceb32e8	0.028710797
28	0xbaf4e3f0	-0.0018683653
29	0xbe5d727d	-0.21625705
30	0xba893a3c	-0.0010469626
31	0x3b04457f	0.0020183024
32	0x39ae466a	0.0003324033
33	0xb9dfa15e	-0.00042654102
34	0xba81682c	-0.0009872965
35	0xbd841a2d	-0.06450305
36	0xbc76f403	-0.015072825
37	0xb9ad418e	-0.00033045973
38	0xba3d9cdc	-0.00072331517
39	0xbaa5ac66	-0.001263988
40	0x3dfa2289	0.12213618
41	0x3c5898c4	0.013220016
42	0xbb02b596	-0.001994466
43	0x3b18e83f	0.0023331789
44	0xbb0417e4	-0.0020155841
45	0x3cea4516	0.028597396
46	0xb9e7be34	-0.00044201466
47	0x390fe660	0.00013723364
48	0x3ab7d408	0.0014024982
49	0x3a648a9b	0.00087181636
50	0x39afafe8	0.0003350966
51	0x3c9ad7b8	0.01890169
52	0xba5ea627	-0.00084933866
53	0xb9efc4da	-0.00045732298
54	0x3906b7d4	0.00012847717
55	0xb8dd8780	-0.0001056334
56	0xbd9050d5	-0.070466675
57	0x3a285aa4	0.0006422198
58	0xbabdacfd	-0.001447111
59	0xbaaf8587	-0.0013391235
60	0xbabb63e1	-0.0014296734
61	0xbd9d0ff9	-0.07669062
62	0xba9b1df5	-0.0011834489
63	0x3aa5c429	0.0012646961
64	0xba1fac23	-0.0006091019
65	0x39d569dc	0.00040705397
66	0x3aa359e4	0.0012462703
67	0x3a327e39	0.000680897
68	0x39e8581e	0.0004431614
69	0x3a488878	0.000764973
70	0x3d4de9b1	0.050271694
71	0x39881210	0.000259534
72	0x3d3ee6c2	0.046606787
73	0xbdb337aa	-0.087508515
74	0x3937b0a4	0.00017518044
75	0xba48e0b1	-0.0007662876
76	0xbc6b5174	-0.014362682
77	0xba9a554e	-0.001177469
78	0xb8fd2158	-0.00012070191
79	0x3935d60e	0.00017341247
80	0xbabd6608	-0.0014449963
81	0x3a97db2f	0.0011585708
82	0xba1fcaea	-0.0006095605
83	0xba44187f	-0.0007480457
84	0xbb36ead2	-0.002791096
85	0x3a2f9a05	0.0006698671
86	0x3d2a40f9	0.04156587
87	0x3aaa3384	0.0012985324
88	0xba9293de	-0.0011182984
89	0x3a9a07af	0.0011751557
90	0x3b529ccb	0.0032136913
91	0x3bb5c8eb	0.005547633
92	0x3ab20a87	0.001358346
93	0xbac138bf	-0.0014741643
94	0xb993e25a	-0.0002820667
95	0xbaaba463	-0.0013095256
96	0x3d654883	0.055977356
97	0xbab43c51	-0.0013750886
98	0x3b6b1651	0.0035871456
99	0x3b2b02c8	0.0026094187
100	0xba4092c7	-0.000734609
101	0x37a29ebe	1.9385825e-05
102	0xba852940	-0.0010159388
103	0xb9f23cc6	-0.00046203117
104	0x3a03605b	0.00050116115
105	0xbc24d584	-0.010060672
106	0x3879568c	5.944683e-05
107	0x3a78d9a7	0.0009492882
108	0xb9fd675b	-0.00048332926
109	0x39b92516	0.0003531358
110	0xba8f6d86	-0.0010942675
111	0xbadb5298	-0.0016732989
112	0xba7f665e	-0.0009742732
113	0x37fec970	3.0372961e-05
114	0xbac295e9	-0.0014845702
115	0x3acefb66	0.0015791475
116	0xbd481c4f	-0.048855122
117	0xbd8dadc7	-0.06917911
118	0xbced6132	-0.02897701
119	0xba8cb9e2	-0.001073655
120	0xba9542ea	-0.001138774
121	0x3a804105	0.0009785002
122	0xb9c8278c	-0.00038176437
123	0x39cc10b6	0.00038922363
124	0x3b0abccb	0.0021169658
125	0x3dc36f2a	0.09542687
126	0x3d327984	0.043572918
127	0xb8eb4080	-0.00011217687
128	0x397be562	0.00024022677
129	0x3b58ea72	0.0033098725
130	0x3a9ebf62	0.001211148
131	0x3c812982	0.015766863
132	0x392dfd70	0.00016592978
133	0xbbd01a2b	-0.0063507757
134	0xba52d487	-0.00080425333
135	0xbd557afc	-0.05211924
136	0xba4744a2	-0.00076014746
137	0x3b8f4b20	0.0043729693
138	0xbb770212	-0.0037690443
139	0x3a8b16a2	0.0010611604
140	0x3a8b3e40	0.001062341
141	0xba32129c	-0.0006792934
142	0xbaa4bf47	-0.0012569212
143	0x3a21fcf4	0.00061793556
144	0xba5b3cfb	-0.0008363274
145	0xba129e2c	-0.00055930275
146	0x3996c1f3	0.00028754733
147	0x3b001081	0.0019541087
148	0x3b69d507	0.0035679953
149	0x3b5e3a05	0.0033909094
150	0xb9e1bcff	-0.00043056157
151	0xbab66e99	-0.0013918459
152	0xbae216e9	-0.0017249259
153	0x3cf5eda1	0.030020537
154	0xbd0f03e0	-0.034915805
155	0x3d562b44	0.052287355
156	0x3c961ab7	0.018323286
157	0x3c099e22	0.008399518
158	0xbaa16e3d	-0.0012316179
159	0xba5c8e8a	-0.0008413574
160	0x3ab4158d	0.0013739333
161	0xbc8a0e18	-0.016852424
162	0x3a879d4c	0.0010346561
163	0xbcc46d50	-0.023977906
164	0x3b135147	0.0022478865
165	0xba1cbeeb	-0.0005979377
166	0x396be828	0.00022497831
167	0xb9a6803a	-0.00031757524
168	0x391d2b0f	0.00014988727
169	0x3a8c60aa	0.001070996
170	0xbac97f27	-0.0015372977
171	0xbcb24f44	-0.021766312
172	0x3e1e0124	0.15430123
173	0xb8c0bbe2	-9.190269e-05
174	0x3a50b245	0.00079611345
175	0x3d51a650	0.051184
176	0xbc12bfed	-0.0089568915
177	0x3aa28590	0.0012399424
178	0xba4c4422	-0.0007792135
179	0xb9b83674	-0.00035135786
180	0x3d1d4ea0	0.03840506
181	0xb9dba07d	-0.00041890508
182	0xbaed0b04	-0.0018084948
183	0xba7e2b46	-0.00096957793
184	0xbb2dcb18	-0.0026518758
185	0x3acf0291	0.0015793612
186	0xb9492f36	-0.00019186441
187	0xbb75b936	-0.0037494428
188	0x3c1b9902	0.009496929
189	0x3a4ce7b5	0.00078165095
190	0xb99b575b	-0.0002962899
191	0xbc48cb78	-0.012255542
192	0x3a0b25c4	0.0005308057
193	0xbac9ba31	-0.0015390572
194	0xbb0013a8	-0.0019542966
195	0x3a12ef1b	0.00056050875
196	0x3988fded	0.0002612913
197	0x3cfdb29c	0.030968957
198	0x38923c44	6.973048e-05
199	0x3a4b1015	0.0007746232
200	0xbaa1b63c	-0.0012337635
201	0x3a6a998c	0.0008949272
202	0x3cfa023f	0.03051865
203	0x3a6e1cd6	0.00090832764
204	0x3a4a3709	0.00077138894
205	0x3d5da8ab	0.054115932
206	0x3ae3e127	0.0017385826
207	0x3a2085dd	0.0006123463
208	0x384a0820	4.816812e-05
209	0x3a05ee72	0.00051090785
210	0x3a04a8f5	0.0005060577
211	0x3aad1736	0.001320577
212	0x3a700069	0.00091553346
213	0xbacb21ac	-0.0015497706
214	0xbd33f463	-0.043934237
215	0x37ddbc68	2.6432986e-05
216	0x3a390320	0.00070576556
217	0x39a2cc0b	0.00031051072
218	0xbbc2f689	-0.0059497994
219	0x3b2f1a37	0.0026718506
220	0x3ce97ac2	0.028500918
221	0x3976f746	0.00023552505
222	0x3a3e5e7f	0.0007262006
223	0x396bfeae	0.00022506222
224	0xb8036da0	-3.133493e-05
225	0xbd9cbf2e	-0.07653652
226	0x3a6ccd75	0.0009033301
227	0xbd307b73	-0.04308648
228	0xba71342c	-0.00092011946
229	0xbacf7722	-0.0015828351
230	0x3a254049	0.000630383
231	0x3a30afd4	0.00067400676
232	0xb9921ab2	-0.0002786718
233	0xb7e49130	-2.7247326e-05
234	0xba8d8c76	-0.0010799307
235	0xba6ee777	-0.00091134704
236	0xbcf6805d	-0.030090505
237	0xb9951f8c	-0.00028443
238	0x3b2d560c	0.0026448993
239	0xba74c2a1	-0.00093368633
240	0x37bda488	2.2607172e-05
241	0xbaa3bd51	-0.0012492334
242	0xbb017e7a	-0.0019759224
243	0xb9dbf130	-0.00041950634
244	0x3ab6ce09	0.0013946901
245	0x3c493a71	0.012282
246	0xbc5a9c3c	-0.013342913
247	0xba29dfb8	-0.0006480175
248	0x3a52eaf2	0.0008045874
249	0xbc191666	-0.009343719
250	0x3a7e2fdc	0.00096964627
251	0x39cdde32	0.00039266195
252	0x3a86c730	0.0010282751
253	0x3ba787d5	0.005112628
254	0xba87d53d	-0.0010363233
255	0x372e62be	1.0394198e-05

net.6.bias f4 [2]
0	0x3d04f777	0.032462563
1	0x3d8366b4	0.064160734
