moons/cfm/models/19000_model.pt (torch, 535856 bytes, 8 tensors)

net.0.weight f4 [256, 3]
00000000: d4de 88be ddc1 0d3e f2c3 79bd 75e7 26bf
00000010: fdad 1d3e 19b6 ddbe 4d0b bb3e 9ef0 623e
00000020: f128 983e bd68 973e 49c1 913e a7cc e03e
00000030: 2602 b6bd ea7a 82be 5584 d33e 56c1 ec3e
00000040: 0007 05be 90eb c73e 129b b33e 53cf abbd
00000050: 5a54 92bb ca5d dcbe b35e 183e fcfc 503e
00000060: f227 c1be be99 183e 7ae0 973e 6087 b3bc
00000070: 2484 41be 34c0 03bf 0487 13bd 7586 5dbe
00000080: cc5b a1bd 2322 46bd 4532 83be b76b edbe
00000090: acec 883d 9269 bdbe 3509 23bf b2a4 2a3d
000000a0: 5013 2f3e cd02 35be 95c7 d7bd 456e 3dbc
000000b0: af6e 14bf 3033 5b37 ae4f 08bb 223c d4bc
000000c0: 5067 60bc f7f8 293e b2c2 64be 4bd9 3ebf
000000d0: cf21 013f b00e bcbe fc9e ce3d 2d0e 723c
000000e0: cd58 81be 0a81 dfbe 8445 6fbe dd5f 633c
000000f0: b5d2 c9bd 55f7 273e a98e f0bd 1f76 96bd
00000100: 946e a8bd d3b6 973e ef36 e2bc 03d2 3dbe
00000110: 6f5a 703e 9d9a 843d fadb e33d 1158 c63d
00000120: 22d0 28bf 5c19 703e adb6 eb3d ac33 bd3d
00000130: 58fa c93e 3d60 db3e 387b 2cbf 4e89 623e
00000140: 797a fe3d 91e5 bcbd ee40 653e d1d8 39bf
00000150: 7a94 0bbf 0431 cfbe 6076 65be c081 52bd
00000160: 33b2 143d 933d 0abe 7ec7 a2bd 3b13 64be
00000170: f8a3 683e 0461 133f 685d f6be e9e6 273d
00000180: dfc4 69be 2935 0d3b fa98 e6be e4cf 20bc
00000190: b341 db3b 3b93 51be 467f 2ebe 26b2 3bbe
000001a0: b158 38be 3a86 313d 36d9 fe3b 03ed 6a3e
000001b0: 1cea e8bd 07d8 efbb 5282 bbbe 1c75 263f
000001c0: 5057 453f b4c0 02bf 98fb d23e 947d cc3e
000001d0: 6ea9 d13e 2177 a2bc c555 d2bd 021f f13e
000001e0: 1186 57be 6b5e 103f d4d3 57be 9691 a5bb
000001f0: 6764 4cbc 740e 953c 1465 c0bd 8359 a4bd
00000200: 888b 4cbd 446c b43e c407 17bf 3147 143f
00000210: e0ef f03d a290 fdbe a2d5 803e 5377 39bf
00000220: 71a8 c33e 4293 ca3d 9177 81bd efbb 933d
00000230: caea 16be 5480 babd 21ae babe d209 00bf
00000240: 9436 3fbf 9b1d f43e 4b4c ba3e fe8f 58bd
00000250: 38cc dfbd bbed 17be 5b51 2bbf d61c 2bbe
00000260: a4e6 41be 8cdd 18bf cdfa 0a3f 24dc 18bf
00000270: 5454 4dbd e650 123e 95a6 3e3f b679 d5be
00000280: dacb 32bd 9a3e 09be 2f09 41bd ed85 a03c
00000290: 2afd b2be 4747 a2bc f52c 053e 0d79 983e
000002a0: 0eef b13e 3a8c a6bd 6ab1 d0bc d659 a43b
000002b0: ceca 833b b7a4 393b 0ab6 12ba 072e 8abb
000002c0: ca85 c7bc be43 1ebf 61a5 a03e dbb5 c6be
000002d0: f0aa a4bc c90d 93bc 080d 19bd 3861 853d
000002e0: e486 883d e371 f0be 9b37 a63c 0732 b93d
000002f0: a21c bc3e 26e3 163f 72dc afbe 985e ab3e
00000300: f0fd fc3d 8940 953e 02ff b23e 1a84 963d
00000310: 6c17 3d3e 8f25 a93e 6f87 9fbd df96 863d
00000320: 8ad0 f2be b01e 46bf 5e9a 003f 1cac 713e
00000330: e344 d43e a1f8 d3be 0014 e83e c0f1 afbe
00000340: 1316 0ebe bd2f 38be 01ad 3cbd 0522 833d
00000350: 986b da3e d527 243e 3eab 38bd 7bfb 07be
00000360: d0fe 07ba cb0b 993b 1398 723b acc2 db3e
00000370: bdc2 61be 9e9f 7a3e b97f c6bc 3fc7 1fbe
00000380: ae16 b7be 2aad c7be 1950 2d3e c604 363e
00000390: cdae 6ebe aa1b 903d 51f8 f8be 8afa 313c
000003a0: 56bb b2bd f452 d03e fc0b 223f 9ad9 f53e
000003b0: c0dc d5bd 5d6e 433d bc73 543e 60e7 da3e
000003c0: 0b83 213e eb8a 38be 5fd5 ba3e d435 163f
000003d0: d207 94be 30b3 a83e 4edd de3c 6648 65be
000003e0: 6b68 bc3e e854 aebd 094b a33e d39e 003f
000003f0: 0f37 293c 5a07 dc3e ccd2 233f 989d 043e
-0.26732504 0.13843484 -0.060977884 -0.65196925 0.15398403 -0.43302992 0.3653206 0.221621
0.29718736 0.29572096 0.28467777 0.43906137 -0.088871285 -0.254844 0.413119 0.46241254
-0.12990952 0.39046907 0.35079247 -0.08389153 -0.004465622 -0.43040305 0.14879875 0.20409006
-0.37725788 0.14902398 0.2966345 -0.021915138 -0.18898064 -0.51465154 -0.036017433 -0.21633323
-0.07878837 -0.0483724 -0.2562429 -0.46371242 0.066857666 -0.36994606 -0.63685924 0.041660972
0.17097211 -0.1767685 -0.10536114 -0.011561935 -0.5798139 1.3065335e-05 -0.0020799446 -0.02590758
-0.013696507 0.16598879 -0.22339895 -0.7455031 0.5044221 -0.36729956 0.100889176 0.014773888
-0.25263062 -0.43653136 -0.23366362 0.013877836 -0.09854642 0.16402943 -0.1174596 -0.073467486
-0.08224216 0.2963167 -0.027614085 -0.18537144 0.23471998 0.06474803 0.111259416 0.09684766
-0.65942585 0.23447174 0.11509452 0.09238371 0.3944881 0.4284686 -0.67375517 0.2212269
0.124257036 -0.09223474 0.2238805 -0.7259646 -0.5452343 -0.40467083 -0.22408438 -0.05139327
0.036302757 -0.13500051 -0.07948206 -0.22272961 0.22718799 0.5756991 -0.48118138 0.040991697
-0.22829007 0.0021546579 -0.45038587 -0.00981519 0.0066911816 -0.2046632 -0.17040738 -0.18329677
-0.18002583 0.0433409 0.0077773584 0.22941975 -0.11372778 -0.0073194536 -0.36622864 0.65022445
0.77086353 -0.5107529 0.41207576 0.39939559 0.40949577 -0.019832196 -0.102702655 0.4709397
-0.21047236 0.5639407 -0.210769 -0.0050527556 -0.01247511 0.018195368 -0.09394279 -0.080248855
-0.049937755 0.3523885 -0.58996224 0.5792113 0.117645025 -0.4952441 0.2516299 -0.724477
0.38214448 0.098913684 -0.063216336 0.0721358 -0.14738002 -0.09106508 -0.36460975 -0.50014985
-0.74692655 0.47678837 0.36386332 -0.052871697 -0.109276235 -0.1483678 -0.66921014 -0.16710219
-0.18935639 -0.59713054 0.5428894 -0.5971091 -0.05012925 0.14288673 0.74472934 -0.4169442
-0.04365144 -0.13402787 -0.0471279 0.01959511 -0.34958774 -0.019809378 0.13005431 0.29779854
0.34752697 -0.08132215 -0.025475223 0.005015592 0.004021979 0.0028326937 -0.0005596584 -0.0042169127
-0.024355788 -0.61822116 0.31376174 -0.3881062 -0.02010104 -0.01795091 -0.037365943 0.06512684
0.06666353 -0.4696189 0.020290187 0.09042745 0.36740595 0.5894035 -0.34347874 0.33470607
0.12353122 0.291508 0.3496018 0.07349415 0.18465966 0.33036467 -0.07789504 0.06571745
-0.47424728 -0.77390575 0.50235546 0.23600811 0.41458806 -0.41400626 0.4532776 -0.34364128
-0.13875608 -0.1798696 -0.046063427 0.06402973 0.42660213 0.1603082 -0.045085184 -0.13279526
-0.00051878113 0.0046705953 0.0037016913 0.4292196 -0.22046943 0.24474952 -0.024230825 -0.1560335
-0.3575949 -0.389993 0.16925086 0.17775258 -0.23308869 0.070365265 -0.4862695 0.010862956
-0.08727138 0.40688288 0.63299537 0.4801758 -0.10442495 0.047712673 0.20747274 0.4275465
0.15772645 -0.18021743 0.36490914 0.58675885 -0.28912216 0.3294921 0.027205136 -0.22390899
0.36798415 -0.08512288 0.31893185 0.50242347 0.010328068 0.4297436 0.63993526 0.12950742

net.0.bias f4 [256]
00000000: a5f6 6abe 3029 9f3e 76b5 0b3e 3733 fbbe
00000010: 45a9 683e 1e31 07be 9cf8 6d3e 2f65 22bf
00000020: 0324 27bf d1a1 a83e f63b d33e 53dc bc3e
00000030: 5dc5 1b3f fa97 d2be 8329 003f 9bb8 483c
00000040: fe8d 583e 7fca 5b3e 0b85 973e 8481 103f
00000050: a4fa 0a3f 2241 99bd a94e 213e 3238 efbd
00000060: aca9 9c3e f596 f23e d502 9d3e 428f 1d3f
00000070: 3195 1b3e 3726 7c3e 8e36 55be ad24 16bf
00000080: 5c71 b83e c448 133e 1ea5 983e bde3 27be
00000090: ad71 e13e 61d1 c6be 8562 fdbe 1b37 51be
000000a0: adaa 83be aee3 e93b a6f2 103d 58d7 06bf
000000b0: a42d 0ebf 8e7e 09be 2a43 a53e b4dc 183f
000000c0: 7e88 0dbf 70ca c93d 92b0 fb3d 834b 3c3e
000000d0: c235 00bf ba4b aa3d 7b01 7e3e 4e47 16be
000000e0: fa43 833e e87a 08bc 9d15 eb3c 8d33 9bbe
000000f0: 29d5 4e3d 38f5 ba3e a7f8 d4bd 6658 6fbe
00000100: 4af0 70be 8103 ab3d 8ac2 c23e fe2e efbe
00000110: 9c42 1abf a88d 0d3f 9833 3dbe 23ad 603e
00000120: 5f6e b2bb 4432 43be 57a0 9a3e ff23 30be
00000130: 9d7a c33e 705b 8fbe 7d69 5ebe 5ac5 ee3d
00000140: 0aae 80bd b499 3bbe 3fa0 8a3e 3288 95be
00000150: 7201 4bbf f054 cb3e bfb8 b53e 4fbc 5cbe
00000160: 48d9 1cbf 472f 363f bb25 a5bd 87b9 ff3e
00000170: 0bea 2dbf ffe3 993e 2b7f f33e e1bd e63e
00000180: 5baf febe 0bd1 853e f512 8dbd 0b1b b53d
00000190: e333 323e 97f6 88be 8808 db3e b41f 9cbe
000001a0: c9ca 0f3f a4ce afbd 17cb 7e3e 0e52 17bf
000001b0: 2011 80be 3c66 86bc 5280 ed3e 29af 7ebc
000001c0: 5a95 8a3e e851 a93d 190a 08bf 8779 c83e
000001d0: 277b be3c 0e7c 323d a4c5 0fbe 06ef 8c3e
000001e0: bc54 ebbe 9424 923e 5608 463e 3931 c3be
000001f0: 7c51 6cbd 520f d2bc 16e5 25bf dc35 e83e
00000200: 9f03 203e 6e67 c9bd a0a5 6c3d 10a0 c73e
00000210: 3b6c 4d3e 9c52 a8be 8e97 2d3e 4f98 4e3e
00000220: 910d a73d 36c6 98be a458 babd 95dc 9f3e
00000230: f8f0 e83d 42e3 133c a0a6 623e 338d a8be
00000240: a0fe d93e edee bb3e 6fda c0be 83fc 7fbd
00000250: b25e b33e 37a7 2cbe 60a7 0b3e 3912 f3bd
00000260: 9be4 c4be 5593 92be cd5c d1be a249 87be
00000270: 9ebe 873e 53f7 ef3d c240 2cbe ba47 e1be
00000280: a92c f13e 6e38 4cbe 3f5b 003f bc0c e0be
00000290: d26c 503e 7e5d 0fbe 2d6f a23e f7f8 09bf
000002a0: e8c5 9d3e 9639 48be 7077 0dbf 0ed3 ce3d
000002b0: 8244 f8be 4438 d9be d537 f23c b1bf 34be
000002c0: 015e 5fbc 0e7a 72bd 365e 74be 343d b3be
000002d0: db8c 093f 2a5d a8be 8b07 e83e 5ccc 16be
000002e0: 6ad1 033e 47c1 093f 7774 82bd c889 173b
000002f0: ad6e d33d 2a8f 633e 9932 32bf c98a fabe
00000300: b33d f3bd a795 1fbe cad8 503e 7288 f83e
00000310: 4c77 c9be 52d2 f93e 24b2 6e3e 8a0c 623e
00000320: b76c 05bf 11c9 bbbd 4654 893e 84e7 0cbf
00000330: fcd5 cb3e f539 bebe 96d2 1b3f 574d 4cbd
00000340: 4ae2 fb3e e0bd 0cbf be4f 85be 19b2 b53e
00000350: d5d8 913e 2df9 5e3e e9ee 12bf 054e 1fbe
00000360: 4e61 353d 76b9 743d 992e e1be 0703 c0be
00000370: c377 bdbe bc97 f4be 2d44 0d3e 0fcb f4be
00000380: ce4c 203e 0d05 243f 6dda 15be 7ea4 28bf
00000390: b65a d0bc 921e 383f 8aab dd3d 57a2 59be
000003a0: 6434 7f3e 8787 c73e 15c2 f33e 89b1 27bf
000003b0: ad9f 6bbd c1c1 e8be 4b05 19be df97 0ebf
000003c0: 563d c13d c7d5 043e 58f5 913c 9dd6 36bf
000003d0: cb40 94bc 3e23 983e 68a6 723e 219f 44bd
000003e0: a899 bcbe 2f53 d4be c9c4 ef3d 3f5f ad3e
000003f0: 223f 733e ba93 89be 4fd5 c8bc 6a16 babe
-0.2294565 0.3108611 0.1364344 -0.4906251 0.22720821 -0.1320233 0.23239368 -0.63435644
-0.65289325 0.32935956 0.41256684 0.36886844 0.6084803 -0.41131574 0.5006334 0.012251045
0.21147916 0.21463965 0.2959369 0.56447625 0.542887 -0.07483126 0.15752663 -0.1168064
0.305982 0.47380796 0.30666223 0.6154672 0.15193631 0.24623953 -0.20821592 -0.5864971
0.36023986 0.14383227 0.29813474 -0.16395469 0.4403204 -0.38831618 -0.49489227 -0.20431177
-0.25716153 0.0071377372 0.035387658 -0.5267234 -0.5553839 -0.13427183 0.32277805 0.59711766
-0.55286396 0.09853065 0.122895375 0.1838818 -0.5008203 0.08315225 0.24805252 -0.14675638
0.256378 -0.008330084 0.02869683 -0.30312768 0.050496254 0.36515212 -0.10398989 -0.23373565
-0.23529163 0.08350278 0.38039047 -0.4671554 -0.6025789 0.55294275 -0.18476713 0.21941046
-0.005445286 -0.19062144 0.30200455 -0.17201231 0.38179484 -0.2799945 -0.21719928 0.116587356
-0.06283195 -0.18320352 0.27075383 -0.2920547 -0.7929908 0.3971324 0.35492513 -0.21556209
-0.61269045 0.7116589 -0.08063837 0.49946234 -0.67935246 0.3005676 0.4755796 0.4506674
-0.4974316 0.2613605 -0.068883814 0.08843049 0.17402606 -0.26750633 0.42779946 -0.30492938
0.561688 -0.085843354 0.2488216 -0.5910958 -0.25013065 -0.016406171 0.46386963 -0.015544691
0.2706707 0.082675755 -0.5314041 0.39155218 0.023252083 0.04357534 -0.14040238 0.2752611
-0.45963085 0.28543532 0.19339117 -0.3812349 -0.057694897 -0.02564207 -0.6480268 0.4535359
0.15626381 -0.09834181 0.05777514 0.38989305 0.20060818 -0.32875526 0.16952345 0.20175289
0.081568845 -0.29838723 -0.09098938 0.31222978 0.11374086 0.00902635 0.22133875 -0.32920226
0.42577076 0.36705723 -0.37666652 -0.062496673 0.35033184 -0.16860662 0.13638067 -0.1186871
-0.38455662 -0.2862803 -0.40891114 -0.26423365 0.26512617 0.11717095 -0.16821578 -0.44000036
0.47104385 -0.19943401 0.5013923 -0.43759716 0.20354012 -0.14000508 0.31725445 -0.53895515
0.30815053 -0.19553217 -0.5526037 0.10098849 -0.48489767 -0.4242574 0.029567638 -0.1765125
-0.013633252 -0.05919843 -0.23864064 -0.35007632 0.53730553 -0.3288358 0.45318255 -0.14726394
0.12872854 0.5381054 -0.0636987 0.0023122896 0.10323844 0.22222582 -0.69608456 -0.4893401
-0.118770026 -0.15584432 0.20395198 0.485416 -0.3934883 0.48793274 0.23310143 0.22075096
-0.5211901 -0.0916921 0.26822108 -0.55040765 0.39811695 -0.37153593 0.60868204 -0.049878445
0.49196082 -0.54977226 -0.260374 0.3548744 0.28485742 0.2177474 -0.573958 -0.15557106
0.04428225 0.05974718 -0.43980864 -0.3750231 -0.37005433 -0.47772014 0.13795538 -0.4781117
0.15654299 0.64070207 -0.14634104 -0.65875995 -0.02543388 0.71921647 0.10823734 -0.21253334
0.24922329 0.38970587 0.4760901 -0.6550527 -0.057525326 -0.45460322 -0.14943425 -0.55700487
0.09435527 0.12972175 0.017817184 -0.71421224 -0.018097302 0.29714388 0.23696291 -0.04800332
-0.3683598 -0.41469714 0.11707456 0.3386173 0.23754552 -0.2687052 -0.024515776 -0.36345226

net.2.weight f4 [256, 256]
00000000: efe7 3fbd 568a 003e 4690 803d e2b3 5dbc
00000010: 3fd6 c0bd f847 b23d dfec 6b3d 327a 59bd
00000020: a48a 92ba dc6b b3bd ffad 9dbd c0c5 d5bc
00000030: accc 86bd cc01 b3bb 63ad 913d ecca 57bc
00000040: c642 9a3b 1658 073c 548f 3e3c 10a0 99bd
00000050: ca4a c93c 2bf1 c0bd d652 7b3c ce06 a4bd
00000060: abb5 0fbd 46f1 c23c 3978 13bd 6a28 9b3c
00000070: fdd6 ad3c 5492 85bb c2ee d9bc f029 93bc
00000080: 48d4 e23d a1d1 21bd c1ef 303d a260 20bc
00000090: e02a c4bc 047d f5bc 7563 36bc 6d58 d8bd
000000a0: d820 cb3d d153 67bc 153b b73d b6ed 533c
000000b0: 8bd9 123c 4df7 2abd 9de1 5e3d 0038 e1bd
000000c0: 3781 9d3c a013 d43d dfb4 d63d 1fc6 b93d
000000d0: de5c 363d 4678 923d c6d3 bc3c cd99 553d
000000e0: 1157 a03d a0af 7abd d07c ce3c 6444 0c3d
000000f0: 13fc c73c 2238 fd3b 4b99 d43d 3b67 cd3d
00000100: 30b9 62bd 89cf f83c e14e 3f3c 139a 813a
00000110: a107 943c 1449 a6bd 4582 293d b2d2 40bd
00000120: 209d 423d 7b3b ce3d 2a94 a43c e08c 42bd
00000130: 77c4 213d 0082 33bd d24d 40bd 643f 173d
00000140: 259a 59bd 590d db3d d468 97bd e0d8 ac3d
00000150: 24d4 abbd 35a0 82bd aa55 243c 4654 0bbd
00000160: 809c 4cbd 9468 ed3b c5a4 033d 07e7 cdbc
00000170: ff2f 34bd 3a0c 2d3d 269f 7e3d fb5a debc
00000180: b60c 5bbd 77aa 34bd 11f8 70bd 9c2c d7bd
00000190: 5a9d 3f3d ff70 f5bd a52e c73d 4b97 6e3d
000001a0: 5ea2 0a3d bb8b 8cbc 6a0f 76bc 5365 013e
000001b0: 14b8 df3c ea73 033e 31fe 513d 249d 373d
000001c0: 6eba b63c dadb c03d 263b 81bd fc85 babd
000001d0: c512 ccbd 762c 62bd 1aef bcbd 586f 42bd
000001e0: ee63 fb3c 2a87 a23d ec9b bd3d 2c4c 2fbd
000001f0: 92f4 523d 7060 efbc 571c a63c 4551 683d
00000200: 08b4 843d 9448 96bc 8b9a ddbc fc61 ebbb
00000210: b303 d03c b6c2 85bc b444 69bd 20f4 493d
00000220: b813 2cbd 2fb2 14bd 84f4 6fbd b219 fc3d
00000230: ad8e 683d 7cb1 da3c a327 e53d cb0f 45bd
00000240: 613f e1bc 3406 8b3b 14f2 50bd 5be9 5dbd
00000250: 08b4 f43c 047c 343d b5a3 16bd b165 133d
00000260: e891 0bbd 0064 9c3d fa1e 083c adaf b1bc
00000270: d2ca f9bc 4836 03be feb8 873d ad72 233c
00000280: 5c8d c93d 4989 9fbc ca41 88bd 6efb 9a3d
00000290: 60d9 3c3d 6693 403d 4d9b 873d d388 48bd
000002a0: 32c4 293d 61f6 36bd 41a8 813d 2a43 2bbb
000002b0: 6481 00bd 6d0f 883d 63a9 b93d 14c9 57bd
000002c0: d61d 50bc 13f7 e1bb 307a 6f3c b5d6 313c
000002d0: 2dd1 e0bc 253a 2a3d c535 b73d c92e 3b3d
000002e0: e4bf 7ebc 82f6 51bd 5468 2a3d dd4f b53c
000002f0: 2225 02bd 13e4 f4bc 2ff6 2dbd c47a 003e
00000300: 0719 da3d 5442 25bc 5802 43bd 45ac afbd
00000310: 5472 6abc 037d 5bbd 76a8 eebc ea8f 953d
00000320: 7293 6c3d fdc5 aebc b1a2 1bbd d6b6 523d
00000330: 0549 d1bc de7e 8d3d a198 6c3d 34b7 8f3d
00000340: 4ef3 403d 7eb9 883c 75cc ed3c b75c a6bd
00000350: e100 3c3a c697 29bc e0c2 1fbd ba1c 293d
00000360: 83ba 58bc 5e68 473d 7ee9 1e3c 9c32 acbc
00000370: fac1 c3bb d7ac 423d 1ac1 c63d 96ab 663c
00000380: 9b11 833b 3f72 56bc 23b2 c13d a42d f5bd
00000390: 981b 863d 0b1d 66bc 1e21 0bbd c667 8ebc
000003a0: 2c72 4b3d f372 ae3d c258 61ba ff57 69bd
000003b0: 3497 a33d f99b 1c3d 1d5b 63bc 593f a8bb
000003c0: c1e8 2d3d 5fe2 6d3c 2830 be3d 9517 473d
000003d0: 13cd 213c 47cb 7a3d 01e0 e33d a52c a43d
000003e0: 2573 a13d fafa 8bbc 8be3 d83c e377 07be
000003f0: 8db0 403d 9d16 813b 28f2 823c e340 1e3c
-0.04685205 0.12552771 0.06277518 -0.013531657 -0.09415864 0.08705133 0.057598945 -0.05309505
-0.0011180234 -0.08760807 -0.07699203 -0.026095271 -0.06582007 -0.0054628607 0.07113149 -0.013170939
0.004707667 0.008260747 0.011630852 -0.075012326 0.024571795 -0.09420999 0.015339574 -0.080091104
-0.03508536 0.023796689 -0.036003325 0.01894017 0.021220678 -0.0040762816 -0.026603106 -0.017964333
0.11075646 -0.03950656 0.043197397 -0.009788664 -0.023946226 -0.029966839 -0.011132111 -0.10563741
0.09918374 -0.0141191045 0.08946816 0.012935093 0.008962999 -0.04173975 0.05441438 -0.10997009
0.019226654 0.10355306 0.10483717 0.09070992 0.04452216 0.071518466 0.0230502 0.05214863
0.078291066 -0.061202645 0.025206 0.03424491 0.02441219 0.007727639 0.10380801 0.10029455
-0.05535239 0.030372398 0.011676521 0.0009887837 0.018070044 -0.08119407 0.041384 -0.047075935
0.047513127 0.10069939 0.020090181 -0.04749763 0.039494004 -0.04382515 -0.046949215 0.03692569
-0.05312552 0.10695905 -0.07393041 0.08439803 -0.08390072 -0.06378213 0.0100301895 -0.034015916
-0.049953938 0.0072451327 0.03213956 -0.025134576 -0.043991085 0.04224799 0.062163495 -0.027142992
-0.05347892 -0.04410788 -0.058830325 -0.105065554 0.04678092 -0.11984443 0.097256936 0.058249753
0.03384625 -0.017156472 -0.015018323 0.12636308 0.027309455 0.12837186 0.051267806 0.044827595
0.022305693 0.09416933 -0.0631011 -0.09107587 -0.099645175 -0.055218183 -0.092252925 -0.047469467
0.030687299 0.07935937 0.09258255 -0.042797253 0.05150277 -0.02922079 0.020277185 0.05671813
0.06479651 -0.018345155 -0.02705123 -0.0071833115 0.025392389 -0.016328197 -0.056950286 0.04930508
-0.042010993 -0.03630274 -0.058582798 0.123095885 0.05677669 0.02669596 0.11189201 -0.048110764
-0.027496042 0.004242683 -0.051012114 -0.054177623 0.029871002 0.044063583 -0.036777217 0.035985652
-0.034074694 0.07636261 0.008308167 -0.021690214 -0.03049222 -0.12813675 0.06627081 0.009976071
0.09841415 -0.019474642 -0.06653173 0.07567488 0.046105742 0.04701557 0.06621418 -0.04895861
0.041446872 -0.04466856 0.0633092 -0.0026132562 -0.031373397 0.06643567 0.09065511 -0.052681997
-0.012702426 -0.0068959086 0.014616534 0.010854413 -0.027443493 0.041559357 0.089458026 0.045698915
-0.01554868 -0.05126048 0.0416034 0.022132808 -0.031773694 -0.02989391 -0.042471107 0.12546831
0.10649305 -0.010086615 -0.047609657 -0.0857778 -0.0143094845 -0.053586017 -0.029133063 0.0730284
0.057757802 -0.021334643 -0.03799695 0.051443897 -0.025547514 0.069089636 0.057762746 0.07017365
0.047107033 0.016690012 0.029028157 -0.08123153 0.0007171762 -0.010351127 -0.039004207 0.04128716
-0.013228062 0.048683517 0.009699224 -0.021020226 -0.0059740515 0.047528114 0.097048 0.014078995
0.0039999015 -0.013088762 0.09457805 -0.11971596 0.06548232 -0.01404501 -0.03396713 -0.017383467
0.04966943 0.085180186 -0.0008596295 -0.056968685 0.07987824 0.038234685 -0.013876704 -0.0051345048
0.0424583 0.014519303 0.09286529 0.048606474 0.009875554 0.061229017 0.1112671 0.08016328
0.0788329 -0.017087448 0.026475688 -0.13229327 0.047043372 0.0039394633 0.01598461 0.009659025

net.2.bias f4 [256]
00000000: afc0 5f3d 4e17 463d 25b2 1cbd 4aac c2bb
00000010: c86d 4c3d 3ec2 8bbb dc47 65be 1c98 a8bc
00000020: fee9 4a3d 9425 8b3d 0ad1 3b3c d011 a2bc
00000030: 26c9 533d 283d 573d 5386 3c3c 2e70 5a3d
00000040: d7e7 1f3d f77c 583d d4a6 d5bb 106a 5bbd
00000050: 75d6 80bc ec94 0e3d 48e1 eebc a25b febb
00000060: a4f5 21bc f37f bb3c 647c 99bd 0307 8abe
00000070: 3244 babd 75eb e33a 60e9 c0bb f0c8 c6bc
00000080: 90cc c0bc 9f9f 293b 31dc cbbd cc45 c73c
00000090: c708 083c 7ebb 223d 8dd3 673d bdc4 aa3c
000000a0: da0d 26bd 32b7 2fbd e295 cc3d 8fac e8bd
000000b0: 2874 d93c 5fe4 513d c51d eebd 3fa7 88bb
000000c0: 338d acbc 1d9f 81bc e605 a33c 65fe babd
000000d0: 004b 80bc b8c7 f9bc 20c6 7ebd fbe5 413d
000000e0: 2600 3dbe e6af b4bc 0e5a 113d 7bed 343c
000000f0: 751a 2e3d f6b9 b2bd cf94 99bc 128e 1ebd
00000100: c37b f3bd d513 8abb e78f 5c3d 6451 b73c
00000110: 2deb 6c3d bfc7 183d 1f4a b63b e28f 0abd
00000120: 179c 84bc 978c 163d 0f78 d1bc 77af a23b
00000130: 8327 31bd fea9 423d 06b4 4a3d 215b ab3c
00000140: abd8 36bd 62e7 b53c 33f9 07bc d6a1 8c3d
00000150: 6372 ebbc 746c 713d 8666 1abc 6c3c 153d
00000160: ebd1 83bd 3375 36be 405f 91be d362 d6bd
00000170: 0e91 e8ba 31a8 4f3d 5831 62bc 023e ab3c
00000180: 39d9 323d af3e 8a3d ddf3 f43c b36f 24be
00000190: 52fa 3f3d f1e2 033d df20 6b3c a088 edbc
000001a0: bce8 ef3c f910 9d3c 83c8 333d 34b4 c3bd
000001b0: 346d fcbd ff74 c53c ea39 083b 2103 0f3d
000001c0: 217f 6ebc fcd9 20bc fcf5 33bd 21ec ccbc
000001d0: 9895 873d c60a 4fbd f714 3d3d 16f4 483d
000001e0: e9de c53c 000f bebc f0fd 04bd 4ce0 013d
000001f0: b357 90bb 173f 3b3b a714 8ebd 2c59 58bd
00000200: 6082 2c3c 4af9 c63b 40d7 1ebd fc0e 413d
00000210: f630 3ebd fdeb 283d 3253 03be 36cf 593d
00000220: 0b09 f6bb a58c 6a3d 62f3 403d 8b11 3cbc
00000230: 0e66 4c3d f51e 8b3c 3b8a 163d 6e01 553d
00000240: b43c 653d dc29 9dbb 2e59 99bc cf4a b63c
00000250: 42a3 d13d e87b 373d 649d a83b 6848 083d
00000260: 14cf 00bc c210 06bd db3a 583d 6738 403d
00000270: a38c fbbc e7b3 21bd 6cc7 c5bd d55a 8d3d
00000280: e5f0 51bc 2e82 603d 228d 313d 12c5 c1bd
00000290: 5230 f1bb dd84 87bb a6d5 12bd 9525 a0bc
000002a0: 5d9a 483d a6ba 06bc ae1b 7d3c 42f9 31bd
000002b0: c141 aabc 52a6 b63c 3384 313d 19b2 1ebe
000002c0: c4a7 dbbc 5610 cebd 5792 3a3b 5be5 f23b
000002d0: f247 9b3c c8dc 34bd a2c8 443d cd6d 9d3b
000002e0: a927 c93a c45c 7a3c 90e0 66bd 76ec 27bd
000002f0: 73e2 233d 3365 39bd 9fd1 bfbd cb72 4c3d
00000300: 2fb5 373d 4cd6 513d d4df 053d f911 093d
00000310: 42f7 25bd 7615 49bc 3a4a 973b 5a52 4dbc
00000320: 8e3a 9bbc 0149 d4bd dca8 33bd 46f6 90bc
00000330: bec9 073d 7c47 383c c2a1 1cbd a9bc 823a
00000340: f67c f0bc cb5e e73d 9a13 90bd 6c79 66bc
00000350: 2e5d 09bd d622 bebc c114 e53c 49c6 943c
00000360: 5173 2fbd f47b 143d 91cf d7bc 1ae3 443d
00000370: 359e 5f3c 38f7 523c 57c6 9b3d 3998 453d
00000380: fb76 03bb 62fe 4e3d a43b 5d3c d68b eb3c
00000390: 2404 74bd ed85 00be 59c6 50be 768c 3fbb
000003a0: ca04 52bd a0aa 47bd 8fb6 a63c c728 82bb
000003b0: 3e22 e73b fba9 4e3c 12a8 b3bc 6a5e 2ebc
000003c0: 8c47 77bb c1c9 153a 5359 a53c 1973 1d3d
000003d0: d5fc 993b bb71 d5bc e5bc 673c 1889 5db9
000003e0: adaa 02bc 28c6 d6bc f5c8 8bbd 5c03 06bc
000003f0: 6d54 51bd 8b4a 24bc 202c 2a3d 3230 933c
0.054627117 0.04836207 -0.03825583 -0.0059409486 0.049909383 -0.004265099 -0.22390693 -0.020580344
0.04953956 0.06794277 0.011463413 -0.019783884 0.051705502 0.052548558 0.011506635 0.05332964
0.03903946 0.05285355 -0.0065201316 -0.053567946 -0.015727261 0.03480999 -0.029160157 -0.0077623883
-0.009885225 0.02288816 -0.07494429 -0.26958475 -0.090950385 0.0017388897 -0.0058871955 -0.024265736
-0.023535043 0.0025882495 -0.099541076 0.024325274 0.008302874 0.039729588 0.056598235 0.020845765
-0.040540554 -0.042899318 0.099895254 -0.11361038 0.026544645 0.051243182 -0.11626772 -0.004170328
-0.021063423 -0.015822941 0.019900274 -0.09130553 -0.015660763 -0.030490741 -0.062200665 0.047338467
-0.18457088 -0.022056531 0.035486273 0.011042948 0.0425057 -0.087268755 -0.018747715 -0.038709708
-0.1188884 -0.00421379 0.053848173 0.022377677 0.05784147 0.037299868 0.005563035 -0.033828624
-0.01618771 0.03675517 -0.025569944 0.0049647647 -0.043250572 0.0475254 0.04948809 0.020917477
-0.044640224 0.022205058 -0.00829916 0.06866805 -0.028741067 0.05894132 -0.009423858 0.036434576
-0.06436523 -0.17818145 -0.28392982 -0.10468068 -0.0017743425 0.05069751 -0.01380571 0.020903591
0.04366419 0.06750237 0.02990144 -0.16058235 0.046869583 0.03219885 0.014351099 -0.028995812
0.029285781 0.019173132 0.043892395 -0.095558554 -0.12325516 0.02410364 0.0020786473 0.034915093
-0.014556677 -0.0098175965 -0.04393576 -0.025014939 0.066203296 -0.050547384 0.04616257 0.049060903
0.024154143 -0.023200512 -0.032468736 0.031708047 -0.004404986 0.002857154 -0.06937533 -0.052819416
0.010529131 0.006072198 -0.038779497 0.04713343 -0.04643341 0.04124068 -0.12824705 0.053176127
-0.007508402 0.057263035 0.047107108 -0.011478792 0.049902014 0.016982535 0.03675292 0.052003317
0.055966094 -0.00479625 -0.018719282 0.022252468 0.10236217 0.0447959 0.0051457155 0.033272177
-0.007861871 -0.032730825 0.052790504 0.04692879 -0.03070671 -0.03947821 -0.09657177 0.069020905
-0.012813781 0.05481165 0.043347485 -0.09461416 -0.0073604966 -0.0041357116 -0.035848282 -0.01954917
0.048975337 -0.008223211 0.015448494 -0.0434506 -0.020783307 0.022296105 0.043338966 -0.15497626
-0.026813395 -0.100617096 0.0028468573 0.007412595 0.018955205 -0.044155866 0.0480429 0.004804349
0.0015346903 0.015280906 -0.056366503 -0.04099699 0.04001088 -0.045262527 -0.09366154 0.049914163
0.044850525 0.05122976 0.032684162 0.033464406 -0.040519007 -0.012273183 0.004617003 -0.012531841
-0.01894882 -0.10365487 -0.04386221 -0.017695557 0.03315138 0.011247512 -0.0382402 0.0009974438
-0.029356461 0.11297377 -0.07034989 -0.014067035 -0.03353613 -0.02320997 0.027963998 0.018160956
-0.042834584 0.036251023 -0.026344093 0.048068143 0.013648559 0.012876324 0.0760619 0.048240874
-0.0020059932 0.050535567 0.013502989 0.028753202 -0.05957426 -0.12551089 -0.20388164 -0.0029228008
-0.0512741 -0.048746705 0.020350723 -0.003972146 0.0070536425 0.012613769 -0.021930728 -0.010642627
-0.0037731854 0.00057139626 0.020184195 0.038439844 0.0046993294 -0.026055207 0.014144157 -0.00021127274
-0.007975263 -0.026217535 -0.06825439 -0.008179512 -0.051105905 -0.010027538 0.041545987 0.017967317

net.4.weight f4 [256, 256]
00000000: 798c 3c3c 784f ed3c ecac bfba eaa3 27bd
00000010: 80c9 78bc 1051 9b3c ebef e53c 5d4d 593d
00000020: b24d 03bc 0be1 233d 120a 7abc 76e8 1a3c
00000030: acf0 3b3c 8bf0 db3c 2387 393a b829 e6bc
00000040: 7941 353b 9cb0 82bb 2b67 40bc 2e6a c53a
00000050: d5ac a43c 5222 81bc e971 f7bb 84b6 60bc
00000060: 937a 1b3d 9a33 d83c 4c3c 543c fd77 ce3a
00000070: 4f42 883c 3541 b33b 8367 dbbc e3eb 8b3c
00000080: 5de7 0abb a35f 8c3b fef3 c3bc d9fa 41bc
00000090: 6f8e 7ebb d2a9 6a3b f32f a13c 81a9 1139
000000a0: db6c 4fbc 81a6 5b3c 216b a7bc 29ca 05bd
000000b0: ce96 7c3c 5740 2e3b 7cac 9ebc a8cf bd3b
000000c0: 0e02 263c 99d8 d2bc 7779 873b c1ad 0fbd
000000d0: 181d 7bbc 715e a3bc ea37 383d ea83 b1bb
000000e0: 6f33 2a3c 1c3f 64bc 362a 3cbc af2f cb3a
000000f0: dfc9 5bbc c2a7 c23c 0864 873c b833 2abc
00000100: af01 10bd 8b4f 6fbb 9294 3bbc 55ae cdbc
00000110: 10db bfb9 4201 9dba f420 ac3b f6c2 4b3b
00000120: 5d65 8d3c 04ca 483b 1f22 7f3c 6741 fdbc
00000130: 3f05 98b8 d450 30bc c0ec 8e3c 07ae c23c
00000140: e43a 51bc 634e ee3b 6d34 f03a 114e 0cbd
00000150: af90 36bd a419 493b 4715 e8bc 8dba 15bb
00000160: f6d2 8e3c 64fe 3b3d 7eb9 3ebd 2efd 513d
00000170: 7769 fbbc 217d 083b fc30 a03b 3e04 423c
00000180: 4023 bd3c 1506 c3bc e293 2f3c 6d58 a4bc
00000190: f288 13bc 0e10 febb ad00 1bbb 92bc 6fba
000001a0: e71d dcb9 cb45 143d ece7 f23c 9c6c 85bc
000001b0: a838 9fbc bb2c 973b f407 1e3d b105 7a39
000001c0: fc3e 44bd 879a 5fbc 8d28 6dbc 8063 103b
000001d0: a110 dd3c 55a0 cc3c d985 923c 6742 aebb
000001e0: 3b80 073d b833 1f39 a498 07bc a04d 1bbc
000001f0: ad3f 02bd baf0 92bb 2dd9 28bb 2e4f 06bc
00000200: 250c 81bb fb02 5ebc e415 4e3c 13a4 e83b
00000210: 12dc 403c 0f23 57bc d91f 043d 281c 2ebc
00000220: d602 903c 5f58 75bb 6d9b 34bc ea8e b3bc
00000230: 5af4 82bc 1cf7 aabb 0803 85bc 5650 96bc
00000240: 1928 823c 868e 99bc 9e5c dabb 6e67 58bc
00000250: f6a2 6abd 8bba 9aba ec46 c83c 98f8 abbb
00000260: 45f8 233c 735c 3cbd 8b3c cbba e860 66ba
00000270: eb14 30bc 2279 9b3b 39b7 16bd ae82 41bc
00000280: 3195 c1bc 28ee 0cbd 2506 8d3c 8040 e3bb
00000290: 931c 95bb 29fc 4f3b 0431 0abc 691a 7c3c
000002a0: 0708 473b 3036 643c 8456 27bc 1178 bd3c
000002b0: 054e 6a3c f9d0 9a3c 7ed3 5a3c fae5 94bc
000002c0: ba6f ebbb 994c c6bc a5b2 d0bb d0fe 79ba
000002d0: 4985 ec39 801e 28bd 8b4a 72bc ddb8 713c
000002e0: 418e a9bc a7dc 843c 40e4 85bc 868b 00bc
000002f0: 1a9d 233b 0248 e3bc 07a6 f4bc ab40 fa3a
00000300: de94 eeba a03d f3bc bb48 7e3a e1f6 54bc
00000310: b783 2c3c 50e2 c33b 0bfb 843c f48f 523c
00000320: d6a6 193b 1bc4 9bbc c9bb df3c 9ac2 3d3b
00000330: 4790 79bc 6d2d bf3c 5236 e83b 8d98 58bb
00000340: 0313 5d3c 1b57 1ebd 5938 23bd 24f0 d7bb
00000350: 0014 3abd fccb 973c 91ca 7fbb 796e d7bc
00000360: 279d 5c3c 7f98 9ebb e6ce 9dbc 6179 2dbd
00000370: 9f8d 003d 846a 88bb b025 23bc 7aae 303b
00000380: 222f 413b 60c8 b23c e4f9 c93c b49e 383d
00000390: 5144 72bc 6e5d a03c 9bbb 793c 2f0d e5bc
000003a0: 3796 6f3c 4493 a6bc 8dc0 c9bb f2ec d4bc
000003b0: de5e 113a f430 bfbc b908 0e3c b1ea 923b
000003c0: baa4 bebc 30be 223b cdda 313b e6d5 08bc
000003d0: 6e99 863c 4caf 3a3c 701e 11bc e37f 663d
000003e0: 0bc1 d33b c497 1c3c 201f fc3b 031c 483c
000003f0: c2f0 bcbb 70bc ad38 2315 17bc e925 89bc
0.011508101 0.028968558 -0.0014623678 -0.040927805 -0.01518476 0.018959552 0.028068503 0.053052295
-0.0080141295 0.04000954 -0.01526119 0.009454837 0.011470955 0.026848098 0.0007077327 -0.028096065
0.0027657433 -0.0039883386 -0.011743347 0.0015061551 0.020101944 -0.015763436 -0.007551421 -0.01371539
0.037958693 0.026391793 0.012953829 0.0015752312 0.01663318 0.00547042 -0.026782757 0.017080253
-0.0021195032 0.0042838617 -0.023920055 -0.011839592 -0.0038842221 0.0035806787 0.019676184 0.00013891423
-0.0126602305 0.013406397 -0.020436825 -0.032663498 0.015416814 0.0026588643 -0.019369356 0.005792577
0.010132326 -0.025738047 0.004134353 -0.035077814 -0.015326761 -0.019942494 0.0449752 -0.0054173367
0.010388239 -0.013931062 -0.011484673 0.0015501882 -0.013414829 0.023761634 0.01652719 -0.010388307
-0.035157856 -0.0036515917 -0.011448996 -0.025107542 -0.00036593573 -0.0011978524 0.0052529518 0.0031091548
0.017260248 0.0030637989 0.0155721 -0.030914975 -7.248902e-05 -0.010761458 0.017446876 0.023764623
-0.012770388 0.007272528 0.0018326171 -0.034254137 -0.044571575 0.003068545 -0.028330458 -0.0022846789
0.017434578 0.045896903 -0.046563618 0.05126684 -0.030689938 0.0020826536 0.004888652 0.011841832
0.023088098 -0.023806611 0.01071641 -0.020061696 -0.009004818 -0.0077533787 -0.0023651526 -0.00091452256
-0.0004198395 0.036199372 0.029651605 -0.01628714 -0.019436195 0.0046134866 0.038581803 0.00023843978
-0.04791163 -0.013647682 -0.014475 0.0022031963 0.026985468 0.024978796 0.01788609 -0.0053179744
0.033081274 0.00015182688 -0.008276138 -0.009478956 -0.031799007 -0.0044842632 -0.0025764212 -0.008197589
-0.0039382153 -0.013550515 0.012578461 0.0070996373 0.011771219 -0.013130917 0.032256935 -0.01062683
0.017579477 -0.0037436706 -0.0110233845 -0.021918733 -0.015985657 -0.005217446 -0.016236797 -0.018348854
0.01588826 -0.018744718 -0.006663873 -0.013208253 -0.057284318 -0.0011804862 0.02444788 -0.0052481405
0.010007923 -0.045986604 -0.0015505714 -0.0008788244 -0.010747175 0.0047446648 -0.03679583 -0.011810942
-0.02363071 -0.03440681 0.017214844 -0.0069351792 -0.0045505255 0.0031735993 -0.008434538 0.015387156
0.0030369775 0.013928935 -0.010213498 0.023128541 0.014300828 0.018898474 0.013356088 -0.018176068
-0.0071849497 -0.024206446 -0.0063689523 -0.0009536566 0.00045112733 -0.041044712 -0.01478828 0.0147535475
-0.020697715 0.016218496 -0.01634419 -0.007845765 0.0024965466 -0.027744297 -0.029864324 0.0019092759
-0.0018202325 -0.029692471 0.0009700169 -0.012998314 0.01052945 0.0059779063 0.016232988 0.012851704
0.002344539 -0.019014409 0.027311223 0.0028955103 -0.015232152 0.02333709 0.0070865536 -0.0033049912
0.013493302 -0.03865729 -0.03984866 -0.0065899063 -0.04542923 0.018529885 -0.003903065 -0.026297795
0.013465202 -0.0048399563 -0.019263696 -0.042352084 0.03138506 -0.0041630883 -0.009957716 0.0026959465
0.0029477556 0.021824062 0.02465529 0.045073226 -0.014786796 0.0195758 0.015242483 -0.027960388
0.014623216 -0.020333894 -0.006156987 -0.02599189 0.00055454473 -0.023338772 0.008669072 0.004483544
-0.023271907 0.00248326 0.0027138472 -0.008351779 0.016430583 0.011394333 -0.0088573545 0.056274306
0.0064622215 0.009557668 0.00769414 0.01221371 -0.0057660053 8.284382e-05 -0.009221348 -0.01674171

net.4.bias f4 [256]
00000000: 0ba8 f6bc a521 43bd 60f7 20bc 99e4 f3bc
00000010: 76c0 5cbd b08d 353d e547 e7bb 9677 82bc
00000020: c4fe 63bd 7843 47be 9e86 d73b 920a 493d
00000030: 705f 1fbe 1f2d 82bd b7b7 f73c 016e b83c
00000040: 244c 65bd ac0c 843c 3e5c 3e3d 23d2 d3bc
00000050: 8106 fdbb a79a a33c 7e95 c5bd 167a 8b3d
00000060: 550c a93b 62bc e0bd 0798 f33c cbfd c83c
00000070: 7259 aabd 91bc 003d e252 ba39 610f 703d
00000080: c851 85bc 21fa a73b 57d0 7bbd fecd f3ba
00000090: 446f ea3c af54 963c 0cf4 1e3d 435b e1bd
000000a0: 2040 05bd 729c 42be f13c a93d e910 a4bd
000000b0: 250e 1dbd eeb2 43bd 646d b0bc dbf3 08bd
000000c0: 3baf a4bc 7d8b 0abe 16aa 1cbd 6440 0abd
000000d0: c323 e7bc aa0c 45b9 a9b3 3dbd fbc4 6f3d
000000e0: 26ea 003b 96d3 053c f167 4b3d c6bf 893d
000000f0: 655e 1c3d 3cc6 2bbc 9831 18be fbc2 933d
00000100: 3cff 793d 8f3b 2d3d 4b41 f83b 8bb6 713d
00000110: 60f2 083d 4085 debb 7ee1 a9bd caca 31bd
00000120: 0f73 793d 8a7b 493d 2eb7 653c 42ec 4b3d
00000130: d057 34bc 6ca0 d53c c4d7 8bbd 9be2 dbbc
00000140: 07e7 a1bc e20b cdbc 62be dd3c da8b 6dbb
00000150: e047 cabd d4a0 61bd 1636 a9bd f8ed 563d
00000160: faa3 a43c 3c2f 4abb e037 0b3d 8805 4d3b
00000170: 2432 68bd fd92 16bd 651b 023d dd72 203d
00000180: 9f45 723c caf9 e33c 4f12 0bbd 89cb af3c
00000190: 6abc 7d3c e15f fc3c 42e2 3e3d 883a 4c3d
000001a0: ec65 753c 7868 6d3c 99dd 48bd 28ef c13b
000001b0: 9b14 1bbe f106 003d d875 fe3c 31e3 1abd
000001c0: 9df4 fbbc 267d 53bd e79f 07bc fa32 8f3c
000001d0: 930a b33c d608 e53c 7f7b 583d 3419 a73c
000001e0: 30c1 dc3c a909 dfbd db82 aebd 656e 1cbb
000001f0: c454 aabd 6aa4 74bd 7c81 32bc f69b 6dbe
00000200: fdea 5bbb 6fa5 64bc e45c 7dbc e842 1dbd
00000210: ce28 3bbd 3124 003d c992 9fbc e0c7 043b
00000220: d984 983c 4851 83bc 89b2 913c 4d93 4abd
00000230: b2ee 0e3d d9c2 303d 82e5 113d 028b 1438
00000240: 6a41 e1bc 2308 de3c fa99 47bd d5a8 12bd
00000250: 7b38 76be df28 cfbc 1cd5 f33b 5303 4b3d
00000260: b1ed ba3b 8bb7 87be 59a7 a3bd 7300 42bd
00000270: e52a 84bd a159 5c3c d988 a83c 8a28 99bd
00000280: 6b73 733d 430e 5e3d e9f4 cd3c fe16 70bc
00000290: 9f7e 5c39 9772 85bc 95d9 393d f906 6d3b
000002a0: 8ca8 d3bc ff1a 7eba 4875 8fbd d98e 9ebe
000002b0: 86a2 0ebe 45c2 6a3d ead8 bdbc 9ca4 87ba
000002c0: 4363 823d 422e 30bd 8737 593c 3795 813d
000002d0: 01c4 30be 0b84 a4bc f895 a23b 3e08 0cbd
000002e0: 79d6 2ebc 9e8a 84bd 04ea 45be 358b ebbc
000002f0: 7d2a b1bd 5915 953d da33 843d 846e dfbc
00000300: 7bb8 4dbd c32e bfbc cc50 dc3c 15d3 0c3d
00000310: a347 fc3b 371b b6bd 0fbf b73d 9c4a 1c3b
00000320: 4f3d 0bbe 1a2e ba3c 4860 1bbe 12db a13c
00000330: b1af 56bd 52ed bebd 72c2 5bbc 843f 7e3c
00000340: c1ed 23bd 254c bbbd f4aa b23c 4b1b b3bc
00000350: 0afb d6bc 7a38 58bd e398 23bd f5c6 a8bc
00000360: 86fa 8c3d 3317 a3bb c6a7 29be edde cabc
00000370: 33e6 29be bad8 7b3b 3d68 973d 2427 d6bc
00000380: fe31 563d 3d80 58bd 1362 bb3d 82e6 0a3b
00000390: 43cd 8abd bd3b 4c3d 8059 7ebc 3a79 0c3d
000003a0: a70c 75bd 086b d7bc d968 c93c 6e4d 893c
000003b0: a228 b0bc 5cc1 f2bc 540b f53c 2cdb 823c
000003c0: 7770 143c 33a2 c33c cf7b 213d 004e 9d3d
000003d0: 34ca d43c 6718 acbd 3588 19bd 2523 18bc
000003e0: a12c 1bbd 74c9 22bd 8c86 a2bd dd7c 25bb
000003f0: 1259 81bd 543c 8e3d 5ef0 65bd 9cb2 4ebd
-0.030109426 -0.047639508 -0.009824604 -0.02977209 -0.053894483 0.044324577 -0.007058131 -0.015926164
-0.055662885 -0.19459331 0.006577327 0.049082346 -0.1556375 -0.063562624 0.03023897 0.022513391
-0.055980816 0.016119324 0.046474688 -0.025857037 -0.0077217226 0.019971205 -0.09647654 0.068103954
0.005158941 -0.10973431 0.029735578 0.02453508 -0.083178416 0.03142983 0.00035538437 0.058608416
-0.016274348 0.0051262532 -0.061477985 -0.0018600819 0.028617509 0.018350927 0.03880696 -0.11003735
-0.032531857 -0.19004992 0.08263577 -0.08011038 -0.038343567 -0.047778063 -0.021536537 -0.033435684
-0.020103088 -0.13529773 -0.038248144 -0.033752814 -0.028215295 -0.00018792102 -0.046313915 0.058537465
0.0019670813 0.008168122 0.049659673 0.06726031 0.03817596 -0.0104842745 -0.14862669 0.07214924
0.061034426 0.042293128 0.007576143 0.059011977 0.03343427 -0.006790787 -0.08294962 -0.043406285
0.060900744 0.04919008 0.014020724 0.04978586 -0.011007264 0.026077472 -0.068282634 -0.026841452
-0.019763483 -0.02503008 0.02706832 -0.0036246688 -0.0987699 -0.05508502 -0.08262269 0.05247304
0.020097721 -0.0030850908 0.033988833 0.0031283814 -0.056688443 -0.036761273 0.031764407 0.039172042
0.014787107 0.02782907 -0.033953007 0.021459358 0.015486816 0.030807437 0.046602495 0.049860507
0.014977913 0.014490239 -0.049039457 0.005918402 -0.15144579 0.03125662 0.031062052 -0.037814323
-0.03075629 -0.051633023 -0.00827787 0.017480362 0.021855628 0.027958315 0.05285215 0.02039776
0.026947588 -0.108905144 -0.085210524 -0.0023869511 -0.08316949 -0.05972711 -0.010895129 -0.23204026
-0.0033556812 -0.013955458 -0.015464041 -0.038393885 -0.04569321 0.031284515 -0.019479172 0.0020260736
0.018618034 -0.016029969 0.017785328 -0.049456883 0.034895606 0.04315457 0.035619266 3.541541e-05
-0.027497012 0.02710349 -0.048730828 -0.035805542 -0.24044983 -0.025288044 0.007441176 0.049563717
0.0057046046 -0.2650722 -0.079909034 -0.04736371 -0.06453494 0.013449104 0.020573067 -0.07478435
0.059436243 0.05421282 0.025141196 -0.014653919 0.00021028005 -0.016289992 0.045373518 0.0036167486
-0.025837205 -0.0009693354 -0.070047915 -0.3096836 -0.13929185 0.057314176 -0.023174722 -0.001034874
0.06366589 -0.043012865 0.013257868 0.063272886 -0.1726227 -0.020082494 0.0049617253 -0.034187548
-0.010671251 -0.06471752 -0.19327551 -0.028752903 -0.08650682 0.07279462 0.064552024 -0.027274378
-0.050224762 -0.023337727 0.026893996 0.03438099 0.0076989694 -0.088919096 0.089719884 0.0023848182
-0.13597606 0.022727061 -0.15173447 0.019757781 -0.052413646 -0.09322609 -0.013413059 0.015518073
-0.04002166 -0.09145383 0.021810032 -0.0218636 -0.026242752 -0.052788235 -0.039940726 -0.020602683
0.06883721 -0.004977131 -0.16567907 -0.024764502 -0.1659172 0.003842874 0.07392929 -0.02614171
0.05229377 -0.052856673 0.091495655 0.0021194522 -0.06777432 0.04986166 -0.015524268 0.0342953
-0.05982652 -0.026296154 0.024586128 0.016760554 -0.02150375 -0.029633217 0.029912628 0.01597365
0.009060017 0.023881054 0.039424714 0.07680893 0.025975324 -0.08403092 -0.037483413 -0.009285723
-0.03788436 -0.039742902 -0.07935819 -0.0025251426 -0.06315817 0.069451004 -0.056137435 -0.050463304

net.6.weight f4 [2, 256]
00000000: a4ef 11bb bf58 85bd 5a26 6dbb f45f 4bbb
00000010: 775b 85bd 06cf 83ba 76e2 67bb adbe 5c3a
00000020: 43f3 98ba 16e2 be3d a425 1539 1733 b2ba
00000030: 2863 113c e5fa 80bb 47d0 87bd ef31 acbb
00000040: a95b 8fba dea2 b5ba 536c c6b9 2670 1c3a
00000050: a3bc 893a 5983 3dbb 45c0 29bb e04f 5a3b
00000060: b35c a5ba e1bf 2a3d a027 db38 a230 caba
00000070: b2f4 96ba 0fc0 b1bd c419 0e3a 17d8 08bb
00000080: a660 b8bc 4381 b1ba df76 a13b 8375 3fbb
00000090: 4d4d debc 4749 02bb 6987 303b 8c90 693d
000000a0: 933a 84ba e380 283d a176 ff3a 0c26 21bb
000000b0: d26c 01bb bc5f 3bbb 1312 613a e0b1 283b
000000c0: ccbe 8736 4aa0 17bc d871 053b ad29 33b9
000000d0: b4a1 ed39 b41b 3dbb 1d38 a4b9 760b 203b
000000e0: adf8 5db9 ee71 44ba 5d8e 5f3b f407 ad3a
000000f0: c20c 883b a4e2 6a3a e3eb 643c db34 693a
00000100: 7c3d 463a 6a36 553a 48fc fe39 3c8a ccba
00000110: 84bd d73a 3de1 123b 5a41 0b3d c8e3 263b
00000120: f02f a3ba 671d 063a 0cb8 9a38 a19f f0bb
00000130: d145 9639 c6e4 e839 45de 193c 02a8 34bd
00000140: 786e 9239 d828 0b3b 5323 5cba d299 86bb
00000150: 84e4 5bbb 5c91 ea3a 36a9 983a 4094 163b
00000160: 8b34 03bb ebdb 393b 04d7 933a 01d5 673a
00000170: 520b 743a c7be 31bb 3878 8bba 4eab 6d3b
00000180: 34ed 0a3d 71ab 33bb c9d2 98b9 2bbd 523b
00000190: 33a6 0a3a 8c7d a93a 8f1e c43a 629e 26b7
000001a0: 1356 f13a d227 333b c2ae 0fbb fd14 373a
000001b0: c2bc 893d 1f85 673b 0625 6c3a d0b9 38bb
000001c0: 4ca3 c539 632c 043b 78f2 013b b7c6 06bb
000001d0: ecab 7ebd a429 0abb 62b7 183b 6758 02bb
000001e0: 6fa9 583a ca28 233d 370b 823c 72fa b23a
000001f0: d00e 3e3d 7d89 18bb 4800 04bb 4a8e 533d
00000200: 9117 91ba c866 6e3a 0df8 fdba 84f5 e43c
00000210: 9d46 d939 23af 73ba 61d1 573a e7b0 bb3a
00000220: 8d9b 113b 1e62 0ebb 6432 3ebd 44bb 683a
00000230: 145c d53a aefd 233b 598e 123a bf39 243b
00000240: f50f a6b9 bf46 6539 2ad9 5e39 2dc4 ceba
00000250: a972 523d b440 a83c 01b1 3f3b b458 22bb
00000260: ceaf cf3a 9e98 773d dc8e d9bc 6d73 06bb
00000270: e1d9 38bb 6041 00b8 137a 093b 9f4c 003d
00000280: 5f0a 5b3a 9255 eeb9 49d3 733a ad7f cebc
00000290: 27d6 973d 685c 3bbb baac ce39 b978 023b
000002a0: 67b6 823b e9ee a33a 34fb 1ebd 407b 3b3d
000002b0: cc82 813b 1de0 a5ba 7a78 ee3a ebb5 fd39
000002c0: 014b 4e3a 3abd e6bc 4735 86b8 2ecc ebba
000002d0: c6ba 273d 2a5d c63a dd17 573a 09db 2c3b
000002e0: 6a1b 35bb 7552 e73a 6902 c13c 86cd 4e3b
000002f0: 69ad 543b 680c 49b8 53fc 34bb 1e05 2cbd
00000300: faec 18bb 3949 723b 06c8 6bba c3de 0c3a
00000310: 1202 bf38 0a1c 903c f51e e9b9 6b45 5539
00000320: 84f6 bd3c 1fac 0e3b 87c9 a53d fd48 54ba
00000330: 1cfa 1dbc 6400 fa3c fc41 ceb9 0658 07bb
00000340: f31a 1339 7ba4 993a c8a8 09bb b096 503b
00000350: f32b a739 06df 0e3c 744f 8dbd ce43 c43a
00000360: 29d0 8cb9 c097 d5ba c1df 60bd 4e61 ff3a
00000370: ea03 9f3b 504f 963a ff42 efba 055f 9bbc
00000380: 235d 58ba 4e4d 03be e012 4738 9ffa 0ebb
00000390: 6cef 13bb f6b3 8c3a 14ff 243a d87e 373b
000003a0: 5d51 38bd 63d0 0c39 ca76 773a 4cfb 5dba
000003b0: d66a 07bb da9e e3ba fc67 c7b9 d47c cf3a
000003c0: de23 9bbb 0888 463b 9cb4 2bba 5bfa 5e3a
000003d0: 7c19 a9bc 6897 8e3c 9a99 bdbd 8f80 e03a
000003e0: 9357 32bb 9d71 8b3b 0735 f4b8 534e a53b
000003f0: a2b5 cc39 1945 ec39 753d 3bb8 fb58 d23b
-0.002226808 -0.065110676 -0.003618619 -0.0031032534 -0.06511586 -0.0010056205 -0.0035382784 0.0008420747
-0.0011669177 0.09320466 0.0001422377 -0.0013595548 0.008873738 -0.003936159 -0.066315226 -0.005254976
-0.0010937351 -0.0013857742 -0.0003784621 0.0005967639 0.0010508489 -0.00289174 -0.0025901955 0.003331177
-0.0012616127 0.041686896 0.000104501145 -0.0015425871 -0.0011517017 -0.086792104 0.00054207095 -0.0020880753
-0.022507023 -0.0013542551 0.0049275006 -0.002921433 -0.02713647 -0.0019880102 0.002693618 0.057022616
-0.0010088257 0.04113854 0.001949031 -0.0024589328 -0.00197487 -0.0028590998 0.0008585762 0.0025740787
4.045525e-06 -0.0092545245 0.0020362046 -0.00017086296 0.0004532464 -0.0028855624 -0.00031322325 0.0024420894
-0.00021168841 -0.00074937835 0.0034111955 0.0013201223 0.0041519115 0.00089601637 0.013972255 0.00088961207
0.00075622625 0.00081334135 0.0004863462 -0.0015605162 0.0016459678 0.0022412085 0.03399787 0.0025465358
-0.00124502 0.00051160756 7.377574e-05 -0.007343248 0.00028662247 0.00044420938 0.009391372 -0.044105537
0.00027929596 0.0021234062 -0.00083975977 -0.0041076923 -0.0033552954 0.0017896104 0.0011647108 0.0022976547
-0.0020020332 0.002835984 0.001127929 0.0008843691 0.0009309548 -0.0027121769 -0.0010640686 0.0036265436
0.03391762 -0.002741542 -0.00029148746 0.003215621 0.0005289048 0.0012931093 0.001496272 -9.931247e-06
0.0018412493 0.0027336967 -0.0021924232 0.00069840235 0.06725456 0.003532715 0.00090082025 -0.0028186925
0.00037696434 0.0020168058 0.001982836 -0.002056522 -0.062175676 -0.0021081949 0.0023302664 -0.0019889118
0.00082649937 0.03983382 0.015874488 0.0013654961 0.046400845 -0.0023275309 -0.002014177 0.05164937
-0.0011069645 0.0009094295 -0.0019376293 0.027949102 0.00041442076 -0.0009295812 0.0008232799 0.0014319689
0.002221796 -0.0021725963 -0.046434775 0.00088780024 0.0016278052 0.002502303 0.00055906695 0.0025058833
-0.00031673876 0.00021865497 0.0002125247 -0.0015775018 0.05137888 0.020538665 0.002924979 -0.002477211
0.001584524 0.06044828 -0.026557378 -0.0020515576 -0.0028206038 -3.0578463e-05 0.0020977303 0.03132307
0.00083557324 -0.00045458652 0.00093011983 -0.025207365 0.07413893 -0.0028589014 0.00039420073 0.0019908382
0.003989029 0.0012507114 -0.038813785 0.045771837 0.00395236 -0.0012655292 0.0018193864 0.0004839146
0.0007869453 -0.028166402 -6.3995416e-05 -0.0017989927 0.040949605 0.0015133966 0.0008205155 0.0026375672
-0.0027634748 0.0017648475 0.02356072 0.0031555607 0.0032451993 -4.793369e-05 -0.0027616217 -0.041997068
-0.0023334608 0.0036969914 -0.00089943444 0.000537377 9.107975e-05 0.017591495 -0.00044464288 0.00020339123
0.023188837 0.0021770073 0.08095079 -0.00080980343 -0.00964215 0.030517764 -0.00039340544 -0.0020651831
0.00014029052 0.0011721993 -0.0021005142 0.0031828098 0.00031885467 0.008720165 -0.0689992 0.0014973821
-0.00026857972 -0.0016295835 -0.05490089 0.0019483955 0.0048527615 0.0011467729 -0.0018254219 -0.018966207
-0.00082536245 -0.12822458 4.7462876e-05 -0.0021816862 -0.0022573126 0.0010734785 0.0006294113 0.0027999189
-0.04499947 0.0001342907 0.0009440003 -0.0008467927 -0.0020663044 -0.0017366067 -0.00038033712 0.0015830048
-0.0047345003 0.0030293483 -0.0006550045 0.0008505934 -0.020642035 0.01740618 -0.09257813 0.0017128157
-0.0027212843 0.004255487 -0.00011644704 0.0050447374 0.0003904524 0.0004506491 -4.464151e-05 0.0064192987

net.6.bias f4 [2]
00000000: ee0c 89bd c21e 8b3b
-0.06691919 0.00424561
