moons/cfm/models/2000_model.pt (torch, 535780 bytes, 8 tensors)

net.0.weight f4 [256, 3]
-0.18893598 0.25365406 -0.16091833 -0.63734454 0.26170233 -0.3840166 0.51080143 0.2030429
0.37459272 0.29937682 0.27298275 0.35965464 -0.24755946 -0.4616552 0.531753 0.50204355
-0.12599404 0.37919915 0.4635968 -0.06436489 0.070925385 -0.27569404 0.17719638 0.1630797
-0.27693295 0.27056527 0.28415036 -0.0117642945 -0.14203426 -0.5124894 0.05964558 -0.51011825
0.12913255 -0.052938294 -0.30243382 -0.46654403 0.20065463 -0.44951683 -0.44378483 0.032277245
0.1340756 -0.3932198 -0.28355628 -0.14872548 -0.48691565 -0.1911253 -0.022389933 0.12426
-0.032605622 0.43089527 0.017111275 -0.6537206 0.52061254 -0.28227443 0.15416154 0.031411912
-0.17260063 -0.4682514 -0.37240174 0.1467054 -0.10514377 0.271138 -0.018024793 -0.32345605
-0.07672507 0.56371933 -4.2028347e-05 -0.20513321 0.57661444 0.18370152 0.2446218 -0.17261277
-0.5255709 0.4118617 0.27446315 0.06665101 0.55939037 0.5450075 -0.606934 0.20834139
0.14734171 -0.07077619 0.24142562 -0.59403026 -0.52913046 -0.49163994 -0.026628297 -0.20590098
0.07626625 0.16175905 -0.2036952 -0.28139395 -0.062662825 0.5100173 -0.6471562 -0.11545349
-0.45392048 -0.0041935532 -0.44101244 0.16353592 0.07804676 -0.2119618 -0.39616525 -0.3476896
0.022020191 0.13428992 0.04580753 0.12004622 -0.14354905 0.08771406 -0.16506824 0.582107
0.63290334 -0.54361224 0.43731 0.4948981 0.480354 -0.07294741 -0.25736168 0.40638098
-0.25207072 0.5110105 -0.3957805 0.13548301 -0.12615182 0.21088737 -0.4139763 -0.24937929
0.02091888 0.33781797 -0.59160036 0.47672686 0.16144012 -0.45767644 0.076640375 -0.5475113
0.37054732 0.15804107 -0.09058304 0.29624945 -0.007657909 -0.091602 -0.47616586 -0.28326318
-0.62153417 0.5748809 0.3655857 -0.28023165 -0.2768152 -0.18858483 -0.58536625 -0.19324252
-0.17858967 -0.5277886 0.64890224 -0.51369333 -0.037166886 0.15851174 0.5995576 -0.4547285
-0.09319861 -0.16482167 -0.19336331 0.09504905 -0.46822816 -0.15646859 0.4650039 0.32208127
0.47429168 -0.14439242 0.0009614471 0.15021923 0.22095262 -0.07442071 0.119080335 -0.010071125
0.0019741787 -0.40924472 0.39453155 -0.5138642 -0.22999024 0.07216016 0.34816495 0.28316152
0.17945443 -0.44928256 0.24454264 0.3648169 0.42113602 0.5342979 -0.39796114 0.39702305
0.2861745 0.5101713 0.26194143 0.40873247 0.3867075 0.45518997 -0.21648303 0.3935503
-0.37746617 -0.62932795 0.55888784 0.21828607 0.3535422 -0.45283538 0.36044115 -0.4533175
-0.19713709 -0.09388811 -0.22545303 0.32434264 0.53365815 0.2777387 -0.10406914 -0.08130274
-0.21801136 -0.16592823 -0.13235109 0.46118364 -0.23663686 0.21599337 0.013287093 -0.18537246
-0.33414426 -0.4017884 0.24327777 0.28958422 -0.37676412 0.20790468 -0.42714947 -0.25197956
-0.18685839 0.23457912 0.54115075 0.44521165 -0.16190438 0.1896244 0.2688917 0.51790166
0.25055704 -0.35069808 0.45703134 0.5973141 -0.2839083 0.31076333 0.1252189 -0.41015685
0.5225065 -0.13307808 0.4921966 0.35833043 0.05174902 0.48499298 0.5889431 0.29125413
00000000: 6f78 41be f2de 813e c6c7 24be 0329 23bf
00000010: d9fd 853e d39d c4be e2c3 023f 7aea 4f3e
00000020: 9eca bf3e eb47 993e 65c4 8b3e a724 b83e
00000030: 3a80 7dbe 125e ecbe f720 083f ed85 003f
00000040: 9504 01be 6426 c23e 8f5c ed3e bdd1 83bd
00000050: 5441 913d c527 8dbe f872 353e 5dfe 263e
00000060: 28ca 8dbe 8887 8a3e 287c 913e 07bf 40bc
00000070: 6e71 11be 8132 03bf ec4e 743d 1c97 02bf
00000080: 533b 043e d3d5 58bd 9bd8 9abe dcde eebe
00000090: 6878 4d3e 1227 e6be c437 e3be 2535 043d
000000a0: 1d4b 093e 1b54 c9be 4a2e 91be 7e4b 18be
000000b0: 024d f9be 5ab6 43be 186b b7bc 077c fe3d
000000c0: 798d 05bd 4e9e dc3e f22c 8c3c 3c5a 27bf
000000d0: dd46 053f 4686 90be 86dc 1d3e c7a9 003d
000000e0: 38be 30be a6be efbe 71ab bebe f139 163e
000000f0: 9e55 d7bd 9ad2 8a3e bba8 93bc 089c a5be
00000100: 0922 9dbd e94f 103f 9847 30b8 710e 52be
00000110: 019d 133f 401c 3c3e 237e 7a3e 67c1 30be
00000120: d18b 06bf 89df d23e 6f86 8c3e 5380 883d
00000130: 3534 0f3f 9d85 0b3f 0760 1bbf 7257 553e
00000140: bfe0 163e 1bf3 90bd 4738 773e 5e12 18bf
00000150: 1875 07bf 3bb8 fbbe 9623 dabc b5d7 52be
00000160: 7b31 9c3d 2aa4 253e 7995 50be de12 90be
00000170: 5e55 80bd 7e90 023f 07ac 25bf e172 ecbd
00000180: 4468 e8be 136a 89bb 62cc e1be f675 273e
00000190: fbd6 9f3d 840c 59be 2cd6 cabe 5f04 b2be
000001a0: b063 b43c 4c83 093e ada0 3b3d cbda f53d
000001b0: 86fe 12be 6ea3 b33d a607 29be f704 153f
000001c0: f405 223f 2c2a 0bbf 19e7 df3e 4963 fd3e
000001d0: f6f0 f53e 7465 95bd e9c4 83be 2b11 d03e
000001e0: 6a0f 81be 96d1 023f bea3 cabe 0fbc 0a3e
000001f0: f12d 01be dcf2 573e b4f4 d3be 495d 7fbe
00000200: 125e ab3c 7af6 ac3e 1f73 17bf 8b15 f43e
00000210: 8f50 253e 9154 eabe a1f5 9c3d b329 0cbf
00000220: 61b8 bd3e 85d5 213e 9a83 b9bd 02ae 973e
00000230: 32ef fabb d499 bbbd 03cc f3be df07 91be
00000240: dd1c 1fbf 652b 133f 0d2e bb3e 867a 8fbe
00000250: b9ba 8dbe 621c 41be 90da 15bf 5ee1 45be
00000260: 36e0 36be 271d 07bf 751e 263f 6881 03bf
00000270: 4e3c 18bd e750 223e 9b7c 193f 2dd2 e8be
00000280: eade bebd 03c7 28be 0801 46be 14a9 c23d
00000290: 9abb efbe 4d39 20be fe14 ee3e d6e7 a43e
000002a0: 5cd6 f23e 9bdb 13be 9f09 7c3a 12d3 193e
000002b0: 6741 623e e369 98bd 64e0 f33d 5c01 25bc
000002c0: 3961 013b 8688 d1be 0a00 ca3e 9b8c 03bf
000002d0: 9082 6bbe b5c8 933d ad42 b23e 8cfa 903e
000002e0: e7c2 373e 5d08 e6be 6369 7a3e 48c9 ba3e
000002f0: 249f d73e bfc7 083f 90c1 cbbe 9b46 cb3e
00000300: 7785 923e 969a 023f 301d 863e 6245 d13e
00000310: 87fe c53e a90e e93e baad 5dbe 6d7f c93e
00000320: 3f43 c1be a31b 21bf 4613 0f3f 6286 5f3e
00000330: 7c03 b53e 0ada e7be be8b b83e 3b19 e8be
00000340: 4ede 49be 6948 c0bd 29dd 66be 3d10 a63e
00000350: d29d 083f c433 8e3e 3422 d5bd 0d82 a6bd
00000360: 5f3e 5fbe 17e9 29be 0b87 07be 4320 ec3e
00000370: ef50 72be 5e2d 5d3e 1bb2 593c 47d2 3dbe
00000380: f514 abbe 36b7 cdbe cf1d 793e 6244 943e
00000390: 3ae7 c0be f7e4 543e 56b3 dabe 7703 81be
000003a0: ce57 3fbe 8235 703e db88 0a3f c8f2 e33e
000003b0: 43ca 25be e62c 423e 2cac 893e 3495 043f
000003c0: 0349 803e b38e b3be 0300 ea3e 94e9 183f
000003d0: 6e5c 91be 5f1c 9f3e 6239 003e 1400 d2be
000003e0: fcc2 053f 9f45 08be 3101 fc3e 1677 b73e
000003f0: c8f6 533d 0051 f83e fac4 163f 431f 953e

net.0.bias f4 [256]
-0.29336995 0.25290546 0.24454989 -0.4294455 0.36599654 -0.03836051 0.28427044 -0.56341887
-0.5722684 0.23508014 0.5204251 0.23580731 0.5851771 -0.53051186 0.43614998 0.11352795
0.17581855 0.24466537 0.25108382 0.562024 0.5424795 0.21707627 0.5055269 -0.29539767
0.40143687 0.55774546 0.31288588 0.53355974 0.24483112 0.38379762 -0.34171143 -0.5869483
0.33974835 0.024836548 0.4041553 -0.16007137 0.32942796 -0.4749831 -0.28060576 -0.041407797
-0.43864715 0.22044009 -0.0012058191 -0.45735708 -0.5292288 -0.0055412855 0.37345073 0.61770403
-0.5156044 0.03363702 0.054275878 0.08682383 -0.4438799 -0.0028805623 -0.009862423 -0.012786379
0.26860958 -0.043337543 0.08351862 -0.51071644 0.34679872 0.31484318 0.090819016 -0.08893246
-0.10269287 0.26678914 0.3028483 -0.45901912 -0.5422383 0.49244273 0.061060026 0.2350946
-0.12868534 -0.099902816 0.18231316 -0.04132121 0.31594864 -0.19572441 -0.14322095 0.2739314
0.15431337 -0.08827563 0.41606382 -0.23180813 -0.6452387 0.36355478 0.4369974 -0.25889477
-0.4940587 0.6576074 -0.074672915 0.54133487 -0.5397713 0.27761832 0.47811887 0.38885438
-0.52724195 0.19295336 0.13564588 0.09903031 0.03356709 -0.2484621 0.42295408 -0.24371915
0.54032874 0.11468199 0.24107747 -0.44757795 -0.15937845 -0.06753537 0.35939333 0.029871853
0.14285426 0.18374363 -0.37633327 0.38300794 0.031079484 -0.06995036 -0.020949138 0.11438026
-0.3374567 0.40087825 0.3540238 -0.5010778 0.07475845 0.07775917 -0.5656095 0.51916474
0.49670196 -0.3377525 0.037002686 0.2781304 0.2676343 -0.34571314 0.064715095 0.33302084
0.24525411 -0.3918898 -0.3228918 0.24057515 0.19033772 -0.006789512 0.15895677 -0.42148113
0.4435609 0.40638736 -0.43289277 -0.11911883 0.32523406 -0.32015315 0.013126551 0.037390556
-0.56147224 -0.19401386 -0.4059879 -0.20487715 0.4242561 0.31001106 -0.071449004 -0.44955203
0.3429438 -0.34281293 0.40950027 -0.46622592 0.19232969 0.007940236 0.18674333 -0.4990686
0.2984132 -0.18606341 -0.5650825 0.1341379 -0.4226003 -0.35441518 0.4174989 -0.03215358
0.09413278 0.13098638 -0.059149414 -0.5486363 0.5041053 -0.36494368 0.5465908 -0.17844005
0.035309862 0.40965855 -0.15623063 -0.13373256 0.03139676 0.15693238 -0.6090769 -0.3905113
0.09005415 -0.07373286 0.12863503 0.4939386 -0.3284346 0.42363545 0.13720563 0.39584804
-0.43153945 0.051963393 0.10608064 -0.47798035 0.48697114 -0.42971683 0.5341775 0.041595098
0.4687131 -0.48555666 -0.28040656 0.21558003 0.36686277 0.27916846 -0.480068 0.047956087
-0.02870567 0.25980797 -0.508794 -0.32463598 -0.31635684 -0.361797 0.10403859 -0.35744083
0.01721538 0.58030605 -0.21730185 -0.5138231 -0.11930758 0.6351655 0.26853275 -0.13503668
0.515428 0.23530851 0.49121383 -0.52099454 0.060503885 -0.47658136 -0.07284023 -0.47249967
-0.16507797 0.22753163 0.12535907 -0.6067229 -0.024800966 0.3589926 0.29550025 -0.15121423
-0.26155242 -0.372957 0.18355964 0.3337568 0.108797684 -0.45168647 -0.19221163 -0.47229728
00000000: 9634 96be d37c 813e 496b 7a3e 48e0 dbbe
00000010: e663 bb3e e91f 1dbd e58b 913e 383c 10bf
00000020: 2f80 12bf d9b8 703e 943a 053f 7977 713e
00000030: 2bce 153f a0cf 07bf 0d4f df3e 5881 e83d
00000040: c709 343e 8f89 7a3e 0f8e 803e cee0 0f3f
00000050: f0df 0a3f 3e49 5e3e 366a 013f 5d3e 97be
00000060: 2289 cd3e 68c8 0e3f 9432 a03e 5f97 083f
00000070: 02b5 7a3e 1f81 c43e cdf4 aebe 3e42 16bf
00000080: 7ff3 ad3e 0476 cb3c 72ed ce3e c0e9 23be
00000090: c8aa a83e fc30 f3be 8fab 8fbe 399b 29bd
000000a0: 5c96 e0be 0cbb 613e 930c 9eba b52a eabe
000000b0: 8a7b 07bf ac93 b5bb ef34 bf3e da21 1e3f
000000c0: a6fe 03bf f9c6 093d 6250 5e3d b1d0 b13d
000000d0: 3a44 e3be d1c7 3cbb 0096 21bc f67d 51bc
000000e0: 3287 893e b582 31bd cf0b ab3d 50be 02bf
000000f0: 9a8f b13e 2033 a13e 52ff b93d 3922 b6bd
00000100: a450 d2bd 9698 883e ef0e 9b3e 8e04 ebbe
00000110: 21d0 0abf 7421 fc3e 141a 7a3d a4bc 703e
00000120: 17c6 03be d999 ccbd 4db0 3a3e 6e40 29bd
00000130: 05c4 a13e fb6b 48be 83a8 12be bd40 8c3e
00000140: 5304 1e3e dac9 b4bd 5106 d53e 1c5f 6dbe
00000150: 5d2e 25bf da23 ba3e 20be df3e db8d 84be
00000160: 43f5 fcbe f558 283f 1dee 98bd ec94 0a3f
00000170: 742e 0abf fd23 8e3e ffcb f43e ec17 c73e
00000180: 54f9 06bf 9195 453e c1e6 0a3e 67d0 ca3d
00000190: a57d 093d d96c 7ebe 708d d83e 8391 79be
000001a0: fc52 0a3f 64de ea3d 03dd 763e f028 e5be
000001b0: 1b34 23be fc4f 8abd 6702 b83e d1b5 f43c
000001c0: 6348 123e 4a27 3c3e c1ae c0be 9e19 c43e
000001d0: 679a fe3c 2242 8fbd 879d abbc 3340 ea3d
000001e0: 20c7 acbe ea3f cd3e 9c42 b53e a246 00bf
000001f0: f51a 993d 3340 9f3d c9cb 10bf fbe7 043f
00000200: b84f fe3e e5ed acbe 2190 173d 1c67 8e3e
00000210: 5d07 893e 5001 b1be 5989 843d b581 aa3e
00000220: e523 7b3e c8a5 c8be 1352 a5be 5559 763e
00000230: e4e7 423e 8e7a debb 90c5 223e 60cc d7be
00000240: 6a1a e33e 0112 d03e 1fa4 ddbe 93f4 f3bd
00000250: 1485 a63e 1deb a3be bf10 573c d726 193d
00000260: a5bc 0fbf 92ab 46be a5dd cfbe 51cb 51be
00000270: 1838 d93e c5b9 9e3e db53 92bd af2b e6be
00000280: 5496 af3e 2d85 afbe 05aa d13e 2ab5 eebe
00000290: 13f2 443e c317 023c a539 3f3e eb85 ffbe
000002a0: 9dc9 983e 6887 3ebe 3fa9 10bf 725b 093e
000002b0: 115f d8be e875 b5be 6ac2 d53e 79b3 03bd
000002c0: b0c8 c03d 4b21 063e a846 72bd 6e73 0cbf
000002d0: 0c0d 013f e6d9 babe 60ed 0b3f fdb8 36be
000002e0: 13a1 103d c4be d13e ecfa 1fbe 30f1 08be
000002f0: e499 003d e2b2 203e 77ec 1bbf 19f1 c7be
00000300: 4f6e b83d 4101 97bd e7b8 033e 85e5 fc3e
00000310: 9428 a8be bfe6 d83e a27f 0c3e 98ac ca3e
00000320: bdf2 dcbe 91d7 543d ce40 d93d d7b9 f4be
00000330: 4854 f93e d803 dcbe dbbf 083f 9f5f 2a3d
00000340: 2afb ef3e e29a f8be 7391 8fbe 03c1 5c3e
00000350: 70d5 bb3e 2bef 8e3e 79cb f5be 9a6d 443d
00000360: 2728 ebbc 8d05 853e 5340 02bf b036 a6be
00000370: 86f9 a1be 753d b9be 2f12 d53d 7c02 b7be
00000380: 4507 8d3c f08e 143f 6084 5ebe e989 03bf
00000390: 8857 f4bd 359a 223f 207d 893e 0e47 0abe
000003a0: 17f3 033f b7f4 703e 6180 fb3e e65f 05bf
000003b0: ecd2 773d 7902 f4be 422d 95bd 7aeb f1be
000003c0: 330a 29be 0dfe 683e 215e 003e 3152 1bbf
000003d0: 652b cbbc e1cd b73e cf4b 973e e7d7 1abe
000003e0: 33ea 85be 38f4 bebe 0ff7 3b3e 2ce2 aa3e
000003f0: 52d1 de3d 7343 e7be 20d3 44be f3d0 f1be

net.2.weight f4 [256, 256]
-0.041950032 0.08162463 0.031966385 0.030611308 -0.048467945 0.034100816 0.030702328 -0.018407395
0.031122489 -0.07646052 -0.04128921 -0.003428623 -0.020428184 -0.040148776 0.012796616 -0.043674223
-0.0033869608 -0.0095794685 0.03009998 -0.018832872 0.0049843453 -0.05421494 0.057615142 -0.0772426
0.006952506 -0.009225591 0.014624597 0.011130931 -0.0026487627 -0.026540129 -0.048396047 0.0017177324
0.03141905 -0.005729326 0.04752259 -0.03637473 -0.009494777 0.015188916 0.03093037 -0.033704467
0.06426946 0.011067849 0.0625518 0.029360864 0.033337902 -0.039049122 0.02599973 -0.043304652
0.05339663 0.07506055 0.058322467 0.04945371 0.0078025707 0.02986061 0.014719113 0.018143583
0.05977383 -0.06198639 0.033471264 0.041511968 0.0013447662 0.033012714 0.062438685 0.07815085
-0.049031697 0.012299322 -0.008676591 0.030170646 0.04257924 -0.042326387 -0.01634303 -0.04643377
0.031812385 0.073706314 0.044448346 -0.029620033 -0.014229429 -0.029927105 0.014507776 0.0016557786
-0.038804766 0.07126851 -0.024822176 0.06892732 -0.05836192 -0.037554003 -0.024690775 -0.021718774
-0.049142357 0.041906465 0.01515332 0.046746016 0.018250171 0.017895551 0.03315579 0.00484403
-0.04944296 -0.018247696 -0.014353124 -0.039004005 0.015831925 -0.062340636 0.06324117 0.05750704
0.04000473 0.0046485565 0.001466718 0.07016894 -0.0039881137 0.065824665 0.022442045 0.08244333
-0.0011064745 0.056367867 -0.010272547 -0.02815647 -0.054619875 -0.019636923 -0.02609264 -0.049344335
0.059514757 0.047440644 0.07330481 -0.037483282 0.027689952 -0.017077347 0.036774084 0.02440045
0.041786347 -0.031677704 -0.030783683 -0.038385686 -0.014145029 0.048045482 -0.02272319 0.037027422
-0.034572504 -0.011364547 -0.05133997 0.09179106 0.051836547 -0.010842817 0.0776218 -0.03756652
0.012923143 -0.025484333 -0.04016291 -0.059067436 0.035451706 0.014467471 -0.05070548 -0.007920973
-0.0039141863 0.07788642 -0.032203645 0.04933277 -0.022808889 -0.04504147 0.030455256 0.0743329
0.033468377 0.0075181928 -0.0290819 0.051375523 -0.023497831 0.04977848 0.057173874 -0.0145952115
0.0513704 -0.027902918 0.016301991 0.017653713 -0.021982756 0.013539886 0.07194357 -0.041421395
-0.015286686 -0.013870999 -0.032653235 0.006095255 0.023230046 0.026121238 0.07079755 0.07744118
-0.0042433646 0.010757965 0.0353607 0.02468918 -0.03752524 -0.018524494 0.0011267832 0.07529372
0.06233362 0.019849509 -0.013132993 -0.052618895 0.003670346 -0.024645073 -0.019398417 0.044302084
0.038480233 -0.008074787 -0.05303018 0.043364312 -0.03694985 0.06427038 0.07100757 0.044396047
0.05682691 0.021924678 0.047674693 -0.03215394 -0.016349034 -0.031430062 -0.006393364 -0.0065335208
0.0019641924 0.058513165 0.042863466 -0.03833216 -0.016611848 0.030367985 0.06472561 0.014213393
-0.022057388 0.0018424104 0.04801981 -0.0012164714 0.050762195 0.027519722 0.014790738 0.00055772404
0.066322304 0.06879012 0.022817388 0.026612988 0.042239025 0.064080335 -0.03638485 -0.023530463
0.02176841 0.024673788 0.052136194 0.020882137 -0.003974739 0.030531753 0.07276547 0.046012945
0.04334601 0.00610713 0.018720254 -0.06643896 0.07575593 0.033047207 0.013836315 0.017564796
00000000: ccd3 2bbd d02a a73d 2fef 023d 91c4 fa3c
00000010: 5386 46bd 4cad 0b3d 7383 fb3c 1bcb 96bc
00000020: 97f4 fe3c 5597 9cbd e01e 29bd c0b2 60bb
00000030: 0259 a7bc 0b73 24bd e6a8 513c bee3 32bd
00000040: c6f7 5dbb 34f3 1cbc 3c94 f63c 6547 9abc
00000050: b853 a33b 7c10 5ebd dbfd 6b3d 5e31 9ebd
00000060: d9d1 e33b ef26 17bc 019c 6f3c 825e 363c
00000070: dd96 2dbb af6a d9bc ef3a 46bd 8925 e13a
00000080: 43b1 003d 12bd bbbb 0ca7 423d abfd 14bd
00000090: fb8f 1bbc eeda 783c b061 fd3c b20d 0abd
000000a0: b59f 833d ec55 353c 281b 803d 3286 f03c
000000b0: 538d 083d f9f1 1fbd 63fd d43c 3860 31bd
000000c0: 6db6 5a3d 58b9 993d 8ae3 6e3d f98f 4a3d
000000d0: b5ac ff3b 3d9e f43c 6f28 713c daa1 943c
000000e0: 67d5 743d 71e5 7dbd 2a19 093d 7408 2a3d
000000f0: de42 b03a 5738 073d b5bf 7f3d 8e0d a03d
00000100: 76d5 48bd 1883 493c 4328 0ebc 6e28 f73c
00000110: 9267 2e3d 6f5e 2dbd d1e1 85bc 5631 3ebd
00000120: b44d 023d 56f3 963d 780f 363d b6a5 f2bc
00000130: 8d22 69bc b029 f5bc 06b2 6d3c b606 d93a
00000140: bff1 1ebd 39f5 913d e057 cbbc c429 8d3d
00000150: e90c 6fbd 3ad2 19bd 4f44 cabc 92eb b1bc
00000160: 7f49 49bd 1da6 2b3d a145 783c c078 3f3d
00000170: 6281 953c b199 923c 5ece 073d abba 9e3b
00000180: b484 4abd 317c 95bc 5e29 6bbc aac2 1fbd
00000190: f4b1 813c e558 7fbd 9684 813d 818c 6b3d
000001a0: 00dc 233d eb52 983b e43e c03a bcb4 8f3d
000001b0: b9ae 82bb 15cf 863d 61d8 b73c 0cd8 a83d
000001c0: 2007 91ba fee1 663d 2f4e 28bc 66a8 e6bc
000001d0: 17b9 5fbd 9ddd a0bc 3bc0 d5bc 491d 4abd
000001e0: bfc5 733d 1f51 423d d520 963d 1288 19bd
000001f0: 0ad6 e23c cbe5 8bbc 6ca0 163d 74e3 c73c
00000200: 2928 2b3d 7bc0 01bd 102e fcbc 4f3a 1dbd
00000210: 8dc0 67bc 57cb 443d fc25 babc 11aa 173d
00000220: e69b 0dbd 5d32 3abc dc49 52bd f4fc bb3d
00000230: 8f52 543d 12a6 31bc 2ef8 9e3d 5adf 19bd
00000240: 97bb 533c 85c4 d0bc dd81 24bd b2f0 71bd
00000250: cf35 113d f908 6d3c 8db0 4fbd f8c6 01bc
00000260: 9342 80bb ea82 9f3d f8e7 03bd 2911 4a3d
00000270: b5d9 babc 687d 38bd 4d7d f93c d93b 983d
00000280: 2316 093d 2c5b f63b 2a3d eebc 246f 523d
00000290: 867e c0bc 85e4 4b3d 272f 6a3d c120 6fbc
000002a0: c569 523d a994 e4bc c18b 853c 859e 903c
000002b0: 2e15 b4bc 66d6 5d3c 2757 933d 7ba9 29bd
000002c0: 0275 7abc 3043 63bc 66bf 05bd b4ba c73b
000002d0: f04c be3c 35fc d53c 4efe 903d 7b99 9e3d
000002e0: ec0b 8bbb 2d42 303c 62d6 103d f740 ca3c
000002f0: 11b4 19bd aec0 97bc 92b0 933a 9833 9a3d
00000300: 8a51 7f3d 709b a23c c42b 57bc e986 57bd
00000310: 308a 703b 77e4 c9bc 6ee9 9ebc 1a76 353d
00000320: 739d 1d3d 1d4c 04bc 2d36 59bd c79e 313d
00000330: ba58 17bd 30a0 833d 6b6c 913d a1d8 353d
00000340: 55c3 683d 629b b33c 8a46 433d dab3 03bd
00000350: 69ee 85bc cfbc 00bd 6d7f d1bb 2517 d6bb
00000360: aeb9 003b 80ab 6f3d 9a91 2f3d 2f02 1dbd
00000370: 9215 88bc 48c6 f83c dc8e 843d 4bdf 683c
00000380: b2b1 b4bc 097d f13a 6cb0 443d 0272 9fba
00000390: 05ec 4f3d 0a71 e13c da54 723c 3a34 123a
000003a0: fdd3 873d d6e1 8c3d 88eb ba3c 7b03 da3c
000003b0: d402 2d3d 8d3c 833d 4808 15bd f5c2 c0bc
000003c0: aa53 b23c af20 ca3c c38c 553d 0411 ab3c
000003d0: 873e 82bb ba1d fa3c 1006 953d 1278 3c3d
000003e0: 968b 313d 521e c83b 385b 993c 2611 88bd
000003f0: ed25 9b3d 825c 073d b6b1 623c 0ce4 8f3c

net.2.bias f4 [256]
0.06742456 0.020012224 -0.031410076 0.019277137 0.03280959 -0.049144786 -0.07149868 -0.037787847
0.04845133 0.063499264 0.021267373 -0.0229053 0.04497829 0.04312925 -0.012733042 0.020175725
0.022903003 0.03237502 -0.0038751492 -0.07067279 -0.0197205 0.019583093 -0.034401998 -0.027488938
0.02843653 0.031908266 -0.028259886 -0.051789854 0.007210959 -0.0028952067 -0.018545955 -0.027933598
-0.012619837 0.066958085 -0.067114525 0.014819348 0.0011095102 0.048498284 0.06496443 0.020343699
-0.04620899 -0.044619355 0.0483585 -0.0421385 0.012260608 0.070651375 -0.011997898 0.0028009864
-0.02030204 -0.023316925 0.008403681 -0.055950716 -0.032516826 -0.041436814 -0.05182106 0.02300527
-0.03129386 -0.024092594 0.017384252 -0.02604338 0.045063585 -0.033224273 -0.058951795 -0.045462474
-0.03633926 0.0059599807 0.045677815 -0.0064694555 0.048186496 0.03433317 -0.014783973 -0.031542953
-0.027135253 0.037322123 -0.018579356 -2.5810092e-05 -0.037955653 0.038142588 0.056172926 0.03151034
-0.05397437 0.020951035 -0.003252104 0.045663677 -0.057346463 0.051737662 -0.03142685 0.035363432
-0.06358143 -0.065628976 -0.12234199 -0.04533171 -0.008802536 0.04582565 -0.058919188 0.019510128
0.02758614 0.03890983 0.023314528 -0.053365905 0.031425595 0.043888617 6.873641e-05 -0.04057884
0.020836782 0.017897159 0.028817657 -0.047993775 -0.061403595 0.0004130978 -0.010523884 0.021894936
0.012246046 -0.026664017 -0.046639584 -0.02205092 0.046743426 -0.042215675 0.024639316 0.043825623
0.021726625 -0.031852845 -0.04668816 0.024452854 0.033898924 0.016887758 -0.05715274 -0.042465232
0.004918553 0.009041226 -0.041422967 0.03291376 -0.055361982 0.030679122 -0.064530805 0.056398977
-0.0129820015 0.036694463 0.04979131 0.0043558744 0.06664167 0.016006457 0.041567046 0.040956732
0.06228678 -0.0015898444 -0.067011215 -0.054172657 0.07270747 0.051491547 0.023728468 0.022793218
0.0058795707 -0.02351901 0.054284137 0.037862215 -0.051992845 -0.046635278 -0.09118924 0.06301399
0.013119608 0.062102225 0.04130525 -0.05486895 -0.033063367 -0.018052993 -0.037479527 -0.030658904
0.035158344 -0.014798182 0.029489452 0.026464429 -0.0025400454 -0.01637301 -0.00041357015 -0.08345256
-0.042242356 -0.029798694 -0.005479681 -0.0046144216 0.01395895 -0.0049600205 0.039014556 -0.0075753895
-0.0008250661 0.0038468614 -0.06711561 -0.068653636 0.016462948 -0.042503096 0.0055255415 0.05445885
0.03307923 0.05940179 0.03644296 0.01817854 -0.041400753 -0.015332502 0.037388273 -0.012605573
-0.015066466 -0.06268392 -0.010419036 -0.048061505 0.033584822 -0.012196456 -0.044158213 -0.018125568
0.055972926 0.061309382 -0.099207535 -0.0037363411 -0.041938093 -0.033019792 0.062366683 0.027762858
-0.06371891 0.010063585 -0.05520169 0.0209615 0.01135838 0.011386558 0.042308886 0.055701874
-0.023358071 0.038471222 0.034922298 0.012576317 -0.018813914 -0.07079862 -0.05697894 -0.011494756
-0.052452184 -0.054533117 0.003282228 -0.029306252 -0.009493759 0.018279538 -0.049146086 -0.004141362
0.0010156236 -0.014088088 0.020904407 0.028548237 -0.017392747 -0.037297852 0.017400289 0.024991147
-0.035343383 -0.020980354 -0.083342336 -0.012390196 -0.05232658 -0.03913313 0.024659874 0.0031014062
00000000: e315 8a3d adf0 a33c daa7 00bd 16eb 9d3c
00000010: 5963 063d 0b4c 49bd e66d 92bd 6ec7 1abd
00000020: e774 463d e70b 823d ea38 ae3c e5a3 bbbc
00000030: 283b 383d 4ca8 303d 409e 50bc 9047 a53c
00000040: 149f bb3c ab9b 043d 37f6 7dbb e5bc 90bd
00000050: e38c a1bc b96c a03c 1ce9 0cbd 7b30 e1bc
00000060: baf3 e83c 3eb2 023d 4781 e7bc 9921 54bd
00000070: e949 ec3b 82bd 3dbb b0ed 97bc 00d5 e4bc
00000080: 6fc3 4ebc 5221 893d 5773 89bd dacc 723c
00000090: fc6c 913a 23a6 463d 120c 853d d4a7 a63c
000000a0: a345 3dbd c9c2 36bd 9013 463d 6b99 2cbd
000000b0: b8e0 483c abb1 903d d592 44bc c190 373b
000000c0: 7750 a6bc 2303 bfbc 98af 093c 942c 65bd
000000d0: 5d30 05bd a6b9 29bd 5242 54bd 8c75 bc3c
000000e0: fe2d 00bd d55d c5bc 6b69 8e3c ed58 d5bc
000000f0: 9894 383d 2d16 08bd 7077 71bd dc36 3abd
00000100: 7ad8 14bd f14b c33b a918 3b3d bafd d3bb
00000110: 345f 453d f0a0 0c3d 7a38 72bc 2f33 01bd
00000120: c04a debc 15df 183d bc33 98bc c082 d8b7
00000130: 6377 1bbd 673b 1c3d 9515 663d fc10 013d
00000140: 3b14 5dbd 81a1 ab3c 4021 55bb d609 3b3d
00000150: 20e4 6abd dfea 533d 71b9 00bd 3fd9 103d
00000160: fb36 82bd 7c68 86bd 708e fabd bead 39bd
00000170: 8338 10bc adb3 3b3d 3f55 71bd b4d3 9f3c
00000180: 54fc e13c ea5f 1f3d 1cfe be3c 3596 5abd
00000190: 20b8 003d 8dc4 333d 9426 9038 ff35 26bd
000001a0: e6b1 aa3c 109d 923c 0213 ec3c 1f95 44bd
000001b0: 5682 7bbd 0c95 d839 5e6c 2cbc 025d b33c
000001c0: a4a3 483c 7f6e dabc 2609 3fbd 22a4 b4bc
000001d0: 0976 3f3d 58ea 2cbd 64d8 c93c 7f82 333d
000001e0: 09fc b13c 2178 02bd 163c 3fbd 5a51 c83c
000001f0: 99d9 0a3d 3258 8a3c fe18 6abd 06f0 2dbd
00000200: d02b a13b a621 143c 21ab 29bd 94d0 063d
00000210: 3fc3 62bd c852 fb3c ba28 84bd 9d02 673d
00000220: 76b2 54bc ef4c 163d f9f1 4b3d b9bb 8e3b
00000230: 6e7b 883d f91f 833c 3542 2a3d 3fc2 273d
00000240: 6c20 7f3d 5362 d0ba 2d3d 89bd 26e4 5dbd
00000250: a7e7 943d cde8 523d 3462 c23c d8b8 ba3c
00000260: 6aa9 c03b f0aa c0bc 0b59 5e3d 6915 1b3d
00000270: 73f6 54bd a204 3fbd 6dc1 babd 7b0d 813d
00000280: a0f3 563c e75e 7e3d b22f 293d 44be 60bd
00000290: 746d 07bd dfe3 93bc 2284 19bd 6228 fbbc
000002a0: 3202 103d 1374 72bc dd93 f13c eecb d83c
000002b0: e476 26bb b120 86bc 72d4 d8b9 2de9 aabd
000002c0: 5206 2dbd 641c f4bc e58e b3bb 9334 97bb
000002d0: 14b4 643c ab87 a2bb bacd 1f3d f93a f8bb
000002e0: 4049 58ba a01b 7c3b e973 89bd 479a 8cbd
000002f0: 4edd 863c ba17 2ebd 9a0f b53b 3e10 5f3d
00000300: 167e 073d 4b4f 733d 3745 153d 29eb 943c
00000310: d693 29bd 2d35 7bbc 7224 193d 9b87 4ebc
00000320: 57d9 76bc 6d60 80bd 9bb4 2abc 24dc 44bd
00000330: 3d90 093d a5d3 47bc 3edf 34bd 127c 94bc
00000340: de43 653d 8c1f 7b3d 522d cbbd 67dd 74bb
00000350: 47c7 2bbd c33f 07bd 3574 7f3d ef6e e33c
00000360: 0f7f 82bd bce1 243c 2b1b 62bd 74b7 ab3c
00000370: 8018 3a3c b08e 3a3c 154c 2d3d a627 643d
00000380: 6d59 bfbc 0094 1d3d af0a 0f3d e60c 4e3c
00000390: a31f 9abc defe 90bd c062 69bd 8054 3cbc
000003a0: 1ad8 56bd 1e5e 5fbd a61a 573b aa13 f0bc
000003b0: b68b 1bbc f8be 953c 684d 49bd 43b4 87bb
000003c0: ac1e 853a b9d1 66bc b83f ab3c fedd e93c
000003d0: 3c7b 8ebc a2c5 18bd 0d8b 8e3c 3cba cc3c
000003e0: 39c4 10bd fede abbc 63af aabd 4000 4bbc
000003f0: 6554 56bd 104a 20bd 8103 ca3c f640 4b3b

net.4.weight f4 [256, 256]
0.029050102 -0.026420016 -0.056407213 -0.068776436 0.013018459 0.041398868 0.04884839 0.029774778
0.042793 0.034260333 -0.0063258237 0.016664438 -0.028704844 -0.012305498 0.0060667275 0.018035902
0.0089259865 0.0074010077 0.053058513 0.011257404 -0.04654185 0.023417477 -0.03219371 -0.0021065238
0.032744706 0.013991084 0.027527153 0.020288153 0.042341787 -0.047361303 0.08061773 0.0006082821
-0.024078464 0.0039835917 -0.064876385 0.014326874 -0.0068558315 -0.027701158 0.015147527 0.01643685
-0.008693868 0.04990905 -0.076941065 -0.055092104 -0.059526544 -0.0029426452 -0.038151238 -0.019225053
0.05423286 0.06770635 0.04762131 -0.04605275 0.004236166 -0.0107888235 0.018837407 -0.025445405
0.028826777 -0.0149654215 -0.030074814 0.009399715 0.025831124 0.034407485 -0.003738696 0.07002137
-0.030611727 -0.0605873 -0.025773106 0.013498423 0.011666377 0.033876844 -0.011327027 -0.0029805233
0.067459084 -0.038544193 0.0131217865 -0.045343082 -0.06064373 0.058718123 0.044273864 0.035220414
-0.0074959663 -0.024422728 0.03992643 -0.029184332 -0.069037914 -0.0070492704 0.071099214 -0.027827263
0.0731592 0.031777535 -0.06608559 0.061294153 0.0014746212 0.009487643 -0.06025103 -0.015029264
0.026928388 -0.024877906 -0.046757273 -0.021915952 0.02641966 -0.03058236 0.030123414 -0.034084868
0.022228202 0.056300767 0.024343818 0.012644693 -0.045533992 0.07907572 -0.02563707 0.024740584
-0.048602536 -0.034386434 0.056740206 -0.032988932 0.026604932 0.03311467 0.04873387 0.003997321
0.030156583 0.008759215 -0.055197902 0.011273246 -0.050541315 0.012792577 -0.0030514658 0.059927326
-0.026193233 -0.036011323 -0.02173329 -0.016444826 0.009575076 0.002478784 0.030031504 -0.0047577466
-0.009868929 0.033832315 -0.023826467 -0.04601628 -0.062073376 -0.0055042007 -0.057327617 -0.037216447
-0.0068963114 0.0241216 -0.014690025 -0.019360332 -0.05616417 0.057261236 0.0458659 0.07958267
-0.013719493 -0.015679218 -0.010214592 0.026919626 0.038603686 -0.01159903 -0.05130537 -0.014494152
-0.017056528 -0.003646883 0.0067398753 -0.03637512 0.00025900823 0.035887454 -0.051919725 -0.010848273
0.0646567 -0.011657514 -0.03293938 0.02433494 -0.022792932 0.041166175 -0.021240856 -0.028471015
0.06528974 -0.05311071 -0.047245894 -0.008982562 -0.026892394 -0.03892136 -0.050690223 -0.032967858
-0.03509984 -0.003334739 0.043060347 -0.018027965 0.023698885 -0.025175214 -0.037812617 -0.04057217
-0.018825954 -0.047874473 -0.054027185 0.058534645 -0.03130111 0.027788736 0.03883616 0.013604536
0.059017234 0.018529475 0.0070488392 0.02503024 0.015873555 0.03688706 0.011691278 0.027570361
0.054724254 -0.049053237 -0.026211236 0.0640693 0.010021375 0.051121444 0.014047102 -0.036211066
0.054328512 -0.010279635 -0.004527095 -0.055658348 0.010595396 0.033242997 0.01815323 0.0013120454
0.010635811 -0.0035064076 0.038047615 0.059903152 -0.06493794 0.023188157 0.03510262 0.004180321
0.041218977 0.0051095206 -0.047407687 -0.043728463 -0.0012629762 0.00537844 0.0135709075 -0.010442151
-0.01065727 -0.022743471 0.04402882 0.0104727745 0.039340176 0.017871005 -0.061515614 0.05135377
0.048545703 0.024539806 0.03733942 -0.019328991 -0.022282079 0.02895049 0.06551678 -0.022382844
00000000: 7bfa ed3c ca6e d8bc 400b 67bd a9da 8cbd
00000010: 604b 553c dc91 293d 4015 483d 3cea f33c
00000020: b647 2f3d 9054 0c3d db48 cfbb dc83 883c
00000030: 6c26 ebbc 009d 49bc 66cb c63b 07c0 933c
00000040: 4d3e 123c 2784 f23b e253 593d fa70 383c
00000050: aba2 3ebd 02d6 bf3c 8ddd 03bd 9b0d 0abb
00000060: 501f 063d dc3a 653c a080 e13c 5733 a63c
00000070: 956e 2d3d edfd 41bd e91a a53d 1f75 1f3a
00000080: 3340 c5bc ca88 823b e9dd 84bd 44bb 6a3c
00000090: e2a6 e0bb 8aed e2bc 552d 783c 93a6 863c
000000a0: ba70 0ebc 6f6d 4c3d 4793 9dbd 42a8 61bd
000000b0: 1bd2 73bd 65d9 40bb 7944 1cbd dc7d 9dbc
000000c0: 4723 5e3d a0a9 8a3d 900e 433d cfa1 3cbd
000000d0: 89cf 8a3b 9bc3 30bc e850 9a3c e272 d0bc
000000e0: 2226 ec3c 8731 75bc 755f f6bc 4301 1a3c
000000f0: cb9b d33c ddee 0c3d e904 75bb 5d67 8f3d
00000100: 72c5 fabc 642a 78bd 1f22 d3bc 7d28 5d3c
00000110: 5524 3f3c 72c2 0a3d ff94 39bc e254 43bb
00000120: fd27 8a3d 84e0 1dbd c3fc 563c abb9 39bd
00000130: 8f65 78bd 6a82 703d 8358 353d 4843 103d
00000140: b9a0 f5bb 2c12 c8bc e589 233d fb13 efbc
00000150: c063 8dbd 91fd e6bb 779c 913d 00f6 e3bc
00000160: 7ed4 953d 2929 023d e257 87bd 940f 7b3d
00000170: 1448 c13a 0f72 1b3c c9c9 76bd 4d3d 76bc
00000180: ec98 dc3c c0cc cbbc 8e84 3fbd 1589 b3bc
00000190: 0b6e d83c dc87 fabc 61c5 f63c 939c 0bbd
000001a0: eb17 b63c a29b 663d b06c c73c b02b 4f3c
000001b0: da81 3abd 73f2 a13d d504 d2bc c4ac ca3c
000001c0: 7413 47bd cad8 0cbd 6b68 683d 671f 07bd
000001d0: 96f2 d93c 40a3 073d 2b9d 473d f5fb 823b
000001e0: f00a f73c cf82 0f3c 3217 62bd 6cb3 383c
000001f0: 6904 4fbd f597 513c 1afb 47bb 5b76 753d
00000200: 3193 d6bc 9c80 13bd 030a b2bc 4db7 86bc
00000210: c8e0 1c3c 1873 223b a104 f63c dfe6 9bbb
00000220: 4ab1 21bc c193 0a3d b92f c3bc 917b 3cbd
00000230: a740 7ebd 955c b4bb 5dd0 6abd 4670 18bd
00000240: 74fa e1bb a99a c53c 6eae 70bc 8f99 9ebc
00000250: 670c 66bd c28a 6a3d e2dd 3b3d 3dfc a23d
00000260: b9c7 60bc b471 80bc 1b5b 27bc 8c86 dc3c
00000270: e61e 1e3d dc09 3ebc 9425 52bd e178 6dbc
00000280: 22ba 8bbc 8b00 6fbb 2cda dc3b 14fe 14bd
00000290: 7fcb 8739 b9fe 123d c7a9 54bd f4bc 31bc
000002a0: bb6a 843d 28ff 3ebc 71eb 06bd 115a c73c
000002b0: 3eb8 babc dd9d 283d 4e01 aebc 0c3c e9bc
000002c0: a1b6 853d 9e8a 59bd e984 41bd 992b 13bc
000002d0: 704d dcbc 016c 1fbd 8da0 4fbd 4e09 07bd
000002e0: dac4 0fbd a38b 5abb 0c60 303d 62af 93bc
000002f0: 2a24 c23c 403c cebc 67e1 1abd 012f 26bd
00000300: e338 9abc 0618 44bd 9c4b 5dbd 06c2 6f3d
00000310: 9835 00bd 34a5 e33c aa12 1f3d 8fe5 5e3c
00000320: 0ebc 713d 20cb 973c f3f9 e63b 380c cd3c
00000330: 4209 823c e316 173d c68c 3f3c 3ddb e13c
00000340: 8a26 603d 0cec 48bd f2b8 d6bc c436 833d
00000350: b130 243c b864 513d d125 663c 0e52 14bd
00000360: 9387 5e3d ea6b 28bc 0658 94bb 02fa 63bd
00000370: 5098 2d3c cf29 083d 15b6 943c f0f8 ab3a
00000380: d341 2e3c c2cb 65bb d1d7 1b3d 025d 753d
00000390: 2ffe 84bd 17f5 bd3c c4c7 0f3d 13fb 883b
000003a0: 3bd5 283d c46d a73b 902e 42bd 9e1c 33bd
000003b0: 738a a5ba a03d b03b 8358 5e3c 8e15 2bbc
000003c0: d59b 2ebc 8450 babc 9057 343d 0096 2b3c
000003d0: 2a23 213d 3766 923c ccf7 7bbd 5558 523d
000003e0: dcd7 463d b407 c93c 38f1 183d d557 9ebc
000003f0: e888 b6bc 9429 ed3c a92d 863d 3a5c b7bc

net.4.bias f4 [256]
-0.050634656 -0.043593425 -0.019766282 -0.04455648 -0.042956207 0.07307706 -0.023964752 -0.0021672691
-0.036629535 0.0024484447 -0.025662558 0.039720163 0.003203628 0.01032699 0.026076762 0.049672652
-0.05463618 -0.0016261732 0.029342165 -0.043167353 -0.006008401 0.0051625716 -0.031533837 0.059363026
0.0061543765 -0.06378955 0.034370087 0.040229216 -0.04851771 0.03575725 0.055393994 0.07332729
0.040024042 0.015237718 -0.033155948 -0.010213241 0.039751556 0.02776798 0.042654082 -0.024231995
0.015228985 -0.07932781 0.07526842 -0.04939613 -0.049262147 -0.039450306 -0.032122873 -0.01211781
-0.023307981 0.022162423 -0.05270599 -0.03766511 -0.04213565 0.021643601 -0.047014404 0.039106075
-0.043327365 0.0048222328 0.047305547 0.07084158 0.022031408 -0.028132876 -0.00982763 0.074084416
0.050444912 0.052494645 -0.006891825 0.07232624 0.04671301 0.006826324 -0.038496446 -0.04572638
0.049851798 0.057189204 0.0041979537 0.05312252 -0.03959466 -0.014434027 -0.04160558 -0.005759008
-0.008547482 -0.01498163 0.042925697 0.0035407555 -0.053551294 -0.047930915 -0.07794198 0.04513144
0.023779571 -0.017916275 0.029678654 -0.019219287 -0.043730605 -0.02784118 -0.0010203742 0.05095447
0.010768541 0.042320207 -0.024135657 -0.011135031 -0.038503714 0.031210802 0.07402074 0.029925615
-0.0114099 0.005942748 -0.01978736 -0.018921297 -0.008294358 0.055276714 -0.013536617 -0.048238933
-0.042606074 -0.011480181 -0.0078064287 -0.0023032972 0.02399177 0.06524822 0.055917457 0.008089177
0.011179139 -0.065670446 0.03090255 -0.0039017326 -0.014164362 -0.053946882 -0.009806848 -0.050686326
-0.029105134 -0.04953518 -0.020458706 0.037715245 -0.06558793 0.0258669 0.0009228547 -0.0036346274
0.022769617 -0.04922204 -0.001701201 -0.05107232 0.03289717 0.007181505 0.00019608508 -0.003655312
-0.03966347 0.027961368 -0.037310675 -0.02782142 -0.10803058 0.04088708 -0.0067368424 0.039806575
-0.031606358 -0.05891124 -0.06007588 -0.05855658 -0.040722363 -0.0023474388 0.0064465585 -0.04335395
0.06641199 0.03783326 0.0008889199 0.006424592 0.040161435 -0.05105988 0.06298136 -0.0012588992
-0.041185964 0.029083725 0.007479524 -0.05046039 -0.10131719 0.032563135 -0.04726509 0.00974179
0.054084014 -0.06503467 0.0021813193 0.057908528 -0.073613815 -0.013391754 0.02255394 -0.03930016
-0.02698936 -0.06114072 -0.055704646 -0.04190297 -0.019031327 0.04653678 0.052914362 -0.027690101
-0.044384908 -0.03313375 0.016109036 0.0020252396 -0.0049948283 -0.002129492 0.07498978 0.012951571
0.014926031 0.0042954376 -0.08648896 0.025427094 -0.060096845 -0.040406656 -0.009181462 0.011957965
-0.032440316 -0.06770611 0.03387264 0.0057846135 -0.036738615 0.007556032 -0.0480482 -0.03907314
0.04574885 0.022123402 -0.059432074 -0.02204739 -0.076500274 -0.016459268 0.05733569 -0.039149392
0.029749354 -0.08038309 0.041247223 -0.01129247 -0.043259423 0.02463571 0.01166357 0.033053022
-0.063102074 -0.02941588 0.007977695 0.028551998 0.006953391 -0.04325842 0.030736167 0.00794295
-0.009345963 -0.0050930665 0.035079397 0.043101087 0.033577904 0.024820514 -0.047273293 -0.023800634
-0.035648268 0.038274482 -0.06650191 -0.022441087 -0.050464857 0.059779007 -0.073646635 -0.04646226
00000000: 4966 4fbd 058f 32bd e6ec a1bc db80 36bd
00000010: d9f2 2fbd 6da9 953d ba51 c4bc be08 0ebb
00000020: da08 16bd 1676 203b 493a d2bc 9cb1 223d
00000030: f5f3 513b 8932 293c ef9e d53c 8d75 4b3d
00000040: 30ca 5fbd 5125 d5ba fb5e f03c 40d0 30bd
00000050: 1fe2 c4bb ca2a a93b a029 01bd a526 733d
00000060: a7aa c93b 18a4 82bd a6c7 0c3d 64c7 243d
00000070: 82ba 46bd 3276 123d d0e4 623d 9e2c 963d
00000080: 40f0 233d 9fa7 793c 88ce 07bd 7055 27bc
00000090: 87d2 223d ad79 e33c 0cb6 2e3d 2d82 c6bc
000000a0: fe82 793c 9e76 a2bd 5426 9a3d 9953 4abd
000000b0: 1bc7 49bd a596 21bd 4693 03bd c789 46bc
000000c0: 61f0 bebc f88d b53c 3ce2 57bd bb46 1abd
000000d0: 6e96 2cbd ec4d b13c 2d92 40bd b12d 203d
000000e0: 0978 31bd d203 9e3b 76c3 413d 6415 913d
000000f0: 367b b43c eb76 e6bc 1104 21bc 92b9 973d
00000100: 539f 4e3d a004 573d d1d4 e1bb c81f 943d
00000110: 2456 3f3d 5baf df3b 73ae 1dbd 964b 3bbd
00000120: 6631 4c3d 3a3f 6a3d fd8e 893b 0097 593d
00000130: 032e 22bd b27c 6cbc 9d6a 2abd 10b6 bcbb
00000140: bd0a 0cbc 8375 75bc dbd2 2f3d 050c 683b
00000150: 9a58 5bbd 3553 44bd 0ba0 9fbd bfdb 383d
00000160: 60cd c23c 27c5 92bc a620 f33c c471 9dbc
00000170: dd1e 33bd 3013 e4bc 14be 85ba a2b5 503d
00000180: 896e 303c f457 2d3d 24b8 c5bc b46f 36bc
00000190: 12b6 1dbd ccad ff3c 3098 973d 9026 f53c
000001a0: 97f0 3abc 62bb c23b 1a19 a2bc d600 9bbc
000001b0: 0fe5 07bc d669 623d b0c8 5dbc 3096 45bd
000001c0: b583 2ebd 5e17 3cbc 12cd ffbb eaf2 16bb
000001d0: 638a c43c dca0 853d b409 653d 7888 043c
000001e0: b528 373c 3a7e 86bd 5827 fd3c 36b4 7fbb
000001f0: a411 68bc 68f7 5cbd e7ac 20bc 779c 4fbd
00000200: e46d eebc 67e5 4abd 0499 a7bc 4d7b 1a3d
00000210: f752 86bd d2e6 d33c bbeb 713a ee32 6ebb
00000220: 5987 ba3c 0d9d 49bd d5fa deba 3631 51bd
00000230: 2fbf 063d d552 eb3b 309c 4d39 f58d 6fbb
00000240: 2a76 22bd 3d0f e53c 14d3 18bd bfe9 e3bc
00000250: 233f ddbd 3679 273d bbc0 dcbb 380c 233d
00000260: ab75 01bd ea4c 71bd 2012 76bd 06d9 6fbd
00000270: 7ecc 26bd 7dd7 19bb a73d d33b e993 31bd
00000280: 0203 883d 0cf7 1a3d 6806 693a 6285 d23b
00000290: 5180 243d 2a24 51bd 5ffc 803d a601 a5ba
000002a0: 9db2 28bd fe40 ee3c cb16 f53b 8eaf 4ebd
000002b0: 637f cfbd ec60 053d 0a99 41bd 079c 1f3c
000002c0: 3387 5d3d e630 85bd 77f4 0e3b 7e31 6d3d
000002d0: d7c2 96bd 1669 5bbc 0ac3 b83c 34f9 20bd
000002e0: ca18 ddbc b16e 7abd 8e2a 64bd 73a2 2bbd
000002f0: 96e7 9bbc 5a9d 3e3d bbbc 583d 5ad6 e2bc
00000300: f3cc 35bd 41b7 07bd 19f7 833c e2b9 043b
00000310: a8ab a3bb f28e 0bbb 3e94 993d d332 543c
00000320: 508c 743c bec0 8c3b 2021 b1bd 7b4c d03c
00000330: 1c28 76bd 7381 25bd d86d 16bc 57eb 433c
00000340: 23e0 04bd 80a9 8abd 0abe 0a3d db8c bd3b
00000350: 3b7b 16bd 9798 f73b 30ce 44bd 280b 20bd
00000360: 2563 3b3d 233c b53c 0c6f 73bd ba9c b4bc
00000370: 2dac 9cbd 96d5 86bc d4d8 6a3d 1d5b 20bd
00000380: ebb4 f33c e49f a4bd d9f2 283d 0d04 39bc
00000390: cb30 31bd d4d0 c93c 8f18 3f3c 9b62 073d
000003a0: a93b 81bd 92f9 f0bc e1b4 023c e1e5 e93c
000003b0: 45d9 e33b be2f 31bd 6aca fb3c 2623 023c
000003c0: cf1f 19bc bde3 a6bb 6aaf 0f3d c48a 303d
000003d0: fc88 093d 6454 cb3c a4a1 41bd 8cf9 c2bc
000003e0: eb03 12bd b4c5 1c3d 2732 88bd 5fd6 b7bc
000003f0: 3db4 4ebd d5da 743d 0cd4 96bd 364f 3ebd

net.6.weight f4 [2, 256]
-0.012371841 -0.06373498 -0.00073870155 -0.02983421 -0.06196692 -0.041324355 0.0015488336 -0.0046374607
-0.055540536 0.043916326 0.00063674996 0.0071624424 0.030013515 0.01022585 -0.0630424 -0.05791106
0.0046965987 0.0007303526 -0.026041582 -0.03172697 -0.00027597998 -0.00038992977 -0.018952765 -0.022127734
0.032735642 0.05641388 0.0041012107 0.002993398 0.02681229 -0.061253075 0.06479216 -0.0018107318
-0.00015664274 -0.0061685564 -0.0080977855 -0.012398557 -0.0029663427 0.0004071107 0.0002668072 0.030374447
0.043838467 0.022956893 -0.015489605 0.04497294 0.0009847063 0.00039170566 -0.0014236654 0.0004032894
0.005260227 0.010214818 -0.001084656 0.052096516 0.00010725065 -0.009803193 0.018382842 -0.020032475
0.00010963859 9.1903494e-05 -0.0012259756 -0.010644573 0.0005636025 -0.047510345 0.038556676 -0.002995622
-0.0056389626 -0.024966866 -0.0018719203 0.00070745964 -0.0008019548 0.010114022 0.05028568 0.00029393422
-0.00034302063 -0.048512556 -0.0033080513 -0.020606909 0.013970845 -0.0007164088 0.049356587 -0.05914006
-0.039392076 -0.020967392 0.021160876 -0.009042501 -0.031540614 -0.00912977 0.034208436 -0.008420073
0.0069852555 6.793117e-05 0.046526533 -0.0014117552 0.024679534 0.0040489417 -0.0028922106 0.0010249738
0.06150789 0.0092780795 3.937359e-05 -0.012780165 -0.009216436 1.1841446e-05 -0.0011137748 0.001082745
0.002617339 -0.008684827 0.03158046 -0.0032734473 0.01603444 -0.0039157886 0.0003568514 0.02358561
0.00028848616 0.0007064545 0.02752491 -0.010482377 -0.0746692 -0.043977935 -0.016148923 0.0015735526
0.008086919 0.07200401 0.022103094 -0.033644628 0.06773192 0.05861766 0.041965708 0.028709589
-0.0021437067 0.0004897178 6.371057e-05 0.057031706 0.0026794611 9.113971e-05 0.001171817 -0.043653008
-0.00010677078 0.00036879873 -0.069364786 0.009585981 -0.029823728 0.0036732561 0.017574886 -4.0982704e-06
-0.00019744766 -0.008765219 -0.0026454148 0.032101233 0.066609845 0.052553564 -0.0018062751 -0.0024703068
-0.0006299276 0.0124332635 -0.029451208 0.027064921 0.045982096 0.012068721 -0.008839814 0.036070917
0.016168417 -0.0038300322 -0.018458461 -0.066793986 0.06278107 0.00013519774 -0.015359553 -0.0038498524
-0.002277044 0.00024300901 -0.01100562 0.002033984 0.056566894 -0.0015105795 -0.002045733 0.01292662
0.00016747645 -0.06729395 -0.04198909 -0.025810901 0.055829998 0.00085283414 5.918322e-06 -0.0018903988
0.00022631216 -0.005498143 0.025780449 -0.0098896 0.050530285 6.9792586e-06 -0.004466251 -0.052125655
7.343473e-05 -0.002077493 -0.004811912 0.00033851372 -0.00070244895 0.0639626 -0.0054743043 0.037433404
-0.004378456 -0.0027297814 0.04466028 -0.026720872 -0.030216085 0.06514414 0.028554082 -0.00073067995
-0.051224086 0.015903518 -0.01747974 -0.009231545 -0.009773105 0.08006203 -0.06774311 -0.03134286
0.00043052775 -0.043123268 -0.06832197 -0.00014531097 0.030664569 0.009392297 -3.665082e-05 -0.044479422
0.00018978721 -0.10954297 -0.006999384 -0.008860206 0.059402365 -0.008196938 0.011642119 -0.00074264593
-0.038052116 0.03466443 -0.0022572367 0.0030274717 0.0052088522 0.00016879667 0.017873732 -0.008890329
0.0028232126 -0.026099501 -0.062347613 -0.0008645948 -0.040624507 0.053425252 -0.049804274 -0.00051452237
0.02092184 -0.047093283 0.0608784 0.01084748 0.00038758168 -0.025138881 0.02845427 -0.03772207
00000000: 43b3 4abc 7c87 82bd 6ca5 41ba e066 f4bc
00000010: 06d1 7dbd ba43 29bd 3b02 cb3a d7f5 97bb
00000020: 797e 63bd 9be1 333d 91eb 263a ecb2 ea3b
00000030: e7de f53c 538a 273c 601c 81bd 2634 6dbd
00000040: ede5 993b 2275 3f3a 2855 d5bc 24f4 01bd
00000050: 68b1 90b9 7d6f ccb9 d442 9bbc 3945 b5bc
00000060: cf15 063d 3e12 673d 7363 863b e32c 443b
00000070: 73a5 db3c 81e4 7abd c1b1 843d 1456 edba
00000080: 7740 24b9 9a21 cabb 93ac 04bc 5123 4bbc
00000090: f966 42bb 7971 d539 42e2 8b39 d5d3 f83c
000000a0: f78f 333d 1810 bc3c 1dc8 7dbc 8c35 383d
000000b0: 4311 813a d85d cd39 499a baba 9670 d339
000000c0: fb5d ac3b 0d5c 273c 042b 8eba 2863 553d
000000d0: c1eb e038 929d 20bc 9d97 963c 251b a4bc
000000e0: c5ed e538 50bc c038 eab0 a0ba 9366 2ebc
000000f0: b9be 133a 359a 42bd 9bed 1d3d 3352 44bb
00000100: 0cc7 b8bb 5087 ccbc 395b f5ba d074 393a
00000110: 473a 52ba 48b5 253c 5bf8 4d3d 2f1b 9a39
00000120: 73d7 b3b9 1ab5 46bd e4cb 58bb d2cf a8bc
00000130: f9e5 643c 61cd 3bba 222a 4a3d d93c 72bd
00000140: 9659 21bd cfc3 abbc 9359 ad3c 0027 14bc
00000150: bb30 01bd 0895 15bc 251e 0c3d 59f4 09bc
00000160: 92e4 e43b 4576 8e38 9b92 3e3d a50a b9ba
00000170: bc2c ca3c fcac 843b 3e8b 3dbb 6a58 863a
00000180: b2ef 7b3d 1603 183c 1225 2538 e663 51bc
00000190: 8900 17bc a0aa 4637 15fc 91ba e5ea 8d3a
000001a0: a987 2b3b ce4a 0ebc 835a 013d 5587 56bb
000001b0: a85a 833c 0450 80bb c917 bb39 9c36 c13c
000001c0: f53f 9739 5c31 393a ec7b e13c 47be 2bbc
000001d0: 2aec 98bd 3522 34bd bf4a 84bc aa3f ce3a
000001e0: ff7e 043c d776 933d 8c11 b53c f3ce 09bd
000001f0: 08b7 8a3d 1219 703d 3ce4 2b3d 5f30 eb3c
00000200: 6e7d 0cbb 6860 003a 5a9c 8538 149a 693d
00000210: e699 2f3b 4222 bf38 a797 993a 7fcd 32bd
00000220: 20ea dfb8 545b c139 200f 8ebd 850e 1d3c
00000230: e450 f4bc 03bb 703b 35f9 8f3c e083 89b6
00000240: f409 4fb9 fe9b 0fbc b25e 2dbb 957c 033d
00000250: be6a 883d 6842 573d 89c0 ecba dfe4 21bb
00000260: ba21 25ba e3b4 4b3c a943 f1bc 41b7 dd3c
00000270: b957 3c3d e2bb 453c ded4 10bc 19bf 133d
00000280: a173 843c 4701 7bbb 3336 97bc 49cb 88bd
00000290: 5d93 803d dec3 0d39 a2a6 7bbc ce4d 7cbb
000002a0: 763a 15bb 3cd0 7e39 ea50 34bc 974c 053b
000002b0: b0b2 673d a3fe c5ba b411 06bb 2dca 533c
000002c0: 9e9c 2f39 69d1 89bd c1fc 2bbd 6271 d3bc
000002d0: ffad 643d bb90 5f3a 0096 c636 42c7 f7ba
000002e0: 354e 6d39 c429 b4bb 8531 d33c fd07 22bc
000002f0: d8f8 4e3d 602f ea36 a159 92bb b681 55bd
00000300: f800 9a38 8c26 08bb 3ead 9dbb 8b7a b139
00000310: 8d24 38ba d3fe 823d cb61 b3bb c553 193d
00000320: 2779 8fbb 22e6 32bb b3ed 363d bbe5 dabc
00000330: b987 f7bc 4a6a 853d 40ea e93c 1a8b 3fba
00000340: 59d0 51bd 1848 823c ac31 8fbc e83f 17bc
00000350: 601f 20bc 90f7 a33d e6bc 8abd 5f61 00bd
00000360: 75b8 e139 06a2 30bd 64ec 8bbd 9e5e 18b9
00000370: 4334 fb3c 26e2 193c 85b9 19b8 0e30 36bd
00000380: 9e01 4739 1158 e0bd 175b e5bb 662a 11bc
00000390: e54f 733d 734c 06bc 96be 3e3c 20ae 42ba
000003a0: 89dc 1bbd 4afc 0d3d 26ee 13bb 8c68 463b
000003b0: 05af aa3b 03ff 3039 ef6b 923c bea8 11bc
000003c0: a605 393b 9fce d5bc 3660 7fbd faa5 62ba
000003d0: e265 26bd 70d4 5a3d 91ff 4bbd 03e1 06ba
000003e0: 4764 ab3c e3e4 40bd a15b 793d a1b9 313c
000003f0: 5534 cb39 0ef0 cdbc ee18 e93c 7582 1abd

net.6.bias f4 [2]
-0.011066855 0.022552375
00000000: c151 35bc c2bf b83c
