moons/cfm/models/35000_model.pt (torch, 535856 bytes, 8 tensors)

net.0.weight f4 [256, 3]
-0.22217385 0.0813388 -0.044193033 -0.60859996 0.14391924 -0.4337116 0.26281327 0.21362054
0.25681597 0.25216636 0.29326102 0.45214087 -0.01929445 -0.18039784 0.33688506 0.44394723
-0.120628215 0.4102969 0.2848579 -0.074995376 -0.020239336 -0.46684292 0.14422286 0.19028875
-0.41142544 0.135704 0.28230807 -0.017821096 -0.20999631 -0.4598528 -0.036805116 -0.16548406
-0.13092144 -0.040103234 -0.24497025 -0.4474443 0.048577957 -0.34591427 -0.6582306 0.043800846
0.13614781 -0.119280115 -0.098544024 0.018972639 -0.59088224 0.0032873994 0.0027294992 -0.0016876971
-0.01634018 0.07517539 -0.21534319 -0.7701117 0.50462174 -0.35817513 0.083772376 0.02571927
-0.26036358 -0.43455815 -0.1699469 0.0030073419 -0.0987595 0.14307208 -0.12920764 0.0069622025
-0.007829185 0.112677015 -0.023606202 -0.09770539 0.11995134 -0.0042195707 0.0058866455 -0.0022577674
-0.65692484 0.22912191 0.121152654 0.08928685 0.34177592 0.38590306 -0.6691352 0.21641268
0.14342113 -0.08761749 0.25104317 -0.7538237 -0.49252802 -0.47390822 -0.24895369 -0.012134542
-0.009449146 -0.14415391 0.00067681243 -0.058773607 0.26389897 0.58283687 -0.45169035 0.12706104
-0.088934064 -0.001874928 -0.44761556 0.000117526346 0.0010980136 -0.015549077 -0.058613893 -0.10453034
-0.21798404 0.010719643 0.005523481 0.17223917 -0.106195964 -0.02774761 -0.40293452 0.66482407
0.8469736 -0.5075673 0.3643402 0.3789873 0.42274934 0.00612091 -0.070346355 0.4665029
-0.12438137 0.5289107 -0.18724084 0.0019916794 -0.0026915425 -0.00030934977 0.0016520984 0.0025830837
-0.002896525 0.3512665 -0.5871148 0.6037482 0.11140483 -0.5033435 0.27934366 -0.7864304
0.3774351 0.095570415 -0.046484653 0.00020650253 -0.21218179 -0.088936925 -0.30946782 -0.5286466
-0.7704029 0.5129352 0.37758785 0.00022065412 -0.001469378 -0.007907273 -0.6656077 -0.2160341
-0.18728806 -0.55394423 0.5235934 -0.5231221 -0.057324342 0.14392355 0.77149445 -0.25194314
-0.06509195 -0.13359337 -0.03868665 -0.0009569395 -0.29814395 0.014053765 0.01327766 0.18472381
0.26594356 -0.06736313 -0.039552778 -0.0015209176 -0.000512476 -0.001883003 0.0070524225 -6.835593e-05
0.0013661464 -0.649726 0.23392119 -0.41012108 0.0026512314 -0.0020003293 0.003984355 0.007359854
0.03226326 -0.44486403 0.005005072 0.03300636 0.28589457 0.6084675 -0.34439972 0.34925613
0.027782757 0.116960645 0.36043915 0.0065783123 0.056714267 0.21176353 -0.07572429 0.0470257
-0.4881215 -0.797971 0.55179054 0.25997195 0.43013203 -0.39323083 0.48973897 -0.31500763
-0.13497216 -0.19125919 0.006096455 0.036053903 0.3452529 0.03847621 0.009039462 -0.16252568
0.0027651791 -4.2079123e-06 -0.004227136 0.38610128 -0.17256403 0.29579073 -0.032166664 -0.09706734
-0.33883882 -0.26770177 0.07811729 0.15324977 -0.0954812 0.009702815 -0.48224252 0.017336914
-0.0834724 0.41928026 0.6461771 0.50921655 -0.100588046 0.042220976 0.16036889 0.379716
0.022852754 -0.010084954 0.247305 0.5907181 -0.29107454 0.36235443 0.013235288 -0.1711173
0.29410046 -0.02366185 0.1851176 0.5270186 0.01749529 0.46661472 0.6393331 0.09838408
00000000: 8b81 63be f594 a63d c103 35bd 35cd 1bbf
00000010: 915f 133e 720f debe 768f 863e 58bf 5a3e
00000020: 627d 833e f31b 813e 4f26 963e 027f e73e
00000030: 650f 9ebc 36ba 38be 337c ac3e 0d4d e33e
00000040: ed0b f7bd 6f12 d23e e5d8 913e 2d97 99bd
00000050: f7cc a5bc 0906 efbe 28af 133e 0edb 423e
00000060: 5ba6 d2be fdf5 0a3e af8a 903e 8cfd 91bc
00000070: 4609 57be d471 ebbe f6c0 16bd a774 29be
00000080: 4510 06be 4a43 24bd 7bd9 7abe 6b17 e5be
00000090: aef9 463d ad1b b1be cd81 28bf 8468 333d
000000a0: 556a 0b3e 2249 f4bd 73d1 c9bd 826c 9b3c
000000b0: 0f44 17bf 6971 573b 66e1 323b b835 ddba
000000c0: d7db 85bc 8ef5 993d ed82 5cbe 0a26 45bf
000000d0: e42e 013f bb62 b7be da90 ab3d 38b1 d23c
000000e0: 604e 85be 687e debe 8f06 2ebe d316 453b
000000f0: 6c42 cabd 7d81 123e 024f 04be 3023 e43b
00000100: fb45 00bc 35c3 e63d cb61 c1bc c319 c8bd
00000110: 0ca9 f53d 5344 8abb c3e4 c03b 0df7 13bb
00000120: 3a2c 28bf ef9e 6a3e e21e f83d 06dc b63d
00000130: 41fd ae3e 1695 c53e 724c 2bbf 499b 5d3e
00000140: fddc 123e cc70 b3bd bb88 803e 97fa 40bf
00000150: a22c fcbe 19a4 f2be b7ed 7ebe f5cf 46bc
00000160: 97d0 1abc 159d 13be 1d6c 313a 98bc 70bd
00000170: c41d 873e cc34 153f f543 e7be 4a1c 023e
00000180: 1023 b6bd 25c0 f5ba de2d e5be 7a78 f638
00000190: 39eb 8f3a 8ec1 7ebc 1f15 70bd 0114 d6bd
000001a0: 3537 5fbe 71a1 2f3c 51fe b43b 775f 303e
000001b0: 457d d9bd f54e e3bc 6f4d cebe e931 2a3f
000001c0: 43d3 583f eeef 01bf cc8a ba3e a00a c23e
000001d0: 9a72 d83e ea91 c83b c011 90bd 78d9 ee3e
000001e0: a9bb febd b166 073f 10bc 3fbe d686 023b
000001f0: 9764 30bb 3930 a2b9 398b d83a f448 293b
00000200: a0d3 3dbb 34d9 b33e 284d 16bf 3e8f 1a3f
00000210: 3728 e43d 1fdb 00bf 2206 8f3e 8153 49bf
00000220: 2c3f c13e 6cba c33d b166 3ebd 9a88 5839
00000230: 2f46 59be 9024 b6bd 9172 9ebe 6255 07bf
00000240: 2039 45bf b94f 033f 3253 c13e 645f 6739
00000250: 2598 c0ba 828d 01bc 4465 2abf 0b38 5dbe
00000260: 71c8 3fbe 4acf 0dbf 380a 063f 54eb 05bf
00000270: eecc 6abd b260 133e a980 453f b1fe 80be
00000280: ee4e 85bd b3cc 08be e575 1ebd 1fdb 7aba
00000290: 53a6 98be c341 663c 8b8a 593c 3d28 3d3e
000002a0: c129 883e aef5 89bd 1802 22bd 8759 c7ba
000002b0: af57 06ba 19cf f6ba 0218 e73b 4f5a 8fb8
000002c0: 4410 b33a 7154 26bf 0989 6f3e 64fb d1be
000002d0: 48c0 2d3b f517 03bb 318f 823b ee2a f13b
000002e0: 7b26 043d 38c5 e3be 9601 a43b ad31 073d
000002f0: c660 923e 87c4 1b3f 2955 b0be b3d1 b23e
00000300: aa98 e33c 1089 ef3d 7b8b b83e e28e d73b
00000310: 384d 683d 8ad8 583e 5615 9bbd 059e 403d
00000320: 10eb f9be d447 4cbf 2542 0d3f 0b1b 853e
00000330: 443a dc3e 8d55 c9be 11bf fa3e ae48 a1be
00000340: 2436 0abe 73d9 43be c5c4 c73b 42ad 133d
00000350: fdc4 b03e 3b99 1d3d 401a 143c 226d 26be
00000360: 0238 353b b131 8db6 c983 8abb 11af c53e
00000370: a0b4 30be e271 973e 31c1 03bd 3ecb c6bd
00000380: 487c adbe 3510 89be f5fb 9f3d 82ed 1c3e
00000390: a68b c3bd 8ef8 1e3c 7ee8 f6be 2506 8e3c
000003a0: 94f3 aabd e7ab d63e dd6b 253f 045c 023f
000003b0: 1b01 cebd e7ef 2c3d be37 243e 236a c23e
000003c0: b335 bb3c 5d3b 25bc 863d 7d3e 4d39 173f
000003d0: b907 95be 8586 b93e d2d8 583c 6039 2fbe
000003e0: 5694 963e 7fd6 c1bc 788f 3d3e b1ea 063f
000003f0: 4852 8f3c 20e8 ee3e 56ab 233f 987d c93d

net.0.bias f4 [256]
-0.21123123 0.3140908 0.05978018 -0.4904538 0.121117696 -0.1867586 0.18831643 -0.66876966
-0.6868718 0.3817134 0.3480097 0.37590095 0.62218845 -0.33861434 0.5067306 -0.0014450867
0.18863513 0.22499809 0.2880065 0.53382695 0.50499463 -0.06746942 0.043626837 -0.0013491936
0.31111845 0.43878916 0.31715903 0.6525641 0.14246249 0.12391465 -0.17103688 -0.56920433
0.35416776 0.01722761 0.22794272 -0.11041835 0.4639894 -0.3738591 -0.5037109 -0.23967378
-0.21427311 0.002218173 0.000120028126 -0.57309675 -0.5755394 -0.16316779 0.22942093 0.5918413
-0.5696665 0.007924384 0.136451 0.27410123 -0.5170892 0.10098171 0.22339824 -0.11399806
0.21594168 -0.00026323088 0.0036526746 -0.30699193 -6.4253676e-05 0.34726575 -0.13764368 -0.2735704
-0.22494012 -0.035993915 0.38842046 -0.4773172 -0.6269117 0.5415071 -0.19478735 0.17052688
0.0056452365 -0.19860171 0.30834302 -0.17269069 0.3836132 -0.29190162 -0.21640773 0.08774192
-0.14674453 -0.22182216 0.18301068 -0.32170773 -0.8182546 0.37279588 0.3188891 -0.1760574
-0.6514868 0.7001644 -0.060094383 0.4913355 -0.71482337 0.29015285 0.47800657 0.44783694
-0.5079513 0.2242463 -0.10917349 0.04072098 0.28956568 -0.26411316 0.44276223 -0.32283634
0.56574786 0.0011261888 0.21412212 -0.6440773 -0.24010165 0.010108064 0.5138979 -0.03454238
0.27007288 0.05122179 -0.59012794 0.3602596 0.113211535 0.061858986 -0.16422112 0.2987424
-0.45658824 0.2389568 0.102128044 -0.33300838 0.0008572673 -0.16754337 -0.6863948 0.41112855
0.0035078682 0.0023529497 0.0014876792 0.40248924 0.16336614 -0.28296956 0.14496392 0.1971856
0.044139743 -0.24207886 0.0024319082 0.33794504 -0.00010468558 0.0013283325 0.22430512 -0.33081782
0.42354497 0.30695936 -0.3888428 0.0030773107 0.41533443 -0.16205873 0.24866225 -0.14103071
-0.37704882 -0.35120392 -0.412536 -0.26768288 0.24854857 0.022389142 -0.18531294 -0.4677168
0.50430673 -0.18447746 0.53242564 -0.415318 0.19952725 -0.23825844 0.34010905 -0.5167849
0.28963396 -0.16536206 -0.56770664 0.0041329977 -0.528617 -0.44398582 -0.00096906174 -0.25113872
0.007072937 0.00050639926 -0.18859474 -0.26497534 0.52110296 -0.27683687 0.39165086 -0.08276074
0.18530996 0.57102215 -0.043725204 0.0041736257 0.0081667565 0.32945526 -0.7457751 -0.51387185
-0.05403299 -0.14140046 0.04970302 0.4405348 -0.4131417 0.5125305 0.19172692 0.15533394
-0.5485857 0.0010565303 0.26895607 -0.55205923 0.37180978 -0.3888651 0.61532354 -0.077141024
0.5297749 -0.56169176 -0.21840563 0.37171707 0.28871435 0.17217042 -0.6024661 -0.18002303
0.104655 -0.04200962 -0.38900086 -0.39435545 -0.4101479 -0.5289057 0.13863672 -0.5382595
0.15631066 0.645259 -0.1531984 -0.6708164 0.034212604 0.7408668 0.019582888 -0.18289983
0.14519162 0.42202416 0.48773682 -0.6596001 -0.1053112 -0.43450055 -0.15563214 -0.59751695
0.09961449 0.029908694 -0.01337088 -0.75522405 0.0006960662 0.26117286 0.2036524 0.00021489915
-0.3719017 -0.43559068 0.0058710035 0.31905508 0.16932152 -0.25081417 0.0071035055 -0.35600296
00000000: 004d 58be 82d0 a03e 10dc 743d c31c fbbe
00000010: 8e0c f83d a53d 3fbe 06d6 403e 7d34 2bbf
00000020: d5d6 2fbf f06f c33e 542e b23e 1776 c03e
00000030: be47 1f3f dc5e adbe 19b9 013f 1069 bdba
00000040: 9129 413e e665 663e 9775 933e e2a8 083f
00000050: 5447 013f 682d 8abd 0eb2 323d 6dd7 b0ba
00000060: eb4a 9f3e f9a8 e03e ab62 a23e 710e 273f
00000070: b0e1 113e f7c6 fd3d 4b24 2fbe 60b7 11bf
00000080: 7a55 b53e eb20 8d3c d169 693e 0423 e2bd
00000090: 0590 ed3e 766a bfbe 33f3 00bf 0b6d 75be
000000a0: 696a 5bbe c45e 113b 9cb7 fb38 78b6 12bf
000000b0: 8d56 13bf 7515 27be 52ed 6a3e e982 173f
000000c0: aad5 11bf 47d5 013c d0b9 0b3e ff56 8c3e
000000d0: f55f 04bf 80cf ce3d 82c2 643e d177 e9bd
000000e0: d11f 5d3e 4002 8ab9 b661 6f3b 0c2e 9dbe
000000f0: eebf 86b8 d1cc b13e 77f2 0cbe 6b11 8cbe
00000100: b456 66be 5b6e 13bd 0cdf c63e ec62 f4be
00000110: 497d 20bf 36a0 0a3f 5676 47be 999e 2e3e
00000120: adfb b83b 3f5e 4bbe 23df 9d3e d4d5 30be
00000130: f368 c43e 2174 95be fd99 5dbe 09b2 b33d
00000140: 3344 16be 5925 63be 2767 3b3e e0b6 a4be
00000150: 2279 51bf 1adf be3e 6f45 a33e 6448 34be
00000160: d7c7 26bf f93d 333f 8725 76bd 5490 fb3e
00000170: aafe 36bf ea8e 943e 47bd f43e e24a e53e
00000180: 1909 02bf d2a0 653e 5a96 dfbd 0bcb 263d
00000190: f441 943e d739 87be bbb1 e23e ce4a a5be
000001a0: dad4 103f a09c 933a d442 5b3e 40e2 24bf
000001b0: 35dd 75be 4b9c 253c d08e 033f 507c 0dbd
000001c0: fe46 8a3e f1cd 513d a012 17bf f273 b83e
000001d0: 73db e73d d95f 7d3d 9529 28be c4f4 983e
000001e0: efc5 e9be 17b1 743e 8228 d13d 1380 aabe
000001f0: 3cba 603a 7d90 2bbe 92b7 2fbf 717f d23e
00000200: 43e4 653b f233 1a3b 3bfe c23a 1213 ce3e
00000210: 7449 273e 63e1 90be 6c71 143e 06eb 493e
00000220: e0cb 343d 85e3 77be a660 1f3b 2207 ad3e
00000230: a58a dbb8 711b ae3a 3eb0 653e f460 a9be
00000240: e3da d83e c729 9d3e 6716 c7be b5ac 493b
00000250: b7a6 d43e b9f2 25be 51a1 7e3e 5b6a 10be
00000260: 8b0c c1be 00d1 b3be eb37 d3be bb0d 89be
00000270: 8483 7e3e 6f69 b73c adc2 3dbe 9478 efbe
00000280: 3f1a 013f a9e7 3cbe 0c4d 083f 90a4 d4be
00000290: df50 4c3e 05fa 73be c622 ae3e 044c 04bf
000002a0: e74a 943e ac54 29be 3955 11bf 196e 873b
000002b0: 7253 07bf 1c52 e3be a208 7eba 4195 80be
000002c0: 19c4 e73b e1bf 043a fb1e 41be d9aa 87be
000002d0: 0167 053f 90bd 8dbe 7686 c83e 767e a9bd
000002e0: e5c1 3d3e 822e 123f 3319 33bd e9c2 883b
000002f0: dccd 053c 5cae a83e 1eeb 3ebf 1b8d 03bf
00000300: b251 5dbd 48cb 10be 6595 4b3d c78d e13e
00000310: 4f87 d3be 3335 033f 1054 443e dc0f 1f3e
00000320: 1d70 0cbf 467b 8a3a 9cb4 893e c153 0dbf
00000330: da5d be3e 5419 c7be d885 1d3f 1dfc 9dbd
00000340: 549f 073f 08cb 0fbf baa5 5fbe b351 be3e
00000350: 5ed2 933e 714d 303e 383b 1abf f557 38be
00000360: 5c55 d63d 4812 2cbd 1f2b c7be f5e8 c9be
00000370: e8fe d1be 5d66 07bf c9f6 0d3e 60cb 09bf
00000380: e70f 203e b22f 253f 0be0 1cbe a0ba 2bbf
00000390: 8422 0c3d 72a9 3d3f 4b6c a03c 184a 3bbe
000003a0: 1dad 143e 8d13 d83e a4b8 f93e 8ddb 28bf
000003b0: 66ad d7bd db76 debe 085e 1fbe dff6 18bf
000003c0: af02 cc3d 1403 f53c 8911 5bbc 5d56 41bf
000003d0: 3678 363a 73b8 853e 418a 503e 8d56 6139
000003e0: e669 bebe be05 dfbe 8c61 c03b 305b a33e
000003f0: 9f62 2d3e b76a 80be 86c4 e83b 0546 b6be

net.2.weight f4 [256, 256]
-0.05299085 0.13653265 0.035131592 -0.0050815856 -0.087765105 0.1188541 0.049441587 -0.06151552
-0.006211823 -0.110472724 -0.08017176 -0.032767523 -0.100549504 -0.011316408 0.0754597 -0.0032263524
-0.002126194 0.02348651 -0.032704264 -0.08844932 0.036781415 -0.042149182 0.026415996 -0.03129401
-0.030891476 0.035361618 -0.034218643 0.040724553 0.0022600305 0.0033680375 -0.02359291 -0.03358788
0.11745124 0.009476948 0.07136641 -0.043782815 -0.0113899 -0.030593714 -0.0084378 -0.08826763
0.124142 0.00035615204 0.046605576 -0.0188219 -0.028479403 -0.027937805 0.06067944 -0.13142118
0.029639468 0.049153946 0.089515835 0.11837237 0.04912073 0.06174901 -0.014320381 -0.015959226
0.06350153 0.0016129228 0.009950885 0.017227663 0.016623234 -0.031325273 0.05735788 0.12772058
-0.077676386 0.02361285 0.009532724 0.010479954 0.0038958786 -0.07826184 0.0057025854 -0.09796894
-0.0012866242 0.124002516 -0.002380571 -0.028168663 0.059775405 -0.048734464 -0.031816483 0.053540904
-0.067100324 0.13848083 -0.07776418 0.083621986 -0.12178069 -0.12033249 0.022539502 -0.02132513
-0.06551083 0.009021318 -0.02125735 -0.0340891 -0.0917923 0.025841719 0.064172335 -0.034911178
-0.026355188 -0.03752222 -0.04385905 -0.10474445 0.056563843 -0.09625014 0.13618566 0.071680315
0.05218751 0.03129166 -0.062970124 0.13282965 0.033956237 0.16377096 0.084741145 0.037837625
-0.0015987046 0.110490724 -0.07454831 -0.09392944 -0.0997661 -0.07317042 -0.08629671 -0.050525893
0.056088105 0.08579786 0.052411973 -0.06296338 -0.024729963 -0.031033525 0.01113181 0.06533432
-0.007822887 -0.05944596 0.009716715 -0.036646713 0.045734465 -0.03205445 -0.05481388 0.055271063
-0.027542435 -0.07003658 -0.06290992 0.1554348 0.07094347 0.023773637 0.085353434 -0.063467465
-0.03647514 0.012984706 -0.062998645 0.02594892 0.045500975 0.053988777 -0.024711624 0.020471655
-0.050536923 0.061096124 -0.008554157 0.0040431097 -0.05185772 -0.13967331 0.090326004 -0.009748048
0.10429694 -0.03551876 -0.062690064 0.09048911 0.037616294 0.047579978 0.07071299 -0.049903
-0.0024285377 -0.05166648 0.08158785 0.019967055 -0.043285795 0.07034103 -0.00049459876 -0.05138154
-0.009971773 0.00011704148 -0.08386332 -0.0077316537 -0.021381712 0.054225348 0.10188898 0.04673153
-0.0038342427 -0.09084108 0.04530252 0.009567582 0.014179806 -0.04124869 -0.05913843 0.14577873
0.006549883 0.024427295 0.0013335315 -0.084727444 -0.0077843494 -0.09981892 -0.029755384 0.06651851
0.06419421 -0.048491944 -0.044234585 0.046470884 -0.051811088 0.055893805 0.08203718 0.027023837
0.0572084 0.009743655 0.02783287 -0.109252684 0.008843261 -0.039510567 -0.026678948 0.006685279
-0.020989785 0.04772332 0.0044858796 -0.021068502 -0.012839854 0.03647041 0.0656042 -0.008187475
-0.02266786 -0.050859276 0.10342761 -0.10996775 0.08002628 -0.020357903 -0.009614004 -0.022734271
0.008658361 0.0846552 0.011025595 -0.042902842 0.074981704 0.021041568 -0.0060153794 -0.019575644
0.03236191 0.044215433 0.015995027 0.04306601 0.05698391 0.07933771 0.12953827 0.0118094655
0.097256854 -0.005026554 0.009814383 -0.14051953 0.040481955 -0.0071271127 -0.022988249 -0.0062204297
00000000: ef0c 59bd 37cf 0b3e 25e6 0f3d 6e83 a6bb
00000010: 31be b3bd c769 f33d 4383 4a3d b3f7 7bbd
00000020: 8c8c cbbb 863f e2bd 1731 a4bd 3d37 06bd
00000030: e6ec cdbd 7568 39bc 9d8a 9a3d 3671 53bb
00000040: 9e57 0bbb c866 c03c e8f4 05bd eb24 b5bd
00000050: 1ca8 163d 9fa4 2cbd 5c66 d83c 262e 00bd
00000060: 1f10 fdbc 58d7 103d d928 0cbd cace 263d
00000070: 051d 143b 4bba 5c3b eb45 c1bc 7293 09bd
00000080: 478a f03d 3345 1b3c 8d28 923d 9c55 33bd
00000090: b49c 3abc ab9f fabc b33e 0abc a9c5 b4bd
000000a0: 293e fe3d ebb9 ba39 7de5 3e3d 6330 9abc
000000b0: a34d e9bc d3dd e4bc 018b 783d 4693 06be
000000c0: 78ce f23c a655 493d 1454 b73d 376d f23d
000000d0: d232 493d 88ec 7c3d 08a0 6abc ecbc 82bc
000000e0: 170d 823d b568 d33a 0909 233c 0721 8d3c
000000f0: 732d 883c ee4e 00bd 19f0 6a3d 2fc9 023e
00000100: cc14 9fbd bc6f c13c 242f 1c3c 1db4 2b3c
00000110: ff51 7f3b be47 a0bd c1dc ba3b f1a3 c8bd
00000120: f2a3 a8ba 08f5 fd3d 5b03 1cbb f8c1 e6bc
00000130: 0ed7 743d ca9d 47bd 0052 02bd b54d 5b3d
00000140: e56b 89bd ebcd 0d3e d442 9fbd 0142 ab3d
00000150: 2868 f9bd e170 f6bd c3a4 b83c 0ab2 aebc
00000160: 8b2a 86bd 26ce 133c e523 aebc 03a1 0bbd
00000170: 9afd bbbd 03b2 d33c c96c 833d 06ff 0ebd
00000180: d6e6 d7bc e6b0 19bd 8ca5 33bd 4284 d6bd
00000190: 7daf 673d cb1e c5bd 4174 0b3e 21cd 923d
000001a0: 92c2 553d af2b 003d 7bf6 80bd 7f04 083e
000001b0: b215 0b3d 93b3 273e c48c ad3d a0fb 1a3d
000001c0: a08b d1ba f648 e23d c9ac 98bd 145e c0bd
000001d0: 2b52 ccbd 60da 95bd 54bc b0bd 3df4 4ebd
000001e0: a4bc 653d cab6 af3d f0ad 563d f2f2 80bd
000001f0: 7e96 cabc 053a febc 3262 363c 00ce 853d
00000200: 912b 00bc 9b7d 73bd db32 1f3c dd1a 16bd
00000210: 1054 3b3d 874b 03bd 8584 60bd e963 623d
00000220: aca0 e1bc 576f 8fbd ebd6 80bd 4d2a 1f3e
00000230: cf4a 913d eec0 c23c c8cd ae3d 3bfb 81bd
00000240: f566 15bd cebd 543c 6f05 81bd d492 d43c
00000250: 3b5f 3a3d 5623 5d3d 0870 cabc 2cb4 a73c
00000260: ceff 4ebd ee3f 7a3d bc26 0cbc 107c 843b
00000270: c368 54bd 8506 0fbe d7fc b83d 47b6 1fbc
00000280: a299 d53d 1f7c 11bd a663 80bd 5b52 b93d
00000290: 8b13 1a3d 39e3 423d f9d1 903d 1767 4cbd
000002a0: 1a28 1fbb 3ba0 53bd 8817 a73d f391 a33c
000002b0: 724c 31bd f50e 903d f6a7 01ba 7375 52bd
000002c0: a660 23bc 2b74 f538 88c0 abbd d059 fdbb
000002d0: b328 afbc 661b 5e3d 2bab d03d 9069 3f3d
000002e0: eb47 7bbb e30a babd 238f 393d 59c1 1c3c
000002f0: 6b52 683c 63f4 28bd 233b 72bd 0547 153e
00000300: 67a0 d63b c01b c83c e4c9 ae3a 9585 adbd
00000310: db13 ffbb dd6d ccbd 90c1 f3bc db3a 883d
00000320: 4178 833d 7d9f 46bd 532f 35bd 4158 3e3d
00000330: dd37 54bd e7f0 643d 1c03 a83d 1861 dd3c
00000340: 5b53 6a3d daa3 1f3c c201 e43c dfbf dfbd
00000350: 53e3 103c d5d5 21bd cf8d dabc 2f10 db3b
00000360: c5f2 abbc 8779 433d 49fe 923b da97 acbc
00000370: 405e 52bc ff61 153d 7f5b 863d c224 06bc
00000380: f3b1 b9bc d151 50bd dbd1 d33d c636 e1bd
00000390: d1e4 a33d 9ec5 a6bc 0e84 1dbc 393d babc
000003a0: ccdb 0d3c b55f ad3d b2a4 343c e4ba 2fbd
000003b0: 0290 993d 5e5f ac3c a91c c5bb 1a5d a0bc
000003c0: ec8d 043d 3e1b 353d 0108 833c fc65 303d
000003d0: f667 693d cf7b a23d aea5 043e 7d7c 413c
000003e0: 9a2e c73d cbb5 a4bb 82cc 203c 5ae4 0fbe
000003f0: 68d0 253d 8e8a e9bb da51 bcbc bfd4 cbbb

net.2.bias f4 [256]
0.055309862 0.083836585 -0.03653715 -0.04096229 0.08131589 0.004916888 -0.33199757 0.021628136
0.031462718 0.06482718 0.0050710244 -0.010882457 0.05236455 0.04935707 0.013885962 0.046744965
0.035343483 0.06022292 -0.012019385 -0.051379863 -0.017128099 0.028536636 -0.035518046 -0.014468263
-0.021452712 -0.0055737253 -0.07602488 -0.31813973 -0.18904057 0.0057440493 -0.017592223 -0.01704898
-0.01983328 -0.06481933 -0.12688217 0.017395284 0.01106134 0.047586974 0.05481414 0.034428723
-0.05248822 -0.056294218 0.10304865 -0.14412059 0.021395776 0.04909249 -0.18805945 0.0019115839
-0.019796269 -0.0079531055 0.017785653 -0.16440618 -0.015901333 -0.014736829 -0.054989263 0.04290742
-0.24999602 0.0018884809 0.032114662 0.011470793 0.05101548 -0.15553984 -0.028966084 -0.034598205
-0.16412121 -0.01350395 0.0525806 0.029516613 0.059901755 0.03468346 0.0028462892 -0.034043506
-0.02881224 0.045745775 -0.013797944 -0.00540347 -0.0433363 0.051096514 0.04679221 0.028576434
-0.046985943 0.014521782 -0.00072264986 0.06166964 -0.041321263 0.062676884 -0.009486092 0.035229765
-0.058852218 -0.19793648 -0.36658868 -0.14376743 -0.006377844 0.047799546 -0.014879175 0.020349514
0.037852935 0.091667145 0.030151732 -0.23382346 0.030093111 0.033962272 0.0132440915 -0.024185747
0.04447039 0.02746899 0.04413444 -0.12440028 -0.14336555 0.023037847 0.0014137751 0.045262273
-0.027097812 0.0017185947 -0.042056393 -0.027349286 0.06300701 -0.07313153 0.04886463 0.043864854
0.024523607 -0.018063696 -0.02435459 0.031347267 -0.018961659 0.004186791 -0.07773265 -0.053889148
0.009613217 -0.008293994 -0.043834034 0.05038148 -0.042602666 0.04730757 -0.16775215 0.05874326
-0.007990995 0.055400506 0.054101884 -0.015412345 0.050099723 0.01757356 0.040786933 0.052389372
0.05932608 0.006077442 -0.026371224 0.01913809 0.10383526 0.044144172 -0.019885078 0.030504528
-0.0025447472 -0.017332658 0.053553257 0.05123615 -0.02258673 -0.048011836 -0.11709986 0.06816254
-0.014985585 0.048887756 0.04338607 -0.09994885 -0.022834856 0.0023875583 -0.037779514 -0.018478846
0.04894219 -0.004426819 0.0026808684 -0.08769494 -0.03134332 0.016870683 0.043926816 -0.20703994
-0.018330405 -0.14978404 -0.0007471201 0.0010140304 0.023874668 -0.013657297 0.047080524 0.01097246
0.010348155 0.028567996 -0.05010863 -0.027247522 0.044904582 -0.058989055 -0.13287716 0.046463944
0.051546514 0.037218083 0.032508753 0.023376599 -0.042869043 -0.008226882 -0.038999025 -0.010663987
-0.02067092 -0.12404265 -0.019124094 -0.013772991 0.032044064 0.022935044 -0.03711645 -0.01768229
-0.058890283 0.14618997 -0.09730871 -0.02163694 -0.031758893 -0.027165769 0.0024288066 0.0152542
-0.05213332 0.032329563 -0.02523839 0.024671558 0.018669648 0.008417246 0.082765505 0.057267692
-0.00702748 0.048582073 -0.018392997 0.030473407 -0.0016220252 -0.13804324 -0.27144015 -0.0007889163
-0.049303375 -0.045442097 0.020863596 -0.0064541856 0.012823954 0.0122497855 -0.013235385 -0.011961067
0.011609699 -0.0027514442 0.022058759 0.030079855 9.163991e-05 -0.01869986 0.017213222 -0.032327514
-0.006473753 -0.025484711 -0.041234374 0.00089841866 -0.059560686 -0.009069732 0.040136784 0.0041049714
00000000: 988c 623d 84b2 ab3d fba7 15bd 13c8 27bd
00000010: f288 a63d d91d a13b 96fb a9be 7d2d b13c
00000020: 0ddf 003d 1dc4 843d d62a a63b 554c 32bc
00000030: 367c 563d a42a 4a3d f281 633c a677 3f3d
00000040: 54c4 103d 4fac 763d f4ec 44bc b173 52bd
00000050: 3a50 8cbc aac5 e93c 5f7b 11bd 4b0c 6dbc
00000060: 99bd afbc cca3 b6bb efb2 9bbd 36e3 a2be
00000070: da93 41be 9438 bc3b 911d 90bc 4daa 8bbc
00000080: 6779 a2bc ffbf 84bd 66ed 01be 8e80 8e3c
00000090: 9f3a 353c 8fea 423d cb84 603d 2205 0d3d
000000a0: e3fd 56bd c494 66bd 2c0b d33d 5994 13be
000000b0: 3246 af3c 3515 493d a892 40be 1d8e fa3a
000000c0: c92b a2bc be4d 02bc 38b3 913c 185a 28be
000000d0: 8343 82bc be72 71bc 6c3c 61bd b1bf 2f3d
000000e0: f5fe 7fbe e786 f73a aa8a 033d feef 3b3c
000000f0: 9cf5 503d d645 1fbe 484a edbc d9b6 0dbd
00000100: 640f 28be ac3f 5dbc c15e 573d d3cc f13c
00000110: 8b5b 753d 3e10 0e3d cf88 3a3b 3471 0bbd
00000120: a607 ecbc ec5f 3b3d c610 62bc 970f b1bb
00000130: 6781 31bd 944a 513d 30a9 3f3d 2019 ea3c
00000140: 5574 40bd c5ec 6d3c 3670 3dba 4e99 7c3d
00000150: 7c40 29bd bd5c 803d 8e6b 1bbc 164d 103d
00000160: 060f 71bd dcaf 4abe 83b1 bbbe c537 13be
00000170: 3cfd d0bb 75c9 433d c9c7 73bc 06b4 a63c
00000180: ae0b 1b3d fcbb bb3d c400 f73c 6b6f 6fbe
00000190: d485 f63c 061c 0b3d bffd 583c 3021 c6bc
000001a0: 9526 363d a606 e13c 51c6 343d 93c5 febd
000001b0: 6bce 12be deb9 bc3c 6c4e b93a ef64 393d
000001c0: 3bfc ddbc 7842 e13a 5343 2cbd 9c0b e0bc
000001d0: d209 813d fcc5 95bd 4726 483d a2ab 333d
000001e0: bbe5 c83c 51fa 93bc 4783 c7bc fe65 003d
000001f0: 7b55 9bbc 5931 893b 4c32 9fbd deba 5cbd
00000200: c180 1d3c 88e3 07bc 518b 33bd d05c 4e3d
00000210: 2280 2ebd 95c5 413d 38c7 2bbe c69c 703d
00000220: aaec 02bc a4eb 623d f099 5d3d 0f84 7cbc
00000230: 5e35 4d3d 6df6 8f3c 3310 273d 3d96 563d
00000240: e7ff 723d 4725 c73b 7708 d8bc 7cc7 9c3c
00000250: 95a7 d43d 85d0 343d 08e6 a2bc a2e4 f93c
00000260: c6c5 26bb 38fd 8dbc a95a 5b3d ffdc 513d
00000270: ce07 b9bc 0fa8 44bd 0dd2 efbd cd98 8b3d
00000280: 1986 75bc 873e 483d 97b5 313d fcb1 ccbd
00000290: 2a10 bbbc 9578 1c3b b1be 1abd f360 97bc
000002a0: 9b77 483d d90e 91bb 82b1 2f3b 6899 b3bd
000002b0: da61 00bd 6334 8a3c 9bec 333d 4702 54be
000002c0: a529 96bc fd60 19be 62da 43ba 37e9 843a
000002d0: cf94 c33c dbc2 5fbc 82d7 403d d5c5 333c
000002e0: 4f8b 293c 6e07 ea3c b53e 4dbd 3236 dfbc
000002f0: deed 373d 829e 71bd f310 08be fa50 3e3d
00000300: 7022 533d fd71 183d e627 053d 4880 bf3c
00000310: 7397 2fbd 0bca 06bc 71bd 1fbd 01b8 2ebc
00000320: 1056 a9bc 130a febd 22aa 9cbc 1ca8 61bc
00000330: a340 033d 46e2 bb3c 6b07 18bd 73da 90bc
00000340: f036 71bd d3b2 153e ca49 c7bd f43f b1bc
00000350: 9d15 02bd bf8a debc 9d2c 1f3b c1ec 793c
00000360: c089 55bd 016c 043d bdc0 cebc 021c ca3c
00000370: 17f1 983c 7de8 093c f680 a93d 8791 6a3d
00000380: c646 e6bb fffd 463d e9ac 96bc 5ea3 f93c
00000390: 229a d4ba 355b 0dbe 34fa 8abe 47cf 4eba
000003a0: 56f2 49bd 7e21 3abd 22ea aa3c a27d d3bb
000003b0: 901b 523c 53b3 483c 3ad9 58bc 5af8 43bc
000003c0: 9b36 3e3c 9351 34bb 92b4 b43c 076a f63c
000003d0: cd2e c038 7330 99bc be02 8d3c db69 04bd
000003e0: c721 d4bb 50c5 d0bc 60e5 28bd db83 6b3a
000003f0: e8f5 73bd 3799 14bc 7866 243d ff82 863b

net.4.weight f4 [256, 256]
0.005768576 0.0329631 -0.0030219792 -0.01621029 -0.020020287 -0.012988285 0.030116158 0.014957566
-0.0061515504 0.004881597 -0.0009551021 -0.008701981 0.02472115 0.01379208 0.014487106 -0.013479567
-0.0150259985 0.0024108267 -0.0054958193 0.021141948 -0.011550044 0.01092804 0.0028315813 -0.014953298
0.0444889 0.025987238 0.0075604664 0.0037259804 0.042763244 -0.0010783427 -0.0003791761 -0.023892265
-0.008315189 0.0068165082 -0.010636322 0.00044300838 -0.0035390428 -0.02049477 0.0098288935 -0.008168506
0.00042409168 -0.00412853 0.005982371 -0.018680012 0.004921746 -0.002165296 -0.021993622 0.004766056
0.006483592 0.00840989 0.018538399 -0.01650155 -0.009550313 0.013715208 0.029545741 0.00954998
-0.0040818607 -0.0013239699 -0.0049558957 0.021635244 -0.001799058 0.027850168 -0.009187565 0.009250275
-0.016137868 0.0112863425 -0.020411525 0.01419343 0.011155531 -0.014327264 -0.023824103 -0.0050408067
0.0017936904 -0.0026448022 -0.010128825 -0.0401541 -0.019632386 0.012024315 0.019593744 0.0060974243
0.008912516 -0.028349495 -0.0053200624 -0.01541241 -0.015373342 0.007927378 -0.013420795 0.0034784216
-0.0030545115 0.04553316 -0.03064553 0.053975433 0.0072951354 -0.0013084881 -0.022223756 -0.0061590117
0.03020999 -0.022629447 0.008975572 0.016580567 0.0022118497 0.0045048785 -0.0039922614 0.0033077956
-0.012326023 -0.01928533 0.020037947 -0.010584279 -0.011633006 -0.015475857 -0.0095735425 -0.018906342
-0.033537682 -0.011714639 -0.009892571 0.009807282 0.0047851237 0.006856791 0.014443882 -0.009824567
-0.0020498019 -0.00019011235 -0.017404746 0.012534923 -0.007919746 -0.031514734 -0.013191813 0.019888068
-0.007902231 0.004348998 0.0040788185 -0.006025448 -0.0010242143 -0.02079204 0.030330274 -0.016936492
0.010758108 0.01689753 0.008794116 -0.0186029 -0.011617953 -0.013216227 -0.0027066714 -0.0017891191
0.013931214 -0.024665123 0.006095164 0.025577351 -0.036499593 0.023564521 0.0071050706 -0.0095884595
-0.009747899 0.00959152 -0.016285341 -0.017199378 -0.02541327 0.0030799464 -0.022410784 0.0072680125
-0.016646082 0.031223433 0.003373005 0.002529247 -0.0020356611 -0.013282011 0.022511832 0.013071888
-0.014481702 -0.0034111948 -0.015682165 0.016482588 0.0116338665 0.0077138594 -0.012339492 -0.022764238
-0.0035367303 -0.019309845 -0.009512787 0.009720335 -0.020769954 -0.009743833 0.016274003 -0.0159704
-0.0033113942 -0.005348448 -0.0036631846 0.0035396088 -0.005215748 0.000277744 -0.021417456 0.001811938
-0.021076696 0.01645256 0.01693497 -0.0034551744 0.008754458 0.0069599566 0.020878473 -0.01038391
0.008653764 -0.033560928 0.026676044 -0.011038369 0.019830255 0.0007767606 0.0141364625 -0.009896863
-0.021116408 9.918086e-05 -0.030973103 -0.016105214 0.0051717674 -0.00094295514 -0.0011914504 0.005610778
-0.0031027982 0.015261244 -0.0078589115 0.011399445 -0.008160213 0.0021813186 0.0021659015 0.0055158953
0.0024770305 -0.0020806587 0.04021141 -0.012604132 0.011514735 0.022048853 0.005477062 -0.008380888
0.008611402 0.00072724075 0.003721194 -0.00043112045 0.0055657327 -0.01708511 0.01277329 0.0046744347
0.023899266 0.015735602 -0.018460304 -0.0069950554 0.004151496 0.0010316651 0.022241881 0.042569675
-0.0016666676 -0.011602738 -0.008437343 -0.002335074 0.005555538 -0.0054008667 0.008223127 -0.0140814865
00000000: 5306 bd3b 5104 073d 660c 46bb 71cb 84bc
00000010: 9601 a4bc d1cc 54bc 29b6 f63c 9410 753c
00000020: f292 c9bb cef5 9f3b d15f 7aba c192 0ebc
00000030: 0284 ca3c 2df8 613c 545b 6d3c 67d9 5cbc
00000040: 9b2f 76bc f6fe 1d3b 4616 b4bb e131 ad3c
00000050: 653c 3dbc 860b 333c 0d92 393b adfe 74bc
00000060: fe39 363d 30e3 d43c cabd f73b 942f 743b
00000070: 8328 2f3d 2d57 8dba 28cc c6b9 b6b9 c3bc
00000080: 6e3c 08bc 045d df3b f843 2ebc 9443 e839
00000090: 49ef 67bb a6e4 a7bc 5e09 213c 33d5 05bc
000000a0: 9f58 de39 9f48 87bb c407 c43b d306 99bc
000000b0: 9946 a13b a4e7 0dbb f82b b4bc 932c 9c3b
000000c0: 5074 d43b a3c9 093c d7dd 973c 422e 87bc
000000d0: eb78 1cbc c0b5 603c e909 f23c 8577 1c3c
000000e0: 21c1 85bb 0f89 adba 1165 a2bb 653c b13c
000000f0: 5fce ebba 0926 e43c 7187 16bc 778e 173c
00000100: 9033 84bc 5aea 383c 1236 a7bc 8f8b 683c
00000110: b0c5 363c e7bc 6abc c42a c3bc 5a2d a5bb
00000120: 431a eb3a 6b54 2dbb 5ff3 25bc a078 24bd
00000130: 19d4 a0bc a201 453c 0f83 a03c e7cc c73b
00000140: cd05 123c 333d e8bc eb53 aebb 5584 7cbc
00000150: 78e0 7bbc d5e1 013c e5e2 5bbc 3bf6 633b
00000160: 332e 48bb fb80 3a3d 560c fbbc 5815 5d3d
00000170: 080c ef3b 9381 abba 980e b6bc 89d1 c9bb
00000180: f17a f73c 6461 b9bc 470e 133c f8d3 873c
00000190: aef4 103b a99d 933b 84d1 82bb 9ac7 583b
000001a0: 16f3 49bc 45fc 9dbc 9f26 a43c af69 2dbc
000001b0: 5d98 3ebc 738e 7dbc 59da 1cbc 79e1 9abc
000001c0: cf5e 09bd c2ee 3fbc 7314 22bc b9ae 203c
000001d0: 87cc 9c3b efae e03b 08a6 6c3c 38f7 20bc
000001e0: f855 06bb e558 47b9 6694 8ebc 475f 4d3c
000001f0: d3c1 01bc 9815 01bd 7922 58bc 4dec a23c
00000200: 5c78 01bc 0a82 8e3b 9ca7 853b 1f71 c5bb
00000210: ee3e 86ba 1154 aabc 3277 f83c 66be 8abc
00000220: c742 303c b06c 8a3c 3215 103c 1c65 98bc
00000230: 3a59 3ebc e088 58bc 6962 31bb e080 eaba
00000240: bf3f 643c 830e cabc f1b9 c73b 9887 d13c
00000250: 9980 15bd 620a c13c a7d1 e83b ea18 1dbc
00000260: a7b5 1fbc c025 1d3c d668 85bc b6e5 8cbc
00000270: 7d2f d0bc edd8 493b d296 b7bc 8228 ee3b
00000280: 5d5d 88bc 49c8 ff3c a20d 5d3b b9c1 253b
00000290: ba68 05bb cb9c 59bc bc6a b83c 792b 563c
000002a0: a944 6dbc 5a8e 5fbb e277 80bc 7e06 873c
000002b0: f99b 3e3c 8bc4 fc3b 952b 4abc 117c babc
000002c0: 7dc8 67bb ae2f 9ebc 85db 1bbc 0a42 1f3c
000002d0: c025 aabc 99a4 1fbc 0f51 853c 5bd4 82bc
000002e0: fa03 59bb 0942 afbb 0a12 70bb c8f8 673b
000002f0: dee8 aabb 2b9e 9139 a973 afbc 8d7e ed3a
00000300: 09a9 acbc 85c7 863c 35bb 8a3c 3570 62bb
00000310: dc6e 0f3c 5910 e43b 5509 ab3c 4621 2abc
00000320: 84c8 0d3c 2f77 09bd b887 da3c 46da 34bc
00000330: 0f73 a23c 859f 4b3a 9f9c 673c 7426 22bc
00000340: 51fc acbc 52ff cf38 4ebb fdbc 15ef 83bc
00000350: ee77 a93b a630 77ba 712a 9cba 9eda b73b
00000360: 5158 4bbb 4c0a 7a3c aac2 00bc bdc4 3a3c
00000370: 6ab2 05bc 74f4 0e3b ccf1 0d3b afbe b43b
00000380: ad55 223b a95b 08bb b8b4 243d 9081 4ebc
00000390: 4da8 3c3c cc9f b43c ed78 b33b fe4f 09bc
000003a0: d616 0d3c 4da4 3e3a 47df 733b 0208 e2b9
000003b0: c060 b63b 13f6 8bbc 1047 513c 002c 993b
000003c0: 65c8 c33c f3e7 803c 103a 97bc c736 e5bb
000003d0: 4609 883b f038 873a 9b34 b63c 8a5d 2e3d
000003e0: 1674 daba 6919 3ebc c83c 0abc 0a08 19bb
000003f0: 3b0b b63b c1f9 b0bb 4bba 063c 09b6 66bc

net.4.bias f4 [256]
-0.02363284 -0.08028548 -0.0140457405 -0.021754457 -0.07024039 0.03339153 -0.0026464679 -0.010942434
-0.0014498257 -0.25356087 0.019074783 0.049503464 -0.18958531 -0.065456845 0.02012526 0.045203526
-0.04597763 0.019526303 0.052643567 -0.019753387 -0.00062249036 0.02512759 -0.03872565 0.07485887
0.012012933 -0.16198364 0.036811356 0.03098541 -0.10427715 0.028652329 0.017763639 0.057200845
-0.09617349 0.018776974 -0.035730824 0.0044053453 0.02006533 0.012738707 0.0517232 -0.13720576
-0.022256505 -0.25435403 0.08756504 -0.09277863 -0.042102516 -0.047559272 -0.015831664 -0.018466722
-0.00750796 -0.21384172 -0.014555901 -0.0029318435 -0.019214934 0.0054040076 -0.034161292 0.06384943
0.0028296686 0.009794237 0.06424854 0.08775538 0.047762815 -0.023961466 -0.0860451 0.07511102
0.06357535 0.050609503 0.01595611 0.052787784 0.05231545 0.01859686 -0.12515795 -0.02081374
0.067367256 0.055256315 0.014847628 0.04329249 0.009164977 0.039510872 -0.030743945 -0.08718225
0.020324647 -0.020170307 0.03206156 -0.010891529 -0.05651717 -0.036065873 -0.0548242 0.05704946
0.020279486 0.014252835 0.053689357 0.012625813 -0.04755975 -0.031919755 0.043083124 0.044013817
-0.0050619068 0.022685489 -0.0045557446 0.040919274 0.03551201 0.040502697 0.046258073 0.059732754
-0.0007112431 0.022895345 -0.047559854 0.015448724 -0.17588569 0.048654422 0.04459492 -0.030292487
-0.021541668 -0.050806243 0.0026334426 0.020521399 0.0030771296 0.07569895 0.054455817 0.021517826
0.03588217 -0.1599982 -0.10207812 -0.0005241915 -0.122950025 -0.04635125 0.008256356 -0.30283472
0.0020477362 0.00035103995 -0.004646566 -0.079563804 -0.043573827 0.0167094 -0.011650771 0.017870603
0.017732441 -0.0020007088 -0.032938097 -0.05000146 0.036794197 0.048676047 0.04603387 0.02793964
-0.024068007 0.03466976 -0.03198005 -0.023202358 -0.34058762 -0.04829241 0.022719912 0.06442227
0.020715237 -0.3511303 -0.12708387 -0.05117237 -0.0763264 0.013682804 0.02983597 -0.113248415
0.07782459 0.06461744 0.030431073 -0.0065288567 1.5004989e-06 -0.014777992 0.042581886 0.012139054
-1.3793253e-05 -0.003342637 -0.16318822 -0.41552287 -0.08934843 0.06336131 -0.017528651 0.005926931
0.06696804 -0.03837726 0.008389935 0.06049062 -0.21832383 -0.011598636 0.008181008 -0.027579205
-0.012969932 -0.057525203 -0.25089413 -0.010236754 -0.05521212 0.08710132 0.06931625 -0.07752677
-0.056052368 -0.009818713 0.022740891 0.031826813 0.0047653094 -0.11248153 0.09167183 0.0044957264
-0.19934486 0.03705462 -0.17537531 0.023188552 -0.01441947 -0.14596462 -0.013172739 0.019559221
0.0011336509 -0.09475699 0.011722104 -0.010357405 -0.017532503 -0.036012612 -0.04316993 -0.014751445
0.082857385 0.059491936 -0.18160862 -0.016228063 -0.22375911 0.009111456 0.07948388 -0.022942645
0.0676127 -0.050749954 0.09210261 0.001297719 -0.06311526 0.053097297 -5.2204105e-06 0.043910395
-0.09210865 -0.021332748 0.037361544 0.017751556 -0.024707707 -0.01919627 0.0370221 0.016233684
0.0099450275 0.032636918 0.026217785 0.08579232 0.003572863 -0.014144509 -0.05506743 -0.002495236
-0.033486865 -0.06123203 -0.09230919 0.01187745 -0.06300258 0.08158049 -0.03296012 -0.086556934
00000000: a899 c1bc b76c a4bd 1b20 66bc 6736 b2bc
00000010: 32da 8fbd 8fc5 083d 5d70 2dbb e547 33bc
00000020: 1408 beba bbd2 81be b842 9c3c 25c4 4a3d
00000030: a722 42be 3d0e 86bd bbdd a43c 5527 393d
00000040: 0a53 3cbd a0f5 9f3c c8a0 573d dbd1 a1bc
00000050: 9f2e 23ba 60d8 cd3c ca9e 1ebd 9b4f 993d
00000060: e5d1 443c 0adf 25be 81c7 163d 1dd5 fd3c
00000070: 428f d5bd 4ab8 ea3c 0d85 913c 6f4b 6a3d
00000080: 9bf6 c4bd 2bd2 993c 7c5a 12bd b75a 903b
00000090: 0c60 a43c 02b6 503c b5db 533d ab7f 0cbe
000000a0: 4653 b6bc b13a 82be 4d55 b33d b902 bebd
000000b0: b073 2cbd 83cd 42bd 68b1 81bc 8647 97bc
000000c0: 5505 f6bb 53f9 5abe e07b 6ebc 2c24 40bb
000000d0: a368 9dbc 1a14 b13b b6ec 0bbd 7dc3 823d
000000e0: f671 393b 0278 203c bd94 833d 18b9 b33d
000000f0: f1a2 433d d64a c4bc 6a38 b0bd ced3 993d
00000100: cb33 823d e94b 4f3d 63b6 823c 0138 583d
00000110: ba48 563d 7158 983c 6829 00be 9481 aabc
00000120: d8f7 893d 7254 623d 7743 733c 7753 313d
00000130: b328 163c 27d6 213d bada fbbc 9c8c b2bd
00000140: e07f a63c 333c a5bc fb52 033d 6272 32bc
00000150: 8c7e 67bd cfb9 13bd 578f 60bd b2ac 693d
00000160: 2a21 a63c b984 693c 5fe9 5b3d 7fdc 4e3c
00000170: 03ce 42bd 4abe 02bd ee77 303d d547 343d
00000180: 5ade a5bb ebd6 b93c 5b48 95bb f89a 273d
00000190: 0b75 113d 28e6 253d 1b79 3d3d 55aa 743d
000001a0: b772 3aba 058f bb3c 1fce 42bd a51c 7d3c
000001b0: 611b 34be dc49 473d 2aa9 363d f327 f8bc
000001c0: 2778 b0bc 351a 50bd d695 2c3b 7e1c a83c
000001d0: aba9 493b 0d08 9b3d 100d 5f3d 2746 b03c
000001e0: 2ff9 123d 91d6 23be 550e d1bd e569 09ba
000001f0: 39cd fbbd cfda 3dbd ab45 073c 270d 9bbe
00000200: 5033 063b c90b b839 3942 98bb 59f2 a2bd
00000210: 787a 32bd 27e2 883c e0e2 3ebc 5f65 923c
00000220: a043 913c 531e 03bb 19ea 06bd 55ce 4cbd
00000230: 83b5 163d 8960 473d 038e 3c3d ace1 e43c
00000240: 452a c5bc e101 0e3d 83fd 02bd df12 bebc
00000250: 8061 aebe 43ce 45bd 1c1f ba3c d3ef 833d
00000260: 00b3 a93c 5ac7 b3be 4622 02be 1e9a 51bd
00000270: 0451 9cbd d72d 603c 906a f43c c9ee e7bd
00000280: 8062 9f3d 2656 843d 964a f93c 05f0 d5bb
00000290: c064 c935 641f 72bc 586a 2e3d e2e2 463c
000002a0: 9269 67b7 2510 5bbb d01a 27be 6abf d4be
000002b0: 4ffc b6bd 93c3 813d 3f98 8fbc b336 c23b
000002c0: 8a26 893d 7931 1dbd f075 093c 03c5 773d
000002d0: 4890 5fbe 3508 3ebc a209 063c c9ed e1bc
000002e0: d67f 54bc 8c9f 6bbd 3275 80be 0fb8 27bc
000002f0: 1b26 62bd 2d62 b23d aef5 8d3d 5bc6 9ebd
00000300: 2b97 65bd abde 20bc 1b4b ba3c d55c 023d
00000310: 5026 9c3b b75c e6bd 71be bb3d e350 933b
00000320: 0f21 4cbe 96c6 173d 9695 33be ebf5 bd3c
00000330: a43f 6cbc c077 15be 79d2 57bc a93a a03c
00000340: 0397 943a f40f c2bd 110e 403c 1bb2 29bc
00000350: 53a0 8fbc f681 13bd f4d2 30bd 0bb0 71bc
00000360: 22b1 a93d d1ad 733d 9cf7 39be b7f0 84bc
00000370: 1c21 65be 3748 153c 72c8 a23d 37f2 bbbc
00000380: 8778 8a3d 2fdf 4fbd 4ba0 bc3d 3918 aa3a
00000390: 9342 81bd 8d7c 593d fc2a afb6 63db 333d
000003a0: 76a3 bcbd 04c2 aebc 6b08 193d b66b 913c
000003b0: d167 cabc 7f41 9dbc 7ca4 173d 81fc 843c
000003c0: 78f0 223c 4aae 053d aec6 d63c e2b3 af3d
000003d0: b226 6a3b 5fbe 67bc 638e 61bd 1d87 23bb
000003e0: 8629 09bd 70ce 7abd 9a0c bdbd a399 423c
000003f0: 7f07 81bd ac13 a73d 3101 07bd c344 b1bd

net.6.weight f4 [2, 256]
-0.0019114909 -0.07767086 0.0006613761 -0.0010159892 -0.07064565 -0.0012500616 -0.0009593757 -0.0003578919
-0.0017778229 0.09518476 -0.00089012895 -0.0011611081 -0.0031819274 0.0008004787 -0.091434576 -0.0015869545
-0.0018015655 -0.0011478174 0.00035477785 -0.0002172736 -3.5100147e-05 -0.00083662156 -0.0018758489 -0.0008468044
0.00092819205 0.011828354 -0.00078136916 -0.00047350576 -0.000100987054 -0.07848753 0.0005398513 -0.0011167268
-0.012697932 -3.2574677e-05 -0.00079576555 -0.0015393627 -0.025030294 0.0004076987 -0.0013657433 0.0753124
0.0014691231 0.055759396 -0.0016235235 -0.00013526727 -0.0011554178 -0.00028127534 -0.0018173123 0.00019821116
-0.0015506941 -0.011607536 -0.0012316853 -0.0021147896 -0.0017963679 -0.00046671234 -0.00066696305 -0.00061822427
0.00032648005 -0.0017553231 -0.0010424877 -0.00067785644 -0.0023149415 -0.0014193259 0.0012243182 -3.362191e-05
-0.00074693677 -0.0010636594 -0.0015003597 -0.0001673895 0.00022947967 -0.0015477855 0.010181708 -0.0001733846
0.0012964762 -0.00040429004 -0.0003756702 -0.0038871372 0.00043855055 -0.000714855 -0.0005556147 -0.0058087134
-0.0013814503 0.00043924688 -0.0014350831 -0.0002676041 -0.002020353 -0.00047243718 -0.00025786588 -0.0003509173
-0.00043758834 -0.0006583152 -0.00065790705 -0.00084029284 0.00067457685 0.0003628916 -0.0016097914 -0.0017940805
0.019516941 -3.953435e-05 -0.0020600413 0.0001765949 -0.0024040688 -0.0010772502 0.00012413185 -0.0005552374
-0.0006516874 -0.00020769812 -9.531576e-05 0.00021526565 0.05391004 -0.0017539491 0.0012629976 -0.0010682133
-0.0017267194 5.2179203e-05 -0.0008961331 0.00076475955 -0.071394615 -0.0017254613 -0.0011241466 -0.0011467258
-0.00011017416 0.0126728285 0.003346911 -0.0003758803 0.033962414 -0.00089099695 0.0015262417 0.038021278
-0.0012605741 -0.001464845 0.00030286002 0.002313963 -0.000848817 -0.0005113103 -0.0012625386 -0.0011517124
-0.00014152164 -0.00043459324 -0.013432354 0.0005141132 -0.0011632197 0.0019177953 -0.0010499562 -0.0006517346
-0.001562583 -0.00012251803 -1.4263188e-05 0.00020742539 0.044161577 0.001350166 -0.0006048434 -0.00054460973
-0.0010458892 0.05005645 -0.012648092 -0.0012324225 0.00024279117 -0.0013009058 -0.000879637 0.042077284
0.0003178293 0.00021922671 0.00032548574 -0.00051229727 0.10369086 0.0007641499 -0.00014914702 -0.0003922324
-0.00054177956 -0.0017358523 -0.020389702 0.0389136 -0.00056573324 -0.0008555667 -3.3686472e-05 -0.00023751378
-0.0021406256 -0.023469808 -0.0012226452 -0.00025656415 0.032325942 -0.0015551905 -0.0013681959 0.0003799575
-0.00095881434 -0.0018582018 0.03139277 -0.001385845 0.0004602922 -5.6039516e-05 -0.0013230175 -0.009137833
-0.00030107072 -0.0011631607 -0.0016804369 -0.0004364174 -0.0014474087 0.0060545234 -0.0013586903 -2.1598922e-05
0.03666323 -0.0005041475 0.08830447 0.0005446134 -0.001071469 0.0063787056 0.00071379583 -0.0010634826
-0.0017233198 -0.00081679056 -0.00075823837 -0.0014554086 -0.0021116096 0.0003370923 -0.087296285 -0.0009783708
0.0006181972 -0.001613934 -0.026587285 -0.0002711604 -0.0022352566 -0.00043565859 -0.00029830614 -0.010789259
-0.0009187293 -0.12106376 -0.0011093876 -0.0013886999 0.00030793846 -0.00017050926 -0.0012195057 -0.0008871685
-0.032396458 -7.997423e-05 0.00019911795 0.0011062314 -0.0013572375 -0.0005394018 0.00056563056 0.00020306569
1.7383758e-05 -0.00082966493 -0.0008735898 0.00043819452 -0.029865878 -0.00097096903 -0.09621406 -0.0010923818
0.00011662565 0.011982133 0.00039388536 -1.3665565e-05 -7.03237e-05 -0.0006252304 -0.00043364617 0.0048658354
00000000: fe8a faba e611 9fbd 3360 2d3a f12a 85ba
00000010: abae 90bd 1bd9 a3ba 9d7e 7bba 70a3 bbb9
00000020: d605 e9ba 3af0 c23d 8b57 69ba 5330 98ba
00000030: e287 50bb 37d7 513a 0d42 bbbd 5b01 d0ba
00000040: 8222 ecba 5c72 96ba 7a01 ba39 f0d3 63b9
00000050: 7f38 13b8 b950 5bba 0bdf f5ba 15fc 5dba
00000060: ea51 733a b6cb 413c ccd4 4cba de40 f8b9
00000070: 03c9 d3b8 12be a0bd cf84 0d3a 225f 92ba
00000080: fd0a 50bc cba0 08b8 ec9a 50ba 71c4 c9ba
00000090: 550c cdbc 65c0 d539 be02 b3ba 633d 9a3d
000000a0: 978f c03a f763 643d 69cc d4ba 88d6 0db9
000000b0: 6371 97ba 2378 93b9 e232 eeba e7d6 4f39
000000c0: a940 cbba 892d 3ebc 8070 a1ba 4898 0abb
000000d0: 1b74 ebba 12b1 f4b9 22d7 2eba 5410 22ba
000000e0: 692b ab39 df12 e6ba 15a4 88ba 2db2 31ba
000000f0: 46b6 17bb ad08 baba 4d79 a03a 4005 0db8
00000100: 14ce 43ba 7d6a 8bba b8a7 c4ba 4785 2fb9
00000110: 7ba0 7039 10df caba 2ed1 263c 93ce 35b9
00000120: 86ee a93a e4f6 d3b9 9af5 c4b9 57bf 7ebb
00000130: 42ed e539 1b65 3bba aca6 11ba 0557 bebb
00000140: c811 b5ba b84a e639 6619 bcba 374d 8cb9
00000150: e667 04bb 72b1 f7b9 2c32 87b9 53fb b7b9
00000160: 1d6c e5b9 c992 2cba 6577 2cba 1947 5cba
00000170: 16d6 303a 7c42 be39 a3ff d2ba 5a27 ebba
00000180: fee1 9f3c afd1 25b8 c201 07bb 552c 3939
00000190: 958d 1dbb 8532 8dba 6429 0239 5a8d 11ba
000001a0: 00d6 2aba 8ac9 59b9 42e4 c7b8 efb8 6139
000001b0: c6d0 5c3d c4e4 e5ba 2b8b a53a 4a03 8cba
000001c0: 1753 e2ba feda 5a38 79ea 6aba 257a 483a
000001d0: 5737 92bd e028 e2ba 1a58 93ba bc4d 96ba
000001e0: 4d0d e7b8 b2a1 4f3c d957 5b3b cd11 c5b9
000001f0: 2c1c 0b3d cb91 69ba 2c0c c83a 33bc 1b3d
00000200: d939 a5ba 0b00 c0ba 2fc9 9e39 dba5 173b
00000210: 2583 5eba 7409 06ba c47b a5ba 0ef5 96ba
00000220: 6d65 14b9 1eda e3b9 6013 5cbc 8ec5 063a
00000230: 2d77 98ba 885e fb3a af9e 89ba 2bd9 2aba
00000240: 96cf ccba 2f78 00b9 ed4b 6fb7 5480 5939
00000250: c5e2 343d 0ef8 b03a 5a8e 1eba 24c4 0eba
00000260: 3816 89ba fe07 4d3d f139 4fbc 3d89 a1ba
00000270: c295 7e39 2883 aaba 7197 66ba 3b59 2c3d
00000280: 54a2 a639 39e0 6539 f5a5 aa39 b04b 06ba
00000290: e05b d43d 3b51 483a 5964 1cb9 8ba4 cdb9
000002a0: 3606 0eba 8a85 e3ba 4e08 a7bc de63 1f3d
000002b0: b74d 14ba 1c48 60ba 934a 0db8 1f0d 79b9
000002c0: bd49 0cbb c143 c0bc 2a41 a0ba 7583 86b9
000002d0: 3568 043d 89d7 cbba 0955 b3ba 0835 c739
000002e0: f158 7bba e88e f3ba b595 003d 3ea5 b5ba
000002f0: 6053 f139 f90b 6bb8 1a69 adba d9b6 15bc
00000300: 07d9 9db9 3275 98ba 1b42 dcba f4ce e4b9
00000310: fab6 bdba 0665 c63b 1516 b2ba 552f b5b7
00000320: 2f2c 163d c428 04ba f9d8 b43d 63c4 0e3a
00000330: 8970 8cba 7604 d13b 071e 3b3a 8e64 8bba
00000340: 04e1 e1ba e31d 56ba 84c4 46ba 69c3 beba
00000350: ee62 0abb c3bb b039 65c8 b2bd ad3c 80ba
00000360: 830e 223a a38a d3ba 94cd d9bc 882a 8eb9
00000370: 627d 12bb 1b69 e4b9 f965 9cb9 6fc5 30bc
00000380: e1d6 70ba 47f0 f7bd df68 91ba 0905 b6ba
00000390: cd72 a139 bbca 32b9 d2d7 9fba df90 68ba
000003a0: 26b2 04bd d6b7 a7b8 51ca 5039 f7fe 903a
000003b0: 55e5 b1ba a466 0dba d346 143a 08ee 5439
000003c0: 56d3 9137 df7d 59ba 9e01 65ba 79bd e539
000003d0: 49a9 f4bc a188 7eba e10b c5bd 402e 8fba
000003e0: eb94 f438 b550 443c 6682 ce39 2845 65b7
000003f0: c07a 93b8 80e6 23ba 015b e3b9 9671 9f3b

net.6.bias f4 [2]
-0.08299369 -0.011217056
00000000: 99f8 a9bd bec7 37bc
