moons/cfm/models/4000_model.pt (torch, 535780 bytes, 8 tensors)

net.0.weight f4 [256, 3]
00000000: b1ad 65be 5c36 803e 0f27 f3bd 6cf7 26bf
00000010: 1823 843e 80a4 e6be 5960 003f d6ce 433e
00000020: 0a8c b93e bb08 9b3e fc03 863e bd55 c73e
00000030: 4cec 68be 8d19 dbbe 6491 063f 647b ff3e
00000040: 97c3 fabd 4a59 c73e ce81 e33e c133 89bd
00000050: d422 3e3d c35b a9be 1eec 263e 1454 543e
00000060: cb7b 9fbe 5f2c 753e 1bb3 953e 7853 a8bc
00000070: e747 23be 4b81 07bf b05c 4a3d fbba eebe
00000080: e2cf bc3d ee73 7cbd 555f 96be d74d f1be
00000090: 651b 303e cb9f d9be b63e fdbe 17b2 763d
000000a0: 82d9 153e 574a bebe 9560 62be 3a31 21be
000000b0: 00a0 04bf 6c20 2cbe bbac 14bd 9bd7 a33d
000000c0: 47fd 87bc f114 c53e 3876 2abd 8643 2fbf
000000d0: adf9 033f 9acf acbe 734c 113e abc0 883c
000000e0: 9d44 3cbe 981b debe d3b3 b1be 71a5 f23d
000000f0: 93a3 b2bd dd08 6e3e 5862 78bd b01f 9cbe
00000100: ee29 aabd 2d9b 043f ec76 d8ba c727 4fbe
00000110: cf7b 0d3f 4273 423e 4850 803e 8b86 eebd
00000120: 134c 0ebf d21a c73e 38bd 773e cd5d 9e3d
00000130: fca1 043f 2480 083f 3862 21bf dfc8 493e
00000140: 11de 0f3e 1c32 95bd cf03 6c3e 565b 20bf
00000150: 5113 07bf 9cd3 f7be 3f8f f4bd 9e65 30be
00000160: edae 8e3d cf2f ba3d 5e55 48be cdc3 94be
00000170: be6d 643b 38e9 063f 3dee 20bf 8726 d7bd
00000180: fc44 edbe efec f8bb 63e0 eebe 56e3 023e
00000190: 2f6e c33d 18a5 4cbe adf0 b2be 38f2 9fbe
000001a0: 38ae 2ebc b718 eb3d ab17 fe3c e64a 213e
000001b0: 2399 0ebe 55a0 033d d762 85be fce8 163f
000001c0: 2241 253f f1ee 0abf 75d9 df3e 5a06 f53e
000001d0: 1fb0 f43e e32f 4dbd dd0f 76be fbfc e03e
000001e0: 975c 92be b86c 023f 3b72 b6be 9b4a ef3d
000001f0: 57f1 f0bd 6bfd 3f3e 277c cebe 44f2 7fbe
00000200: cd29 7abc cc22 ad3e 7c0e 1dbf c254 fd3e
00000210: 0726 213e 4f1a efbe a8be f13d ccb6 13bf
00000220: c047 c53e 98c9 e53d 7b12 a9bd 0d34 833e
00000230: 154a 72bd 7dcb c3bd a7c2 efbe 3159 b2be
00000240: 4291 25bf b1ed 123f a932 a53e 7061 7cbe
00000250: e9a2 8bbe d55e 26be 111a 1cbf 78ae 4fbe
00000260: b3b4 3bbe 5818 0cbf 331b 223f 8fb9 1abf
00000270: b468 f6bc 6715 1b3e 1f9e 223f 7313 f4be
00000280: 53ee b3bd 6419 19be 94a5 40be fc98 d43d
00000290: 4a6d d7be 7853 0cbe 1674 e43e f332 ab3e
000002a0: 90a6 eb3e 1c82 fbbd 5e78 163b 66e3 013e
000002b0: 6ff4 653e e4e5 8dbd 89b4 da3d 943b 6cbc
000002c0: e9c9 2ebc e4bc ecbe e754 cd3e eb13 f4be
000002d0: f44b 50be 16d8 8a3d 95b0 9b3e 4efd 793e
000002e0: 090d 3b3e 0c4a ebbe 4e5d 5f3e 448f a73e
000002f0: 74bb d43e 961c 0b3f 7013 d4be a739 c23e
00000300: 76b9 873e 9978 f93e 5b0f 803e 6057 c53e
00000310: 927a ba3e 6e07 e03e 7333 43be 00c2 ab3e
00000320: 4686 c3be adea 28bf 2440 103f e1d1 2f3e
00000330: 401e bb3e 119d e8be 16f6 b63e 9fb1 cebe
00000340: b170 2dbe 78b0 bbbd 353f 52be 8569 9d3e
00000350: c188 063f 9920 883e 76e3 9dbd 1ee9 bdbd
00000360: 1cd2 4cbe d006 1ebe 9f1a b4bd 6b51 ea3e
00000370: 1a16 6cbe 0fea 623e 626a 543a a991 40be
00000380: be3f aebe 2e33 d6be 29c2 713e 2bda 843e
00000390: 825f b7be b192 5b3e 20ac debe f780 64be
000003a0: a1d0 38be 84e1 843e beaa 0e3f b6da e23e
000003b0: 9088 0bbe 22bc 2e3e 96e9 8b3e b167 fd3e
000003c0: b93c 713e 7987 abbe a6f6 f03e aff1 193f
000003d0: 2197 92be e59f 9d3e f611 013e 6cb6 c9be
000003e0: 9296 013f 68a2 fabd cd20 f83e eed2 c23e
000003f0: 383f 613d f94c ed3e 21f3 173f 613e 883e
-0.2242954 0.25041473 -0.11872684 -0.65221286 0.25808024 -0.4504738 0.50147015 0.1912187
0.36239654 0.30280098 0.26174915 0.389326 -0.2274639 -0.4279293 0.525656 0.49898827
-0.12244337 0.3893531 0.4443497 -0.066993244 0.046419933 -0.3307782 0.16301009 0.20735198
-0.31149134 0.23942707 0.2923821 -0.020547614 -0.15945397 -0.5293166 0.0494048 -0.4662703
0.09219338 -0.061633997 -0.29369608 -0.471297 0.1719795 -0.42504725 -0.49461907 0.060228433
0.14633754 -0.37166092 -0.22107156 -0.15741435 -0.5180664 -0.16809243 -0.03629754 0.08000108
-0.016600264 0.3849254 -0.04161665 -0.6846241 0.5155285 -0.33752137 0.1418932 0.016693434
-0.18385549 -0.43380427 -0.34707507 0.11847962 -0.087226056 0.23245569 -0.060640663 -0.30492926
-0.08308779 0.5179928 -0.0016514934 -0.20230018 0.5526704 0.1898928 0.2506125 -0.11646756
-0.5558483 0.3888765 0.24193275 0.07732735 0.5180967 0.5332053 -0.63040495 0.19705532
0.14049555 -0.07284948 0.23048328 -0.6263937 -0.5276385 -0.48403633 -0.119413845 -0.17226264
0.06966958 0.0909115 -0.19563815 -0.29055634 0.003485545 0.52699614 -0.6286352 -0.105053954
-0.46341693 -0.007596604 -0.46655568 0.12782034 0.095425 -0.19984853 -0.34949246 -0.31239486
-0.010661654 0.11479323 0.031017145 0.15751228 -0.13925605 0.032135326 -0.2605197 0.58949256
0.6455251 -0.54270846 0.43720594 0.47856408 0.4779062 -0.050094496 -0.24029489 0.4394301
-0.28586265 0.5094714 -0.35634026 0.11684152 -0.11764782 0.18749015 -0.40329096 -0.24994761
-0.015268755 0.3381561 -0.61350226 0.49478728 0.15737163 -0.4669976 0.11803943 -0.577008
0.38531303 0.112200916 -0.08255478 0.2562565 -0.05915268 -0.09560297 -0.46828195 -0.34833673
-0.6467477 0.5739394 0.32265213 -0.24646544 -0.27272728 -0.16247113 -0.60977274 -0.20281398
-0.1833065 -0.54724646 0.6332275 -0.6043939 -0.030079223 0.15144883 0.63522524 -0.4767109
-0.08785691 -0.14951092 -0.18813163 0.10380742 -0.42075568 -0.13703716 0.44619817 0.3343731
0.46025515 -0.12280676 0.0022959928 0.12684402 0.22456525 -0.06928614 0.106789656 -0.014418501
-0.010668256 -0.46237862 0.40103838 -0.47671446 -0.20341474 0.06779496 0.3040816 0.24413034
0.18266691 -0.4595493 0.21812937 0.3272649 0.41549265 0.54340494 -0.4142108 0.3793461
0.26508683 0.4872482 0.25011715 0.38543224 0.3642164 0.43755668 -0.19062595 0.33546448
-0.3818838 -0.65983087 0.5634787 0.17169906 0.36546516 -0.45432332 0.35734624 -0.4036989
-0.1693752 -0.09164518 -0.20531924 0.30744568 0.5255242 0.2658737 -0.077094 -0.09272979
-0.20002025 -0.15432286 -0.0879414 0.45765242 -0.23055306 0.22159599 0.00081030105 -0.18805565
-0.34033006 -0.41835922 0.23609222 0.259477 -0.35815054 0.21442677 -0.43490696 -0.22314821
-0.18048336 0.25953305 0.5572928 0.44307488 -0.13626313 0.17063954 0.2732665 0.49493173
0.2355832 -0.33501795 0.47063178 0.60134405 -0.28630927 0.30786052 0.12604508 -0.3939699
0.5062038 -0.12238008 0.48462525 0.38051552 0.05499193 0.46347788 0.5935536 0.2661009

net.0.bias f4 [256]
00000000: b72e 8bbe fe78 7e3e f91c 723e 822c e2be
00000010: 6235 bb3e 53b3 3bbd 00e7 933e 5c61 0dbf
00000020: 1d01 17bf 35c5 763e 9b70 053f 5fc7 853e
00000030: df86 193f bed1 00bf 02c6 e83e 431e f23d
00000040: 57ff 2b3e 0b11 5f3e cfbf 8c3e 75ed 123f
00000050: 464e 113f a301 343e 4b02 f63e f923 86be
00000060: 9f3d c23e 0386 0e3f 17a1 9e3e a1ce 0e3f
00000070: 83fb 353e b352 c73e 3ebd a5be f226 19bf
00000080: 690f a53e 45ae 803d d297 d53e 1bd7 37be
00000090: 98be b23e 8464 f0be 2a0a a3be 7db8 78bd
000000a0: 7d26 d1be 59f7 473e e483 c2bc bec7 eebe
000000b0: 6da0 08bf cc48 57bd 4654 c23e 9e8a 1b3f
000000c0: 00a5 0abf 906c 6f3d ac0a 833d 9b6a 813d
000000d0: b463 eebe 8d0e e93c 1512 6d3d 2d52 8ebc
000000e0: ef62 953e 4cdd 10bd 1ada bd3d 6817 f1be
000000f0: 87e8 b13e ee2d b13e 7ccd a63d d169 e9bd
00000100: 95ef 19be 8a7a 853e fcb6 a43e fe71 f8be
00000110: 5466 10bf 7f26 063f 3dba 433d 1667 7e3e
00000120: 12b1 debd 7628 e0bd 63ea 553e 7e4d aebd
00000130: 0c47 a73e 517b 5ebe fde8 1dbe da76 7d3e
00000140: 5063 1b3e 57e7 d5bd 1eac c83e e33d 79be
00000150: 401f 31bf 385d c63e b1ab e43e d188 86be
00000160: 6cad 06bf 0b50 333f b816 aabd 9f5e 043f
00000170: f53d 12bf 467d 903e 15b2 eb3e 5bb6 d23e
00000180: ff82 06bf 8128 443e 4a34 e73d bc44 c23d
00000190: 4eb4 2d3d 2204 6ebe 31a0 d53e 0ec6 84be
000001a0: 39e2 0c3f aeb9 cb3d 3458 873e 2c1b edbe
000001b0: e0ca 45be 98b9 8bbd 5f69 c83e b7c8 193d
000001c0: 2b5e 323e 4d07 3f3e 100e d7be e957 ce3e
000001d0: fea4 98b9 a1b4 edbc 0e49 1bbd 5ea8 033e
000001e0: 9632 c8be ab7d cf3e ff73 ac3e 5ec2 fdbe
000001f0: d5ea e83c 343e a23d 480c 15bf 44f8 043f
00000200: 0907 ec3e 916b 9ebe 49cc 833d 9898 a13e
00000210: 9d17 893e 3214 b4be 3d72 973d a49d a53e
00000220: 4a21 543e e2ba bebe 2297 9bbe 6bd5 803e
00000230: 049c 3e3e d099 803b 52c3 373e d6cd c7be
00000240: 884d e13e 0de2 d53e 2c0e d5be e22f ffbd
00000250: 4f20 9f3e 9291 a0be b962 ed3c 07a7 e43c
00000260: bdf9 08bf 655e 51be 1366 d4be 3553 68be
00000270: ef4e cd3e 75ba 853e 2cc4 d9bd 2c92 d9be
00000280: 7e93 b43e 6e6d 9ebe bf14 cc3e 2446 e6be
00000290: c587 333e ae5b 8abc 714e 5f3e 2fe9 07bf
000002a0: db2e a23e f9c4 43be eb7d 14bf 0f0e 0f3e
000002b0: 3674 d9be 8490 bdbe 4977 d13e 191a 55bd
000002c0: ce35 b83d 5a11 e43d 26fa 90bd e7ab 0abf
000002d0: 357a 073f 7c11 b6be 07ae 083f aabe 41be
000002e0: 214f 1f3d 2445 e33e 3368 21be bb5f d5bd
000002f0: bbfb c73d 4df6 203e 47e2 20bf c4cb d2be
00000300: ce66 9e3d b198 c0bd a5d8 063e aecd fd3e
00000310: ac8d b0be b31e e33e d3ed 303e a690 bb3e
00000320: cf3e e6be ded3 653c ee5a 053e 8587 02bf
00000330: 6c24 e13e 75b7 d5be 809e 083f 898e 123d
00000340: a426 ef3e 0c82 00bf 00d4 9abe 4296 833e
00000350: e861 bd3e a3c0 8d3e b0cd 03bf ee0c 023d
00000360: 7071 08bd c66f 753e a546 fdbe b423 a7be
00000370: f406 acbe 5d3a c7be 8666 cf3d 0ce0 c1be
00000380: 36ea 853d c59c 1e3f f15a 45be 57d8 0cbf
00000390: 4a49 07be 626a 2a3f 3894 7d3e 7bdc 3bbe
000003a0: 6edd fd3e c73b 853e c5a4 f33e 7df5 0fbf
000003b0: 4196 5c3d c94e f6be a766 c1bd 417c f9be
000003c0: 0ccc 1dbe 5c89 413e 76db ee3d b745 21bf
000003d0: e9d7 1bbd fc98 a53e ac31 8e3e 3d34 17be
000003e0: d582 97be f977 cabe 031b 3c3e b53a ae3e
000003f0: 0875 123e a329 d7be b73c 3cbe b53a ddbe
-0.27184078 0.24850842 0.23643865 -0.44174582 0.36564165 -0.045825314 0.28887177 -0.55226684
-0.58986074 0.24098666 0.5212495 0.2612867 0.5997142 -0.5032004 0.45463568 0.11822178
0.16796623 0.21783845 0.27490088 0.5739358 0.5676006 0.1757875 0.48048624 -0.2619932
0.37937638 0.55673236 0.30982277 0.5578404 0.17771725 0.38930282 -0.32370943 -0.5982505
0.3223832 0.06283239 0.41717392 -0.1795315 0.34911036 -0.46951687 -0.31843692 -0.060722817
-0.40849677 0.1952795 -0.023744531 -0.46636766 -0.5336979 -0.05255966 0.3795492 0.6075839
-0.5415802 0.058453143 0.0639852 0.063191615 -0.46560442 0.028449321 0.057878572 -0.017373169
0.29177043 -0.035367295 0.09270115 -0.4708817 0.34747717 0.34605354 0.08144662 -0.11397136
-0.150328 0.26070052 0.32170856 -0.4852447 -0.5640614 0.5240249 0.047785033 0.24844012
-0.10873617 -0.10945217 0.20890193 -0.08510874 0.32671392 -0.21726729 -0.15420909 0.2475237
0.15174603 -0.10444515 0.39193815 -0.24340014 -0.6918831 0.38742995 0.4466224 -0.26276258
-0.5260837 0.7004401 -0.083051145 0.5170688 -0.5712579 0.28220576 0.46034303 0.4115475
-0.52543634 0.19156076 0.1128927 0.09485766 0.04240828 -0.23243764 0.4172378 -0.25932354
0.5503269 0.09947525 0.2643448 -0.46309793 -0.19315672 -0.068225086 0.39142892 0.037544932
0.17418735 0.18655129 -0.42002916 0.40301445 -0.00029114628 -0.029016795 -0.037911467 0.12857196
-0.39101094 0.40525565 0.33682248 -0.49562353 0.02843229 0.079220206 -0.58221865 0.51941323
0.46099117 -0.30941442 0.06435449 0.31561732 0.26775828 -0.35171658 0.07394836 0.32346833
0.20715824 -0.37251955 -0.30388743 0.25162825 0.18614203 0.003924586 0.17945603 -0.39024228
0.44004464 0.41774026 -0.41612375 -0.12460305 0.31079337 -0.3136106 0.028977739 0.027911676
-0.5350607 -0.20446165 -0.41484126 -0.22687991 0.40099284 0.26118818 -0.1063312 -0.42494333
0.35268778 -0.30942863 0.39859578 -0.44975388 0.1753226 -0.01688942 0.21807267 -0.53090185
0.31676373 -0.19118108 -0.58004636 0.13970207 -0.42471474 -0.3702432 0.4091132 -0.05202684
0.089946374 0.11136122 -0.07078962 -0.5416855 0.5292085 -0.35560215 0.53390545 -0.18920389
0.038893823 0.44388688 -0.15762405 -0.1041865 0.09764811 0.15718956 -0.6284527 -0.41171086
0.07734452 -0.094041236 0.13168581 0.49570984 -0.34483087 0.4435936 0.17278223 0.36633795
-0.44969794 0.014027564 0.13022968 -0.50988036 0.439731 -0.4174153 0.5336685 0.035780463
0.46709168 -0.50198436 -0.30239868 0.25700575 0.3698876 0.27686033 -0.5148573 0.031750612
-0.033311307 0.2396842 -0.4946796 -0.32644427 -0.33599055 -0.38911715 0.10126977 -0.37866247
0.06538813 0.6195796 -0.19272973 -0.5501761 -0.13211551 0.6656858 0.24763572 -0.18345825
0.49583 0.2602217 0.47586647 -0.5623396 0.05385423 -0.48106983 -0.094434075 -0.4872761
-0.15409869 0.18900055 0.116629526 -0.62997 -0.038047705 0.3234328 0.27772272 -0.14766021
-0.29592004 -0.39544657 0.18369679 0.34029165 0.14302456 -0.42023954 -0.18382536 -0.43208852

net.2.weight f4 [256, 256]
00000000: 564d 24bd 66b9 bc3d ffb1 243d 8bca a53c
00000010: 96f7 58bd e4bf 303d 1bec 253d 62e9 d7bc
00000020: fc90 a93c 69b7 b8bd 225f 18bd 9aa6 64bc
00000030: 216d 95bc 1478 2abd 3107 753c 3194 4dbd
00000040: ed2d b7ba ae90 17bc 4ff0 143d e6e4 dfbc
00000050: 7763 073c e54c 7bbd cbf1 6d3d a7a4 9bbd
00000060: 0606 a03b 6a38 debb 43c0 cd3b 32e0 1b3c
00000070: 5f8e df3b eb6a bdbc ca8e 46bd 649e 023c
00000080: c105 443d 59e3 90bb 9712 203d 8f90 43bd
00000090: 9edb 39bc 67a4 893c b65f 1c3d f727 0abd
000000a0: 1f67 8b3d 2210 1e3c 946b 9b3d ea25 0a3d
000000b0: 6602 0e3d 20cd 38bd 77f6 fe3c 8136 4fbd
000000c0: 7aa5 273d c12b aa3d 8d2a a23d cbed 6c3d
000000d0: ebfc 803c 1f85 373d aaa1 b33c 3116 d23c
000000e0: cb1a 8e3d 5b91 89bd a774 283d a7d5 4b3d
000000f0: 5c6d 993b d048 1e3d b58e 873d cf4d a83d
00000100: 8b36 35bd aaed 8f3c 3f79 33bb 2cfb a43c
00000110: 0b3d 413d 7bda 53bd c7ca 0ebc 4cee 21bd
00000120: 24b5 0a3d 3d86 a53d 3938 133d 3cb2 1bbd
00000130: 79f1 10bc 5d1d ddbc f4b2 553b e417 4f3b
00000140: 4192 04bd 6fcb a33d 1cd7 dabc cd47 9b3d
00000150: 08ff 2fbd 8b24 02bd 3478 b0bc d121 a8bc
00000160: 39a7 47bd 3dcd 053d 0026 bd3c 3069 2a3d
00000170: ce05 e23c b38f f53c d6bb 303d 1425 82bb
00000180: 925d 64bd 0760 c5bc a803 55bc 06f6 4bbd
00000190: fbb3 e73b 469f 99bd ce4d 873d 79c6 5e3d
000001a0: 75de 323d 5f0f 003c e912 083c 918c a73d
000001b0: 4d8d 8c3b c8a0 993d ca45 ae3c 1bf6 b13d
000001c0: a9dd 863c 19fd 6d3d 2a07 8db9 af2e 17bd
000001d0: 5841 74bd 2273 7cbc 595f 2abd c6f5 6cbd
000001e0: 27c9 563d 994b 513d 3999 a73d 486b 1abd
000001f0: dd29 123d 8094 81bc d1bd 2e3d 6795 e83c
00000200: 2749 393d bc97 fdbc cb12 19bd 786b 2bbd
00000210: 3de8 66bb 9f67 633d a11d 86bc c15b 333d
00000220: ac08 1cbd 1c34 56bc 4bb9 5abd 0e79 c23d
00000230: ac3e 833d 1280 32bc dafb ca3d 993a 18bd
00000240: 0e62 b33b 95b6 a5bc 4afb 1fbd 11a2 61bd
00000250: f1d6 103d 6ac7 b73c 603f 7bbd 41d1 9f3a
00000260: 6e9c 54bb 9ad2 ac3d ee22 90bc 7b36 2d3d
00000270: d27e b3bc 5fe7 67bd e86d 203d 6d3b 923d
00000280: 0244 2d3d e3ea 833b 1f54 f9bc dccb 5a3d
00000290: f905 72bc b177 713d 90ca 773d a4f8 b2bc
000002a0: b156 6f3d f51b c4bc 26b9 d13c 6679 ca3c
000002b0: 9d98 8cbc 5fe6 c03c 172a 9a3d 03bc 0abd
000002c0: d471 03bc d17c 32bc 7943 e4bc 87de ef3b
000002d0: 4a55 843c 5b85 003d cbd5 933d cad1 a53d
000002e0: 14df b4bb 502b 073c b94d 373d e9f3 ce3c
000002f0: 8cdf 1cbd f622 fcbc 1261 7539 7636 b93d
00000300: 4a11 8d3d 745b 733c 69dd 35bc a4f7 69bd
00000310: 89a6 363c 4bdf 69bc 44f9 cbbc dbf8 553d
00000320: 113a 353d 80f3 41bc 10bd 48bd 40f6 5a3d
00000330: 230b f4bc de80 913d 940b 923d ef71 4f3d
00000340: 1d4b 723d e5a1 e13c b533 403d 27b4 2bbd
00000350: 5637 39bc 36b3 b8bc 508e abbc 7dde 0b3a
00000360: f88f 353c 2816 893d f1ef 333d 84c0 14bd
00000370: 420c 28bc 073f 143d 9224 a83d d9ef 943c
00000380: 8f81 bdbb 0d81 133c 55dd 773d d7a0 a8bb
00000390: 7da5 623d 1ad7 923c 2c56 313c 0de7 1abc
000003a0: 833a 883d d67e 9a3d 4f56 b43c 823e d13c
000003b0: e8f1 4d3d 2c13 8f3d dd2e efbc 1cae 8bbc
000003c0: 0c5b b43c e0c8 d93c f3f8 753d 73b9 b43c
000003d0: 8347 95bb 466f 0b3d 0823 a73d 2461 4c3d
000003e0: 626a 6d3d 6dd3 a8bb 02e9 e33c 54b9 9abd
000003f0: 4126 923d 39bd f53c af04 643c 4ff9 763c
-0.040112816 0.092150494 0.040208813 0.020238182 -0.05297049 0.04315175 0.04050837 -0.026356403
0.020699017 -0.09019358 -0.0372001 -0.0139557365 -0.018240513 -0.04161842 0.014955328 -0.050190154
-0.0013975479 -0.009250803 0.03636199 -0.027330827 0.00826346 -0.06135263 0.05809192 -0.07599764
0.0048835305 -0.0067816274 0.006279023 0.009513902 0.006822392 -0.023122272 -0.048476018 0.007972334
0.04785705 -0.004421633 0.03908023 -0.047745284 -0.011343865 0.016802026 0.038177215 -0.03372952
0.06806778 0.009647401 0.07588878 0.033727564 0.034670256 -0.045117497 0.031123383 -0.05058909
0.040929295 0.08309127 0.07918272 0.057843965 0.0157456 0.04480469 0.021927673 0.025645347
0.06938704 -0.067171775 0.041126873 0.0497643 0.004682226 0.03864366 0.06619016 0.08217966
-0.04424147 0.017569382 -0.00273855 0.0201393 0.047177356 -0.05172203 -0.008715338 -0.0395339
0.033864155 0.080822445 0.03594229 -0.038011774 -0.008846634 -0.02699154 0.0032607885 0.0031599933
-0.03236604 0.07997786 -0.0267139 0.07582054 -0.042967826 -0.03177313 -0.021541692 -0.020523937
-0.04874346 0.032666434 0.023089409 0.04160422 0.027590659 0.029975748 0.043147884 -0.003971705
-0.055753298 -0.024093641 -0.01300136 -0.049795173 0.007071016 -0.07501082 0.06606637 0.054388497
0.043669183 0.007816165 0.00830529 0.08181108 0.0042893053 0.0750137 0.021273512 0.08689519
0.016463118 0.0581027 -0.00026898953 -0.036909755 -0.05963263 -0.015408309 -0.041594837 -0.057851575
0.052437928 0.051097486 0.08183522 -0.037699968 0.035684455 -0.01581788 0.04266149 0.028391553
0.04523578 -0.030956142 -0.037371438 -0.041850537 -0.003523364 0.055518743 -0.01637155 0.043788675
-0.038094208 -0.013073947 -0.053399365 0.094957456 0.06408438 -0.010894792 0.09911318 -0.037165258
0.0054743355 -0.020228663 -0.039058007 -0.0550862 0.035361234 0.022433955 -0.061339736 0.00121931
-0.0032441872 0.084386066 -0.01759478 0.042288285 -0.021911059 -0.056617137 0.039167315 0.07140241
0.042301185 0.0040258034 -0.03043562 0.05341707 -0.014771932 0.058952037 0.060495913 -0.021847077
0.058432285 -0.023939112 0.025600981 0.02471609 -0.017162615 0.02354735 0.07527559 -0.03387071
-0.008022744 -0.010894016 -0.027864205 0.0073202285 0.01615395 0.031377178 0.07218512 0.08096655
-0.005519757 0.008250073 0.044751856 0.02526279 -0.03829913 -0.03077839 0.00023401182 0.09043591
0.06888063 0.014853347 -0.011100152 -0.057120934 0.0111481035 -0.014274429 -0.024899133 0.05223928
0.04424483 -0.01183784 -0.04900843 0.0534575 -0.029790467 0.071046576 0.071311146 0.050645765
0.059153665 0.027543018 0.04692431 -0.041919854 -0.011304697 -0.022546392 -0.020941883 0.00053355825
0.011081688 0.06693679 0.043929998 -0.03631641 -0.010256829 0.03619292 0.082101 0.018180775
-0.005783267 0.009002936 0.060513813 -0.0051461267 0.055333603 0.017924834 0.010823768 -0.009454501
0.06651785 0.07543723 0.022013811 0.025542501 0.050279528 0.069860786 -0.02919715 -0.017050795
0.02201607 0.026585042 0.06005187 0.022061085 -0.004555644 0.034041665 0.081609786 0.049897328
0.057962783 -0.005152157 0.027821068 -0.0755488 0.071362026 0.029997455 0.013917132 0.015074088

net.2.bias f4 [256]
00000000: 2278 8f3d 922b b23c 08ce 1ebd 606d 453c
00000010: 361b e93c ac53 2ebd 6570 c1bd 4562 26bd
00000020: 4e0b 463d 229b 873d bd82 bb3c 9488 c4bc
00000030: b1ea 3f3d e464 2e3d c156 7ebc bc95 f03b
00000040: 6656 bb3c fbcd 153d 424a e2bb c7fb 92bd
00000050: 1a0b 8ebc 42ff cb3c e43a 1abd ccae f4bc
00000060: 2b34 d03c 3fec f83c 84fc 84bc bdb4 8bbd
00000070: b8dc a23a acc3 ddbb f571 8fbc 70a1 15bd
00000080: 412f b0bc a1d5 793d 65de 9ebd a374 833c
00000090: c6aa 03bb b821 343d 5c87 913d 1e23 ba3c
000000a0: b245 39bd b220 1bbd d378 3c3d 709e 32bd
000000b0: 92b0 753c dc04 8c3d 2ac8 12bd fe7f abba
000000c0: 62c4 d0bc 799f e9bc 3aa6 c33b 35ad 66bd
000000d0: e896 debc e9af 1ebd c710 5bbd 6540 093d
000000e0: b50c fbbc 3274 a6bc 81e7 903c bc16 93bc
000000f0: e40f 093d d693 0bbd 3814 53bd abe7 4abd
00000100: 9d46 4fbd cd86 443a b6bc 333d f675 32bc
00000110: f373 463d 42dc 183d cd4a 5abc cfde fdbc
00000120: 2697 9ebc e1c1 153d b01f e1bc d611 d83b
00000130: 05b4 37bd b47c 2e3d c8c6 493d 0c57 063d
00000140: 3df7 50bd 076b a13c aa8f 07bc 2e59 4d3d
00000150: d521 82bd a437 4d3d 13ee 1bbd 5b2b 063d
00000160: 99e2 81bd 9d0b bcbd 8629 1bbe 9fc2 49bd
00000170: 0d31 5fbb a67f 403d 2b59 58bd f38c aa3c
00000180: bec0 0f3d d30c 343d 76b7 df3c 11fa 90bd
00000190: 8fd3 223d 8c33 2e3d d153 9e3a 3eb9 1bbd
000001a0: 5ec5 873c ade0 753c 6373 cf3c d355 5cbd
000001b0: 04f5 83bd b285 633b f0a9 b0bb 4c8c bc3c
000001c0: 7e47 5b3c 61ba d5bc 5dfc 48bd 368a 8abc
000001d0: ad6f 6d3d e873 1bbd e54e d43c 8031 3f3d
000001e0: 3b96 f73c d2be dbbc 450c 53bd 979f c93c
000001f0: c489 aa3c fd96 133c 8352 65bd 7bfc 4ebd
00000200: e113 5c3c fb54 00ba 3d76 09bd 29f3 0a3d
00000210: 4249 55bd 87a9 f23c 2a5b 9cbd 801f 553d
00000220: 9a95 7cbc 3810 0c3d 0278 473d 9f8c c0ba
00000230: 1139 853d f09f d63c e7a1 103d 9a3e 173d
00000240: 9f30 6b3d 212b 0dbc d199 81bd c54a bebd
00000250: 6987 9c3d b035 4a3d 4a66 093d 846f b93c
00000260: e4d9 0639 775d eebc c7a7 573d 4166 213d
00000270: b6ce 54bd 0e49 4bbd 3b0d cbbd 73f2 843d
00000280: 8387 ba3b 281c 623d 32a3 163d 0cf5 81bd
00000290: c1de f3bc cc29 22bc 89de 06bd 8686 f9bc
000002a0: 90cf f43c f87a 71bc 2e70 d83c 3ec0 433c
000002b0: cc56 8ab9 c22d f4bb 7031 1c3c 7cfd d1bd
000002c0: c5ae 2dbd fcc7 00bd 23e6 84ba 2c1e 9339
000002d0: 40b3 873c a1f7 36bc 53af 393d 886d cbbb
000002e0: 565f 89ba 8cdd f5bb 6e07 98bd 33ef 98bd
000002f0: 10ec 703c 724a 30bd 9be6 e93a ed2e 5b3d
00000300: 4490 e03c 9d16 873d abb5 e53c f37e c73c
00000310: a9fb 3fbd ea42 b8bc 7460 043d d8ae 8dbc
00000320: 8cfc bbbc ca4a 90bd 0b09 ecbb 54e2 2dbd
00000330: e287 e63c 1c6f 20bb ec9a 38bd 481d 34bc
00000340: 5b05 723d f5b4 8f3d ed46 c4bd 4045 50bc
00000350: b1c4 33bd c02c ccbc c2bb 5f3d f621 013d
00000360: 4c92 7fbd c503 183c 1aca 32bd 379c a63c
00000370: 9e17 643c e780 383c a75a 213d dd92 3e3d
00000380: 418f 90bc 7aa6 343d 110f e23c dac0 b13c
00000390: b450 b0bc 1dd4 c3bd 8f12 76bd 55b7 82bc
000003a0: dc6f 72bd 7e89 58bd 7e78 b73a 37e8 b7bc
000003b0: 7907 79bb b8a5 743c 9548 31bd 0530 07bb
000003c0: c551 0abc 67a0 9abc f3a6 653c 7ae4 0d3d
000003d0: cbec 2dbc 3c52 f9bc d971 513c dcb3 af3c
000003e0: 753f eebc 43e2 c1bc 69bd b1bd d7f0 9bbb
000003f0: 65dc 69bd 9714 0ebd 0993 053d 343f bb3a
0.070053354 0.021749292 -0.038770705 0.012050003 0.028455358 -0.042560264 -0.09445266 -0.04062106
0.048350625 0.06621386 0.02288949 -0.023990907 0.04685468 0.042576686 -0.015523613 0.0073420685
0.022868346 0.03657339 -0.006905825 -0.07176929 -0.017339278 0.02490199 -0.03765382 -0.029868506
0.0254155 0.030386088 -0.01623369 -0.068215825 0.0012425398 -0.0067677107 -0.017510394 -0.036530912
-0.021506907 0.060994748 -0.07757262 0.016046828 -0.0020090803 0.04397747 0.07105896 0.022721823
-0.045232482 -0.037872978 0.046013664 -0.04360813 0.014995711 0.06836864 -0.035835423 -0.0013084409
-0.025484268 -0.028518425 0.0059707435 -0.056317527 -0.027171567 -0.03874198 -0.053482797 0.033508677
-0.030645708 -0.020319078 0.017688515 -0.017955177 0.03346242 -0.034076534 -0.051532954 -0.049537342
-0.05060445 0.00074968935 0.04388114 -0.010892382 0.04845042 0.03731943 -0.013323498 -0.030990032
-0.019359183 0.03656185 -0.02748093 0.006593923 -0.044849414 0.042599395 0.04926184 0.032797858
-0.051017035 0.019704355 -0.008273998 0.050133877 -0.06354109 0.05010189 -0.038068842 0.03275619
-0.06342048 -0.091819026 -0.15152559 -0.04925787 -0.0034056336 0.046996735 -0.052819412 0.020819163
0.035095923 0.043957543 0.02730916 -0.070789464 0.03975254 0.042529628 0.0012079423 -0.038018458
0.016573604 0.01500718 0.025323575 -0.053792786 -0.064432174 0.003471714 -0.005391352 0.023016118
0.013383744 -0.026089849 -0.049068797 -0.016911607 0.05796783 -0.037952334 0.025916526 0.046678066
0.030223003 -0.026824389 -0.051525373 0.024612231 0.020817645 0.009008166 -0.055986892 -0.050533753
0.013432474 -0.00048954756 -0.033560026 0.0339233 -0.052071817 0.029621853 -0.07634576 0.052031994
-0.015416527 0.034195155 0.048698433 -0.0014690346 0.06505025 0.026199311 0.035310652 0.036924936
0.057419416 -0.00861624 -0.06328166 -0.09291605 0.07643015 0.049367607 0.033544816 0.022636183
0.00012860406 -0.029097302 0.05265024 0.039404158 -0.051954947 -0.049630217 -0.09914633 0.06491556
0.005692424 0.055202633 0.03677673 -0.06345567 -0.029769303 -0.00989766 -0.03292707 -0.030459654
0.02988413 -0.014738791 0.026420679 0.01194769 -0.0002638608 -0.007451744 0.009533271 -0.102534264
-0.042403 -0.03144072 -0.0010139387 0.00028060505 0.016564965 -0.011167438 0.045333218 -0.0062081255
-0.0010480683 -0.007503217 -0.07423292 -0.07467499 0.014704719 -0.043039747 0.0017845215 0.05351155
0.027412541 0.0659611 0.028040728 0.024352526 -0.04687086 -0.022492845 0.032318547 -0.017295286
-0.022947572 -0.07045515 -0.0072032264 -0.04245217 0.028140966 -0.002448029 -0.04506962 -0.010993309
0.05908714 0.07016937 -0.095838405 -0.012711823 -0.04388875 -0.024923682 0.05462242 0.03152653
-0.06239538 0.0092782425 -0.04364977 0.02033816 0.013921646 0.011261201 0.039393093 0.04652678
-0.017646434 0.044104077 0.027595075 0.021698404 -0.021522857 -0.09561942 -0.060076293 -0.01595656
-0.05918871 -0.052865498 0.0013997701 -0.022449596 -0.0037998839 0.014932089 -0.04328211 -0.0020627987
-0.008442347 -0.018875314 0.014016855 0.03464172 -0.010615538 -0.03043472 0.012783491 0.021448068
-0.029082993 -0.02366746 -0.08678705 -0.004758935 -0.05709495 -0.034687605 0.032610927 0.0014285804

net.4.weight f4 [256, 256]
00000000: 2855 243d 9a32 a4bc 0d9a 58bd ba7a 89bd
00000010: d944 d63b 821d 243d 68ca 3c3d d85b ad3c
00000020: 1d1e 103d 24bd 4c3d 8c4d 9fbc 2047 933c
00000030: 6c61 03bd f22b d7bb 35e5 61bc d8a4 c83c
00000040: 228a 2d3c b3a1 abbb 0d8f 4f3d ce87 77bc
00000050: 74fe 42bd c886 b83c a752 1bbd a78e d33b
00000060: 2927 293d 8ffb c53c 249a 983c e980 cb3c
00000070: 93f1 883c a4fe 5abd 64ac 6a3d 4820 58bc
00000080: ea48 d8bc 5b60 0d3c 3029 82bd 6f27 103c
00000090: 82f1 37bc 08f2 0abd 7f85 ae3c 8ab3 ea3c
000000a0: 481a 0abc 9409 6e3d 47d0 9abd 84ae 3ebd
000000b0: 5d66 65bd 9fb6 cc3b b064 05bd 07f4 0bbc
000000c0: b293 8b3d ed34 223d bf36 d83c 19f2 21bd
000000d0: a86b ec3a 0d98 d2bb 8791 cf3c c086 bdbc
000000e0: db87 143d b6fe 0cbc 5252 3dbd d469 683c
000000f0: a5dd 013d 427d 173d cb45 64bc 69cc 943d
00000100: ea5f cbbc 67fc 83bd 5964 05bc 6c87 d03b
00000110: 3f2b 4a3c 3d02 e43c 0283 c0bc bc40 183c
00000120: 183f 673d bf39 02bd 3a52 293c a6ec e9bc
00000130: c2d5 81bd 4dae 4a3d fa1b 3c3d 936d 1e3d
00000140: fc30 dfbc 83d0 e5bc b16e 4b3d 95ab 8cbc
00000150: d9e6 87bd d014 5fbc 58a4 8e3d 028b 8abc
00000160: 8e52 833d 3d32 153d 589f 80bd 0ca4 633d
00000170: 67ae 003c 8b34 393c 566b 8dbd 06f4 d6bc
00000180: 3f00 b73c ac5f 9dbc 23a2 2ebd fb78 80bc
00000190: 5ebc f33c 5ff3 adbc 12af 3c3d b5d7 a8bc
000001a0: 1d5c bc3c 9d28 243d ff3a 283c 7af0 213b
000001b0: 0ab7 37bd c7ed 813d 37db ccbc 85e2 f13c
000001c0: 26da 4bbd 8750 1dbd 7058 5f3d e201 31bd
000001d0: f37e e63c 8d09 2b3d 2312 2f3d 5fdb d93b
000001e0: 0c4e e43c 1d37 133b dba3 76bd 43a2 913c
000001f0: 98d5 55bd f90f a13c d3db 023c 7c33 1b3d
00000200: a2f9 e9bc 7fcb 1ebd 6803 4abc 1832 35bc
00000210: 9215 403c 40f6 313b a2a6 073d 1435 293c
00000220: 3906 80ba e553 a23c 1f74 0dbd 9669 2bbd
00000230: 60a2 56bd 343e 25ba ef6d 47bd fd7f 37bd
00000240: 7387 6abc d5e3 5c3c d002 15bd a649 8fbc
00000250: 6aca 3cbd 0693 0c3d 11ad 293d b884 6d3d
00000260: e495 2ebc 7ecd e2bc 746f 3abb 5630 263d
00000270: 5907 ff3c 4d98 4ebc 1581 4dbd c557 cebc
00000280: 8da0 81bb 736e 303c e441 27b9 d223 0ebd
00000290: 6c05 fabb 8cd7 103d 93f1 5bbd d840 92bb
000002a0: 111b 313d de92 82bc 8b26 efbc f8ee d83c
000002b0: 5ab1 b2bc 0656 353d 00ac c1bc d46f dfbc
000002c0: c6ee 3d3d a184 43bd ecc0 36bd 17ba 53bc
000002d0: b110 08bd 8fd7 2cbd a6de 57bd 33bf ddbc
000002e0: b5bf 03bd 4aa0 8ebc d72c 223d 3899 e5bc
000002f0: 3a42 4e3c 54aa e7bc 36a8 fcbc e3cc e8bc
00000300: 4b6d 84bc ec83 16bd 0d59 48bd a260 7f3d
00000310: 27cc 08bd 3708 a53c ad33 fc3c 044b a23c
00000320: 6150 583d 856b 883c 577c 153c cb9d 0b3d
00000330: 96cd da3b 84a9 0c3d c11a c73b f380 9a3c
00000340: 0f1c 493d e977 51bd 5e38 05bd 4df7 823d
00000350: b15c 573c 9955 2c3d 3b8d aa3c d9ff 10bd
00000360: 6206 353d 9949 d8bc de70 54bc 4f68 69bd
00000370: bcb4 4a3c d616 c23c dfde d73b 8fe8 b6bb
00000380: d862 8b3b 7fcf 7a3b 6621 103d fcc8 483d
00000390: 9924 6abd 53c3 f03c df4f 253d 4368 aabc
000003a0: 1b6f e33c e6da 943b c4d6 12bd 7752 51bd
000003b0: ff94 3f3b 53ff 853b 10cd 7a3c 6fbd 50bc
000003c0: c260 1dbc 85a7 c8bc 25f7 1e3d 7fb7 d03b
000003d0: cdca 323d 568a 523c 57d1 84bd c701 753d
000003e0: 8954 293d a7c5 a33c 52a5 a83c ad32 d2bb
000003f0: 0d60 acbc eeeb e13c 8cde 553d 52a3 68bc
0.040120274 -0.02004366 -0.05288129 -0.06712861 0.006538969 0.040067203 0.046091467 0.021161959
0.03518497 0.049985066 -0.019446157 0.017978251 -0.03207533 -0.006566518 -0.013787557 0.024492666
0.010592015 -0.005237782 0.050673533 -0.015108062 -0.047605947 0.022525206 -0.03792062 0.0064562145
0.04129711 0.024167804 0.018628187 0.024841743 0.016716754 -0.0534655 0.05729331 -0.01319129
-0.026401956 0.00862893 -0.06355512 0.008798464 -0.011227014 -0.033922225 0.02130389 0.028650064
-0.0084291175 0.058114603 -0.07559257 -0.04655315 -0.056005824 0.006247356 -0.032566726 -0.008542067
0.0681528 0.039601255 0.026393292 -0.039537523 0.0018037455 -0.0064268173 0.025337948 -0.023135543
0.036262374 -0.00860565 -0.046221085 0.014185388 0.031705517 0.03698469 -0.013932656 0.07265551
-0.024826009 -0.06444626 -0.0081416005 0.0063638 0.012339412 0.027833099 -0.02349997 0.009292778
0.056456655 -0.031793352 0.010334546 -0.028555226 -0.06339599 0.049482632 0.045925118 0.038678717
-0.027245037 -0.028053528 0.04966611 -0.01717166 -0.066358276 -0.013615802 0.0696494 -0.016911987
0.064122304 0.036424864 -0.062803924 0.05557637 0.007854081 0.011304031 -0.06905238 -0.026239406
0.022338985 -0.019210659 -0.042635094 -0.015682688 0.029752906 -0.021234212 0.046065398 -0.02061067
0.022993142 0.040077794 0.010267972 0.0024709986 -0.044852294 0.063441806 -0.025006874 0.029526958
-0.04976859 -0.038406875 0.0545277 -0.043214686 0.028136706 0.041757155 0.042741906 0.0066484655
0.027869247 0.002246327 -0.06021486 0.017777568 -0.052205652 0.019660937 0.0079869805 0.037890896
-0.028561417 -0.038768288 -0.012329914 -0.011059307 0.011723893 0.0027154833 0.033117898 0.010327596
-0.000976748 0.019815395 -0.03453457 -0.04184874 -0.052400947 -0.00063035195 -0.048688825 -0.044799794
-0.01431452 0.013482054 -0.036379635 -0.017491173 -0.046091475 0.0343199 0.041424815 0.0579879
-0.010655854 -0.027685877 -0.002844778 0.04057344 0.031131433 -0.0126095535 -0.05017193 -0.025188336
-0.0039559067 0.010768521 -0.00015950907 -0.03470213 -0.007630041 0.03536181 -0.05369718 -0.0044632964
0.043238703 -0.015939172 -0.029193183 0.026481137 -0.021813083 0.04427149 -0.023641586 -0.027275003
0.04637029 -0.047733907 -0.04461758 -0.012922785 -0.033219043 -0.04219776 -0.05270257 -0.02706871
-0.032165248 -0.017410416 0.039593544 -0.028027162 0.012589032 -0.028279461 -0.030841928 -0.02841801
-0.016165396 -0.036746904 -0.04891305 0.062348016 -0.03339782 0.020145519 0.03078636 0.01981116
0.05281103 0.016652832 0.009123883 0.03408603 0.00667734 0.03434135 0.0060761874 0.018860316
0.049099024 -0.051139746 -0.03252446 0.06394825 0.013144658 0.04207382 0.020819297 -0.035400245
0.04419554 -0.026402282 -0.012966363 -0.056984242 0.012372192 0.02369253 0.0065878476 -0.0055819224
0.0042537265 0.003827065 0.0351881 0.0490198 -0.05716381 0.029390013 0.040359374 -0.020801669
0.02776294 0.0045426963 -0.035849348 -0.051104035 0.0029233096 0.004089275 0.01530768 -0.012740477
-0.009605588 -0.024493942 0.038809914 0.0063695307 0.043650437 0.012850365 -0.06485241 0.059816148
0.041340385 0.019991709 0.020586643 -0.0064147324 -0.021041894 0.02757832 0.05221419 -0.014199095

net.4.bias f4 [256]
00000000: 6646 48bd 3919 37bd 7402 a3bc 9cd9 58bd
00000010: 6594 32bd 60c1 963d 9e94 5fbc 227e d2bb
00000020: 5cdd f5bc f795 00bd 6e76 67bc 6327 483d
00000030: c4e0 2dbb 19dd f7bb 5ea7 cf3c 8ebd 553d
00000040: 9911 34bd 2c24 473b 4d43 ad3c 3bc8 37bd
00000050: 77f4 80bb 18e4 ad3b f8a1 28bd 94b8 683d
00000060: 7e7b 8f39 0228 83bd 830d eb3c 25b4 f93c
00000070: 2bec 86bd 6dc0 dd3c af22 623d 1d69 8b3d
00000080: ee03 3e3d a8f5 d73b 81f0 0abd 089c 0cbc
00000090: 18e0 053d fd42 0b3d b693 343d fbb0 0abd
000000a0: ccf8 f63b cf1a debd 6baf 9a3d 1d87 61bd
000000b0: f8d7 22bd ae97 5abd fd04 12bd a735 52bc
000000c0: 5261 06bd 3445 dcba bd23 4bbd a4f6 5dbd
000000d0: e1fe 24bd 5341 6a3c a434 6abd 3eba 0c3d
000000e0: 5bae 3ebd 7c0b c839 eadd 123d 3734 8e3d
000000f0: 5eba c63c e1bb 0cbd c0bd f0bc c40b 793d
00000100: 83ea 4a3d 6d1a 6c3d 886a 28bc 5443 903d
00000110: 07eb 393d e2d5 813b 79ec 47bd 1b4e 51bd
00000120: cab8 573d 176a 6e3d aa25 ac3b 1ca8 613d
00000130: 7b54 30bd b795 89bb e858 80bd a97a 03bc
00000140: b4c3 42bc 0f10 b9bc b0f0 063d 6087 623c
00000150: 0adf 6fbd 6a3b 5bbd 2f5f bebd 0f2e 303d
00000160: 2197 903c dc7d 2ebc 3ead 343c 137c 94bc
00000170: 8986 31bd 6ecf b9bc 79a5 b3ba 5e5f 8f3d
00000180: 54d8 eabb 4a02 183d 6535 e6bc 55c6 44bc
00000190: c8e1 32bd 7114 d23c 02bb 9f3d 1e67 f83c
000001a0: ac27 c0bc 7210 03bc 3c88 fdbc 0062 b7bc
000001b0: a404 60bc 114b 0a3d db5d 94bb 5e9d 8dbd
000001c0: b4a8 26bd 4311 6abc 52ed 37bc 6374 27bc
000001d0: 6429 e53c 19e2 783d 0a40 883d 571f ee3b
000001e0: 7ef1 a4bb 3cc1 8abd 739b 833c 0d0e c239
000001f0: 25db 9dbc 56bd 69bd cfe8 64bc 4c6b ccbd
00000200: b740 dabc b116 0ebd dea6 dcbc 7d21 093d
00000210: 3122 80bd 928d 063d 7e8a 8dbb 608d e0bb
00000220: 0e4f bd3c 833b 5ebd adf7 1d3c d271 69bd
00000230: f674 f43c 604d 8fbb 93aa 05bc 9e15 e5bb
00000240: f5cb 2ebd 4743 e63c 815a 25bd 2620 0fbd
00000250: cb2d 16be 12fa 2d3d 7f44 13bb 8172 c73c
00000260: 75e0 a9bc 7ff5 7abd 35b6 79bd fb9e 9bbd
00000270: f592 4bbd a9ad d3bc 97cb 2e3c 8b75 55bd
00000280: c61a 773d ae1b 123d d8aa 243b b869 7e3b
00000290: ef37 183d 4f94 43bd ab23 5c3d d6d4 7fbb
000002a0: 42e7 40bd a711 de3c 344f 103c f9f4 36bd
000002b0: 4649 04be df72 023d 340d 32bd 9820 1b3b
000002c0: 38ec 5b3d 9e89 8abd 841a 863b 2a27 6c3d
000002d0: 76ea c1bd 5eb1 76bc fb11 ea3c 1bbb 0abd
000002e0: 2ade e8bc aa2b 8dbd bf49 abbd 2536 4ebd
000002f0: df28 b5bc 56fb 4d3d 0be5 4c3d fd61 24bd
00000300: e58c 2fbd 3ee9 bfbc 7fa0 d73c bf7a 8abb
00000310: 3635 ae3b 1e2c 0abb 69cd 813d 21b9 043c
00000320: 509c 883a d872 953b 0bec dcbd 7b91 c23c
00000330: 6735 71bd c0e5 76bd a763 8dbc b4e3 953c
00000340: 9f7d 1bbd b067 a9bd d99d 913c 2e66 433b
00000350: bc7d 26bd 91df 673c 2110 49bd 4ee5 1dbd
00000360: cbab 5e3d 9d02 8e3c 1764 81bd 5198 43bc
00000370: 8372 bdbd 8ac5 62bc 833c 593d 0d61 26bd
00000380: a9aa c73c 8ad3 a5bd f24e 5d3d d721 13bc
00000390: fb6f 34bd e25f 833c beff 1a3a 876f 103d
000003a0: a830 67bd b074 fdbc 1864 803b 119e ac3c
000003b0: e7dd 4a3c 877b 1ebd 8673 903c 4f5c 123b
000003c0: a448 a93b 0100 dbbb 9ca9 2a3d d008 2d3d
000003d0: b787 153d 5880 b43c 720e 57bd 7b91 2abc
000003e0: c66a 3abd da85 113d f024 b5bd 2e25 afbc
000003f0: 2027 4cbd 668a 693d 3f71 94bd d174 40bd
-0.048895262 -0.04470179 -0.01989863 -0.052941903 -0.04359855 0.07361102 -0.013646273 -0.0064237276
-0.030012779 -0.031393018 -0.014127357 0.048865687 -0.0026531676 -0.0075641987 0.025348362 0.052182727
-0.043962095 0.003038655 0.021150256 -0.04486869 -0.0039353925 0.005306732 -0.04117009 0.056816652
0.00027367094 -0.06404115 0.028692966 0.030481407 -0.06588014 0.027069295 0.055208858 0.06807158
0.046390466 0.006590564 -0.03392077 -0.008582123 0.032684416 0.033999432 0.04408618 -0.033860188
0.007536983 -0.10844957 0.075529896 -0.055060495 -0.039756745 -0.05336731 -0.03564929 -0.0128301745
-0.032807656 -0.0016805292 -0.04959463 -0.054190293 -0.040282134 0.014297801 -0.05717911 0.034357302
-0.046552997 0.0003815553 0.035856165 0.06943553 0.024258789 -0.034358863 -0.029387355 0.060802236
0.049540054 0.05764239 -0.010279305 0.07044092 0.045390155 0.0039622644 -0.048809502 -0.051099878
0.052666463 0.058206644 0.0052535133 0.055091962 -0.043049317 -0.0041987556 -0.062669575 -0.00802485
-0.01188748 -0.022590665 0.03294438 0.013826221 -0.058562316 -0.05352346 -0.092954986 0.043012675
0.017650189 -0.010650124 0.011027632 -0.01812557 -0.043341193 -0.022681918 -0.0013705931 0.07000612
-0.0071669016 0.037111558 -0.028101632 -0.012010177 -0.043672353 0.025644513 0.07799341 0.030322608
-0.023456417 -0.007999526 -0.03094875 -0.022385597 -0.013672981 0.033762995 -0.00452779 -0.06914781
-0.04068823 -0.014286342 -0.011226015 -0.01022062 0.027973838 0.0607625 0.066528395 0.0072669196
-0.005033671 -0.06775138 0.016065335 0.00037013032 -0.019269535 -0.05706533 -0.0139715215 -0.09981403
-0.026642187 -0.03468961 -0.026935037 0.033479203 -0.062565215 0.032849856 -0.004319488 -0.0068527907
0.023108985 -0.054255974 0.00964157 -0.056993313 0.029840928 -0.0043732375 -0.008158344 -0.0069911024
-0.042674977 0.028108252 -0.040369514 -0.03494277 -0.14665906 0.042474814 -0.0022471247 0.024346592
-0.020736912 -0.06126928 -0.06096478 -0.075986825 -0.049700696 -0.025839644 0.010668657 -0.05211405
0.060328268 0.03567093 0.0025126245 0.0038820338 0.037162717 -0.04774886 0.053744953 -0.0039036772
-0.047095545 0.027108027 0.008807946 -0.044667218 -0.12918577 0.03184783 -0.043469623 0.002367055
0.053692073 -0.0676453 0.0040925164 0.057654537 -0.09468548 -0.015056936 0.028573027 -0.033869844
-0.028426249 -0.06893094 -0.08363675 -0.050344605 -0.022114215 0.05028852 0.05002312 -0.04013251
-0.042858977 -0.023426648 0.026321648 -0.0042260583 0.005316402 -0.0021083425 0.06338007 0.008100779
0.0010422561 0.0045608096 -0.10787209 0.023751011 -0.05888882 -0.0602777 -0.017259432 0.018297054
-0.0379616 -0.0827173 0.017775463 0.0029815543 -0.040647253 0.0141524235 -0.049087647 -0.03854876
0.054363053 0.01733523 -0.06317919 -0.0119381705 -0.09250357 -0.013841042 0.053036224 -0.0406199
0.02437337 -0.080969885 0.054030366 -0.008980236 -0.044052105 0.016036931 0.00059127423 0.03526261
-0.056442887 -0.03093943 0.003918182 0.021071466 0.012382007 -0.038692024 0.01763321 0.0022332852
0.00516613 -0.00668335 0.04166566 0.042244732 0.03650638 0.022033855 -0.05250401 -0.010410662
-0.045511983 0.03552804 -0.08844936 -0.021380033 -0.049842 0.057016753 -0.072481625 -0.046986405

net.6.weight f4 [2, 256]
00000000: 3fbf 42bb 2db2 85bd b843 89b9 e2ab 03bd
00000010: 5d27 86bd 3918 00bd 8e35 2cbb e86e c9b9
00000020: c9da 46bd 1e18 3d3d 2eba ba39 9401 97b9
00000030: be01 023d a8a2 183c da75 81bd 0b48 5abd
00000040: 658c 303a 087b ed39 2e97 03bc 4f81 f4bc
00000050: 72e1 113a fe82 563a 7a90 b1bc e44d cebb
00000060: af26 b63c ecbc 463d 36c2 d639 eab3 7439
00000070: 5ce5 b93c 6038 93bd 1277 893d 8c3f 703b
00000080: 80bc e939 8cf2 4d3a 6811 4ebb e134 75ba
00000090: b6b0 6f39 584e 4f3a 8c13 acb9 8844 d43c
000000a0: 9ffc 1a3d f985 003d ef02 8dbb 9138 203d
000000b0: 3375 4b3a d6f0 393a 3da6 9a38 befa 823a
000000c0: 877b 453a f0d5 8d3b c074 5635 1206 313d
000000d0: ab0e d539 70c8 daba b45e 2f3c acbd 52bc
000000e0: 36cb 7d3b 861d c8b9 d3a5 243a 55f8 13b9
000000f0: d165 f33a 224c 2dbd fea3 363d 62c8 c9b9
00000100: 5ee6 c7b9 e650 59bc 0c86 183a 39e8 26ba
00000110: 60cd 653a b33c 9b3a ae12 483d 4538 9f3a
00000120: c4a9 b83a c7b5 1abd da89 d936 fbfa 8abc
00000130: ed9d 49bb 476c 5e3a 6d1a 303d d4d0 75bd
00000140: f3c3 f6bc 94a2 04bc c10c 1f3c 23fc deba
00000150: 6f28 11bd 00d0 00b7 1e0c b73c 5614 1ab9
00000160: e87e cfb9 3e46 c439 2144 053d de37 1bbb
00000170: ab71 843b f38a 443a 9ea6 8fba b1d6 b339
00000180: 53a6 643d 45ff 84ba 51f4 4dba 4435 62bb
00000190: 12ad 6abb f0a7 443a deb0 a2b9 237f a1b9
000001a0: cc75 2b3b d777 fcb9 f9f4 c53c fe7d 4fba
000001b0: fe4f 613c 9da7 f339 28d4 853a 72d0 b13c
000001c0: 31dc 383b ba37 d9b9 2557 4a3c 1dc4 84bc
000001d0: 3f87 9fbd 29a4 20bd 4ef9 bbbb 5744 16ba
000001e0: 77d5 a83b 43fe 9a3d 27b0 453c b3e7 c9bc
000001f0: 6be0 903d d7ac 623d e21c 2a3d a842 ee3c
00000200: e6b9 c839 c8d8 c5b8 be34 d2b9 3bb5 813d
00000210: 7edd ad39 f7b2 293b e950 0e39 1b5f 2ebd
00000220: 6bf2 2bbb e030 e9bb 5b49 8bbd d33a c63b
00000230: e3e5 24bc 42d8 3d3b 55d8 ec3b ff4c 94ba
00000240: e4e9 eb3a 86ab 33ba 2a68 053a a4c2 f03c
00000250: 73e3 bb3d c903 5a3d 103a 3f3a 3c3a d7ba
00000260: 66bf f639 9060 75b9 ccc2 fdbc 6150 b63c
00000270: 93af 233d 0eb1 833c 91d5 603a 4677 1d3d
00000280: 94ed 583b f104 3cba 5bf7 76bb 454b 89bd
00000290: 8126 863d 140a 19ba 6627 3cbb e459 05ba
000002a0: bb28 b9ba c407 7839 341a 8cbb 4a7b a13a
000002b0: cbdb 5d3d ae6c 3b3a 4471 9fb8 6cb4 d23a
000002c0: 42dc 81ba e6d3 8ebd 85a2 16bd 03f8 34bc
000002d0: 46ad 413d 18f6 ad3a d91e c43a e87d 593b
000002e0: 67ea cd3a 0fc4 f3ba 283c ec3c 1512 bc3a
000002f0: ac76 483d dc5b d3ba 0801 4d3a 6b94 51bd
00000300: 1790 8a3a 5ee5 d938 7e0a fe38 de66 033a
00000310: beaa 42ba 5afa 813d ee48 4b39 41ff c93c
00000320: 0835 44bb 5daf 0fba b855 4f3d 4365 79bc
00000330: 4d6f 91bc 1f2f 623d 95f8 343c 80b2 3a39
00000340: 2e91 34bd 0c9c 923c 715c 91bc 24c8 aaba
00000350: c63c ccb9 3189 9f3d 8883 8cbd 4810 57bc
00000360: 3c43 f5ba feff 2fbd ae28 63bd c6f1 94b9
00000370: 0c2a 993c c7d9 0739 a093 6039 1767 19bd
00000380: d2d6 39b9 b766 00be bceb 9eb9 6ade f2b8
00000390: f11e 673d 7b7e 5bba dcbe cc3c 07d6 79b9
000003a0: a2ba 64bd 90b4 ca3c afea 343a 36ea 873a
000003b0: d4d2 003a 0690 473a 8951 583c 8b70 8eb9
000003c0: bd37 753a d039 8cbc efda 69bd 4c11 ceba
000003d0: 3468 fcbc 9004 423d 09ff 4dbd 425a b1ba
000003e0: 8aa1 803c b47a 73bd ee7b 933d 385d 6e3a
000003f0: a12d 593a db86 84bb 290c fd3b 3a99 a3bc
-0.0029716042 -0.06528125 -0.0002618113 -0.032146342 -0.06550477 -0.0312731 -0.0026277038 -0.0003842034
-0.048548494 0.046165578 0.000356154 -0.0002880214 0.031739943 0.009316124 -0.063213065 -0.05329136
0.00067347876 0.00045295828 -0.0080316495 -0.029846815 0.0005564905 0.00081829715 -0.021675337 -0.0062959064
0.022235243 0.048520014 0.0004096196 0.00023336677 0.022692375 -0.07188487 0.06712164 0.003665897
0.00044581667 0.00078562717 -0.003144348 -0.0009353888 0.00022858646 0.00079080975 -0.0003282096 0.025911584
0.037838574 0.031377766 -0.004303328 0.039116446 0.00077612995 0.00070930773 7.3742565e-05 0.000999294
0.00075333606 0.004328482 7.9891106e-07 0.04321868 0.00040637454 -0.0016691815 0.010703731 -0.012862604
0.003872586 -0.0003816897 0.0006280813 -0.00014111523 0.0018569772 -0.042308934 0.04458999 -0.00038487004
-0.00038127875 -0.013263917 0.00058183144 -0.00063670013 0.000876626 0.0011843651 0.04884594 0.0012147507
0.001408868 -0.037771013 6.483152e-06 -0.01696538 -0.0030764297 0.00084847625 0.04299395 -0.060013607
-0.030122733 -0.008095402 0.009707631 -0.0017012398 -0.03543895 -7.677823e-06 0.022344645 -0.0001469416
-0.0003957667 0.00037436368 0.032535676 -0.0023684422 0.0040418706 0.00074975117 -0.001095969 0.00034301498
0.05582268 -0.0010146877 -0.00078565354 -0.0034516612 -0.0035808724 0.0007501831 -0.00031030824 -0.00030803037
0.0026162742 -0.00048154473 0.024164664 -0.00079151976 0.013751982 0.00046473453 0.0010210322 0.02170584
0.0028207416 -0.00041430985 0.012349878 -0.016206795 -0.07789468 -0.039219055 -0.0057365065 -0.00057322293
0.0051524 0.07568028 0.012065924 -0.024646616 0.07074054 0.055340614 0.04153145 0.029084519
0.00038285478 -9.434071e-05 -0.00040093617 0.06333395 0.00033162156 0.0025894025 0.00013572317 -0.04257117
-0.0026237022 -0.007116422 -0.06801101 0.006049493 -0.010064575 0.002896801 0.007227937 -0.001131445
0.0017998782 -0.0006853867 0.0005089069 0.029389687 0.09174242 0.053226266 0.0007294724 -0.0016420553
0.0004706338 -0.00023400993 -0.030976675 0.022255125 0.039962362 0.016075637 0.0008576746 0.038443826
0.0033100592 -0.0007172367 -0.0037684056 -0.0670381 0.06550313 -0.00058379886 -0.0028710007 -0.0005086942
-0.0014126519 0.00023654016 -0.0042755846 0.0012320068 0.05416469 0.00071496784 -7.602808e-05 0.0016075498
-0.0009907561 -0.0697401 -0.036776084 -0.011045459 0.047284387 0.0013272194 0.0014962807 0.0033186618
0.0015710116 -0.0018597859 0.028837278 0.0014348651 0.0489413 -0.0016125399 0.0007820283 -0.051166933
0.0010571507 0.00010390089 0.00012113618 0.0005012582 -0.0007425955 0.06346579 0.00019386757 0.024657847
-0.0029938836 -0.0005481148 0.050618857 -0.015221897 -0.017753268 0.05522072 0.011045595 0.00017804839
-0.044083767 0.017896675 -0.017744275 -0.0013029617 -0.00038955192 0.07789839 -0.06861025 -0.01312644
-0.0018712054 -0.042968743 -0.055458717 -0.00028408895 0.018696807 0.00012955732 0.000214173 -0.03745183
-0.00017723002 -0.12539183 -0.00030311744 -0.00011580887 0.056425992 -0.0008373034 0.024993353 -0.00023826222
-0.05584205 0.024744302 0.00069014257 0.0010369483 0.00049142283 0.0007612709 0.013203033 -0.00027168202
0.0009354314 -0.01711741 -0.057093557 -0.0015721708 -0.030811407 0.047367632 -0.05029205 -0.0013530927
0.015702028 -0.05944319 0.07201372 0.000909287 0.00082846923 -0.0040443963 0.007722397 -0.019970525

net.6.bias f4 [2]
00000000: d1fc a0bc 172c a33c
-0.019651802 0.019918485
