moons/cfm/models/58000_model.pt (torch, 535856 bytes, 8 tensors)

net.0.weight f4 [256, 3]
-0.117955096 0.043678083 0.005457762 -0.5500427 0.12953456 -0.44128126 0.1364372 0.18416378
0.20456079 0.18032515 0.2767401 0.474156 -0.006875887 -0.09820192 0.26560274 0.4081067
-0.0761048 0.42799157 0.16406511 -0.025378669 -0.05600833 -0.49435374 0.14205167 0.18714777
-0.4423828 0.13162749 0.27780735 -0.008153964 -0.21951267 -0.45583037 -0.033403568 -0.11924007
-0.17291583 -0.028667191 -0.21277612 -0.44805744 0.049944922 -0.31897724 -0.6774386 0.031104902
0.09309856 -0.052949537 -0.10304212 0.03376887 -0.6046968 0.0017878838 0.00017085606 -0.008956077
-0.002636628 0.00022635807 -0.016877541 -0.7967938 0.47954607 -0.3558636 0.019937905 0.053696964
-0.26339692 -0.43905962 -0.09516522 -0.002205032 -0.08723967 0.109292746 -0.15705296 0.0029933974
0.001575651 -0.0027287568 -0.00079545344 -0.0049389144 -0.0067999773 0.0032413313 0.00040564762 -0.0067867306
-0.6629139 0.20068802 0.12437074 0.08509461 0.30988586 0.35549283 -0.6796714 0.18685186
0.15558642 -0.08877311 0.29814723 -0.7966941 -0.45282212 -0.5009033 -0.27918437 0.0031024788
0.0009593304 -0.0028276898 0.0035083801 -0.002988873 0.10241687 0.5850137 -0.4212721 0.2478373
-0.06156199 -0.01218569 -0.413014 -0.00036717273 0.0012271724 -0.0020398013 -0.011760257 -0.0061654104
-0.12506022 0.0034274266 -0.0043945867 0.0028906541 -0.10891853 -0.040342737 -0.42533556 0.6634984
0.9400444 -0.49359676 0.2635354 0.33698437 0.44783846 0.018036313 -0.052618682 0.46570694
-0.09036074 0.47543854 -0.14223382 0.0010125802 -0.00015522254 -0.0017381244 -0.0018939294 0.0023450837
-0.0043460075 0.35430902 -0.5380507 0.617495 0.1277691 -0.50801384 0.3008953 -0.8529542
0.37294912 0.09991913 -0.0038150798 -0.004071244 -0.026768135 -0.08266295 -0.25446188 -0.54026246
-0.80592823 0.525378 0.4022894 -0.0033222376 -0.0012425582 -0.0033181293 -0.71359414 -0.22033805
-0.19611607 -0.49921304 0.44725457 -0.5146566 -0.07030993 0.14079688 0.7857597 -0.011830349
0.0017165373 -0.12754363 -0.008314107 0.0020308243 -0.06875638 -0.0013084896 0.00027666328 -0.0034735322
0.112826444 -0.0064391587 -0.07849333 0.0010987683 0.0038181234 -0.0039867014 0.00096472335 0.00091089436
-0.0008278638 -0.6474351 0.19760968 -0.41643247 0.0022096576 0.00014953043 -0.0055646417 0.0002630721
0.029074136 -0.38745964 0.007258373 0.003842554 0.07912887 0.61764413 -0.3289664 0.37258878
0.011973384 0.013183021 0.16700988 0.00026253975 -0.006839796 -0.005996194 -0.073856406 0.046428774
-0.50587964 -0.81801784 0.58115774 0.27811116 0.44161052 -0.36126968 0.51442057 -0.2751566
-0.14201029 -0.22522093 0.010639332 0.014284112 0.16151889 -0.0008885903 -0.002599424 -0.0038039854
-0.00054121367 0.00086972286 0.0024497786 0.30689907 -0.041279722 0.3420922 -0.027672827 -0.027316218
-0.32367614 0.0061964034 -0.00026449433 0.13650545 -0.07355663 -0.005831965 -0.45438486 0.017226096
-0.07304556 0.43411115 0.5794663 0.5430687 -0.13306427 0.043459665 0.12584457 0.31358773
0.0039360938 -0.0023762176 -0.00087913865 0.5869245 -0.2630594 0.40139666 -0.013273082 -0.12061065
0.25271237 -0.014653032 0.084153265 0.50748986 0.016251305 0.5096274 0.65102524 0.023428759
00000000: 7192 f1bd cae7 323d 07d7 b23b 99cf 0cbf
00000010: b5a4 043e 9eef e1be 31b6 0b3e 6e95 3c3e
00000020: 6278 513e 28a7 383e e1b0 8d3e 93c4 f23e
00000030: 1f4f e1bb 171e c9bd 15fd 873e 5df3 d03e
00000040: d5dc 9bbd b621 db3e af00 283e ede6 cfbc
00000050: fe68 65bd ef1b fdbe fe75 113e aaa3 3f3e
00000060: 0080 e2be 5bc9 063e c43c 8e3e 3498 05bc
00000070: eec7 60be 9962 e9be 2ed2 08bd 2334 f4bd
00000080: d910 31be 75d7 eabc fce1 59be c967 e5be
00000090: 0c93 4c3d fc50 a3be 9e6c 2dbf b5cf fe3c
000000a0: 75aa be3d 9de1 58bd bf07 d3bd 3a51 0a3d
000000b0: 69cd 1abf 6d57 ea3a d327 3339 82bc 12bc
000000c0: 47cb 2cbb 885a 6d39 c542 8abc aefa 4bbf
000000d0: 1087 f53e c133 b6be d154 a33c 59f1 5b3d
000000e0: f6db 86be 6ccc e0be fce5 c2bd 4c82 10bb
000000f0: b6aa b2bd e0d4 df3d 7ed2 20be e02c 443b
00000100: 1386 ce3a f1d4 32bb fa85 50ba 9ed6 a1bb
00000110: 58d2 debb 846c 543b 1aad d439 3963 debb
00000120: bab4 29bf 2981 4d3e 16b6 fe3d 1546 ae3d
00000130: 5ca9 9e3e 2803 b63e f2fe 2dbf 1856 3f3e
00000140: 0c52 1f3e adce b5bd c1a6 983e 25f4 4bbf
00000150: 4dd8 e7be 333b 00bf 41f1 8ebe f552 4b3b
00000160: 937b 7b3a c350 39bb daec 653b f8e0 43bb
00000170: f0bf d13d 75c3 153f fab0 d7be 10c9 7d3e
00000180: 6d28 7cbd 7da6 47bc 9276 d3be 1781 c0b9
00000190: 13d9 a03a 30ae 05bb 18ae 40bc 3607 cabb
000001a0: c90f 00be ad9e 603b 7700 90bb 2171 3d3b
000001b0: ae10 dfbd 6d3e 25bd 95c5 d9be 08db 293f
000001c0: c0a6 703f b7b8 fcbe 1dee 863e 3789 ac3e
000001d0: 154b e53e e4c0 933c b086 57bd 2471 ee3e
000001e0: 0d0f b9bd ae6c f33e bea5 11be 8eb8 843a
000001f0: 3cc3 22b9 c7d1 e3ba ba3d f8ba faaf 193b
00000200: f468 8ebb fe67 b53e b1bd 09bf 2714 1e3f
00000210: e7d5 023e 320d 02bf f30e 9a3e 355b 5abf
00000220: 30f3 be3e 67a2 cc3d 6b06 7abb 1268 85bb
00000230: d948 dbbc 314b a9bd d448 82be a44e 0abf
00000240: 5051 4ebf 2c7f 063f e0f8 cd3e e6b9 59bb
00000250: 56dd a2ba f974 59bb 1bae 36bf 4ca0 61be
00000260: a7d2 48be da98 ffbe 8dfe e43e 89c0 03bf
00000270: a7fe 8fbd 0f2d 103e 8c27 493f 15d4 41bc
00000280: 6ffd e03a cc9a 02be e437 08bc 9417 053b
00000290: 25d0 8cbd a081 abba 1e0d 9139 33a4 63bb
000002a0: 8d11 e73d 94ff d2bb 1cc1 a0bd 8c04 903a
000002b0: 7b39 7a3b e0a2 82bb 7de5 7c3a 16c9 6e3a
000002c0: 0005 59ba 4fbe 25bf 315a 4a3e a336 d5be
000002d0: e7cf 103b 45cb 1c39 9957 b6bb f1ec 8939
000002e0: e22c ee3c 1c61 c6be a5d7 ed3b 5cd3 7b3b
000002f0: 510e a23d ed1d 1e3f 496e a8be f5c3 be3e
00000300: 032c 443c 99fd 573c a304 2b3e 7da5 8939
00000310: 5e20 e0bb b97b c4bb 0742 97bd 192c 3e3d
00000320: 5481 01bf 9e69 51bf c1c6 143f 9664 8e3e
00000330: c61a e23e 57f8 b8be 11b1 033f 53e1 8cbe
00000340: 256b 11be 51a0 66be 9850 2e3c e807 6a3c
00000350: 3565 253e 49f0 68ba 195b 2abb 494c 79bb
00000360: 3ce0 0dba 1dfe 633a 778c 203b e021 9d3e
00000370: ed14 29bd b526 af3e 20b2 e2bc 43c6 dfbc
00000380: e1b8 a5be 330b cb3b d4ab 8ab9 16c8 0b3e
00000390: dca4 96bd 111a bfbb 22a5 e8be be1d 8d3c
000003a0: e998 95bd d143 de3e e757 143f 8d06 0b3f
000003b0: 0042 08be c302 323d 66dd 003e 928e a03e
000003c0: 59fa 803b 51ba 1bbb ff75 66ba af40 163f
000003d0: b9af 86be dd83 cd3e 5777 59bc b702 f7bd
000003e0: 8463 813e 4513 70bc 8c58 ac3d dbea 013f
000003f0: 7521 853c f176 023f 97a9 263f abed bf3c

net.0.bias f4 [256]
-0.13681631 0.3179185 -0.024399145 -0.48654693 0.0051542027 -0.25203553 0.1196649 -0.69802576
-0.7156 0.3742704 0.26285467 0.35205385 0.6266551 -0.23231904 0.50714606 0.0033754536
0.018263089 0.24003237 0.25204843 0.49242142 0.44657442 0.0050659864 0.004462316 0.00047311303
0.31898716 0.40214878 0.32819 0.676931 0.13970806 0.0067474153 -0.05853491 -0.5358729
0.30862728 0.004169212 0.08982853 -0.001386204 0.48460862 -0.35887462 -0.50156075 -0.23838562
-0.18472232 0.0041544465 0.0021525056 -0.6357888 -0.5953056 -0.17117357 0.026130276 0.5838351
-0.57247967 0.0015898095 0.14937207 0.32155555 -0.5448516 0.09037187 0.050483994 -0.0011951369
0.14436466 0.006592598 0.0013156035 -0.3080773 0.002951461 0.30575693 -0.041114938 -0.3321373
-0.09271126 -0.0051930835 0.38405666 -0.4858838 -0.6606345 0.50436664 -0.08871536 0.0052209864
0.0012218092 -0.22988063 0.2633761 -0.07596368 0.34452438 -0.2874025 -0.23131615 0.06653506
0.0021367117 -0.2798629 0.09413493 -0.30029765 -0.845705 0.3136793 0.28578052 -0.06132866
-0.6855876 0.6811283 0.0018406882 0.4999662 -0.7446708 0.30558762 0.4573119 0.42174044
-0.5079814 0.023596814 0.0025366575 -0.013872494 0.3752271 -0.24783595 0.45558372 -0.3230836
0.5768327 -0.0004432616 0.115341276 -0.7065566 -0.21325497 0.05283428 0.55992657 0.0033535485
0.27706704 0.020048892 -0.6042358 0.3321096 0.072701596 0.12661174 -0.1623234 0.14388081
-0.43201587 0.1957061 0.005347711 -0.2584841 0.004367122 -0.25341794 -0.7194898 0.3685587
0.0073049916 -0.00035831323 0.004807166 0.366292 0.11784212 -0.22655231 0.0079784775 0.118008696
0.031393725 -0.122970834 2.3400757e-05 0.3580305 0.0061508967 0.0065140123 0.22524418 -0.31280833
0.3904806 0.19939804 -0.35983485 0.0059125093 0.46874052 -0.1415951 0.33533683 -0.10773487
-0.36783725 -0.41517726 -0.42725268 -0.28194022 0.1157314 -0.051663097 -0.196326 -0.5049922
0.50467724 -0.14075053 0.5568422 -0.38051686 0.036971588 -0.23812044 0.34292203 -0.48371628
0.22936033 -0.083983146 -0.5775498 0.005882016 -0.53878784 -0.4692568 0.0031595328 -0.23219045
0.005712862 0.002652971 -0.013073895 -0.19171779 0.51960677 -0.22800356 0.2921965 0.00030343147
0.24574043 0.5808992 -0.029352522 0.00036335504 0.0006039918 0.2655462 -0.78957427 -0.51190567
0.0032451395 -0.030925073 0.0018649191 0.39076284 -0.43368176 0.5166504 0.005174009 0.00856503
-0.5648322 0.0023197597 0.21116477 -0.5529759 0.32329875 -0.43007892 0.61876315 0.0035458382
0.53450936 -0.5589714 -0.17094547 0.3289836 0.24915157 0.064140275 -0.61865735 -0.034135718
0.001760048 0.011425401 -0.32698298 -0.36886972 -0.39333326 -0.54460037 0.10194367 -0.59967566
0.14553697 0.64063513 -0.15515143 -0.7144702 0.06856824 0.7371671 -0.00015101842 -0.085748956
0.0035916886 0.43061456 0.5078576 -0.67086273 -0.06474696 -0.43699244 -0.07444103 -0.63666767
0.0052738106 0.0021245047 0.007501752 -0.7890936 0.0057902285 0.19991933 0.14432031 0.0025225945
-0.35100922 -0.44827592 0.008632529 0.2767203 0.004181936 -0.20954315 0.0013112559 -0.35849938
00000000: 9319 0cbe 37c6 a23e b7e0 c7bc ae1c f9be
00000010: 96e4 a83b cd0a 81be df12 f53d d1b1 32bf
00000020: 9031 37bf 5fa0 bf3e e394 863e 6740 b43e
00000030: 786c 203f 0be5 6dbe 53d4 013f b736 5d3b
00000040: 799c 953c 0ccb 753e 7e0c 813e a91e fc3e
00000050: 67a5 e43e 9300 a63b 9f38 923b 280c f839
00000060: 4952 a33e 72e6 cd3e 8508 a83e 5a4b 2d3f
00000070: a10f 0f3e 6c19 dd3b 4dc2 6fbd f72e 09bf
00000080: 6504 9e3e e39d 883b 05f8 b73d 4ab1 b5ba
00000090: 9f1e f83e 6abe b7be 4966 00bf 5c1b 74be
000000a0: d927 3dbe 0622 883b 0d11 0d3b 0ec3 22bf
000000b0: f365 18bf 2048 2fbe 290f d63c 3876 153f
000000c0: 078e 12bf 2861 d03a fef4 183e eea2 a43e
000000d0: 657b 0bbf e314 b93d 4ec8 4e3d 24a6 9cba
000000e0: 54d4 133e b806 d83b 5470 ac3a 4fbc 9dbe
000000f0: 4c6d 413b 2c8c 9c3e 2368 28bd e60d aabe
00000100: 67df bdbd be2a aabb 13a3 c43e c3c5 f8be
00000110: 581f 29bf 2c1e 013f 66b0 b5bd cf14 ab3b
00000120: 1d25 a03a d465 6bbe 3bd9 863e d992 9bbd
00000130: 8065 b03e 6c26 93be 24de 6cbe 8943 883d
00000140: 1308 0c3b 314a 8fbe d0c9 c03d 9dc0 99be
00000150: 1f80 58bf 939a a03e d351 923e c333 7bbd
00000160: ab82 2fbf 6d5e 2e3f 3f43 f13a 92fb ff3e
00000170: bfa2 3ebf fb75 9c3e c924 ea3e 5dee d73e
00000180: 120b 02bf 1b4e c13c 0d3e 263b 7549 63bc
00000190: c41d c03e b5c8 7dbe 4542 e93e 376b a5be
000001a0: 4fab 133f 9165 e8b9 0c38 ec3d e5e0 34bf
000001b0: 835f 5abe c268 583d 5957 0f3f 35c7 5b3b
000001c0: bbdb 8d3e 933d a43c 33af 1abf 450a aa3e
000001d0: 93e4 943d 82a6 013e 1b38 26be 7e55 133e
000001e0: 2f31 ddbe 2e67 483e da3b af3b 0758 84be
000001f0: 131a 8f3b ffbf 81be 7c30 38bf bab3 bc3e
00000200: b65e ef3b fddb bbb9 6e85 9d3b a08a bb3e
00000210: 3657 f13d 54fd 67be 29b8 023c 8bae f13d
00000220: b596 003d 22d8 fbbd be4c c437 c64f b73e
00000230: 768d c93b 7f73 d53b 69a6 663e 6a28 a0be
00000240: 13ed c73e 002f 4c3e 463c b8be b9bd c13b
00000250: c2fe ef3e 4efe 10be 45b1 ab3e 19a4 dcbd
00000260: 2a55 bcbe 1d92 d4be ddc0 dabe 785a 90be
00000270: 9604 ed3d af9c 53bd af09 49be 2b47 01bf
00000280: 8732 013f e820 10be 368d 0e3f 1bd3 c2be
00000290: 856f 173d d8d5 73be 7a93 af3e a9a9 f7be
000002a0: 6fdd 6a3e 5bff abbd 4eda 13bf edbd c03b
000002b0: 00ee 09bf 6d42 f0be 2a10 4f3b 55c3 6dbe
000002c0: f632 bb3b 78dd 2d3b e433 56bc ab51 44be
000002d0: f304 053f c479 69be c89a 953e e215 9f39
000002e0: 61a3 7b3e cfb5 143f b374 f0bc b080 be39
000002f0: 3455 1e3a acf5 873e 8a21 4abf 400c 03bf
00000300: 68ac 543b 9456 fdbc 4d70 f43a 1112 c83e
00000310: 890b debe 3343 043f bc8a a93b 5754 0c3c
00000320: d898 10bf 1c07 183b 943b 583e d48f 0dbf
00000330: 6a87 a53e 4e33 dcbe 4367 1e3f 4b61 683b
00000340: 9bd5 083f c018 0fbf 540c 2fbe 8a70 a83e
00000350: 9721 7f3e fa5b 833d 5460 1ebf e5d1 0bbd
00000360: 69b1 e63a 9b31 3b3c 506a a7be 7edc bcbe
00000370: fa62 c9be ee6a 0bbf d8c7 d03d 5884 19bf
00000380: a507 153e aa00 243f 04e0 1ebe 85e7 36bf
00000390: 816d 8c3d fcb6 3c3f b35a 1eb9 269d afbd
000003a0: 8962 6b3b 8379 dc3e f502 023f a9bd 2bbf
000003b0: 0e9a 84bd 79bd dfbe 8a74 98bd a7fc 22bf
000003c0: eecf ac3b 463b 0b3b 42d1 f53b 0a02 4abf
000003d0: f5bb bd3b a7b7 4c3e b4c8 133e 1d52 253b
000003e0: 7bb7 b3be 6c84 e5be 736f 0d3c 48ae 8d3e
000003f0: 9f08 893b 7b92 56be 72de ab3a 3b8d b7be

net.2.weight f4 [256, 256]
-0.04864042 0.14099805 -0.032035775 -0.005890291 -0.09087499 0.11908078 -0.0006244594 -0.053205576
0.003921694 -0.1450241 -0.07703768 -0.055555645 -0.13692507 -0.014100431 0.064792655 -0.018641025
0.012878902 0.020483525 -0.06867909 -0.077874236 0.043540947 0.028561648 0.10564826 -0.028393801
-0.031861234 0.038070653 -0.035191555 0.07883858 -0.023432758 -0.022561958 -0.022582639 -0.020603959
0.0582158 -0.036842015 0.10865251 0.006257899 -0.0061481777 -0.057321385 -0.0055725374 -0.056009736
0.11813593 -0.0122211315 0.044333797 -0.02884874 -0.0556931 -0.026739415 0.053722322 -0.1475836
0.03379725 0.014481072 0.058073714 0.1327709 0.046731092 0.034376577 0.03449911 -0.030067012
0.002742785 0.03512544 -0.042058907 0.01542582 -0.019970953 -0.053359095 -0.030485699 0.14571814
-0.11147433 0.02619125 0.008319131 0.015246527 0.0152569655 -0.052127194 -0.06734028 -0.035873283
-0.043554176 0.12117913 0.00057677785 -0.048600424 0.019234816 -0.021460492 -0.009043663 0.050637096
0.013862404 0.15371284 -0.08601784 0.06132507 -0.14651763 -0.16211817 0.025424924 0.004629383
-0.07745132 0.03137436 0.010661859 -0.029698119 -0.12335145 0.008170511 0.03883925 -0.061266005
-0.0069501004 0.008690126 0.085147664 -0.08335025 0.080184296 -0.07344146 0.17552347 0.07401343
0.052961376 0.017689966 -0.05375412 0.13749593 -0.018901844 0.16288875 0.12950854 0.0023303782
-0.04136023 0.1043068 -0.08423766 -0.07456691 -0.06911282 -0.06749553 -0.0730004 -0.043268733
0.07215169 0.08183452 0.0052209105 -0.07672518 -0.041142195 -0.028385395 0.018549282 0.06513679
-0.010203602 0.027300095 -0.046777353 -0.059693877 0.03836782 -0.04459831 -0.024152597 0.017997513
-0.030320425 -0.041702967 -0.019213172 0.18048814 0.03165884 0.00025884964 0.055592645 -0.051818587
-0.056528796 0.009705431 -0.052671727 -0.02506109 0.059080563 0.061796255 -0.009358293 -0.06927689
-0.05049233 0.06286508 -0.052852843 0.04045503 -0.034558564 -0.12046502 0.074202865 -0.003907154
0.104611345 -0.010178288 -0.06766758 0.09529176 -0.0061503462 0.07986396 0.059017822 -0.047252037
-0.037438817 -0.029340215 0.103167936 -0.007335057 -0.008683592 0.066263564 -0.017878974 -0.027000552
-0.054679643 -0.00460305 -0.046769284 -0.03864053 0.0010106516 0.06776771 0.10646253 0.06754432
0.0037804309 -0.12726 0.047998548 0.052715763 -0.02897167 -0.06903249 -0.048218433 0.15865439
0.009825268 0.0707398 -0.0009180127 -0.07388053 0.00822794 -0.15512872 -0.067289 0.050306085
0.075901404 0.00971557 -0.056334764 0.0487752 -0.105361536 0.050803445 0.12244204 -0.014618741
0.088512704 0.012575928 0.02877099 -0.11797201 0.00871262 -0.09083353 -0.021725759 -0.028705016
0.023089418 0.059320584 0.015562798 -0.009089123 -0.02876985 0.03952315 0.03790967 -0.012412007
-0.051117785 -0.09469015 0.092793085 -0.0846986 0.087280855 -0.019675504 0.022518987 -0.011826415
0.039415836 0.090655215 0.016138826 -0.022775136 -0.014705267 0.025811762 -0.099291965 -0.020902675
0.011362987 -0.038087856 -0.03347713 0.035837274 -0.005689623 0.06936757 0.11927432 -0.0020110828
0.099550836 -0.0021345722 -0.027276296 -0.121965736 0.0105042 -0.0057411045 -0.012699094 -0.001709868
00000000: 2d3b 47bd cb61 103e f237 03bd 5803 c1bb
00000010: ab1c babd a0e0 f33d c3b2 23ba 17ee 59bd
00000020: 8e81 803b 3381 14be eec5 9dbd 518e 63bd
00000030: 1636 0cbe 7f05 67bc 03b2 843d 10b5 98bc
00000040: 0802 533c 11cd a73c 9fa7 8cbd 877c 9fbd
00000050: fe57 323d 1efa e93c 1d5e d83d 1e9a e8bc
00000060: ed80 02bd f9ef 1b3d 0525 10bd 1f76 a13d
00000070: 0ef6 bfbc dbd3 b8bc 3aff b8bc a2c9 a8bc
00000080: b173 6e3d a7e7 16bd 3585 de3d 100f cd3b
00000090: a776 c9bb d4c9 6abd d599 b6bb 776a 65bd
000000a0: 40f1 f13d 243b 48bc 5b97 353d 3154 ecbc
000000b0: 731e 64bd 9e0c dbbc f00b 5c3d 2820 17be
000000c0: fc6e 0a3d 0542 6d3c b4de 6d3d 18f5 073e
000000d0: 1a69 3f3d 74ce 0c3d f04e 0d3d 184f f6bc
000000e0: 4cc0 333b b2df 0f3d f645 2cbd 94bc 7c3c
000000f0: 209a a3bc 118f 5abd 25bd f9bc 2337 153e
00000100: a74c e4bd 088f d63c f74c 083c 92cc 793c
00000110: 5af8 793c 5383 55bd b3e9 89bd ddef 12bd
00000120: dd65 32bd c42c f83d e832 173a 3d11 47bd
00000130: 5592 9d3c eacd afbc df2b 14bc d868 4f3d
00000140: 231f 633c e666 1d3e 1f2a b0bd ff2f 7b3d
00000150: b808 16be 4e02 26be ee47 d03c 14b2 973b
00000160: cc9e 9ebd 6782 003d 14af 2e3c 7849 f3bc
00000170: af9f fcbd 9bdd 053c e815 1f3d 10f2 7abd
00000180: abbd e3bb 0861 0e3c e661 ae3d 89b3 aabd
00000190: aa37 a43d 7a68 96bd 6dbc 333e 5a94 973d
000001a0: 07ee 583d 8cea 903c 482d 5cbd bccb 0c3e
000001b0: 0ad8 9abc 4fcc 263e e39d 043e 42b9 183b
000001c0: 5869 29bd ce9e d53d cb84 acbd 89b6 98bd
000001d0: 068b 8dbd 193b 8abd 3c81 95bd 8e3a 31bd
000001e0: 44c4 933d db98 a73d 2c14 ab3b 1722 9dbd
000001f0: b884 28bd 7d88 e8bc aaf4 973c 7066 853d
00000200: 022d 27bc 73a4 df3c 9c99 3fbd 9181 74bd
00000210: 9327 1d3d b8ac 36bd abdb c5bc 856f 933c
00000220: 8a62 f8bc bbd0 2abd f164 9dbc e2d1 383e
00000230: b3ac 013d 36b6 8739 1db5 633d ba3f 54bd
00000240: bd8a 67bd 8703 1f3c 4fbe 57bd ea4c cdbc
00000250: 76fe 713d 121e 7d3d 8753 19bc 0be1 8dbd
00000260: 0cd1 4ebd 68bf 803d 397c 58bd 2cb4 253d
00000270: 488d 0dbd 5db6 f6bd acf7 973d 9507 80bb
00000280: 793e d63d d6c2 26bc 4d95 8abd 5428 c33d
00000290: d888 c9bb b78f a33d acbc 713d 5a8b 41bd
000002a0: 7259 19bd e45a f0bc b649 d33d eb5a f0bb
000002b0: a045 0ebc 31b5 873d ed76 92bc 4330 ddbc
000002c0: c3f7 5fbd 2fd5 96bb 2691 3fbd 8845 1ebd
000002d0: d777 843a ccc9 8a3d 0709 da3d ad54 8a3d
000002e0: 1bc1 773b 7250 02be 209a 443d 7cec 573d
000002f0: ff55 edbc e860 8dbd b180 45bd 4c76 223e
00000300: 29fa 203c 07e0 903d caa6 70ba ad4e 97bd
00000310: 7bce 063c 10da 1ebe d1ce 89bd c10d 4e3d
00000320: 3272 9b3d 0e2e 1f3c 48bf 66bd 81c8 473d
00000330: cac7 d7bd 4617 503d e4c2 fa3d 7283 6fbc
00000340: 2646 b53d 440b 4e3c 24b1 eb3c 4f9b f1bd
00000350: 60bf 0e3c ee06 babd 38fa b1bc c826 ebbc
00000360: 0526 bd3c 24fa 723d 1bfb 7e3c 8cea 14bc
00000370: c0ae ebbc 07e3 213d 2c47 1b3d bb5b 4bbc
00000380: e260 51bd e9ec c1bd 4d0a be3d 7676 adbd
00000390: 4ec0 b23d 862e a1bc bd79 b83c 94c3 41bc
000003a0: 8072 213d 71a9 b93d 9235 843c ec92 babc
000003b0: 5cee 70bc 3073 d33c 9659 cbbd 163c abbc
000003c0: d22b 3a3c 0302 1cbd 511f 09bd 1bca 123d
000003d0: 0470 babb 9610 8e3d 1846 f43d 5fcc 03bb
000003e0: 4fe1 cb3d 2ee4 0bbb 8a72 dfbc 2cc9 f9bd
000003f0: cf19 2c3c e01f bcbb dc0f 50bc a61d e0ba

net.2.bias f4 [256]
0.051127665 0.08698385 -0.03065261 -0.08192862 0.1330857 0.013321647 -0.44171336 0.06920158
0.035418004 0.06966922 -0.00069233286 -0.0039822217 0.053884674 0.048258997 0.018443687 0.042181406
0.04406283 0.056417353 -0.009123113 -0.044372946 -0.009019868 0.036124125 -0.03229366 -0.008162763
-0.02839911 -0.03781815 -0.060979117 -0.35417846 -0.27730355 0.004085164 -0.024015294 -0.010958615
-0.0056069433 -0.12156158 -0.13263845 0.014470235 0.01953352 0.052599113 0.060733575 0.024835646
-0.06870954 -0.059325997 0.106920555 -0.1933091 0.018420981 0.050470542 -0.26306194 -0.016127486
-0.01398903 -0.014639407 0.019874606 -0.20877525 -0.009486463 -0.017505206 -0.052723527 0.04179931
-0.31176853 0.024942517 0.03227432 0.017694104 0.06319108 -0.18003084 -0.024264071 -0.027885718
-0.23286593 -0.007178181 0.06496193 0.04211628 0.063924685 0.034279488 0.0015964563 -0.027738992
-0.03169711 0.037266385 -0.018590223 -0.018054623 -0.04070483 0.057768498 0.056272473 0.060266636
-0.043824457 0.017592262 0.0068092253 0.051346216 -0.042987026 0.05686461 0.0038839676 0.030674724
-0.062075417 -0.21805896 -0.44122946 -0.17866084 -0.0013924575 0.056694966 -0.010075904 0.026572552
0.040245168 0.104072936 0.03187213 -0.30121684 0.02988926 0.039951704 0.01842555 -0.0256296
0.048065864 0.04334889 0.047526114 -0.18142094 -0.14745182 0.023906274 0.006917108 0.045290392
-0.055507172 0.0075759226 -0.035143424 -0.017404128 0.068779945 -0.09945681 0.060596835 0.04796579
0.029436417 -0.03533218 -0.021750303 0.04276744 0.039189886 0.010639668 -0.080972634 -0.04816623
0.015218572 -0.0039112316 -0.036032308 0.05771843 -0.032932356 0.056126796 -0.19185503 0.06262649
0.0031356367 0.0524547 0.056892924 -0.016261134 0.05787624 0.01557191 0.052091297 0.05584959
0.06862812 0.011033908 -0.018056411 0.019241842 0.078220844 0.057565372 -0.03326816 0.028340818
0.006292797 -0.008513616 0.04966509 0.0611464 -0.01886329 -0.046124227 -0.15242928 0.07149366
0.045848895 0.05979133 0.045434073 -0.109054 -0.03702082 0.0030517753 -0.040889002 -0.012215891
0.043410648 0.005017496 -0.00073918176 -0.12620266 -0.038779993 0.027957138 0.047233857 -0.2706828
-0.008223819 -0.19280729 -0.0019548773 -0.004732353 0.01762187 -0.022480685 0.050444096 0.014565625
0.0189967 0.034257654 -0.04494284 -0.026327599 0.048949394 -0.05276035 -0.17193107 0.05034767
0.05664772 0.032482587 0.04326065 0.034711655 -0.042567875 0.0054105716 -0.0998511 -0.006244139
-0.015604935 -0.14580883 -0.002537532 -0.009979971 0.044919547 0.021956073 -0.03211992 -0.017322002
-0.09926189 0.15679806 -0.12131459 -0.019339517 -0.029720968 -0.027586767 -0.019474441 0.018960241
-0.05193816 0.027265217 -0.011240127 0.023860611 0.012327523 0.0035836487 0.08794904 0.074216805
-0.007939735 0.05541134 -0.025786556 0.03223881 0.007560017 -0.18727688 -0.34529588 -0.008919732
-0.041830294 -0.040384777 0.025667774 -0.009423244 0.015160775 0.019425375 0.0012108223 -0.01886989
0.01964927 -0.0013401898 0.025096858 0.026801579 -0.0015992693 -0.005382818 0.019026242 -0.051081575
-0.010881938 -0.020011865 -0.044795476 0.013208903 -0.079321705 -0.0071824803 0.049779158 0.004001455
00000000: 3e6b 513d 9724 b23d 2f1b fbbc 31ca a7bd
00000010: 9e47 083e 0a43 5a3c 4128 e2be 8fb9 8d3d
00000020: 7812 113d bcae 8e3d ac7d 35ba 4c7d 82bb
00000030: 2db6 5c3d 3aab 453d 3717 973c 69c6 2c3d
00000040: 3a7b 343d e215 673d 1c79 15bc 68c0 35bd
00000050: 12c8 13bc e4f6 133d 5b46 04bd 1cbd 05bc
00000060: 40a5 e8bc 34e7 1abd 3dc5 79bd e156 b5be
00000070: bbfa 8dbe d7dc 853b b9bb c4bc c38b 33bc
00000080: 73ba b7bb 47f5 f8bd 60d2 07be 9114 6d3c
00000090: c304 a03c 2b72 573d c5c3 783d 2074 cb3c
000000a0: 96b7 8cbd d1ff 72bd 2af9 da3d d2f2 45be
000000b0: 99e7 963c 33ba 4e3d 0eb0 86be ca1d 84bc
000000c0: 3f32 65bc 20da 6fbc 12d0 a23c 2ec9 55be
000000d0: 1c6d 1bbc 1467 8fbc a0f4 57bd c135 2b3d
000000e0: 20a0 9fbe 4054 cc3c 1432 043d 3af3 903c
000000f0: 536a 813d 015a 38be 72c5 c6bc 9770 e4bc
00000100: 6874 6ebe f236 ebbb c30a 853d 1f82 2c3d
00000110: f2ea 823d a668 0c3d 2f40 d13a e23c e3bc
00000120: d4d4 01bd a3a4 183d 864a 98bc 4ae7 93bc
00000130: 1cba 26bd a99e 6c3d f77d 663d 26da 763d
00000140: 4681 33bd a61d 903c ec1f df3b 6950 523d
00000150: 2a13 30bd deea 683d 2a8a 7e3b 8f49 fb3c
00000160: cb42 7ebd d94a 5fbe d4e8 e1be def2 36be
00000170: 1f83 b6ba fb38 683d 6815 25bc aeae d93c
00000180: 1ed8 243d 3124 d53d 5a8c 023d 1839 9abe
00000190: 52da f43c 66a4 233d 2ef1 963c 2bf5 d1bc
000001a0: b6e0 443d 9b8e 313d beaa 423d 69c6 39be
000001b0: 9cfd 16be 17d7 c33c e8a8 e23b 6b82 393d
000001c0: 7d5b 63bd 723f f83b 8df2 0fbd 1a93 8ebc
000001d0: 80dc 8c3d 03b0 cbbd 6334 783d c777 443d
000001e0: a424 f13c 7ab8 10bd b12d b2bc e92c 2f3d
000001f0: 9385 203d 0152 2e3c fbd4 a5bd f449 45bd
00000200: 5157 793c ca29 80bb 9d96 13bd 296a 6c3d
00000210: 14e4 06bd 36e5 653d a575 44be 5142 803d
00000220: 417f 4d3b bdda 563d 8e08 693d 1236 85bc
00000230: a30f 6d3d 5321 7f3c af5d 553d 8ac2 643d
00000240: e68c 8c3d 91c7 343c 0aeb 93bc 11a1 9d3c
00000250: 4032 a03d abc9 6b3d 3244 08bd 012b e83c
00000260: cf33 ce3b b27c 0bbc 9f6d 4b3d a674 7a3d
00000270: 3087 9abc c2ec 3cbd 6c16 1cbe 456b 923d
00000280: 0dcc 3b3d c1e7 743d 1419 3a3d b457 dfbd
00000290: 25a3 17bd 4b00 483b 3a7b 27bd 2925 48bc
000002a0: 5dcf 313d cf69 a43b a6c5 41ba 453b 01be
000002b0: c5d7 1ebd 5e06 e53c 4a78 413d f096 8abe
000002c0: 32bd 06bc 466f 45be 661d 00bb db11 9bbb
000002d0: bd5b 903c 6a29 b8bc 789e 4e3d a9a4 6e3c
000002e0: f89e 9b3c c151 0c3d fc15 38bd faac d7bc
000002f0: 297f 483d 3d1b 58bd b30e 30be 5c39 4e3d
00000300: 7107 683d 760c 053d 1432 313d cf2d 0e3d
00000310: a75b 2ebd 2a4b b13b bc7e ccbd a29b ccbb
00000320: d7ab 7fbc e94e 15be b94c 26bb 0883 23bc
00000330: 8ffd 373d 39dd b33c 2d90 03bd dfe6 8dbc
00000340: d149 cbbd ac8f 203e c973 f8bd e86d 9ebc
00000350: 6379 f3bc a5fd e1bc dd88 9fbc 8252 9b3c
00000360: 1cbd 54bd 4e5b df3c 8228 38bc 5477 c33c
00000370: 61f9 493c a6db 6a3b a01e b43d fbfe 973d
00000380: aa15 02bc 00f7 623d 543e d3bc d80c 043d
00000390: 05ba f73b 83c5 3fbe 9fca b0be 1124 12bc
000003a0: 3e56 2bbd 826a 25bd 3945 d23c f363 1abc
000003b0: e664 783c f721 9f3c 74b4 9e3a 0795 9abc
000003c0: 82f7 a03c 4fa9 afba ed97 cd3c fc8e db3c
000003d0: 939e d1ba 5a62 b0bb ecdc 9b3c ea3a 51bd
000003e0: 284a 32bc ecef a3bc 767b 37bd 286a 583c
000003f0: 6b73 a2bd 035b ebbb 3be5 4b3d a31e 833b

net.4.weight f4 [256, 256]
-0.013918234 -0.00097417535 0.012308374 -0.024593046 -0.019176343 -0.004516214 0.014057044 0.0063355295
-0.0027953468 -0.0035597621 -0.0011802868 -0.015939947 -0.0064736228 -0.012243602 -0.0125977965 0.019309867
-0.013843246 -0.007449618 -0.0014450387 -0.013730402 -0.0004082347 -0.010526746 -0.024988007 0.0013964332
0.04471569 0.0182967 0.009084312 0.004042206 0.024743801 -0.0125780385 0.005356715 -0.0036999162
-0.0001428043 -0.006629198 -0.016338175 -0.0044423738 -0.011581277 -0.015885618 0.0059044994 0.0044385847
0.007617658 -0.0047451444 -0.0075865327 -0.017269246 0.02362986 0.0046950784 -0.012665879 0.0058317394
-0.005102965 0.0016519758 0.0069251764 -0.032105915 -0.014815361 -0.0139376875 0.037527665 -0.02067723
-0.0021133502 0.0010756791 0.0031234645 0.0076906485 0.014691227 -0.0018881803 -0.000490246 0.008909807
-0.017419048 0.0026032745 -0.029695809 0.023632275 0.0021145802 0.01730244 -0.012425483 0.005367619
-0.018829606 0.02109926 -0.008543235 -0.03545626 -0.026097516 0.008969817 -0.016051205 -0.004871758
0.00799598 0.006776243 -0.0030455876 -0.019558156 -0.02552491 -0.029125575 -0.012864976 -0.0157949
-0.002015988 0.03160532 -0.032390576 0.03369074 -0.0037326554 -0.00815933 0.008157634 0.014631706
-0.014939105 -0.00018292428 -0.0064502032 0.017642206 -0.020207308 -0.01578279 -0.0025597105 -0.0009031195
-0.0170552 -0.00033907886 0.0009857012 -0.010289897 -0.024666471 0.007132219 0.0066680773 0.013380126
-0.026055457 -0.0040982338 -0.0042669927 -0.0003162997 0.010207882 0.01583813 -0.0013484833 0.012025453
0.0039484273 0.0029646065 -0.020625114 -0.0034187157 -0.013604071 0.0036269636 0.009325249 0.025374033
0.0048022564 0.012697273 -0.0029196977 -0.009669952 0.0090064965 -0.014295471 0.015069403 -0.016316602
0.012978584 -0.009309491 -0.0030029507 -0.022855362 -0.022547588 -0.005932261 -0.011766857 0.006004586
0.012150631 -0.029168358 -0.0071977936 -0.009828837 -0.0014174562 -0.016038066 -0.017985104 -0.008975906
-0.0027869479 -0.0014582351 0.0015110422 0.013408321 -0.02085458 0.007864545 -0.034810692 -0.0171562
0.009698937 -0.010582333 -0.0070792516 -0.020818315 -0.015826153 0.013108954 -0.0029422394 -0.01878841
-0.019180544 0.00034990683 0.011283857 0.0043839235 -0.014061087 0.028415933 0.012154573 -0.025896886
-0.004109505 -0.0021008092 -0.007812237 -0.021084998 -0.0041155247 -0.029814068 0.01293888 -0.005082089
-0.015020189 0.018895907 -0.001828519 -0.019031994 0.011590543 0.016246583 -0.028765045 -0.0053020096
-0.013181217 -0.004862146 0.0016267233 0.023454048 -0.003153078 -0.008852971 0.01600906 -0.0074144616
-0.024005663 -0.03222852 0.038337335 0.006759967 -0.013716655 -0.01403107 -0.006588319 0.012219197
-0.019126263 0.0012847757 -0.037476458 0.0029820672 -0.008321117 -0.03351111 -0.016748754 -0.013768598
-0.008932171 0.007908571 -0.010728331 0.0017085164 -0.015770886 -0.002334993 -0.010731515 0.021922546
0.008551732 -0.0040187472 0.048936374 -0.011083295 0.01571724 0.009780918 0.00724863 -0.00042932443
0.014288301 -0.0008320336 0.011715284 -0.009636864 0.008308743 -0.01915501 0.0077337036 -0.016240401
-0.010476514 0.014723937 0.010273717 0.004470627 0.018621296 0.008544739 0.005485594 0.0366919
0.02665813 0.014742187 -0.031869035 -0.0068711294 -0.004078497 -3.920471e-06 -0.006143359 -0.02317629
00000000: 4e09 64bc cd5f 7fba 10a9 493c 5b77 c9bc
00000010: b517 9dbc c0fc 93bb 844f 663c 469a cf3b
00000020: 2332 37bb e64a 69bb dab3 9aba 7e94 82bc
00000030: af20 d4bb 6499 48bc fd66 4ebc ba2f 9e3c
00000040: c8ce 62bc ed1b f4bb 7467 bdba 7bf5 60bc
00000050: 5508 d6b9 5f78 2cbc a6b3 ccbc 8608 b73a
00000060: cd27 373d f6e2 953c 5ed6 143c 7b74 843b
00000070: 83b3 ca3c 1e14 4ebc 6287 af3b 4b7a 72bb
00000080: bdbd 15b9 be39 d9bb a3d7 85bc 5591 91bb
00000090: 65bf 3dbc 8e22 82bc 887a c13b 8c71 913b
000000a0: 8c9d f93b 287d 9bbb 7398 f8bb 3c78 8dbc
000000b0: 6893 c13c 2cd9 993b 8c84 4fbc 2d18 bf3b
000000c0: c636 a7bb 1c87 d83a 97ec e23b 7e81 03bd
000000d0: 21bc 72bc e65a 64bc 9cb6 193d 4b63 a9bc
000000e0: 2280 0abb cdfd 8c3a 0ab3 4c3b d601 fc3b
000000f0: 79b3 703c d17c f7ba da83 00ba 70fa 113c
00000100: 64b2 8ebc b39b 2a3b a044 f3bc 7998 c13c
00000110: c594 0a3b d9bd 8d3c 4194 4bbc dae2 af3b
00000120: 8c40 9abc 5bd8 ac3c edf8 0bbc 953a 11bd
00000130: 75ca d5bc 24f6 123c d17d 83bc 45a3 9fbb
00000140: 9201 033c 3f0b de3b 7b98 47bb 6d38 a0bc
00000150: 9e19 d1bc c298 eebc 9fc7 52bc 4e64 81bc
00000160: ab1e 04bb 9474 013d fbab 04bd 4dff 093d
00000170: 919f 74bb b6ae 05bc 99a7 053c d3b9 6f3c
00000180: 26c3 74bc 5dcf 3fb9 3a5c d3bb 6386 903c
00000190: cc89 a5bc e94a 81bc d1c0 27bb 53bf 6cba
000001a0: 59b7 8bbc 65c6 b1b9 a532 813a f596 28bc
000001b0: 5711 cabc 64b5 e93b e37f da3b 5138 5b3c
000001c0: 4172 d5bc 7a4a 86bb 21d2 8bbb 07d5 a5b9
000001d0: f63e 273c f7be 813c 97bf b0ba 6806 453c
000001e0: cf61 813b d849 423b 00f6 a8bc 880c 60bb
000001f0: 9ce3 5ebc 5ab2 6d3b eec8 183c 34dd cf3c
00000200: 3f5c 9d3b 3908 503c 6658 3fbb b86e 1ebc
00000210: fc8f 133c 8d37 6abc a8e5 763c 65aa 85bc
00000220: 20a4 543c d686 18bc 27cd 44bb 2b3b bbbc
00000230: b8b5 b8bc 6963 c2bb c6c9 40bc 1ec2 c43b
00000240: 7113 473c 7bf2 eebc 78db ebbb 2109 21bc
00000250: f0c9 b9ba 4362 83bc 7f55 93bc ae0f 13bc
00000260: 3aa5 36bb 4022 bfba 2a0e c63a 93ae 5b3c
00000270: 39d7 aabc 4bda 003c a895 0ebd 298b 8cbc
00000280: 4ae8 1e3c 8661 2dbc 11f9 e7bb 2c8b aabc
00000290: d9a5 81bc f0c6 563c 96d2 40bb 27ea 99bc
000002a0: 8420 9dbc b373 b739 eddf 383c 04a7 8f3b
000002b0: 7960 66bc 88c8 e83c f923 473c b525 d4bc
000002c0: 07a9 86bb bbad 09bb cbfd ffbb 72ba acbc
000002d0: 86db 86bb a23c f4bc 99fd 533c a787 a6bb
000002e0: 3d17 76bc 97cb 9a3c ebaa efba fce8 9bbc
000002f0: 43e6 3d3c 8e17 853c aca4 ebbc 7bbc adbb
00000300: 08f6 57bc a352 9fbb c737 d53a b422 c03c
00000310: dfa3 4ebb 0d0c 11bc 6f25 833c 03f5 f2bb
00000320: 86a7 c4bc 0d02 04bd 9c07 1d3d b782 dd3b
00000330: d2bb 60bc 93e2 65bc d3e2 d7bb 0733 483c
00000340: aeae 9cbc eb65 a83a ea80 19bd c96e 433b
00000350: 4b55 08bc f242 09bd af34 89bc b095 61bc
00000360: 3e58 12bc f392 013c e2c5 2fbc 4cf0 df3a
00000370: f231 81bc af06 19bb 3cd3 2fbc e996 b33c
00000380: 901c 0c3c b2af 83bb 8271 483d b596 35bc
00000390: 71c1 803c 2540 203c ea85 ed3b f316 e1b9
000003a0: 7a19 6a3c d41c 5aba 76f1 3f3c f0e3 1dbc
000003b0: 6521 083c f8ea 9cbc 026b fd3b 970a 85bc
000003c0: afa5 2bbc ab3c 713c 1853 283c 567e 923b
000003d0: b08b 983c 3cff 0b3c 7fc0 b33b 3f4a 163d
000003e0: 2762 da3c 3789 713c 1b89 02bd 3627 e1bb
000003f0: eaa4 85bb 978c 83b6 3b4e c9bb 34dc bdbc

net.4.bias f4 [256]
-0.021230208 -0.12361013 -0.014120572 -0.00498314 -0.12071754 0.035299607 0.011648773 0.021030448
-0.002828357 -0.29035902 0.028180255 0.053326953 -0.2502889 -0.02009056 0.0016028924 0.05045057
-0.046296608 0.021430746 0.066646256 -0.011265694 0.012499941 0.04080969 -0.020323751 0.0830537
0.017699353 -0.20517807 0.046791665 0.04404669 -0.10589332 -0.01103032 0.018932754 0.052818257
-0.19128703 0.028592462 -0.0055678817 0.010846855 -0.019280717 0.009092607 0.054276567 -0.17395283
-0.02254271 -0.31993437 0.08549653 -0.08248415 -0.048533138 -0.04153821 -0.0017874242 -0.013560178
0.014206962 -0.32944956 0.0041199387 0.0025198506 -0.0028704868 0.014281632 -0.03542237 0.078366265
0.020003673 0.022014733 0.0691437 0.09606786 0.058046147 -0.008387544 -0.059922513 0.08568766
0.07515447 0.05599884 0.012102273 0.06411961 0.05646478 0.021513931 -0.08368552 -0.007207676
0.06804154 0.0594511 0.015610601 0.045295935 0.021644117 0.040675018 -0.0236277 -0.03350413
0.045469247 -0.0013691642 0.02755335 -0.005836816 -0.039644156 -0.02212817 -0.046697635 0.0760858
0.0253434 0.025410706 0.062499207 0.012280627 -0.039939612 -0.022060858 0.039074093 0.046685506
0.033570647 0.030451516 -0.0014160939 0.054394305 0.047836035 0.03429029 0.054923553 0.058414627
-0.0011924111 0.030506335 -0.044170607 0.01784591 -0.22226584 0.06740166 0.05899819 -0.024844708
-0.0033706632 -0.046089884 0.008883453 0.021284794 -0.03914977 0.07930169 0.07142529 0.03384009
0.05064768 -0.11744342 -0.03705692 0.018242594 -0.15804026 -0.040803917 0.016186694 -0.3815344
0.008616184 0.0028696295 -0.008313721 -0.031768065 -0.036165964 0.017235784 -0.0035629675 0.0151271
0.017299805 0.001499185 0.00826976 -0.036644265 0.036513038 0.061908748 0.050347585 0.027317086
-0.017378643 0.05120612 -0.017910969 -0.022312105 -0.46264318 -0.008731201 0.033765182 0.07482419
0.02498567 -0.4444293 -0.10484274 -0.04744777 -0.08159636 0.030481638 0.03447394 -0.187254
0.07616822 0.06874431 0.05405437 0.017344443 -0.009568242 -0.006275085 0.056981597 0.019518781
0.013112314 0.02000604 -0.2575191 -0.4927038 -0.07165315 0.06958637 -0.016804976 0.008560983
0.07052084 -0.029989574 0.021431608 0.06753642 -0.23733686 0.0028923487 0.02060657 -0.017366968
-0.005241792 -0.048852798 -0.3218977 0.0015132749 -0.054786056 0.09233671 0.07781588 -0.0068660844
-0.04890999 0.006513474 0.025313225 0.046114758 0.0071072015 -0.08791315 0.104431055 0.018439285
-0.2714257 0.037806123 -0.22281188 0.030992664 0.020373518 -0.056986075 -0.012191277 0.021048715
0.025959406 -0.08374975 0.033630405 0.0035996607 -0.019298075 -0.036744718 -0.05841757 0.0017540801
0.09263826 0.07067673 -0.18649828 -0.009381555 -0.28277773 0.013964342 0.08443362 -0.018625585
0.080087915 -0.0712016 0.099095 0.0065055024 -0.054697905 0.06244799 0.010514784 0.053235166
-0.113044545 -0.009530832 0.04778945 0.015378459 -0.018390592 -0.010217419 0.0349442 0.017751014
0.01651273 0.040945604 0.035548523 0.08523207 -0.023428736 -0.015329575 -0.07829151 0.0019137254
-0.041686714 -0.097480856 -0.095881455 0.03234692 -0.04313892 0.08440375 -0.023154244 -0.077686824
00000000: f9ea adbc 4f27 fdbd f959 67bc 9c49 a3bb
00000010: c23a f7bd 5296 103d 7fda 3e3c 0c48 ac3c
00000020: f55b 39bb f0a9 94be 47da e63c 5d6d 5a3d
00000030: de25 80be f594 a4bc 2518 d23a 42a5 4e3d
00000040: 83a1 3dbd 888f af3c d57d 883d bf93 38bc
00000050: 8dcc 4c3c 1028 273d ff7d a6bc 0f18 aa3d
00000060: 3cfe 903c 331a 52be 9ea8 3f3d 4d6a 343d
00000070: 99de d8bd 84b8 34bc dd18 9b3c f557 583d
00000080: bfe0 43be bd3a ea3c c772 b6bb 02b7 313c
00000090: 98f2 9dbc 28f9 143c 1b51 5e3d b120 32be
000000a0: 7dab b8bc 70ce a3be ce18 af3d 73ed a8bd
000000b0: afca 46bd f823 2abd 0148 eaba 822b 5ebc
000000c0: 51c4 683c 9dad a8be 8d00 873b 1424 253b
000000d0: c71e 3cbb 82fd 693c 0c17 11bd 7e7e a03d
000000e0: bede a33c 3e58 b43c 369b 8d3d 3abf c43d
000000f0: ccc1 6d3d e96b 09bc 4f71 75bd 037d af3d
00000100: 96ea 993d 0a5f 653d 9d48 463c 2451 833d
00000110: 9d47 673d fc3d b03c 5063 abbd 5e2e ecbb
00000120: 5d59 8b3d ff82 733d 9bc3 7f3c 3b88 393d
00000130: 014f b13c d99a 263d e18e c1bc a03b 09bd
00000140: f63d 3a3d 8775 b3ba 90b7 e13c c342 bfbb
00000150: e961 22bd 2346 b5bc 0546 3fbd dfd2 9b3d
00000160: f69c cf3c 1d2a d03c 2bff 7f3d af34 493c
00000170: b897 23bd f9b8 b4bc 280c 203d 4d39 3f3d
00000180: 6081 093d 7575 f93c 3a9c b9ba 90cc 5e3d
00000190: b8ef 433d fa73 0c3d 85f7 603d 2d44 6f3d
000001a0: ad4a 9cba 6ce8 f93c 3dec 34bd 9631 923c
000001b0: a899 63be e209 8a3d 16a8 713d 2187 cbbc
000001c0: 58e6 5cbb bfc8 3cbd e78b 113c 735d ae3c
000001d0: 825b 20bd ed68 a23d 6c47 923d e89b 0a3d
000001e0: f173 4f3d 2d86 f0bd ffc8 17bd 7e71 953c
000001f0: 4ed5 21be 0222 27bd f599 843c 7a58 c3be
00000200: e52a 0d3c 6510 3c3b 4636 08bc 3b1f 02bd
00000210: c322 14bd 0f32 8d3c ad80 69bb a8d7 773c
00000220: 52b8 8d3c 4d80 c43a e37d 073c 4c18 16bd
00000230: b28e 153d 0794 7d3d 4539 4e3d 15c8 df3c
00000240: a85d 8ebc 82bd 513d 06ba 92bc e0c7 b6bc
00000250: 91df ecbe 500d 0fbc 5c4d 0a3d 6d3d 993d
00000260: bfae cc3c 3d8c e3be cab7 d6bd 9858 42bd
00000270: fe1b a7bd a1b4 f93c 8c34 0d3d 83bf 3fbe
00000280: 15fe 9b3d d1c9 8c3d 1d68 5d3d ef15 8e3c
00000290: 1ec4 1cbc 3a9f cdbb 8965 693d dae5 9f3c
000002a0: 08d5 563c b5e3 a33c 8bd9 83be ac43 fcbe
000002b0: e3be 92bd 4c83 8e3d 97aa 89bc 5e43 0c3c
000002c0: 3b6d 903d b2ac f5bc 5791 af3c 8950 8a3d
000002d0: 6f08 73be 8f8d 3d3b 1ccf a83c 2c45 8ebc
000002e0: 57c3 abbb df19 48bd c6cf a4be 1459 c63a
000002f0: 5867 60bd 071b bd3d ef5d 9f3d e4fc e0bb
00000300: d755 48bd fb6e d53b ae5d cf3c d4e2 3c3d
00000310: 87e3 e83b cf0b b4bd f3df d53d fc0d 973c
00000320: 4ff8 8abe 98da 1a3d cc28 64be 54e4 fd3c
00000330: 5de6 a63c 3b6a 69bd ecbd 47bc 5b6e ac3c
00000340: d2a8 d43c fd84 abbd 09c0 093d 49e8 6b3b
00000350: ff16 9ebc a181 16bd 4347 6fbd 29e9 e53a
00000360: 21b9 bd3d f6be 903d 68f9 3ebe 18b5 19bc
00000370: 3ec8 90be b2ca 643c 89eb ac3d af94 98bc
00000380: 2205 a43d 25d2 91bd 52f2 ca3d 1c2c d53b
00000390: e90a 60bd 77c9 7f3d 3346 2c3c 1e0d 5a3d
000003a0: e683 e7bd 3527 1cbc dfbe 433d eff5 7b3c
000003b0: dea7 96bc f666 27bc a621 0f3d 936a 913c
000003c0: b445 873c 94b6 273d 549b 113d 278e ae3d
000003d0: 9fed bfbc e628 7bbc 4d57 a0bd f8d5 fa3a
000003e0: b0bf 2abd 0ba4 c7bd 7f5d c4bd 347e 043d
000003f0: 70b2 30bd e0db ac3d f8ad bdbc 451a 9fbd

net.6.weight f4 [2, 256]
0.00050953036 -0.08900849 0.0007981085 -0.0011822935 -0.05217714 -0.00018329607 0.00018316552 -0.0023316892
-0.0015777966 0.10095827 -0.0005848568 -0.0010400611 -0.008373585 -5.3144766e-05 -0.111183725 -0.0034716097
-0.0002375973 0.00040177212 -0.00097340986 -0.0006332858 -0.0007504318 -0.00030433323 -4.8220463e-05 0.00039168366
-8.780213e-06 0.00045357447 0.0010340723 3.0081224e-05 6.5193206e-05 -0.06262721 0.0031214575 -0.002044233
-0.008247523 0.0014367682 0.0004750829 -0.001891425 -0.025703678 -0.0012149444 0.0011110607 0.07401129
0.000687875 0.053474635 -0.0007170537 0.0018115052 -0.00076941174 -0.00022706218 0.00020607022 0.00095637556
-0.0015236739 -0.0015824209 -5.701911e-05 0.00047964219 -0.0009355253 0.00057811494 0.0021106307 -0.0018590904
-0.00019159616 0.001227414 0.00043733628 0.00029645508 0.000287761 0.00029973814 0.00045729152 0.0007605331
-0.0010841487 -5.454148e-05 0.00038231362 0.0029233687 0.0005350667 0.0011734145 0.0015309094 0.0013336336
-0.0010970515 0.0002887914 -0.001223249 0.0011016503 0.0005693546 0.0006880794 0.00082401396 0.0014490053
-0.000873029 -0.002235741 -0.00038895415 -0.0007119214 -0.0031760728 0.0006132492 0.00039625427 0.0011668506
0.0016905621 0.0012688813 -0.0014665624 0.0012991652 -1.4626339e-05 0.0024350202 0.0009250824 0.0025774038
-0.0007069075 0.00052431447 -0.00045035823 -0.0009051884 7.835186e-05 -0.0012570482 -6.7943256e-05 0.0010788532
-0.00154214 -0.0015198608 -0.001523445 -0.00075770693 0.025048308 -0.0011294025 0.0007719309 5.9325554e-05
0.00050255045 0.0012108294 -0.00019815227 0.0015316341 -0.06391509 -0.0016372626 -0.0007271761 -0.0017357924
-0.00083298096 0.0016846281 -0.0010042869 0.001087266 0.0012861989 0.0025196248 0.0007428949 0.03743552
0.0001797677 -0.00028059626 -0.00038054594 -0.00036704817 0.00025518666 -0.0013866444 0.0014509816 0.00062906544
0.0012438011 -0.00016976384 0.00041081305 0.000816135 0.0011861692 -0.0014189543 -0.0005088427 0.00049895316
0.00057173125 0.002045138 -0.00016592423 -0.0012982845 0.0437635 -0.00017941142 -0.00047100626 0.0013287991
0.0037859902 0.045339875 0.0034365156 0.0013516614 0.0012943575 -0.0012620399 -0.0009900881 0.038037997
3.1266078e-05 -0.0013200156 -0.0016666207 -0.002934496 0.13469996 0.001508206 -0.00074309815 0.0009166491
-0.0019727321 -0.0008021468 -0.016889472 0.0362773 -0.0010906421 -2.8245506e-05 -0.0006160728 0.0015502085
0.002578804 -0.0197934 -0.0013024585 -0.00028034506 0.016061734 0.0010121778 -0.00084831443 0.0013994949
0.00027955408 0.0004053474 0.05054141 0.00064705824 -2.1698146e-05 0.00036403997 0.00041106602 0.00071101217
0.00045392683 -0.00072720635 -0.0008888909 0.00018925115 -0.0007444736 0.0005914986 0.0018264303 -0.0008948274
0.043712568 0.002190502 0.082412235 0.00016583229 -0.00039924803 -0.0024471343 0.0033116546 0.0015944523
9.3136136e-05 -5.3298685e-05 0.00067194167 -0.0015403357 -0.0010753324 0.0012822394 -0.09961261 0.0007871397
-0.0005125941 -0.00031081963 -0.00925212 -7.476631e-05 -0.003362551 0.0010416303 -0.0014273387 -0.016292902
0.00031245156 -0.099044725 -0.0011686484 0.0016353712 -0.0007199254 -0.0010769313 0.0010702941 -0.001592107
-0.027343744 -0.00011745863 -0.00083637855 -0.0003890629 -0.00037806138 0.00020117592 0.00030888 0.0014572145
0.00021357682 -0.0018488329 0.0016942929 -0.00024502713 -0.020370828 0.00060549023 -0.0969441 0.00021966403
0.00048755735 0.01394366 -0.0016689813 -0.0017392893 0.0007880899 -0.0007295199 0.0007588467 -0.0011295388
00000000: 0192 053a 154a b6bd 2838 513a 30f7 9aba
00000010: b2b7 55bd 2a33 40b9 1f10 4039 41cf 18bb
00000020: 12ce ceba 36c3 ce3d 1351 19ba a952 88ba
00000030: 5c31 09bc c2e7 5eb8 4bb4 e3bd f283 63bb
00000040: 8a23 79b9 f1a4 d239 6e2c 7fba 1703 26ba
00000050: a0b8 44ba ea8e 9fb9 5440 4ab8 e45a cd39
00000060: ba4e 13b7 bccd ed39 b589 873a f056 fc37
00000070: 56b8 8838 b242 80bd 5e91 4c3b 8af8 05bb
00000080: 9e20 07bc f151 bc3a 8c14 f939 b1e9 f7ba
00000090: 8590 d2bc c53e 9fba 03a1 913a 3b93 973d
000000a0: 8352 343a 3808 5b3d a9f8 3bba 0770 ed3a
000000b0: 59b2 49ba 8a17 6eb9 8e14 5839 47b5 7a3a
000000c0: 03b6 c7ba 3c69 cfba ce27 6fb8 7c78 fb39
000000d0: 0a3e 75ba a38c 173a 8252 0a3b b9ac f3ba
000000e0: 34e7 48b9 2ee1 a03a 484a e539 876d 9b39
000000f0: a1de 9639 2c26 9d39 a1c0 ef39 835e 473a
00000100: fe19 8eba 78c3 64b8 4471 c839 fd95 3f3b
00000110: b843 0c3a 42cd 993a cca8 c83a 51cd ae3a
00000120: f1ca 8fba ed68 9739 6d55 a0ba 4065 903a
00000130: be40 153a 3a60 343a a402 583a 8dec bd3a
00000140: fcdb 64ba 8285 12bb 8bec cbb9 3da0 3aba
00000150: a925 50bb 75c2 203a 59c0 cf39 02f1 983a
00000160: da95 dd3a 9750 a63a ab39 c0ba c048 aa3a
00000170: a663 75b7 dc94 1f3b 3b81 723a a9e9 283b
00000180: c24f 39ba 2672 093a 0f1e ecb9 2a4a 6dba
00000190: d650 a438 8ac3 a4ba c27c 8eb8 4e68 8d3a
000001a0: a221 caba 1136 c7ba 55ae c7ba daa0 46ba
000001b0: 1c32 cd3c 7608 94ba 685b 4a3a 54d4 7838
000001c0: 97bd 033a b1b4 9e3a 18c7 4fb9 1dc1 c83a
000001d0: eae5 82bd 6b99 d6ba f69f 3eba 8783 e3ba
000001e0: 685c 5aba bdce dc3a 47a2 83ba 9882 8e3a
000001f0: ac95 a83a 4a20 253b d5be 423a fd55 193d
00000200: 0680 3c39 fe1c 93b9 0384 c7b9 5f70 c0b9
00000210: 93ca 8539 11c0 b5ba dd2e be3a dee7 243a
00000220: 0a07 a33a a202 32b9 6562 d739 e5f1 553a
00000230: 3c79 9b3a 35fc b9ba db63 05ba 2ecc 023a
00000240: 3ce0 153a b907 063b f2fb 2db9 332b aaba
00000250: 5b41 333d 6320 3cb9 64f1 f6b9 192b ae3a
00000260: 601e 783b 4eb6 393d 2a37 613b 3b2a b13a
00000270: 6ea7 a93a 086b a5ba d8c5 81ba bbcd 1b3d
00000280: b223 0338 6004 adba 8372 daba ac50 40bb
00000290: c9ee 093e ffae c53a 79cc 42ba 484b 703a
000002a0: f448 01bb 2947 52ba ca5b 8abc 8297 143d
000002b0: e0f3 8eba c3f0 ecb7 f27f 21ba 5e30 cb3a
000002c0: 2701 293b c525 a2bc 41b7 aaba 47fb 92b9
000002d0: e693 833c 0dab 843a 6b61 5eba 426f b73a
000002e0: 1d91 9239 cf84 d439 8204 4f3d 589f 293a
000002f0: 6a04 b6b7 9edc be39 5984 d739 3863 3a3a
00000300: 07fd ed39 fea1 3eba 7504 69ba b871 4639
00000310: c728 43ba cd0e 1b3a d564 ef3a da92 6aba
00000320: f30b 333d 868e 0f3b bfc7 a83d 44e3 2d39
00000330: 2a52 d1b9 1a60 20bb 5808 593b f1fc d03a
00000340: 1552 c338 078d 5fb8 3e25 303a 17e5 c9ba
00000350: 2bf2 8cba d110 a83a b201 ccbd 0d58 4e3a
00000360: 9c5f 06ba 81f5 a2b9 3496 17bc dbcb 9cb8
00000370: 3f5e 5cbb 5087 883a 8a15 bbba b178 85bc
00000380: 8ad0 a339 f6d7 cabd 552d 99ba f459 d63a
00000390: 60b9 3cba d127 8dba 1c49 8c3a 3fae d0ba
000003a0: fdff dfbc 1f54 f6b8 6a40 5bba 23fb cbb9
000003b0: 8a36 c6b9 c0f2 5239 2cf1 a139 0100 bf3a
000003c0: 97f3 5f39 8a54 f2ba 0913 de3a fc76 80b9
000003d0: b9e0 a6bc c3b9 1e3a a18a c6bd 9d55 6639
000003e0: d79e ff39 f373 643c b8c1 daba ddf8 e3ba
000003f0: d197 4e3a 403d 3fba 57ed 463a 080d 94ba

net.6.bias f4 [2]
-0.10521384 -0.02147287
00000000: 5b7a d7bd dfe7 afbc
