moons/cfm/models/70000_model.pt (torch, 535856 bytes, 8 tensors)

net.0.weight f4 [256, 3]
00000000: 950b 98bc 8342 333c bef7 5f3d a624 04bf
00000010: e2e1 d83d 63eb e0be b80f 9c3d 5d47 103e
00000020: 85e5 3e3e bca7 0a3e cd1b 843e b33b fa3e
00000030: d693 09bc 1181 72bd 6624 6e3e 411b c53e
00000040: 7108 48bd 9f09 e03e caaa a43d 81bb 023c
00000050: 7626 92bd ea72 01bf 953c 193e d682 3a3e
00000060: 9c1a e8be aba8 0e3e 9ada 8a3e 9e70 33bc
00000070: cde2 57be cec4 e5be c36d c0bc 639d c9bd
00000080: 816e 31be 35f1 f7bc 6ed0 3abe 73e3 ddbe
00000090: d5b3 4f3d 447d a2be 5610 2fbf 2bde 803c
000000a0: 4737 8e3d d936 7b3c ce3d cdbd c12c 203d
000000b0: 4019 1bbf 8290 85bb b18c b93a 5067 9ebb
000000c0: 043e f23a a329 83bb 8f93 1538 f59e 4cbf
000000d0: 474e f23e 07ef b5be c69b ef3b 989a 1b3d
000000e0: 7903 7cbe 99c8 dfbe 60c0 bfbd 2125 06bc
000000f0: 54f8 a6bd 43da c53d 5adc 33be 8914 55ba
00000100: 4d63 a33a 78ac 67bb 4361 273b 59c3 b3bb
00000110: 35a7 bcb7 9bfe 34b9 02c2 ac3a 78be bb3a
00000120: 1502 26bf c748 493e 3467 0c3e 6f4f b73d
00000130: 58f8 993e 2cc2 b53e 3287 2dbf de10 2e3e
00000140: be4a 213e 95f0 96bd 870a 9b3e 4992 4fbf
00000150: 0367 e3be da62 01bf 434b 94be 4a9a 98ba
00000160: 78ec 04b9 dc0e 8aba 657d 743b 1c25 35b9
00000170: 0b86 86bb 3280 143f 19aa cfbe 449e 923e
00000180: bbfc 13bd ce03 29bc 42c9 bebe f091 1d3b
00000190: 7fc4 d53a 57c3 9fbb d5e5 1c3c 5d0b 39bb
000001a0: b78c d03b 96ab 153b acdd 003b e619 65bb
000001b0: 8804 e6bd c0a2 23bd cec8 ddbe b73c 293f
000001c0: 0c7b 7c3f abc8 efbe 4f42 623e d955 973e
000001d0: e5a8 f23e 2f4f 873c b374 50bd ba7a e93e
000001e0: 7897 a4bd 3276 dd3e 5130 f1bd 3dd3 51bb
000001f0: 16ad 7d3b 03e1 5abb 27ab 133b 846d 5b39
00000200: d816 24bb d971 b63e c1cf 00bf 6334 1d3f
00000210: 067d fc3d e06d 00bf 2af2 923e 8b8a 61bf
00000220: 20b8 b53e d729 d83d e517 ba3a d850 343b
00000230: e7c4 40bb 4f49 9dbd c908 7cbe 1588 0ebf
00000240: 0f1b 52bf 685f 063f 2d71 d33e c822 b4ba
00000250: 62f0 823b 3003 3fbb 3745 3cbf 9f21 65be
00000260: a5ef 4dbe aca7 eebe e03c cd3e 8564 02bf
00000270: 2d11 9fbd 6745 0f3e 574b 4a3f 4abb 613b
00000280: e957 e53a 7094 e3ba f936 0abb 9bbd de3a
00000290: 82e3 a93b 705e c93a 945f 483b 150d 90ba
000002a0: 1f58 ae3b a69f 693c 91c3 b9bd 1600 bbbb
000002b0: 4527 e73a 19a3 19bb c972 10ba 19ee ebba
000002c0: 0946 2f3b 827a 23bf 3500 3b3e b6f9 dbbe
000002d0: b9f0 17bb 43de 693a e4c8 05bb 7b68 cebb
000002e0: c186 dd3c 67e9 aabe 926c dbba 8e80 0dba
000002f0: 4f2d 9fbb 0611 1e3f a504 a2be 7c92 c63e
00000300: 1905 ceb9 1db8 fe38 5651 b7ba d41f d43a
00000310: d4cf 06bb 9c77 82ba 97ec 93bd 7bb4 363d
00000320: a54d 01bf bf64 56bf d346 113f a3fb 973e
00000330: 2a5d e43e 6ec5 afbe 1bbe 063f 312c 7fbe
00000340: 698e 1cbe 950d 77be 2ff2 8f3a af4a 6db8
00000350: 1f32 513b a01c 64bb b50f f43a 58b1 00bb
00000360: 25e7 a4bb df87 9a3b 8dd7 c6bb 83a8 833e
00000370: 582b c3ba 7b2f b03e bd8a b9bc 7866 81bc
00000380: 361d 93be ae4d 8f3b 4c88 53b9 bd88 98ba
00000390: 0b99 79bd 63e7 ebbb 88ac d9be f98f 943c
000003a0: 1a51 8bbd 9e82 df3e 3f5c 083f f68c 113f
000003b0: 1c3c 07be b2fe 213d 83b6 ec3d 2f50 993e
000003c0: 09b4 153c e62c 81bb 50a3 1cba 2915 143f
000003d0: 1f11 76be 264d d63e 84d9 79bc 2924 c6bd
000003e0: 1418 6d3e bd17 c0bb c31b 8e3d db54 f93e
000003f0: e3b2 483c 48a7 053f 5f4a 2a3f ddfe c23b
-0.01856021 0.010941151 0.054679625 -0.5161842 0.10589959 -0.43929586 0.076201856 0.14089723
0.18642242 0.13540548 0.2580246 0.48873672 -0.008397063 -0.05920512 0.23256072 0.38497356
-0.048836175 0.4375734 0.08040388 0.007979275 -0.07136242 -0.5056597 0.14964516 0.18213972
-0.453328 0.13931529 0.27119905 -0.010952143 -0.21082611 -0.44876713 -0.023489838 -0.09844472
-0.1732731 -0.030266384 -0.18243572 -0.43337592 0.05070861 -0.31736195 -0.683843 0.015730938
0.06944137 0.015332901 -0.10021554 0.03910518 -0.60585403 -0.0040760646 0.0014156309 -0.004834093
0.0018481617 -0.004002766 3.5661793e-05 -0.7993005 0.47325346 -0.35533926 0.007312271 0.03798923
-0.246107 -0.4370773 -0.093628645 -0.008187563 -0.081528336 0.09660771 -0.17564526 -0.0008128365
0.0012465507 -0.0035350602 0.002554015 -0.0054859337 -2.2489208e-05 -0.00017260986 0.0013180377 0.0014323732
-0.64846927 0.19656669 0.13711244 0.08950698 0.30072284 0.35499704 -0.67784417 0.16998622
0.15751168 -0.07370106 0.3028147 -0.8108259 -0.4441453 -0.5054146 -0.2896367 -0.0011642661
-0.00012676592 -0.0010532993 0.0037306186 -0.0001727533 -0.0041053346 0.5800811 -0.40559462 0.28636372
-0.036129694 -0.0103158485 -0.37262923 0.0024043284 0.0016309171 -0.0048755812 0.009576281 -0.0028235533
0.0063644308 0.002283787 0.0019663377 -0.0034958064 -0.11231333 -0.039950132 -0.43317264 0.6610827
0.98625255 -0.46832785 0.22095607 0.29557684 0.4739448 0.01651725 -0.050892543 0.45601445
-0.08036703 0.43254238 -0.11776794 -0.0032016777 0.0038707904 -0.0033398278 0.0022532435 0.00020926265
-0.002503803 0.35633734 -0.5031701 0.6140806 0.12328534 -0.50167656 0.28700382 -0.88102025
0.3549204 0.10554855 0.0014197795 0.0027514007 -0.0029414238 -0.07679998 -0.24612726 -0.55676395
-0.8207254 0.5248933 0.41297284 -0.0013743276 0.003995941 -0.0029146187 -0.73543113 -0.22376107
-0.20110948 -0.46612298 0.40085506 -0.5093463 -0.07766948 0.13991319 0.7902121 0.0034443908
0.0017497513 -0.0017362963 -0.0021089895 0.0016993763 0.0051845917 0.0015363228 0.0030574547 -0.0010990227
0.0053205634 0.014259255 -0.090705045 -0.0057067974 0.0017635605 -0.002344316 -0.00055102684 -0.0018000036
0.0026744625 -0.6385881 0.18261798 -0.42963952 -0.0023184253 0.0008921364 -0.002041393 -0.006299076
0.027041795 -0.33381197 -0.001674073 -0.0005397879 -0.004857696 0.61744726 -0.31644168 0.38783634
-0.0003929518 0.000121459576 -0.0013986032 0.0016183802 -0.0020570653 -0.0009953859 -0.0722286 0.044605713
-0.505091 -0.83747476 0.56748694 0.2968417 0.4460233 -0.34330314 0.5263383 -0.24919201
-0.152887 -0.24126275 0.001098221 -5.6574758e-05 0.0031920744 -0.00348071 0.0018620404 -0.0019636955
-0.0050324374 0.004715904 -0.006068176 0.25714502 -0.0014890237 0.34411225 -0.022649163 -0.015795931
-0.28733224 0.004373274 -0.00020173303 -0.0011637431 -0.06093697 -0.0071992143 -0.42514443 0.018135058
-0.06802578 0.4365434 0.53265756 0.56855714 -0.13206524 0.039549537 0.11558249 0.29943988
0.009137162 -0.00394212 -0.0005975263 0.5784479 -0.24029969 0.41855735 -0.015249614 -0.09674866
0.23153716 -0.005862205 0.06938889 0.48697552 0.012249681 0.52208376 0.6651973 0.005950792

net.0.bias f4 [256]
00000000: bd30 46bd 494e a83e 5d7c 14bd 2190 fabe
00000010: 61f0 51bd 2869 89be 1a24 c23d 7ff6 36bf
00000020: a0d0 3bbf 40da bf3e c925 583e 860d b33e
00000030: c78e 1e3f 3ed0 31be 3e31 033f 9840 6f3b
00000040: 3b8c 263c c231 7e3e 4d31 6e3e dbad ee3e
00000050: 782d d23e dc93 483b 2fd0 893b f25f 033c
00000060: de34 ac3e 61ac c53e 35f1 aa3e b8c9 333f
00000070: b071 143e 211c c8ba 1d97 c83b 3b2c 09bf
00000080: d536 8b3e 021c 523b 5002 963c 3fe4 ef3a
00000090: fcbc fb3e d4c4 acbe 0a8c f9be 4c2c 73be
000000a0: e56e 2abe 8d5a b33b 94b4 cb3a 2229 2bbf
000000b0: 73e4 1ebf 1f2a 2dbe 1ce2 64bb 4368 0f3f
000000c0: 7abe 13bf c63e 9c3b cc06 213e c803 b03e
000000d0: 98f8 0fbf 351f 3f3c f0a5 d83b 70bb e23b
000000e0: ed05 b93d 97af e83a 8c93 8b3b 8b97 a5be
000000f0: 1f52 b33b a9de 863e 6126 ce3b 66ae b5be
00000100: 1b38 673b 0c2c f3b9 48d1 c43e f0f0 f7be
00000110: e7f5 2cbf d26a f63e e059 a53b 31ec edbb
00000120: 659f 2a3b d0dc 75be 5f6e 683e 2a03 1f3c
00000130: 1e2e a53e bac7 8dbe 51bf 6abe ecea 443d
00000140: 2f1f cb3b 49fe 9abe 5bc1 643d b3bb 8abe
00000150: 8dfc 5cbf b71c 973e c553 8a3e 0bfb db3b
00000160: 9dde 33bf 46df 293f b6bf d83b bdee 043f
00000170: be53 42bf c7dd a03e 0f9f df3e 5f51 d43e
00000180: 0d1b 04bf b846 0bbb 0850 663b a2c8 22bd
00000190: 2339 c73e c76a 6abe f56a ea3e e73d a2be
000001a0: f9f3 143f 43ea a93b b7d3 a93a b8f4 39bf
000001b0: 8c1d 25be 512d 0a3d df8b 113f 1e93 893b
000001c0: 6181 863e 2aa2 1f3b 5f88 19bf db38 a03e
000001d0: 7753 68bb c500 253e bb2a febd 0cbe bc3b
000001e0: 81e5 d2be baf5 343e 58c6 563b 27a7 6abe
000001f0: bfd5 453b 11f0 87be 0032 3dbf 252d b43e
00000200: 218f 82bb 938c 993b 0e10 c43a 6989 b03e
00000210: 85c9 c93d ba2d 69be eeb3 173a b599 743b
00000220: 2202 043d 5f37 efbc c7c4 c73b b23f be3e
00000230: 25d2 8b3a 2d52 1c3b 729e 6d3e cf2e 9abe
00000240: caff c13e 233a e23d 9ea7 aebe fd5f c83b
00000250: 4cbb fd3e 9604 fcbd 6e4e b03e 27f7 c23b
00000260: 1c82 bbbe e67a e7be d201 dfbe 7702 94be
00000270: 65a0 ea3b 321f 90bd 25c9 43be 1b5c 07bf
00000280: de7c 013f 1201 c7bd 62d6 113f 22bb babe
00000290: bdc5 2c3c fa31 5ebe 3e34 a13e 03dc f0be
000002a0: da48 533e 5ca3 8dbb 53d2 1bbf c4fa 473b
000002b0: ff6b 07bf fb00 f7be fe6f b33b 7b55 58be
000002c0: c2f3 8c3b 8f4d 3f3b 825a abbb cc25 19be
000002d0: d0ae 053f 15ed 4bbe 8e08 583e 3d74 9439
000002e0: cd99 853e 70cc 133f da00 c2bc 0cae bdb8
000002f0: 4f12 363b 71ba 333e c6a6 52bf 9991 07bf
00000300: 8075 e5ba aebe ca3b 22b2 e739 8b47 b93e
00000310: 533e e1be 3a38 043f ba04 4f3c 1b13 33bb
00000320: c71f 12bf 8dc9 6b3b abc6 143e 42a2 0dbf
00000330: fd2b 923e 1a4b eabe 01f8 1e3f b95c 12bb
00000340: aa2f 0b3f e075 11bf 3211 1fbe 9087 a03e
00000350: e37c 503e 0b17 dc3b 0ed7 20bf f110 733a
00000360: 2bd7 e5b9 ed11 7d3b 2b65 a9be ae0f b7be
00000370: 5eae c1be fcef 0bbf ecd8 313c d01b 20bf
00000380: f497 133e 4582 243f b4c0 13be 3c86 39bf
00000390: fd19 c53d 0ad3 3a3f 1bf4 0c3b 3d59 a0bb
000003a0: 8506 45b9 6139 de3e 2da9 073f 78b2 2cbf
000003b0: 1065 a43b baab e4be 0fbc 9b3b ce7a 27bf
000003c0: 44e6 3b3c 4533 103c 89fc ebba ff27 4fbf
000003d0: 37ec b23b da28 353e 2c44 fc3d a432 733a
000003e0: dfaa b4be 114d e7be 71bc c43b e4e2 7c3e
000003f0: 7c35 873b 7b8c 3dbe eca8 2c3c e3d8 b6be
-0.048386324 0.32872227 -0.036251415 -0.48938087 -0.051254634 -0.2683804 0.09479542 -0.71469873
-0.7336521 0.374712 0.21108164 0.34971255 0.6193661 -0.17364594 0.5124701 0.0036507007
0.0101652695 0.24823669 0.23260994 0.46617016 0.41050315 0.003060571 0.0042057256 0.008018481
0.33634084 0.38608077 0.3338715 0.70229673 0.14496493 -0.0015267172 0.0061215297 -0.53583115
0.2719027 0.003206015 0.01831165 0.0018302276 0.4916762 -0.33743918 -0.48739654 -0.23747367
-0.16643865 0.005473441 0.0015541487 -0.6685964 -0.62067336 -0.16910599 -0.003492481 0.56018466
-0.5771252 0.0047682254 0.15725249 0.34377885 -0.562387 0.011665155 0.006611578 0.006919317
0.090343334 0.0017752525 0.0042595323 -0.3234218 0.005472436 0.2634175 0.006291196 -0.35484618
0.0035281244 -0.0004638139 0.3844092 -0.48426008 -0.6756272 0.48128372 0.0050461143 -0.007260822
0.0026034948 -0.24010015 0.22698353 0.009705344 0.32261747 -0.27691442 -0.22924544 0.0480756
0.0061987857 -0.3027213 0.05584846 -0.27096328 -0.8632286 0.29514095 0.27017036 0.0067132763
-0.70261556 0.66356313 0.0066146506 0.51926786 -0.7590903 0.31419203 0.4367604 0.4146833
-0.51603776 -0.0021251868 0.0035142917 -0.03974212 0.3891078 -0.22892295 0.45784727 -0.31687853
0.5818477 0.005185397 0.0012956773 -0.72639036 -0.16124552 0.033734623 0.5685405 0.004198446
0.26270583 0.0024358132 -0.5997371 0.31293377 -0.003545014 0.16113575 -0.12410494 0.00575996
-0.41190723 0.17671862 0.003277203 -0.22915326 0.0030187217 -0.26550344 -0.7390442 0.35190693
-0.0039843475 0.004685947 0.0014958398 0.34479836 0.0985289 -0.2277135 0.00057870045 0.0037323062
0.032228597 -0.029201208 0.0060964557 0.3715797 0.0010667486 0.0023852692 0.23204973 -0.30113837
0.37890464 0.11046245 -0.34112257 0.0061149583 0.4955696 -0.12305562 0.34434837 0.005949873
-0.36622703 -0.45210952 -0.43556076 -0.2890813 0.007160234 -0.070372 -0.191197 -0.52874917
0.5058116 -0.09717001 0.5696775 -0.36470896 0.010545191 -0.21698752 0.3148517 -0.47042856
0.2063326 -0.0043224525 -0.60867804 0.0030514458 -0.52899164 -0.48242936 0.005475997 -0.21126358
0.004301519 0.0029190516 -0.005229295 -0.14955825 0.5221987 -0.19914658 0.21097013 0.00028315364
0.26093903 0.5773382 -0.023682047 -9.044641e-05 0.002778191 0.1755159 -0.82285726 -0.5295654
-0.0017506331 0.0061872816 0.00044192473 0.36187395 -0.43992862 0.51648295 0.012635404 -0.002732462
-0.5707974 0.0035978288 0.14528911 -0.5532571 0.28549185 -0.45760423 0.62097174 -0.00223331
0.54369605 -0.5682049 -0.15533903 0.31353426 0.2036014 0.006716614 -0.6282815 0.0009272239
-0.00043838596 0.003861542 -0.33084998 -0.3575415 -0.37828344 -0.5466306 0.010854941 -0.6254244
0.14413434 0.64261276 -0.14428979 -0.7247045 0.096240975 0.7297827 0.0021507803 -0.0048934505
-0.00018789813 0.43403152 0.52992517 -0.6745982 0.0050169304 -0.44662267 0.004752643 -0.6542176
0.011468474 0.008801286 -0.0018004338 -0.80920404 0.005460288 0.17691365 0.1231769 0.00092772604
-0.35286614 -0.45175985 0.0060039093 0.24695927 0.004126249 -0.1851062 0.010538321 -0.35712346

net.2.weight f4 [256, 256]
00000000: e80d 41bd 7779 163e cecb 37bd b08b 34bc
00000010: 9d61 a1bd 33a3 c83d 02c6 a1bc 3442 51bd
00000020: 5b28 ac3b 95e7 19be 93d4 85bd 8fd8 6ebd
00000030: 02a4 10be 3cfa a9bc 24fa 793d 46ec 92bc
00000040: a15c c93b d7fc 863c 8c1a 81bd bc68 a5bd
00000050: d0af 483d 910d 9a3d 5e56 273d 259b 2c3c
00000060: 7918 1dbd 3469 433d ac09 2cbd 80fe ca3d
00000070: cd40 0dbd ff23 29bd 5276 8d3b 1af9 b4bc
00000080: 836f 003d 20b9 bebc 5737 c23d 654c 873d
00000090: 2a5e 59bc 650d 33bd 7923 c1bb 9095 b4bc
000000a0: 0cf1 d63d 2fa5 35bc 2532 3b3d 5cdb 17bd
000000b0: 9427 90bd 20c9 c9bc 9386 953c d39e 1dbe
000000c0: b452 dd3c d779 b73c ff9e 4c3d 64ab 053e
000000d0: 595a de3c 2b48 113d ba28 743c 4f84 703d
000000e0: 4476 68bc 8ced a23d 52b4 b23b 8c42 a83c
000000f0: ea4e b53c afb6 01bd 8692 aa3d 7881 0d3e
00000100: 7dc8 f1bb 11f5 153d 7d68 553c a480 fa3b
00000110: ce5a 1b3c 31d2 4bbd 9c43 26bc 690c ddbc
00000120: 2882 133c a81d c83d 4d82 833c 45f6 debc
00000130: 0dea 8aba 1306 29bc 84d9 4e3c 4eba 6d3d
00000140: ef9e c13c 4171 113e cd82 adbd 0bb5 673d
00000150: 6f36 27be 02d5 1dbe 91e8 0f3d 5210 873d
00000160: 6225 c0bd 6c3b 0d3d ea00 373d cb71 10bd
00000170: dea9 07be a74b 7bba 537c d43c 7d3b 83bd
00000180: 4a36 85bc 5952 a23c 756b b03d c5ea a6bd
00000190: 79fd b23d 67e4 6fbd 2ed3 443e 3037 833d
000001a0: c5b3 613d 32a5 2b3d e69e 503c fe6a 093e
000001b0: 4dee 73bd 004a 963d b764 193e 92eb 933d
000001c0: c24b 5abd 816d e23d f00b b8bd 6768 a0bd
000001d0: 7b84 dfbc b35c 55bd 5113 79bd 918c ce3b
000001e0: a9b2 693d 24de b43d d58c 0f3d 5035 98bd
000001f0: 404b d43c 7876 aebc 56c3 433c d936 973d
00000200: 317d a0bc 9f11 ce3b 55d5 203c 56f1 7bbd
00000210: d71a e53c b75d 61bd 4b98 9cbc 5522 e9bb
00000220: 2709 04bd be2c 0f3a 8f40 333d b4c4 443e
00000230: 9006 6a3c 263d bf3c 11bf 473d a4d6 57bd
00000240: 8054 71bd 9436 deb8 aa53 5dbd 963e c8bb
00000250: 074a 913d 4031 543d ed9f 11bc 50b6 ddbb
00000260: 2e5c 3ebd a546 6c3d 7fa0 95bd e1bd 3a3d
00000270: 5894 b1ba 24de ebbd 9dbb 643d 52ef 773b
00000280: 5e4a e33d ccf1 ef3c 71e8 88bd 95b1 bf3d
00000290: 7f25 e13b d934 b63d 2d45 393d 277d 52bd
000002a0: 2e8c 0abd c502 5b3b d385 d73d c7a2 5a3d
000002b0: 092b 06bc 5036 483d 4241 0cbd 3da7 aeb9
000002c0: 164d e6bc 303b e53c 785d 083c 0023 42bd
000002d0: 702e 923a 0b7a 993d f7ae d63d b490 823d
000002e0: 31e3 723c 9604 07be 0f07 253d 43c9 793d
000002f0: 9114 6c3b 2b94 3ebd 7c54 29bd 9052 213e
00000300: 1fec bb3c 49f8 373d fd06 b13c 3cc9 9ebd
00000310: b5ed 383c 5ded 2dbe 1a4d b8bc 6702 09bc
00000320: 2348 873d 6130 68bb c8c5 51bd 7545 153d
00000330: 00df eebd 5334 4f3d ae20 043e faab e73c
00000340: 4f36 d73d cc61 113a 6ff4 c63c e440 d4bd
00000350: 1f6b 2bbc 8aa6 b7bc 362a dfbc 8097 163d
00000360: abc5 7fbc dcf1 db3c 4cd7 963c 1eb3 42bc
00000370: 9ab2 23bd c3b8 193d 12f0 673d 2659 a6bc
00000380: 6875 7cbd 34b5 d0bd 0cc3 b93d a02d 88bd
00000390: 0f0f ad3d d055 c3bc 5918 3dbc 70a6 1e3d
000003a0: 2068 473c cff1 c93d 39bf 793c 0c6c 6abc
000003b0: e948 8e3b 627d d13c 7443 df3a ef44 08bd
000003c0: 2b31 8039 7667 2abc f4aa cdbc 9629 953c
000003d0: 4e09 00bd 733a 7a3d 838a e03d 78e1 e5bb
000003e0: 28af ba3d c825 38bc 3bd4 1fbb fa55 ffbd
000003f0: faf6 243c 7251 3abb 638b 153d 1508 c6bb
-0.047132403 0.14694773 -0.044872098 -0.011019632 -0.078799464 0.09796753 -0.019747738 -0.051088527
0.005253834 -0.15029748 -0.06534686 -0.058311995 -0.14125064 -0.020749204 0.06102957 -0.01793493
0.0061450754 0.016477985 -0.063038915 -0.08076617 0.048995793 0.07522119 0.04085385 0.010535036
-0.038353417 0.04770775 -0.04200141 0.09911823 -0.034485627 -0.041294094 0.0043170834 -0.022091437
0.031356346 -0.023281634 0.094832115 0.06606368 -0.013267079 -0.043713946 -0.0058941212 -0.022043973
0.10495195 -0.011086746 0.04570212 -0.03707443 -0.07038799 -0.024632037 0.018252647 -0.15392618
0.027016975 0.022396965 0.049956318 0.13053662 0.02714269 0.035469215 0.014902288 0.05871993
-0.014188353 0.07955465 0.0054536248 0.020539545 0.022132356 -0.03166836 0.083287284 0.1381892
-0.0073786364 0.036610667 0.0130254 0.0076447297 0.009482099 -0.049761 -0.010147955 -0.026983457
0.0090032 0.097712815 0.016053343 -0.02721704 -0.0010598317 -0.01031639 0.012625102 0.058039002
0.023635356 0.14203359 -0.08472214 0.05656914 -0.16329359 -0.15413287 0.035133902 0.0659491
-0.0938213 0.034480497 0.044678606 -0.03526477 -0.13248393 -0.0009586163 0.025938189 -0.06407831
-0.016261239 0.019814657 0.08614246 -0.081502475 0.08739752 -0.05856743 0.19221184 0.064070106
0.055103082 0.04190559 0.012733197 0.1341972 -0.059553433 0.07338333 0.14979826 0.07222666
-0.053294905 0.110560425 -0.08986652 -0.07832413 -0.027284851 -0.052090358 -0.060809437 0.006303378
0.05705515 0.088314325 0.035046417 -0.074320436 0.025914788 -0.021296725 0.011948427 0.07383508
-0.019590946 0.0062887217 0.009816487 -0.061509453 0.0279669 -0.055021014 -0.019115588 -0.0071146884
-0.03223529 0.0005461684 0.04376274 0.19215661 0.014283791 0.023344588 0.0487662 -0.05269493
-0.058918476 -0.00010595951 -0.054034866 -0.0061109765 0.07094198 0.05180478 -0.008888227 -0.006766118
-0.04647463 0.05768456 -0.07306003 0.04559124 -0.0013548238 -0.11516979 0.055842984 0.0037831855
0.11098169 0.029290102 -0.0668496 0.09360043 0.006870925 0.08896799 0.045231987 -0.051388886
-0.033825092 0.0033418399 0.10523572 0.053377893 -0.008188971 0.04887992 -0.034241922 -0.00033312468
-0.02811293 0.027982324 0.008323066 -0.04739666 0.0011152755 0.07493981 0.10482591 0.06375256
0.014824674 -0.13185343 0.040289935 0.060982954 0.0036023 -0.046528023 -0.041340336 0.15754151
0.02293974 0.044914518 0.021609778 -0.07753226 0.0112871425 -0.16985078 -0.022497702 -0.008362389
0.06605556 -0.0035429227 -0.05121401 0.036443193 -0.116636276 0.05058701 0.12903091 0.028280247
0.105084054 0.0005545884 0.024286477 -0.103639394 -0.010462551 -0.02241828 -0.027241807 0.036765575
-0.015611093 0.026848726 0.018413208 -0.011883525 -0.03996525 0.037529718 0.056625433 -0.020306181
-0.061635405 -0.10190812 0.09070405 -0.06649327 0.08450138 -0.02384463 -0.011541449 0.038732946
0.012170821 0.098605745 0.015243345 -0.014307987 0.0043421877 0.025572482 0.0017033652 -0.033268865
0.00024450695 -0.010400644 -0.02510593 0.018208306 -0.031258874 0.061090898 0.10963919 -0.0070154034
0.0911544 -0.0112394765 -0.0024387974 -0.124675706 0.010068649 -0.0028429893 0.036509883 -0.006043444

net.2.bias f4 [256]
00000000: 865f 5e3d a9f8 b63d f36f f8bc 4bb6 f3bd
00000010: b162 153e 4e67 593c 7927 fdbe f05d a93d
00000020: 4dbd 1f3d db28 973d 719d 593b 4a4c 7aba
00000030: face 623d d6d3 643d 9a69 b53c a553 303d
00000040: 3ea2 523d 5b30 793d 15a6 febb 23d2 37bd
00000050: 9f44 2cbc ef3d 283d f5cc d7bc 1e34 c4bb
00000060: 2653 14bd c31c 56bd 0895 55bd b475 bdbe
00000070: 1dbc a3be 4a4e 9a3b d13a ebbc 2cfa dabb
00000080: 1191 2abc 67dd 1cbe 77c9 cfbd bbee 543c
00000090: 71df b03c 949a 5d3d f99f 623d 4437 d23c
000000a0: d9d6 d3bd 0a0b 6abd 9b0f da3d 96f0 5ebe
000000b0: d92d 673c 52cc 5f3d dcff 92be d22f a5bc
000000c0: 06df 05bc 5699 3dbc 965d 6c3c c756 6bbe
000000d0: 1933 a2bb adcb 9fbc b2f8 70bd 5e66 3c3d
000000e0: afb9 b2be 6384 b73c 3f82 f23c e42c c33c
000000f0: 9092 773d 5ba0 33be e826 d9bc 4d8d 89bc
00000100: a04f 8abe 5eaf 8fbb 6369 683d c9f5 273d
00000110: 991a 823d 9f8b 023d 7c16 b53b 127c c6bc
00000120: 42b2 f2bc 3c8f 213d 6ce4 6fbc 13a4 a8bc
00000130: 83c7 30bd d54a 6a3d 8268 673d 91a1 813d
00000140: 9ddc 3dbd a604 ac3c 6263 423c ad15 703d
00000150: daef 28bd 5fc4 743d b678 643b a61b ec3c
00000160: 1372 84bd 5a46 61be b51e f5be ce8c 43be
00000170: e316 87bb 9ee4 6a3d 0244 60bc cb5d c93c
00000180: 5072 313d 7f45 cd3d 64ab ed3c 424c abbe
00000190: 82d1 b83c 8284 253d 2f1a 953c f1b7 dbbc
000001a0: aa4d 4b3d 977f 3d3d 497c 513d fa02 59be
000001b0: 34b3 fcbd 32c9 e53c aab9 ce3b 0867 273d
000001c0: 6312 87bd f30f 523c b546 0ebd b0b0 67bc
000001d0: 1560 8f3d 237a d4bd d35b 6a3d d082 533d
000001e0: 2f5d 133d 7a5f 24bd 18c8 bdbc 4bc2 473d
000001f0: 86c4 7c3d a6b8 3e3c 4a2c 89bd 2feb 43bd
00000200: 5e22 a03c 91c0 a1bb 0e52 04bd 340a 713d
00000210: f1d7 02bd 4a7d 763d 01cb 5abe 4f7b 853d
00000220: bc41 e83b a89c 4d3d 64ef 643d 3a14 5ebc
00000230: 5b17 803d c6af 8f3c c7ee 6e3d f736 693d
00000240: 175e 8f3d f50e 383c ad63 97bc e7c2 b83c
00000250: 281c ac3d 700d 813d 2601 20bd 5b25 ef3c
00000260: 80b7 3f3c f970 20bc f838 503d 4845 7c3d
00000270: d88b b4bc 5ae4 22bd 7d70 2bbe 32bf 983d
00000280: 36dc 873d 9eae 833d 7aeb 493d 8fd0 efbd
00000290: d434 2cbd acb1 de3b 288d 2dbd 6a8d 13bc
000002a0: a1c6 1f3d c054 c33b 1b3e c239 add7 03be
000002b0: d567 28bd 7495 1a3d c6a5 4f3d 68d2 99be
000002c0: fa7b 2fbc bce7 57be 8b7f 863b fd6a 8e3a
000002d0: e587 c13c 911e a4bc 2703 5b3d e814 4f3c
000002e0: 9ebc b23c 71b1 153d d7f7 17bd 170e c3bc
000002f0: 4c1c 3e3d af4c 38bd b9b7 44be 54f6 443d
00000300: e069 2e3d b8ce 163d 3057 2b3d 4d9d 2a3d
00000310: 9ea4 0cbd 88cd 213c b1f3 02be 9859 ebbb
00000320: e51f 31bc 713f 1fbe b524 bd3b 60c8 4bbb
00000330: d607 2b3d 55e6 aa3c df12 08bd 9081 60bc
00000340: 1621 0dbe ea4c 2a3e 4b4d 0bbe 4553 cfbc
00000350: 4033 bfbc 99bb bebc c441 dcbc b75f b43c
00000360: c267 5dbd 79e9 d93c d31e 85bc 6d89 f93c
00000370: 1c3c 713c 544c f03a 2c46 b13d 919b a13d
00000380: b6aa cebb 70da 613d a6e9 beba aeee e03c
00000390: 5868 7f3c d775 65be 4db5 c5be c987 27bc
000003a0: 81c1 42bd 468c 16bd 946c f93c 54f3 16bc
000003b0: 21ed a83c 1a7c bc3c 34f3 e23b 47ef 80bc
000003c0: 6571 af3c 1c18 1b3a a450 e43c fd12 003d
000003d0: ae02 6938 dad4 15bb 8f70 8b3c 26a7 81bd
000003e0: b25b 72bc 1dfc 9dbc 8812 16bd 8556 853c
000003f0: ea7e b8bd 4f7a f3bb d3e7 473d ff9e 90bb
0.054290317 0.08934147 -0.030326819 -0.11900004 0.14588429 0.013269259 -0.49444178 0.0826987
0.03899889 0.073808394 0.0033205415 -0.0009548111 0.05537317 0.055866085 0.022145081 0.04304852
0.051424257 0.06083713 -0.0077712634 -0.044878136 -0.010514407 0.04107469 -0.026342848 -0.005987658
-0.03621211 -0.052273523 -0.05214408 -0.37003863 -0.31979457 0.00470904 -0.02871457 -0.006682655
-0.010410563 -0.15318833 -0.10145848 0.012996371 0.02159092 0.054102495 0.055328343 0.025661118
-0.10343713 -0.057139434 0.10647508 -0.21771464 0.014110052 0.054638214 -0.2871083 -0.020164404
-0.008170849 -0.011572203 0.0144266095 -0.22982322 -0.004949939 -0.0195063 -0.058830924 0.045996062
-0.3490729 0.022401994 0.029603122 0.023825116 0.060442507 -0.1754164 -0.02650781 -0.01679101
-0.27013874 -0.004384919 0.05674113 0.041005883 0.06352729 0.031871434 0.005526362 -0.024229083
-0.029626016 0.03944324 -0.014641862 -0.02058605 -0.04315902 0.05720027 0.05649615 0.063296445
-0.04635297 0.02099831 0.011864515 0.05861442 -0.041244365 0.059757587 0.0034861988 0.028821778
-0.064670704 -0.21999493 -0.4787499 -0.19096681 -0.0041226014 0.057346933 -0.013688089 0.024580857
0.043321908 0.10023021 0.02901239 -0.33456618 0.022560839 0.040409572 0.018200962 -0.026821109
0.049634613 0.046264257 0.05114392 -0.21192542 -0.12338868 0.028050039 0.006308754 0.040869743
-0.06595304 0.012821185 -0.0347354 -0.014141247 0.07000748 -0.10374858 0.057216477 0.051638424
0.03597754 -0.040130116 -0.023166701 0.048769277 0.061710857 0.011640703 -0.066979006 -0.04783171
0.019547638 -0.004936286 -0.032304816 0.05884762 -0.03194422 0.06017808 -0.21366502 0.0651766
0.0070879143 0.050198227 0.055892363 -0.013554627 0.06254455 0.01753987 0.058333185 0.056937184
0.07000368 0.011234035 -0.018480146 0.022553874 0.08403808 0.06301391 -0.039063595 0.029192617
0.011701465 -0.00979256 0.05083558 0.06158951 -0.022039339 -0.039768554 -0.1674213 0.074583426
0.06633799 0.0642979 0.049296834 -0.11709701 -0.04204257 0.0067960825 -0.042370945 -0.009005884
0.039007787 0.0059610307 0.00037048836 -0.12875243 -0.041114647 0.037740186 0.050695203 -0.3004334
-0.010710711 -0.21084493 0.00410456 0.0010865625 0.02362437 -0.020034106 0.053469803 0.012639262
0.021818455 0.036546174 -0.037101593 -0.02381043 0.046413705 -0.044995006 -0.1921071 0.04808648
0.04258144 0.036818236 0.041831195 0.04165392 -0.03433668 0.009875663 -0.12788273 -0.0071823113
-0.010810827 -0.15551545 0.005772198 -0.0031094775 0.04175552 0.020861784 -0.033221122 -0.013702765
-0.13782153 0.16630903 -0.13603704 -0.02530826 -0.023339868 -0.023282813 -0.026886828 0.022018297
-0.05405403 0.026600586 -0.01625005 0.030461038 0.014723804 0.0018333294 0.08655962 0.07891
-0.0063069714 0.05513996 -0.0014565482 0.027457561 0.015588842 -0.22408234 -0.38614884 -0.010225245
-0.04754782 -0.03675487 0.030447282 -0.009213287 0.020620884 0.023008395 0.0069259647 -0.015739096
0.021416375 0.00059163733 0.027870484 0.03126811 5.5554025e-05 -0.0022862465 0.017021446 -0.06330709
-0.01479237 -0.019285256 -0.036638767 0.016276607 -0.09008582 -0.007430352 0.04880507 -0.004413485

net.4.weight f4 [256, 256]
00000000: 90e5 0ebb 8108 70bc 5e8e f03b 6990 b6bb
00000010: 9979 20bb cc65 743c a712 383c e66b 573c
00000020: 500a e9b9 5639 2ebc c1ef ae3c 6624 b9bc
00000030: 6bd3 e2bc 5e11 28bc 700f 773b 123b 8dbb
00000040: 8fe7 413b 0b0e d7bb 41b6 96bc 09b2 1c3c
00000050: a2ea 9b3b 104d 19bc 2e5b 50bb 11dc 4b3c
00000060: f8e4 293d 580b bb3b ded4 ac3c 0faa b93b
00000070: 381e a23c ebd9 a3bb c826 47bb f6f3 adbb
00000080: 4313 833c 4277 6dba 9877 813c 1f8b 2e3c
00000090: cfd2 80bc 4044 ea3b f048 03bc 92d7 7b3a
000000a0: edd9 933b e2c7 673c c5d8 c0bb ce64 acbc
000000b0: 6688 293b 8858 bb3b bd2d e3ba 4fe0 d9ba
000000c0: 8d84 953c bb31 203c 831e 983c cbae a4bc
000000d0: 51cc 59bc 239b 823c 31f5 f93c 2e41 be38
000000e0: 32ae 2bbb f32e 4e3b 3350 be3b ae10 c1bc
000000f0: f51f 9e3c 1e57 2c3c e800 94bb 5625 cd3c
00000100: 8496 36bc 9a35 8ebc e5a1 053c fe93 433c
00000110: 7d32 2f3b d1f8 bbbb cc2d 983c 6fb7 e5bb
00000120: a497 383c a5dc 123a afc2 b53c 759e 4cbd
00000130: 2582 703c 842f acbc 5614 a3bc 7424 073c
00000140: fed5 9b3c bdbe 023b b0a4 f0bc 0a60 74bc
00000150: d0ae 8b3b 7257 993b 36ec 0f3d 252e 39bc
00000160: 4aa9 823c d9b0 dc3c a93e e0bc d230 a53c
00000170: 4250 9b3c 5f47 bcbb 710a 663b a3ac f83c
00000180: 9c6a 9bbc 4d2c aa3c 6ae5 903b 0c4f 073d
00000190: 1e0f 963b ab24 92bc d2fd 1cbc 6d51 bb3b
000001a0: 7862 4dbc 87f0 14ba c782 103d 13db 873a
000001b0: 8a79 2fbd 59eb e03b 18e3 dc3c 3f5a 02bc
000001c0: cd57 cbbc 7205 1fbc e54b c13b 71d3 7cba
000001d0: 13e7 c7bc 9199 163c f76e 803c da75 8abb
000001e0: 4212 8e3c e8c1 6ebc 8bb0 70bc 07d0 ac3c
000001f0: c8c9 59b9 f04d 98bc afed 33b9 f7e3 e83b
00000200: 7ff3 6c3c 875c 99bc d439 a23b 2aab e7bb
00000210: 3a01 91bc 6a99 c03c 2a2b 903c be90 96ba
00000220: 211b 8fbc fafd 343c 132b 7fbb a763 123c
00000230: 87f9 003c 2ab6 8b3b 4ac6 6d3b cbbb bfbb
00000240: 4c08 c2bc 7e7e a33a 3161 ba3c 1e6d b0ba
00000250: 1c0c 863b 40b9 45bb 2e2e 62bc cdab a4bc
00000260: 055b a7bc 334c 3cbc 1c13 bb3c 05d2 193c
00000270: dc41 4c3c 6244 8b3c 50ab 02bd 25f2 94ba
00000280: effc d537 ba3b 98bc 7327 983c dfb4 37bc
00000290: db11 c93b e20d a53c 3969 a0bc 370e b4bc
000002a0: aaf7 803c 4e5e 4c3b 0758 ff3b 288f 3d3c
000002b0: fee9 88bb a88a 1a3d 99fa cebb 6b7b 98bc
000002c0: 767f 42bc 63cc 72bc d665 38bb 8046 5f3b
000002d0: 9b6c a03c d5e0 fe39 bb2b af3c 3209 f73b
000002e0: e38a 153d d971 373c 6fe7 7fbc b84a e33a
000002f0: 9494 d03c b20d 493c 3e20 5cbc 7e97 b33c
00000300: fe2e 2ebc 91a6 ddbc efb2 963c f8dc 963c
00000310: e054 2bbc 886a 803c 9735 793c c636 b23b
00000320: 08b5 20bc 12ef d4bc a4cc 253c 01ad 43bc
00000330: 74e2 1c3d 038c 8abc be39 653c 5109 9c3c
00000340: 6d99 c9bb 0b5c 2b3c 59d6 1ebd 6e9b e8bb
00000350: 3916 003c 38bf 303b fc11 b0bc a221 06bc
00000360: 8b7f a5ba 201d a93b d41a 1cbc c686 833a
00000370: 1c16 7a39 011f 87ba 72a6 4fbc 4724 e43b
00000380: 466e 4dbc 9ef8 933c 707d 2b3d db97 b1ba
00000390: 0bf7 b63b fcb3 cc3c 5e65 0b3c 65b4 0a3c
000003a0: 6a2a b4bc 5ac8 6d38 6a04 883b 7151 97bb
000003b0: 48f5 373a f656 e9ba 55ca d2bb 77f6 80bc
000003c0: 193c 37bc 09ab 5dbc 63c5 4cbc 78b8 1c3c
000003d0: cfeb 82ba cae7 913c e826 2fbb bf02 173d
000003e0: 545f 14bc 7434 7b3c fcb5 cc3c 7f23 84bb
000003f0: 48ef 9d3a 5890 9fbb 2cb7 cc3b 3bab c9bc
-0.002180431 -0.014650465 0.0073411902 -0.0055714143 -0.002448654 0.014916848 0.011234916 0.013148284
-0.00044448907 -0.010633787 0.021354558 -0.022600364 -0.027688703 -0.010258047 0.003769841 -0.0043100202
0.0029587483 -0.0065629533 -0.018397452 0.009563931 0.004758195 -0.009356752 -0.0031792629 0.012442605
0.041478127 0.0057081394 0.021097597 0.0056660245 0.0197898 -0.005000343 -0.0030388106 -0.0053086234
0.016000396 -0.00090586033 0.015804097 0.010653286 -0.015725521 0.0071492493 -0.008012995 0.00096070126
0.0045120628 0.014146777 -0.005885216 -0.021044161 0.0025868653 0.005717341 -0.0017332357 -0.0016622635
0.018251682 0.009777482 0.018569237 -0.020102879 -0.013293342 0.015943116 0.030512424 9.072047e-05
-0.0026196358 0.003146109 0.0058079003 -0.023567524 0.019302348 0.010518817 -0.0045167096 0.025042217
-0.011144284 -0.017359544 0.008156274 0.01193714 0.0026732974 -0.0057364483 0.018576525 -0.0070103924
0.011266623 0.00056023366 0.022187559 -0.049955804 0.014679466 -0.021018751 -0.019907158 0.008248437
0.019022938 0.0019950115 -0.029375404 -0.014915476 0.0042627826 0.0046796137 0.035137378 -0.011302506
0.015949864 0.026939796 -0.027373629 0.02016488 0.018959168 -0.005745813 0.0035101438 0.030355757
-0.018971734 0.020773077 0.0044218795 0.03303437 0.004579439 -0.01783975 -0.009582 0.005716494
-0.012535684 -0.00056815933 0.03528097 0.0010364972 -0.042840518 0.006863993 0.026963755 -0.007956087
-0.02482214 -0.009705888 0.00589894 -0.00096445443 -0.024402177 0.0091918865 0.015677912 -0.004225475
0.01734269 -0.014572598 -0.014690529 0.021095289 -0.00020769902 -0.018591851 -0.00017159314 0.0071072537
0.014462351 -0.018720878 0.0049507413 -0.007069965 -0.01770078 0.023510654 0.017598707 -0.0011487228
-0.01746899 0.011046881 -0.0038935586 0.008934892 0.007871992 0.004263659 0.003628152 -0.005851244
-0.023685597 0.0012473611 0.022751423 -0.0013460254 0.004090799 -0.0030170232 -0.013804955 -0.020101452
-0.020429144 -0.011492777 0.02283626 0.009388451 0.012466874 0.01700038 -0.031901658 -0.0011363669
2.550936e-05 -0.018583167 0.018573498 -0.011212557 0.0061361617 0.020148221 -0.019581424 -0.021979434
0.015743095 0.003118414 0.007792476 0.011569776 -0.0041782847 0.03772989 -0.0063164947 -0.018613538
-0.011871209 -0.014819237 -0.002813687 0.003406912 0.019583037 0.00048614168 0.021383157 0.007538938
0.036509406 0.011196577 -0.015619143 0.0017340994 0.025461473 0.012271332 -0.0134354215 0.021922823
-0.010631321 -0.027056964 0.018395869 0.018415913 -0.0104572475 0.015675798 0.015210531 0.0054386584
-0.009808786 -0.025992904 0.010119591 -0.011943103 0.0383019 -0.016912466 0.013990818 0.019047411
-0.006152323 0.0104589565 -0.038778637 -0.007098607 0.007817798 0.0026969444 -0.02149295 -0.00818673
-0.0012626512 0.0051609427 -0.009527881 0.0010034672 0.00023850094 -0.0010308923 -0.012673961 0.0069623324
-0.012538498 0.018062886 0.041867673 -0.0013549285 0.005583649 0.024988167 0.008508055 0.008465861
-0.02199288 5.6691795e-05 0.004150917 -0.004617863 0.0007017446 -0.0017802406 -0.0064328113 -0.015742524
-0.011183762 -0.0135295475 -0.012498233 0.009565465 -0.0009988489 0.017810721 -0.002672607 0.036867853
-0.009055931 0.01533233 0.02498912 -0.004032552 0.0012049461 -0.004869502 0.0062474217 -0.024617782

net.4.bias f4 [256]
00000000: d31a 96bc a5ce 0ebe d1ff 90bb 64fc 413b
00000010: d919 30be 88ee 153d 9321 cf3c c148 f43c
00000020: c069 7cba 0dd2 a0be b2f0 303d 6e06 653d
00000030: 0130 94be 8946 c1bc e671 69bb 2a6a 5d3d
00000040: 92cd 1abd d499 aa3c 88b2 7f3d 8554 88bb
00000050: ad57 2e3c 038f 2b3d 9107 89bc 6ebf c03d
00000060: d12a 783c 4ebc 40be bf03 5a3d 9d15 243d
00000070: 8f02 c5bd b3ad a4bc 835b cd3c 5eb6 653d
00000080: 63d2 77be 9b63 023d bfb6 b73b 502b c33c
00000090: 9bb2 1ebd 36cc 813c 0c8e 5a3d ad22 4dbe
000000a0: f771 64bc ef24 b1be b9be b43d f7f5 98bd
000000b0: c175 11bd 04c8 01bd d95c 1cbc 4031 28bb
000000c0: efa9 8a3c ea1d c4be d7f2 353c 1ac1 db3b
000000d0: beeb d13b 29c4 bf3c 0901 08bd bebb a13d
000000e0: e89d 4f3c d025 ae3c ddfe 9d3d 61d0 cc3d
000000f0: 8c1c 923d 1661 883b 4ce5 6dbd 5df5 b43d
00000100: 67ae 9f3d 4f3c 6f3d ad5e 9b3c 062c 9b3d
00000110: b322 833d 873b d73c e8d2 a2bd 3941 4bba
00000120: c2ea 8d3d cf45 893d c778 9a3c be36 6c3d
00000130: 85f5 f93c 6b2d 463d d6f5 c3bc 8b17 b9bc
00000140: 2206 523d ed46 cbbb dc33 133d 7bf0 dabb
00000150: 11bd 35bd 0c9d 54bc 903f 2ebd 3a3e b43d
00000160: 61e8 c83c a8b6 003d 98f5 813d 7737 803c
00000170: 0ebf 0dbd 4cd3 65bc a873 553d 6d57 513d
00000180: 72f5 0c3d d168 c33c 8c34 4f3c 89fd 5c3d
00000190: ba5d 4f3d 9fb4 133d 7a47 683d 1e4c 613d
000001a0: b16e 243b 7860 d93c d25e 0dbd 69e3 013d
000001b0: 5449 33be 7b82 8a3d 7dd5 803d 72c1 9ebc
000001c0: cc8d 8fbb e1b9 20bd f643 fb3c 46df cd3c
000001d0: 28a8 91bd f707 a93d d3d4 933d 3176 1d3d
000001e0: 20ca 5a3d d53e cebd db0f 15bd 961e b53c
000001f0: fa9d d0bd 0750 05bd 2296 a53c bfce d1be
00000200: 2d19 263c a3a3 ac3b d330 303c 3547 07bd
00000210: 7fb6 fcbc 08b8 9b3c 0a19 223b 0cc5 8b3c
00000220: 7cbf ae3c 0baf 7b3c 7d9c 8a3c eb6a 00bd
00000230: 2ca1 1a3d 473d 6d3d ca75 3f3d 6fda 233d
00000240: 3f61 44bc 8b3b 723d 5611 64bc 5c86 2dbc
00000250: 81af 04bf 3b50 8fbb fb07 343d 8c99 ac3d
00000260: 80e7 053d a423 f0be 0703 c6bd af0b 29bd
00000270: 65f8 99bd 6e9a f43c 71e3 2b3d 6ff0 61be
00000280: 8990 c23d e673 923d 4470 803d 8511 143c
00000290: 933e 95bc 835e 87ba c9b6 6c3d f961 933c
000002a0: f946 c23c b864 0f3d 9158 96be 727d 04bf
000002b0: e3f1 84bd 862d a13d a282 57bc 9a0e 443c
000002c0: 659e 953d 2a78 d8bc 0bbc 023d 65a6 863d
000002d0: 0621 5fbe 3729 263c 82af bd3c cac4 2abc
000002e0: 5fab 5c3a 8427 4bbd 80b4 b4be 24ec 043c
000002f0: c9ae 55bd 2c6a c63d b789 a13d 60fc bb38
00000300: d2e5 2dbd cc4d 633c 57e7 cb3c 13ce 5d3d
00000310: 5bd2 603c 6ce5 acbd a46d d03d 623d 913c
00000320: c43d a2be b42d 3a3d d5e4 75be db35 043d
00000330: 260e 9c3c bb8d 66bd 80c5 00bc 0f2f e83c
00000340: c4c1 e93c 05a7 9dbd d046 203d a86b eb3b
00000350: 39ca 58bc 30fd eebc 852b 82bd 3971 093c
00000360: b70f bf3d 60e9 9f3d 487d d6bd c55f 24bc
00000370: b975 a0be 2173 ba3c eeea a23d eac1 46bc
00000380: 921c b63d f9f7 a4bd 380f d23d a472 343c
00000390: 6129 38bd 6dc9 913d eb18 933c e3dd 5f3d
000003a0: c0cc f4bd 5b0b 70bc 74e9 5a3d 13ed a13c
000003b0: 0cdb e5bb a8fa 6cbc f5eb 343d e29d 813c
000003c0: aad9 b53c a6c9 4d3d cc32 e33c 7536 b33d
000003d0: 9c4e 54bd db15 6dbc 8375 ccbd 0300 5ebb
000003e0: 0e8e debc cd09 e3bd f400 bebd 39f9 ec3c
000003f0: 50d2 20bd 051d ba3d 2d65 78bc 1ab5 9ebd
-0.018323338 -0.13946016 -0.004425027 0.00295999 -0.1719736 0.036604434 0.025284564 0.029819848
-0.0009628795 -0.31410256 0.043198295 0.055914335 -0.28942874 -0.023593204 -0.0035620867 0.054056324
-0.037793703 0.020825304 0.06242612 -0.004160466 0.010641021 0.041884433 -0.01672724 0.09411512
0.015146927 -0.18821833 0.05322623 0.040059675 -0.09619629 -0.020102357 0.02506805 0.056082122
-0.2420135 0.031833272 0.005606502 0.023824364 -0.03874455 0.015844446 0.053358123 -0.20032759
-0.013943187 -0.3459849 0.0882544 -0.07468789 -0.03551269 -0.03168489 -0.009543621 -0.002566412
0.016926734 -0.38304073 0.011105261 0.006706369 0.0064062765 0.023408966 -0.033204112 0.07897137
0.012671925 0.021258265 0.07714627 0.100006826 0.07134351 0.004161964 -0.058080003 0.08835862
0.077969365 0.058407124 0.018966043 0.07576756 0.06403103 0.026273502 -0.079503834 -0.00077535544
0.06929542 0.06702768 0.01885642 0.057669394 0.03051258 0.048383158 -0.023920935 -0.022594234
0.05127538 -0.0062035234 0.03593813 -0.0066814995 -0.04436976 -0.012976896 -0.042541087 0.08800931
0.02452487 0.031424195 0.063456714 0.015651448 -0.034606032 -0.014027428 0.05211225 0.051108766
0.034413762 0.023853691 0.0126468055 0.053952727 0.050626494 0.036060926 0.05670879 0.05500423
0.0025090391 0.026535258 -0.034514256 0.031711016 -0.17508441 0.067631684 0.0629072 -0.019379351
-0.004380917 -0.039239768 0.030672055 0.02513088 -0.071121514 0.08253472 0.072183274 0.038442794
0.053415418 -0.10070578 -0.036392074 0.022109311 -0.10186382 -0.032547023 0.02021319 -0.40978047
0.010137838 0.0052685305 0.010753828 -0.033026893 -0.03084874 0.019008651 0.0024734163 0.017061733
0.021331541 0.015361558 0.016920323 -0.031351965 0.03775136 0.057919767 0.04674319 0.040003236
-0.011986076 0.059138816 -0.013920149 -0.010591116 -0.518303 -0.004373578 0.043952923 0.08427724
0.03269148 -0.46902192 -0.09668546 -0.041270908 -0.075180806 0.029858794 0.041964952 -0.22064374
0.09500224 0.07151012 0.06271413 0.00903738 -0.018218314 -0.0010327849 0.057791505 0.017991053
0.023715483 0.035008162 -0.29364446 -0.51753914 -0.06491449 0.07870011 -0.013153704 0.011966372
0.07305602 -0.026424486 0.031917613 0.06574706 -0.21789941 0.010141662 0.023154978 -0.010422895
0.000841787 -0.049598232 -0.3529396 0.008112941 -0.05216864 0.096882194 0.07887595 8.9638634e-05
-0.0424555 0.013873529 0.024890585 0.054151606 0.013722028 -0.08442196 0.10177162 0.017729465
-0.31687748 0.045453742 -0.24013074 0.032277923 0.019049715 -0.05628751 -0.007859588 0.028342752
0.028534777 -0.07697872 0.039130032 0.0071844645 -0.013231807 -0.029173464 -0.06355957 0.008388811
0.09329169 0.078081846 -0.10473114 -0.010032599 -0.31339815 0.022759976 0.079549655 -0.012131194
0.08892168 -0.080551095 0.10256809 0.011013661 -0.044961337 0.07118497 0.017956218 0.054654967
-0.119531155 -0.014651145 0.053445294 0.019766366 -0.007014638 -0.014464058 0.04417034 0.015822355
0.022198517 0.050241135 0.027734183 0.08750621 -0.05183278 -0.014470543 -0.09983351 -0.0033874519
-0.027167346 -0.11085854 -0.092775255 0.028927432 -0.03926307 0.09087566 -0.015160841 -0.07749386

net.6.weight f4 [2, 256]
00000000: 3975 583a bc50 c6bd 26e9 8bb9 7dbe 133b
00000010: 0f65 3cbc 88b6 273b 5bbf 3bba b5c3 c9b8
00000020: cd8b 763a 7dc9 d53d 0a4d b3b9 9a2b 67ba
00000030: 74e1 20bc c504 8c39 db50 f7bd 2b95 14bb
00000040: f362 e9b9 688c 1d3a 1e38 29ba cf71 d13a
00000050: d349 1c3a 9055 913a 377d 23ba 9a26 e63a
00000060: 9f45 f9b9 8883 bc3a 5836 933a 0eab f2ba
00000070: 2df8 92ba f8d1 79bd 4c3c 1639 47dd 4939
00000080: a581 f1bb 606e d33a f988 c5b9 f8d6 693a
00000090: 5fc1 bfbc c5eb bdb9 4051 bc39 6142 8a3d
000000a0: e622 5439 5452 663d 2fb8 ac3a ae3a 133a
000000b0: 0833 c5ba 5366 1c3a 4599 9c3a 9e24 36ba
000000c0: 2dbf dfb9 efa4 7fbb e411 8aba e24f 1339
000000d0: a198 703a 8620 e239 9bd1 633a 8103 8f3a
000000e0: 166a f938 5e95 97b8 2d40 4eba a9f3 883b
000000f0: 2349 e6b9 4d3c 1dba d09f ddba c5b3 74ba
00000100: af55 093a 9780 06bb 8412 5f3a 3a88 9436
00000110: 5525 443a 6219 cbb9 9059 303a 0f00 d539
00000120: cc52 6d3a c33a 473a 7717 73b9 e2d7 153a
00000130: 35fb 00b9 2dd4 cc3a 8918 7b37 2ece b83a
00000140: 8429 1cba bee1 84ba 4e67 cfb9 c865 1aba
00000150: 67dc 0a3a 3fb5 5db9 52e7 4bb9 67b3 b7ba
00000160: 0be8 b4ba 4b80 883a 1a49 88ba fced 3d39
00000170: 9e95 373a 9624 07ba 3855 9839 c0a9 cb3a
00000180: 2d45 d53a 77eb d1ba f555 3a39 8e7d 0939
00000190: 4969 793a 6ea6 c5b9 68d5 4b3a a2fe 3a3a
000001a0: 82f5 9dba 8180 d7ba 5b01 743a f011 fc3a
000001b0: 3aca 673b be35 95ba 3876 e339 7784 2eba
000001c0: 4b65 73b8 6acb 603a 729e 3aba 7668 303a
000001d0: b48c 53bd abf2 52b9 56f3 b7b9 b124 8e39
000001e0: d333 bd3a c040 1539 6807 e13a a32c bbba
000001f0: 8b7c 5a3b dc72 22ba 367d cfb8 0edc 163d
00000200: d746 3cb9 37e5 a938 850e 5bba 4e39 c739
00000210: 2bc8 c23a 8c7b f33a 2ffa 65ba af93 e439
00000220: 020a 9f3a 11d2 bfba 8616 9938 1e70 b5b9
00000230: 1b73 083a e2da 9bb8 50f4 ebb9 3e61 60b8
00000240: 6ed8 da39 8dc8 203a 409a 7e3a b3b3 2bb8
00000250: 6319 2d3d 75d5 a73a bbc9 7039 5084 98ba
00000260: 3f0e b339 4ad9 353d a0ae 9e38 f006 843a
00000270: 2333 8239 5751 203a a8e3 2b3a d2ae 033d
00000280: 7ea6 32ba c8b4 fb38 6f2e a1b8 5922 1b39
00000290: 5920 173e 63fd e33a 92d2 a63a 0a2a 9439
000002a0: 8532 b23a 5f19 8c38 5d87 58bc 04b9 0c3d
000002b0: d85c 7e3a e7b9 e539 586c 063a 667a 21ba
000002c0: 58cd bb3a 0a40 b6bc 37ee f5ba f93b 7dba
000002d0: 5a0c 563c be25 093b edb2 f43a dd48 3eba
000002e0: 694b cdb9 cd34 07ba f6ec 703d af48 95ba
000002f0: 98fe 8c3a 5f85 a739 67a7 1b3a fa8b be3a
00000300: 9d9b 4f38 14d7 0e3a 2357 fab7 72c2 80ba
00000310: f363 1f3b 1af2 703a d1ad 32ba f390 1439
00000320: 7ae3 143d 35ea 8539 cbac aa3d 4e71 693a
00000330: 9231 7339 df17 1e3a 698f d039 08ea e739
00000340: d9f7 a439 b958 6cba beac 84ba c578 3bba
00000350: c633 023b 4eed 74b9 4ee1 d9bd 9eb3 663a
00000360: 3419 de39 3a06 ae3a 36dc 05bb d1af fc3a
00000370: 7ec0 dfbb ee5d 5a39 b430 d239 2fbf 82bc
00000380: 6c8f a1b9 2680 bfbd 600e 44ba c42f a939
00000390: cc89 f239 afc9 c3b9 880c 473a a1c0 f939
000003a0: 8a9a bbbc cb09 a2ba 7c6e ecb9 c60d 9bb8
000003b0: 4d28 e9ba e439 373a 5f7a a23a 76e5 5b39
000003c0: b065 4c36 7159 d239 7f05 833a faa1 3138
000003d0: 3f2e 35bc 96b0 15ba 35f1 c1bd 8b7a 0a39
000003e0: fcc1 e53a 114d 503c 5347 ee3a 1b80 3fb9
000003f0: 105e 783a fe9e c43a 28bc 21bb 47b9 a239
0.00082572136 -0.096833676 -0.00026685855 0.002254396 -0.011498704 0.0025590975 -0.0007161998 -9.62088e-05
0.0009404987 0.104388215 -0.0003419894 -0.0008818448 -0.009819377 0.00026706434 -0.12075969 -0.002267192
-0.00044514946 0.0006009997 -0.00064552005 0.0015979352 0.00059619284 0.0011088122 -0.0006236615 0.0017559112
-0.00047544853 0.0014382461 0.0011231406 -0.0018514113 -0.0011212878 -0.060991257 0.00014327577 0.00019251286
-0.007370191 0.0016130917 -0.0003767682 0.00089202775 -0.023407636 -0.0003622455 0.0003591869 0.06750942
0.00020230896 0.056230858 0.001317745 0.0005616349 -0.0015045116 0.0005966175 0.0011947533 -0.00069482054
-0.00042676312 -0.003900822 -0.0010533896 0.00014048771 0.0009178017 0.0004313031 0.00086905964 0.0010911078
0.00011893005 -7.228063e-05 -0.00078678393 0.004179437 -0.0004392351 -0.000599806 -0.001690859 -0.0009334649
0.0005238903 -0.0020523423 0.0008509534 4.4266026e-06 0.00074823695 -0.0003873809 0.0006727213 0.0004062657
0.000905317 0.0007600004 -0.00023183027 0.0005716068 -0.00012300613 0.0015627198 1.4966478e-05 0.0014099532
-0.0005957114 -0.0010138077 -0.00039559085 -0.00058898004 0.0005297125 -0.00021143722 -0.00019445762 -0.0014015258
-0.0013802064 0.0010414211 -0.0010397763 0.000181131 0.00070031907 -0.0005155293 0.00029055192 0.001553826
0.0016271226 -0.0016015609 0.00017770364 0.00013112111 0.0009514285 -0.00037698768 0.00077756355 0.000713328
-0.0012051316 -0.0016441495 0.00093080633 0.001923142 0.003536834 -0.0011383814 0.00043384894 -0.0006657312
-5.803005e-05 0.0008575233 -0.0007118947 0.0006729433 -0.051647857 -0.00020117562 -0.0003508578 0.00027111688
0.0014435 0.00014233869 0.0017168345 -0.001428027 0.0033338394 -0.0006196925 -9.8938515e-05 0.036830954
-0.00017955467 8.1012426e-05 -0.00083563506 0.00037998933 0.001486068 0.0018576249 -0.0008772937 0.00043597582
0.001213372 -0.0014634748 7.299804e-05 -0.00034606544 0.00052051403 -7.431746e-05 -0.0004500472 -5.3496326e-05
0.00041741453 0.00061334 0.0009712316 -4.0936935e-05 0.04226054 0.0012804704 0.00022963334 -0.0011636112
0.00034152155 0.044396676 7.5665535e-05 0.0010072868 0.00024833632 0.0006115636 0.0006557056 0.032149144
-0.00068149704 0.00012002286 -7.685727e-05 0.00014794747 0.14758433 0.0017394241 0.001272755 0.0002826008
0.0013595378 6.680446e-05 -0.013215867 0.034356132 0.0009703166 0.00043816792 0.0005127839 -0.00061599014
0.0014328165 -0.022247333 -0.001876301 -0.00096601207 0.013064468 0.0020927037 0.0018669047 -0.0007258782
-0.00039156832 -0.0005157709 0.058819734 -0.0011389459 0.0010757027 0.0003195209 0.00059377257 0.0014537566
4.9497572e-05 0.0005448919 -2.9842899e-05 -0.0009823574 0.002432105 0.00091913494 -0.0006816062 0.00014168378
0.03634975 0.00025542235 0.08333739 0.00089051283 0.00023192752 0.0006030779 0.000397797 0.0004423412
0.00031465178 -0.0009015906 -0.0010122282 -0.000715148 0.0019867285 -0.00023358056 -0.106386766 0.0008800569
0.00042361917 0.0013277002 -0.0020425445 0.0019278472 -0.006828367 0.00020825092 0.00040090608 -0.015960304
-0.0003081517 -0.09350614 -0.00074789487 0.0003226978 0.00046260504 -0.00037343564 0.0007593115 0.000476365
-0.022900838 -0.0012362538 -0.00045095745 -7.3935415e-05 -0.00177885 0.00069895224 0.0012396089 0.00020970948
3.0457559e-06 0.0004012096 0.0009996145 4.235094e-05 -0.011058389 -0.0005710212 -0.09469835 0.00013206356
0.0017529125 0.012713687 0.0018179215 -0.00018262902 0.00094744656 0.0015000997 -0.00246788 0.0003103709

net.6.bias f4 [2]
00000000: 8162 eebd e62b ebbc
-0.11639882 -0.028707456
