normal/rnode/models/4050_model.pt (torch, 535780 bytes, 8 tensors)

net.0.weight f4 [256, 3]
-0.13317202 0.16677323 -0.42689884 -0.38648942 0.06444776 -0.77716154 0.5136745 0.24212265
0.3195304 0.28079855 0.23360525 0.08902865 -0.09419853 -0.8382787 0.11808732 0.4696057
-0.08381175 0.33021548 0.39645404 -0.18334872 0.24997564 -0.14653592 0.0834304 -0.32044342
-0.19145526 0.209438 -0.035365175 -0.03307131 -0.06864736 -0.5639858 -0.025664523 -0.6229624
-0.048549064 -0.084970504 -0.17764069 -0.74269575 -0.13129507 -0.4861595 -1.1517482 -0.012439088
0.1065697 -0.56224334 -0.303897 -0.028034413 -0.87068594 -0.23389171 -0.043626204 0.004081725
-0.021240175 0.4938234 -0.44006646 -0.017832719 0.9246457 0.29808763 0.15269083 0.10769969
-0.28686917 -0.111289375 -0.93995214 -0.2976787 -0.057073582 0.4492404 -0.44465095 -0.1470819
-0.03200662 0.88697183 -0.0965605 -0.56440645 0.18414152 0.1915655 0.11078444 0.11958794
-0.13834995 1.0499296 0.37338078 -0.05196937 0.78396386 -0.37993377 -0.03412074 0.05555692
0.7697851 -0.08720074 0.14943238 -0.71046937 -0.32203573 -0.38873422 0.4261127 -0.085617006
0.64437336 -0.036478322 -0.14115773 -0.13774997 -0.3533481 0.4005926 -0.49726075 -0.15757717
-0.3667384 0.0867089 -0.7847946 0.2045801 0.048505966 -0.12609753 0.08364182 -0.34270984
0.5137298 0.15783639 0.018024487 0.05364368 -0.033414345 0.3129952 -0.36453462 0.38751617
0.5730619 -1.2027719 0.21144961 0.6594942 -0.20362012 -0.00856391 -0.40361607 -0.18559149
-0.022584546 0.6264116 -0.5153496 0.11936046 -0.15316705 0.24149732 -0.4911135 -0.12940162
-0.3620803 0.016662614 -0.6192576 -0.26445663 -0.040443815 -0.22909014 -0.5430986 -0.009350253
0.20303757 0.7944797 -0.03380785 0.5035752 -0.54788196 -0.036412403 -0.65556914 -0.86189634
0.23262152 0.533986 1.0750082 -0.24479423 -0.076106705 -0.6099422 -0.2180807 -0.6726706
0.31759498 -0.43182638 0.30194554 -0.99691933 0.0024332777 0.31026462 0.29688236 -0.30916646
0.020861851 -0.51190317 -0.16550952 0.03478331 -0.7590997 -0.025543874 0.7077401 -0.29472467
0.48104134 -0.11308205 -0.095055446 0.2065893 0.15628093 0.061634615 0.09212535 0.06507297
-0.25966057 -0.22648215 0.18578407 -0.8408972 -0.115398586 0.5977344 0.78458756 0.31704733
0.19428395 -0.38810048 0.23447376 0.516931 0.056814004 0.40465567 -0.37597713 0.4495582
0.052703246 0.6639424 -0.6032178 0.4335384 0.39901504 0.47935745 -0.047218278 0.5462213
-0.69180983 -0.4340296 0.34123746 -0.16515595 0.04300788 -0.53494096 -0.35466158 -0.35416332
-0.17397293 0.2093729 -0.024970083 0.62786555 -0.049718414 0.26786226 -0.19555646 -0.051015947
-0.17520753 -0.0899 -0.4962747 0.44296739 -0.19725193 0.029773578 -0.0490565 -0.11368047
-0.4853122 -0.39170527 0.2754214 0.35026002 -0.31293356 0.14683962 -1.0206007 -0.24832444
-0.1438768 -0.1616723 0.40581518 0.48882687 -0.810124 0.22785619 0.30877635 0.5481571
0.23863374 -0.43434405 0.27066934 0.55275685 -0.22620164 0.12443339 -0.07818632 -0.63409895
0.106476806 -0.007898011 0.6239916 -0.1478645 -0.10902126 0.2951348 0.013021575 -0.025629267
00000000: 3f5e 08be 9ac6 2a3e 7c92 dabe f1e1 c5be
00000010: 30fd 833d 0ff4 46bf 2c80 033f 00ef 773e
00000020: 7d99 a33e d4c4 8f3e 3736 6f3e a754 b63d
00000030: 29eb c0bd 6f99 56bf c4d7 f13d 2970 f03e
00000040: 7fa5 abbd 0112 a93e 06fc ca3e c4bf 3bbe
00000050: 9df9 7f3e 830d 16be 8fdd aa3d 2911 a4be
00000060: d90c 44be ea76 563e 13db 10bd c875 07bd
00000070: fd96 8cbd 6061 10bf 683e d2bc 777a 1fbf
00000080: 62db 46bd 0405 aebd 71e7 35be 4f21 3ebf
00000090: 3772 06be e6e9 f8be 7c6c 93bf 51cd 4bbc
000000a0: 3741 da3d 2eef 0fbf 6398 9bbe 6da8 e5bc
000000b0: 46e5 5ebf 4f81 6fbe 64b1 32bd febf 853b
000000c0: e0ff adbc 6cd6 fc3e 6450 e1be ec15 92bc
000000d0: 95b5 6c3f f19e 983e fc5a 1c3e a891 dc3d
000000e0: 84e0 92be afeb e3bd b4a0 70bf 5869 98be
000000f0: fdc5 69bd d602 e63e 4aa9 e3be a39c 16be
00000100: 6019 03bd 9610 633f 83c1 c5bd f17c 10bf
00000110: 988f 3c3e bf29 443e f4e2 e23d 86ea f43d
00000120: 9cab 0dbe 1864 863f c42b bf3e d6dd 54bd
00000130: dbb1 483f ae86 c2be 30c2 0bbd a78f 633d
00000140: a310 453f 4d96 b2bd cd04 193e 52e1 35bf
00000150: dee1 a4be 2c08 c7be 722b da3e f857 afbd
00000160: a7f5 243f 4b6a 15bd a78b 10be 540e 0dbe
00000170: 0bea b4be 791a cd3e f698 febe e95b 21be
00000180: 23c5 bbbe 7094 b13d 4de8 48bf 727d 513e
00000190: 31ae 463d b61f 01be 674c ab3d aa77 afbe
000001a0: cc83 033f dd9f 213e 17a8 933c 7ab9 5b3d
000001b0: 7bdd 08bd e840 a03e 48a4 babe 8568 c63e
000001c0: 2fb4 123f 6ef4 99bf 3f86 583e 9dd4 283f
000001d0: cb81 50be a44f 0cbc c4a6 cebe b20b 3ebe
000001e0: 3a03 b9bc 835c 203f f4ed 03bf 4273 f43d
000001f0: d3d7 1cbe 134b 773e 3b73 fbbe dc81 04be
00000200: 9762 b9be 0980 883c ab87 1ebf dc66 87be
00000210: 6aa8 25bd 9b96 6abe 8308 0bbf ce31 19bc
00000220: 15e9 4f3e 0663 4b3f 1a7a 0abd 4eea 003f
00000230: fe41 0cbf 2c25 15bd 61d3 27bf 3da5 5cbf
00000240: 5634 6e3e 4eb3 083f de99 893f 57ab 7abe
00000250: d5dd 9bbd 2c25 1cbf 8c50 5fbe 2434 2cbf
00000260: cf9b a23e 5918 ddbe 9b98 9a3e 1b36 7fbf
00000270: a077 1f3b 01db 9e3e f700 983e 114b 9ebe
00000280: 79e6 aa3c 160c 03bf 547b 29be f278 0e3d
00000290: 5c54 42bf 6341 d1bc 752e 353f 27e6 96be
000002a0: 0d4b f63e 9097 e7bd 6eac c2bd 258c 533e
000002b0: 1c08 203e 9474 7c3d 37ac bc3d fa44 853d
000002c0: 3bf2 84be f0ea 67be 2e3e 3e3e 0a45 57bf
000002d0: 1856 ecbd 1f05 193f bbda 483f 0754 a23e
000002e0: 5ff2 463e 1bb5 c6be e419 703e 9755 043f
000002f0: cdb5 683d 072f cf3e 1380 c0be 7e2c e63e
00000300: 5cdf 573d 21f8 293f 7b6c 1abf bff8 dd3e
00000310: b34b cc3e 576e f53e f467 41bd 29d5 0b3f
00000320: 731a 31bf 2139 debe adb6 ae3e a41e 29be
00000330: 0829 303d e4f1 08bf 3496 b5be e554 b5be
00000340: f625 32be d965 563e 0f8e ccbc ccbb 203f
00000350: 89a5 4bbd 3e25 893e f43f 48be 19f6 50bd
00000360: 9a69 33be 7e1d b8bd b817 febe 9fcc e23e
00000370: 69fc 49be b8e7 f33c 78ef 48bd 4ed1 e8bd
00000380: d77a f8be 988d c8be 0904 8d3e 4855 b33e
00000390: d438 a0be 205d 163e 0ba3 82bf c348 7ebe
000003a0: 7154 13be 6c8d 25be 02c7 cf3e 8447 fa3e
000003b0: 4964 4fbf 2253 693e ef17 9e3e 0654 0c3f
000003c0: 675c 743e 5862 debe 2c95 8a3e 7981 0d3f
000003d0: 67a1 67be efd6 fe3d 2620 a0bd 4f54 22bf
000003e0: 8310 da3d a966 01bc eabd 1f3f cb69 17be
000003f0: 8a46 dfbd e91b 973e 7258 553c 78f4 d1bc

net.0.bias f4 [256]
-0.49138123 -0.15545866 0.21998994 -0.47725928 0.29025012 -0.050769433 0.38141784 -0.84877175
-0.7941368 0.12168728 0.35274422 -0.050702844 -0.09891054 -0.6095208 0.024573447 -0.062031347
-0.14006567 0.804545 0.12818664 0.48540497 0.26424178 0.5880107 0.32362396 -0.14277291
0.56623703 -0.15438935 0.897192 0.2810433 0.6714059 0.30500472 -0.5512604 -0.55763346
0.056352943 -0.0008172529 0.88755894 -0.13347849 0.2044242 -0.9555613 -0.7205311 -0.19882096
-0.4006257 0.30490017 -0.40573147 -0.9830703 -0.86737555 0.62501216 0.022310706 0.20143904
0.20265666 -0.3834969 0.5051411 -0.4459799 -0.46751177 -0.35291955 -0.36445504 -0.26344678
0.12835936 -0.017445905 -0.13727851 -0.8208668 0.70837706 0.24821416 -0.1117812 -0.051997896
-0.7116297 0.2839399 0.1344164 -0.80058277 -1.0399585 0.7089606 -0.22761284 0.20679028
-0.48758328 -0.17351386 -0.033937648 0.062826596 -0.3106977 -0.4919553 -0.52340114 0.33396253
0.11593187 -0.1834472 0.079689704 -0.42715567 -0.95836776 -0.14908199 -0.25205147 -0.6361483
-0.75460804 1.213011 -0.5076468 0.8631154 -0.66959 0.8896225 1.0382245 0.2887877
-0.8182903 -0.018344061 0.29522783 0.4599841 0.15845135 -0.88669574 0.13112554 0.045651983
0.2753037 0.16772123 0.119231775 -0.39236385 -0.269518 -0.15871876 0.0150228515 -0.6110478
-0.3065379 -0.16752529 -0.29037887 0.15177745 0.12897289 -0.4254222 0.36618367 -0.05126131
-0.25255868 -0.01718052 0.30808035 -0.64762324 0.021495253 -0.019130757 -0.65463465 0.35701862
0.16690111 -0.6148949 -0.33546415 -0.017634265 0.27567318 -0.7817518 -0.18007779 -0.19793998
0.7096633 -0.6839952 -0.60651267 -0.18405616 0.120533206 0.01817933 -0.30693248 -0.66043586
0.08390911 0.1163616 -0.6408409 -0.44271016 -0.42649308 -0.61762154 0.18500353 -0.6184363
-0.84210044 -1.0497596 -0.4303037 -0.27712905 0.46102196 0.64468706 -0.11101814 -0.8755938
0.19519544 -0.20919023 0.47691038 -0.30685112 -0.2261915 -0.35469973 -0.04978194 -1.0897608
0.30105823 -0.5057953 -0.8805674 0.18708861 -0.7477589 -0.5060062 0.2815747 -0.3610185
-0.4493631 0.4514607 -0.06340598 -0.6765592 0.7010389 -0.72982776 0.10888947 -0.6754003
0.16417879 0.12677714 -0.5021583 -0.23754139 -0.31089666 -0.022906449 -0.9538385 -0.72331023
-0.4987895 -0.25481707 0.09687661 0.3881846 -0.31022307 0.43204448 -0.026716013 -0.036565695
-0.54731125 0.30561095 -0.16548616 -0.6114087 0.55623466 -0.67182463 0.73034304 -0.041634124
0.22404563 -0.21467522 -0.6317847 -0.20237392 0.07419145 0.3358526 0.061800234 0.039628804
-0.24296874 0.2553269 -0.8332943 -0.5594197 -0.64721197 -0.44691634 -0.2011604 -0.37857997
-0.35969678 0.49155807 -0.6860569 -0.6046445 -0.25628158 0.4434582 0.30358073 -0.4693952
0.62444764 0.08336672 0.868637 -0.35344136 0.07564775 -1.1208682 -0.18603292 -0.34386268
0.0249371 0.47264567 0.11206245 -0.530975 -0.09537461 0.34132898 0.30049926 -0.35410884
-0.18340139 -0.75856906 0.26469797 0.60396785 -0.12229366 -0.8475513 -0.4589294 -0.4895589
00000000: 5296 fbbe 8e30 1fbe 0b45 613e 545b f4be
00000010: aa9b 943e 9cf3 4fbd 3349 c33e 1b49 59bf
00000020: 8d4c 4bbf 2e37 f93d e49a b43e c9ad 4fbd
00000030: 9c91 cabd 8e09 1cbf 414e c93c 9514 7ebd
00000040: 606d 0fbe a9f6 4d3f 5c43 033e 0087 f83e
00000050: b34a 873e df87 163f 0ab2 a53e 1033 12be
00000060: e9f4 103f 3e18 1ebe 60ae 653f e8e4 8f3e
00000070: 42e1 2b3f 9429 9c3e 671f 0dbf 11c1 0ebf
00000080: 58d2 663d ea3c 56ba 1037 633f 96ae 08be
00000090: 9454 513e aa9f 74bf ba74 38bf b997 4bbe
000000a0: d01e cdbe e01b 9c3e 09bc cfbe 7faa 7bbf
000000b0: 530c 5ebf cc00 203f f1c4 b63c 0946 4e3e
000000c0: 3a85 4f3e b559 c4be ed50 013f 7a57 e4be
000000d0: b45d efbe dfb1 b4be da99 babe 7fe2 86be
000000e0: a370 033e b7ea 8ebc bd92 0cbe 5424 52bf
000000f0: 3358 353f da2b 7e3e 8bed e4bd bffb 54bd
00000100: 5d2d 36bf 9260 913e 74a4 093e fef2 4cbf
00000110: 5c1d 85bf 717e 353f 5713 69be d5c0 533e
00000120: 84a4 f9be 9ead 31be 3402 0bbd 3bab 803d
00000130: c513 9fbe 91e1 fbbe 9efd 05bf 23fd aa3e
00000140: b06d ed3d 95d9 3bbe 5b34 a33d 26b4 dabe
00000150: 9757 75bf f3a8 18be e40c 81be 9dda 22bf
00000160: fe2d 41bf f243 9b3f 24f5 01bf 21f5 5c3f
00000170: 406a 2bbf 4dbe 633f 8ae4 843f fbdb 933e
00000180: 797b 51bf 4946 96bc 1a28 973e 0983 eb3e
00000190: 1241 223e 7efe 62bf c645 063e 93fd 3a3d
000001a0: 9bf4 8c3e 1dbf 2b3e ca2f f43d eae3 c8be
000001b0: 43fe 89be 2c87 22be 6822 763c a16d 1cbf
000001c0: 89f2 9cbe c08b 2bbe 8aac 94be 8c6b 1b3e
000001d0: 7811 043e f0d0 d9be 6d7c bb3e 61f7 51bd
000001e0: 5f4f 81be 29be 8cbc b5bc 9d3e a3ca 25bf
000001f0: d016 b03c 1bb8 9cbc 2396 27bf 25cb b63e
00000200: 20e8 2a3e c169 1dbf f5c1 abbe bc75 90bc
00000210: 0925 8d3e e320 48bf 5066 38be c7b0 4abe
00000220: 7eac 353f 4f1a 2fbf 6a44 1bbf 3879 3cbe
00000230: 1dda f63d d1ec 943c 4126 9dbe 5312 29bf
00000240: 8ad8 ab3d fe4e ee3d 260e 24bf e8aa e2be
00000250: 4d5d dabe 721c 1ebf 9171 3d3e d751 1ebf
00000260: e593 57bf 865e 86bf c450 dcbe dce3 8dbe
00000270: 120b ec3e 360a 253f 7b5d e3bd ea26 60bf
00000280: 50e1 473e f735 56be 992d f43e 971b 9dbe
00000290: bf9e 67be 349b b5be 26e8 4bbd 487d 8bbf
000002a0: 4e24 9a3e cd7b 01bf dd6c 61bf 2894 3f3e
000002b0: 216d 3fbf 9f89 01bf 8f2a 903e 6bd7 b8be
000002c0: ec12 e6be db25 e73e ffda 81bd fc32 2dbf
000002d0: 4977 333f fed5 3abf 7101 df3d 09e7 2cbf
000002e0: 7c1e 283e ded1 013e 728d 00bf 0d3e 73be
000002f0: d92d 9fbe 4ea6 bbbc c32e 74bf dc2a 39bf
00000300: 5661 ffbe 6277 82be 3e67 c63d 22c0 c63e
00000310: 8fd5 9ebe ef34 dd3e 8adb dabc e9c5 15bd
00000320: 971c 0cbf 0a79 9c3e 3475 29be 4885 1cbf
00000330: 6565 0e3f b3fc 2bbf c3f7 3a3f 8b88 2abd
00000340: 386c 653e d2d3 5bbe a4bc 21bf 1c3b 4fbe
00000350: b0f1 973d dff4 ab3e 3e22 7d3d d051 223d
00000360: cccc 78be 35ba 823e c652 55bf 2136 0fbf
00000370: afaf 25bf 38d2 e4be fefc 4dbe 3cd5 c1be
00000380: 2d2a b8be 80ad fb3e 6da1 2fbf fbc9 1abf
00000390: 5737 83be f40c e33e ef6e 9b3e 9154 f0be
000003a0: cddb 1f3f 2cbc aa3d ff5e 5e3f 44f6 b4be
000003b0: 35ed 9a3d 9c78 8fbf 6a7f 3ebe c50e b0be
000003c0: e448 cc3c 9dfe f13e ff80 e53d faed 07bf
000003d0: c353 c3bd acc2 ae3e 0adb 993e c14d b5be
000003e0: 93cd 3bbe 9531 42bf 7e86 873e a39d 1a3f
000003f0: 1975 fabd 1ff9 58bf cbf8 eabe 77a7 fabe

net.2.weight f4 [256, 256]
-0.04569589 0.05530788 0.006309329 0.048608355 -0.02121816 0.010647463 0.013971149 -0.015888745
0.04533379 -0.040273156 -0.029293006 0.011904185 -0.029738054 -0.029851714 0.009251534 -0.028512182
-0.028564388 -0.03029669 0.010657041 0.008943166 -0.0025547487 -0.04131495 0.054829936 -0.066942945
0.018690616 -0.03633226 0.01033189 0.014605364 -0.016199086 -0.018771676 -0.04445681 -0.03634377
0.014181664 -0.009585454 0.06286119 -0.02686763 -0.00036179597 0.014468988 0.02010401 -0.014822069
0.036547903 0.0016409629 0.057521775 0.0028529875 0.022465039 -0.046030935 0.01023565 -0.013407395
0.041014727 0.06317118 0.034405015 0.0062995134 0.017355412 0.016565202 0.0040317136 0.004927245
0.032689106 -0.05097486 0.0209136 0.00995966 0.011861693 0.015869398 0.036859717 0.05181448
-0.061375856 -0.014261281 -0.020270152 0.01538042 0.018110313 -0.03813221 -0.014349216 -0.05751286
0.03195977 0.047342785 0.058078032 -0.01838172 -0.03142337 -0.023835095 0.017338928 -0.0263721
-0.047155403 0.03865543 -0.027556453 0.04454216 -0.06978426 -0.05587693 -0.054493006 -0.009582739
-0.051272135 0.060802486 -0.009967054 0.049362663 0.027346615 -0.0027423392 0.011003368 0.029758599
-0.037009872 -0.0012238339 -0.022536615 -0.028553838 0.023779983 -0.06818734 0.04699934 0.06645347
0.0378052 0.0017243004 -0.018497936 0.045879524 -0.016233329 0.035101917 0.022222288 0.05615693
-0.03457188 0.026328895 -0.020513916 -0.025602056 -0.05878411 -0.03504586 -0.0046554967 -0.022701785
0.043998975 0.027831554 0.046573002 -0.052811813 0.007975898 -0.012130718 0.009698202 -0.004445358
0.03501356 -0.029961972 -0.04254692 -0.04285135 -0.03961797 0.023536758 -0.04476497 0.012851657
-0.022503663 -0.020875681 -0.041577227 0.06478316 0.02824272 0.009633928 0.0495616 -0.024903351
0.04132176 -0.053060845 -0.039998397 -0.048058696 0.025336236 -0.0021648316 -0.037196312 -0.027646406
-0.014467263 0.04522885 -0.071605764 0.024969496 -0.040667396 -0.0235963 0.012229356 0.06340086
0.0042833607 0.011525671 -0.022272242 0.050121386 -0.022176106 0.045973808 0.035045825 -0.03420394
0.033151906 -0.021698786 0.008112612 0.0031971617 -0.04453647 0.002858333 0.07312886 -0.032054074
-0.049293883 -0.00970154 -0.05339624 0.0062575545 0.022024637 0.032021407 0.05162141 0.05992033
0.006138733 0.007932849 0.010318051 0.03869205 -0.039594628 0.0053933416 -0.021621807 0.060380064
0.040107332 0.036848273 -0.03721741 -0.03489803 -0.025372464 -0.04809554 -0.0029760199 0.018841129
0.04761545 0.0013622596 -0.05930823 0.021735435 -0.047424328 0.04707238 0.068536416 0.026415234
0.039802086 0.026101045 0.026876964 -0.033865597 -0.042155027 -0.04782093 -0.0037521804 -0.025973773
-0.025727833 0.05446855 0.044162177 -0.039598323 -0.011322852 0.030422047 0.045317236 -0.012117131
-0.05266808 -0.02471968 0.041580237 -0.0040616826 0.021408712 0.04639037 0.009247533 0.02379709
0.049335815 0.07137943 0.009976106 0.027384147 0.0258945 0.026971022 -0.06224292 -0.01739183
0.024783589 0.01092071 0.030661888 0.022365242 -0.020713577 0.014505044 0.054986306 0.048554413
0.021536654 0.0062144436 -0.00458281 -0.05129127 0.08168932 0.036480587 0.011742126 0.027490765
00000000: 9d2b 3bbd 848a 623d 7dbe ce3b 8e19 473d
00000010: b5d1 adbc b272 2e3c 3fe7 643c 1d29 82bc
00000020: edaf 393d 77f5 24bd e3f7 efbc c509 433c
00000030: 389d f3bc 958b f4bc bf93 173c 6192 e9bc
00000040: ddff e9bc c430 f8bc df9a 2e3c 5b86 123c
00000050: 926d 27bb dd39 29bd 5b95 603d 6219 89bd
00000060: 101d 993c 23d1 14bd 1647 293c 564b 6f3c
00000070: f2b3 84bc 0fc7 99bc 5818 36bd 34dd 14bd
00000080: 365a 683c 4f0c 1dbc 5ebd 803d 8119 dcbc
00000090: 6faf bdb9 560f 6d3c 2ab1 a43c 43d8 72bc
000000a0: 41b3 153d 9415 d73a f49b 6b3d 30f9 3a3b
000000b0: 9a08 b83c ef8a 3cbd 6eb3 273c b1aa 5bbc
000000c0: 0fff 273d e45f 813d 46ec 0c3d 266c ce3b
000000d0: f02c 8e3c bfb3 873c 771c 843b ba74 a13b
000000e0: 03e5 053d 04cb 50bd 0053 ab3c d72d 233c
000000f0: 8c57 423c 8a00 823c 37fa 163d 6c3b 543d
00000100: 4065 7bbd 26a8 69bc 970d a6bc 28fe 7b3c
00000110: 145c 943c 8530 1cbd f918 6bbc 9b92 6bbd
00000120: 3fe8 023d 82ea 413d 3be3 6d3d 4395 96bc
00000130: cbb5 00bd d141 c3bc 5e0a 8e3c 4d0a d8bc
00000140: 0626 41bd 2855 1e3d 12be e1bc d771 363d
00000150: 0deb 8ebd 35df 64bd 0f34 5fbd ec00 1dbc
00000160: bb02 52bd 070c 793d db4c 23bc 8130 4a3d
00000170: 0206 e03c d1b8 33bb 7847 343c 4ec8 f33c
00000180: aa97 17bd 0d69 a0ba b59e b8bc bde9 e9bc
00000190: 3dce c23c cea5 8bbd 6182 403d c218 883d
000001a0: a0d9 1a3d ec01 e23a fc88 97bc 2bec 3b3d
000001b0: c2fb 84bc 07c7 0f3d 840b b63c cf04 663d
000001c0: 3e9b 0dbd b2af d73c cd0c a8bc 67bb d1bc
000001d0: 9bc7 70bd 3f8c 0fbd 238d 98bb 18f9 b9bc
000001e0: 4538 343d 00ff e33c 55c3 3e3d 3351 58bd
000001f0: 57ad 023c ebbf 46bc 35e5 1e3c 5eaa 91bb
00000200: 616a 0f3d cf72 f5bc ae45 2ebd e684 2fbd
00000210: 7446 22bd 29d0 c03c 795b 37bd c28f 523c
00000220: 9a59 b8bc 7a03 abbc e24c 2abd 09ad 843d
00000230: 475d e73c 9fd7 1d3c 1b01 4b3d 1d02 ccbc
00000240: 0141 293d 5456 59bd 5cd5 23bd 32d9 44bd
00000250: f08d cf3c d9df 0dbb 295b 18bd b77a e2bc
00000260: 1908 6dbc e341 393d 0ba6 92bd d48c cc3c
00000270: db92 26bd 074d c1bc a35d 483c 4fd8 813d
00000280: 6f5b 8c3b 2bd6 3c3c 4774 b6bc 154c 4d3d
00000290: aaaa b5bc 084f 3c3d 368c 0f3d 6e19 0cbd
000002a0: 4bca 073d a7c1 b1bc c3ea 043c 7987 513b
000002b0: e06b 36bd df52 3b3b 95c4 953d 224b 03bd
000002c0: 62e8 49bd 35f3 1ebc 04b6 5abd 2c0c cd3b
000002d0: 036d b43c e128 033d f970 533d 056f 753d
000002e0: 6d27 c93b c8f8 013c 0b0d 293c 8e7b 1e3d
000002f0: fa2d 22bd a1ba b03b 3720 b1bc 1651 773d
00000300: 9647 243d 37ee 163d 4871 18bd 3df1 0ebd
00000310: ead9 cfbc d4ff 44bd 5409 43bb b658 9a3c
00000320: 6b08 433d d98d b23a 30ed 72bd 830e b23c
00000330: 0340 42bd f8ce 403d d25c 8c3d c364 d83c
00000340: 8307 233d dcd1 d53c 142d dc3c a7b6 0abd
00000350: c0aa 2cbd e1df 43bd 24e7 75bb f3c6 d4bc
00000360: 2dc3 d2bc 6a1a 5f3d 66e3 343d da31 22bd
00000370: 7c83 39bc a837 f93c 919e 393d ee86 46bc
00000380: 7cba 57bd ed80 cabc 0a50 2a3d dd17 85bb
00000390: 5361 af3c d403 3e3d f782 173c 1df2 c23c
000003a0: 5a14 4a3d 612f 923d d272 233c b854 e03c
000003b0: b420 d43c 55f2 dc3c 6ff2 7ebd 5079 8ebc
000003c0: f406 cb3c c7ec 323c a42e fb3c 5037 b73c
000003d0: 85af a9bc 90a6 6d3c 5239 613d fee0 463d
000003e0: a36d b03c 88a2 cb3b 662b 96bb cb16 52bd
000003f0: bb4c a73d ab6c 153d 0c62 403c 5034 e13c

net.2.bias f4 [256]
0.051267527 -0.035353925 -0.05050735 0.02571638 -0.0068568583 -0.09016225 -0.034132943 -0.091060564
0.025417313 -0.014855256 -0.048370607 -0.049167756 0.01259692 0.014413306 -0.052062783 -0.018985853
0.01959774 -0.00032643395 -0.057457007 -0.07160208 -0.04921507 0.026254283 -0.022172157 -0.13359332
-0.037005927 -0.042862322 -0.07885145 -0.014454218 0.04666248 -0.036109053 0.038154777 -0.041216277
-0.075217344 -0.012676647 -0.033604916 0.03345905 -0.010934504 0.0045014 -0.0048717787 -0.013108478
-0.04797864 -0.06813061 0.007629491 -0.106483735 -0.015977731 0.0008295836 -0.05448951 -0.004233744
-0.071613416 -0.0055293893 0.030530537 -0.09111311 -0.044004876 -0.10821563 -0.08963813 0.02808976
-0.07288159 -0.046396907 0.01761267 -0.0031551633 0.054706417 -0.080509916 -0.0629 -0.11305239
-0.018746082 0.004658925 0.0090307575 0.024126908 -0.042978626 0.018630669 -0.0071893684 -0.015024078
-0.0059614046 -0.014353197 -0.028522227 -0.048908893 -0.09608969 0.043678466 -0.0018376972 -0.016781932
-0.09434978 -0.004572174 -0.09699029 0.020512333 -0.04725109 -0.0026933395 -0.015131134 -0.011334413
-0.11755729 -0.09781588 -0.093292676 -0.051690187 -0.053846672 0.08139499 -0.07567273 0.04626383
-0.020189835 0.02782561 0.008642272 -0.08067734 -0.025068993 -0.030575773 -0.010742354 -0.004594238
-0.027448803 -0.04937764 -0.0007955724 -0.06688531 -0.12603737 -0.021909608 -0.036386047 -0.04012375
-0.01631516 -0.08351123 -0.016638812 -0.035207476 0.025882551 -0.11199236 0.007783431 0.034295637
0.0076300846 -0.02267154 -0.060200818 0.002269374 0.031079547 0.024357354 -0.06443761 -0.0770894
0.0015259553 0.017143212 -0.08718478 -0.025692953 -0.0795151 -0.03853782 -0.04865423 0.02458287
-0.08379904 -0.018336978 -0.00872019 0.05425961 0.09527741 -0.021740872 0.06613059 0.03936194
0.053294066 -0.06521293 -0.18485606 0.050068427 0.0029242064 0.006879289 -0.047256153 -0.04414953
-0.014493304 -0.018368194 0.02027765 -0.02661261 -0.07898005 -0.074336 -0.073382705 0.044801857
0.048493076 0.053054906 0.05696901 -0.08181726 -0.048060652 0.009240357 -0.095667 -0.038955387
0.051550083 -0.035669632 -0.014310362 -0.030404082 0.02679936 -0.07800521 0.01778752 -0.11514207
-0.01920384 -0.08172731 -0.008778501 -0.009199477 -0.0143750915 -0.08071622 0.011450526 -0.018019225
-0.07842063 -0.029668301 -0.07362809 -0.10455019 0.0033162911 -0.044798385 0.014625032 0.03500416
0.0036608684 0.044669434 -0.032198366 -0.003140803 0.013981571 -0.039002795 0.030093953 -0.07369084
-0.022768928 -0.06907235 -0.019508654 -0.057173423 0.042527962 -0.0182026 -0.061563622 -0.027837679
-0.008983724 0.07935266 -0.11676068 0.012306517 -0.108492464 0.0055330377 0.040748548 -0.027197905
-0.0992183 -0.013120695 -0.110012226 0.00853863 0.023390276 0.048037235 0.04085127 0.020708954
-0.029492926 0.032098074 0.046810243 0.052999184 -0.06374234 -0.072807945 -0.038155783 -0.05735954
-0.10288381 -0.040020574 -0.07942146 -0.017493667 -0.010382752 -0.04567249 -0.064023435 0.015078438
-0.009335834 -0.038938828 -0.03956375 0.058985658 0.005886037 -0.11197441 0.029598225 0.008133269
-0.027992502 0.0055788094 -0.07816131 -0.031867325 -0.05884472 -0.021603195 0.012257226 -0.0020265158
00000000: e6fd 513d 47cf 10bd cce0 4ebd 28ab d23c
00000010: 7faf e0bb fca6 b8bd fcce 0bbd f67d babd
00000020: f837 d03c 7663 73bc 4220 46bd 2164 49bd
00000030: 5063 4e3c c925 6c3c c93f 55bd 3888 9bbc
00000040: 718b a03c 3925 abb9 0a58 6bbd 1ca4 92bd
00000050: be95 49bd 3913 d73c 62a2 b5bc b0cc 08be
00000060: 8793 17bd 6790 2fbd de7c a1bd 62d1 6cbc
00000070: 2821 3f3d 16e7 13bd 2f48 1c3d 66d2 28bd
00000080: 8d0b 9abd b6b1 4fbc 4fa5 09bd 5b0c 093d
00000090: a226 33bc 7b80 933b 71a3 9fbb f1c4 56bc
000000a0: 4085 44bd 1088 8bbd cf00 fa3b 2514 dabd
000000b0: bbe3 82bc 6a78 593a 6430 5fbd 38bb 8abb
000000c0: 0eaa 92bd e12f b5bb 2d1b fa3c 8399 babd
000000d0: 753e 34bd 28a0 ddbd 3294 b7bd 7f1c e63c
000000e0: f142 95bd af0a 3ebd 7248 903c dbc6 4ebb
000000f0: d613 603d 62e2 a4bd b7d1 80bd 0388 e7bd
00000100: 6291 99bc e5a9 983b bef5 133c cba5 c53c
00000110: 5b0a 30bd 589f 983c cb94 ebbb 8d27 76bc
00000120: e357 c3bb ac29 6bbc 72a7 e9bc b154 48bd
00000130: acca c4bd 31e8 323d e3de f0ba 437a 89bc
00000140: 753a c1bd 2dd2 95bb d8a2 c6bd 7b09 a83c
00000150: 5c8a 41bd bd82 30bb 93e8 77bc f9b3 39bc
00000160: e0c1 f0bd b153 c8bd 3b10 bfbd 17b9 53bd
00000170: 548e 5cbd 6bb2 a63d 4efa 9abd 247f 3d3d
00000180: 2765 a5bc 89f2 e33c 5198 0d3c 293a a5bd
00000190: 7d5d cdbc 0b7a fabc b300 30bc 438b 96bb
000001a0: 50dc e0bc 3540 4abd f68d 50ba 2afb 88bd
000001b0: f10f 01be c77b b3bc 8909 15bd cd58 24bd
000001c0: 5fa7 85bc f007 abbd 1e4e 88bc b735 10bd
000001d0: a507 d43c 405c e5bd 270c ff3b 9579 0c3d
000001e0: ca05 fa3b aab9 b9bc 2295 76bd c7b9 143b
000001f0: 899a fe3c 1389 c73c def7 83bd 0ce1 9dbd
00000200: 9002 c83a ec6f 8c3c ef8d b2bd 077a d2bc
00000210: d0d8 a2bd d5d9 1dbd a849 47bd 0462 c93c
00000220: d59e abbd 6e37 96bc 21df 0ebc 533f 5e3d
00000230: cd20 c33d ea19 b2bc 7a6f 873d fc39 213d
00000240: e14a 5a3d 5b8e 85bd e84a 3dbe 8d14 4d3d
00000250: 0ba4 3f3b a96b e13b ab8f 41bd 23d6 34bd
00000260: 5375 6dbc e578 96bc 501d a63c b002 dabc
00000270: 4bc0 a1bd 793d 98bd ac49 96bd 2782 373d
00000280: ada0 463d 1a50 593d 5658 693d cf8f a7bd
00000290: 3fdb 44bd de64 173c 0fed c3bd af8f 1fbd
000002a0: 2e26 533d 521a 12bd 0276 6abc fb11 f9bc
000002b0: 558a db3c 32c1 9fbd 22b7 913c 9bcf ebbd
000002c0: 5f51 9dbc a660 a7bd b4d3 0fbc 67b9 16bc
000002d0: 8185 6bbc 8c4e a5bd fd9a 3b3c 0e9d 93bc
000002e0: ff9a a0bd f00a f3bc 53ca 96bd 691e d6bd
000002f0: 2256 593b 837e 37bd d59d 6f3c 8660 0f3d
00000300: 2eeb 6f3b 4cf7 363d 6fe2 03bd eed5 4dbb
00000310: f612 653c 65c1 1fbd 9887 f63c 39eb 96bd
00000320: e785 babc ce75 8dbd 9dd0 9fbc ae2e 6abd
00000330: cd31 2e3d 9e1d 95bc 232a 7cbd d80b e4bc
00000340: 7830 13bc a683 a23d 3920 efbd 46a1 493c
00000350: 4c31 debd 7c4e b53b f3e7 263d 24ce debc
00000360: f732 cbbd 2ff8 56bc 174e e1bd 9ce5 0b3c
00000370: f79c bf3c b1c2 443d a953 273d d3a5 a93c
00000380: 269b f1bc 4579 033d 19bc 3f3d ac15 593d
00000390: 588b 82bd 551c 95bd 3d49 1cbd d6f1 6abd
000003a0: bfb4 d2bd 9dec 23bd b8a7 a2bd e14e 8fbc
000003b0: 6b1c 2abc 1413 3bbd b81e 83bd 8e0b 773c
000003c0: 53f5 18bc 527e 1fbd 990d 22bd f29a 713d
000003d0: a8df c03b d752 e5bd fa77 f23c 6741 053c
000003e0: 8850 e5bc 72ce b63b 0913 a0bd 5087 02bd
000003f0: 2907 71bd 2ff9 b0bc 88d2 483c 4bcf 04bb

net.4.weight f4 [256, 256]
0.04536378 -0.043305937 -0.044567496 -0.053802866 -0.01478272 0.024964163 0.051357906 0.010101863
0.047733165 0.044996846 -0.04097119 0.011517654 -0.046803184 -0.01707849 -0.028469011 0.01044319
0.023560181 0.01347105 0.047626067 -0.012938336 -0.047611292 0.025873132 -0.04154997 -0.012551041
0.01463844 0.017108941 -0.0019994786 0.034134325 0.015644329 -0.07379311 0.064554974 -0.022103949
-0.047660608 -0.00535608 -0.052485444 0.011879744 0.004402626 -0.05949416 0.0026473566 0.03207158
0.03099695 0.061972376 -0.059295587 -0.07154123 -0.03780245 -0.016849814 -0.037740946 -0.019341785
0.032537833 0.040293664 0.035159517 -0.053733204 0.0018035454 -0.022165488 0.034911346 -0.021227902
0.040142242 -0.025378868 -0.040225513 0.015309325 0.01918829 0.027596079 -0.0059007485 0.044826023
-0.029747168 -0.052361522 -0.0073523 0.013272087 -0.011374969 0.0377235 -0.008167064 0.013177734
0.063565254 -0.0548033 0.008025986 -0.043941278 -0.07626003 0.05646865 0.038664706 0.028914437
-0.04730681 -0.023840439 0.033911277 -0.023864932 -0.057442605 -0.03617427 0.05518334 -0.045050774
0.04202229 0.03209524 -0.055830363 0.06520655 -0.009978658 0.019300703 -0.058841527 -0.02222163
0.022795351 -0.041339077 -0.04350013 -0.019498825 0.0064157606 -0.045269873 0.05036041 -5.0963317e-05
0.0012926544 0.029965 -0.0058227163 0.0033357968 -0.07058106 0.055263184 -0.019802004 0.0135400565
-0.030560248 -0.051562518 0.05816108 -0.023060989 0.033143517 0.037352175 0.05641687 0.011349868
0.04005129 0.010723219 -0.06063606 0.020894391 -0.04552241 0.026184304 0.0021438056 0.019244518
-0.026111634 -0.03800776 -0.028560136 -0.03307061 -0.007524084 -0.009250067 0.04085869 -0.0029566933
-0.03300287 0.0065041864 -0.04884493 -0.04159829 -0.048205536 -0.007100016 -0.05257691 -0.027768005
-0.024711546 -0.011625902 -0.035548635 -0.0014534261 -0.06323871 0.0073564462 0.027025504 0.020089302
-0.016862385 -0.02553317 -0.017809905 0.026801901 0.02012438 -0.012747216 -0.03554114 -0.016373714
0.004026723 -0.0050128074 0.024314053 -0.049907617 -0.030719347 0.0420374 -0.066054255 0.0061140372
0.056044575 -0.004454457 -0.06954374 0.012336534 -0.018306743 0.025296003 -0.0045439946 -0.021563824
0.045546297 -0.033597156 -0.047130924 -0.009310606 -0.05338531 -0.070240006 -0.04570826 -0.028939344
-0.04749183 -0.040906053 0.046983656 -0.0222684 0.011112722 -0.027776385 -0.02950344 -0.029821426
-0.03599364 -0.035218734 -0.07158272 0.060091414 -0.02858828 0.026542464 0.0450214 0.0011867648
0.07200354 -0.007167334 0.009385042 0.026230762 0.0010499563 0.050615054 0.0040284107 0.015281294
0.04302902 -0.014041367 -0.04119382 0.062730186 -0.002093564 0.056138657 0.013486781 -0.055694345
0.048442755 -0.03593706 -0.012853019 -0.042324442 0.019063048 0.04099869 0.010329176 -0.029146036
0.012938834 0.0029984312 0.046246707 0.06505722 -0.078599714 0.022110838 0.033696283 -0.03951106
0.001293895 -0.0037857147 -0.061109934 -0.058989108 0.0025271375 -0.015875887 0.0148306275 -0.0072850143
-0.015175695 -0.034651812 0.014160754 0.018382113 0.042767037 0.0009793144 -0.055322878 0.037153218
0.052966595 -0.0023865784 0.03224211 -0.006084705 -0.011049424 0.0077246986 0.05922605 -0.022173118
00000000: 5fcf 393d 9161 31bd 688c 36bd 6560 5cbd
00000010: 3933 72bc a581 cc3c ab5c 523d 4982 253c
00000020: da83 433d 9d4e 383d 68d1 27bd 8bb4 3c3c
00000030: b2b4 3fbd 31e8 8bbc d837 e9bc ea19 2b3c
00000040: 4801 c13c aeb5 5c3c 8d13 433d 50fb 53bc
00000050: 0f04 43bd e4f3 d33c 4d30 2abd e2a2 4dbc
00000060: 11d6 6f3c 0d28 8c3c af09 03bb 6fd0 0b3d
00000070: 8928 803c d820 97bd 6635 843d 5713 b5bc
00000080: c537 43bd 0e82 afbb fafa 56bd 42a3 423c
00000090: e743 903b 26b0 73bd 467f 2d3b 7d5d 033d
000000a0: 51ed fd3c bfd6 7d3d eedf 72bd 3584 92bd
000000b0: bed6 1abd 9f08 8abc 4096 1abd aa72 9ebc
000000c0: 6446 053d f80a 253d 6d03 103d 5917 5cbd
000000d0: f164 ec3a 6694 b5bc 33ff 0e3d 23e6 adbc
000000e0: 316c 243d 58e7 cfbc 82c3 24bd f7d3 7a3c
000000f0: c330 9d3c 2c11 e23c 115b c1bb 7e9b 373d
00000100: 55b0 f3bc 0979 56bd 90eb f0bb 2b73 593c
00000110: 145e 3abc f583 1a3d 26cf 05bc 6ce7 573c
00000120: 802e 823d 6d79 60bd 6d7f 033c c5fb 33bd
00000130: 382e 9cbd ac4b 673d e25e 1e3d f8dd ec3c
00000140: c9c4 41bd 064d c3bc 8de6 0a3d 6480 c3bc
00000150: f048 6bbd 792b 14bd ed07 623d 2987 38bd
00000160: 911f 2c3d 4c76 033d 61ae 64bd 038b 853d
00000170: 867d 23bc 821c 9e3c d003 71bd 230a b6bc
00000180: 51bd ba3c 2a53 29bd 312d 32bd 00bc 9fbc
00000190: 4d3b d23b e76c 39bd b846 4e3d 72c1 55b8
000001a0: 496e a93a 2979 f53c 7ccc bebb 629d 5a3b
000001b0: ce8c 90bd a65b 623d d037 a2bc 1dd7 5d3c
000001c0: 7c59 fabc 3833 53bd 503a 6e3d 66ea bcbc
000001d0: 7fc1 073d 98fe 183d 6015 673d ccf4 393c
000001e0: d20c 243d 71b0 2f3c 845d 78bd b72a ab3c
000001f0: b575 3abd 7780 d63c 177f 0c3b aea6 9d3c
00000200: 11e8 d5bc 06ae 1bbd f2f6 e9bc 0c75 07bd
00000210: 978c f6bb 988d 17bc 715b 273d 15c5 41bb
00000220: 042e 07bd 1221 d53b 9f11 48bd f862 2abd
00000230: 2b73 45bd 40a7 e8bb e35a 57bd ba79 e3bc
00000240: de6f cabc 917a 3ebc 729b 11bd e380 beba
00000250: 4c83 81bd 580e f13b 9764 dd3c 5292 a43c
00000260: fc22 8abc f02a d1bc 14e6 91bc a98f db3c
00000270: e2db a43c b3d9 50bc 9693 11bd 2b22 86bc
00000280: 9af2 833b 7a42 a4bb 442e c73c ee6b 4cbd
00000290: 24a7 fbbc 692f 2c3d 7447 87bd 4358 c83b
000002a0: ff8e 653d b2f6 91bb f36c 8ebd 2d1f 4a3c
000002b0: 06f8 95bc 9039 cf3c cae5 94bb 9ea6 b0bc
000002c0: c18e 3a3d 2c9d 09bd 5b0c 41bd 838b 18bc
000002d0: 8eaa 5abd fed9 8fbd 9638 3bbd 3412 edbc
000002e0: cb86 42bd 1b8d 27bd ef71 403d 386c b6bc
000002f0: 2212 363c 4d8b e3bc 33b1 f1bc 104c f4bc
00000300: 116e 13bd 8541 10bd f699 92bd 6a22 763d
00000310: f831 eabc 956f d93c 5c68 383d 388d 9b3a
00000320: 9876 933d f5db eabb b8c3 193c e5e1 d63c
00000330: b09e 893a bb51 4f3d c200 843b 645e 7a3c
00000340: 333f 303d c30d 66bc daba 28bd af78 803d
00000350: 2d34 09bb a6f1 653d a9f7 5c3c c11f 64bd
00000360: e96b 463d bd32 13bd 7895 52bc 655c 2dbd
00000370: 1c2a 9c3c 3eee 273d b43b 293c abc3 eebc
00000380: 67fd 533c 5481 443b 306d 3d3d b83c 853d
00000390: e3f8 a0bd ca21 b53c 1d05 0a3d 59d6 21bd
000003a0: e997 a93a c119 78bb 694e 7abd 909e 71bd
000003b0: 559e 253b 260e 82bc 29fc 723c 21b7 eebb
000003c0: 7aa3 78bc 0fef 0dbd 8202 683c 1696 963c
000003d0: 7d2c 2f3d 575c 803a 3e9a 62bd f92d 183d
000003e0: 80f3 583d 2468 1cbb 4e10 043d 3462 c7bb
000003f0: a508 35bc 781f fd3b 0497 723d 66a4 b5bc

net.4.bias f4 [256]
-0.03728764 -0.029604947 -0.034981586 -0.05482966 -0.027576456 0.055225935 -0.07774539 0.01304424
-0.043374725 0.037756532 -0.053672675 0.023729395 0.027179722 0.021809574 0.04677392 0.048822764
-0.05516809 0.024387026 0.04491849 -0.032173183 -0.022938414 0.008050978 -0.015759451 0.063139565
0.015663387 -0.07728933 0.012096959 0.050901223 -0.042140603 0.06974733 0.03912102 0.037979115
0.050258763 0.011293628 -0.0852436 0.012486274 0.023210032 0.02428999 0.040139295 -0.009460128
0.010128926 -0.05512663 0.080200486 -0.012627556 -0.060573205 -0.061869822 -0.035084423 -0.00957937
-0.059445553 0.03609712 -0.06113936 -0.008558803 -0.02979237 -0.002333101 -0.08290393 0.053818773
-0.043876622 0.025637193 0.036515184 0.049839176 0.01591952 -0.011045081 0.0051177624 0.0740066
0.06672595 0.044532962 0.015668556 0.04100341 0.0434916 0.007926959 -0.05573435 -0.036671996
0.036745343 0.059956305 -0.018275855 0.049563166 -0.034124468 -0.037029225 -0.0056375912 0.005372835
-0.008675085 -0.012812164 0.014393385 0.0030494689 -0.033692446 -0.10275082 -0.05726428 0.019973487
-0.036419444 -0.014984969 0.04574901 -0.034224395 -0.047180004 -0.017401358 -0.015689015 0.032110322
0.03791257 0.017177274 -0.018640447 -0.009126494 -0.009840785 0.039978307 0.06110352 0.008723998
0.0033363055 0.005855677 -0.019055657 -0.01916036 -0.0002279526 0.06022256 -0.026554817 -0.018772319
-0.046641465 -0.02394081 -0.034713592 -0.017917216 0.02251742 0.070485376 0.068382636 0.0035589633
0.022874849 -0.076900944 0.051868204 -0.004570048 -0.026932621 -0.069687426 -0.032809485 -0.021866614
-0.034737118 -0.06467295 -0.015572275 0.019593338 -0.034214202 -0.008467671 -0.008618263 0.00056495337
-0.025784977 -0.05921807 -0.008985954 -0.018216904 0.03401532 0.027078496 0.0013939196 0.00797541
-0.069256544 0.033570815 -0.032570414 -0.03592394 -0.065812886 0.027701514 0.008884412 0.081511915
-0.052122783 -0.07012527 -0.06393266 -0.06947335 -0.04437224 -0.0022022538 0.01145607 -0.062380213
0.044814937 0.028904375 0.011069019 0.0080664195 0.032229185 -0.07313387 0.069639154 -0.008652065
-0.049116712 0.050538287 0.027145458 -0.08845091 -0.04244274 0.0074832886 -0.069385365 0.009473863
0.06507079 -0.023864737 0.003291007 0.036676876 -0.03601543 -0.04371377 0.022908231 -0.045073025
-0.009506079 -0.051907893 -0.036775224 -0.031951934 -0.026152644 0.03829899 0.046623178 0.00096117816
-0.033884067 -0.02902214 0.020263545 0.0111781135 -0.025502568 -0.014530886 0.080238 0.01016411
0.00452792 -0.013835646 -0.06411379 0.02879225 -0.041190676 -0.017015947 -0.012167354 -0.022035753
-0.020533228 -0.05158923 0.04662022 -0.02472429 -0.056167677 -0.005553687 -0.02511839 -0.04144634
0.02471882 0.034127824 -0.04196053 -0.01356629 -0.06688454 -0.045402642 0.055239897 -0.021108381
0.04566227 -0.013284131 0.04670126 -0.0045282044 -0.03899096 0.019068606 0.012964314 0.018352775
-0.03774781 -0.040681895 0.0073742745 0.025461808 -0.02390804 -0.054471765 0.016634056 0.017436083
-0.027587036 -0.0015503839 0.04388 0.0466174 0.041605927 0.015350746 -0.031165436 -0.043258697
-0.053396296 0.013318427 -0.036943585 -0.021961162 -0.0427871 0.059964705 -0.07495076 -0.020071844
00000000: edba 18bd 1386 f2bc da48 0fbd 1195 60bd
00000010: 05e8 e1bc 9734 623d fa38 9fbd 82b7 553c
00000020: b2a9 31bd 98a6 1a3d e1d7 5bbd 2664 c23c
00000030: 02a8 de3c fea9 b23c 0396 3f3d 61fa 473d
00000040: eff7 61bd 4dc7 c73c 73fc 373d 07c8 03bd
00000050: 57e9 bbbc 40e8 033c f719 81bc 514f 813d
00000060: 8150 803c de49 9ebd 5332 463c cd7d 503d
00000070: a09b 2cbd b0d7 8e3d 5d3d 203d fd8f 1b3d
00000080: 22dc 4d3d e908 393c 3294 aebd 3b93 4c3c
00000090: f722 be3c cdfb c63c 1a69 243d a7fe 1abc
000000a0: cbf3 253c 76cc 61bd 2740 a43d cfe3 4ebc
000000b0: 9c1b 78bd 366b 7dbd afb4 0fbd caf2 1cbc
000000c0: 2e7d 73bd 93da 133d 446d 7abd 393a 0cbc
000000d0: 210f f4bc f0e6 18bb 89c9 a9bd 1371 5c3d
000000e0: f9b7 33bd 1705 d23c f290 153d 2a24 4c3d
000000f0: a769 823c 6df6 34bc e7b2 a73b c690 973d
00000100: 9da7 883d 3268 363d 585b 803c 31f3 273d
00000110: 3f24 323d 13e0 013c b449 64bd 6035 16bd
00000120: 4982 163d be94 753d 3fb7 95bc bf02 4b3d
00000130: 19c6 0bbd f5ab 17bd 8bbb b8bb 9b0e b03b
00000140: f221 0ebc 1cea 51bc 3bd2 6b3c 99d9 473b
00000150: 1701 0abd 066f d2bd f38d 6abd 709f a33c
00000160: 8e2c 15bd 8483 75bc 5063 3b3d e12e 0cbd
00000170: d23f 41bd 4b8d 8ebc 4086 80bc 1d86 033d
00000180: 364a 1b3d 5bb7 8c3c dab3 98bc 4a87 15bc
00000190: 3e3b 21bc 4bc0 233d af47 7a3d 1aef 0e3c
000001a0: eba5 5a3b fbe0 bf3b 9c1a 9cbc 30f6 9cbc
000001b0: 8f06 6fb9 eeab 763d 7d89 d9bc 68c8 99bc
000001c0: 1f0b 3fbd 841f c4bc d72f 0ebd 20c7 92bc
000001d0: 7476 b83c a35a 903d 320c 8c3d 7f3d 693b
000001e0: 0964 bb3c 3e7e 9dbd c173 543d 57c0 95bb
000001f0: cda1 dcbc 48b8 8ebd 3d63 06bd 9d21 b3bc
00000200: 8248 0ebd 4073 84bd db22 7fbc 3582 a03c
00000210: 3124 0cbd fdbb 0abc 9d33 0dbc 6119 143a
00000220: 043b d3bc a68e 72bd d339 13bc 9e3b 95bc
00000230: a653 0b3d b9d3 dd3c 2eb4 b63a 4bab 023c
00000240: 60d6 8dbd 8d81 093d 8e68 05bd fb24 13bd
00000250: e8c8 86bd 49ee e23c ed8f 113c b8ef a63d
00000260: b37e 55bd d69d 8fbd 20ef 82bd 0b48 8ebd
00000270: aabf 35bd b053 10bb 3db2 3b3c 6582 7fbd
00000280: de8f 373d dec8 ec3c d55a 353c 0429 043c
00000290: c002 043d 36c7 95bd f99e 8e3d 64c1 0dbc
000002a0: 9b2e 49bd 3c01 4f3d 2760 de3c c025 b5bd
000002b0: 70d8 2dbd 6036 f53b ea19 8ebd 4338 1b3c
000002c0: d643 853d fb7f c3bc efad 573b 7e3a 163d
000002d0: ea84 13bd 360d 33bd 0baa bb3c 7e9e 38bd
000002e0: 63bf 1bbc 5f9d 54bd 9ea1 16bd 08e0 02bd
000002f0: 123e d6bc 67df 1c3d f2f7 3e3d 93f7 7b3a
00000300: 05ca 0abd d7bf edbc bcff a53c 6824 373c
00000310: c3ea d0bc f412 6ebc d253 a43d 5e87 263c
00000320: f25e 943b e8ae 62bc 174e 83bd badd eb3c
00000330: 8eb7 28bd 0765 8bbc 9559 47bc 5384 b4bc
00000340: 4d35 a8bc 3a4f 53bd d8f4 3e3d 988a cabc
00000350: 1410 66bd b4fb b5bb 15c5 cdbc a3c3 29bd
00000360: 1f7f ca3c 9ec9 0b3d cede 2bbd 2545 5ebc
00000370: c3fa 88bd 1ff8 39bd 3b43 623d 7ceb acbc
00000380: 5c08 3b3d afa5 59bc d249 3f3d 5561 94bb
00000390: fcb4 1fbd c435 9c3c 4668 543c 8f58 963c
000003a0: 739d 1abd 0fa2 26bd e6a3 f13b 4895 d03c
000003b0: cbda c3bc c91d 5fbd 2544 883c 1ed6 8e3c
000003c0: 35fe e1bc 4036 cbba 84bb 333d e3f1 3e3d
000003d0: fa6a 2a3d b281 7b3c a84e ffbc 0830 31bd
000003e0: 13b6 5abd 8835 5a3c 2852 17bd e5e7 b3bc
000003f0: 8741 2fbd 8d9d 753d c97f 99bd b56d a4bc

net.6.weight f4 [2, 256]
-0.038830552 -0.06647398 0.018689876 0.011787196 -0.04617005 -0.06940282 0.020433877 -0.041849248
-0.06631644 0.053411305 -0.001380018 0.039407946 0.016003603 0.057742365 -0.054711178 -0.077493034
0.04450229 -0.014841119 -0.06048634 -0.037273098 -0.025900893 -0.03461274 -0.043703835 -0.047504473
0.03922912 0.074716195 -0.008311143 -0.027333628 0.03943028 -0.04148863 0.054767366 0.025198339
-0.024533903 -0.049561605 0.0034440407 -0.031072177 -0.023566565 0.009169509 0.043516055 0.01845707
0.07296323 0.04566155 -0.0415312 0.041469548 0.0027743715 0.03077815 -0.024962347 -0.02014018
0.020473478 0.04537961 0.0022565746 0.067277335 -0.022575296 0.025639825 0.02256191 0.0035950234
-0.07342737 -0.039360654 0.0015310704 -0.04436902 0.02241958 -0.07185222 0.047675192 -0.058139246
-0.047840305 -0.036968246 -0.020866267 0.007313096 0.013727868 0.048301425 0.044548392 -0.015622499
0.032097142 -0.058377057 0.020819733 -0.004141873 0.076979004 0.003963288 0.052044272 -0.058317784
-0.069253616 -0.0639253 0.04995201 -0.010992074 -0.035711497 0.0057390016 0.04978491 -0.02794939
0.01570041 -0.01968964 0.07096574 0.03193112 0.04135224 -0.029062403 -0.026451172 0.0037363963
0.066176295 0.015571282 -0.0030988352 -0.056043826 -0.06281309 -0.037779875 -0.02087803 0.030474553
-0.0027776826 -0.05264183 0.055585787 -0.022307536 0.045109514 -0.0479996 0.03910231 0.04694234
-0.03790812 0.016952733 0.035320092 -0.0034496763 -0.06718823 -0.06005347 -0.047508165 0.03436027
0.03192187 0.063937105 0.02401805 -0.047272798 0.065568216 0.06588826 0.025121571 0.052466262
0.04448174 -0.0011639124 -0.05605358 0.04126999 -0.012873943 0.020135049 0.045232624 -0.047936186
0.008483915 0.041972756 -0.064569734 -0.016717345 -0.06825594 -0.000879172 0.046154592 -0.02390894
-0.0003762101 -0.048037965 -0.056463823 0.03498676 0.03740308 0.049416244 -0.02354408 -0.058758058
-0.0024904313 0.071620144 -0.0442538 0.038039017 0.063432395 0.024433214 -0.04557829 0.025801582
0.027161397 -0.04938741 -0.0461983 -0.06778002 0.061833426 -0.0020893784 -0.046365675 -0.012244974
0.020176658 -0.022663644 -0.03454744 0.008851158 0.040877305 -0.0010672022 0.02265095 0.0621067
-0.021654032 -0.040285427 -0.05512973 -0.041340157 0.0610684 -0.005183519 0.0009794671 -0.010948429
-0.016480036 -0.018016366 0.045312732 -0.06173987 0.05637753 0.060158305 -0.048215035 -0.056095928
-0.011653323 -0.043800496 -0.047285307 -0.028757099 0.019756936 0.06745824 -0.03326483 0.051245145
0.013215274 -0.067674235 0.07323149 -0.034992076 -0.053869966 0.07580343 0.04105822 -0.010786825
-0.05069669 0.005977026 -0.02436383 0.0028816198 0.018403938 0.07918497 -0.06169636 -0.05953117
0.035375167 -0.042078983 -0.033788156 -0.01417567 0.07572416 0.029593509 -0.020693658 -0.05495168
-0.020748649 -0.06861927 -0.064130224 -0.039354816 0.04427379 0.019631473 -0.00039090725 0.028972492
-0.025061559 0.0679216 -0.052940033 0.04710047 0.019702721 0.031520866 0.026132178 -0.030562144
0.05422945 -0.069585 -0.028759241 -0.026560474 -0.063218765 0.076857485 -0.07334511 0.038714007
0.025866685 0.022432895 0.064795606 0.06400294 -0.041589163 -0.051405236 0.04609833 -0.049029354
00000000: c90c 1fbd 8323 88bd 831b 993c 151f 413c
00000010: ce1c 3dbd 1123 8ebd f264 a73c 1e6a 2bbd
00000020: ead0 87bd d0c5 5a3d b8e1 b4ba 3a6a 213d
00000030: fd19 833c 4283 6c3d d418 60bd abb4 9ebd
00000040: 0948 363d 2a28 73bc 86c0 77bd adab 18bd
00000050: 1c2e d4bc 17c6 0dbd cb02 33bd 0d94 42bd
00000060: b7ae 203d ce04 993d 762b 08bc c6ea dfbc
00000070: a581 213d fbef 29bd bf53 603d bf6c ce3c
00000080: 53fb c8bc 1c01 4bbd 6ab5 613b 148b febc
00000090: ab0e c1bc b53b 163c e43d 323d 4833 973c
000000a0: bf6d 953d 9b07 3b3d 9f1c 2abd f9db 293d
000000b0: 3bd2 353b 7522 fc3c d67d ccbc 05fd a4bc
000000c0: ffb7 a73c f8df 393d 0ae3 133b b3c8 893d
000000d0: d4ef b8bc 9c0a d23c c1d3 b83c 7c9a 6b3b
000000e0: 1761 96bd a338 21bd 33ae c83a 4abc 35bd
000000f0: 44a9 b73c 4227 93bd 1047 433d 6b23 6ebd
00000100: 32f4 43bd 046c 17bd bcef aabc b2a2 ef3b
00000110: daea 603c b7d7 453d 6078 363d 83f5 7fbc
00000120: 4b78 033d c81c 6fbd 258e aa3c 8db8 87bb
00000130: 2ba7 9d3d 78de 813b 602c 553d a1de 6ebd
00000140: d7d4 8dbd 45eb 82bd 7b9a 4c3d 1a18 34bc
00000150: 3846 12bd 3c0e bc3b 43eb 4b3d 1ef6 e4bc
00000160: 259e 803c 2b4c a1bc 7c56 913d 35ca 023d
00000170: f760 293d 4714 eebc 21b0 d8bc 54de 743b
00000180: 7087 873d b11e 7f3c d415 4bbb 368e 65bd
00000190: 26a4 80bd 12bf 1abd 6708 abbc c5a5 f93c
000001a0: c809 36bb f69e 57bd ecad 633d 4bbe b6bc
000001b0: c1c4 383d 3b9b 44bd be29 203d 9c46 403d
000001c0: 8b45 1bbd 75e0 8a3c cdab 103d f713 62bb
000001d0: fc99 89bd a1fa 75bd ec97 42bd 5bbd 0c3d
000001e0: 82c0 023d 75f1 823d 80c1 c43c 1fa1 41bd
000001f0: a148 863d 6df0 863d c1cb cd3c dde6 563d
00000200: 7c32 363d 6b8e 98ba 7098 65bd b90a 293d
00000210: 3bed 52bc 42f2 a43c d845 393d bc58 44bd
00000220: 1e00 0b3c a0eb 2b3d 233d 84bd d0f2 88bc
00000230: c5c9 8bbd 3c78 66ba 990c 3d3d aedc c3bc
00000240: 113e c5b9 75c3 44bd 9c46 67bd 474e 0f3d
00000250: f933 193d b068 4a3d 84df c0bc 4aac 70bd
00000260: 8136 23bb 95ad 923d 7943 35bd cdce 1b3d
00000270: d8e8 813d 2a28 c83c 4db0 3abd d75d d33c
00000280: 9481 de3c 744a 4abd 6e3a 3dbd 40d0 8abd
00000290: 0c45 7d3d f4ed 08bb efe9 3dbd 259f 48bc
000002a0: 8549 a53c 1ba9 b9bc 9e81 0dbd 7304 113c
000002b0: f66e 273d 5de1 8bba 7c8e b93c 9863 7e3d
000002c0: cc63 b1bc 5502 25bd b6cf 61bd 4c54 29bd
000002d0: dc22 7a3d 82da a9bb 7661 803a 0a61 33bc
000002e0: 2401 87bc 0f97 93bc d899 393d f2e2 7cbd
000002f0: 20ec 663d 8e68 763d 217d 45bd d8c4 65bd
00000300: 94ed 3ebc 2668 33bd 3dae 41bd 0294 ebbc
00000310: 4cd9 a13c 8c27 8a3d b440 08bd 6ee6 513d
00000320: e084 583c ca98 8abd 64fa 953d da53 0fbd
00000330: c1a6 5cbd d43e 9b3d aa2c 283d 39bb 30bc
00000340: 55a7 4fbd eeda c33b a896 c7bc 8fd9 3c3b
00000350: dbc3 963c bb2b a23d 53b5 7cbd f5d6 73bd
00000360: 8de5 103d 035b 2cbd 7365 0abd 1241 68bc
00000370: 4515 9b3d 166e f23c bf85 a9bc 0315 61bd
00000380: 12f9 a9bc 4388 8cbd b556 83bd 8432 21bd
00000390: 6f58 353d 2fd2 a03c aff2 ccb9 b857 ed3c
000003a0: e64d cdbc 7b1a 8b3d a6d7 58bd 6cec 403d
000003b0: 9a67 a13c 061c 013d 2613 d63c 765d fabc
000003c0: b31f 5e3d 9582 8ebd 8098 ebbc 5a95 d9bc
000003d0: d778 81bd 7567 9d3d f635 96bd 9492 1e3d
000003e0: 5fe6 d33c 31c5 b73c 8fb3 843d f913 833d
000003f0: 6659 2abd 4c8e 52bd 9ad1 3c3d 01d3 48bd

net.6.bias f4 [2]
-0.009368076 0.034790445
00000000: 8f7c 19bc 6d80 0e3d
