normal/rnode/models/5100_model.pt (torch, 535780 bytes, 8 tensors)

net.0.weight f4 [256, 3]
000000 83 d7 ff bd f5 56 15 3e db 52 e7 be 3f 33 ad be
       -0.124922775 0.14583953 -0.451804 -0.3382816
000010 22 1d 6b 3d 9a ea 5a bf af b8 02 3f 40 34 7c 3e
       0.05740083 -0.85514224 0.51063055 0.24629307
000020 63 2d 96 3e 76 dc 85 3e b9 86 66 3e 0a be b9 bd
       0.29331502 0.2614476 0.2251233 -0.0906945
000030 d4 7f b3 bd 76 51 5c bf e2 72 d2 bd d3 7b ed 3e
       -0.08764616 -0.860618 -0.102758184 0.46383533
000040 45 9f ae bd 5e 59 8e 3e 62 a0 c9 3e a0 f7 40 be
       -0.08526472 0.27802557 0.39380175 -0.18844461
000050 47 b8 7e 3e 9f 4d 0a be 83 84 8c 3d 91 cd b0 be
       0.24874984 -0.13506173 0.06861212 -0.34531835
000060 9d 84 4c be d2 a5 51 3e d0 5c 87 bd c0 bc 06 bd
       -0.19972463 0.20473412 -0.066094995 -0.03289485
000070 00 b1 8c bd 15 29 14 bf 8c 8b a6 bd 09 e5 1f bf
       -0.068696976 -0.57875186 -0.08132085 -0.62458855
000080 22 a8 9e be 38 84 a5 bd 98 49 2e be b1 32 42 bf
       -0.3098765 -0.08081859 -0.17020261 -0.758586
000090 3a 32 22 be a1 03 d5 be 21 9b 99 bf 12 7f 46 bc
       -0.15839472 -0.4160433 -1.2000467 -0.012115257
0000a0 90 55 dd 3d fa 1d 12 bf d9 6d 96 be c7 48 99 bc
       0.108073354 -0.5707699 -0.29380682 -0.01871146
0000b0 7a f1 67 bf 1d 8e 7e be f1 55 37 bd ab f8 e6 3b
       -0.9060284 -0.248589 -0.044759694 0.0070486865
0000c0 d9 82 6f bc fd 0c f4 3e f7 84 02 bf 52 bf 43 3e
       -0.014618599 0.4766616 -0.5098414 0.19115952
0000d0 22 97 23 3f 5b 48 fa 3e 86 82 18 3e f9 3e be 3d
       0.63902485 0.48883328 0.1489354 0.09289355
0000e0 29 32 b7 be f9 97 cc bd 5b f9 74 bf 81 ac 09 bf
       -0.35780457 -0.09989924 -0.95692986 -0.53778845
0000f0 09 cf 27 bd 29 1d e2 3e 4e 36 08 bf b6 14 d3 bd
       -0.04096893 0.44162872 -0.5320786 -0.10306685
000100 e8 3f 0e bd ff d9 6b 3f 60 da a1 bd 7e 11 1e bf
       -0.034728914 0.9212951 -0.0790298 -0.6174544
000110 17 0c a5 bd 7a 7d 46 3e 5d 62 ca 3d 4f 9a 1e 3e
       -0.080589466 0.19383803 0.098820426 0.15488552
000120 8a 3b dc bd a2 4f 91 3f e3 66 24 3e b7 4a d5 bc
       -0.10753544 1.1352427 0.16054873 -0.026036603
000130 9b ca 4c 3f 65 92 d3 be 1d 3b 94 bd 93 13 ae 3d
       0.7999665 -0.41322628 -0.072378375 0.08499827
000140 85 a2 4d 3f c4 a6 a4 bd 92 c6 0e 3e c0 44 39 bf
       0.8032611 -0.080396205 0.13942936 -0.7237053
000150 c5 0e 94 be 96 03 c7 be 32 89 06 3f 37 d8 75 bd
       -0.28917518 -0.38869923 0.52553093 -0.06002065
000160 9c be 2f 3f 30 b5 8d be 89 e0 04 be b3 46 fe bd
       0.6865022 -0.27677298 -0.12976278 -0.124158286
000170 84 90 c4 be 48 17 a9 3e 74 b3 08 bf 7d 42 eb be
       -0.38391507 0.33025575 -0.53398824 -0.45949164
000180 98 93 b3 be f4 5a a2 3d 3c 47 5e bf dc 74 4e 3e
       -0.35073543 0.07927504 -0.86827445 0.20161766
000190 b8 c8 24 3d 81 70 9c bd 1f c3 ae 3d 1f 87 ad be
       0.040230483 -0.07638646 0.0853331 -0.33892152
0001a0 2f 17 0b 3f 8a 35 1a 3e 73 34 7d 3c 01 44 89 3d
       0.5433225 0.15059486 0.015454399 0.06702424
0001b0 2e 64 b5 bc 62 12 9b 3e 4e d3 e2 be bc 22 71 3e
       -0.022142496 0.30287462 -0.44301838 0.23548406
0001c0 f3 23 0d 3f 2e 45 be bf 12 b8 bf bc 24 7a 10 3f
       0.5513298 -1.4864862 -0.023403201 0.5643637
0001d0 cd 4c 07 bf 3c b9 be bb eb ee cc be 45 56 60 be
       -0.52851564 -0.0058204215 -0.4002603 -0.21907909
0001e0 b9 45 23 bc cd e9 16 3f e2 03 1e bf 60 61 eb 3d
       -0.009965354 0.589505 -0.61724675 0.11493182
0001f0 17 b9 25 be 61 bd 80 3e 15 a2 ea be 3a 00 fd bd
       -0.16183887 0.25144485 -0.45826784 -0.12353559
000200 c5 2b cd be 55 a6 d1 bd e9 75 d9 be 4c 19 cf be
       -0.40072456 -0.102368034 -0.4247277 -0.40448987
000210 95 5b 26 bd 99 93 69 be 44 22 0c bf 29 a7 16 3c
       -0.040614683 -0.2281021 -0.54739785 0.0091951275
000220 43 3b 33 3e 62 13 51 3f 01 71 b9 bc 5c 4e 01 3f
       0.17503075 0.816702 -0.022636892 0.5051019
000230 bd 8a 12 bf 80 13 00 bd 9d 37 28 bf 91 8d 6a bf
       -0.5724295 -0.031268597 -0.6570986 -0.91622263
000240 71 d1 70 3e 45 19 03 3f f2 64 8b 3f a4 4b 6d be
       0.23517396 0.51210433 1.0890181 -0.23173386
000250 bd 3e 95 bd 0c d6 24 bf 62 ac 01 3e 7d 46 fb be
       -0.07287357 -0.6438911 0.12663415 -0.49077216
000260 34 d4 20 3f ab 97 d6 be 1e 12 8a 3e 91 89 8a bf
       0.62823796 -0.41912588 0.26966947 -1.0823232
000270 b5 05 bd 3a d0 db 9c 3e a1 02 99 3e fa 76 94 be
       0.0014421256 0.30636454 0.29884818 -0.28997022
000280 63 1c b5 3c 3e e4 0e bf be cd 1f be 81 6e ee 3c
       0.022108262 -0.5581702 -0.15605828 0.029105427
000290 c7 eb 48 bf a4 00 93 bc e5 7d 38 3f 37 43 9d be
       -0.7848477 -0.017944641 0.720671 -0.30715343
0002a0 e9 8e f5 3e 82 9c df bd de f2 d8 bd 84 67 50 3e
       0.47960594 -0.10918523 -0.10593198 0.20351988
0002b0 c3 4d 1a 3e 1e a2 aa 3d c2 de 53 3d 56 8e 0d 3d
       0.15068726 0.08331703 0.05172611 0.03455957
0002c0 de 4d c2 be c4 cc 58 be de 07 2e 3e c2 2b 5f bf
       -0.37950033 -0.21171862 0.16995189 -0.87176144
0002d0 dc 5a cb bd d6 45 4c 3f 92 12 11 3f 9d d1 a2 3e
       -0.099294394 0.7979406 0.5666896 0.31800547
0002e0 a2 d8 38 3e 82 82 c7 be a6 63 3a 3d a2 98 1a 3f
       0.18051389 -0.38966757 0.04550519 0.6038915
0002f0 56 8a b8 be a5 cc c9 3e 53 9f c6 be 29 51 a5 3e
       -0.36043042 0.39413944 -0.3879343 0.32288483
000300 5b ae d6 bd b4 2c db 3e 43 99 3d bf cc 62 d9 3e
       -0.104824744 0.42807543 -0.74061984 0.4245819
000310 fc 46 d2 3e 06 04 e7 3e 2f ce f7 bc a4 6a 11 3f
       0.41069782 0.45120257 -0.030249683 0.56803346
000320 57 25 2d bf 95 42 e9 be 65 1e d9 3e 38 c7 11 be
       -0.676351 -0.4555861 0.42406002 -0.14236152
000330 27 61 98 bd 20 f3 bf be bd 62 ec be 45 4c 88 be
       -0.07440405 -0.37490177 -0.4616908 -0.2662069
000340 e2 74 8a be 73 69 58 3e df 84 f8 b9 77 9f 20 3f
       -0.270423 0.21133976 -0.00047401243 0.62743324
000350 dc c6 66 be 31 4a 84 3e ee 53 58 be aa 57 1b be
       -0.22536796 0.25837854 -0.21125767 -0.1517016
000360 dd a6 2a be c7 6c bc bd 76 72 04 bf e6 7b de 3e
       -0.16665216 -0.09200435 -0.51737154 0.43453902
000370 bc 0a 53 be 98 b3 54 bd c1 f9 3e bd 6d 52 ec bd
       -0.20609564 -0.051929086 -0.046624903 -0.11539159
000380 c7 3f fd be 8d c8 c1 3c d2 5c 33 3e 35 48 3a 3f
       -0.4946272 0.0236552 0.17515877 0.7276643
000390 28 15 99 be 40 92 1e 3e c4 c9 89 bf 88 a9 75 be
       -0.29898953 0.15485477 -1.0764699 -0.23990452
0003a0 68 19 2c be c3 b6 4c be 10 04 90 3e 0d 84 fe 3e
       -0.16806567 -0.19991593 0.281281 0.49710122
0003b0 7f 11 93 bf b5 bf 66 3e e0 a3 9e 3e 8f a4 0a 3f
       -1.1489714 0.22534068 0.30984402 0.54157346
0003c0 5a 8d 60 3e 87 64 f2 be 9f e3 1b 3e 4c 54 0a 3f
       0.21928921 -0.4734232 0.1522355 0.54034877
0003d0 ad 75 80 be 3d da 5c bc b5 0b 96 bd c7 64 23 bf
       -0.2508978 -0.013479766 -0.07326452 -0.6382565
0003e0 dd 42 25 be ef 1f 95 bb 1f 00 21 3f 73 76 20 be
       -0.16138788 -0.004550926 0.6289081 -0.15670185
0003f0 cb be cb bd c6 9d 8d 3e 9f 69 4f 3a 9e 1b 44 bd
       -0.099485 0.27659434 0.0007912162 -0.0478779

net.0.bias f4 [256]
000000 12 3d 03 bf 11 68 66 be 03 d9 50 3e ce aa 15 bf
       -0.5126506 -0.22500636 0.20395283 -0.5846375
000010 9d cb 30 3e 31 e4 a2 bd a2 93 c2 3e 3c 0a 5e bf
       0.17265172 -0.0795368 0.3800326 -0.86734366
000020 a8 04 52 bf 27 8e e9 3d e1 e5 31 3e d9 eb 79 bd
       -0.82038355 0.114040665 0.17372848 -0.061015937
000030 ad 13 14 be e8 35 1d bf 73 4f 9f bb fe 58 7d bd
       -0.1446063 -0.6141038 -0.004861766 -0.061852448
000040 f0 ba 3f be e0 55 81 3f 72 04 b6 3d 48 1f b5 3e
       -0.18723655 1.0104332 0.088875666 0.35375428
000050 75 fc 57 3e 3e b5 20 3f 15 3c 1f 3e 4b ad fa bd
       0.21092398 0.62776554 0.15550263 -0.12240084
000060 e9 3e e0 3e 57 ca 2a be 61 ff 67 3f c3 7b 8d 3e
       0.43797997 -0.16678749 0.9062405 0.27633485
000070 9c 5f 3f 3f 02 d6 1d 3e 24 c2 12 bf 4a 0e 44 bf
       0.74755263 0.15413669 -0.57327485 -0.76584303
000080 bf 8d 91 bc 86 d4 c8 3c 50 db 67 3f de 3a 02 be
       -0.017767785 0.024515402 0.9056902 -0.12717769
000090 95 aa 22 3e f3 2d 98 bf 5b 80 82 bf 69 2b 5f be
       0.15885384 -1.1889023 -1.0195421 -0.21793903
0000a0 18 a3 e9 be c5 3c 9f 3e 99 c4 e1 be 9a 38 90 bf
       -0.45632243 0.3110105 -0.44095305 -1.1267273
0000b0 ec e0 5e bf 75 b5 25 3f d9 6e e8 3b d7 42 30 3e
       -0.87061954 0.64730006 0.007093292 0.17212997
0000c0 15 34 5a 3e 52 63 d2 be b2 a2 56 3f ef a6 06 bf
       0.2130893 -0.410914 0.83842003 -0.5259847
0000d0 3d 1d f0 be 91 c8 c8 be d3 49 c4 be 0f c9 8a be
       -0.46897307 -0.3921552 -0.38337573 -0.2710652
0000e0 3e 2e fb 3d 97 85 98 bb 8a 62 68 be c7 6c 58 bf
       0.12264679 -0.004654597 -0.2269384 -0.8454098
0000f0 75 c7 0c 3f 3d bb 7e 3e 4f fc e6 be 4d b5 06 be
       0.5499185 0.24876113 -0.4511437 -0.13155098
000100 8a 2b 5e bf 14 9b 88 3e d4 f4 18 3e a7 9c 47 bf
       -0.86785185 0.26680815 0.14937145 -0.7797341
000110 bc 06 95 bf 79 58 39 3f 9e 8a aa be b0 f6 15 3e
       -1.164268 0.72400624 -0.33308882 0.14644885
000120 6e c8 00 bf ad 77 60 be 93 22 1d bd c4 31 ee 3e
       -0.5030583 -0.21920653 -0.03836305 0.46522343
000130 b2 08 b8 be f8 ca 05 bf 04 65 48 bf d6 54 a9 3e
       -0.35944134 -0.5226283 -0.7827914 0.33072537
000140 43 fc 2d 3d 21 35 8b be b8 e7 9e bd 46 23 df be
       0.042476904 -0.27188972 -0.077590406 -0.435816
000150 5a 25 77 bf 8a 8e 3c be 52 7c 86 be ff 90 34 bf
       -0.9654137 -0.1841375 -0.26266724 -0.70533746
000160 d5 7b 59 bf 11 dc 8d 3f 85 6f 12 bf af 47 43 3f
       -0.8495458 1.1082784 -0.57201415 0.76281255
000170 d8 ac 52 bf 68 18 6a 3f a6 74 91 3f 30 73 7a 3e
       -0.8229499 0.9144349 1.1363723 0.24458003
000180 da b9 54 bf d4 8d 50 bd c2 71 9b 3e 9b 1f 02 3f
       -0.83096087 -0.050916508 0.30360228 0.50829476
000190 63 14 42 3e 4d 40 8d bf 47 50 48 3f 42 94 a8 3e
       0.1895309 -1.1035248 0.78247494 0.32925612
0001a0 84 1d 8a 3e af b6 f4 3d 14 76 d7 3d 03 96 9a bd
       0.26975644 0.11948907 0.105205685 -0.07548144
0001b0 74 5f cb be 50 63 29 be b1 95 d0 3b 49 a8 21 bf
       -0.39721262 -0.16541791 0.006365501 -0.6314741
0001c0 75 15 b1 be 9d c2 bd be e6 96 cd be 5c 60 a2 3e
       -0.34586683 -0.3706254 -0.4015419 0.3171414
0001d0 0e 61 18 3e d5 fe ed be 1b 34 c1 3e 13 f1 ce bd
       0.14880773 -0.46483484 0.37735066 -0.10104575
0001e0 b5 80 75 be 4e 86 37 bd b6 48 80 3e a1 dd 26 bf
       -0.23974879 -0.044805817 0.25055474 -0.6518193
0001f0 65 f9 a6 be 56 31 d1 bd 8c ea 3b bf ea 4e 29 3e
       -0.32612148 -0.10214488 -0.73404765 0.1653401
000200 bb 5f 8b 3d 6f 85 20 bf 1c 58 af be 04 6e 41 bd
       0.068053685 -0.62703604 -0.3424691 -0.04722406
000210 42 26 8c 3e 17 aa 54 bf 56 e7 fa be 68 01 ab be
       0.27372938 -0.83072037 -0.4900462 -0.3339951
000220 5f 2a 35 3f 17 da 2f bf 93 3b 21 bf 33 27 7f be
       0.7076778 -0.68692154 -0.6298153 -0.24917297
000230 46 11 d0 3d 6b 58 ab 3c de 67 ba be b1 9c 2a bf
       0.10159545 0.020916184 -0.3640737 -0.6664534
000240 83 5f 35 3d 29 49 90 3d f0 ec 24 bf 90 b9 ed be
       0.04428054 0.07045204 -0.6442404 -0.46430635
000250 8b df ec be fe ab 25 bf 91 b2 49 3e 60 e9 46 bf
       -0.462643 -0.64715564 0.19697024 -0.7769985
000260 af 11 5f bf 5e ff 93 bf f0 6b ec be 42 d3 af be
       -0.8713636 -1.1562307 -0.461761 -0.34340864
000270 f1 df e7 3e 18 57 20 3f 65 e8 93 be 2c 3e 67 bf
       0.4528804 0.62632895 -0.2888824 -0.9032924
000280 66 31 6c 3e 49 12 43 be d7 c1 f5 3e 17 bb 8a be
       0.23065719 -0.19049944 0.4799945 -0.27095863
000290 8a b8 89 be 17 3b d6 be ce b4 93 bd ce f4 90 bf
       -0.26898605 -0.41841957 -0.0721222 -1.1324708
0002a0 29 da 9b 3e fe 20 09 bf 46 ee 6b bf 42 80 33 3e
       0.3043988 -0.5356597 -0.9216045 0.17529395
0002b0 c1 a5 40 bf 2f f7 01 bf b9 97 f9 3d b1 cf d5 be
       -0.7525292 -0.507678 0.12187142 -0.41760018
0002c0 05 4d fc be 29 33 ef 3e 91 2e 0b be 18 85 2f bf
       -0.4927751 0.4671872 -0.13591982 -0.6856246
0002d0 08 0b 50 3f 3d 75 42 bf 9e d6 8b 3d 88 a1 2f bf
       0.8126683 -0.7596014 0.06828044 -0.6860585
0002e0 4f f1 51 bd 95 66 8b 3d c3 b3 06 bf 9c 2a 74 be
       -0.05125552 0.06806675 -0.52618045 -0.23844379
0002f0 01 1d a7 be 6f b3 00 bd d7 ee 83 bf e2 f5 42 bf
       -0.32639316 -0.03142112 -1.0307263 -0.7615644
000300 57 87 01 bf 92 45 97 be 41 3e 13 3d b2 76 9e 3e
       -0.5059714 -0.29545265 0.03594804 0.30949932
000310 0a e0 a9 be 72 f7 8c 3e 1d 16 d1 bd 3f 97 6e be
       -0.3317874 0.27532536 -0.10209296 -0.23299883
000320 cf 98 0c bf 69 0d ef 3d a9 28 70 be b8 8c 22 bf
       -0.5492067 0.1167248 -0.2345301 -0.6349597
000330 80 37 0d 3f 3f 97 2a bf ff 1c 1b 3f e9 3c 68 be
       0.5516281 -0.66637033 0.6059112 -0.22679485
000340 1d ec 68 bc f4 a7 51 be a5 cc 2e bf 0e 05 53 be
       -0.01421645 -0.20474225 -0.6828101 -0.20607397
000350 38 2f 27 3d 54 25 ab 3e e9 4a 3a 3e 0d 9f a6 3c
       0.040816516 0.33426917 0.18192638 0.020339513
000360 fe dc da be 0b 7c ae 3d 45 b0 5b bf ea 03 11 bf
       -0.4274673 0.08519753 -0.8581584 -0.566466
000370 fb 88 21 bf f7 6d f3 be b4 96 80 be 16 68 fc be
       -0.6309964 -0.47544834 -0.25114977 -0.4929816
000380 87 4e cd be 08 39 f9 3e be 38 39 bf 7f 95 53 bf
       -0.40098974 0.48676324 -0.72352207 -0.8264999
000390 0d 50 d2 3e 5e 1b c5 3e b9 d7 a3 3e c3 04 05 bf
       0.410767 0.38497442 0.3200052 -0.5196039
0003a0 85 21 20 3f 0a c1 95 3d 53 b2 51 3f 8d 06 cf be
       0.62551147 0.0731221 0.81912726 -0.40434685
0003b0 80 fd 0f 3d da 6c a3 bf 01 8e 84 be 1c 35 af be
       0.035153866 -1.2767594 -0.2588959 -0.34220207
0003c0 e8 2a 38 3d 81 c4 15 3f 5e 3c a5 3d 03 9a 0d bf
       0.044962794 0.58502966 0.08068155 -0.5531313
0003d0 5e 7d 27 be 97 df 8a 3e cc e4 77 3e cc c2 b9 be
       -0.16356418 0.2712371 0.24208373 -0.3628143
0003e0 47 ab 95 3e 2a c1 52 bf 50 d1 80 3e ad 14 b3 3e
       0.29232237 -0.82325995 0.25159693 0.34976712
0003f0 fa 81 34 be 61 08 5e bf 6a 86 f4 be 6d 61 e7 be
       -0.17627707 -0.86731535 -0.477588 -0.45191517

net.2.weight f4 [256, 256]
000000 59 e6 3a bd 5d 3a 5c 3d 45 eb 9e 3b a0 1b 3d 3d
       -0.045629833 0.053766597 0.0048498237 0.046168923
000010 29 c2 ce bc c5 90 20 3c 19 e0 60 3c 16 02 8d bc
       -0.025239067 0.009800141 0.013725304 -0.017212909
000020 78 4d 3c 3d c2 75 23 bd b0 b8 05 bd cf 08 15 3c
       0.045972317 -0.039907224 -0.032646835 0.009096338
000030 fd c2 04 bd 0b c9 14 bd 7f c7 f1 3b 1b c5 f1 bc
       -0.032412518 -0.036324542 0.007378518 -0.029512933
000040 76 48 0e bd 3f 98 15 bd ee d5 0f 3c 30 d6 95 3b
       -0.034737073 -0.036522146 0.008779032 0.0045726523
000050 f4 9f d4 bb 33 85 1c bd db 8c 4b 3d d4 20 8d bd
       -0.0064887945 -0.038212966 0.049694877 -0.06891027
000060 c9 58 b1 3c 12 c6 22 bd ad b3 55 3c 25 e5 87 3c
       0.021648781 -0.039739676 0.013043326 0.016588757
000070 af 50 b5 bc dc 8d 98 bc 21 d0 41 bd eb 0b 13 bd
       -0.0221332 -0.018622331 -0.047317628 -0.035900038
000080 73 0b 56 3c 74 47 34 bc 86 d9 8c 3d 43 8a e6 bc
       0.013064253 -0.011003364 0.06877427 -0.0281421
000090 4c 39 3c bb 98 c9 2b 3c 11 99 8f 3c be 5b 80 bc
       -0.0028720675 0.010485075 0.017529042 -0.015668746
0000a0 d8 e8 e9 3c d4 9b 34 3b 38 19 60 3d 2b 5a 13 3b
       0.028553411 0.00275587 0.05471155 0.0022484164
0000b0 80 d9 a8 3c 11 ac 3c bd c8 f9 77 3b 84 1f 7b bc
       0.020611525 -0.046062533 0.003783809 -0.015327338
0000c0 a3 b7 14 3d 19 fb 78 3d 2c 97 26 3d 67 b0 a2 3b
       0.036307942 0.06078634 0.040671512 0.0049648765
0000d0 bc 01 71 3c 9c 5c 75 3c ee 3c 24 3b ec cb 44 ba
       0.014709886 0.014975693 0.002506073 -0.00075071934
0000e0 b4 6e 02 3d be 24 58 bd 7a ea 97 3c a6 b6 0b 3c
       0.031843856 -0.052769415 0.018544424 0.0085274335
0000f0 57 7a a8 3c f2 50 67 3c 58 df 07 3d a1 d9 54 3d
       0.020566149 0.01411842 0.03317198 0.05196536
000100 6c a3 7e bd db 45 83 bc fa 14 cc bc 2f b5 7e 3c
       -0.06216757 -0.01602452 -0.024912346 0.015546127
000110 f6 5c 93 3c 5f 5b 27 bd 3e 80 99 bc 51 4c 6c bd
       0.017988663 -0.040858623 -0.018737908 -0.05768997
000120 3e 21 f1 3c ef 00 3f 3d 2b 1f 68 3d 07 b7 53 bc
       0.029434796 0.04663175 0.05667035 -0.012922055
000130 95 23 06 bd 01 75 dd bc b4 93 68 3c f0 04 e6 bc
       -0.032748777 -0.02703333 0.014195371 -0.028078526
000140 1c 53 3b bd b9 7c 1b 3d b3 aa f6 bc 48 63 1b 3d
       -0.045733556 0.03796074 -0.030110693 0.03793648
000150 f6 fa 8b bd da af 62 bd 92 e3 6d bd ce b9 3e bc
       -0.068349764 -0.055343486 -0.058078356 -0.011640979
000160 ed ba 50 bd 96 fb 86 3d 45 d4 65 bc f4 50 63 3d
       -0.050959516 0.06590955 -0.01402766 0.055497125
000170 62 d0 da 3c 3e af 2d 3b f0 b6 9d 3c c2 33 e1 3c
       0.026710693 0.0026502158 0.01925227 0.0274905
000180 20 0b 1e bd 78 04 3f bb b4 ea af bc 11 f4 f0 bc
       -0.03858483 -0.002914695 -0.02147422 -0.029413255
000190 8c d3 b4 3c 59 84 91 bd 50 b6 5a 3d 7e 3d b5 3d
       0.02207353 -0.071053214 0.053396523 0.08849619
0001a0 db 6f 08 3d ca 1c 31 3b 77 c9 a0 bc 66 24 1b 3d
       0.0333098 0.0027025216 -0.019627316 0.03787651
0001b0 07 63 9a bc f8 c1 f5 3c 39 74 ba 3c aa ab 59 3d
       -0.018846048 0.029999718 0.022760497 0.053142227
0001c0 48 9c 17 bd ab 14 f1 3c ee ed bd bc b2 a2 e1 bc
       -0.037014276 0.0294288 -0.023184743 -0.0275434
0001d0 87 3b 79 bd 8a ad 15 bd 09 bb a8 b9 2c c6 bd bc
       -0.060847785 -0.036542453 -0.0003218281 -0.023165785
0001e0 70 00 30 3d 8b 81 04 3d ae 82 37 3d 7e 75 6b bd
       0.042969167 0.032350104 0.04480236 -0.057485096
0001f0 88 a6 a6 3b dc ef 70 bc 85 91 0e 3c 92 6b 21 bc
       0.00508577 -0.014705624 0.008701687 -0.009852307
000200 ef 0c 05 3d 2f 99 02 bd cf 97 46 bd 34 b1 39 bd
       0.032483038 -0.03188437 -0.04848462 -0.04533501
000210 44 21 26 bd 83 b6 a3 3c 7b 71 2d bd 8b 0b 63 3c
       -0.04055907 0.01998449 -0.04234455 0.0138577325
000220 5f aa 00 3b 01 f2 c5 bc 38 ed 33 bd be 6c 83 3d
       0.00196328 -0.024163248 -0.0439274 0.06417225
000230 c9 d8 da 3c a0 13 fb 3b 17 e9 42 3d 5a 3d de bc
       0.0267147 0.0076622516 0.047585573 -0.027128864
000240 16 18 1f 3d 73 69 74 bd c5 0a 36 bd e0 48 46 bd
       0.03884133 -0.059670877 -0.044443864 -0.048409343
000250 02 a1 d0 3c c5 82 b1 bb 4b a3 20 bd 5e 87 e5 bc
       0.0254674 -0.0054172003 -0.03921823 -0.02801865
000260 b0 27 86 bc a3 56 34 3d 34 93 a6 bd 4e 67 c0 3c
       -0.016376346 0.044027936 -0.081335455 0.02348676
000270 de 79 24 bd 7f 81 02 bd 5e 68 23 3c 99 1c 7b 3d
       -0.040155284 -0.03186178 0.009973614 0.06130657
000280 a6 46 88 b9 69 17 2d 3c 38 f5 8e bc b4 9e 45 3d
       -0.0002599258 0.010564663 -0.017450914 0.048247054
000290 4b 0c c0 bc 35 15 35 3d 2c 6f e4 3c b8 07 13 bd
       -0.023443362 0.044209678 0.027885042 -0.035896033
0002a0 2f bc 03 3d e9 1a c3 bc 16 13 87 3b 00 5b 1f 3b
       0.032161888 -0.023816543 0.0041221483 0.0024315715
0002b0 41 f5 4e bd 9b da 0a 3b 88 52 97 3d 84 2e 10 bd
       -0.05052686 0.0021187428 0.073887885 -0.03520061
0002c0 70 e6 6c bd b8 a1 cf bb dc a8 63 bd 17 d4 a4 3b
       -0.05783695 -0.006336417 -0.05558096 0.005030166
0002d0 f6 71 74 3c e8 82 fa 3c fd f1 3b 3d c0 0b 6e 3d
       0.0149197485 0.03058 0.045885075 0.058116674
0002e0 e0 00 46 3b f8 ec e6 3b 32 1b c0 3b 13 0f 15 3d
       0.0030212924 0.007047292 0.005862617 0.03639133
0002f0 c9 46 31 bd 7f 41 8f 3b 25 6f bf bc af a8 6c 3d
       -0.043280397 0.0043718214 -0.023368428 0.057778057
000300 17 04 2b 3d c5 61 11 3d 97 b5 1c bd 16 ee 1e bd
       0.041751947 0.03549363 -0.038259115 -0.038801275
000310 ca 0b d9 bc 71 a6 4e bd d1 c7 61 bb 27 31 8e 3c
       -0.02649488 -0.0504517 -0.0034451375 0.017357422
000320 af a6 33 3d fc fe 72 3b bd cc 8b bd 7a 7c 4a 3c
       0.043860134 0.0037078252 -0.0682616 0.012358779
000330 64 98 43 bd f9 0e 2c 3d e8 15 94 3d e1 65 d9 3c
       -0.047752753 0.042006467 0.07230741 0.026537837
000340 8c f1 17 3d 70 68 c6 3c 0d 23 cf 3c e1 96 20 bd
       0.03709559 0.024219722 0.025285268 -0.03920639
000350 d1 2e 37 bd 45 54 47 bd e9 27 17 bc 87 ee dd bc
       -0.044722382 -0.04866435 -0.009225824 -0.027091278
000360 02 d9 d4 bc e2 8c 75 3d c1 07 28 3d 4b b0 2f bd
       -0.025982384 0.05994881 0.04102302 -0.042892735
000370 04 a9 c6 bb 7d 5c e8 3c fd 79 31 3d 27 56 3e bc
       -0.0060626287 0.028364414 0.043329228 -0.01161722
000380 49 1a 64 bd 0b c3 d1 bc 4e f6 24 3d 99 b7 e5 bb
       -0.05568913 -0.025605699 0.040273957 -0.007010412
000390 a2 1c 98 3c 1d d0 28 3d 89 5b 39 3c cc 70 bb 3c
       0.01856834 0.041214097 0.011313328 0.022880934
0003a0 f5 ae 47 3d c5 fb 9d 3d cf 7d 86 3b d6 0d cf 3c
       0.048750836 0.07714037 0.004104353 0.025275152
0003b0 5f bf d1 3c 3d 4b e7 3c 0a 14 81 bd e4 f4 9a bc
       0.025603948 0.028234119 -0.0630265 -0.018915601
0003c0 6c cd bd 3c 70 17 9b 3a 3d b7 e8 3c 48 d2 af 3c
       0.023169242 0.0011832546 0.028407687 0.021462575
0003d0 3a 2a b7 bc db 43 72 3c e3 a8 60 3d 1d f7 56 3d
       -0.022359002 0.014786686 0.054848563 0.05248176
0003e0 ea a0 9f 3c 30 a9 b5 3b df 76 cb bb 38 98 60 bd
       0.01948591 0.0055438504 -0.006209239 -0.054832667
0003f0 00 7a a5 3d 5d da 0b 3d 76 28 15 3c af 08 b2 3c
       0.0807991 0.034143794 0.009103885 0.021732656

net.2.bias f4 [256]
000000 81 79 5d 3d 4b 0c 2b bd 5e aa 59 bd 3d ed cc 3c
       0.054070953 -0.04175977 -0.05314099 0.025015468
000010 e5 1a 46 bc 0b 14 c6 bd dd 49 0f bd 06 0f c5 bd
       -0.012091373 -0.09671792 -0.03498255 -0.09622006
000020 1a b3 bf 3c 1b 4b a3 bc 4a 4d 58 bd 66 91 51 bd
       0.023400832 -0.019933274 -0.052808084 -0.051164053
000030 c4 32 f9 3b ef 89 2e 3c 2a c3 6d bd a3 6b b5 bc
       0.0076049287 0.010653003 -0.05804745 -0.022146052
000040 4c 80 98 3c a2 33 92 bb b0 dd 79 bd a6 5f 97 bd
       0.018615864 -0.0044617215 -0.061002433 -0.0739129
000050 1e 76 47 bd 42 91 f4 3c 6e 1e e4 bc a7 98 0f be
       -0.04869663 0.02985442 -0.027846541 -0.14023076
000060 83 a5 30 bd da d2 42 bd 4e 4f a7 bd 37 13 9a 3a
       -0.043126594 -0.047564365 -0.08169423 0.0011754994
000070 87 9e 3b 3d 84 00 1f bd 65 dc 80 3c 21 49 27 bd
       0.04580548 -0.03881885 0.015730092 -0.040841226
000080 f3 da a0 bd 38 69 85 bc e8 0a 11 bd 43 23 dd 3c
       -0.07854261 -0.016285524 -0.03541079 0.026994353
000090 c1 07 55 bc e6 49 08 3a 75 40 1a bc 97 90 68 bc
       -0.013002337 0.0005199 -0.009414782 -0.014194629
0000a0 78 73 41 bd 5b d5 93 bd 5a 7f 81 3b c2 a9 e6 bd
       -0.04722926 -0.07218429 0.003951949 -0.112628475
0000b0 c4 01 a7 bc 12 74 ad bb 15 13 73 bd eb b6 23 bc
       -0.020386584 -0.0052933777 -0.05934437 -0.0099923415
0000c0 17 ea 9c bd 12 ef 12 bc 68 50 c9 3c 74 fb c0 bd
       -0.076618366 -0.008968132 0.024574474 -0.09422961
0000d0 55 df 3e bd 19 c6 e3 bd 52 53 b3 bd 89 08 de 3c
       -0.046599705 -0.111217685 -0.087561265 0.02710368
0000e0 98 f4 9c bd 71 cc 50 bd a1 ce 8f 3c a3 9a 03 bc
       -0.0766384 -0.05097622 0.017554583 -0.008032474
0000f0 d1 c0 5f 3d 06 6a ad bd 7f ef 7a bd f0 3b f2 bd
       0.054627243 -0.08467488 -0.061263558 -0.118278384
000100 99 ec bc bc f8 7d cf 3a 81 38 c2 3b 3d 8a 20 3c
       -0.023062037 0.0015830388 0.005927146 0.009798584
000110 43 73 51 bd 63 6d 98 3c 4c 1f 0f bc 66 26 8f bc
       -0.051135313 0.018606847 -0.008735489 -0.017474364
000120 e0 21 02 bc 51 de 70 bc ec a5 e6 bc 60 7b 5d bd
       -0.007942647 -0.014701442 -0.02815529 -0.054072738
000130 3b 6d cf bd f5 a5 47 3d e5 90 d5 bb c5 8e 93 bc
       -0.10128256 0.048742253 -0.006517517 -0.018012414
000140 1a cb cd bd 49 80 ba bb ea ad d7 bd da 24 52 3c
       -0.10048504 -0.0056915623 -0.10531218 0.012826169
000150 5e e2 43 bd e6 5b 22 bc 48 1d 7a bc ba 32 74 bc
       -0.047823302 -0.009909606 -0.01526577 -0.014904672
000160 e6 fe fb bd a5 dc d1 bd 0d 09 c3 bd 69 7e 55 bd
       -0.123044774 -0.10247163 -0.09523211 -0.052122507
000170 35 81 6b bd cd e7 a4 3d d9 bd 9d bd 2c 34 32 3d
       -0.05749627 0.08052025 -0.07702226 0.043506786
000180 28 5a bd bc 1b 9f cb 3c 7a 69 fa 3b c9 53 b1 bd
       -0.023114279 0.02485614 0.0076419683 -0.08658559
000190 6b 59 e7 bc 0c e8 0f bd c9 1a 8a bc 6b ec 9f bb
       -0.02824088 -0.035133407 -0.016858475 -0.004880478
0001a0 b7 af 03 bd a4 d9 62 bd 98 b2 e8 bb 09 ab 98 bd
       -0.032149997 -0.05538334 -0.007101368 -0.07454497
0001b0 f2 50 06 be 6d 79 c4 bc 6b ca 27 bd 6a 16 3c bd
       -0.13116816 -0.023983682 -0.040964525 -0.045919813
0001c0 83 d3 df bc 92 3a b5 bd 9f eb f8 bc 9a 0d 14 bd
       -0.027322536 -0.08849062 -0.03038579 -0.036145784
0001d0 1b 4a dd 3c ff d1 f3 bd 67 98 d2 3b 29 6c 0d 3d
       0.027012875 -0.11905288 0.006426859 0.034526978
0001e0 7a a6 98 3b 56 bd bf bc 30 b6 82 bd 99 9c 20 bb
       0.0046585174 -0.023405712 -0.06382406 -0.0024507402
0001f0 c0 7d 04 3d f2 cd c0 3c 0b c8 8a bd bd a3 a9 bd
       0.032346487 0.023535702 -0.067764364 -0.08283184
000200 40 85 39 3b 25 a9 87 3c 6b 76 bb bd 91 ad f4 bc
       0.0028308183 0.016560147 -0.09153446 -0.02986792
000210 ae 3c a6 bd 33 55 2f bd 74 07 3a bd 04 7b c6 3c
       -0.081170425 -0.04280586 -0.045417264 0.02422858
000220 31 26 b8 bd e1 a6 b6 bc 91 3a 62 bc 11 ad 5b 3d
       -0.089916594 -0.022296371 -0.013807909 0.053631846
000230 0b 5d bb 3d b0 eb bd bc df 7c 87 3d 28 91 0a 3d
       0.09148606 -0.023183674 0.06615614 0.033829838
000240 71 16 58 3d 0d d6 8d bd 64 ed 42 be 96 33 4c 3d
       0.052755777 -0.069255926 -0.1903587 0.049853884
000250 b3 e4 6b bb 6c b3 a5 3a 4d 7c 6a bd dd e9 4b bd
       -0.003599447 0.0012641973 -0.05724745 -0.049783576
000260 b8 a4 96 bc 35 a0 b1 bc 98 e4 73 3c 5d 98 06 bd
       -0.01838909 -0.021682838 0.014886044 -0.03286015
000270 28 37 a6 bd f5 62 9c bd 91 fd 9d bd 52 2e 2c 3d
       -0.08115989 -0.07636062 -0.077143796 0.042036362
000280 10 32 48 3d 26 0a 5f 3d 8f aa 6a 3d 57 2f ab bd
       0.04887587 0.054453038 0.057291564 -0.08358639
000290 9e e4 4b bd d1 f7 82 3c b9 9b ce bd 93 d5 25 bd
       -0.049778573 0.015987309 -0.100882955 -0.040486883
0002a0 b1 89 6c 3d 5d 99 1d bd 2d fb 97 bc ad d7 11 bd
       0.0577485 -0.038476337 -0.018552387 -0.035606075
0002b0 53 8d d1 3c 58 15 aa bd 20 d8 8b 3c a5 79 f8 bd
       0.025580084 -0.08304852 0.01707083 -0.12132577
0002c0 40 b7 b0 bc ad c4 b1 bd 1c 4d 28 bc e6 62 03 bc
       -0.021571755 -0.08680091 -0.010272291 -0.008019185
0002d0 e9 8f a5 bc 31 33 b1 bd 62 bc 17 3c f2 00 a9 bc
       -0.020210223 -0.08652342 0.009261223 -0.020630334
0002e0 9b 28 ab bd fd af 0f bd c0 87 98 bd 68 c1 dc bd
       -0.08357354 -0.035079945 -0.07447767 -0.10779077
0002f0 09 6c 9d 3a 0b a4 43 bd 76 ae 83 3c e1 5e 0c 3d
       0.0012010346 -0.047763865 0.0160744 0.03427017
000300 66 6c 28 bb 12 37 34 3d 4c c3 13 bd 8e 74 cd bb
       -0.0025699376 0.04399783 -0.03607492 -0.006269998
000310 8a 81 58 3c 42 3a 25 bd ef 3e dd 3c 36 87 a2 bd
       0.013214478 -0.040338762 0.027007548 -0.07935946
000320 31 df 0b bd 13 99 95 bd 79 41 8d bc 49 33 77 bd
       -0.0341484 -0.07304587 -0.017243134 -0.060351644
000330 c2 ee 12 3d 46 3b a5 bc d5 75 81 bd 6c ce f8 bc
       0.03587223 -0.020169865 -0.06321303 -0.030371867
000340 ba be 5a bc 1c 51 81 3d 2a e6 01 be b1 06 0f 3c
       -0.013351137 0.063142985 -0.12685457 0.008729623
000350 d6 21 e5 bd 91 8e 4b bc a4 15 18 3d 77 84 00 bd
       -0.11188094 -0.012424127 0.037130013 -0.03137633
000360 8e 57 da bd 87 ca 71 bc 43 b4 ea bd 5e 64 10 3c
       -0.10661231 -0.014757759 -0.114601634 0.008812992
000370 e4 c5 ab 3c 22 2f 2f 3d 4c 61 1f 3d ea fe 82 3c
       0.020968385 0.04276956 0.03891115 0.015990693
000380 24 a5 ef bc 3f 45 02 3d 6a b3 2b 3d 35 2d 55 3d
       -0.02925355 0.03180432 0.04191915 0.052045066
000390 27 47 86 bd d4 c8 a0 bd 84 ee 2d bd 3b 05 7d bd
       -0.0655654 -0.07850805 -0.042463794 -0.061772566
0003a0 ee b2 dc bd d4 5e 28 bd fb 09 b3 bd 8d 68 c0 bc
       -0.10776316 -0.04110606 -0.08742138 -0.023487354
0003b0 80 87 97 bc 03 d2 53 bd 4b 13 86 bd 94 52 23 bb
       -0.018497229 -0.051713955 -0.065466486 -0.0024921047
0003c0 13 3c 26 bc 05 3a 23 bd 18 6c 38 bd c7 5c 6d 3d
       -0.010146159 -0.039850254 -0.04502496 0.057949807
0003d0 83 27 99 3b e1 9d f1 bd 2b 4a df 3c 96 61 64 3b
       0.0046738996 -0.11797691 0.027257046 0.0034848205
0003e0 9e 4d 02 bd a4 5f 86 3b 4b b6 a4 bd 27 11 fb bc
       -0.031812303 0.0041007567 -0.08042582 -0.030647827
0003f0 61 31 72 bd aa 0f dd b9 d9 99 30 3c 94 f2 89 bb
       -0.059129123 -0.00042164075 0.010778868 -0.004209826

net.4.weight f4 [256, 256]
000000 6e 27 34 3d 83 5c 33 bd 0e 4d 36 bd 1c 06 5c bd
       0.043982916 -0.043789398 -0.04450708 -0.053716764
000010 de 00 7a bc 61 f3 c8 3c fe 51 4e 3d 65 93 1e 3c
       -0.015258996 0.024530115 0.050371163 0.009678696
000020 fd 17 3e 3d f9 64 36 3d 83 c3 29 bd f9 73 40 3c
       0.046409596 0.04452989 -0.04144622 0.0117464
000030 b4 8f 40 bd 14 4c 8e bc 60 ec ec bc ec 58 23 3c
       -0.047012046 -0.017370261 -0.028921306 0.009969931
000040 b4 ae c3 3c 55 29 6f 3c 6b 3a 41 3d 71 3c 60 bc
       0.023887016 0.014597257 0.047174852 -0.013686285
000050 3c 07 44 bd 85 ef bb 3c eb 41 31 bd a6 05 fc bb
       -0.04785846 0.02294136 -0.043275755 -0.007691103
000060 00 31 69 3c f9 48 88 3c c0 f3 0c bb 49 f1 16 3d
       0.014232874 0.016636359 -0.002150759 0.0368512
000070 ad 5e 3d 3c a4 44 99 bd c1 53 83 3d 60 94 b2 bc
       0.011558217 -0.07483795 0.06412459 -0.021799266
000080 66 08 45 bd ec e5 be bb a1 15 5e bd bc f1 27 3c
       -0.048103712 -0.0058257487 -0.054219846 0.010250505
000090 b4 37 b3 3b 0c 79 75 bd da 01 0e 3b 8f d4 05 3d
       0.005469287 -0.059929892 0.0021668584 0.032673415
0000a0 8e 3b fe 3c f2 b0 7e 3d 45 46 66 bd 0d 7e 93 bd
       0.031034257 0.062180467 -0.056219358 -0.07201777
0000b0 26 73 17 bd bd 3e 8d bc d3 79 1c bd 8b 8d a9 bc
       -0.03697505 -0.01724183 -0.038202118 -0.020697376
0000c0 28 8d 03 3d 78 c7 24 3d ad a3 09 3d 8f ff 5d bd
       0.03211704 0.04022929 0.03360336 -0.054198798
0000d0 da eb 10 3b ca 71 b9 bc b7 a2 0e 3d 34 83 b5 bc
       0.0022113235 -0.022637267 0.034823146 -0.02215729
0000e0 74 3e 23 3d b6 6d d3 bc f0 ee 21 bd 4b 7e 54 3c
       0.03985448 -0.02580915 -0.03953451 0.012969564
0000f0 9c 78 a2 3c b2 64 de 3c 00 8f b7 bb e8 ad 35 3d
       0.019832902 0.027147625 -0.0056017637 0.044355303
000100 e2 88 ed bc ed 6d 5a bd 7a 7e d9 bb a5 76 50 3c
       -0.028995935 -0.05332749 -0.0066373916 0.0127236
000110 2b fc 27 bc 4a 9a 1b 3d 8d 62 f8 bb d4 38 1c 3c
       -0.010252993 0.03798894 -0.0075801075 0.009535033
000120 a3 e2 83 3d 6a 9b 60 bd 96 b9 eb 3b 1e da 35 bd
       0.06439712 -0.054835714 0.0071937544 -0.044397466
000130 1d 1a 9d bd ea 9b 60 3d 59 93 1c 3d a5 4e ed 3c
       -0.07670996 0.05483619 0.03822646 0.028968165
000140 c8 54 42 bd 48 57 c9 bc 48 fe 08 3d ab 78 ba bc
       -0.047444135 -0.024577752 0.033445626 -0.022762617
000150 3e 54 71 bd ed 09 16 bd f2 80 63 3d 87 03 3a bd
       -0.05891823 -0.03663056 0.055542894 -0.04541352
000160 d0 41 2a 3d 9f 77 01 3d ac 9a 66 bd f1 92 86 3d
       0.04156667 0.03160822 -0.05629985 0.065709956
000170 15 54 28 bc b3 2b 96 3c 25 4b 71 bd 72 d4 b3 bc
       -0.010273953 0.018331384 -0.058909554 -0.021951888
000180 88 1c b7 3c 44 57 2a bd eb 25 31 bd 4e 92 a3 bc
       0.022352472 -0.04158713 -0.043249052 -0.019967224
000190 6f da c2 3b 2e 53 3b bd a6 24 4e 3d b5 84 19 ba
       0.0059464495 -0.045733623 0.05032792 -0.00058562617
0001a0 ee e3 57 3a 0a 9d f1 3c 0d 81 a9 bb fd 45 5f 3b
       0.00082355633 0.029493827 -0.0051728548 0.0034068816
0001b0 bd 67 91 bd 98 fa 63 3d f9 a1 d5 bc 09 93 56 3c
       -0.07099865 0.055658907 -0.026078211 0.013096579
0001c0 22 06 de bc 7e 1e 55 bd fb 4d 5f 3d 3c 2a c2 bc
       -0.027102534 -0.052031033 0.054517727 -0.02370178
0001d0 f3 71 05 3d 60 2c 17 3d e3 f6 65 3d 64 9d 2d 3c
       0.032579374 0.036907554 0.056143653 0.010596607
0001e0 c2 d1 22 3d 18 52 55 3c ba f5 77 bd 47 96 a2 3c
       0.039750822 0.013020061 -0.060537077 0.019847048
0001f0 8c 35 40 bd 7a 23 c0 3c 4f b2 20 3b fe 17 9a 3c
       -0.046926066 0.023454417 0.0024520343 0.018810268
000200 5e 6e d9 bc fb f3 1d bd 31 62 ee bc 0c 63 09 bd
       -0.026541885 -0.038562756 -0.029099556 -0.033541724
000210 df 64 02 bc 40 5a 1f bc 2f cf 2b 3d f5 91 98 bb
       -0.00795862 -0.009726107 0.041945633 -0.0046560713
000220 11 2d 09 bd 55 c0 c5 3b 0f f4 49 bd e7 46 2e bd
       -0.033490244 0.0060348907 -0.049305018 -0.042548086
000230 bf 87 43 bd c3 6c ee bb d3 5d 5c bd df 7e e2 bc
       -0.04773688 -0.007276149 -0.053800415 -0.027648387
000240 ae d2 c6 bc 26 4e 46 bc 7a c2 fb bc 32 28 a8 ba
       -0.024270382 -0.012103593 -0.030732382 -0.0012829362
000250 8a 87 82 bd 44 61 e0 3b 42 b9 bb 3c 9c aa a0 3c
       -0.06373508 0.0068475325 0.022915486 0.019612603
000260 b2 3a 95 bc 3c 6a cb bc eb 7c 90 bc 91 c1 d7 3c
       -0.018216465 -0.02483093 -0.01763769 0.026337417
000270 21 6e a1 3c ff ed 50 bc ca a0 18 bd 33 6c 7c bc
       0.019705834 -0.012752055 -0.037262715 -0.015406656
000280 7b ad d9 3b 8f 0b 97 bb 4b d9 ce 3c d8 5b 4e bd
       0.006642995 -0.004609532 0.025250098 -0.050380558
000290 99 81 ff bc 78 ad 30 3d 33 49 88 bd ef dd c9 3b
       -0.031189727 0.043134183 -0.06654587 0.0061604897
0002a0 23 9a 65 3d 3b 07 aa bb 11 5d 8f bd 9d ae 42 3c
       0.0560552 -0.00518885 -0.07000173 0.011882451
0002b0 65 ee a9 bc b5 5d cb 3c 05 61 6d bb 57 68 b4 bc
       -0.020743558 0.024824956 -0.0036221158 -0.02202241
0002c0 9d cc 30 3d 67 32 0e bd 90 24 40 bd c5 ab 36 bc
       0.043163884 -0.034716036 -0.04690987 -0.0111493515
0002d0 ab 14 5b bd 6b ca 90 bd b2 02 3d bd d5 b6 e9 bc
       -0.053486507 -0.07069858 -0.04614515 -0.028529564
0002e0 5e 7e 44 bd e7 87 29 bd d9 a0 3e 3d 69 5d b8 bc
       -0.047972076 -0.041389372 0.046540115 -0.022505479
0002f0 3b 31 2a 3c 3d 1e e7 bc 14 1c e3 bc 2e 8c fd bc
       0.010387714 -0.02821266 -0.02772335 -0.030950632
000300 f6 4d 14 bd 9c 67 05 bd 58 8e 93 bd 3c 16 77 3d
       -0.03620716 -0.032569513 -0.07204884 0.06032394
000310 21 41 f3 bc 6d c9 d8 3c c4 cb 34 3d ad d7 41 3a
       -0.029694142 0.026463235 0.04413964 0.0007394504
000320 72 63 95 3d 2a 44 f0 bb fe 58 17 3c 6d 85 d6 3c
       0.07294358 -0.0073323445 0.009237526 0.02618667
000330 9b c2 02 3c 75 18 43 3d 01 b5 a1 3b aa f7 7e 3c
       0.007980968 0.047630746 0.0049349074 0.015561977
000340 e8 5a 2e 3d ef c5 87 bc 30 f5 3b bd 04 55 79 3d
       0.042567164 -0.016573874 -0.045888126 0.060872093
000350 77 66 28 bb e3 9b 67 3d 73 a7 66 3c df f1 65 bd
       -0.002569584 0.05654515 0.014078009 -0.05613887
000360 37 e0 50 3d be 14 13 bd 6b e5 eb bb 8b e2 2b bd
       0.050995078 -0.035908453 -0.0071989796 -0.041964095
000370 c6 86 99 3c 78 f4 20 3d 29 e8 2c 3c 80 cd f2 bc
       0.018741023 0.039295644 0.010553398 -0.029639006
000380 7e 21 5e 3c ef 9a 15 3b 2b a0 3a 3d 52 48 83 3d
       0.01355779 0.0022827943 0.045562904 0.064102784
000390 05 f1 a1 bd a0 d4 b1 3c 5b ba 06 3d c0 c9 23 bd
       -0.07907299 0.021707833 0.032892566 -0.039987326
0003a0 f1 ff 67 3a 1c 19 40 bb db 2f 7c bd 7f 26 75 bd
       0.0008850089 -0.0029311841 -0.061569076 -0.059851166
0003b0 0e ba 1f 3b 9d d4 85 bc 2d cc 5b 3c 75 c7 fc bb
       0.0024372372 -0.016336733 0.0134153785 -0.007714207
0003c0 34 d0 8c bc b4 2e 0d bd 31 91 60 3c 45 fe 8b 3c
       -0.017189123 -0.034468368 0.013706491 0.017089019
0003d0 fc 20 21 3d 4b 1d 09 3a ea f5 69 bd d5 94 16 3d
       0.039338097 0.00052305 -0.057119288 0.03676303
0003e0 b9 4c 55 3d e1 02 39 bb 72 c6 02 3d 7c d5 d5 bb
       0.05207512 -0.0028230476 0.031927533 -0.0065256935
0003f0 77 9e 29 bc f5 4d 1d 3c 56 51 74 3d c6 7b b5 bc
       -0.010352722 0.009601106 0.05964788 -0.022153746

net.4.bias f4 [256]
000000 45 c7 16 bd e6 e0 eb bc bd aa 17 bd 6d 36 5a bd
       -0.036811132 -0.028793763 -0.037028063 -0.05327456
000010 1a 72 dc bc d8 9a 58 3d 22 9e a4 bd 0c f0 5d 3c
       -0.026909877 0.052882046 -0.08037974 0.013546001
000020 1e 1d 2d bd fa 24 17 3d a3 aa 60 bd 96 25 b0 3c
       -0.042264096 0.036900498 -0.05485023 0.021502297
000030 5c c0 ed 3c 9d df aa 3c 98 a9 42 3d 13 69 4c 3d
       0.029022388 0.02085858 0.04752502 0.049904894
000040 4b 97 69 bd b8 dd bd 3c 63 d8 3c 3d dd 31 01 bd
       -0.05702905 0.023177013 0.0461048 -0.031541694
000050 40 ce be bc 6c 96 08 3c 31 7f 76 bc ee c7 82 3d
       -0.023291707 0.008336645 -0.015044973 0.0638579
000060 af 8d 75 3c c6 c9 a1 bd f3 da 1a 3c 50 19 51 3d
       0.014987393 -0.07899813 0.009451616 0.05104953
000070 cf 3a 30 bd 7c 55 90 3d b1 40 17 3d 1d 8d 0b 3d
       -0.043024834 0.07047555 0.03692693 0.034070123
000080 de 3f 4f 3d 93 2f 54 3c 2a 8a af bd 8c 8f 50 3c
       0.050598018 0.012950796 -0.085712746 0.012729537
000090 b2 ef ac 3c a6 2e cc 3c ad e2 24 3d cf 9c 00 bc
       0.02111039 0.024924587 0.040255237 -0.007849886
0000a0 c1 a3 15 3c a0 c9 66 bd df bd a5 3d 5d a3 51 bc
       0.00913328 -0.05634463 0.08092856 -0.0127952965
0000b0 0f 05 78 bd 99 35 80 bd b6 90 14 bd 3b a2 27 bc
       -0.0605517 -0.06260223 -0.03627082 -0.01023155
0000c0 a5 a0 7f bd 77 ef 0f 3d 51 f8 81 bd 44 4b 29 bc
       -0.062409062 0.03514048 -0.06346191 -0.010332886
0000d0 ed bc f4 bc e3 d1 9d bb b6 ad aa bd 47 67 58 3d
       -0.029875243 -0.00481628 -0.08333914 0.052832868
0000e0 04 3b 2f bd 60 83 d8 3c c8 3a 09 3d 4a e0 46 3d
       -0.04278089 0.026429832 0.033503324 0.048553742
0000f0 25 c3 51 3c 65 10 23 bc cc f2 3a 3b 6e 6c 99 3d
       0.012802874 -0.009952639 0.0028526066 0.074913844
000100 80 28 8a 3d 10 eb 30 3d fe 0c 81 3c 61 4c 27 3d
       0.06746006 0.043192923 0.015753265 0.040844325
000110 90 16 2f 3d 3d 89 f3 3b 58 89 6e bd 10 b0 19 bd
       0.042746127 0.0074321316 -0.05823645 -0.037521422
000120 17 cb 0d 3d 9e 82 79 3d 1c cc 97 bc 42 39 3e 3d
       0.03461751 0.060915582 -0.018529944 0.046441324
000130 96 dd 11 bd 16 3c 26 bd a1 53 f0 bb b6 cf d0 3b
       -0.03561171 -0.040584646 -0.007334188 0.0063724173
000140 e8 43 fb bb 55 e4 42 bc 34 f5 3a 3c e3 a1 43 3b
       -0.007668007 -0.011895259 0.011411 0.002985113
000150 97 a4 08 bd 10 28 d2 bd 5f 86 74 bd 04 90 a0 3c
       -0.03336009 -0.102615476 -0.05969846 0.019599922
000160 a6 96 12 bd 19 6d 8f bc af 37 36 3d e6 91 12 bd
       -0.0357882 -0.017508077 0.044486698 -0.03578367
000170 e5 59 46 bd 5c b9 8c bc a7 35 93 bc e0 51 00 3d
       -0.048425574 -0.01717823 -0.01796992 0.031328082
000180 5e f5 12 3d 10 3a 75 3c 38 70 97 bc 31 14 05 bc
       0.03587853 0.014967456 -0.018486127 -0.00812249
000190 f5 e9 0d bc b7 f0 25 3d e6 c7 75 3d 93 76 b7 3b
       -0.008661737 0.040512767 0.06000509 0.005598852
0001a0 9f 06 42 3b 27 24 db 3b 37 2d a5 bc 5b dd 9a bc
       0.0029605997 0.0066876593 -0.020163162 -0.018904379
0001b0 ec 77 a2 ba d4 e4 79 3d 51 99 ee bc f5 0a 99 bc
       -0.0012395359 0.061009243 -0.029125841 -0.018681983
0001c0 cf 36 3e bd 4d 26 d8 bc cd 8e 14 bd ea 61 93 bc
       -0.04643899 -0.02638545 -0.036268998 -0.017991025
0001d0 71 38 c1 3c a7 3f 92 3d 87 c4 8d 3d 8e 55 c2 3a
       0.023586484 0.07141047 0.0692225 0.0014826523
0001e0 0e 1c a7 3c a8 05 a1 bd f9 a7 56 3d 8e 48 7b bb
       0.02039912 -0.07862407 0.052406285 -0.0038342807
0001f0 87 57 f1 bc 86 a9 93 bd d0 56 11 bd db dc c6 bc
       -0.029460682 -0.072100684 -0.03548318 -0.024275234
000200 40 9e 12 bd cd 78 89 bd c3 97 72 bc 63 7a ac 3c
       -0.03579545 -0.06712494 -0.014806691 0.021054452
000210 ff 58 0f bd b8 c1 25 bc 3a dd 34 bc 57 b5 0a bb
       -0.034996983 -0.010116987 -0.011039073 -0.0021165216
000220 c3 46 c6 bc 1f ef 7e bd 6a 42 03 bc 01 3e 99 bc
       -0.024203664 -0.062239762 -0.00801144 -0.018706324
000230 66 c6 0f 3d 66 8b dd 3c c0 0d 17 b9 6b 08 00 3c
       0.035101317 0.02704401 -0.00014405604 0.007814507
000240 97 54 8f bd 3e 02 0d 3d b3 77 01 bd cd c0 19 bd
       -0.06998556 0.034425966 -0.031608295 -0.037537385
000250 da f5 8b bd dd cd d5 3c 63 6c 13 3c 0f 4c a8 3d
       -0.06834002 0.02609914 0.008998009 0.08217632
000260 c3 55 5a bd 16 91 95 bd 17 a1 84 bd b9 30 92 bd
       -0.053304445 -0.073030636 -0.06476038 -0.07138199
000270 4b f6 36 bd 05 59 b2 ba 22 e1 46 3c b5 64 84 bd
       -0.044668477 -0.0013606852 0.012138637 -0.06464521
000280 73 52 2e 3d f7 fb f2 3c 2f 12 44 3c 48 20 16 3c
       0.0425591 0.029661162 0.011967226 0.00916297
000290 1c 45 f7 3c 5a 27 96 bd d1 be 8f 3d 20 f0 37 bc
       0.030184321 -0.073317245 0.07018817 -0.011226684
0002a0 3b 15 4b bd 51 9d 4f 3d 98 2c e3 3c f1 5c b5 bd
       -0.049580794 0.050687138 0.027731225 -0.08855618
0002b0 7c c3 28 bd a8 ae f4 3b 83 cd 90 bd 66 93 04 3c
       -0.041202053 0.0074671097 -0.07070448 0.008091783
0002c0 c7 8c 85 3d 9a a7 cc bc 91 35 86 3b 5d 19 0c 3d
       0.06520992 -0.024982262 0.004095741 0.034203876
0002d0 2d ba 1d bd ee 9b 3d bd ae ed a2 3c 1e 86 3f bd
       -0.03850763 -0.046291284 0.019888725 -0.046758763
0002e0 d0 16 23 bc 4b 68 56 bd e5 b9 1b bd 90 18 fe bc
       -0.009954169 -0.052345555 -0.03801908 -0.031017572
0002f0 c8 f3 ee bc e1 c7 17 3d e6 87 42 3d 94 bb d8 3a
       -0.029168978 0.037055854 0.047492884 0.0016535395
000300 98 ef 0f bd 29 2c e9 bc 79 52 ad 3c e2 26 39 3c
       -0.035140604 -0.02846344 0.02115749 0.011300774
000310 c0 92 e4 bc ef 57 87 bc d4 f8 a4 3d 2a ed 2b 3c
       -0.027902007 -0.016521422 0.08055273 0.010493556
000320 28 13 65 3b 5f c2 6b bc 4e 91 86 bd d8 5c f0 3c
       0.0034954045 -0.014389603 -0.065706834 0.029341146
000330 d7 2f 25 bd e2 fd 9e bc a4 cc 5d bc 50 bc cc bc
       -0.040328827 -0.01940817 -0.01353756 -0.024992138
000340 d7 c5 9d bc 1e 21 57 bd 87 44 40 3d 78 ef c7 bc
       -0.019259376 -0.052521817 0.046940353 -0.02440618
000350 af 65 61 bd e6 c1 c9 bb 65 0d c7 bc ea cd 26 bd
       -0.055028614 -0.0061571477 -0.02429838 -0.04072372
000360 b3 61 b7 3c 38 a9 0f 3d 43 30 2d bd d1 67 6e bc
       0.022385454 0.03507349 -0.042282354 -0.014551119
000370 ff 8e 8b bd 22 02 43 bd f0 39 61 3d 37 1c a6 bc
       -0.06814384 -0.047609456 0.054986894 -0.020277126
000380 c1 d9 39 3d 39 be 47 bc 28 0c 43 3d bb bc 68 bb
       0.045373682 -0.012191349 0.047619015 -0.0035512883
000390 5f 30 1c bd 80 68 92 3c d9 da 45 3c a1 1e 85 3c
       -0.038132068 0.017872095 0.012076103 0.016249957
0003a0 1a 32 1a bd aa 61 2b bd ff 1e 0d 3c ba 2b be 3c
       -0.037645437 -0.041841187 0.008613347 0.02321421
0003b0 01 82 b7 bc bb 2d 6a bd f1 a0 8a 3c 0e 55 91 3c
       -0.022400858 -0.05717252 0.016922446 0.017740753
0003c0 e4 08 e9 bc ed d7 da b9 ad 86 36 3d 56 49 40 3d
       -0.028446622 -0.00041741077 0.04456203 0.04694494
0003d0 a2 80 2e 3d 5a 9f 68 3c 7f 6d f5 bc 01 e5 39 bd
       0.042603143 0.014198149 -0.029959438 -0.04538441
0003e0 22 d7 66 bd d9 88 38 3c 25 da 1a bd f8 62 bc bc
       -0.05635751 0.011263096 -0.037805695 -0.02299641
0003f0 81 70 2c bd 5d cb 78 3d ab ce 9c bd 8b 61 9e bc
       -0.04209948 0.060740817 -0.07656606 -0.019333621

net.6.weight f4 [2, 256]
000000 db 61 16 bd 07 47 82 bd 02 7b 9f 3c ec 78 48 3c
       -0.036714416 -0.06361204 0.019467834 0.012235861
000010 24 7e 38 bd 1c 18 85 bd 10 e6 b5 3c 41 41 26 bd
       -0.045042172 -0.06498739 0.022204429 -0.040589575
000020 80 c4 85 bd 3d 89 61 3d d1 98 19 b9 14 8e 27 3d
       -0.0653162 0.05506252 -0.00014648146 0.04090698
000030 ac 69 6b 3c e8 f4 72 3d d9 cf 5a bd 94 b4 9e bd
       0.014368456 0.059315592 -0.053420875 -0.07749286
000040 08 53 3c 3d 45 f1 5c bc bd c8 6f bd 55 88 0e bd
       0.045977622 -0.0134852575 -0.05854105 -0.034797985
000050 6b 76 c7 bc eb d7 05 bd 8e 1f 31 bd 69 83 3f bd
       -0.024348458 -0.03267662 -0.043242984 -0.046756182
000060 48 46 0f 3d 57 23 9c 3d 77 65 de bb d1 5d dd bc
       0.034979135 0.07623928 -0.006786998 -0.027022274
000070 1d dd 25 3d a7 06 1b bd 78 7b 66 3d 84 0f dc 3c
       0.040494073 -0.03784814 0.056270093 0.026862867
000080 da 7f b9 bc 90 2f 3a bd d6 13 a1 3b 29 c9 fd bc
       -0.022643972 -0.045455515 0.0049156947 -0.03097971
000090 9d 1c bd bc d2 f0 eb 3b a5 ba 24 3d e8 8d 76 3c
       -0.023084933 0.007200339 0.04021706 0.0150484815
0000a0 54 f4 98 3d 91 21 42 3d 37 cb 26 bd fe 18 18 3d
       0.07468477 0.047395293 -0.040721145 0.03713321
0000b0 9d 76 ac 3a ea 7f 03 3d 03 cb b3 bc 1e 7c 8c bc
       0.0013157908 0.03210441 -0.02194739 -0.017149027
0000c0 62 3a b5 3c 9a a3 40 3d 1c 43 e3 b8 46 df 8c 3d
       0.022122566 0.047031023 -0.000108367036 0.068785235
0000d0 b2 73 b2 bc 90 c6 dc 3c 24 2b b9 3c 15 2d b8 3b
       -0.021783683 0.02695015 0.022603579 0.0056206086
0000e0 83 8c 95 bd 12 52 1e bd 3f 56 48 3b e7 db 2a bd
       -0.07302191 -0.038652487 0.0030568985 -0.04171362
0000f0 06 ea c3 3c a5 56 92 bd a8 93 47 3d 7e 13 6a bd
       0.023915302 -0.071454324 0.0487248 -0.057147495
000100 b3 31 42 bd df 5c 0f bd 92 bb 9b bc f0 f8 03 3c
       -0.047410678 -0.03500068 -0.019010339 0.008054957
000110 4c b2 28 3c 85 16 4d 3d 95 65 3c 3d 23 c2 54 bc
       0.010296416 0.050070304 0.045995314 -0.012985739
000120 50 ed 09 3d 60 cb 64 bd 83 e2 b7 3c 67 ed 2c bb
       0.033673584 -0.055858016 0.022446876 -0.002638662
000130 63 fc a0 3d 19 53 92 3b fd 86 5b 3d 59 41 6e bd
       0.07860639 0.0044654724 0.05359553 -0.05816779
000140 e5 c6 8d bd c2 8e 7e bd 79 49 52 3d 54 e9 02 bc
       -0.06922702 -0.062147863 0.0513396 -0.0079902
000150 26 1a 12 bd 33 d9 a7 3b 85 31 51 3d 09 2b d9 bc
       -0.03566947 0.0051223277 0.051072616 -0.026509779
000160 4a f8 8e 3c 66 cc 89 bc 8e b0 94 3d 4e 35 09 3d
       0.017452378 -0.016821098 0.07260238 0.0334981
000170 49 70 2c 3d 34 08 f0 bc 67 f6 bf bc d1 be 92 3b
       0.04209927 -0.029300787 -0.023432923 0.0044783135
000180 e6 bf 8a 3d 95 9e 82 3c 73 c9 92 bb 0b 54 62 bd
       0.06774883 0.015944758 -0.004479581 -0.05525593
000190 94 8d 7f bd 06 2c 0a bd 52 f4 89 bc 2b 34 fd 3c
       -0.06239088 -0.03373339 -0.016840134 0.030908665
0001a0 59 47 36 bb e4 69 52 bd 60 4d 6a 3d 7b ed a9 bc
       -0.0027813523 -0.051370516 0.057202697 -0.020743122
0001b0 ba 1a 3e 3d f8 be 42 bd 2c 2a 26 3d b5 3a 30 3d
       0.046412207 -0.047545403 0.040567562 0.043024737
0001c0 5f 42 09 bd 61 29 8c 3c 1e 95 11 3d aa 81 9f bb
       -0.033510562 0.017109575 0.0355426 -0.004867752
0001d0 82 80 87 bd 82 16 75 bd e3 bd 3c bd b7 3e 12 3d
       -0.06616308 -0.05983592 -0.046079528 0.03570434
0001e0 c2 29 09 3d 7c 16 86 3d 02 9a a9 3c dc 9d 3f bd
       0.03348709 0.06547257 0.02070332 -0.046781406
0001f0 f8 9b 88 3d ce db 89 3d 72 f4 b5 3c b1 80 5c 3d
       0.06670374 0.067313775 0.022211287 0.053833667
000200 cd 4c 3c 3d e6 ac 77 b9 e9 2d 5c bd c1 4b 28 3d
       0.04597168 -0.00023620165 -0.05375472 0.04108787
000210 1c 78 37 bc 5d 05 b2 3c 45 d0 3e 3d ed 78 3a bd
       -0.01119807 0.021731073 0.04658534 -0.04552548
000220 88 d1 31 3c 28 30 30 3d d7 3c 82 bd 1e 80 87 bc
       0.010853179 0.043014675 -0.063592605 -0.016540583
000230 01 a2 88 bd 08 30 b3 ba 7b f9 42 3d cd bd b2 bc
       -0.06671525 -0.0013670931 0.047601204 -0.02181902
000240 90 1b 8d ba 40 97 42 bd ee 2c 61 bd 99 f5 14 3d
       -0.001076566 -0.047507524 -0.05497449 0.036367033
000250 34 74 1f 3d 9b 01 4f 3d f4 de bc bc 7e 09 6f bd
       0.03892918 0.05053864 -0.023055531 -0.05835866
000260 47 3f 42 ba 06 92 94 3d 9f 7c 33 bd b3 97 21 3d
       -0.0007409942 0.07254414 -0.04382002 0.039451312
000270 fb ab 85 3d 2c 82 cd 3c 7f 2b 3b bd e7 5f e0 3c
       0.06526943 0.025086485 -0.045695778 0.02738948
000280 7d 33 e8 3c ce ba 46 bd 4b 2e 35 bd c6 05 8a bd
       0.028344864 -0.048517995 -0.0442336 -0.067393824
000290 55 bd 81 3d 84 d7 fb ba 4d d2 37 bd 8a 2f 38 bc
       0.0633494 -0.0019214009 -0.044878293 -0.011241803
0002a0 54 7c ac 3c da 4b b2 bc 98 c5 09 bd 8f 29 01 3c
       0.021055378 -0.021764684 -0.033635706 0.0078834435
0002b0 63 15 16 3d ae 90 7c ba cb cc bb 3c 98 3b 82 3d
       0.03664149 -0.0009634596 0.022924801 0.06359023
0002c0 f5 df a4 bc 57 ba 18 bd 7a 13 5f bd a5 e3 1d bd
       -0.020126322 -0.037287083 -0.054461934 -0.038547177
0002d0 d7 40 80 3d 8b 75 d2 bb b6 e4 81 3a de 26 14 bc
       0.06262367 -0.0064227036 0.000991008 -0.00904247
0002e0 9a 07 6a bc 4c aa 7f bc 06 d0 3e 3d 22 57 70 bd
       -0.014284039 -0.015604567 0.046585105 -0.058676846
0002f0 0a 5d 6a 3d 6e 98 7c 3d 15 98 3e bd 69 4d 65 bd
       0.057217635 0.061668806 -0.046531755 -0.055982027
000300 78 6d 1b bc 6f ed 30 bd b4 e8 41 bd 2b bd df bc
       -0.009486549 -0.043195184 -0.047341064 -0.027311882
000310 2b 7a a1 3c c8 1f 8d 3d c0 e9 03 bd 90 32 44 3d
       0.019711575 0.068908274 -0.032205343 0.047899783
000320 3b 61 52 3c e8 6a 89 bd 43 32 99 3d bd 73 06 bd
       0.012840564 -0.06709844 0.0748029 -0.03282522
000330 b6 28 50 bd b6 40 9e 3d aa c9 2d 3d d1 4f 0e bc
       -0.050820075 0.077271864 0.04242865 -0.008686022
000340 64 77 49 bd 25 11 72 3b 26 88 c3 bc 41 0e 67 3b
       -0.049186125 0.0036936488 -0.023868632 0.0035256299
000350 64 72 a3 3c fc a9 a5 3d 15 49 77 bd 23 97 6f bd
       0.019952007 0.080890626 -0.06037243 -0.058493745
000360 58 4d 15 3d 03 f3 29 bd fc d4 04 bd ca 00 59 bc
       0.036450714 -0.04149152 -0.03242968 -0.013244817
000370 3d 21 9e 3d 16 b0 ff 3c c4 3e aa bc c5 39 5e bd
       0.077211834 0.031211894 -0.020781882 -0.054254312
000380 ed 7a a5 bc 1e 4c 8a bd 4f 14 83 bd a7 ac 10 bd
       -0.020200217 -0.067527995 -0.06400358 -0.035320904
000390 0a b7 23 3d 9e 0b aa 3c dd 97 34 ba 15 48 fa 3c
       0.03996948 0.020757493 -0.00068890845 0.03055195
0003a0 bb 31 c9 bc 82 73 8e 3d 0e 33 51 bd 59 e8 44 3d
       -0.024559846 0.06955625 -0.05107408 0.048073146
0003b0 2c 6d a1 3c 9d 86 07 3d 16 30 df 3c 23 e9 e5 bc
       0.019705378 0.03308736 0.027244609 -0.02806527
0003c0 84 a7 65 3d d1 60 8c bd 3e aa d3 bc fb ce c8 bc
       0.05606796 -0.06854404 -0.025838014 -0.024512758
0003d0 6c 63 80 bd d8 b1 a0 3d d0 65 95 bd c9 de 24 3d
       -0.06268963 0.07846421 -0.0729481 0.040251527
0003e0 45 20 e2 3c 83 49 c5 3c 0a 19 88 3d ad 48 86 3d
       0.027603278 0.024082905 0.06645401 0.065568306
0003f0 82 06 28 bd dc 81 4d bd fe 3b 42 3d b6 50 49 bd
       -0.04102183 -0.05017267 0.047420494 -0.049149238

net.6.bias f4 [2]
000000 5e 99 33 bc 72 50 0e 3d
       -0.010961859 0.034744687
