normal/rnode/models/6000_model.pt (torch, 535780 bytes, 8 tensors)

net.0.weight f4 [256, 3]
000000 d8 78 f8 bd 21 86 05 3e 81 f7 ed be d4 e7 9d be
       -0.12132424 0.13039447 -0.46477893 -0.30840933
000010 fa 1c 5b 3d af b9 66 bf 05 57 02 3f 87 c8 7f 3e
       0.05349443 -0.9012708 0.5091403 0.24978839
000020 b8 00 89 3e 3f c4 68 3e 8a 67 4f 3e be 7f 8a be
       0.2675836 0.22731112 0.20254341 -0.27050585
000030 02 e4 96 bd 38 b2 60 bf b3 95 8b be c2 30 e9 3e
       -0.07367708 -0.8777194 -0.2726265 0.45545012
000040 3e f6 99 bd 68 30 46 3e 1d 38 c8 3e a6 aa 43 be
       -0.0751767 0.19354403 0.3910531 -0.19108066
000050 55 d6 79 3e 82 af 01 be eb 32 7c 3d b5 5a b6 be
       0.24398167 -0.12664607 0.061571997 -0.3561608
000060 1e 09 4e be 72 29 51 3e 96 c4 aa bd 9a 00 05 bd
       -0.20120665 0.20425966 -0.08338277 -0.032471277
000070 57 41 8b bd 12 e2 15 bf 0b 57 8b bd 10 d5 1e bf
       -0.06799572 -0.5854808 -0.068037115 -0.6204386
000080 a6 2e df be 69 32 a3 bd 55 3e 27 be 47 f7 44 bf
       -0.43590277 -0.07968599 -0.16332372 -0.76939815
000090 4c 35 1f be 4d af cd be 16 f1 9b bf 65 f6 36 bc
       -0.15547675 -0.40172806 -1.2182949 -0.0111671435
0000a0 9e 27 db 3d 4c cb 13 bf 9d 8d 91 be 60 6a 36 bc
       0.10700916 -0.5773208 -0.28428355 -0.01113376
0000b0 d3 f8 6d bf 25 ce 7c be 0f 13 87 bd cf 3f 35 3d
       -0.929578 -0.24688013 -0.06595432 0.044250306
0000c0 9f 71 64 bc 63 1a e3 3e 8a 53 19 bf b9 ab 4a 3e
       -0.013943105 0.4435607 -0.59893095 0.1979207
0000d0 33 c3 1a 3f df da fc 3e c3 cd 0d 3e 11 d2 95 3d
       0.604541 0.49385735 0.13848023 0.073154576
0000e0 8b f0 e8 be 99 43 9a bd ac 50 7a bf 3a 7a 2c bf
       -0.4549602 -0.075324245 -0.97779346 -0.67374
0000f0 c2 10 ea bc c8 a5 e2 3e cc 4c 0f bf 7b 41 b7 bd
       -0.028572444 0.44267106 -0.5597656 -0.08948036
000100 b3 6e 28 bd df e5 72 3f 7d f9 71 bd 07 0e 22 bf
       -0.041121196 0.94882005 -0.05907582 -0.63302654
000110 12 7b 81 be 53 0e 46 3e 3d 29 bf 3d 26 81 29 3e
       -0.25289208 0.19341402 0.093340375 0.16553172
000120 6d 7a d0 bd be 98 99 3f 6b 3b 4f bd b9 78 8b bc
       -0.10179601 1.1999738 -0.050593775 -0.017025338
000130 90 5a 54 3f a6 c5 c5 be 08 cd fe bd a2 0f 02 3e
       0.8295069 -0.38627356 -0.1244145 0.12701276
000140 f3 d4 49 3f 39 be 99 bd 54 c4 08 3e eb 1d 3a bf
       0.7884056 -0.07506985 0.13356143 -0.727019
000150 86 32 8b be 07 9a ce be a8 a2 10 3f 41 9c 18 bd
       -0.27186984 -0.4035189 0.56498194 -0.03725839
000160 4d 6f 35 3f 3a 5c c8 be f6 e2 fe bd b2 56 ef bd
       0.70872957 -0.39132863 -0.12445633 -0.11686458
000170 d3 ab cc be 43 18 5b 3e 08 f7 f8 be fb 93 42 bf
       -0.3997484 0.21395974 -0.4862597 -0.7600705
000180 f6 31 ac be e8 e4 9f 3d ea 3f 67 bf ae 93 4b 3e
       -0.33631867 0.07807332 -0.903319 0.19880554
000190 21 00 21 3d 8d 88 6a bd 6c b6 a7 3d 23 5e ab be
       0.039306764 -0.05725913 0.08189091 -0.33470258
0001a0 6e e9 0d 3f 6e 51 19 3e ab a6 5f 3c 85 3d a4 3d
       0.5543431 0.14972469 0.013650577 0.080195464
0001b0 52 76 8c bc 5d c7 95 3e 7c 03 f9 be c5 e9 2d 3e
       -0.017146263 0.29253665 -0.4863547 0.16983707
0001c0 10 62 d7 3e 20 c9 d3 bf b8 7c da bd 60 b3 f4 3e
       0.42067003 -1.6545753 -0.106683195 0.47793102
0001d0 bc 3d 12 bf 84 91 c1 bb c3 4a ce be 3e a0 74 be
       -0.5712545 -0.0059072394 -0.40291414 -0.23889253
0001e0 43 da 19 3c d0 6b 10 3f 6b ca 2f bf 47 b3 e8 3d
       0.009390417 0.5641451 -0.6866824 0.113623194
0001f0 aa b1 28 be c2 20 80 3e 58 b9 e4 be 6a 20 fd bd
       -0.16474023 0.25024992 -0.44672656 -0.12359698
000200 97 74 da be fd a3 da bd 9b 56 cc be a1 4d d5 be
       -0.42667076 -0.106758095 -0.39909825 -0.4166079
000210 f9 04 2b bd b2 74 66 be 6f cb 0d bf c4 c3 02 be
       -0.04175279 -0.22505453 -0.5538854 -0.12769991
000220 73 e1 5a 3e 2c 84 45 3f fb af 68 bc 7e ea 04 3f
       0.21375065 0.77154803 -0.014202113 0.51920307
000230 26 de 11 bf 00 64 e7 bc 69 76 2c bf fb b3 6e bf
       -0.56979597 -0.028245926 -0.6736818 -0.9324338
000240 9d c7 71 3e 9e 71 00 3f 13 c0 8b 3f 12 fc 62 be
       0.23611303 0.50173366 1.0917991 -0.2216647
000250 dd 6c 8f bd 1f 5c 2a bf 9a b8 06 3e bc b3 f1 be
       -0.07003186 -0.66546816 0.13156357 -0.4720744
000260 6d e9 20 3f 59 c5 d1 be 7e 3c 80 3e 96 7c 90 bf
       0.6285618 -0.40970877 0.25046152 -1.1288021
000270 8c 5c 05 3b 71 ce 9d 3e 1f 86 9d 3e 7e 7e 8e be
       0.0020349352 0.30821565 0.3076639 -0.2783088
000280 3d 1c b2 3c 6c 75 17 bf 1a b7 19 be 12 9a cb 3c
       0.02174198 -0.59163547 -0.15011254 0.02485374
000290 b0 35 4b bf b9 57 16 bc 59 a5 3e 3f d3 be 89 be
       -0.79378796 -0.009176188 0.7447105 -0.269034
0002a0 c2 59 f2 3e 54 39 d4 bd 5d cd e2 bd 1f c6 4d 3e
       0.47334105 -0.10362497 -0.11074326 0.20095108
0002b0 8b 66 0f 3e 4f 8c fd 3d 25 03 40 3c 4f d6 ed 3a
       0.14003961 0.12380277 0.0117195 0.0018145534
0002c0 ac 94 d8 be dc 43 50 be c7 8d 23 3e 95 69 63 bf
       -0.42300928 -0.20338386 0.15972053 -0.8883298
0002d0 21 db b8 bd a2 77 70 3f 72 f0 ba 3e f6 f7 a2 3e
       -0.090261705 0.93932545 0.3651157 0.31829804
0002e0 89 2e 30 3e 62 83 d2 be 8f ad ea bd 4d d8 de 3e
       0.17205252 -0.41115862 -0.11458885 0.435244
0002f0 68 c3 0c bf cd d2 bc 3e e0 f9 dd be 70 11 8e 3d
       -0.54985666 0.36879578 -0.43354702 0.0693692
000300 de 26 da bd 0d 05 d3 3e a3 8b 3f bf 7e 65 d7 3e
       -0.106519446 0.4121479 -0.74822444 0.4206962
000310 2c 46 d5 3e fe d0 d9 3e 4d 5e f5 bc fe 33 1a 3f
       0.416551 0.4254226 -0.029952193 0.60235584
000320 76 7d 20 bf e4 b8 f1 be 6e 2e 0e 3f e0 3a 67 b8
       -0.6269144 -0.47211373 0.55539596 -5.5129523e-05
000330 66 28 9f bd db 59 ba be 5a 14 ee be 2d 86 a6 be
       -0.07771377 -0.3639668 -0.46499902 -0.32524243
000340 e2 f8 b0 be c8 c4 db 3d 42 84 52 3c fa 3b 24 3f
       -0.34564883 0.107308924 0.0128489155 0.64154017
000350 34 a2 91 be 3d 24 75 3e 33 58 77 be e4 05 b1 be
       -0.28444064 0.23939605 -0.24154739 -0.34574807
000360 76 4e 25 be 14 46 bc bd c1 14 06 bf f5 a4 da 3e
       -0.16143212 -0.09193054 -0.5237542 0.42703977
000370 a7 d7 5e be ce 1d 26 be 9a 5b 3d bd 96 6c eb bd
       -0.21761952 -0.16222307 -0.046229936 -0.114953205
000380 72 f0 ff be 11 77 03 3d 54 cb 24 3e f2 97 3a 3f
       -0.49988133 0.032095972 0.16093189 0.728881
000390 4b fc 94 be 14 74 1c 3e d1 83 8e bf 19 1c 73 be
       -0.29098734 0.15278655 -1.1133977 -0.23741187
0003a0 19 08 43 be 91 01 5e be 1f ab 16 3e e0 d2 df 3e
       -0.19046058 -0.21680285 0.14713715 0.43715572
0003b0 bf 0a ae bf d1 05 66 3e 8f 01 9f 3e 6a a9 09 3f
       -1.359703 0.22463156 0.31055877 0.5377413
0003c0 71 a4 fa 3d aa 8d 13 bf a4 3c 1a be cb 84 06 3f
       0.12238396 -0.5763804 -0.15062195 0.52546376
0003d0 72 7f 8c be 2f 30 33 be 27 84 31 bd f4 d3 26 bf
       -0.27440983 -0.1749885 -0.04333892 -0.65167165
0003e0 d1 d4 80 be c0 31 5b 3b 15 2c 24 3f c9 6b 11 be
       -0.25162366 0.0033446401 0.64129764 -0.14201273
0003f0 11 c3 c6 bd a5 80 86 3e 31 a3 01 bc d7 49 8c bd
       -0.09705175 0.26270023 -0.007912443 -0.06850021

net.0.bias f4 [256]
000000 6f 05 06 bf 01 d3 86 be 5e e7 40 3e 97 44 33 bf
       -0.5235204 -0.26332858 0.1883826 -0.70026535
000010 d1 3c a0 3d 4f e4 05 be 21 3d c0 3e fe be 5f bf
       0.078241 -0.13075374 0.37546638 -0.87400806
000020 04 60 55 bf 8c aa e2 3d df 13 cf 3d cd 09 8c bd
       -0.83349633 0.110676855 0.10111212 -0.06837807
000030 6b 7c 20 be cf ee 1d bf 54 5e c1 bc 7c 62 f4 bc
       -0.15672462 -0.6169252 -0.02360455 -0.029832117
000040 48 59 80 be 17 51 82 3f f5 a4 fd 3c 68 6b 8f 3e
       -0.25068116 1.0180997 0.030962447 0.28011632
000050 f1 95 46 3e a5 a6 26 3f 6b f6 36 3d 9d 2d ed bd
       0.19393136 0.6509803 0.044668596 -0.11580966
000060 8b 2b 96 3e f4 6e 19 be f5 91 60 3f ad 7f 8d 3e
       0.29330096 -0.14983732 0.8772271 0.2763647
000070 6e 43 47 3f 6a 41 a8 3d 8c 8b 15 bf 56 60 80 bf
       0.77837265 0.08215602 -0.58416057 -1.0029399
000080 9c 6a 41 bd 76 cb 0c 3d cc fb 68 3f 91 20 f3 bd
       -0.04722081 0.034373723 0.9100921 -0.11871446
000090 10 fd 06 3e 79 3c a8 bf 01 38 8a bf 51 8d 6c be
       0.13182473 -1.3143455 -1.0798341 -0.23100783
0000a0 50 a2 fb be 7c 71 9f 3e ea 67 ed be 46 b6 91 bf
       -0.49147272 0.3114127 -0.46368343 -1.138375
0000b0 81 fc 5f bf fe 50 0f 3f 3e f9 ee 3b 3f fd 25 3e
       -0.87494665 0.5598296 0.0072928956 0.16209887
0000c0 3d 6e 5d 3e 76 df da be 6a 93 57 3f c2 9c 11 bf
       0.21624084 -0.42748612 0.8420931 -0.5687982
0000d0 1e 53 ee be 6e d3 d6 be 24 18 c7 be 90 8e 7e be
       -0.46547788 -0.41958183 -0.38885605 -0.24859071
0000e0 75 95 f1 3d 48 07 a3 3c c7 b4 8a be b6 83 5b bf
       0.11796085 0.019900933 -0.27091047 -0.8574785
0000f0 84 13 ca 3e 1b 0e 74 3e b1 6f 23 bf f1 be 9f be
       0.39468014 0.23833506 -0.638423 -0.31200364
000100 16 af 5f bf 2a dc 81 3e 7f 4b 34 3e 9e 6e 25 bf
       -0.87376535 0.25363284 0.17606924 -0.64621913
000110 14 a8 95 bf 53 98 20 3f 7e d6 bc be f8 2b be 3c
       -1.1691918 0.6273243 -0.36882395 0.023214325
000120 f9 c7 01 bf 84 40 8f be 75 5f 29 bd 11 46 f0 3e
       -0.5069576 -0.2797891 -0.0413508 0.46928456
000130 14 1f c8 be 3f 11 09 bf 2f 82 77 bf d8 7a a8 3e
       -0.3908621 -0.5354194 -0.9668302 0.32906222
000140 fd a4 35 be a6 28 c2 be 79 c3 fc bd 3b 11 db be
       -0.1773872 -0.37921637 -0.12341971 -0.42786583
000150 b5 c5 78 bf d2 f5 5b be cb 5a 80 be 30 30 3a bf
       -0.97176677 -0.21480492 -0.2506927 -0.7272978
000160 bc 5f 5a bf f2 70 79 3f a3 2c 15 bf 29 6f 2c 3f
       -0.8530233 0.97437966 -0.58271235 0.67357117
000170 af 25 54 bf 86 ce 6b 3f ae 76 93 3f 6f bd 77 3e
       -0.8287 0.92112005 1.1520593 0.24193357
000180 af cc 56 bf 34 ea 8d bd ed 51 9c 3e ec fa 03 3f
       -0.8390607 -0.06929436 0.30531254 0.5155475
000190 c3 2f 56 3e cf 0d 93 bf 7d c6 61 3f 91 8a 03 3f
       0.20916657 -1.1488589 0.88193494 0.5138331
0001a0 19 ad 8f 3e 47 e7 bf 3c d1 7c bd 3d 2a bc f8 3d
       0.2806175 0.023425711 0.092523225 0.121452644
0001b0 fc 39 26 bf 67 7d 19 be 0c 9d dd b9 df 89 23 bf
       -0.6493223 -0.14989243 -0.00042269414 -0.6388225
0001c0 70 e8 ba be 6f 22 d3 be 02 8e 2a bf f9 83 1c 3f
       -0.3650546 -0.41237208 -0.66622937 0.61138874
0001d0 79 dd 08 3e 48 1b f8 be 7a 3a c6 3e b6 d2 19 be
       0.13365735 -0.48458314 0.3871649 -0.15021786
0001e0 88 b7 74 be f5 2a 93 bd 60 92 23 3e e0 7d 27 bf
       -0.23898137 -0.07185928 0.15973806 -0.65426445
0001f0 a4 59 36 bf d6 68 23 be 89 39 51 bf fe d6 00 bd
       -0.7123053 -0.1595796 -0.81728417 -0.031455033
000200 d3 d1 cc 3c d4 a1 21 bf 50 99 b2 be 7a 5f 78 bd
       0.025002396 -0.63137555 -0.34882593 -0.06063793
000210 fc a4 88 3e de a6 59 bf ec a5 0a bf 8e c6 b2 be
       0.26688373 -0.85020244 -0.54159427 -0.3491711
000220 45 8b 3f 3f 17 4a 30 bf 12 58 23 bf ec 98 8a be
       0.74821883 -0.6886305 -0.6380626 -0.27069795
000230 9c fd c2 3d 5f 8b b9 3c 49 13 cd be 07 5e 2b bf
       0.095210284 0.022649465 -0.40053776 -0.6694035
000240 9f 6f 09 3d 22 2d 87 3c 5c 80 25 bf 92 eb fb be
       0.033553716 0.016501013 -0.64648986 -0.49203163
000250 b8 95 ef be 22 61 2a bf 37 ea 50 3e 51 10 4e bf
       -0.46793914 -0.6655446 0.20401846 -0.80493647
000260 ce 3f 62 bf c3 68 95 bf fe e2 fa be 80 06 db be
       -0.8837861 -1.1672596 -0.49001306 -0.42778397
000270 fe a3 e6 3e 07 d4 02 3f ba a8 0f bf e3 c2 6b bf
       0.4504699 0.5110478 -0.5611683 -0.9209425
000280 79 70 87 3e 62 d7 37 be e8 8b f6 3e eb 74 7a be
       0.26452997 -0.17953256 0.48153615 -0.24458663
000290 a3 8b 96 be e6 de f0 be 5a d4 8c bd bd d5 94 bf
       -0.2940341 -0.47045058 -0.0687644 -1.1627728
0002a0 67 f5 97 3e 93 9d 0b bf 26 21 6c bf 1e 16 30 3e
       0.29679415 -0.54537314 -0.9223808 0.17195937
0002b0 dd 9e 42 bf c9 bd 01 bf 46 b7 cf 3c 43 6f d9 be
       -0.76023656 -0.50680214 0.025355946 -0.42467698
0002c0 b7 a5 0b bf 87 80 ee 3e 40 71 8c be bb d5 30 bf
       -0.54549736 0.46582434 -0.27430153 -0.69076127
0002d0 8b 96 58 3f 16 06 46 bf 57 52 30 3d ac 0d 31 bf
       0.8460471 -0.77353036 0.043047275 -0.69161487
0002e0 11 f8 b6 be fd 32 ec 3c 2d 68 07 bf a8 e2 74 be
       -0.35736135 0.028832907 -0.52893335 -0.23914587
0002f0 4f 4a ab be 8c 97 0f bd 2e c5 87 bf 85 95 49 bf
       -0.3345513 -0.035056636 -1.060705 -0.78743774
000300 31 c2 02 bf 49 7b a9 be 13 fc 31 bd 05 26 87 3e
       -0.5107756 -0.33101872 -0.043453287 0.26396194
000310 90 f9 b8 be a7 05 54 3e 26 03 32 be d2 67 aa be
       -0.361279 0.20705281 -0.17384014 -0.33282334
000320 70 89 0c bf 0a 8d f6 bc 2e d9 84 be c5 f7 25 bf
       -0.54897213 -0.03009655 -0.25946945 -0.6483119
000330 77 d6 0b 3f cf 19 2c bf 25 e2 f3 3e 5a e5 10 bf
       0.5462412 -0.6722688 0.47633472 -0.5659996
000340 5d 08 9c be fc a8 4e be 69 3e 33 bf 54 95 5c be
       -0.3047513 -0.2018165 -0.70017105 -0.21541339
000350 4f ad c5 3c 80 2b aa 3e a1 e2 3f 3e 62 cb 3b 3c
       0.024130492 0.33236313 0.18738796 0.011462064
000360 da bf 20 bf a6 bc 82 bc 7c 6a 5e bf 16 20 12 bf
       -0.6279274 -0.015959095 -0.8688123 -0.5708021
000370 ea f4 12 bf 0d 43 fb be cf 3d 8c be ef cb 49 bf
       -0.5740496 -0.49074593 -0.27390906 -0.788268
000380 d6 e3 d7 be 9c db f5 3e b9 46 40 bf 65 42 98 bf
       -0.42166013 0.4801911 -0.75107914 -1.1895262
000390 cd 33 f1 3e 40 75 c5 3e b4 10 a6 3e 16 4e 0a bf
       0.47109833 0.38566017 0.32434618 -0.540254
0003a0 cc 0e 20 3f 14 04 b9 3d 2b 5e 30 3f a6 3f fa be
       0.6252258 0.09033981 0.6889369 -0.48876685
0003b0 d6 25 b6 bc 4e 52 a4 bf 48 17 ad be 37 41 ab be
       -0.022234838 -1.2837617 -0.33806825 -0.33448192
0003c0 88 a2 71 3d 12 93 16 3f 4b 7b 16 bd c8 3e 14 bf
       0.058992893 0.5881816 -0.036738675 -0.57908297
0003d0 eb 95 8b be d0 f0 27 3e 4a 3f 1e 3e ea bd ba be
       -0.27262816 0.16400456 0.1545383 -0.36473018
0003e0 b5 2d b1 3e 8b 08 58 bf 92 e3 6b 3e c3 e3 29 3e
       0.34605184 -0.84388036 0.2303603 0.1659079
0003f0 0c 3c 74 be 58 bb 60 bf e5 d5 f9 be b7 ab d3 be
       -0.23851031 -0.87785864 -0.48796 -0.41341946

net.2.weight f4 [256, 256]
000000 d5 93 28 bd 45 75 6a 3d 7e 89 9e 3b 7a dc 42 3d
       -0.04115661 0.057240743 0.0048381677 0.047573544
000010 9d 10 02 bd c5 75 2b 3c e3 7e 67 3c b1 44 59 bc
       -0.031754125 0.01046509 0.014129373 -0.013261006
000020 27 a9 4e 3d 46 d0 06 bd 41 03 15 bd 6d c5 48 3c
       0.050454285 -0.03291347 -0.036380056 0.012254101
000030 39 de 00 bd 40 33 fd bc 08 2c 24 3c 5a be 02 bd
       -0.031461928 -0.030908227 0.0100202635 -0.031919815
000040 7e ab 10 bd 5b 92 28 bd 69 5a 29 3c 9a 61 ae ba
       -0.035319798 -0.0411552 0.010336497 -0.0013304234
000050 2e b5 d8 bb 90 0a 3c bd ae 20 30 3d 8b be 8c bd
       -0.006613395 -0.04590851 0.042999916 -0.06872281
000060 0c 6b 94 3c 65 5f 2a bd 62 58 32 3b c6 26 bb 3c
       0.01811745 -0.04159488 0.0027213325 0.022845637
000070 82 23 1b bd 42 ca a6 bc 46 09 39 bd 93 ec 02 bd
       -0.03787566 -0.020360116 -0.04517486 -0.031963896
000080 11 8a 85 3c 36 46 2a bc 5c 11 88 3d 16 af e1 bc
       0.016301187 -0.010392716 0.06643936 -0.027549308
000090 53 0a fa ba 8a e4 1d 3c 44 17 99 3c d2 b4 74 bc
       -0.0019076563 0.0096370075 0.018687852 -0.014935689
0000a0 60 42 dc 3c 31 af 27 3b 62 de 68 3d a5 36 56 3b
       0.026887119 0.00255866 0.056852706 0.003268638
0000b0 11 00 d3 3c 46 9c 60 bd b1 5b 4c 3b 58 95 81 bc
       0.025756868 -0.054836534 0.0031182582 -0.015818283
0000c0 11 63 05 3d db d0 81 3d 0f f7 21 3d 9f d9 1e 3c
       0.03256518 0.06338664 0.039542254 0.00969544
0000d0 ab 17 69 3c b6 1b 93 3c 49 3a ca 3b 1a 91 50 bb
       0.014226834 0.01795755 0.006171499 -0.0031824769
0000e0 cc c8 05 3d a6 50 58 bd 8d 7a ac 3c e2 23 59 3c
       0.032662198 -0.052811287 0.02105453 0.013253184
0000f0 00 44 99 3c 9f f7 70 3c 27 dd 09 3d 29 77 5a 3d
       0.018709183 0.014707475 0.033658173 0.053336296
000100 39 7c 77 bd 05 8c 87 bc 04 c9 d5 bc bf 38 a7 3c
       -0.060421202 -0.016546259 -0.026096828 0.0204128
000110 e3 2e 9e 3c ba 1c 59 bd 0b 1d a4 bc 25 9d 65 bd
       0.019309467 -0.05300591 -0.02003338 -0.056058068
000120 32 5c 02 3d 5f 96 44 3d 59 4b 7a 3d 7b 0c 97 bc
       0.031826206 0.047994968 0.061107013 -0.018438568
000130 9b 57 e8 bc 33 0f d9 bc 1b 2e 60 3c f2 c4 f0 bc
       -0.028362086 -0.026496505 0.013682867 -0.029390786
000140 bd e5 31 bd b6 14 21 3d dc 04 06 bd b2 8e 13 3d
       -0.043431986 0.039326392 -0.032719478 0.036024757
000150 67 e0 80 bd 46 98 5a bd 7f 28 75 bd 3a d4 16 bc
       -0.06292801 -0.053367876 -0.059853073 -0.009205872
000160 e1 3c 47 bd 85 2a 60 3d a0 85 0c bc c2 7d 55 3d
       -0.048642043 0.05472805 -0.008576781 0.052121885
000170 b6 82 f1 3c ad cc 2e 3b ea 40 92 3c b3 db d4 3c
       0.029481273 0.002667229 0.017853219 0.025983667
000180 19 c6 0e bd 46 37 49 bb f1 b7 b6 bc 8e 67 0e bd
       -0.03485689 -0.0030703112 -0.022304507 -0.034766726
000190 cc b3 ba 3c 17 00 91 bd 06 33 47 3d b2 43 b8 3d
       0.022790812 -0.07080095 0.048632644 0.08997287
0001a0 bd 24 02 3d 81 de 80 3b 0f 34 9a bc af 08 c6 3c
       0.031773318 0.0039327745 -0.018823652 0.024174063
0001b0 d5 8d 99 bc 8b ae e0 3c 92 a6 f9 3c 6a b3 5d 3d
       -0.018744389 0.027426979 0.030474935 0.05412618
0001c0 b6 07 0b bd d5 fd 06 3d fc 76 bd bc c8 09 15 bd
       -0.0339429 0.032956917 -0.023128025 -0.03638628
0001d0 2e 78 7a bd dc e3 04 bd 33 2a 75 bb 31 dc 9d bc
       -0.06114977 -0.032443866 -0.0037409186 -0.019270035
0001e0 e3 ab 31 3d 4d f3 17 3d bc 07 38 3d c9 38 53 bd
       0.043376815 0.037097264 0.04492925 -0.051567826
0001f0 b3 e3 73 3b db 1b 8b bc 70 a6 37 3c c9 bb 2c bc
       0.0037214577 -0.016981056 0.011209115 -0.010542818
000200 1b 00 f9 3c 97 a0 de bc 4d 1c 41 bd 9f 7f 31 bd
       0.030395558 -0.027176185 -0.04714613 -0.0433346
000210 09 47 25 bd ed 54 ba 3c dc 14 21 bd f6 02 89 3c
       -0.040350948 0.022745574 -0.039326534 0.016725045
000220 65 3d 1f 3c 85 86 a6 bc f6 3b 26 bd 5a d7 8c 3d
       0.009719227 -0.020327816 -0.040584527 0.068770126
000230 0c ce de 3c e0 50 d6 3b 37 5c 51 3d bd e9 b3 bc
       0.02719786 0.006540403 0.051113334 -0.021962041
000240 20 e4 1a 3d 5e 67 78 bd 25 81 29 bd 9d 64 39 bd
       0.037815213 -0.060645454 -0.041382927 -0.045261968
000250 65 b9 e1 3c c3 df 58 bb 7f 49 20 bd 8f 21 d3 bc
       0.027554223 -0.0033092357 -0.03913259 -0.025772838
000260 93 d7 47 bc 0e 14 37 3d f4 2d ac bd b1 6e ca 3c
       -0.012197393 0.04469686 -0.08407202 0.024710985
000270 af 47 26 bd b6 b2 47 bd 23 32 2b 3c 6c 70 86 3d
       -0.040595707 -0.048754416 0.010448965 0.065644115
000280 77 f0 13 bb 03 ce 42 3c 77 fd ba bc ee 52 4a 3d
       -0.0022573748 0.011889937 -0.02282594 0.049395494
000290 55 b0 a6 bc 21 8b 3a 3d 43 d1 d6 3c 0b 02 00 bd
       -0.020347754 0.04554284 0.02622283 -0.03125195
0002a0 56 c7 03 3d 7a eb b3 bc 4b 9d ac 3b 28 c8 0e 3b
       0.032172523 -0.02196287 0.005267774 0.0021786783
0002b0 e4 98 4c bd 15 5e cb 3b d2 dd 93 3d 3e 14 17 bd
       -0.049950495 0.006206284 0.07220043 -0.03688454
0002c0 f9 28 72 bd a1 c9 36 bc 65 71 63 bd 9e db 2e 3c
       -0.059121106 -0.0111564705 -0.055528063 0.010672478
0002d0 d1 cc ca ba 81 83 09 3d c8 d7 38 3d c6 d6 73 3d
       -0.0015472417 0.033572678 0.04512766 0.059530996
0002e0 ef 5d 2d 3b e8 02 db 3b 3a b1 f4 3b 7a b6 25 3d
       0.0026453694 0.006683696 0.007467416 0.040457226
0002f0 3f 13 2a bd 32 7b 17 3c 97 bf 9b bc 75 02 75 3d
       -0.04152226 0.009245681 -0.019012256 0.059816796
000300 8c f0 3a 3d 3d bd 15 3d cb d7 16 bd a9 cb 32 bd
       0.04563956 0.036557425 -0.03682689 -0.043651257
000310 47 a2 ca bc 18 f7 4e bd 72 85 64 3a ce da 84 3c
       -0.024735583 -0.050528616 0.00087173947 0.016217615
000320 63 fb 42 3d 22 ca f4 3a f6 15 88 bd 72 10 4a 3c
       0.047603022 0.0018675963 -0.06644814 0.012333022
000330 ff 11 42 bd 68 dd 30 3d 25 44 90 3d f0 52 f0 3c
       -0.047380444 0.0431799 0.070442475 0.029336423
000340 2f a6 19 3d 86 2c c1 3c 80 03 ef 3c 67 b2 18 bd
       0.037512 0.0235808 0.029176474 -0.037279513
000350 b9 9c 36 bd c0 f0 46 bd 24 88 61 bc 19 df dd bc
       -0.044583056 -0.04856944 -0.013765369 -0.02708392
000360 10 db ba bc 96 c4 88 3d d7 bf 34 3d af 5b 26 bd
       -0.022809535 0.06678121 0.044128265 -0.04061478
000370 db 3d 0e 3b b8 09 e3 3c 95 c6 3a 3d fd e5 15 bc
       0.002170435 0.027714595 0.04559954 -0.009149072
000380 79 15 5a bd d5 7f cc bc d3 b6 34 3d 49 e3 fe bb
       -0.053243134 -0.024963299 0.044119667 -0.0077785593
000390 c5 3b 82 3c c9 c7 1d 3d 44 d9 2f 3c d0 63 d2 3c
       0.015897641 0.038520608 0.0107329525 0.02568236
0003a0 9e d3 45 3d 83 69 ad 3d 33 dd d1 3a b9 22 cd 3c
       0.048297517 0.084673904 0.0016011357 0.025040971
0003b0 6f c1 d9 3c 5a a7 f3 3c 00 a7 7b bd b4 df a0 bc
       0.026581494 0.029742885 -0.06143856 -0.01963792
0003c0 fd d7 c1 3c bf da 81 bc 77 f9 e6 3c 93 d6 b5 3c
       0.023662562 -0.015851377 0.028195126 0.022197044
0003d0 81 a1 ad bc 21 43 86 3c d6 4c 65 3d 69 3b 74 3d
       -0.021195175 0.016389431 0.05598148 0.05962697
0003e0 45 18 70 3c 45 2b 1a 3c 17 d7 d4 bb 60 b0 79 bd
       0.014654224 0.00940973 -0.0064953673 -0.06095922
0003f0 6d 1e ac 3d ff 45 1c 3d 6b 3b 3d 3c e0 39 d7 3c
       0.08404241 0.03815269 0.011549811 0.026272714

net.2.bias f4 [256]
000000 10 d9 48 3d 1d 2f 37 bd c3 23 60 bd 25 63 c6 3c
       0.049035132 -0.044722665 -0.054721605 0.024217198
000010 eb 1b 74 bc a1 f8 cc bd 17 69 0a bd 3b 86 c9 bd
       -0.014899234 -0.1000836 -0.033791628 -0.098400556
000020 8c 53 9b 3c 93 d6 ac bc 1e 48 61 bd e8 68 4f bd
       0.018960737 -0.02109841 -0.055000417 -0.050637156
000030 aa 3d ad 3b 21 e6 06 3c 24 de 77 bd 3a 3f c0 bc
       0.005286892 0.008233578 -0.060514584 -0.023467649
000040 54 cb 92 3c 4a 34 fa bb fb a0 84 bd ed 2a 9d bd
       0.01791922 -0.007635628 -0.06476017 -0.07674203
000050 f8 0e 4e bd 3f c2 db 3c 0b af 02 bd da 14 15 be
       -0.050307244 0.026826022 -0.031905215 -0.14558735
000060 49 2d 3b bd 7e 63 4a bd 78 82 ab bd b8 4d 99 b9
       -0.045697484 -0.04941129 -0.08374494 -0.0002924034
000070 74 44 30 3d 0d b1 24 bd cc 9e 63 3c 6e 52 2a bd
       0.043034032 -0.04020791 0.013892841 -0.041582517
000080 ee f6 a3 bd 6c 5e 93 bc 1a 01 18 bd ac ca e5 3c
       -0.080060825 -0.01798936 -0.037110426 0.028050743
000090 48 c2 7d bc 98 4e 14 bb b6 07 46 bc 42 c4 80 bc
       -0.015488215 -0.0022629853 -0.012086799 -0.015718583
0000a0 8f 87 44 bd 5a 8a 9a bd b5 8c c0 b9 6d 93 eb bd
       -0.04798084 -0.0754592 -0.0003672593 -0.115027286
0000b0 c0 38 cd bc 7d 65 01 bc 10 0b 7e bd 37 b8 63 bc
       -0.025051475 -0.007897732 -0.06202227 -0.013898901
0000c0 08 2b a3 bd 9b 8c 32 bc 57 61 cc 3c 88 c4 c4 bd
       -0.07967192 -0.010897781 0.024948759 -0.09607798
0000d0 03 05 46 bd 38 36 e6 bd 7f df be bd 0a 18 ba 3c
       -0.048344623 -0.1124081 -0.09319972 0.02271654
0000e0 08 de a3 bd 3c 5f 5f bd 73 f3 8b 3c 72 04 20 bc
       -0.080013335 -0.054534182 0.01708386 -0.009766685
0000f0 d5 ae 5f 3d 95 84 b1 bd 16 f8 7e bd 37 d0 f6 bd
       0.054610092 -0.08667866 -0.062248312 -0.120514326
000100 82 73 ce bc 5b ae 04 bb 08 78 1d 3b e3 53 04 3c
       -0.025201563 -0.0020245526 0.0024027843 0.008076641
000110 b4 3a 5a bd 6a 65 8b 3c 11 14 52 bc eb be 8f bc
       -0.05327864 0.017016131 -0.012822167 -0.017547091
000120 62 0e 22 bc c8 61 59 bc e1 90 dd bc 80 35 66 bd
       -0.009891124 -0.013267942 -0.027046623 -0.056203365
000130 0f 39 d7 bd da e8 44 3d fb 4e 1b bc a5 f1 9b bc
       -0.1050893 0.048073627 -0.00947928 -0.019036124
000140 26 45 d4 bd 64 9d 13 bc 9f a4 e0 bd e7 b3 cb 3b
       -0.103647515 -0.009009693 -0.10968899 0.0062165144
000150 76 ef 49 bd cf 1a 52 bc 57 a7 6f bc 07 8b 8d bc
       -0.049300633 -0.0128237745 -0.014627299 -0.017278207
000160 22 13 01 be b7 76 d7 bd a7 93 c5 bd 65 93 5a bd
       -0.12604955 -0.1052069 -0.09647303 -0.053363223
000170 a1 eb 74 bd f6 e3 a2 3d 19 46 a0 bd 04 b1 22 3d
       -0.059795026 0.07953636 -0.0782587 0.039719597
000180 f8 12 e1 bc 82 34 be 3c 25 3c ad 3b db d4 b6 bd
       -0.027474865 0.023218397 0.005286711 -0.08927318
000190 3c 8a ed bc 0b 1f 1d bd 74 62 b5 bc 24 4a b4 bb
       -0.02899658 -0.038359683 -0.022141673 -0.0055020023
0001a0 ef bb 0d bd 12 ed 6e bd aa 98 3e bc 5c 4e a8 bd
       -0.034603056 -0.058331557 -0.011633078 -0.08218071
0001b0 2e 5d 08 be de dd cf bc 90 e3 2a bd 75 5f 4a bd
       -0.13316795 -0.02537435 -0.041720927 -0.04940744
0001c0 13 d3 e6 bc ec 0b b9 bd 65 7c 13 bd 6b e6 16 bd
       -0.02817682 -0.09035477 -0.036007304 -0.036840837
0001d0 64 82 e0 3c 1e b2 fc bd 65 72 b8 3b d1 55 0e 3d
       0.027405925 -0.12338661 0.0056288713 0.03474981
0001e0 00 a4 d3 3a dc 92 fb bc 28 a8 87 bd 7e 6f 64 b9
       0.0016146898 -0.030709676 -0.0662387 -0.00021785308
0001f0 0e b5 f8 3c a8 1c ca 3c 25 c8 8d bd ad 51 b0 bd
       0.030359771 0.024671867 -0.0692294 -0.086093284
000200 08 ad 4a 3b 44 1e 6e 3c aa 45 c1 bd 7c c8 02 bd
       0.0030925889 0.014533583 -0.094371155 -0.031929478
000210 f4 3c a8 bd 6d 75 3a bd ad ed 42 bd 80 eb d0 3c
       -0.08214751 -0.045522142 -0.047589947 0.02550292
000220 68 4b c0 bd 3f 4d c9 bc 4f bc 85 bc 12 18 5a 3d
       -0.093893826 -0.024572967 -0.016325144 0.05324561
000230 6b 96 a9 3d 64 fe c3 bc 88 7b 85 3d 59 29 02 3d
       0.08280643 -0.023925014 0.06517702 0.031777713
000240 42 75 58 3d ec af 93 bd 1f 0d 40 be 2a c4 4b 3d
       0.0528462 -0.07211289 -0.18755005 0.049747624
000250 48 4f b9 bb 2f 76 86 ba f9 4b 89 bd d1 e8 56 bd
       -0.005655203 -0.001025861 -0.06703944 -0.052468125
000260 1a 9d 52 bc dc d4 a6 bc 6e c4 55 3c a6 f3 13 bd
       -0.012854839 -0.020365171 0.013047321 -0.036121033
000270 8e 4e a8 bd f3 40 9e bd 6d a2 a1 bd e6 fd 27 3d
       -0.08218108 -0.07727232 -0.078923084 0.04101362
000280 54 63 33 3d 89 f9 80 3d 44 ca 63 3d 59 11 ad bd
       0.0437959 0.06297595 0.055612817 -0.084505744
000290 0d 4d 50 bd 22 1d 75 3c 19 e2 d4 bd 36 75 2a bd
       -0.05085473 0.014960559 -0.10394687 -0.041615687
0002a0 60 e4 71 3d 89 af 24 bd 72 89 aa bc 4b 8e 1e bd
       0.059055686 -0.040206466 -0.020817492 -0.03870992
0002b0 d6 22 a7 3c 7f 4f ae bd 26 80 98 3c 75 a9 00 be
       0.020402353 -0.085112564 0.018615793 -0.12564643
0002c0 28 c6 be bc f8 16 b5 bd 3a c1 35 bc e1 ca e6 bb
       -0.023287848 -0.088422716 -0.011093432 -0.007043228
0002d0 bb f7 bd bc b6 69 b5 bd fa 0c c3 3b 35 46 b6 bc
       -0.023189416 -0.088580534 0.0059524747 -0.022250274
0002e0 3e 30 af bd 22 f6 17 bd a2 8f 99 bd 9c 74 e0 bd
       -0.08554123 -0.037099965 -0.07498099 -0.109597415
0002f0 85 3e c9 ba 0c d2 45 bd fd 8c 5d 3c 5d 62 0a 3d
       -0.0015353715 -0.04829602 0.013522384 0.033785213
000300 68 d5 b9 bb a1 15 50 3d d3 37 1b bd 99 d0 00 bc
       -0.005671192 0.050801877 -0.037895035 -0.007862234
000310 17 3e 4e 3c 43 84 28 bd 35 c2 d6 3c 06 07 ab bd
       0.012588046 -0.04114176 0.026215652 -0.08350949
000320 66 82 17 bd 26 49 9b bd 6c b2 89 bc 60 08 7d bd
       -0.036989592 -0.07582311 -0.016808711 -0.061775565
000330 99 92 58 3d c9 93 b1 bc 41 f6 82 bd dc e1 f9 bc
       0.05287418 -0.021676915 -0.063946255 -0.030503206
000340 70 30 7e bc 7a c5 8a 3d 29 de 0b be bf 36 d9 39
       -0.015514478 0.06775947 -0.13658966 0.00041430254
000350 7e 84 e8 bd e5 a0 42 bc bf 37 0c 3d db 87 09 bd
       -0.11353396 -0.011879181 0.03423285 -0.033576827
000360 1e db e5 bd d1 95 7f bc c4 a3 f1 bd 3a ab 17 3c
       -0.11223434 -0.015599684 -0.11798814 0.009257132
000370 b3 74 a6 3c aa 26 28 3d 41 ec 19 3d 93 43 53 3c
       0.020319318 0.041052498 0.037578825 0.012894529
000380 03 d3 f9 bc 23 b6 cd 3c 7b 32 28 3d 35 31 1e 3d
       -0.030496126 0.025111264 0.041063767 0.038621146
000390 28 59 88 bd dc 60 a5 bd d8 62 3b bd 1d ad 83 bd
       -0.0665763 -0.08075115 -0.04574856 -0.06429503
0003a0 ee c6 de bd 7b 38 29 bd 56 fe b8 bd ae 12 08 bd
       -0.108777866 -0.04131363 -0.09032886 -0.03322094
0003b0 01 e4 b2 bc 44 a0 63 bd f4 14 84 bd f7 29 7c bb
       -0.021837236 -0.055572763 -0.06449309 -0.0038477161
0003c0 0f c5 1f bc ba 65 26 bd 60 42 42 bd 72 7a 66 3d
       -0.009751572 -0.040624358 -0.04742658 0.056269117
0003d0 0a 99 0a bc ef 9e f6 bd 35 3a 50 3c 5d e9 98 b9
       -0.008459339 -0.12042033 0.01270919 -0.00029165568
0003e0 af 1f 10 bd fb c8 58 3b 96 74 a9 bd 58 1a fb bc
       -0.035186466 0.0033078778 -0.0827419 -0.03065221
0003f0 7e b2 77 bd 36 45 d2 3a 20 80 0d 3c 4b 20 bf bb
       -0.060472958 0.0016042355 0.008636504 -0.005832707

net.4.weight f4 [256, 256]
000000 b0 10 2a 3d fa 63 34 bd 26 69 37 bd 32 9e 5b bd
       0.04151982 -0.044040658 -0.04477801 -0.053617664
000010 c6 20 7e bc ad e3 c6 3c 92 30 4a 3d 25 fd 1a 3c
       -0.0155107435 0.024278486 0.049362727 0.009459768
000020 32 6a 41 3d 50 68 35 3d b1 be 2a bd 43 49 3a 3c
       0.047220416 0.044288933 -0.041685764 0.011370006
000030 de 48 41 bd fe 2b 90 bc fc e0 ee bc 17 65 1f 3c
       -0.047188632 -0.017599102 -0.029160015 0.009728692
000040 de db c3 3c 39 b2 7c 3c dd 04 40 3d 9e 27 73 bc
       0.023908552 0.015423351 0.046879638 -0.014840988
000050 ea cb 42 bd 34 41 ac 3c 21 da 34 bd 5b 9d 42 bb
       -0.04755775 0.021027185 -0.044153336 -0.0029695842
000060 48 a3 65 3c 17 51 86 3c 86 b1 2c bb 01 e9 1b 3d
       0.01401598 0.016396089 -0.002635093 0.038064007
000070 e6 6c 1e 3c 8d 9c 9b bd 78 09 83 3d cf ad b2 bc
       0.009669518 -0.07598219 0.063982904 -0.021811394
000080 c1 0a 46 bd 3a b9 c6 bb 98 ee 65 bd f2 e6 1d 3c
       -0.0483501 -0.006064561 -0.056135744 0.009637581
000090 36 b3 ca 3b 70 6a 76 bd 69 4a fd 3a 52 b7 05 3d
       0.0061859144 -0.0601601 0.0019324544 0.03264553
0000a0 65 c8 fa 3c a4 3a 83 3d d4 a8 57 bd 87 00 94 bd
       0.030613134 0.06407669 -0.05265124 -0.07226663
0000b0 1b f6 14 bd 57 ed 8e bc 5e 71 1d bd 5f 25 b6 bc
       -0.036367517 -0.017447157 -0.038438194 -0.022234617
0000c0 a6 ac 02 3d 37 f7 23 3d 48 59 0b 3d ee f9 5e bd
       0.03190293 0.040030684 0.034020692 -0.05443757
0000d0 c0 90 0b 3b 83 68 bb bc 1e 12 12 3d 79 0c b6 bc
       0.0021295995 -0.022876984 0.03566181 -0.022222744
0000e0 65 1f 22 3d e2 53 d5 bc cc 78 1d bd d6 f6 56 3c
       0.03958072 -0.026040975 -0.03844528 0.013120374
0000f0 97 08 a5 3c 60 81 dc 3c d6 c6 ad bb 38 b3 34 3d
       0.020145698 0.02691716 -0.005303244 0.04411623
000100 38 cd eb bc 49 83 63 bd 24 37 c8 bb 41 16 53 3c
       -0.02878438 -0.055545125 -0.006110089 0.012883724
000110 ce d2 21 bc 46 5a 1d 3d e8 16 ee bb 57 59 fb 3b
       -0.00987692 0.03841617 -0.007265914 0.0076705622
000120 d7 25 82 3d 0f a1 61 bd db 95 cf 3b 6a d4 36 bd
       0.063548736 -0.055085238 0.006335003 -0.044636168
000130 da 94 9d bd fb 68 5b 3d 0d 94 1b 3d 31 41 ed 3c
       -0.07694407 0.053566914 0.03798299 0.02896175
000140 b8 86 44 bd ec 10 ef bc ce 07 08 3d 3e b4 b7 bc
       -0.04798004 -0.029182874 0.033210568 -0.022424813
000150 7c 14 73 bd dd 06 17 bd f9 15 62 3d 5d e0 3a bd
       -0.059345707 -0.03687178 0.055196736 -0.045624126
000160 16 45 29 3d b9 7a 00 3d 5d 94 67 bd 9a 30 88 3d
       0.04132565 0.031367037 -0.056537975 0.06649895
000170 ae f3 2a bc 70 7c 8e 3c 43 7c 71 bd 8a 26 b2 bc
       -0.010434074 0.01739332 -0.058956396 -0.021746892
000180 bb 1b b4 3c d2 e2 2a bd 98 37 31 bd 11 97 a5 bc
       0.02198588 -0.04172022 -0.04326591 -0.020213636
000190 82 e8 ba 3b 37 52 3c bd 91 a4 51 3d 68 64 80 ba
       0.0057039866 -0.045976844 0.051182333 -0.0009795548
0001a0 ca e1 16 3a f3 a3 ef 3c d4 a8 75 bb fe 01 85 3b
       0.0005755691 0.029252982 -0.0037484663 0.0040590754
0001b0 74 dc 91 bd 75 0f 63 3d d3 36 ee bc d3 eb 52 3c
       -0.07122126 0.055434663 -0.029078877 0.012873608
0001c0 21 4b df bc 26 29 56 bd 4f ea 61 3d 6f 94 c3 bc
       -0.027257504 -0.052285336 0.055155095 -0.02387449
0001d0 3a ee 02 3d c5 3c 16 3d cf b4 65 3d 0d e7 1f 3c
       0.03196547 0.036679048 0.056080636 0.009759677
0001e0 08 96 21 3d 3c 59 74 3c 86 ca 77 bd 88 11 a4 3c
       0.03944972 0.014913853 -0.060495876 0.02002789
0001f0 e6 c7 44 bd 82 b4 a9 3c 6b cc 36 3b 71 28 98 3c
       -0.0480422 0.020715956 0.0027892839 0.018573971
000200 4b c3 e4 bc 7a a8 1b bd 58 07 f1 bc 3d 66 0a bd
       -0.027925154 -0.03800247 -0.029422447 -0.03378891
000210 6c d4 05 bc 95 42 23 bc a3 7f 2c 3d 6a c1 ed bb
       -0.008168321 -0.009964605 0.04211391 -0.007255723
000220 e5 31 0a bd 14 ed bd 3b 83 ef 4a bd e4 e9 30 bd
       -0.03373899 0.005796084 -0.049544822 -0.043191805
000230 2e 3f 40 bd fc 9b f0 bb 70 3a 64 bd dc 4c e2 bc
       -0.046935253 -0.0073428135 -0.055719793 -0.02762454
000240 78 3a c6 bc 41 32 4a bc 88 ab d9 bc 5c 1e b4 ba
       -0.024197802 -0.012341083 -0.02657105 -0.0013741958
000250 67 10 83 bd fd 13 d7 3b 54 75 9e 3c d2 ac 9e 3c
       -0.06399613 0.006563662 0.019343056 0.019369517
000260 b9 6f a7 bc 40 d4 c6 bc b3 bb 91 bc 92 c9 d5 3c
       -0.020439016 -0.02427113 -0.017789697 0.026097093
000270 e5 a4 9f 3c 55 46 51 bc 61 0d 1b bd ab ac 79 bc
       0.019487808 -0.012773116 -0.037854556 -0.015238921
000280 50 17 03 3c 6d b2 c1 bb 94 33 d5 3c 91 57 4f bd
       0.008001164 -0.0059111626 0.02602557 -0.05062062
000290 3b 09 01 bd 1f ff 35 3d 96 d8 88 bd 04 7f c7 3b
       -0.031502943 0.044432756 -0.066819355 0.0060881395
0002a0 34 43 6a 3d 94 ce b6 bb 39 e9 8f bd d5 f0 3e 3c
       0.057192996 -0.0055788253 -0.070269056 0.0116540985
0002b0 52 ac be bc 9d 40 c9 3c 67 a3 77 bb 47 59 b6 bc
       -0.023275528 0.024566943 -0.0037786604 -0.022259368
0002c0 2a 44 2a 3d 9d 78 0e bd db 40 3d bd 9f d4 27 bc
       0.041568913 -0.034782995 -0.04620443 -0.010243564
0002d0 5e 8d 5b bd 3e 47 91 bd 07 3a 3e bd d2 aa ea bc
       -0.053601615 -0.070936665 -0.046442058 -0.028645907
0002e0 9e 7c 45 bd 02 9b 2a bd 21 24 3d 3d 51 98 b8 bc
       -0.048214547 -0.041651733 0.046177033 -0.022533568
0002f0 ae 4f 21 3c 12 b2 eb bc 0e 04 ee bc e5 5f 03 bd
       0.009845657 -0.028771434 -0.029054668 -0.032073874
000300 10 05 15 bd 7e da 07 bd 41 0b 94 bd 16 77 76 3d
       -0.03638178 -0.033167355 -0.07228709 0.060172163
000310 8f f0 fb bc 76 e4 d8 3c ba 97 30 3d 92 3e 08 3a
       -0.030754356 0.026476126 0.043113448 0.0005197312
000320 e8 39 95 3d e2 d3 f4 bb 13 22 14 3c c1 50 ce 3c
       0.07286435 -0.0074715475 0.009041327 0.02518499
000330 ac 0c 58 3c e2 ed 42 3d b1 db b8 3b af 95 79 3c
       0.013186615 0.047590144 0.0056414236 0.015233441
000340 27 61 2d 3d 9f e4 76 bc ab 82 4b bd d5 35 72 3d
       0.04232898 -0.015069156 -0.04968516 0.05913337
000350 39 2a 38 bb d3 16 68 3d 6e f8 65 3c 47 0a 67 bd
       -0.0028101339 0.056662392 0.014036281 -0.056406286
000360 77 2b 5a 3d ae 36 13 bd 8b a5 f3 ba 8e a8 2a bd
       0.053264108 -0.03594082 -0.0018588764 -0.041664653
000370 a1 19 8f 3c ea 6a 1b 3d 72 8c 2b 3c 89 2b f5 bc
       0.017468276 0.037943758 0.0104704965 -0.029927986
000380 0a 42 69 3c 7d 45 b1 3a c1 6e 3d 3d 85 37 80 3d
       0.014236936 0.0013524737 0.0462482 0.062605895
000390 b9 6e a2 bd 56 97 af 3c a7 93 03 3d 8b ca 24 bd
       -0.07931275 0.021434467 0.032123234 -0.040232223
0003a0 49 d8 24 3a 18 23 13 bb ce 2e 7d bd 3f a5 72 bd
       0.00062883325 -0.0022451337 -0.061812215 -0.059239622
0003b0 82 04 5a 3b 37 cc 87 bc 1e b0 43 3c f0 b6 06 bc
       0.0033266847 -0.01657687 0.011943845 -0.008222327
0003c0 70 c9 9b bc 75 fa 0c bd d0 9e 5c 3c c7 b1 80 3c
       -0.019016951 -0.034418542 0.013465598 0.01570977
0003d0 e3 83 15 3d 46 c1 9e 39 77 dd 6d bd ba b0 15 3d
       0.03650273 0.00030280108 -0.058072533 0.036545493
0003e0 4c 29 54 3d 67 71 51 bb 2c 6e 00 3d fd 34 c6 bb
       0.051797196 -0.0031958462 0.031355068 -0.006048797
0003f0 92 70 21 bc ea 3c 3c 3c 99 d9 74 3d d2 c2 b7 bc
       -0.009853499 0.011489132 0.05977783 -0.022431765

net.4.bias f4 [256]
000000 3d cc 15 bd f4 26 e7 bc da 35 20 bd 4e b6 5b bd
       -0.03657173 -0.028216816 -0.039113857 -0.053640656
000010 81 1d d9 bc ec 10 4f 3d 36 e6 a7 bd 2b 6f 62 3c
       -0.026503326 0.050553247 -0.08198206 0.01382045
000020 7e 1a 2a bd 96 a1 14 3d 64 62 68 bd f4 d2 a6 3c
       -0.04152917 0.036286913 -0.056734458 0.020364262
000030 4b 64 ec 3c 62 35 9a 3c bf bb 44 3d 7a 82 4f 3d
       0.028856417 0.018824283 0.04803061 0.05066154
000040 2e 25 72 bd 9a 2b b2 3c 21 39 3f 3d 10 6a 00 bd
       -0.05911749 0.021749306 0.04668534 -0.03135115
000050 dd 2f d0 bc 0c 5c 09 3c 55 a2 70 bc 3a b7 83 3d
       -0.025413448 0.008383762 -0.0146871405 0.06431432
000060 43 4d 72 3c 99 c3 a3 bd a8 c5 f2 3b e1 38 50 3d
       0.014788928 -0.07996292 0.0074088164 0.050835494
000070 de 54 34 bd a3 d5 90 3d 48 6e 11 3d fa e5 02 3d
       -0.04402625 0.07071998 0.035505563 0.031957604
000080 85 5f 4e 3d 23 a9 5a 3c 82 b5 ae bd 89 2b 51 3c
       0.050384063 0.013345989 -0.085307136 0.012766727
000090 5f e7 9b 3c e1 b8 cd 3c 24 a4 2a 3d 78 1a cc bb
       0.019031225 0.025112571 0.041660443 -0.0062287413
0000a0 1a 70 ef 3b f0 24 6b bd 39 8d a6 3d 80 22 33 bc
       0.0073070647 -0.057408273 0.08132405 -0.010933518
0000b0 a6 dd 7b bd 9e dc 84 bd 50 bb 18 bd e1 19 3a bc
       -0.061490677 -0.06487392 -0.03728801 -0.011358709
0000c0 bf db 85 bd 46 80 0b 3d 6f 40 83 bd bc 60 3b bc
       -0.06536054 0.034057878 -0.06408774 -0.0114366375
0000d0 c2 d2 f7 bc 7c df df bb e1 89 a8 bd 43 5c 51 3d
       -0.030251864 -0.0068320613 -0.08229423 0.05111338
0000e0 e2 de 2b bd b4 34 db 3c 20 57 09 3d 6a 91 40 3d
       -0.041960604 0.02675853 0.033530354 0.047013678
0000f0 8e 13 3b 3c ce 4f 17 bc 32 d5 cc 3a 9a c1 9a 3d
       0.011418236 -0.0092353355 0.0015627502 0.07556458
000100 c2 0b 8b 3d 0c f6 2b 3d 04 e3 79 3c 91 17 29 3d
       0.06789352 0.041982695 0.015251879 0.04128224
000110 15 9e 31 3d 2a ef e5 3b ab e8 78 bd 63 6a 1f bd
       0.04336365 0.007017036 -0.060768764 -0.038919818
000120 d8 3e 04 3d 31 b3 7b 3d c0 83 a7 bc 63 92 34 3d
       0.032286495 0.061450187 -0.020448565 0.044084918
000130 cd 8c 16 bd 34 22 31 bd 17 13 0d bc a2 e4 e8 3b
       -0.03675537 -0.04324551 -0.008610508 0.0071073333
000140 0e 6b e2 bb 7b 9e 37 bc ad 60 18 3c 0f d1 f2 3a
       -0.0069097346 -0.011207218 0.009300393 0.0018525439
000150 c0 23 08 bd c8 d6 d3 bd 34 aa 78 bd f2 fc 91 3c
       -0.03323722 -0.10343701 -0.060709193 0.017820809
000160 91 93 0f bd 42 b4 9d bc 97 c7 32 3d a2 7c 17 bd
       -0.03505284 -0.019250993 0.043647375 -0.036984093
000170 ac 23 49 bd 54 72 8c bc 94 d2 a1 bc c5 37 00 3d
       -0.049106285 -0.01714436 -0.019753732 0.031303186
000180 c2 56 09 3d ca 99 48 3c 58 3d 8c bc 1b 25 f5 bb
       0.033530004 0.012243697 -0.017119095 -0.00748123
000190 d2 4c 01 bc e4 6b 26 3d 15 c0 6d 3d fb 78 6b 3b
       -0.007891851 0.040630236 0.05804451 0.0035930264
0001a0 44 51 dc 3a 6d c5 ea 3b f5 fe ad bc da 88 9a bc
       0.0016808887 0.0071646483 -0.021239737 -0.018864084
0001b0 47 cf 66 bb 27 b2 7b 3d 5c 6e ff bc f1 00 9d bc
       -0.0035218762 0.061449196 -0.031180553 -0.019165488
0001c0 e8 91 46 bd ef 8b e5 bc a7 5f 1d bd b9 15 9a bc
       -0.04847899 -0.028020827 -0.0384213 -0.018809186
0001d0 f3 b8 c7 3c 60 92 93 3d 5b d5 8e 3d 0a 54 ee b9
       0.024380183 0.07205653 0.06974288 -0.0004545751
0001e0 71 f0 98 3c d8 ab a4 bd 1f d8 58 3d 20 c2 61 bb
       0.018669339 -0.08040589 0.052940484 -0.0034447983
0001f0 05 50 fb bc 59 5f 97 bd 7b 6d 18 bd 85 3b d6 bc
       -0.030677805 -0.07391233 -0.037213784 -0.026151428
000200 66 25 17 bd 1f a3 8f bd 28 52 6b bc 39 4a ab 3c
       -0.0369009 -0.07013535 -0.014362849 0.020909416
000210 93 18 13 bd 56 c1 43 bc 9f c6 47 bc ca d3 88 bb
       -0.035912108 -0.01194795 -0.012193351 -0.004175638
000220 63 34 c5 bc be 43 84 bd 8a e3 f0 bb 8d 9c 9e bc
       -0.024072831 -0.06458233 -0.0073513435 -0.019361759
000230 2e 01 13 3d fa 4a d9 3c 48 7f ea ba ce 92 f5 3b
       0.035889797 0.02652501 -0.0017890716 0.007494307
000240 e2 8e 92 bd 2c 33 0f 3d 94 17 fe bc e4 3a 1f bd
       -0.07156159 0.03496091 -0.031017102 -0.03887452
000250 d2 fc 8e bd 89 96 cc 3c 5d 46 13 3c f1 4a a9 3d
       -0.069818154 0.024974125 0.008988944 0.08266247
000260 f4 6e 5a bd 5c af 98 bd 1a 61 87 bd c9 7f 95 bd
       -0.05332847 -0.07455322 -0.066103175 -0.07299764
000270 81 7a 38 bd d5 06 60 bb 20 50 4b 3c d0 4d 86 bd
       -0.045038704 -0.003418376 0.01240924 -0.0655781
000280 d9 58 2a 3d d5 8d f6 3c 6d a4 4c 3c f3 af 23 3c
       0.041588638 0.030096928 0.012490374 0.00999068
000290 96 eb e5 3c 92 46 98 bd 1a 8e 90 3d 74 4b 74 bc
       0.028066438 -0.07435335 0.07058354 -0.014910568
0002a0 1a 59 54 bd 30 36 4e 3d df 5c e4 3c 2e f6 b4 bd
       -0.051842786 0.050344646 0.027876316 -0.088360175
0002b0 39 e5 28 bd ae 65 10 3c be ad 91 bd 40 94 c8 3b
       -0.04123423 0.008813305 -0.07113217 0.0061211884
0002c0 70 c4 84 3d 1b 1a dc bc 64 bd 99 3b a1 cf 05 3d
       0.0648278 -0.026867917 0.0046917666 0.032668713
0002d0 03 75 26 bd 76 6d 40 bd a7 98 ac 3c 7b 86 45 bd
       -0.040638935 -0.04697939 0.021068884 -0.048223954
0002e0 d9 56 35 bc 14 4d 5a bd fd f8 1e bd ff 58 f9 bc
       -0.011068069 -0.053296164 -0.038811672 -0.030437944
0002f0 a3 db 02 bd 0a d7 12 3d 6b ce 44 3d c3 b8 0e 3b
       -0.031947743 0.03584961 0.048048418 0.0021777607
000300 64 34 16 bd 1a 29 e7 bc 2a ee b0 3c d8 75 29 3c
       -0.036671057 -0.028217841 0.02159794 0.010343038
000310 e9 e4 ed bc dc c0 96 bc 1a bf a4 3d 78 fe 34 3c
       -0.029039817 -0.01840251 0.08044262 0.011046998
000320 5d bc 54 3b cf cb 86 bc 9e 44 89 bd 03 01 f1 3c
       0.0032460906 -0.016454605 -0.06702541 0.029419428
000330 40 cf 22 bd 62 48 b0 bc 49 28 6e bc ee 44 ce bc
       -0.03974843 -0.02151889 -0.014535972 -0.025179353
000340 da 00 99 bc 62 55 58 bd 65 e8 3f 3d 6c e0 d1 bc
       -0.018677164 -0.052815802 0.046852488 -0.025619708
000350 0a 36 63 bd 47 b3 f9 bb 61 c9 c1 bc 52 aa 24 bd
       -0.055471458 -0.0076202485 -0.023655595 -0.040201493
000360 f4 f5 aa 3c 50 cb 11 3d 56 d5 35 bd 9d d1 83 bc
       0.020869233 0.035594285 -0.044392906 -0.016091162
000370 91 e8 8d bd f6 07 49 bd c5 dd 5f 3d 0b b4 a1 bc
       -0.06929124 -0.049079858 0.054654855 -0.019739171
000380 7c a2 37 3d 73 7a 3a bc ee 10 46 3d 7f a5 50 bb
       0.04483269 -0.011381733 0.04835599 -0.0031836925
000390 4a ac 16 bd aa d7 8a 3c dd a5 4a 3c b6 29 69 3c
       -0.0367854 0.01694854 0.012368646 0.014231136
0003a0 ba 5a 1b bd 77 78 30 bd 82 5c 17 3c 45 85 b7 3c
       -0.03792832 -0.043083634 0.009238364 0.022402415
0003b0 78 c1 be bc fb 6e 72 bd e1 88 84 3c 67 f2 94 3c
       -0.023285612 -0.05918787 0.01617855 0.018181993
0003c0 9d a2 f2 bc 51 ec a8 39 44 d5 30 3d c0 7d 3f 3d
       -0.029618556 0.00032219526 0.043172136 0.046750784
0003d0 0b 38 31 3d 93 29 54 3c 1c 4b ee bc 7f f0 3f bd
       0.043266337 0.012949365 -0.02908855 -0.046860214
0003e0 8c a6 6e bd 71 d5 0c 3c 41 50 20 bd b6 0b c5 bc
       -0.0582643 0.00859581 -0.039139036 -0.024053436
0003f0 18 5a 2b bd 5e e9 7a 3d 88 16 9f bd c9 fc 9a bc
       -0.041833967 0.061257713 -0.07767969 -0.018919365

net.6.weight f4 [2, 256]
000000 d9 65 0e bd aa e3 7b bd 0f 87 a6 3c 23 27 58 3c
       -0.0347651 -0.061496414 0.020328073 0.013192925
000010 ce 69 35 bd e5 e3 7c bd 3f 23 c2 3c 90 37 1f bd
       -0.044290356 -0.061740775 0.023698447 -0.038871348
000020 9a c4 82 bd 99 53 67 3d 97 a3 96 3a 17 5e 2d 3d
       -0.06385155 0.05647621 0.0011492845 0.04232606
000030 39 da 35 3c a9 15 78 3d 4c 2f 58 bd 66 14 9e bd
       0.011099392 0.06056753 -0.05277948 -0.077187344
000040 eb b3 41 3d 6e 66 45 bc 37 50 64 bd 3f 12 04 bd
       0.047290724 -0.012048347 -0.05574056 -0.032243963
000050 a8 ee b6 bc 2e 6b fb bc af 24 2f bd 78 86 3d bd
       -0.022330597 -0.030690756 -0.042759594 -0.046270818
000060 a9 5a ed 3c bf 09 9f 3d 0d a1 8a bb bb cc d6 bc
       0.028973894 0.07765531 -0.0042306245 -0.02622067
000070 c5 7f 2a 3d bc b9 0b bd f2 2c 6c 3d fe 05 e8 3c
       0.041625757 -0.034112677 0.05766005 0.02832317
000080 60 0c a5 bc f9 38 27 bd d0 4c b1 3b 79 40 00 bd
       -0.020147502 -0.040825818 0.005410768 -0.031311486
000090 7f 5a b5 bc e3 93 75 3b 4a 98 10 3d f3 cf 30 3c
       -0.022137878 0.003747218 0.035301484 0.010791766
0000a0 eb 8a 9b 3d 5c 0e 48 3d a3 af 22 bd 66 0f fd 3c
       0.07594856 0.04884182 -0.03971828 0.030891132
0000b0 b3 d5 86 39 a2 91 07 3d b2 15 9f bc 85 7a 70 bc
       0.0002571769 0.03309787 -0.019419525 -0.014677648
0000c0 38 e2 c0 3c 93 52 46 3d 04 23 a3 ba 62 af 8f 3d
       0.02354537 0.048418593 -0.0012446349 0.070158735
0000d0 26 d7 ab bc 7e d2 e6 3c 36 bf b6 3c dd 75 e7 3b
       -0.020976614 0.028176542 0.022307973 0.007063611
0000e0 53 bd 94 bd 32 e1 19 bd 2d 2e 93 3b 56 62 21 bd
       -0.07262673 -0.03756828 0.0044915886 -0.03940042
0000f0 9f ac cf 3c c1 f3 90 bd 65 c5 4c 3d 60 83 64 bd
       0.025350867 -0.07077742 0.049992938 -0.05578935
000100 e5 4b 3f bd e8 b5 05 bd aa b6 88 bc e5 24 f5 3b
       -0.046703238 -0.032644182 -0.016688664 0.007481205
000110 99 c1 ef 3b e8 27 53 3d 97 d2 41 3d f4 03 29 bc
       0.00731678 0.05155173 0.047319975 -0.010315884
000120 68 89 0f 3d 39 86 59 bd 06 ac c2 3c fa 1b 84 ba
       0.03504315 -0.05310652 0.023763668 -0.0010079138
000130 b3 e6 a3 3d e4 42 b1 3b d2 45 61 3d cf 96 6c bd
       0.08002987 0.0054095853 0.054998226 -0.05776101
000140 f3 d2 8c bd 75 a1 77 bd 34 ca 57 3d d9 60 a9 bb
       -0.06876173 -0.06045671 0.05268307 -0.005169016
000150 0d 17 11 bd f0 e9 e8 3b 22 01 57 3d 8e c2 ce bc
       -0.035422374 0.0071079656 0.052491315 -0.025239255
000160 0e c6 97 3c 6c 46 53 bc 59 a6 97 3d 95 f2 0e 3d
       0.018527057 -0.012895208 0.07404775 0.034899313
000170 fc 0d 31 3d 09 43 ef bc 1c 23 ab bc a7 34 b1 3b
       0.043226227 -0.02920677 -0.020890765 0.005407888
000180 21 9d 8d 3d 44 a0 86 3c d1 12 93 bb ad 20 5d bd
       0.069147356 0.016433842 -0.004488327 -0.05398624
000190 3c 19 7c bd 47 89 f3 bc a1 c8 5d bc 76 24 01 3d
       -0.061547503 -0.029728545 -0.013536603 0.031528912
0001a0 17 ee 0f ba 11 91 4a bd 92 0d 70 3d a1 01 99 bc
       -0.0005490495 -0.049454752 0.05860669 -0.018677535
0001b0 5e e6 41 3d ff 38 3f bd 59 a5 2b 3d 8a fc 18 3d
       0.047338836 -0.046685215 0.041905735 0.037350215
0001c0 4b 92 f3 bc 15 8f 91 3c 52 cf 14 3d 48 ba a0 bb
       -0.029732844 0.017768422 0.03633053 -0.004905019
0001d0 9e ab 85 bd 3c 0f 72 bd 29 a5 36 bd 05 55 17 3d
       -0.06526874 -0.05909656 -0.044591103 0.036946315
0001e0 5d ed 0e 3d c8 c3 88 3d 59 ac 81 3c 71 5a 3b bd
       0.034894336 0.06677967 0.015829252 -0.04574055
0001f0 9d 2e 8b 3d a6 9a 8c 3d 33 bb a4 3c 56 bc 61 3d
       0.06796 0.06865434 0.020108795 0.05511125
000200 1b 8c 41 3d d1 67 30 b9 ed ee 52 bd 1a ff 1f 3d
       0.047252756 -0.00016823343 -0.05149739 0.039061643
000210 40 bb 26 bc ba 4a bd 3c a8 8e 44 3d db 99 31 bd
       -0.01017648 0.023106921 0.04798761 -0.04335962
000220 1d dc 70 3c 52 5a 34 3d df 44 80 bd ce 21 85 bc
       0.014700917 0.04403145 -0.06263136 -0.01625147
000230 fa 40 85 bd a6 c1 bb 3a 83 2d 48 3d 1f b8 a5 bc
       -0.06506534 0.001432468 0.04887153 -0.020229397
000240 18 7f db 39 92 83 3f bd 50 33 5b bd 86 20 19 3d
       0.00041865627 -0.046756335 -0.053515732 0.037384532
000250 c5 33 25 3d d2 24 54 3d 74 c3 b7 bc 68 41 6f bd
       0.040332574 0.051792927 -0.022432067 -0.058411986
000260 03 5e bd 3a 02 e7 96 3d 81 b6 2e bd d1 16 27 3d
       0.0014447573 0.0736828 -0.042654518 0.040793244
000270 e8 b6 88 3d 5a bf e0 3c 3a 0e 37 bd a5 56 ec 3c
       0.066755116 0.027434994 -0.044691302 0.02884991
000280 42 16 f3 3c f3 e4 42 bd 14 23 2c bd f2 53 88 bd
       0.0296737 -0.047581624 -0.04202564 -0.06656636
000290 72 5d 84 3d b2 84 30 3a 55 57 33 bd 2f 6a 1f bc
       0.06463136 0.00067336403 -0.04378446 -0.009729906
0002a0 14 3b af 3c fa 82 a9 bc ce eb 04 bd fb 67 11 3c
       0.021390475 -0.020692337 -0.032451443 0.0088748885
0002b0 d5 e0 f9 3c ce a3 31 3a af e8 b6 3c b8 c8 84 3d
       0.030502716 0.0006776423 0.022327749 0.064835966
0002c0 f7 8b 98 bc 48 ab 0a bd e3 0f 5c bd 2d 06 15 bd
       -0.018621428 -0.033854753 -0.05372609 -0.036382843
0002d0 62 13 83 3d 8f de d2 bb b7 a3 86 39 72 40 e0 bb
       0.06400181 -0.0064352225 0.0002568045 -0.00684362
0002e0 95 df 3c bc f1 1c 37 bc 5f f0 43 3d ab 64 63 bd
       -0.0115279155 -0.011176334 0.047836658 -0.055515926
0002f0 83 f5 6c 3d d8 12 81 3d dd 25 33 bd e2 c4 64 bd
       0.057851326 0.06302422 -0.04373728 -0.055851825
000300 6f 23 d4 bb 4d 3f 2e bd 79 39 41 bd 6f ed d3 bc
       -0.0064739506 -0.042540837 -0.04717395 -0.025870053
000310 a9 99 a3 3c 7d b5 8f 3d f9 16 ff bc 6c 0a 31 3d
       0.019970732 0.07017038 -0.031138884 0.04322283
000320 ab 62 7d 3c c0 c9 85 bd 03 12 9c 3d 27 62 f9 bc
       0.015465419 -0.065326214 0.07620623 -0.03044231
000330 f8 d7 43 bd 97 03 a1 3d d7 49 33 3d 32 22 cf bb
       -0.047813386 0.07862013 0.04377159 -0.006321215
000340 84 41 3f bd 05 38 f1 3a f6 30 bb bc c4 e2 b8 3b
       -0.04669334 0.0018403536 -0.022850495 0.005642267
000350 2b a3 b2 3c 36 3a a8 3d 81 d9 71 bd 64 df 6b bd
       0.02180632 0.08214228 -0.05904532 -0.05758609
000360 f9 49 1a 3d ff 6f 26 bd 56 6d f0 bc e4 4f 43 bc
       0.037668202 -0.04063415 -0.02934901 -0.011920903
000370 1a ee a0 3d c1 a1 05 3d d4 81 a0 bc ee 77 5c bd
       0.07857914 0.032624964 -0.019593157 -0.05382531
000380 71 82 99 bc 93 9f 87 bd b9 62 82 bd 12 8d fa bc
       -0.018738957 -0.06622233 -0.06366486 -0.030584846
000390 94 80 0a 3d 88 53 b2 3c 37 81 31 3a e7 d7 02 3d
       0.033814028 0.021768346 0.00067712687 0.03194418
0003a0 bb 78 c0 bc 1d 3e 91 3d 1d 11 49 bd 20 a0 4a 3d
       -0.023495069 0.07091925 -0.049088586 0.049469113
0003b0 4e d2 a9 3c 36 49 0d 3d ed 8b e3 3c 68 56 cd bc
       0.020730164 0.034493648 0.027776683 -0.025065616
0003c0 ca 89 6b 3d 83 c1 89 bd 14 29 b0 bc 17 45 b1 bc
       0.057504453 -0.067263626 -0.021503963 -0.02163939
0003d0 0e 74 7d bd e9 7d a3 3d 16 45 94 bd 92 7d 2a 3d
       -0.061878256 0.07983 -0.072397396 0.04162366
0003e0 d4 37 ee 3c 18 d9 d0 3c 27 c1 8a 3d 0e fe 88 3d
       0.029079355 0.025494143 0.06775122 0.06689082
0003f0 46 94 24 bd fb c1 48 bd 81 9d 47 3d 2e 8f 48 bd
       -0.040180467 -0.04901312 0.04873419 -0.04896467

net.6.bias f4 [2]
000000 83 e8 4a bc 45 ab 0e 3d
       -0.012384537 0.034831304
