normal/rnode/models/6300_model.pt (torch, 535780 bytes, 8 tensors)

net.0.weight f4 [256, 3]
00000000: 1f5f f1bd 78e7 033e 4194 edbe 46c1 97be
00000010: daae 5e3d 0c5c 68bf a305 023f b55d 803e
00000020: c326 843e c122 573e 9727 473e b56e a9be
00000030: 339a 87bd 98e8 61bf 5fae a1be 56d5 e83e
00000040: 7fe3 94bd af8f 1d3e 0397 c73e 447b 44be
00000050: ea83 753e d51b febd b05c 753d 0880 b8be
00000060: 23e5 4cbe 9d4e 523e 2c9f b5bd 74e0 02bd
00000070: f567 8bbd af4f 16bf 566c 76bd ca97 1fbf
00000080: ab17 e7be d8b2 9ebd 1ee4 27be 51f1 44bf
00000090: 2c0e 1dbe f89b ccbe 4a27 9cbf fd0f 23bc
000000a0: c018 db3d 832c 14bf a883 8ebe 18ac 3abc
000000b0: c340 6fbf da86 79be e90f 8cbd bff5 673d
000000c0: ad8a 88bc c9dc d93e b80d 22bf d7e8 4a3e
000000d0: e0c6 193f 9334 ff3e c5dc 083e 17d0 863d
000000e0: b817 f9be cbdb 8abd f36b 7cbf 1067 33bf
000000f0: a21d ecbc 52a1 e23e d66b 10bf f1f8 a3bd
00000100: 241c 44bd 1555 753f 1932 50bd 04d1 22bf
00000110: 4eef 94be 5b88 463e 3180 bd3d cd7d 253e
00000120: ea62 bcbd e36b 9c3f 649b e6bd eb21 9fbc
00000130: 8cad 563f 290a bfbe a594 10be 779f 193e
00000140: f78c 473f 0373 96bd e282 063e e30d 3abf
00000150: f646 8dbe 7b1e d0be 0b83 103f f2e4 e9bc
00000160: 5c6f 373f b483 cfbe 1de0 f8bd b344 edbd
00000170: e4aa cdbe 9ed1 3f3e 94a2 e2be 612f 54bf
00000180: 93a0 a9be 4e44 a03d de2b 69bf f630 4a3e
00000190: 4a41 203d a289 62bd f087 a53d c599 aabe
000001a0: ab57 0e3f a7b2 193e 24dd 5f3c ca3d a33d
000001b0: 6882 92bc c234 933e faee febe 68c9 173e
000001c0: 38e0 c33e 5df3 d8bf 1348 e2bd 2781 f13e
000001d0: 64d6 12bf eb2c 97bb 8aa2 cfbe edf1 74be
000001e0: 2229 833c 1092 0e3f 919b 35bf 174c e83d
000001f0: 4471 2cbe c417 7b3e a28c e1be b6a2 fcbd
00000200: 6a63 dbbe 619d dbbd 394a cabe 6aa2 d6be
00000210: a7f7 27bd f9fd 66be 2a0b 0ebf d99f 1ebe
00000220: c938 3c3e 3c64 433f 7b2b 7abc 7e02 063f
00000230: 6c71 11bf 8dd9 eabc d4ee 2dbf bf7e 6fbf
00000240: 7808 723e 72fa fe3e c5d4 8b3f f8ae 5ebe
00000250: cf3f 90bd ee43 2bbf 845d 053e 1a82 efbe
00000260: fb03 213f 03c2 cfbe c4e3 7b3e 6b44 92bf
00000270: d764 d0ba 26f2 9c3e 956e 9b3e 21a7 8cbe
00000280: 998a ac3c 38d5 19bf 5106 17be 37a9 c13c
00000290: 17b5 4bbf 99e9 5dbc 5628 403f da50 85be
000002a0: a4e8 f13e 80b7 d2bd 2f05 e3bd ebaf 4c3e
000002b0: 4895 0b3e b5b1 073e 44dc 513c 8606 c6ba
000002c0: adf2 d9be bc1e 4dbe a84d 223e ce54 64bf
000002d0: a130 a8bd 183e 7a3f 91dc 9d3e 7709 a33e
000002e0: 7c78 2e3e e3ec dabe 39af fbbd fd58 d73e
000002f0: 4691 0ebf 97ce ac3e 17c4 edbe 46fd b0bd
00000300: 088b dbbd 2df2 d03e 06d3 3fbf 7cd3 d63e
00000310: 900f d73e 1843 d43e d195 1bbd af7d 1b3f
00000320: 0d4e 1fbf 28cc e4be b78e 233f 3ddd 023e
00000330: 6bbf 9dbd 512f babe 3209 edbe d1b5 a7be
00000340: c88e bcbe cd97 a83d 612b 7a3c 370b 273f
00000350: 5c2c 8dbe 1958 683e 3773 82be 0768 e0be
00000360: 9856 22be 1361 bdbd f06d 06bf c251 d93e
00000370: 4c63 63be 1d98 55be e95f 3bbd e582 ecbd
00000380: f211 00bf 5368 fd3c 84bc 223e ce46 3a3f
00000390: ae27 92be feb6 1c3e 256a 8fbf 661a 71be
000003a0: cc13 47be b6c8 5fbe ce6d d03d cf0c ce3e
000003b0: 9d76 b4bf 62e9 643e 1a0d a03e f85d 083f
000003c0: 9454 803d dddb 16bf 77ba 7fbe a66c 043f
000003d0: e90a 92be fb65 7cbe 8451 11bd 3111 29bf
000003e0: 9fcf 85be dd7d 8039 bd27 253f 92b2 07be
000003f0: 60f2 c5bd ca24 853e 4cc5 22bc 7044 90bd
-0.11785721 0.12881267 -0.4640217 -0.29639643 0.05436597 -0.9076545 0.5078985 0.25071493
0.25810823 0.21009351 0.19448696 -0.33092275 -0.06621208 -0.88245535 -0.31578347 0.45475262
-0.07269954 0.15386842 0.389824 -0.19187647 0.23976102 -0.12407652 0.059902847 -0.3603518
-0.20009284 0.20537801 -0.0886825 -0.031952336 -0.068069376 -0.5871534 -0.06016191 -0.62340987
-0.45135245 -0.077489555 -0.16395614 -0.7693072 -0.15337437 -0.39962745 -1.219949 -0.009952542
0.1069808 -0.5788042 -0.2783482 -0.011393569 -0.93458194 -0.24367848 -0.06838972 0.056630846
-0.016667688 0.42551258 -0.63302183 0.19815384 0.60069084 0.49844798 0.13365467 0.06582659
-0.48650908 -0.067802034 -0.9860222 -0.70079136 -0.028822724 0.44263703 -0.56414545 -0.08006466
-0.0478784 0.9583295 -0.050829027 -0.6360018 -0.29088825 0.19387953 0.09252966 0.1616127
-0.09198554 1.2220424 -0.11260107 -0.019425353 0.8385856 -0.3731244 -0.14119203 0.15002237
0.7794947 -0.073461555 0.13135865 -0.7267744 -0.275932 -0.40648255 0.56449956 -0.028551552
0.71654296 -0.4053017 -0.12152121 -0.11585369 -0.40169442 0.18732306 -0.44264662 -0.82884794
-0.3313032 0.07825528 -0.9108256 0.1974524 0.039124765 -0.055307038 0.08082569 -0.33320442
0.5560252 0.15009557 0.013663564 0.0797077 -0.017884448 0.2875119 -0.497917 0.14822924
0.38257003 -1.6949269 -0.11048903 0.47168848 -0.57358384 -0.004613509 -0.40553695 -0.23920412
0.016010825 0.55691624 -0.709405 0.11342638 -0.16840082 0.24520785 -0.44052607 -0.12335722
-0.42849284 -0.10723377 -0.39509752 -0.41920787 -0.041007664 -0.2255782 -0.55485785 -0.15490665
0.18381037 0.7632482 -0.015269156 0.5234755 -0.56813693 -0.02866819 -0.6794255 -0.93552774
0.23636043 0.4980045 1.0924307 -0.21746433 -0.070434205 -0.6690053 0.13023955 -0.46778947
0.628967 -0.40577707 0.24598604 -1.142713 -0.0015899193 0.30653495 0.30357805 -0.2747126
0.021062182 -0.6009097 -0.14748503 0.023640258 -0.79573196 -0.013544464 0.7506155 -0.26038247
0.47247803 -0.10288906 -0.11084973 0.19988982 0.13631165 0.13251384 0.012808863 -0.0015108145
-0.4256796 -0.20031255 0.15849936 -0.891919 -0.082124 0.97751 0.3083234 0.3184316
0.17038149 -0.42758855 -0.122892804 0.4206008 -0.5569042 0.33751366 -0.46438667 -0.08642058
-0.107198775 0.40809765 -0.7493137 0.41958225 0.4200406 0.41457438 -0.037984673 0.6073865
-0.6222847 -0.4468701 0.6388964 0.12779708 -0.07702526 -0.36364225 -0.46296078 -0.32755902
-0.36827683 0.08232079 0.015269131 0.6525149 -0.27572906 0.22689857 -0.25478527 -0.43829367
-0.15853345 -0.09247031 -0.525115 0.4244519 -0.22205848 -0.20858808 -0.045745764 -0.11548404
-0.5002738 0.030933535 0.15892226 0.7276429 -0.28545898 0.15304181 -1.1204268 -0.23545226
-0.19441146 -0.21853909 0.101771936 0.40244147 -1.4098698 0.22354653 0.31259996 0.53268385
0.06266132 -0.58929235 -0.24973474 0.51728284 -0.2852395 -0.24648277 -0.03547813 -0.66041857
-0.26134965 0.00024507838 0.6451376 -0.13251713 -0.0966537 0.2600463 -0.009934735 -0.070443034

net.0.bias f4 [256]
00000000: 74b5 05bf 26de 88be e187 3a3e 8de7 3dbf
00000010: 8fa3 5c3d 1dd8 1dbe 1677 be3e 895e 60bf
00000020: a754 56bf 32c7 e13d 568f c03d 94a4 8abd
00000030: b44c 21be 04ea 1dbf bd59 dcbc c17c 9abc
00000040: 1285 8dbe fdc7 823f f3d6 423c 4d7a 873e
00000050: 0335 423e 450d 293f 33a6 a83c ec9d efbd
00000060: 388f 803e 6c6b 13be 6d78 5d3f 4912 8e3e
00000070: d8bc 463f 2e43 983d e8b7 15bf 7361 87bf
00000080: ce93 58bd 5814 103d 97ff 683f be6d f1bd
00000090: 0bbe fc3d 9558 acbf 359a 8abf 7168 6dbe
000000a0: ccd6 00bf 9109 9e3e 1fc2 edbe 290a 92bf
000000b0: 5d04 60bf eab5 0a3f d0a0 c93b 1baa 223e
000000c0: 9b6f 5e3e 4fed dbbe 089c 573f cecc 14bf
000000d0: d4c1 f0be 0582 dabe 6b6a c7be 2d99 7cbe
000000e0: 0754 f13d e0ca d23c e7bf 8abe c80a 5cbf
000000f0: 9aa0 b33e ae95 6b3e a17f 25bf e3a8 e1be
00000100: a1e6 5fbf 5898 7e3e 4395 323e 457a 06bf
00000110: 767e 95bf 2b31 1b3f a7d2 babe a9ed 20bd
00000120: 28d2 01bf 0734 9cbe 64f7 28bd bea1 ef3e
00000130: 28bc cabe ec27 09bf 6202 82bf 75ab a63e
00000140: 8d92 86be bda8 dbbe 83e1 02be 30b8 d9be
00000150: ea17 79bf 78b9 5fbe d0f5 7dbe 9331 3bbf
00000160: 18cd 5abf c4b6 6d3f 445e 15bf 2f68 243f
00000170: 0d0a 54bf 0193 6c3f 9321 943f 0587 7a3e
00000180: 1a4e 57bf b5cd 94bd a087 9c3e bb53 043f
00000190: b89a 5c3e 9652 93bf bc66 633f 0859 0e3f
000001a0: 6f30 953e 8706 ddbc 582f ad3d 091c 2a3e
000001b0: cdb3 46bf b583 16be 63ce baba 39a6 23bf
000001c0: d604 bebe 04f8 d6be 0cee 47bf 857f 363f
000001d0: 7876 073e 245a fabe be67 c53e db04 28be
000001e0: 9b78 76be 03c9 9ebd 3be8 f33d 2c7b 27bf
000001f0: ba63 44bf 86a3 2ebe 8566 58bf e580 e7bd
00000200: 4875 723c 5f9b 21bf 25f7 b2be 63aa 83bd
00000210: 84d8 843e 4741 5bbf e7e4 0abf 487d b4be
00000220: 8435 413f 9d5d 30bf 3954 23bf 076e 8dbe
00000230: c9ab ba3d 8623 ba3c 422a d1be 5580 2bbf
00000240: 1c13 f13c 6012 9dbb af9f 25bf 6651 febe
00000250: 2501 f0be de39 2bbf cff1 513e 69c9 4ebf
00000260: 521e 63bf ba98 95bf 69a2 01bf 4819 edbe
00000270: 9d4b e73e efa3 ea3e 548f 2fbf 070b 6dbf
00000280: 0b01 8c3e 1f23 35be ced0 f63e 875d 72be
00000290: fa3f 99be 534a f9be 870c 7bbd 6cc5 95bf
000002a0: b900 963e 9a59 0cbf 4555 6cbf 62b0 2d3e
000002b0: 2609 43bf 0ecf 01bf a1ad cc3b 097b d7be
000002c0: 7e79 13bf 4d2c f03e 63be b2be 9000 31bf
000002d0: 59f8 573f 07a8 46bf cef7 0c3d 10e5 30bf
000002e0: 8c96 ccbe 743b f53b f5f0 06bf b38e 73be
000002f0: 5f25 acbe 5ec7 14bd cbdc 88bf f608 4dbf
00000300: ce65 03bf dd76 aebe 589f a1bd fe12 823e
00000310: 0557 bebe 3e70 623e 8005 3fbe d21e b7be
00000320: bc71 0cbf 038c 98bd 7e45 87be 6e3f 28bf
00000330: edfd 0a3f fbd6 2cbf 96ef da3e 19ee 1fbf
00000340: a696 cabe 746b 4ebe bb8c 34bf dbbb 5dbe
00000350: d7ca 843c 6657 a93e 725d 413e 34b7 e73b
00000360: 18c6 30bf 7118 22be d805 5fbf a054 12bf
00000370: a2c2 07bf 9a0b fabe fc80 8fbe 081d 66bf
00000380: 1149 d8be c167 f33e fe31 42bf 892f a4bf
00000390: 6288 f73e 8c69 c83e 34f1 a53e f495 0bbf
000003a0: 0f08 203f d1c9 f13d 9ec6 283f 412d 05bf
000003b0: 6a43 3ebd 1d61 a4bf 62e8 bebe 0bd2 aabe
000003c0: 7aaf 7e3d 9c27 163f aa3f fabd 47e8 18bf
000003d0: 85f3 a2be 10fe d33d 38eb d43d 0787 babe
000003e0: 80e2 b93e 41ef 5abf 86b1 5e3e ae29 ed3d
000003f0: 58df 84be 5e27 61bf 22d0 fabe 7374 ccbe
-0.5223 -0.26731986 0.18215896 -0.74181443 0.05386692 -0.15414472 0.3720023 -0.8764425
-0.8372292 0.110243216 0.09402339 -0.06769672 -0.15751916 -0.61685205 -0.02689826 -0.018858315
-0.27640587 1.0217282 0.011892068 0.26460496 0.18965535 0.6603587 0.020587062 -0.11700043
0.25109267 -0.14396447 0.8651188 0.27748325 0.776319 0.074346885 -0.58483744 -1.0576614
-0.052875333 0.03517565 0.91015 -0.1178851 0.12340935 -1.3464533 -1.082831 -0.23184372
-0.50327754 0.30866674 -0.46437165 -1.1409351 -0.8750666 0.5418383 0.0061532035 0.15885203
0.21722262 -0.4295449 0.8422246 -0.5812501 -0.4702288 -0.42677322 -0.38948378 -0.24667807
0.11783605 0.025731504 -0.27099535 -0.8595395 0.35083467 0.23006317 -0.6464787 -0.44074163
-0.87461287 0.24862802 0.17439751 -0.5253032 -1.1679218 0.606219 -0.3648884 -0.03928915
-0.507113 -0.30508444 -0.041251555 0.46803087 -0.39596677 -0.5357654 -1.0156977 0.32552686
-0.26283684 -0.42902175 -0.12781338 -0.42523336 -0.97302115 -0.21848094 -0.24800801 -0.7312252
-0.854692 0.92857003 -0.5834696 0.6422147 -0.82827836 0.9241181 1.1572746 0.24465568
-0.8410355 -0.07265798 0.30572224 0.5169026 0.21543396 -1.1509578 0.88828635 0.556046
0.29138514 -0.026980652 0.08456296 0.16612257 -0.77618104 -0.1469868 -0.0014252182 -0.6392551
-0.37113065 -0.41986096 -0.78097606 0.7128833 0.13228786 -0.48896897 0.38555712 -0.16408102
-0.24069445 -0.07753184 0.11909529 -0.6542232 -0.7671467 -0.17054567 -0.8453143 -0.113038816
0.01479847 -0.631277 -0.3495418 -0.06428983 0.25946438 -0.8564648 -0.5425553 -0.35251832
0.75472283 -0.6889284 -0.6380039 -0.27623007 0.09114797 0.022722017 -0.40852553 -0.66992694
0.029428057 -0.0047934502 -0.6469678 -0.49671477 -0.46875873 -0.66885173 0.20502399 -0.8077608
-0.8871814 -1.1687233 -0.50638443 -0.4630835 0.45174876 0.45828196 -0.68578076 -0.9259495
0.27344546 -0.17689179 0.4820618 -0.2366849 -0.29931623 -0.48689517 -0.061291244 -1.1700873
0.29297426 -0.5482422 -0.9231761 0.16961816 -0.76185834 -0.50706565 0.006246284 -0.42086056
-0.5760726 0.469088 -0.3491088 -0.69141483 0.84363323 -0.7760014 0.034416012 -0.6909952
-0.39958608 0.007483894 -0.5271142 -0.23784904 -0.33622262 -0.036322944 -1.0692381 -0.800918
-0.51327217 -0.3407506 -0.078917205 0.25405115 -0.37175766 0.2211313 -0.18654442 -0.35765702
-0.54861045 -0.0744858 -0.26420206 -0.65721786 0.5429371 -0.67515534 0.42760915 -0.62472683
-0.3956806 -0.20158178 -0.7052724 -0.21653692 0.016210003 0.33074492 0.18883303 0.0070714
-0.6905227 -0.15829636 -0.8711829 -0.5716038 -0.5303136 -0.48836976 -0.28028095 -0.8988805
-0.42243245 0.47540095 -0.7585753 -1.2827007 0.4834624 0.39143026 0.32410586 -0.54525685
0.62512296 0.118060715 0.65928066 -0.52022177 -0.04645101 -1.2842137 -0.3728667 -0.33363375
0.062179066 0.5865419 -0.12219174 -0.5972943 -0.31826416 0.10351193 0.10396427 -0.36431143
0.36305618 -0.8552132 0.21747407 0.115802154 -0.25951648 -0.87950695 -0.48986918 -0.39932594

net.2.weight f4 [256, 256]
00000000: 6b03 23bd 38b1 6f3d ebd8 b83b c4d4 483d
00000010: 1441 fabc 099d 3b3c 8ef0 733c 66e6 43bc
00000020: 46be 533d 268f f8bc aa93 0fbd 003e 603c
00000030: 7ad6 fabc 40a2 e5bc 7200 363c 603a 05bd
00000040: 82d3 04bd 1b09 29bd f0f1 413c 1a20 093a
00000050: 7130 a8bb e487 4fbd 557a 353d 20b7 8abd
00000060: f470 9b3c eaf9 26bd ad4c 31bb ee7f cd3c
00000070: 366b 2bbd a255 9fbc 3a16 35bd 6ecb f5bc
00000080: f51c 8f3c 490f 19bc 3e2a 853d 5111 dabc
00000090: 213e 19ba 5169 2f3c 0866 9e3c cd41 5bbc
000000a0: a939 f73c 5fb2 313b 6129 6e3d 099a 803b
000000b0: 9d10 e33c abb3 6fbd 3893 a53b 1e36 57bc
000000c0: feff 043d bf18 843d f7cf 1d3d 2944 393c
000000d0: fb04 683c 9765 9c3c 7bb4 f33b a120 feba
000000e0: ea1a 0a3d eb12 55bd 9bee b73c f7a9 733c
000000f0: a522 983c 05c8 813c 6f36 0d3d c5dd 5e3d
00000100: e48c 74bd c58a 82bc b884 cabc f627 b23c
00000110: 5e9e a33c 6c00 63bd 7728 99bc 7e1f 60bd
00000120: 9b88 063d 77be 493d f280 803d a317 a6bc
00000130: ad0a dcbc 59cf d2bc 1581 713c 65c4 eebc
00000140: d21f 2bbd 062d 263d 3ea8 01bd f666 193d
00000150: c9d0 7abd abca 57bd 2c25 71bd 60dc 05bc
00000160: a1cf 43bd 3770 543d f1de d0bb eed0 4f3d
00000170: 5d7f f93c 2985 343b a36e 893c 04cd e33c
00000180: cdb5 09bd 1620 29ba f4a5 b7bc 94a7 15bd
00000190: 5433 c53c fc0e 90bd f53c 483d c130 af3d
000001a0: c3e3 073d 12a7 9c3b 295e 91bc 9749 a23c
000001b0: b27e 92bc 6be1 e93c 0b5d 083d 9621 613d
000001c0: 3cb4 05bd 18a6 0a3d d23e b6bc fdc4 20bd
000001d0: 4462 77bd 2028 febc 1578 bebb 3412 87bc
000001e0: 9d35 353d 233b 1d3d 72e8 3b3d 810f 48bd
000001f0: 0ae3 943b 8045 83bc 7070 523c 7540 1bbc
00000200: 480e 013d 9258 d0bc 16e7 3bbd 4697 2dbd
00000210: 5d15 22bd a0c6 c63c b770 1dbd 4072 913c
00000220: 5a4f 283c de87 98bc cc05 21bd 7bd0 8f3d
00000230: 8c15 e73c 2a52 e23b 35fa 563d e454 a3bc
00000240: 714a 253d 003e 6dbd c2f1 22bd fca6 35bd
00000250: 9b9d e83c 2b2f 0cbb c3dc 1bbd 13b9 ccbc
00000260: ec60 2fbc 9014 393d 346b a5bd c375 d53c
00000270: bf50 25bd c60e 53bd a946 3d3c 2eac 893d
00000280: 253e 92ba 216c 5a3c 3ee3 cbbc ab1a 503d
00000290: 8ca5 9dbc 6de2 443d 4744 de3c b9c6 f2bc
000002a0: 22a4 063d a0c5 adbc e5d6 d23b 32f8 2a3b
000002b0: cfdd 48bd 2d95 f93b c087 953d 185a 0dbd
000002c0: 5643 63bd 8876 64bc 1982 5fbd 9d1e 523c
000002d0: c56f b0bb 90d3 0d3d b36a 403d 1513 773d
000002e0: 1862 7c3b 5d12 e03b 0dd6 0e3c ba1a 2d3d
000002f0: 30af 25bd eac6 353c 4c29 8fbc 5ee4 793d
00000300: b657 3f3d 9b8a 1e3d 2f2c 11bd 75a9 2abd
00000310: 1c37 bebc 371a 4cbd 0da3 383b ae39 8a3c
00000320: 7936 4a3d 00f0 f93a 3298 7fbd 8ead 773c
00000330: 7ad0 3ebd 990c 363d e0e5 903d 8779 fb3c
00000340: ac20 1e3d 2658 c53c 2654 fa3c 220e 13bd
00000350: fc0c 32bd 6fdc 43bd 8406 67bc 3127 d8bc
00000360: 7211 adbc 6ecd 8c3d 1066 3a3d 24de 21bd
00000370: 5e34 9c3b fe56 f23c 52e4 3e3d c599 f4bb
00000380: 4010 55bd 6041 c4bc ff16 3a3d f14e e5bb
00000390: d162 893c 4490 1e3d bc0c 2d3c dae6 d93c
000003a0: 379d 473d f446 b23d b49f 7b3a 5357 d33c
000003b0: 8bdd e13c 097a f83c 7c16 76bd 05c6 9ebc
000003c0: 7002 cb3c 6630 9bbc e70b ee3c 4856 bb3c
000003d0: cd93 a2bc 8026 903c 16cf 693d 829c 7c3d
000003e0: b7ab 313c 83a4 2e3c 30e1 bcbb 84eb 76bd
000003f0: 8c5a b23d 4167 223d e862 4e3c 7432 f43c
-0.03979818 0.05851862 0.005641093 0.049031034 -0.03054861 0.011451014 0.014888896 -0.011956787
0.05169513 -0.030341696 -0.035052933 0.013686657 -0.030619849 -0.028031468 0.011108505 -0.032526374
-0.032428272 -0.04126845 0.011837468 0.0005230919 -0.005132728 -0.050666705 0.044306118 -0.067732096
0.018974759 -0.04076568 -0.002705376 0.025085416 -0.04185029 -0.019450013 -0.04421065 -0.03000423
0.017469862 -0.009342023 0.06502198 -0.026619585 -0.0005845745 0.010706262 0.019335762 -0.013382387
0.030178862 0.0027114374 0.05814493 0.0039246124 0.027717883 -0.058520954 0.0050529502 -0.013135461
0.032470696 0.064500324 0.03852841 0.011307755 0.014161344 0.01909141 0.0074372864 -0.0019388386
0.033717074 -0.052019995 0.022452643 0.014872066 0.018571207 0.015842447 0.03447574 0.054410715
-0.059704676 -0.015935311 -0.024721488 0.02174757 0.019972976 -0.055420324 -0.018696053 -0.054717533
0.03284512 0.049253907 0.06274594 -0.020274943 -0.02686056 -0.025733637 0.014740248 -0.029146383
-0.041778393 0.04057028 -0.03165459 0.037451707 -0.06123427 -0.052683514 -0.05887334 -0.008170217
-0.047805432 0.05186483 -0.006374233 0.05073636 0.03045624 0.002754519 0.016776389 0.02780772
-0.033620644 -0.00064516196 -0.022418 -0.036536768 0.024072327 -0.07034108 0.04888626 0.08554221
0.033176195 0.0047806585 -0.017745094 0.019810481 -0.017882679 0.02854987 0.033291858 0.05496367
-0.032642588 0.033849806 -0.022246752 -0.039250363 -0.060396448 -0.031024992 -0.0058126547 -0.016488172
0.044240583 0.038386475 0.045875974 -0.04884291 0.0045436667 -0.016024351 0.01284419 -0.009475817
0.03150776 -0.025432859 -0.045874678 -0.042380594 -0.039571155 0.024264634 -0.03843757 0.017754674
0.010272825 -0.018619474 -0.03931217 0.07022186 0.028208517 0.0069067674 0.05248471 -0.01993794
0.040354196 -0.057920456 -0.03978134 -0.0443487 0.028395465 -0.002139042 -0.03805233 -0.024990594
-0.01070426 0.045185626 -0.08077088 0.02605713 -0.04036021 -0.05152776 0.011552491 0.06722294
-0.0011157437 0.013331444 -0.024888631 0.050806683 -0.019243978 0.0480675 0.027132167 -0.029635774
0.032871373 -0.021212399 0.006434309 0.0026087877 -0.04903966 0.00761666 0.07301283 -0.03450975
-0.05548414 -0.013944276 -0.05456743 0.012824682 -0.0053844177 0.03462559 0.046976756 0.060320932
0.0038510617 0.0068381266 0.008718026 0.042261817 -0.040450275 0.011094788 -0.017475747 0.061008804
0.046714507 0.038706403 -0.035442527 -0.041665513 -0.023219638 -0.049829688 0.0028173358 0.016873207
0.049368355 0.0019068718 -0.062401004 0.015117062 -0.046585537 0.044445608 0.07075095 0.030697597
0.038605377 0.024089884 0.030557703 -0.03590215 -0.043469414 -0.047817644 -0.014100675 -0.026385875
-0.021126483 0.0687512 0.04550749 -0.03951849 0.004766985 0.029582497 0.046604462 -0.00746462
-0.05201745 -0.023956954 0.045432087 -0.006997936 0.016770752 0.0387118 0.010562118 0.026599336
0.048733916 0.087049395 0.0009598688 0.025798475 0.02757146 0.030331628 -0.060080037 -0.019381532
0.024781436 -0.018943977 0.02905841 0.02286829 -0.019845868 0.017596483 0.05708226 0.061672695
0.010844163 0.01065934 -0.005764149 -0.0602832 0.08708677 0.03964925 0.012596823 0.029809214

net.2.bias f4 [256]
00000000: 9822 413d 428d 3cbd e059 5fbd 494c c53c
00000010: 3a34 87bc 4bbd d0bd a21e 06bd f81e cbbd
00000020: 3b0d 8c3c fffc b6bc cf2d 66bd df48 50bd
00000030: 2462 863b fe3c 063c dfb3 7ebd 04d0 c7bc
00000040: 6187 923c 6d99 05bc fd71 87bd e3d9 9bbd
00000050: 84b5 4fbd 60d8 c03c fd5b 05bd 5f65 16be
00000060: 35bc 43bd 182c 4ebd 7b92 abbd b473 8cba
00000070: 7368 2f3d a918 28bd c86e 593c 5235 28bd
00000080: 9486 a6bd 4bb7 9abc 45d3 28bd dfb1 e83c
00000090: adf3 83bc 4947 5cbb 8a2e 5fbc 84e2 83bc
000000a0: 5c79 44bd b016 9cbd 6c1e 77b7 ec9e edbd
000000b0: 4534 d7bc 0965 1bbc c90d 82bd d9ab 80bc
000000c0: 8cd2 a4bd e456 3dbc eaa3 c73c 6cfc c6bd
000000d0: 4486 47bd aada e7bd caff bfbd ccca 9a3c
000000e0: a20b a5bd ab04 65bd 7627 873c 2310 1dbc
000000f0: 249b 5f3d 8986 b3bd 7758 7dbd 3df7 f8bd
00000100: 540a d1bc fc28 1abb d688 a93a 17fc 033c
00000110: 06eb 5bbd 8392 873c 1cee 52bc 953a 91bc
00000120: 7680 24bc bc92 6dbc d570 ccbc f238 6bbd
00000130: 3d83 dabd 8a1d 3f3d 6952 2ebc 47e2 9bbc
00000140: f688 d5bd 6460 0ebc 8bae e4bd 97f5 af3b
00000150: 39b0 4fbd b554 69bc 7851 6bbc 3e25 94bc
00000160: 5af4 02be 2431 dabd fa8a c6bd fb6c 5cbd
00000170: 13b0 7dbd a453 a13d e5d5 9fbd 6962 db3c
00000180: c892 e8bc 3d13 b53c 9a1c 9b3b 0193 babd
00000190: b10e f8bc 8999 22bd f9f0 a6bc c663 c4bb
000001a0: bea9 13bd 6445 76bd f503 4abc e9a6 acbd
000001b0: 9b66 0abe 2caf d7bc 0b33 21bd b2c3 4fbd
000001c0: 780e e5bc b722 bcbd 5a38 16bd 7456 17bd
000001d0: 332a eb3c 0484 00be 310f c23b 096f 133d
000001e0: fc7f 9d3a ec73 02bd 2739 89bd 0b29 83ba
000001f0: b0d6 e93c f8f4 c43c 7244 8fbd 003a b3bd
00000200: 677c 983b 2a6f 803c 39c4 c3bd c9e7 09bd
00000210: 9350 a9bd ea80 3fbd f9c3 45bd ea62 d23c
00000220: 2346 c5bd 1bd3 d2bc dbe8 9abc cff2 553d
00000230: be8a a73d 2beb cabc 2e38 853d 172b fd3c
00000240: 29e8 583d 5fb2 95bd 7e28 41be 6341 463d
00000250: ff98 ddbb f714 36bb e509 8bbd 46a6 5fbd
00000260: e668 7fbc 562d abbc c5c0 473c 2eea 18bd
00000270: 718c a8bd fe28 9ebd c8ce 9ebd 6ac7 273d
00000280: 4754 353d cebf 7d3d 64c0 633d 8bc4 adbd
00000290: cdc0 54bd 38f8 643c bf90 d8bd d8c0 28bd
000002a0: fd70 723d f0b9 25bd d951 b5bc bbb3 24bd
000002b0: a653 af3c 844d b2bd fd2d 9b3c 4aac 02be
000002c0: 2dc5 d7bc 4de7 b4bd 0027 38bc aa27 d1bb
000002d0: 1f01 cdbc f9ff b8bd 5b2f b53b f435 b6bc
000002e0: 87f7 b0bd b250 1dbd c905 9bbd 91bb e0bd
000002f0: b8df e4ba f0f0 44bd d768 4c3c 2e45 0d3d
00000300: c2ed e8bb a942 543d b2f2 1fbd 6519 f6bb
00000310: cf22 403c 6224 27bd 082f d73c a891 aebd
00000320: 6054 18bd b405 9ebd f345 84bc a7c9 7dbd
00000330: e52e 553d 753e b8bc aa92 82bd 0849 f3bc
00000340: 3f76 86bc 999e 853d deda 0cbe 2d32 f039
00000350: 865e ebbd 3e5b 3ebc 1d66 0a3d 9822 11bd
00000360: 5ed8 e6bd 5412 81bc 35af f4bd 6aff 1f3c
00000370: adf7 a73c 817a 373d fc5d 1c3d d4e8 2d3c
00000380: 67d3 fdbc 97a5 d13c cea3 233d 4283 1b3d
00000390: b2fd 88bd 1b56 a9bd 7c4e 3fbd 6f26 86bd
000003a0: c659 e2bd 418f 28bd a436 bcbd dab2 11bd
000003b0: 31bd bebc 2e30 6bbd fd2b 81bd b111 82bb
000003c0: a213 1cbc 51db 23bd 71e3 48bd e893 4b3d
000003d0: 0c74 1dbc daa1 f8bd 0835 593c 6fd3 0cbb
000003e0: 62cc 11bd a7f1 5e3b 3705 a9bd c9b6 fabc
000003f0: db78 78bd a4a7 0b3b c40c 093c b194 c8bb
0.04715213 -0.04603315 -0.05452907 0.024084227 -0.016504396 -0.10192355 -0.032744057 -0.09918016
0.017096153 -0.022337435 -0.05619603 -0.050850745 0.0041010547 0.008193253 -0.062183257 -0.024391182
0.01788682 -0.008154255 -0.066135384 -0.07609918 -0.050710216 0.023540676 -0.03255843 -0.14687108
-0.04778691 -0.05033502 -0.08377548 -0.0010715635 0.04282422 -0.041039143 0.013271041 -0.041066475
-0.081311375 -0.018886229 -0.041217107 0.028405128 -0.016107405 -0.0033611825 -0.013621936 -0.016099222
-0.0479673 -0.07621515 -1.472943e-05 -0.116025776 -0.026270041 -0.009484538 -0.063502856 -0.015706943
-0.08047971 -0.011556361 0.024370153 -0.097161144 -0.04871203 -0.11321004 -0.0937496 0.01889553
-0.080588594 -0.055912655 0.016498309 -0.009586367 0.054591313 -0.08765895 -0.061851945 -0.12156532
-0.02551762 -0.0023522964 0.0012934457 0.008055708 -0.053690933 0.016549354 -0.0128741525 -0.01772813
-0.010040393 -0.014500316 -0.024956146 -0.057427354 -0.10669563 0.04665903 -0.010639765 -0.019028796
-0.10426514 -0.0086899735 -0.11166104 0.0053698528 -0.05070517 -0.014241387 -0.014362685 -0.018084165
-0.12788525 -0.10653904 -0.096944764 -0.05381487 -0.061935496 0.07877281 -0.07804469 0.026780324
-0.028390303 0.0221039 0.004733634 -0.0911007 -0.030280443 -0.039697204 -0.020378577 -0.0059933392
-0.03605055 -0.06012477 -0.012330045 -0.08430273 -0.13515703 -0.026328646 -0.03935532 -0.05072374
-0.027961 -0.09186309 -0.036674835 -0.036947682 0.028706646 -0.1255036 0.005922221 0.035994563
0.0012016292 -0.031848833 -0.06700354 -0.0010006739 0.028544754 0.024042591 -0.06995477 -0.08751297
0.004653502 0.015678007 -0.09558911 -0.033668313 -0.082673214 -0.0467538 -0.048282597 0.025681932
-0.09632518 -0.025735429 -0.018909862 0.052233513 0.0818076 -0.02477034 0.06504856 0.030904336
0.05295578 -0.07309412 -0.18863103 0.0484022 -0.0067626233 -0.0027783492 -0.067889966 -0.05460193
-0.015588975 -0.020895641 0.012191956 -0.037332706 -0.08229912 -0.077226624 -0.07754284 0.04096166
0.044269826 0.061950497 0.0556034 -0.08484753 -0.05194168 0.013975196 -0.10574483 -0.041199535
0.059189785 -0.040460527 -0.022133755 -0.040210467 0.021402191 -0.08706191 0.018942827 -0.12761036
-0.026339138 -0.088331796 -0.011239767 -0.006382902 -0.025024949 -0.09033198 0.005529327 -0.022242524
-0.08640962 -0.038407035 -0.07569463 -0.109732755 -0.0017461693 -0.04808134 0.012476168 0.034489803
-0.007108421 0.051821385 -0.03904981 -0.0075103515 0.011727049 -0.04080618 0.026267543 -0.085238755
-0.03718984 -0.077159315 -0.016146636 -0.06195989 0.052046675 -0.02249072 -0.0637563 -0.02969791
-0.016413806 0.06524391 -0.13755366 0.0004581375 -0.11492638 -0.0116184335 0.03378879 -0.03543338
-0.112717375 -0.01575581 -0.119474806 0.009765485 0.020503843 0.044794563 0.038175568 0.010614593
-0.030984594 0.025591655 0.03995114 0.037966974 -0.066890135 -0.082683764 -0.046705708 -0.065502994
-0.11052279 -0.041152243 -0.09190109 -0.035570957 -0.023283573 -0.057418995 -0.06307218 -0.003969394
-0.009526165 -0.04000408 -0.04904503 0.0497016 -0.009610187 -0.12140246 0.013257273 -0.002148833
-0.035595305 0.0034018548 -0.08252948 -0.030604737 -0.06066213 0.0021309638 0.00836486 -0.006121241

net.4.weight f4 [256, 256]
00000000: 9e0d 293d 5ead 33bd fff2 36bd 9f2b 5abd
00000010: a041 7bbc af6d c83c 4a3f 4b3d 400e 1e3c
00000020: 8f7f 463d 6126 363d 6c09 2abd 10b0 3e3c
00000030: fe61 40bd ca93 8ebc 4267 edbc cb2b 223c
00000040: 8264 c53c dc68 823c 5cb3 403d a912 74bc
00000050: 9661 42bd c060 a03c f6f2 37bd f50f 1ab9
00000060: a0b4 683c c9b3 873c 9481 1fbb ae1e 1f3d
00000070: 59e9 1b3c a466 9bbd e1fb 823d 9184 b1bc
00000080: 7754 45bd 1e26 c1bb de1e 68bd 8088 1a3c
00000090: cf68 db3b 33a8 75bd a0c4 0a3b 40b9 063d
000000a0: bce9 fb3c 3612 853d 3edd 4ebd c2a6 93bd
000000b0: 3b41 11bd ed54 8dbc c3be 1cbd b3f7 bcbc
000000c0: 2677 033d b3dc 233d c39a 0c3d a746 5ebd
000000d0: b08c 133b fc03 babc c0ed 143d ff9e bbbc
000000e0: d005 233d afb2 d3bc d668 1cbd e5aa 593c
000000f0: 504e a73c 4cfe dd3c 05a1 a7bb 8565 353d
00000100: fd55 e9bc 5b45 65bd 53a1 c4bb 8adf 573c
00000110: a844 2fbc feef 1d3d 19b9 e5bb 247a d23b
00000120: b3f4 813d cf89 60bd 043b c53b e421 36bd
00000130: e336 9dbd 90c9 5f3d 7e55 1c3d 92a5 ee3c
00000140: 4af5 43bd c671 f2bc 2fbe 083d 43e4 bfbc
00000150: 3781 71bd 8d4e 16bd 226a 5f3d de03 3abd
00000160: c2fe 293d c931 013d aae2 66bd 3eff 883d
00000170: 33bf 26bc 0cf6 893c 50ab 70bd 7455 b4bc
00000180: 926e b53c 79de 29bd 636c 30bd 7733 a4bc
00000190: f073 c03b d39d 3bbd b531 513d bb8c 0bbb
000001a0: ebf9 443a c808 f13c 8956 4bbb 6ea2 763b
000001b0: 197b 91bd ccbf 633d ea3a f4bc dc11 563c
000001c0: 4daf dcbc aa72 55bd acc1 623d 7bdb c1bc
000001d0: 138b 023d baf5 163d a9c3 663d 906b 233c
000001e0: 3585 203d f94f 793c 3e40 76bd 7bc8 a33c
000001f0: 532d 45bd e2ba a73c 4ec8 4f3b 7eaf 993c
00000200: 7a93 e1bc dde3 1bbd 5c91 efbc 57b3 09bd
00000210: 0064 01bc b162 20bc efb4 2c3d 11fe fdbb
00000220: 9277 09bd 0182 c33b 5c33 4abd 733b 33bd
00000230: 47ec 3ebd f5f3 e9bb 0153 67bd 755e e1bc
00000240: 0956 c5bc 6c61 47bc 9595 d9bc 33b4 6fbb
00000250: a7b4 82bd b9fc dc3b e817 923c 8a15 a03c
00000260: 1707 acbc 2e3c c2bc 78d7 8fbc 4a3c d73c
00000270: 044d a13c 21d8 4ebc 9046 1cbd 3833 74bc
00000280: a4fd 083c 731f c8bb 2886 d93c a8a6 4ebd
00000290: b50f 00bd 80aa 363d 477e 88bd 2a5c d13b
000002a0: 0929 6b3d 0c91 b1bb 3b8a 8fbd a6e0 413c
000002b0: 3d85 c8bc eea6 ca3c 2d1a 78bb 53ed b4bc
000002c0: 4e12 243d c557 0cbd cffb 3bbd fbc5 1ebc
000002d0: 868a 5abd 7eeb 90bd 1476 3dbd 2599 e9bc
000002e0: e7c6 44bd 77e2 29bd e88f 3d3d a760 b6bc
000002f0: 72bf 233c 905b ecbc 74cc ecbc 8dfc 03bd
00000300: 5f24 14bd 5412 05bd 9fb1 93bd 68ff 763d
00000310: 094b 04bd 2765 dd3c 980f 303d a936 393a
00000320: 6950 953d b2bc ecbb 0496 0f3c c3ae cf3c
00000330: 28d0 5d3c 5b08 423d 9241 bf3b 34f7 7a3c
00000340: 841a 2e3d 9916 78bc a56a 4ebd 45df 6f3d
00000350: 1702 2dbb 845d 683d 1719 6a3c 2149 66bd
00000360: 215c 5f3d a1be 12bd a996 d8ba 541b 29bd
00000370: 11ac 8d3c 4385 1b3d 034f 2b3c b0a0 f3bc
00000380: 1998 6a3c 5480 cb3a 8414 3c3d 6c20 7c3d
00000390: 4816 a2bd 161e b13c 9304 023d 3415 24bd
000003a0: 2060 553a de5f 19bb 5977 7cbd 472f 74bd
000003b0: f6fc 393b e260 86bc bed0 403c d9ff 05bc
000003c0: ee5b 9bbc 9d27 0cbd 8d7b 5f3c 681b 833c
000003d0: 28c2 133d 6d6b 003a 1135 6ebd efb6 163d
000003e0: 68f0 543d 190c 6bbb c900 013d d52b b6bb
000003f0: 9620 1dbc 8c9c 3c3c 815d 753d 363f b5bc
0.041272752 -0.043866508 -0.044665333 -0.053264257 -0.01533547 0.024466364 0.049620904 0.009646952
0.048461493 0.044470195 -0.04151289 0.011638656 -0.046968453 -0.017404456 -0.028979901 0.009898136
0.024095777 0.015919141 0.04704605 -0.014897027 -0.047456346 0.019577384 -0.04490944 -0.00014692529
0.014203221 0.01656522 -0.002433871 0.038847618 0.009516084 -0.075879365 0.06395698 -0.021669658
-0.048176255 -0.0058944365 -0.056670062 0.009431958 0.006695844 -0.05997486 0.0021174327 0.032891512
0.030751102 0.06497614 -0.05050396 -0.07209541 -0.0354626 -0.01725241 -0.038267862 -0.023067331
0.03209605 0.040005397 0.03432728 -0.054266598 0.0022514276 -0.022706978 0.03635955 -0.022902964
0.039800465 -0.025842039 -0.038185917 0.013285373 0.020423084 0.027098797 -0.0051156306 0.04428627
-0.028483385 -0.055974346 -0.0060006767 0.013175854 -0.010697521 0.038558953 -0.0070105908 0.0064232517
0.06345501 -0.054818925 0.006018998 -0.044465914 -0.076764844 0.054635584 0.03816747 0.029131684
-0.047841348 -0.029595267 0.0333845 -0.023424273 -0.05896112 -0.036696006 0.054544576 -0.045413844
0.04150272 0.03154162 -0.056368507 0.066893086 -0.010177421 0.016840957 -0.058757126 -0.022013403
0.02214745 -0.041471932 -0.043072116 -0.020044072 0.005873196 -0.04580481 0.051072795 -0.0021293599
0.00075140473 0.029423133 -0.003102692 0.0037633437 -0.07103557 0.055602834 -0.029813249 0.013065781
-0.026939059 -0.052111305 0.05536048 -0.023664227 0.031870913 0.036855437 0.05633894 0.009974375
0.039189536 0.015216821 -0.06011986 0.019993057 -0.048138928 0.020474855 0.0031705084 0.018760439
-0.027536143 -0.038059104 -0.029244117 -0.033618297 -0.007897377 -0.009789155 0.04216474 -0.0077512343
-0.033561297 0.0059664254 -0.049365386 -0.043757867 -0.04661205 -0.0071396776 -0.056475643 -0.027510861
-0.024088876 -0.012169223 -0.026560584 -0.0036575913 -0.06382113 0.006743994 0.017833665 0.01954152
-0.020999474 -0.023710337 -0.017558798 0.026273865 0.019690044 -0.012624771 -0.03815323 -0.01490479
0.008361254 -0.0061072647 0.026553228 -0.050451905 -0.03126498 0.044596195 -0.066647105 0.0063891606
0.05741218 -0.0054189023 -0.07008787 0.0118333455 -0.024477595 0.024737801 -0.00378574 -0.022085821
0.04005652 -0.03426339 -0.04589444 -0.009690757 -0.053354762 -0.070761666 -0.046255186 -0.028515408
-0.04804125 -0.04147574 0.046279818 -0.022262884 0.009994375 -0.028852254 -0.028906085 -0.032223273
-0.0361675 -0.032488182 -0.07211613 0.060302168 -0.03229812 0.027025772 0.04298362 0.0007065335
0.07290728 -0.0072246427 0.008763794 0.025351888 0.013538398 0.04737125 0.005836674 0.015317727
0.042505756 -0.015142106 -0.050394673 0.058562536 -0.002639895 0.05672981 0.014288208 -0.056222085
0.05453122 -0.03582633 -0.0016524392 -0.041285828 0.017293962 0.037968885 0.01045585 -0.029739708
0.0143184895 0.0015525916 0.045918003 0.061554357 -0.07914406 0.021620791 0.031742644 -0.040059283
0.0008139629 -0.0023403089 -0.061637256 -0.0596154 0.0028379536 -0.01640362 0.011768518 -0.008178675
-0.018964734 -0.034217466 0.013640297 0.01600428 0.036073834 0.000489882 -0.058156077 0.036795553
0.05198708 -0.0035865365 0.03149489 -0.0055594244 -0.009590289 0.011511933 0.059903625 -0.022124868

net.4.bias f4 [256]
00000000: c17c 16bd 746c e7bc 3c83 22bd 69de 58bd
00000010: 521b dabc 486d 4c3d 3841 a9bd b1f5 633c
00000020: 32d7 28bd 0a12 133d 960d 67bd 1612 a33c
00000030: b1a2 e93c f225 953c 7a79 443d baf3 503d
00000040: a83f 75bd 11ca ac3c 75d5 3f3d 6a1a 01bd
00000050: 8cec d2bc bb34 073c b13b 6dbc 359d 833d
00000060: 98ec 773c 8edc a4bd 797b d73b 0b76 503d
00000070: 1ece 35bd 759e 903d 1940 0e3d 7926 fe3c
00000080: b716 4d3d c5b8 5c3c 6204 afbd 8af0 4c3c
00000090: a72d 993c cb19 ce3c b3ed 2a3d 8500 c5bb
000000a0: a089 cb3b c97d 6cbd 99b6 a63d 3272 28bc
000000b0: b645 79bd a846 86bd 86e2 1bbd 10e5 44bc
000000c0: 706c 87bd 11d1 093d 80b0 83bd 8e18 41bc
000000d0: 2fa1 f7bc b9e2 e8bb 9543 a9bd 1801 503d
000000e0: f14a 2bbd 4c05 db3c 2d1c 093d 7ef9 3c3d
000000f0: 4b39 303c cb8e 12bc 9e82 9d3a 1b31 9b3d
00000100: 0f61 8b3d 6ed9 2b3d 3415 723c 34cd 283d
00000110: 228e 323d fced d93b 0f07 7cbd 8bae 21bd
00000120: 05df 003d f3d6 7c3d 5b3d acbc 15a4 343d
00000130: 76fa 17bd 49c0 34bd 1f21 15bc a591 ed3b
00000140: a82e d9bb 1249 36bc 2584 0b3c 21ff e63a
00000150: d83e 07bd 9ca1 d2bd 29ab 7abd 2df1 873c
00000160: ef06 0fbd cc33 9cbc a5ae 303d bcf2 19bd
00000170: d442 4bbd e3c1 8ebc eccb a7bc 31db 023d
00000180: 5eac 063d 6ffe 3d3c 2fba 8bbc fede ebbb
00000190: 3c55 f9bb 7dc1 253d 8cc0 6d3d ecb7 423b
000001a0: 51a5 f53a 9b9f f03b bf6a b1bc 2771 98bc
000001b0: 8b36 8cbb b9a0 7c3d 4f84 03bd a906 9dbc
000001c0: dfa9 46bd 9446 ebbc eafa 1ebd 8883 9bbc
000001d0: fcd9 c83c 7f03 943d 7233 8f3d 0532 92ba
000001e0: 3d1e 943c a8f1 a5bd 626d 563d 8b5e 4ebb
000001f0: 6d08 00bd 7b21 99bd 486f 16bd 4c7e d9bc
00000200: 327d 19bd cd85 8fbd 1474 66bc dfc3 983c
00000210: 88ca 15bd d18e 55bc 8070 4ebc 36fd 98bb
00000220: 4574 c2bc 2b09 86bd f42d e7bb e7f0 a2bc
00000230: a0a7 133d 9e74 d73c ce5f 11bb 5fc5 e93b
00000240: afb1 92bd e1a1 0f3d e274 fcbc 798b 21bd
00000250: a90c 90bd 51af c83c 3b13 0e3c 0f13 a93d
00000260: 8812 5bbd 6c4e 9abd be1b 87bd d9ee 96bd
00000270: 006a 3abd af72 50bb 5ec6 4e3c 3208 88bd
00000280: b9e0 283d 4ea4 f83c 8074 4c3c ce21 263c
00000290: adf3 dd3c f378 97bd 0f56 903d 4472 6dbc
000002a0: 0046 55bd 5bc2 4d3d 59e4 e43c 516d b5bd
000002b0: bdd0 26bd c56a 0d3c d2dd 92bd 3927 b33b
000002c0: eff8 833d 0471 dcbc 708f 9b3b 7b9f 013d
000002d0: 53c7 29bd 816f 40bd e22c ad3c 7b6e 5abd
000002e0: 74c5 3ebc e650 59bd 878e 20bd c004 f8bc
000002f0: a9b1 07bd 39f5 103d e19b 453d 0066 0a3b
00000300: 6b97 18bd 73ae e5bc 2e4d b23c d688 193c
00000310: 444d f3bc 4d12 9dbc 7bc7 a43d 444e 373c
00000320: c750 743b 7d86 88bc fd55 8abd 41f4 f13c
00000330: fb7d 22bd 2169 b6bc d06b 79bc b734 d2bc
00000340: b373 96bc 4f82 58bd 3c9d 403d 7f52 d8bc
00000350: e645 63bd dc35 05bc 15c5 c1bc 24e4 24bd
00000360: 5aaf a73c da60 123d bb81 35bd 71c1 87bc
00000370: 8c90 8ebd 2ff8 4abd d940 603d 73f2 a1bc
00000380: c938 373d 6abc 37bc 33dd 463d 472f 51bb
00000390: cfef 15bd 4469 893c 4b27 4f3c 3660 5e3c
000003a0: ba2f 1bbd 129f 32bd 9147 193c 1e8b b33c
000003b0: 5261 babc fc00 76bd 2a76 833c c9b7 923c
000003c0: 67fd f7bc 94a2 173a 0a94 2e3d bcc9 3e3d
000003d0: 7583 323d 1307 4d3c 7913 ecbc 1551 42bd
000003e0: 9b11 73bd 8f4e ef3b 6882 22bd c847 c8bc
000003f0: 126b 2abd 514d 7b3d 2bfb 9fbd e6dc 98bc
-0.03674007 -0.028249957 -0.039675936 -0.05294648 -0.026624355 0.049908906 -0.082643926 0.013913558
-0.04122085 0.035905875 -0.05640944 0.019906085 0.02851996 0.01820657 0.04796741 0.051013686
-0.05987516 0.021092447 0.046834428 -0.03151933 -0.02574756 0.008252318 -0.014479564 0.06426469
0.015132092 -0.0804988 0.0065759984 0.050893825 -0.04438602 0.07061473 0.034729097 0.031024205
0.05007049 0.013471787 -0.08545758 0.012508521 0.018698527 0.025158783 0.041730594 -0.006012025
0.0062114745 -0.057737146 0.081402965 -0.0102811325 -0.060857497 -0.06556445 -0.038057826 -0.012017503
-0.0661248 0.033646647 -0.06430149 -0.011785639 -0.030228226 -0.0071071056 -0.082648434 0.050782293
-0.041819517 0.026735924 0.033474136 0.04613637 0.010755847 -0.008945177 0.0012017076 0.075777255
0.06805622 0.041955404 0.014775563 0.041211322 0.04359258 0.0066506844 -0.06153017 -0.039473098
0.031462688 0.06172843 -0.02102535 0.044101793 -0.037104093 -0.04412869 -0.009102135 0.007250028
-0.0066278763 -0.01112582 0.008515392 0.0017623642 -0.033018917 -0.10284731 -0.061198387 0.016594494
-0.03491872 -0.019067667 0.043135304 -0.037585005 -0.04962428 -0.017426437 -0.02048298 0.03194732
0.032879226 0.011596306 -0.017056553 -0.0071982136 -0.0076090377 0.040467728 0.058044955 0.0029711677
0.0018741285 0.007343245 -0.021657346 -0.018608643 -0.004278963 0.061676715 -0.0321086 -0.019168215
-0.048501845 -0.028720178 -0.03881351 -0.018983617 0.024518006 0.07227229 0.06992234 -0.0011153823
0.018080825 -0.08102733 0.05235041 -0.0031489457 -0.031258035 -0.07477089 -0.03672722 -0.02654948
-0.03747291 -0.07007942 -0.014065761 0.018648086 -0.036570102 -0.013034538 -0.012600064 -0.004668857
-0.023737082 -0.065447174 -0.0070550386 -0.019890262 0.03604853 0.026300725 -0.0022182348 0.007134124
-0.07162797 0.03506649 -0.030817453 -0.039439652 -0.07033665 0.02449766 0.008671577 0.08255588
-0.05348447 -0.07534489 -0.06597088 -0.07369775 -0.045511246 -0.0031806638 0.012620537 -0.06642188
0.041229937 0.030351784 0.012478948 0.010139896 0.027093733 -0.07396116 0.070476644 -0.014492575
-0.05206871 0.05023418 0.027940916 -0.08858741 -0.040726412 0.008631413 -0.07171215 0.005467322
0.06443965 -0.026909359 0.0047473237 0.031646233 -0.041449856 -0.04698134 0.021139566 -0.05332802
-0.011643756 -0.053055666 -0.039198425 -0.030275702 -0.033128414 0.035390113 0.04824436 0.0021117926
-0.03725378 -0.028037285 0.021765318 0.009371003 -0.029699929 -0.019173766 0.080458604 0.011188094
0.0037279592 -0.016665692 -0.06754682 0.029535415 -0.039670926 -0.022266926 -0.015223458 -0.025659902
-0.018365717 -0.052858647 0.04702495 -0.026406525 -0.055486582 -0.008130517 -0.023653546 -0.040256634
0.020469356 0.035736896 -0.044313174 -0.016571732 -0.06961164 -0.049553093 0.054749344 -0.01976893
0.04473189 -0.011214355 0.048550796 -0.0031919049 -0.036605652 0.016773827 0.0126436455 0.013572743
-0.037887312 -0.043608733 0.009355442 0.021916922 -0.022751484 -0.060059533 0.016047556 0.017909901
-0.030272199 0.0005784419 0.04262165 0.046579108 0.0435824 0.012513894 -0.028817879 -0.047440607
-0.05934296 0.007303066 -0.039675146 -0.02444829 -0.041606016 0.06135303 -0.07811578 -0.01866002

net.6.weight f4 [2, 256]
00000000: f209 0bbd 22e0 78bd 1318 a93c 8f10 623c
00000010: 3c93 33bd 2b48 79bd b7f0 c53c 36bc 1dbd
00000020: b5df 81bd 5314 693d 390c c23a 4729 2f3d
00000030: eff5 2e3c 1bc9 793d a70e 56bd 60f5 9dbd
00000040: 2269 433d df43 3ebc eda7 61bd c143 00bd
00000050: 558e b2bc 012f f7bc ef6f 2ebd c994 3bbd
00000060: d6ad de3c 51ec 9f3d 7e14 78bb a1d9 d6bc
00000070: 570e 2c3d 1df5 06bd b3ec 6d3d 5bad eb3c
00000080: 6af7 9abc 34d3 21bd 2a96 d03b 5128 00bd
00000090: 15fb b2bc a048 643b fb16 093d 6ac9 1a3c
000000a0: 1938 9c3d 61e9 493d 2c30 21bd deea e73c
000000b0: 6c73 6539 0a08 093d 94d5 97bc c870 62bc
000000c0: 1488 c43c a219 483d a789 82ba 3593 903d
000000d0: e50d abbc b010 ea3c 9a93 b83c d0cc f73b
000000e0: 9e3b 94bd a5d1 17bd a3dc 973b 0001 1ebd
000000f0: 4535 d33c 0ea6 90bd cd7f 4e3d a2c5 62bd
00000100: 7fd2 3ebd dbdd 02bd 4484 81bc 48e1 fd3b
00000110: a65c d03b 38e5 543d 9695 433d 1613 1bbc
00000120: b350 113d 3632 56bd 1ffe c53c 4bd5 2dba
00000130: 85cc a43d f743 bb3b d415 633d ef7b 6bbd
00000140: 575b 8cbd 5fb1 75bd f687 593d fbaf 71bb
00000150: e01f 11bd d7b3 fe3b 7ec3 583d e426 c8bc
00000160: 601f 9d3c c6ac 41bc b386 983d 7dbb 103d
00000170: 4c63 323d b917 edbc b5ca a4bc f6dd b13b
00000180: 2088 8e3d cf8b 873c 447d 96bb 8d6f 5bbd
00000190: 528f 7bbd c2b9 e9bc 7b53 4fbc 42c0 013d
000001a0: 6ec4 b639 661a 49bd c9d9 713d 127a 94bc
000001b0: ce4b 433d 9878 3ebd 124d 2d3d e237 123d
000001c0: b7cc ecbc 7899 923c 521e 163d 50ee 8dbb
000001d0: 4de0 84bd f16f 71bd e385 34bd c2f3 183d
000001e0: 83c0 103d 9a92 893d 7f30 6c3c 2142 3bbd
000001f0: 24ed 8b3d 1076 8d3d 96b6 a13c e182 633d
00000200: 9bfc 423d 94e6 2639 5ae3 50bd 7638 1f3d
00000210: 97a2 1bbc b7c7 c03c 885a 463d cb24 2fbd
00000220: 7d76 813c fbaa 353d 8d4b 7fbd 3c14 83bc
00000230: 4329 84bd 881e 0a3b 44e0 493d abb9 9fbc
00000240: 6a48 a63a 3353 3ebd 6ac4 59bd da4c 1a3d
00000250: b301 273d 86b3 553d 5ac0 b4bc 3c09 6fbd
00000260: 009b 123b 3a8f 973d 8d68 2cbd afc2 283d
00000270: cf8c 893d 0f50 e53c 82de 35bd d3fc ef3c
00000280: 0e63 f63c 7402 42bd 3a56 29bd 21b5 87bd
00000290: f024 853d a46d d93a 8fcf 31bd cb15 17bc
000002a0: dbed b03c 55d1 a6bc ae3f 03bd 64f1 1c3c
000002b0: 78fe e83c f4e0 9e3a 48fd b73c e7a0 853d
000002c0: b945 93bc f238 07bd 7e06 5bbd da49 12bd
000002d0: ddf5 833d f3ee c1bb 5460 fd39 5200 c1bb
000002e0: c86d 2dbc c50c 1cbc 569c 453d a0f8 5fbd
000002f0: 7ca3 6d3d 7ff5 813d e0c3 30bd e0e0 63bd
00000300: feaf bfbb 8035 2dbd daaf 40bd 5f22 cebc
00000310: 41e7 a23c db7f 903d d98b fcbc 8742 2b3d
00000320: 60d9 843c b77a 84bd 1ffa 9c3d 3118 f5bc
00000330: 46f0 3ebd 87e3 a13d a8bf 343d c2f0 acbb
00000340: dfe8 3cbd d3c1 873a 0133 b9bc e0f6 cd3b
00000350: 5c60 b73c 8210 a93d eae5 6ebd b24a 6abd
00000360: f7fb 1b3d c829 25bd b8fe e6bc 7143 3dbc
00000370: 05d6 a13d 2d6b 073d 5ed9 9bbc 218c 5bbd
00000380: 14b0 97bc c070 86bd 4610 82bd 4107 efbc
00000390: 1c21 033d ae3e b53c 3619 aa3a 8ba7 043d
000003a0: e2d1 bfbc dd17 923d 3e0e 47bd 3e31 4c3d
000003b0: 6c08 b03c 921a 0f3d f136 e43c dec6 c3bc
000003c0: 0641 6d3d 592f 89bd 6648 a6bc b91c aabc
000003d0: 483b 7dbd 8b61 a43d 1cd4 93bd f13c 2c3d
000003e0: 82e9 f13c 9656 d43c 7e94 8b3d 97d7 893d
000003f0: f502 23bd 8e74 47bd b53b 493d 5ceb 48bd
-0.03394503 -0.060760625 0.020641362 0.013797893 -0.043841586 -0.06085984 0.024162633 -0.03850957
-0.06341497 0.05690415 0.0014804668 0.042763975 0.010678752 0.060982805 -0.052260067 -0.07712817
0.047707684 -0.011612861 -0.055091787 -0.031314615 -0.021796385 -0.03017378 -0.042587217 -0.04579619
0.0271825 0.07808746 -0.0037854011 -0.02622682 0.042005863 -0.032948602 0.058087062 0.028769186
-0.018916804 -0.03950806 0.006365557 -0.03128845 -0.02184824 0.0034833327 0.03346918 0.009447435
0.07627887 0.049294833 -0.03935258 0.028310236 0.0002188214 0.033454932 -0.01853446 -0.013820834
0.023990668 0.04885257 -0.0009959236 0.070593275 -0.020880649 0.02857241 0.02253132 0.0075622573
-0.072379336 -0.037065167 0.0046344562 -0.038575172 0.025782237 -0.070629224 0.05041485 -0.05536426
-0.046587463 -0.03194986 -0.01581014 0.007747803 0.006358701 0.051976413 0.04775008 -0.009465
0.03547735 -0.05229398 0.024169026 -0.00066312094 0.080468215 0.005714889 0.05544074 -0.05749124
-0.06853359 -0.059983607 0.053108178 -0.0036878574 -0.03543079 0.0077729034 0.05292081 -0.024432607
0.01918 -0.011820978 0.07447567 0.035335053 0.043551728 -0.028941976 -0.02011619 0.005428071
0.069595575 0.016546158 -0.0045925695 -0.05357318 -0.061415978 -0.028530959 -0.012654181 0.031677492
0.00034860097 -0.04909744 0.059045587 -0.018124614 0.047679715 -0.046501726 0.042309828 0.035697825
-0.02890621 0.017895445 0.03665001 -0.0043313876 -0.064880945 -0.058944646 -0.044072997 0.03734184
0.035339843 0.06717415 0.014415859 -0.045717362 0.0683234 0.06907284 0.019740384 0.055544738
0.047604185 0.0001591689 -0.05099807 0.038872205 -0.009499214 0.023532731 0.04842618 -0.042759698
0.01580357 0.044352513 -0.06232791 -0.01600086 -0.064531825 0.0021075327 0.049286142 -0.019497713
0.0012686376 -0.046466064 -0.05316583 0.037670948 0.040773105 0.05217316 -0.022064377 -0.058358416
0.002237022 0.07400365 -0.042091895 0.04120129 0.0671631 0.027992276 -0.044401653 0.02929536
0.03007653 -0.04736562 -0.041341998 -0.066263445 0.06501186 0.0016588462 -0.043410834 -0.009221504
0.021597793 -0.02036349 -0.03204315 0.009579036 0.028441653 0.0012121485 0.022459641 0.0652483
-0.017977582 -0.03301329 -0.05347299 -0.03571496 0.06443379 -0.0059183775 0.0004832769 -0.0058899308
-0.010585256 -0.009524529 0.048244797 -0.054680467 0.05801724 0.06345653 -0.04315555 -0.05563438
-0.0058498373 -0.04228735 -0.047042705 -0.025162874 0.019885661 0.070556365 -0.030828403 0.041811492
0.016216934 -0.064687185 0.07664894 -0.029918762 -0.04661586 0.079047255 0.04412809 -0.005277724
-0.04612052 0.0010357447 -0.022607328 0.0062855333 0.022384815 0.08255102 -0.058324732 -0.05720014
0.03808209 -0.04032305 -0.028197631 -0.011551724 0.07902149 0.033061195 -0.019024547 -0.053600434
-0.018516578 -0.06564474 -0.0635076 -0.029178264 0.032013997 0.022124615 0.0012977484 0.032386344
-0.02341551 0.07133458 -0.048597567 0.04985165 0.02148839 0.03493745 0.02785823 -0.023898538
0.05792334 -0.06698484 -0.020298194 -0.02076565 -0.061824113 0.08026417 -0.07218191 0.042050306
0.02953029 0.025920194 0.06815432 0.067305736 -0.039797742 -0.04869514 0.049129207 -0.04905258

net.6.bias f4 [2]
00000000: fe53 52bc a188 0d3d
-0.012837408 0.034554128
