normal/node/models/10950_model.pt (torch, 535792 bytes, 8 tensors)

net.0.weight f4 [256, 3]
-0.13632709 0.10968012 -0.05700009 -0.5687421 0.3186982 -0.025005853 0.5611507 0.27435458
0.28663838 0.3482022 0.2717398 -0.07313008 -0.35942346 -0.43234274 0.61153936 0.5161125
-0.08102133 0.28533092 0.41770807 -0.18410555 0.09539738 -0.13357092 0.12685283 0.19855347
-0.2670283 0.28125 0.4224967 -0.08580339 -0.10500721 -0.5229438 0.03417659 -0.6432156
0.10994731 -0.09242882 -0.42816105 -0.29883468 0.15609542 -0.6012322 -0.50477725 0.01024202
0.1055531 -0.4817081 -0.38151336 -0.15945677 -0.5063267 -0.26876646 -0.016200325 0.3355875
-0.12773101 0.40990096 0.15895051 -0.6208164 0.47334194 0.05089504 0.20125508 0.11983275
-0.5159437 -0.5748985 -0.3755533 0.3143707 -0.06899347 0.25381273 0.22692259 -0.39888743
-0.011044985 0.80343974 -0.006120967 -0.31996274 0.688614 0.22064663 0.21202789 -0.32780847
-0.45957917 0.5802592 0.60793936 -0.054708675 0.5186539 0.6372893 -0.55286986 0.34822685
0.48260745 -0.062016636 0.20690495 -0.37543806 -0.56980246 -0.32121822 0.16115473 -0.2000537
0.18751723 0.6408207 -0.3074439 -0.20338438 0.1358103 0.4092745 -0.5183459 -0.49401283
-0.48133716 0.13139479 -0.34922725 0.25444007 0.092710756 -0.47644335 -0.5017771 -0.22523241
0.09075297 0.22314656 0.024746073 -0.3060697 -0.03300464 0.12115013 0.07858225 0.57631034
0.56255317 -0.7617222 0.49306506 0.45730484 0.32406193 -0.12296807 -0.3223734 0.44469258
-0.17994383 0.45392495 -0.5126888 0.116106704 -0.07355035 0.18815164 -0.5053057 -0.076361604
0.12071858 0.29001158 -0.47043973 0.39669102 0.105899885 -0.41837165 -0.3365693 -0.47087708
0.3946327 0.6181494 -0.07817829 0.3585456 0.25736573 -0.13840121 -0.6512659 -0.16908973
-0.54648745 0.47723085 0.8232761 -0.347011 -0.23279786 -0.08914649 -0.54669946 0.079002894
0.072112225 -0.52726495 0.5550671 -0.22148202 -0.12319381 0.16486742 0.64254 -0.4732629
-0.09715824 -0.085400775 -0.27840933 0.01138559 -0.4045421 -0.14972381 0.48497364 0.47825444
0.55129683 -0.085829176 -0.25060663 0.2608783 0.19544649 -0.2732348 0.16099298 0.035868306
-0.30275297 -0.2915669 0.25332767 -0.34659705 -0.2517895 0.14117076 0.78361666 0.38371637
0.21153188 -0.5733039 0.34880906 0.37361842 0.33617672 0.38529992 -0.4125454 0.3831007
0.3685221 0.49059534 0.23668678 0.50570065 0.38829917 0.48272163 -0.26644993 0.4161417
-0.3024531 -0.51242864 0.5716606 0.61128646 0.24143255 -0.46333724 0.094040155 -0.61186063
-0.11286955 -0.019038064 -0.21266015 0.37843943 0.7607588 0.27263296 -0.16527182 -0.054954678
-0.29513875 -0.14204238 -0.016461384 0.4989681 -0.1421498 -0.073752366 -0.015780803 -0.30703032
-0.23193124 -0.38895082 0.32610008 0.7485285 -0.41269392 0.31015134 -0.1931925 -0.26322654
-0.090460494 0.29614437 0.55494946 0.41624096 -0.3425705 0.23203489 0.21373823 0.54309934
0.26602772 -0.40232953 0.35634986 0.6008556 -0.18673298 0.057953086 0.06455464 -0.46290022
0.5529088 -0.19268744 0.35911274 0.4333665 0.10119001 0.46537638 0.42816317 0.23871994
00000000: 5499 0bbe f99f e03d ed78 69bd 1599 11bf
00000010: 692c a33e 13d9 ccbc 93a7 0f3f 3478 8c3e
00000020: 44c2 923e 8f47 b23e 7b21 8b3e 39c5 95bd
00000030: 5a06 b8be 075c ddbe d88d 1c3f f31f 043f
00000040: 83ee a5bd e516 923e d5dd d53e 2a86 3cbe
00000050: b45f c33d d1c6 08be b5e5 013e 9a51 4b3e
00000060: efb7 88be 0000 903e 7d51 d83e b0b9 afbd
00000070: 050e d7bd a5df 05bf c1fc 0b3d c7a9 24bf
00000080: 0e2c e13d 524b bdbd ed37 dbbe dc00 99be
00000090: 7ad7 1f3e 5aea 19bf 1539 01bf 25ce 273c
000000a0: 392c d83d 72a2 f6be b855 c3be a348 23be
000000b0: a09e 01bf c29b 89be 8bb6 84bc 20d2 ab3e
000000c0: ebcb 02be 8ade d13e ecc3 223e d3ed 1ebf
000000d0: e059 f23e 5177 503d d015 4e3e df6a f53d
000000e0: e314 04bf 8c2c 13bf 8648 c0be 32f5 a03e
000000f0: 734c 8dbd bef3 813e 655e 683e f93a ccbe
00000100: 06f6 34bc 3aae 4d3f 6592 c8bb 28d2 a3be
00000110: 0249 303f 31f1 613e d71d 593e 83d6 a7be
00000120: f64d ebbe de8b 143f eaa1 1b3f 3416 60bd
00000130: 81c6 043f 6425 233f e188 0dbf ca4a b23e
00000140: 5318 f73e 2805 7ebd e4de 533e 6b39 c0be
00000150: 93de 11bf b776 a4be bf05 253e e1da 4cbe
00000160: 8404 403e d30c 243f 4969 9dbe ff43 50be
00000170: db11 0b3e 6d8c d13e 51b2 04bf 40ef fcbe
00000180: d371 f6be 5b8c 063e eacd b2be f845 823e
00000190: 23df bd3d 62f0 f3be 7774 00bf 53a3 66be
000001a0: b1dc b93d 8880 643e 47b8 ca3c 2bb5 9cbe
000001b0: e02f 07bd 8f1d f83d bbef a03d 1389 133f
000001c0: 7c03 103f 3a00 43bf 0673 fc3e dc23 ea3e
000001d0: 72eb a53e afd6 fbbd 200e a5be bfae e33e
000001e0: 3243 38be da68 e83e 933f 03bf 5ac9 ed3d
000001f0: 91a1 96bd d3aa 403e b75b 01bf 7963 9cbd
00000200: 4e3b f73d 667c 943e 7add f0be 161b cb3e
00000210: 0ae2 d83d cf34 d6be d052 acbe cd16 f1be
00000220: 4c0d ca3e 0a3f 1e3f f01b a0bd 4a93 b73e
00000230: 71c5 833e 0cb9 0dbe 5db9 26bf dc25 2dbe
00000240: 9ae6 0bbf 9a57 f43e 39c2 523f 6dab b1be
00000250: 9062 6ebe 6f92 b6bd 7ff4 0bbf 45cc a13d
00000260: 93af 933d d6fa 06bf e118 0e3f 2fcc 62be
00000270: 094d fcbd 01d3 283e 807d 243f 844f f2be
00000280: e6fa c6bd 9ae6 aebd ab8b 8ebe a08a 3a3c
00000290: 2420 cfbe 3351 19be 774e f83e c4dd f43e
000002a0: ca21 0d3f 35c7 afbd 834f 80be d791 853e
000002b0: 2023 483e 6fe5 8bbe 58db 243e a5ea 123d
000002c0: 7002 9bbe 4248 95be 2ab4 813e 2b75 b1be
000002d0: 8eea 80be 118f 103e 1a9b 483f 7976 c43e
000002e0: d09b 583e 0bc4 12bf 1a97 b23e ea4a bf3e
000002f0: 5b1f ac3e 0846 c53e 2739 d3be c625 c43e
00000300: eeae bc3e 502f fb3e 055e 723e 9975 013f
00000310: 26cf c63e 4a27 f73e 206c 88be 8610 d53e
00000320: 22db 9abe 862e 03bf 5958 123f 457d 1c3f
00000330: 183a 773e 8a3a edbe 2098 c03d e6a2 1cbf
00000340: 2728 e7bd b7f5 9bbc 95c3 59be d0c2 c13e
00000350: 17c1 423f 8c96 8b3e 043d 29be 2818 61bd
00000360: 6d1c 97be 8f73 11be 06da 86bc bf78 ff3e
00000370: b88f 11be 7b0b 97bd be46 81bc 1433 9dbe
00000380: 627f 6dbe 9024 c7be 97f6 a63e 909f 3f3f
00000390: 9e4c d3be 28cc 9e3e 41d4 45be a1c5 86be
000003a0: 5a43 b9bd 3ca0 973e 2b11 0e3f 891d d53e
000003b0: 6765 afbe 8e9a 6d3e 32de 5a3e 8f08 0b3f
000003c0: c934 883e 23fe cdbe 7d73 b63e acd1 193f
000003d0: ee36 3fbe 3760 6d3d 3935 843d 4201 edbe
000003e0: 6e8b 0d3f db4f 45be a0dd b73e 37e2 dd3e
000003f0: b53c cf3d d045 ee3e 3438 db3e 0073 743e

net.0.bias f4 [256]
-0.21107823 0.52770585 0.19307208 -0.50801146 0.39579114 -0.07561807 0.29278803 -0.43798983
-0.46843892 0.2103795 0.50841707 0.2978043 0.49862686 -0.59625334 0.25483096 -0.021893907
0.21427208 0.4241944 0.12212364 0.5688302 0.59567827 0.26695305 0.6145469 -0.41055477
0.44939455 0.53731674 0.5243654 0.48988202 0.3544242 0.5894902 -0.21953863 -0.5854837
0.44458288 -0.1287316 0.3229897 -0.22638887 0.4497408 -0.60922885 -0.31854793 0.06024291
-0.4690071 0.22726153 -0.024229761 -0.39558253 -0.4895863 0.2762377 0.44650114 0.59487987
-0.20251334 -0.01774466 0.2441252 0.23865326 -0.36809957 -0.08138172 -0.09195068 0.14263746
0.06793707 -0.15109712 -0.0620074 -0.41828325 0.5780279 0.1548396 0.08738242 -0.09016611
-0.051464684 0.3860142 0.30148548 -0.16753861 -0.5294384 0.34231055 0.12171959 0.23530944
-0.15104908 -0.19257489 0.27676073 0.21038665 0.39350876 -0.29948762 -0.18912159 0.30591744
0.22547886 -0.17765546 0.42809504 -0.13237764 -0.6477156 0.24037784 0.37119663 -0.19757378
-0.46580637 0.3792196 -0.046917308 0.77406305 -0.62793005 0.3490977 0.53119093 0.39685056
-0.5749126 0.27028883 0.19338751 0.36372927 -0.06889788 -0.38503513 0.39291364 -0.1967348
0.5447922 0.20104168 0.05718421 -0.33158967 -0.23225807 0.0084323725 0.3022582 0.052574802
0.14092998 0.13522112 -0.32852048 0.45415005 -0.033745375 -0.2243428 0.21406434 0.13427526
-0.35621545 0.3596415 0.3036706 -0.5655206 0.050473705 0.16907986 -0.5660152 0.46103126
0.62238765 -0.46879888 0.10103553 0.17681098 0.2086311 -0.25159687 0.023821509 0.28325003
0.32879457 -0.41748288 -0.35924813 0.30240464 0.076244466 -0.15519948 -0.018194659 -0.41563442
0.45218095 0.4422476 -0.4369074 -0.22141226 0.30669618 -0.30141544 -0.07097768 0.050494336
-0.6650527 -0.22239737 -0.3770065 -0.24338125 0.4107349 0.38510892 -0.09316268 -0.5347456
0.3413238 -0.38391948 0.46768424 -0.5493035 0.08374898 0.06361705 0.1542971 -0.15702096
0.27504718 -0.25191233 -0.44335818 0.17197098 -0.13310741 -0.2851114 0.5880258 0.047316346
0.093568824 0.33609962 -0.11283069 -0.5704321 0.5399429 -0.44901538 0.6177854 -0.202486
0.039917342 0.37807932 -0.12475363 -0.20648646 -0.009120761 0.18227272 -0.21686323 -0.3646079
0.06708833 0.037348736 0.029700145 0.46981695 -0.348674 0.37239695 0.2117661 0.3402585
-0.35008496 0.29001313 0.115703225 -0.47441077 0.49211892 -0.41750824 0.73488593 0.014842283
0.3772616 -0.5041541 -0.006261431 0.24001776 0.32890567 0.31899875 -0.17277397 0.117095105
-0.106036566 0.35559165 -0.5731447 -0.3684624 -0.2218867 -0.20646232 -0.12532522 -0.2747864
-0.019712431 0.34834298 -0.2672071 -0.5262591 -0.08428001 0.5873961 0.33590624 0.14746465
0.5137588 0.21705614 0.4601771 -0.5676626 0.06447073 -0.52858686 -0.1303782 -0.42507753
-0.2071926 0.2988492 0.08666447 -0.60787064 -0.07831757 0.39233482 0.30181676 -0.075168416
-0.21970053 -0.1133797 0.27447447 0.30302352 0.13429606 -0.5551317 -0.23597853 -0.6056726
00000000: e424 58be bb17 073f b0b4 453e 0a0d 02bf
00000010: 23a5 ca3e a6dd 9abd 50e8 953e 3440 e0be
00000020: 3ad7 efbe b96d 573e 9f27 023f ce79 983e
00000030: 054c ff3e 0fa4 18bf 3479 823e da5a b3bc
00000040: 246a 5b3e 0230 d93e f51b fa3d db9e 113f
00000050: 5f7e 183f 12ae 883e f252 1d3f 3c34 d2be
00000060: 0b17 e63e 978d 093f d03c 063f d1d1 fa3e
00000070: 1777 b53e d4e8 163f bcce 60be 42e2 15bf
00000080: 5ea0 e33e 37d2 03be e85e a53e 7cd2 67be
00000090: 6d44 e63e 6cf6 1bbf b718 a3be 45c1 763d
000000a0: b321 f0be 3fb7 683e 7e7d c6bc cb89 cabe
000000b0: 0eab fabe 076f 8d3e cc9b e43e 0c4a 183f
000000c0: a85f 4fbe 405d 91bc f5fb 793e 8561 743e
000000d0: 8c77 bcbe 76ab a6bd a350 bcbd 8e0f 123e
000000e0: 9722 8b3d 34b9 1abe 79fb 7dbd 3929 d6be
000000f0: a3f9 133f 468e 1e3e 8ef5 b23d 02a9 b8bd
00000100: a2cc 52bd a7a3 c53e 4e5c 9a3e 3e8f 2bbe
00000110: 4689 07bf 5443 af3e 1f48 f93d f5f4 703e
00000120: 9cac 1abe 5a32 45be 95b3 8d3e 996f 573e
00000130: fb79 c93e 7156 99be 17a9 41be 36a1 9c3e
00000140: eee3 663e 50eb 35be 462f db3e 018e 07be
00000150: b1d0 25bf 9c25 763e 7c0d be3e c850 4abe
00000160: 2c7e eebe 1229 c23e 5d2c 40bd ff28 463f
00000170: 06c0 20bf efbc b23e 21fc 073f ff2f cb3e
00000180: 792d 13bf 4c63 8a3e 6007 463e b93a ba3e
00000190: 551a 8dbd 5323 c5be fa2b c93e d974 49be
000001a0: 8077 0b3f dfdd 4d3e fd39 6a3d 1fc6 a9be
000001b0: 0fd5 6dbe ef27 0a3c 96c1 9a3e ad58 573d
000001c0: f34f 103e 6877 0a3e d633 a8be 5b86 e83e
000001d0: 9738 0abd 1eba 65be af33 5b3e 747f 093e
000001e0: df61 b6be ee22 b83e b67a 9b3e f5c5 10bf
000001f0: 84bd 4e3d 4523 2d3e 5fe6 10bf 4a0c ec3e
00000200: cc54 1f3f 6806 f0be b7eb ce3d f00d 353e
00000210: 64a3 553e 4ed1 80be 5325 c33c 2606 913e
00000220: c357 a83e 51c0 d5be 5fef b7be c8d4 9a3e
00000230: 0f26 9c3d 9dec 1ebe f70c 95bc 09ce d4be
00000240: 4384 e73e 476e e23e 54b2 dfbe e5b9 62be
00000250: 4807 9d3e 2053 9abe bf5c 91bd 26d3 4e3d
00000260: e540 2abf 23bc 63be ff06 c1be ef38 79be
00000270: d84b d23e ff2c c53e 13cc bebd 16e5 08bf
00000280: fec1 ae3e 1891 c4be 4f74 ef3e 279f 0cbf
00000290: 9684 ab3d a849 823d 0f00 1e3e 1aca 20be
000002a0: fcd2 8c3e a7fa 80be d8ff e2be 2919 303e
000002b0: 4f4d 08be 1ffa 91be dc88 163f c9ce 413d
000002c0: 03a1 bf3d 4015 ac3e c713 e7bd d707 12bf
000002d0: b339 0a3f 58e5 e5be 2f27 1e3f 7d58 4fbe
000002e0: 5e80 233d 9d93 c13e d57e ffbd 3071 53be
000002f0: 3f6f 15bc b3a5 3a3e 6511 5ebe e3ad babe
00000300: 9b65 893d fdfa 183d b84d f33c d98b f03e
00000310: 6685 b2be d0aa be3e 36d9 583e 5d36 ae3e
00000320: 563e b3be 9a7c 943e d0f5 ec3d f8e5 f2be
00000330: 03f7 fb3e a4c3 d5be 7c21 3c3f 0c2d 733c
00000340: 6f28 c13e 3e10 01bf b12c cdbb 37c7 753e
00000350: 5366 a83e ce53 a33e a9eb 30be 8fcf ef3d
00000360: b329 d9bd 1c10 b63e 9cb9 12bf 1ba7 bcbe
00000370: 4436 63be dc6a 53be 4155 00be ceb0 8cbe
00000380: f77b a1bc 035a b23e 5ecf 88be ebb8 06bf
00000390: ff9a acbd 975f 163f e7fb ab3e f900 173e
000003a0: b285 033f f743 5e3e 559c eb3e 5652 11bf
000003b0: 3b09 843d 7851 07bf dd81 05be c3a3 d9be
000003c0: 4c2a 54be c302 993e 247d b13d 699d 1bbf
000003d0: f664 a0bd 1ce0 c83e ba87 9a3e e6f1 99bd
000003e0: 2df9 60be 9e33 e8bd eb87 8c3e e625 9b3e
000003f0: e884 093e 1c1d 0ebf 5ba4 71be 5c0d 1bbf

net.2.weight f4 [256, 256]
0.0023954043 0.102226704 0.0044178264 0.018549196 0.029993279 0.0007013923 0.013213124 0.035750773
0.0065982705 0.0001615884 -0.044419684 0.066973485 0.022293486 -0.05265538 0.060479097 0.023333063
-0.04618798 0.010739035 -0.0002162517 0.04670968 -0.029694377 0.011690116 0.10117346 -0.10041014
0.06302998 -0.058307104 0.06428591 -0.0034081363 0.039365117 0.031019429 -0.047657754 -0.013834142
0.06085354 -0.028037852 0.10639277 -0.047798734 -0.028546337 -0.013909157 -0.0007223807 0.035294537
0.011405415 -0.008755113 0.10701622 0.022841312 0.011334826 0.004690093 -0.0048426064 0.04019982
0.08312477 0.09247268 0.086192675 0.055055596 -0.004455134 0.053517602 0.035766862 -0.009154087
0.021348855 -0.07857628 0.0036427837 0.06368302 0.058056995 0.00097300066 0.02810319 0.02485406
-0.07716877 -0.01976959 -0.042096205 0.05267465 0.039631266 0.016305499 -0.047945548 -0.063104674
0.030482763 0.028752154 0.110236205 0.029445551 0.010496951 0.0008558293 -0.006955174 -0.03313427
-0.013380022 0.021719584 -0.030527823 0.034717876 -0.10300272 -0.08085565 -0.07033233 0.01935904
-0.08004136 0.100795105 -0.028780125 0.10627063 -0.0011667475 0.04499023 0.07189185 0.073764436
0.016547123 0.045307588 0.021081107 0.016787246 -0.0050743734 -0.08989922 0.013081474 0.007677835
0.016759092 0.040611632 -0.027794704 0.0838511 -0.0369675 0.008980248 -0.00061370677 0.08697521
0.0073982724 0.017655097 -0.041527633 0.0274933 -0.079951085 -0.014837259 0.03830919 -0.0047677364
0.027481724 0.0051751495 0.0438626 -0.07865363 -0.0075536435 0.04255822 -0.018032515 -0.0141426325
-0.00067313865 0.025955051 -0.052393384 -0.017942207 -0.038570266 0.05009914 -0.024434185 -0.0008002452
0.010784076 -0.018073443 0.015865637 0.10541291 0.02100241 -0.021810653 0.09201731 -0.017979922
0.09266933 -0.07244235 -0.027819928 -0.016046314 0.013007259 0.008587366 -0.06539567 -0.04154208
0.0406978 0.06558104 -0.077643186 0.0102651445 -0.053417094 0.028208112 -0.0005347443 0.10698457
-0.022791391 0.03892488 -0.060926467 0.025599979 0.025282888 0.03037669 0.08249398 -0.0058424133
0.04153554 0.0125273615 0.02512032 0.020243686 -0.0469024 -0.022868035 0.12433769 -0.045654275
-0.066278905 0.04430565 -0.06971391 -0.022460394 0.076628156 0.05730816 0.019921953 0.08241872
-0.015059137 -0.0065631415 0.037937187 0.10265341 -0.021398596 0.048558455 0.004661704 0.09294204
0.017781695 0.0823335 -0.053078085 0.014881494 -0.04927451 -0.0479019 0.04143118 0.009688586
0.024448521 0.05280808 -0.07393569 0.011238667 -0.054297134 0.092538774 0.11951568 0.004900605
0.024574054 -0.0075122165 0.052347437 -0.04453734 -0.05641675 -0.042217966 0.031684052 -0.021273771
-0.04850338 0.04251323 0.104910985 0.022109443 -0.048550237 0.060186412 0.0856348 0.01392194
-0.022086 -0.031039907 0.07261322 -0.02722844 -0.029513065 0.10809264 0.073451474 0.06732744
0.048787218 0.027046485 0.069791704 0.001794746 0.012101264 0.048848793 -0.079213105 -0.046119988
0.0005107486 0.06967318 0.017968025 -0.003926693 -0.031944394 -0.005270991 0.047455806 0.0036070147
0.067413576 0.048556343 -0.012938887 -0.0015764837 0.118260056 0.098324135 0.043984983 0.033754226
00000000: 37fc 1c3b 3c5c d13d 6ac3 903b 7cf4 973c
00000010: 77b4 f53c a4dd 373a dc7b 583c 676f 123d
00000020: 4e36 d83b 0e70 2939 6af1 35bd 6529 893d
00000030: d4a0 b63c 2bad 57bd eeb8 773d fb24 bf3c
00000040: 9b2f 3dbd c7f2 2f3c a0c1 62b9 a652 3f3d
00000050: 9f41 f3bc e687 3f3c 0834 cf3d d5a3 cdbd
00000060: dd15 813d 6ed3 6ebd 55a8 833d 0a5b 5fbb
00000070: 513d 213d 751c fe3c c734 43bd 99a8 62bc
00000080: 9041 793d a3af e5bc 74e4 d93d 9bc8 43bd
00000090: 02da e9bc 3ce3 63bc 265e 3dba 0191 103d
000000a0: c7dd 3a3c 9b71 0fbc 522b db3d b41d bb3c
000000b0: b5b5 393c 5aaf 993b baae 9ebb 91a8 243d
000000c0: 523d aa3d 5162 bd3d c985 b03d fa81 613d
000000d0: 5ffc 91bb 4635 5b3d 4680 123d 06fb 15bc
000000e0: cbe3 ae3c 9aec a0bd c5bb 6e3b 3e6c 823d
000000f0: 2ccd 6d3d f810 7f3a a938 e63c be9a cb3c
00000100: a90a 9ebd d6f3 a1bc 126d 2cbd 60c1 573d
00000110: 6554 223d 1c93 853c 8d62 44bd 063d 81bd
00000120: fdb6 f93c a389 eb3c 85c3 e13d cc37 f13c
00000130: 67fb 2b3c bb59 603a 3ae8 e3bb cdb7 07bd
00000140: e137 5bbc 45ed b13c 7c15 fabc 5534 0e3d
00000150: 17f3 d2bd a697 a5bd 660a 90bd d996 9e3c
00000160: b9ec a3bd aa6d ce3d 4cc4 ebbc 6ba4 d93d
00000170: 8ded 98ba ad47 383d 093c 933d cf11 973d
00000180: d58d 873c 7394 393d 49b2 ac3c 6885 893c
00000190: ee46 a6bb 151d b8bd ae53 563c 5996 fb3b
000001a0: 5d4a 893c 6258 263d b8b1 e3bc 20ba ab3d
000001b0: 3c6b 17bd e421 133c 2ae1 20ba 0f20 b23d
000001c0: 356d f23b 6ca1 903c e118 2abd a139 e13c
000001d0: 65bd a3bd fa17 73bc 19ea 1c3d ac3a 9cbb
000001e0: 5a21 e13c 4d94 a93b 45a9 333d 2815 a1bd
000001f0: 8e84 f7bb 8751 2e3d edb8 93bc 80b6 67bc
00000200: 9275 30ba b09f d43c 729a 56bd 89fb 92bc
00000210: dbfb 1dbd c134 4d3d 332a c8bc 8cc7 51ba
00000220: b1af 303c c20e 94bc a7f8 813c b9e2 d73d
00000230: 3f0d ac3c 41ac b2bc 9273 bc3d a14a 93bc
00000240: 6bc9 bd3d a85c 94bd 9ee6 e3bc 8f73 83bc
00000250: 661c 553c 06b2 0c3c 2aee 85bd 0728 2abd
00000260: bdb2 263d 5a4f 863d 6403 9fbd 232f 283c
00000270: e2cb 5abd b314 e73c 152e 0cba ba1a db3d
00000280: 03b5 babc b26f 1f3d 088e 79bd 0cb7 d13c
00000290: 0f1e cf3c 89d8 f83c 9bf2 a83d b771 bfbb
000002a0: 2c21 2a3d 903f 4d3c 21c9 cd3c 16d6 a53c
000002b0: bb1c 40bd bf55 bbbc c2a4 fe3d faff 3abd
000002c0: 3cbd 87bd d779 353d 2bc6 8ebd dcfe b7bc
000002d0: 39ef 9c3d f6bb 6a3d 5d33 a33c 25cb a83d
000002e0: 99ba 76bc 9f0f d7bb 0664 1b3d f33b d23d
000002f0: 1c4c afbc 3be5 463d 35c1 983b 6558 be3d
00000300: ebaa 913c 779e a83d 6868 59bd 83d1 733c
00000310: 12d4 49bd c834 44bd beb3 293d e0bc 1e3c
00000320: 4448 c83c 494d 583d 986b 97bd 6322 383c
00000330: ac66 5ebd f884 bd3d a3c4 f43d 4195 a03b
00000340: 874f c93c 0a29 f6bb 446a 563d c96c 36bd
00000350: 4015 67bd bfec 2cbd 23c7 013d 5546 aebc
00000360: 7bab 46bd 5a22 2e3d 92db d63d dd1e b53c
00000370: 9ddc 46bd 0786 763d 4c61 af3d d918 643c
00000380: b3ed b4bc 6747 febc 3db6 943d 2d0e dfbc
00000390: 62c5 f1bc ad5f dd3d ba6d 963d f8e2 893d
000003a0: 1bd5 473d 9790 dd3c f4ee 8e3d af3d eb3a
000003b0: 6144 463c ac15 483d 7b3a a2bd 50e8 3cbd
000003c0: c2e3 053a d0b0 8e3d ae31 933c 7dab 80bb
000003d0: 20d8 02bd 47b8 acbb 0561 423d aa63 6c3b
000003e0: 2110 8a3d 04e3 463d a0fd 53bc 04a2 ceba
000003f0: 5432 f23d 2a5e c93d 9929 343d df41 0a3d

net.2.bias f4 [256]
0.0073508914 0.054822586 -0.025269732 -0.00935611 0.010560321 0.3225404 -0.050361965 -0.12743011
0.06160347 0.15382344 0.5545292 0.1086114 -0.005745996 0.3688103 0.35437268 -0.06365165
-0.014068032 0.031493172 0.017751392 0.043767184 0.027713718 -0.026378497 -0.028205818 0.5931165
-0.0013209836 -0.07611464 -0.070975214 -0.055752434 0.07108029 0.2701545 -0.030003693 -0.078824595
-0.10910194 -0.056979045 -0.079663284 -0.030129367 -0.060941152 0.5618367 0.08112166 0.056376133
-0.023046955 0.037496738 0.34286743 -0.02918813 0.042254932 -1.1058398 -0.0929293 -0.05051959
-0.029368116 -0.04606442 -0.019974513 -0.13223882 -0.05258619 -0.1605117 0.010873163 -0.014720477
0.005068706 -0.113775045 -0.0075950907 -0.044130906 0.054315697 -0.07218115 -0.10068405 -0.05913116
-0.02945742 -0.022476984 0.05842828 -0.023594245 0.043038774 -0.004745491 -0.05557979 -0.002624189
-0.005011219 -0.0142730735 0.034913637 -0.14950258 -0.067203075 0.084944755 0.14185505 0.07496825
-0.090072654 0.09050746 0.285244 0.02472301 -0.08204949 -0.013908188 -0.059072968 0.28558886
-0.068096854 -0.053485952 -0.13139905 -0.09796055 0.0059407465 -0.0034414702 0.02209265 0.074057095
0.030402984 0.16791083 0.0889618 -0.11599043 0.11244156 -0.019398905 -0.028755462 0.010968102
0.28899768 0.3074205 0.12809318 -0.099751845 0.27204373 -0.046203863 0.05848019 0.0134215765
-0.013533047 -0.09066916 0.018828616 -0.07789844 0.0038532345 0.4483069 0.0035132645 -0.007886622
0.081090905 0.04953233 -0.08402435 0.009567157 0.00073636643 -0.012625904 -0.08481914 -0.09745541
-0.021127312 -0.042494535 0.09285759 -0.047593523 0.027606588 -0.065514766 -0.09886503 -0.0006931735
0.08420157 -0.05440451 0.10538384 -0.0629982 0.027574841 -0.0388322 -0.003731365 0.0129384985
0.0337001 0.49254715 -0.12436303 -0.027326718 0.0062690135 0.12037992 -0.036562253 0.49932733
0.043334108 -0.04406601 0.32224637 0.5827708 -0.038330123 -0.013818702 -0.08066136 0.014528005
0.14501661 0.033536058 0.10978619 0.85485584 0.13152339 -0.07142776 -0.0028884895 -0.07682256
-0.012844252 -0.06473883 0.041703906 0.10912582 -0.05371299 -0.117136426 0.028671823 0.52355725
-0.074937224 -0.024100907 0.032818343 0.015684677 0.14843115 0.069057785 0.07637489 -0.0418464
-0.08983013 -0.01715706 -0.09729933 0.16135733 -0.012373718 -0.08616759 -0.002855992 0.22982419
0.0046661864 0.017075444 0.71356803 -0.014701472 -0.095594764 -0.07182607 0.017553294 -0.06471175
-0.05836271 -0.06894253 0.02377504 -0.0730383 0.02782961 -0.04724813 0.14282015 -0.01563204
0.1104311 0.028879523 -0.10323331 -0.058486085 -0.15527843 -0.053325452 0.48900795 -0.03854624
-0.004282038 0.050565936 -0.064727165 0.07092536 0.062865876 -0.027019806 0.027033707 0.08919895
-0.053734794 -0.004975945 0.008257575 -0.011662514 -0.118314154 0.04559661 0.040368065 0.035667416
0.016814502 -0.013507606 0.24301076 -0.20535158 -0.044899307 -0.07072209 -0.037958167 -0.030500472
0.14619674 0.0517835 0.0067114877 0.008453767 -0.0646494 -0.10555576 -0.03267483 0.074949056
-0.048327323 0.07085515 -0.097016975 0.04811681 -0.060839232 0.11614319 -0.0018910324 0.18179911
00000000: bfdf f03b a68d 603d 7802 cfbc 5f4a 19bc
00000010: 3205 2d3c 0424 a53e 5948 4ebd 0a7d 02be
00000020: ec53 7c3d e483 1d3e a0f5 0d3f a76f de3d
00000030: e848 bcbb b4d4 bc3e 5670 b53e cc5b 82bd
00000040: 9a7d 66bc fcfe 003d 5e6b 913c 3845 333d
00000050: e107 e33c b817 d8bc e30f e7bc 7cd6 173f
00000060: db24 adba fee1 9bbd 745b 91bd aa5c 64bd
00000070: 8b92 913d b151 8a3e 4eca f5bc ca6e a1bd
00000080: d770 dfbd dc62 69bd 8126 a3bd ddd1 f6bc
00000090: 6e9d 79bd 88d4 0f3f 1d23 a63d a9ea 663d
000000a0: f8cc bcbc 2e96 193d 528c af3e f21b efbc
000000b0: 8213 2d3d 298c 8dbf b851 bebd a1ed 4ebd
000000c0: 6795 f0bc 0cae 3cbd 97a1 a3bc 9d69 07be
000000d0: 9e64 57bd 2e5d 24be 5a25 323c 282e 71bc
000000e0: 6317 a63b e402 e9bd 3de0 f8bb 9cc2 34bd
000000f0: 237a 5e3d b6d3 93bd 7033 cebd 8433 72bd
00000100: b050 f1bc a721 b8bc 7e52 6f3d b848 c1bc
00000110: 6d49 303d 1080 9bbb a2a7 63bd 96fa 2bbb
00000120: 2735 a4bb 9cd9 69bc 9a01 0f3d 3417 19be
00000130: c4a1 89bd 84f7 ad3d 7342 113e f488 993d
00000140: 0378 b8bd fa5b b93d 800b 923e e987 ca3c
00000150: 9009 a8bd 2bdf 63bc 7ff6 71bd b438 923e
00000160: 5d76 8bbd 1614 5bbd 798d 06be 8a9f c8bd
00000170: 98aa c23b 4a8a 61bb a5fb b43c 3fab 973d
00000180: ae0f f93c d1f0 2b3e 9b31 b63d 648c edbd
00000190: c347 e63d 74ea 9ebc 9390 ebbc 8eb3 333c
000001a0: 81f7 933e 3866 9d3e dc2a 033e b24a ccbd
000001b0: 5149 8b3e 4340 3dbd ec88 6f3d 2ce6 5b3c
000001c0: b7b9 5dbc c1b0 b9bd 783e 9a3c 3889 9fbd
000001d0: 8c86 7c3b 7b88 e53e cc3e 663b e436 01bc
000001e0: fd12 a63d 6ae2 4a3d f514 acbd 91bf 1c3c
000001f0: b708 413a e1dc 4ebc a8b5 adbd b496 c7bd
00000200: 2f13 adbc c00e 2ebd 1f2c be3d 6df1 42bd
00000210: 3627 e23c 9b2c 86bd c079 cabd 16b6 35ba
00000220: df71 ac3d 43d7 5ebd 7cd3 d73d 3305 81bd
00000230: a2e4 e13c 830e 1fbd eb89 74bb fffb 533c
00000240: 1e09 0a3d 242f fc3e 0bb2 febd 48dc dfbc
00000250: 4c6c cd3b bf89 f63d 4dc2 15bd d5a7 ff3e
00000260: 1b7f 313d 8f7e 34bd 7afd a43e 7830 153f
00000270: 0c00 1dbd d667 62bc c831 a5bd df06 6e3c
00000280: 3c7f 143e 1b5d 093d 95d7 e03d d5d7 5a3f
00000290: 11ae 063e b848 92bd d04c 3dbb 2555 9dbd
000002a0: b370 52bc cb95 84bd b7d1 2a3d 5c7d df3d
000002b0: 2702 5cbd 39e5 efbd 2ce1 ea3c d907 063f
000002c0: b078 99bd 446f c5bc 876c 063d 277d 803c
000002d0: 56fe 173e 2b6e 8d3d 706a 9c3d 2167 2bbd
000002e0: dcf8 b7bd f68c 8cbc df44 c7bd db3a 253e
000002f0: 23bb 4abc a278 b0bd 982b 3bbb 0857 6b3e
00000300: cfe6 983b cde1 8b3c 65ac 363f 71de 70bc
00000310: 30c7 c3bd 8c19 93bd edcb 8f3c 9887 84bd
00000320: bd0d 6fbd be31 8dbd dfc3 c23c 1b95 95bd
00000330: ecfa e33c 4187 41bd 723f 123e c40e 80bc
00000340: b329 e23d c094 ec3c fc6b d3bd 1b8f 6fbd
00000350: 4f01 1fbe ca6b 5abd 405f fa3e aae2 1dbd
00000360: 5750 8cbb 3a1e 4f3d ad8f 84bd 5141 913d
00000370: d3bf 803d a458 ddbc cb75 dd3c f0ad b63d
00000380: 0419 5cbd 410d a3bb c84a 073c 2114 3fbc
00000390: b14e f2bd 83c3 3a3d fc58 253d ff17 123d
000003a0: 91be 893c 024f 5dbc d0d7 783e af47 52be
000003b0: 56e8 37bd bed6 90bd 067a 1bbd 20dc f9bc
000003c0: 99b4 153e ef1a 543d 0aec db3b ab81 0a3c
000003d0: e866 84bd 9e2d d8bd 0bd6 05bd e47e 993d
000003e0: dff2 45bd 811c 913d d6b0 c6bd 2216 453d
000003f0: 8f32 79bd 7bdc ed3d 85dc f7ba 8c29 3a3e

net.4.weight f4 [256, 256]
0.04297745 0.03238169 0.0028873733 -0.06344821 0.060071964 0.110430166 0.04778613 0.024359476
0.07499754 0.12171325 0.033377573 0.09399042 -0.020650163 0.10677986 0.051545344 0.11665861
0.017214613 0.0472951 0.09079025 0.094500534 -0.009490799 0.029120224 -0.07273055 0.11906513
0.122927174 0.026688512 -0.06694135 0.02920883 0.04814496 0.03558883 0.05484774 -0.018836716
-0.04435507 -4.051488e-05 -0.060156856 0.013602657 -0.027876021 0.06972234 -0.049086034 0.038060922
0.027657153 0.08138948 0.005236123 -0.033963513 -0.038385328 0.07259656 0.07570707 -0.06363562
0.119230084 0.031615164 0.023650795 -0.04625095 0.008558013 -0.01123078 0.077413574 -0.014495067
0.066395864 0.035010938 0.027286693 -0.020293664 -0.029382097 0.1353243 -0.0038369396 0.12950416
0.026732337 -0.05972086 -0.06299173 0.003990907 0.06614166 0.03086125 -0.00807299 0.047949567
0.091355145 -0.070591606 0.04630073 0.09199595 -0.016018234 -0.01175121 0.13854511 0.05781938
-0.10127517 0.01771793 0.17918925 -0.057355005 -0.06192851 -0.01229933 0.049597945 0.034577698
0.12627618 0.12258445 -0.06485387 0.052239954 -0.04617606 0.01231568 0.004868889 0.008199003
0.06486507 0.07258747 -0.010489474 -0.009582396 0.078085706 -0.03927479 0.07130195 -0.047761615
0.18743928 0.10307294 0.039902728 -0.005584023 0.09738084 0.060729094 0.011559806 0.050457533
-0.06866576 0.0062109907 0.08670389 -0.028512755 0.025989413 0.16575727 0.048161905 -0.021517312
0.07554505 0.08333427 0.0476728 -0.0167042 -0.031241149 0.033462297 0.012714089 0.04030583
-0.029140929 -0.032978218 0.08148306 -0.0231789 0.086275734 -0.0036113635 0.027773878 -0.05377775
0.033174466 0.008206397 0.0033671313 -0.046804164 0.00080108043 0.0130539695 -0.045485433 -0.03981077
-0.014030338 0.12599805 -0.092042826 0.0044706296 -0.0502028 0.09921116 0.03791531 0.13988729
0.028191848 -0.021598311 0.12211683 0.116145104 0.0740865 0.051093806 -0.07918131 -0.013547389
0.03967848 0.019658616 0.046192944 0.022925654 0.039307036 0.0067305495 0.004146863 -0.017502904
0.111238346 -0.03707606 -0.009061206 0.092856996 -0.021920647 0.031015113 0.046142105 0.09493344
0.057104476 0.0037924433 -0.031414673 0.026539106 0.063330345 0.037696343 -0.006016904 -0.033479817
-0.0328825 -0.03453892 0.035351086 0.0057813143 0.007685553 -0.02091717 -0.031806383 0.14370957
-0.058062576 -0.06050899 -0.00014643026 0.03117362 -0.029449904 0.016110588 0.03909584 -0.031624984
0.06993609 0.03218595 -0.039881315 -0.010917844 -0.027804427 0.04115944 0.09420857 -0.05372702
0.11455968 -0.06919805 -0.045626797 0.050606243 0.00512646 0.05491831 0.06646869 -0.034981262
0.10252787 0.042791832 -0.024227679 -0.010464553 -0.038364835 0.03446024 0.015704986 -0.043676537
0.013291131 0.016652226 0.04441686 0.06021884 -0.071776845 0.12922594 0.07118787 0.03731884
0.032699395 0.12223212 0.029667735 0.045570727 -0.0029753428 -0.008661696 0.04467817 0.0038257863
0.046876177 -0.0047319587 0.12020574 0.022681564 0.043331802 0.044407867 -0.06194414 0.122080594
0.0071056765 0.049501218 0.03655263 0.024075186 -0.02388367 0.13474208 0.05922414 0.08319902
00000000: 1f09 303d aaa2 043d 163a 3d3b 23f1 81bd
00000010: 050e 763d 3629 e23d 64bb 433d 868d c73c
00000020: 4f98 993d cc44 f93d ecb6 083d 0d7e c03d
00000030: 882a a9bc 66af da3d 3621 533d b6ea ee3d
00000040: a905 8d3c 82b8 413d 3df0 b93d 7f89 c13d
00000050: 4c7f 1bbc 898d ee3c c1f3 94bd 6bd8 f33d
00000060: 3ec1 fb3d dea1 da3c 8c18 89bd 5b47 ef3c
00000070: a633 453d 98c5 113d 06a8 603d 754f 9abc
00000080: a9ad 35bd 85ee 29b8 0967 76bd aedd 5e3c
00000090: 415c e4bc 96ca 8e3d 700e 49bd c5e5 1b3d
000000a0: 4191 e23c 87af a63d c993 ab3b 531d 0bbd
000000b0: ef39 1dbd 81ad 943d 4f0c 9b3d 6453 82bd
000000c0: e72e f43d e77e 013d 50bf c13c a371 3dbd
000000d0: e836 0c3c 4e01 38bc 028b 9e3d b87c 6dbc
000000e0: 8efa 873d a167 0f3d 5888 df3c e63e a6bc
000000f0: b9b2 f0bc 7492 0a3e 2a75 7bbb bd9c 043e
00000100: c6fd da3c dc9d 74bd cf01 81bd 28c6 823b
00000110: 4775 873d bbd0 fc3c 9344 04bc c466 443d
00000120: 6818 bb3d 5592 90bd d6a5 3d3d 5f68 bc3d
00000130: ac38 83bc 2688 40bc c5de 0d3e 04d4 6c3d
00000140: 5b69 cfbd 3125 913c 637d 373e 15ed 6abd
00000150: c0a8 7dbd 2183 49bc 3727 4b3d 58a1 0d3d
00000160: 8b4e 013e 8e0d fb3d 1bd2 84bd 90f9 553d
00000170: 1c23 3dbd b5c7 493c 348b 9f3b 1c55 063c
00000180: fad7 843d bda8 943d 0bdc 2bbc 7bff 1cbc
00000190: 66eb 9f3d 9ade 20bd c206 923d afa1 43bd
000001a0: 15f0 3f3e e817 d33d 0b71 233d 2efa b6bb
000001b0: 9b6f c73d 12bf 783d 5765 3d3c 8fac 4e3d
000001c0: a2a0 8cbd 9185 cb3b cf91 b13d 9593 e9bc
000001d0: c0e7 d43c 46bc 293e 6b45 453d 1345 b0bc
000001e0: 5db7 9a3d 28ab aa3d 8e44 433d 3fd7 88bc
000001f0: 70ed ffbc c30f 093d c14e 503c ba17 253d
00000200: f5b8 eebc 2b14 07bd 97e0 a63d ade1 bdbc
00000210: 55b1 b03d a0ac 6cbb 0b86 e33c 0f46 5cbd
00000220: f3e1 073d 2074 063c 17ab 5c3b b9b5 3fbd
00000230: 99ff 513a 51e0 553c ef4e 3abd 9e10 23bd
00000240: 81df 65bc a205 013e f380 bcbd 5c7e 923b
00000250: 74a1 4dbd 382f cb3d 164d 1b3d 9d3e 0f3e
00000260: 97f2 e63c f1ee b0bc 6318 fa3d 7cdd ed3d
00000270: aaba 973d bd47 513d d029 a2bd def5 5dbc
00000280: e785 223d 1b0b a13c d034 3d3d 95ce bb3c
00000290: 6a00 213d f18b dc3b 68e2 873b 4062 8fbc
000002a0: eed0 e33d 11dd 17bd 7475 14bc cf2b be3d
000002b0: ee92 b3bc 6813 fe3c 81ff 3c3d 776c c23d
000002c0: 62e6 693d a48a 783b acac 00bd 8a68 d93c
000002d0: 57b3 813d 7b67 1a3d 7329 c5bb 2222 09bd
000002e0: cdaf 06bd af78 0dbd 4dcc 103d 2e71 bd3b
000002f0: 17d7 fb3b 7c5a abbc 6947 02bd 9a28 133e
00000300: 06d3 6dbd 46d8 77bd 138b 19b9 d25f ff3c
00000310: ed40 f1bc 5afa 833c f622 203d 3389 01bd
00000320: a73a 8f3d 6ad5 033d 975a 23bd c2e0 32bc
00000330: 1cc6 e3bc cd96 283d 6cf0 c03d dd10 5cbd
00000340: 449e ea3d b5b7 8dbd 2ae3 3abd 7e48 4f3d
00000350: ddfb a73b 06f2 603d bd20 883d 8348 0fbd
00000360: 22fa d13d 7d46 2f3d 2079 c6bc 8473 2bbc
00000370: 7224 1dbd 2e26 0d3d bea7 803c 2be6 32bd
00000380: 0bc3 593c 406a 883c 74ee 353d 08a8 763d
00000390: bdff 92bd ce53 043e f2ca 913d a4db 183d
000003a0: cdef 053d d554 fa3d c009 f33c 5fa8 3a3d
000003b0: f8fd 42bb c9e9 0dbc 7500 373d 0bba 7a3b
000003c0: 3c01 403d 8c0e 9bbb 6d2e f63d b0ce b93c
000003d0: b07c 313d 06e5 353d 23b9 7dbd 6405 fa3d
000003e0: bcd6 e83b cac1 4a3d 36b8 153d 5339 c53c
000003f0: b0a7 c3bc d4f9 093e 0395 723d 3f64 aa3d

net.4.bias f4 [256]
-0.10535201 -0.04917199 0.0004544974 -0.04469754 -0.040784493 0.018709585 -0.1393711 -0.01609277
-0.09093126 0.0025281012 -0.03461965 0.0032616314 0.030924374 0.0067379302 -0.030760938 0.008306199
-0.11935153 0.34146062 0.0036115814 -0.044378053 -0.039323762 0.06578179 -0.058135 0.008721293
0.09176309 -0.1011853 -0.014622386 0.020395769 0.008948376 0.018446527 0.0034784023 -0.031585246
-0.016015643 -0.031523183 -0.07451777 0.09398334 0.010408606 -0.022244565 0.13647585 0.15161029
0.048467495 -0.081778236 0.024566408 -0.07087352 -0.2971138 0.05020902 -0.0098393485 -0.037568476
-0.016642278 0.024063481 0.0061684037 -0.031975575 -0.09067769 0.124712124 -0.06389837 0.050121985
-0.096144654 -0.031411327 -0.059978537 0.018644625 -0.016625829 -0.069711484 -0.06228854 0.01885241
0.015387563 0.0030716073 -0.041984063 -0.08019915 -0.058536302 -0.016765429 -0.10560351 -0.09110811
-0.0044864467 0.020730317 -0.07038673 0.03452538 -0.2044171 -0.036808178 0.1743939 -0.04057997
-0.057218887 -0.053151935 -0.026435502 -0.07856163 -0.065476075 -0.0704706 -0.11303546 0.08519145
-0.016120605 -0.067378916 -0.053084966 0.102697164 0.070682704 -0.024809694 0.06979964 0.044738594
0.04439579 -0.061186533 -0.057234902 -0.0538509 -0.06802814 -0.0063055335 0.029595222 -0.028780114
-0.048628174 -0.034738675 0.114466175 -0.10333166 -0.033845913 0.0070106136 -0.08861701 -0.08283567
-0.039313447 0.030777035 -0.07095472 -0.10453875 -0.03261358 0.013504025 0.02099303 -0.060072925
-0.025523653 -0.118002415 -0.04093905 -0.049918175 -0.06419196 -0.09861337 -0.070674054 -0.086758494
-0.09212881 -0.0048112464 -0.072116226 -0.023365656 -0.014371426 -0.07629061 -0.056210242 0.04076723
0.12899487 -0.18550803 -0.07088187 0.032357045 -0.011725376 0.012155654 -0.054629777 -0.038998127
-0.011750033 -0.022668796 -0.058475226 -0.055845715 0.5170702 -0.031360567 -0.015788885 0.12513153
-0.09550716 0.040314183 -0.07864204 -0.10258026 -0.036708873 0.03103134 -0.03170478 -0.09398908
0.19496007 -0.015263036 -0.047269132 -0.0503977 -0.001399425 0.09660058 0.06971361 -0.03609567
-0.020335633 -0.010775409 -0.018552655 -0.074822254 0.42599237 0.05842497 -0.122855164 0.018221887
0.04473445 -0.062065292 -0.066905975 0.04835086 -0.034280606 -0.005489725 0.121329874 -0.076256506
-0.0062222355 -0.04296746 0.37008843 -0.0749736 -0.101184756 0.21300296 0.0067234994 -0.022759896
-0.09353344 -0.03093468 -0.038249034 -0.04510224 -0.063440785 0.24631274 0.030689187 0.030721765
0.034816798 -0.049053494 -0.3899008 -0.012706904 -0.08308807 0.07448908 -0.04446551 -0.039607998
-0.06816152 0.052004233 0.0012639001 -0.033312406 -0.04187314 -0.0026029625 -0.1038385 -0.0935285
0.26782024 -0.022477537 -0.092040345 -0.051757094 -0.099655904 -0.13208672 0.025505736 -0.08742969
-0.006017369 -0.0670344 -0.0022124997 -0.06453659 -0.042511903 -0.034570143 -0.001618832 0.03690511
-0.025428466 -0.07641023 0.17924681 -0.04007356 -0.040409207 -0.1205782 -0.013328191 -0.012296215
-0.09616948 -0.059004746 0.05711771 -0.018127264 0.001164182 0.15741351 -0.08911917 0.09491037
-0.119728215 0.0072639235 0.011427679 -0.06776971 -0.09238664 0.18254739 0.052247163 -0.08042492
00000000: cbc2 d7bd 9268 49bd 9c49 ee39 c514 37bd
00000010: a40d 27bd d844 993c 4cb7 0ebe fcd4 83bc
00000020: 2b3a babd 80ae 253b 56cd 0dbd 18c1 553b
00000030: 1d55 fd3c dbc9 dc3b 5dfe fbbc b916 083c
00000040: 936e f4bd edd3 ae3e 48b0 6c3b c3c5 35bd
00000050: f411 21bd 9ab8 863d f71e 6ebd c1e3 0e3c
00000060: 49ee bb3d 3d3a cfbd bb92 6fbc 0715 a73c
00000070: 369c 123c 2c1d 973c e8f5 633b 885f 01bd
00000080: 3d33 83bc 741e 01bd c69c 98bd 567a c03d
00000090: dc88 2a3c 3c3a b6bc 53c0 0b3e ba3f 1b3e
000000a0: da85 463d 597b a7bd 7e3f c93c 2326 91bd
000000b0: 4d1f 98be f9a7 4d3d 3835 21bc 67e1 19bd
000000c0: 6355 88bc c720 c53c 5220 ca3b d2f8 02bd
000000d0: 3ab5 b9bd 1269 ff3d 26dd 82bd b64c 4d3d
000000e0: 7de7 c4bd 2aa9 00bd 0eac 75bd 9dbc 983c
000000f0: e432 88bc e5c4 8ebd 4522 7fbd 5f70 9a3c
00000100: 1e1c 7c3c 054d 493b 7bf7 2bbd 743f a4bd
00000110: c3c3 6fbd a757 89bc a746 d8bd e496 babd
00000120: 0b03 93bb a0d2 a93c eb26 90bd 7c6a 0d3d
00000130: b752 51be 2cc4 16bd 5194 323e 2f37 26bd
00000140: 5a5e 6abd d8b5 59bd 448f d8bc ebe4 a0bd
00000150: 5218 86bd e452 90bd 237f e7bd db78 ae3d
00000160: 5c0f 84bc f5fd 89bd 9f6f 59bd e452 d23d
00000170: 18c2 903d b33d cbbc 1df3 8e3d d13f 373d
00000180: 5cd8 353d bb9e 7abd 256f 6abd c392 5cbd
00000190: 5652 8bbd a69e cebb ae71 f23c 46c4 ebbc
000001a0: 562e 47bd 244a 0ebd 3e6d ea3d 8d9f d3bd
000001b0: 03a2 0abd 4ab9 e53b d67c b5bd bfa5 a9bd
000001c0: 2307 21bd 1f20 fc3c b550 91bd 6a18 d6bd
000001d0: d195 05bd fc3f 5d3c 93f9 ab3c 070f 76bd
000001e0: fb16 d1bc 40ab f1bd b5af 27bd 0077 4cbd
000001f0: 1377 83bd cef5 c9bd 8fbd 90bd 70ae b1bd
00000200: 08ae bcbd a9a7 9dbb acb1 93bd 5569 bfbc
00000210: 2176 6bbc 403e 9cbd b63c 66bd 8afb 263d
00000220: 3b17 043e d1f5 3dbe 842a 91bd d288 043d
00000230: cb1b 40bc 8228 473c 79c3 5fbd 80bc 1fbd
00000240: 3683 40bc e9b3 b9bc b883 6fbd 7abe 64bd
00000250: b65e 043f f073 00bd b157 81bc 7b22 003e
00000260: 4299 c3bd 7c20 253d 140f a1bd 9915 d2bd
00000270: 0b5c 16bd 7035 fe3c dfdc 01bd 597d c0bd
00000280: 9da3 473e d011 7abc 479d 41bd d26d 4ebd
00000290: e96c b7ba 86d6 c53d 02c6 8e3d 0ed9 13bd
000002a0: ea96 a6bc 578b 30bc bdfb 97bc 693c 99bd
000002b0: ac1b da3e 054f 6f3d 7d9b fbbd 1146 953c
000002c0: 783b 373d 2d38 7ebd 0006 89bd 8d0b 463d
000002d0: d269 0cbd 27e3 b3bb cc7b f83d 5f2c 9cbd
000002e0: e5e3 cbbb a6fe 2fbd 3b7c bd3e c28b 99bd
000002f0: f439 cfbd 731d 5a3e cd50 dc3b f672 babc
00000300: 768e bfbd ba6a fdbc 05ab 1cbd 20bd 38bd
00000310: 3eed 81bd 6839 7c3e e467 fb3c 36ac fb3c
00000320: 0f9c 0e3d 51ec 48bd 14a1 c7be 9e30 50bc
00000330: 142a aabd bb8d 983d 7721 36bd ff3b 22bd
00000340: 4498 8bbd 6402 553d 73a9 a53a 9772 08bd
00000350: 2b83 2bbd 7796 2abb 48a9 d4bd df8b bfbd
00000360: bc1f 893e d022 b8bc a67f bcbd 3fff 53bd
00000370: 6518 ccbd be41 07be 68f1 d03c 560e b3bd
00000380: 5a2d c5bb 5549 89bd 96ff 10bb c22b 84bd
00000390: f620 2ebd 6c99 0dbd fd2e d4ba d029 173d
000003a0: 5c4f d0bc f77c 9cbd 7a8c 373e 2c24 24bd
000003b0: 2084 25bd b4f1 f6bd 7c5e 5abc 1076 49bc
000003c0: 81f4 c4bd f6ae 71bd 43f4 693d a17f 94bc
000003d0: 7797 983a 0231 213e 1d84 b6bd 5e60 c23d
000003e0: 1134 f5bd 3506 ee3b 293b 3b3c d9ca 8abd
000003f0: 3535 bdbd b4ed 3a3e 1f01 563d d2b5 a4bd

net.6.weight f4 [2, 256]
-0.044300098 -0.042031467 0.10145481 0.12770067 -0.04004772 -0.041262195 -0.04246788 -0.10259621
-0.1111272 -0.080143794 0.08455472 -0.15151769 0.08446518 -0.09027701 -0.054467957 -0.12808861
-0.06411284 -0.11473327 -0.11607935 -0.01923701 -0.05568871 -0.047266737 -0.091958754 -0.031691223
-0.09293714 0.070558116 -0.042892933 -0.057988416 -0.10364323 -0.03840343 -0.065700255 -0.03132992
-0.040330343 -0.09673773 -0.05384967 -0.07394545 -0.011411091 -0.0067403144 -0.057941426 -0.092669874
-0.036458742 0.07449421 -0.021843836 -0.045793235 -0.10667128 -0.007657204 -0.06694079 0.027497852
-0.04330329 0.06529144 -0.12606817 0.06460495 -0.07702933 -0.030894864 -0.024286384 0.049049154
-0.08862759 -0.030022413 -0.009510472 -0.012153687 0.058634654 -0.11582533 -0.026460653 -0.035993762
-0.020881688 -0.025881827 -0.049635313 -0.02846987 -0.14578462 0.060862303 -0.093141064 -0.033514336
-0.06796129 -0.120950446 -0.06955174 -0.011341148 -0.025750067 -0.0044922233 -0.08251621 -0.09474054
-0.09462345 -0.10468775 -0.0615743 -0.031347763 -0.056865513 0.135733 -0.07807743 0.083420694
-0.05329621 -0.11576641 -0.06033781 -0.11941726 -0.1409441 -0.015964076 -0.070157826 -0.026688073
-0.0915022 -0.018174931 -0.03706953 -0.10592715 -0.011039853 -0.023109917 -0.027763328 -0.033208173
0.03115216 -0.1009215 -0.14502424 -0.032065455 0.04129485 -0.077116184 -0.056152616 -0.08291515
-0.031292934 -0.13900761 0.0034204721 -0.023316327 -0.09467617 -0.03226222 -0.089992985 -0.03909635
-0.09564252 -0.05418497 -0.0349926 -0.044939138 -0.05397946 -0.059613943 -0.067963794 -0.048543643
-0.09247458 -0.054915506 -0.047571756 -0.017692057 0.04940725 -0.06683406 -0.032733 -0.026024157
0.07009213 -0.08772754 -0.104559205 -0.014598479 -0.11317682 0.04938865 -0.0708489 -0.021809686
-0.09155918 -0.103218764 -0.1222913 -0.023112224 -0.099004395 -0.001643279 0.015246699 -0.010266878
-0.048738215 -0.058660712 -0.08116832 0.058282416 -0.059762955 0.13245022 -0.093348816 -0.08566139
-0.080081 -0.06364462 -0.024089195 -0.09670064 0.04098628 -0.07573669 -0.043025784 -0.041345954
0.08313192 -0.020487992 -0.087650225 -0.0075005633 -0.11320079 0.061851043 0.011538952 0.088955194
0.007650311 -0.024878448 -0.07269831 -0.03638062 -0.11224238 0.16807964 -0.11885315 0.01736975
0.02745764 0.048335083 -0.0805761 -0.112138554 -0.02371764 -0.03784195 -0.05526295 -0.02372688
-0.0064999093 -0.13703883 -0.018263694 -0.03744954 -0.03986744 -0.057232242 -0.0696868 -0.15939918
0.14331311 -0.06899268 0.00948775 -0.09005665 -0.058793712 -0.10656875 -0.007407976 -0.034267493
-0.04521016 -0.07900951 -0.05503353 0.09654583 0.1331765 0.07905304 -0.053810675 -0.08134373
-0.1093545 -0.07918028 -0.031048127 -0.03385034 -0.060501456 0.05241873 -0.01049662 -0.02476019
-0.041243 -0.10228491 -0.095649265 -0.06859405 -0.040101726 -0.047188874 0.09277038 0.039109603
-0.07353978 -0.14396131 -0.1516614 -0.017987443 -0.049166176 -0.079177685 -0.050924383 0.038101796
-0.029919013 -0.04052987 0.010225928 -0.032386806 -0.11761868 -0.08511624 -0.05394597 -0.12031205
-0.011096655 -0.03558272 0.087877184 -0.055994995 -0.02810885 -0.12689093 -0.066090524 -0.02138681
00000000: 0574 35bd 3029 2cbd 8ac7 cf3d f7c3 023e
00000010: 1409 24bd 8c02 29bd cdf2 2dbd f61d d2bd
00000020: a896 e3bd 6e22 a4bd 062b ad3d 7427 1bbe
00000030: 15fc ac3d 27e3 b8bd cb19 5fbd a929 03be
00000040: 984d 83bd 47f9 eabd 03bb edbd ef96 9dbc
00000050: d819 64bd c49a 41bd df54 bcbd a8ce 01bd
00000060: d455 bebd c680 903d 80b0 2fbd 4385 6dbd
00000070: e742 d4bd ea4c 1dbd db8d 86bd cd53 00bd
00000080: 6e31 25bd 6e1e c6bd 7991 5cbd b670 97bd
00000090: 96f5 3abc dbdd dcbb fd53 6dbd b4c9 bdbd
000000a0: c355 15bd 6c90 983d d8f1 b2bc b091 3bbd
000000b0: 7976 dabd 48e9 fabb 4118 89bd 2d43 e13c
000000c0: ca5e 31bd 85b7 853d 0418 01be 9a4f 843d
000000d0: 8ec1 9dbd 3a17 fdbc 3df4 c6bc c4e7 483d
000000e0: 6282 b5bd 90f1 f5bc d0d1 1bbc 4220 47bc
000000f0: e42a 703d d535 edbd 03c4 d8bc 326e 13bd
00000100: 1310 abbc 2006 d4bc 664e 4bbd a539 e9bc
00000110: 9048 15be c04a 793d bec0 bebd 5446 09bd
00000120: 4a2f 8bbd deb4 f7bd 2571 8ebd 39d0 39bc
00000130: cef1 d2bc 8033 93bb 42fe a8bd 5407 c2bd
00000140: f0c9 c1bd 8866 d6bd 5535 7cbd 8366 00bd
00000150: d0eb 68bd 97fd 0a3e 0fe7 9fbd 78d8 aa3d
00000160: 204d 5abd f116 edbd c824 77bd 0991 f4bd
00000170: a653 10be 18c7 82bc e8ae 8fbd f2a0 dabc
00000180: 8165 bbbd 98e3 94bc 38d6 17bd 55f0 d8bd
00000190: 80e0 34bc 0251 bdbc eb6f e3bc 4b05 08bd
000001a0: d132 ff3c eeaf cebd 3c81 14be 1157 03bd
000001b0: ca24 293d 17ef 9dbd 4900 66bd 6bcf a9bd
000001c0: 052d 00bd 0358 0ebe 002a 603b e201 bfbc
000001d0: 94e5 c1bd 6425 04bd 3e4e b8bd 7f23 20bd
000001e0: 3ae0 c3bd 0ff1 5dbd 6754 0fbd 1a12 38bd
000001f0: 9119 5dbd c02d 74bd 9a30 8bbd b3d5 46bd
00000200: 5063 bdbd 15ef 60bd 9ada 42bd efee 90bc
00000210: 425f 4a3d 4ce0 88bd 0a13 06bd 9d30 d5bc
00000220: 768c 8f3d 7faa b3bd 2323 d6bd 752e 6fbc
00000230: 40c9 e7bd c14b 4a3d 3a19 91bd 3aaa b2bc
00000240: 6183 bbbd 5c64 d3bd dc73 fabd d955 bdbc
00000250: d1c2 cabd 4b63 d7ba 4acd 793c 6836 28bc
00000260: b9a1 47bd 3746 70bd 933b a6bd 8bb9 6e3d
00000270: 00ca 74bd 08a1 073e aa2d bfbd 3d6f afbd
00000280: 8201 a4bd 1c58 82bd b456 c5bc fc0a c6bd
00000290: 3be1 273d d61b 9bbd ce3b 30bd 605a 29bd
000002a0: 1141 aa3d 6fd6 a7bc f681 b3bd 49c7 f5bb
000002b0: d1d5 e7bd 8557 7d3d df0d 3d3c 242e b63d
000002c0: 76af fa3b e3cd cbbc dae2 94bd d803 15bd
000002d0: 55df e5bd 121d 2c3e 4869 f3bd 024b 8e3c
000002e0: d8ee e03c 02fb 453d 1505 a5bd e6a8 e5bd
000002f0: 7f4b c2bc 2900 1bbd 675b 62bd e05e c2bc
00000300: 31fd d4bb e853 0cbe be9d 95bc b064 19bd
00000310: 0a4c 23bd 5b6c 6abd f4b7 8ebd 8a39 23be
00000320: acc0 123e 094c 8dbd 8272 1b3c 9f6f b8bd
00000330: add1 70bd b840 dabd 9bbe f2bb 125c 0cbd
00000340: 4a2e 39bd bdcf a1bd d76a 61bd d2b9 c53d
00000350: 6c5f 083e 8fe6 a13d 9568 5cbd 8b97 a6bd
00000360: 41f5 dfbd 4529 a2bd a458 febc a7a6 0abd
00000370: 60d0 77bd 06b5 563d 04fa 2bbc e2d5 cabc
00000380: 6cee 28bd c07a d1bd c3e3 c3bd 0a7b 8cbd
00000390: b541 24bd 1f49 41bd 66fe bd3d 6431 203d
000003a0: 069c 96bd 986a 13be 204d 1bbe 675a 93bc
000003b0: 7962 49bd e927 a2bd 1696 50bd a110 1c3d
000003c0: b818 f5bc a602 26bd a78a 273c 07a8 04bd
000003d0: 10e2 f0bd 6c51 aebd 73f6 5cbd 2a66 f6bd
000003e0: bfce 35bc 30bf 11bd f4f8 b33d 025b 65bd
000003f0: 8844 e6bc b2ef 01be 785a 87bd 6433 afbc

net.6.bias f4 [2]
0.075187854 0.036471084
00000000: 17fc 993d b462 153d
