normal/node/models/1650_model.pt (torch, 535780 bytes, 8 tensors)

net.0.weight f4 [256, 3]
00000000: a3a8 35be 75ee 0a3e fea5 4ebe e58f 1ebf
00000010: a291 303e 71c2 93be fc1c 083f 5538 873e
00000020: 1f2e 883e 33f9 9f3e 0014 893e 6b43 93bc
00000030: b288 a6be a6ac ecbe 929a 193f 0f8b fd3e
00000040: df0b aebd ebd0 803e d624 d53e 6df8 2fbe
00000050: c9d2 6d3d cc22 2cbe 6e70 fe3d 1768 153d
00000060: ea70 84be 0a45 983e 6453 f03e 4937 aa3b
00000070: b528 b2bd b9d3 f7be c27b 5a3d ed01 14bf
00000080: c5b6 b13d d3cc 94bd cccf b6be 7d79 aebe
00000090: ec0b 5d3e eee4 09bf 50e4 e6be bd64 e3bc
000000a0: 0d60 c23d 688f e9be 128f c6be bc8e 0ebe
000000b0: 3854 c9be 00f9 81be 5857 a7bc 4ef8 b03e
000000c0: 5286 dbbd 2543 df3e e8fe df3d 188e 1fbf
000000d0: 0d56 d33e 593b 5abe 33d2 343e 90b3 e03d
000000e0: 5d96 f4be 96e2 10bf 8b90 c2be 5c8e 8c3e
000000f0: 9023 adbd b344 6f3e 69ba 3d3e 79b3 d7be
00000100: 9969 4fbd 58da 433f 0bfe 52bc 45d0 83be
00000110: 66f8 163f 9fff 403e 3a88 533e 8ccd a7be
00000120: 99c2 0bbf cde6 f43e 7bfa fc3e 4be4 36bc
00000130: 99dd 153f 6515 183f 5a13 18bf b7ff 5c3e
00000140: d4c6 a43e eee6 59bd 03ac 583e c48d cdbe
00000150: 4ee2 17bf 8c0c a5be 5924 183e 57d8 5fbe
00000160: 9349 c83d 337b d73e fcd2 94be cf80 3dbe
00000170: 5b7b 9f3d 3d62 d13e 4ccd 02bf dbb1 e7be
00000180: 324d 04bf fa4f 9a3c 88a4 cabe b239 6b3e
00000190: c40f a63d 245f e4be 8431 04bf 4228 95be
000001a0: 279a f23d 4c01 4d3e daf1 833c 861d 81be
000001b0: 3d14 a2bd 2195 983d 3e63 8a3d 6326 093f
000001c0: 925a 103f 0a1e 3abf 29ba e83e 53c8 e93e
000001d0: 755d a63e 9355 ebbd 42ff 90be 6825 c43e
000001e0: 3f0c 5ebe 61b0 dd3e e5ae e6be 3de1 0d3e
000001f0: 72a0 3fbd baf9 183e 992c 01bf d3a0 2dbe
00000200: 88f6 613e 018c 983e 0672 eebe 1bb0 bd3e
00000210: b7e9 0e3e aa51 c5be db6b 8dbe 4f53 f5be
00000220: eb19 993e 46a9 ae3e 8a97 c2bd d9a8 ad3e
00000230: d356 883e d6d7 edbd 7551 16bf a698 5abe
00000240: 4493 09bf a41f d73e 4a81 123f c9ec a9be
00000250: 7cc0 64be 0dac 03be 04e0 17bf 92cb 99bd
00000260: e8a4 b33b bb2b 0fbf 480b 0c3f e5d1 bdbe
00000270: 5e9f c3bd 7121 523e 996b 273f b336 e5be
00000280: bf18 dbbd e84d 53bd 18ca 84be 72d9 763d
00000290: 2ac8 d8be 1d68 3abe cc18 f13e 754b e63e
000002a0: 4f28 073f 3f31 b6bd 818d 74be 1457 6c3e
000002b0: e918 403e 7b18 77be 6c95 113e 1b82 d23c
000002c0: 0ae6 92be ef96 9abe 895e 933e d6be ecbe
000002d0: 8a36 a8be f95d 4a3c 6d3c 193f 6dd6 b53e
000002e0: 9448 4c3e 5b7d 0ebf 213e a13e 052c be3e
000002f0: 3096 a23e 1e8c e53e af60 b2be c062 a43e
00000300: cbfc ab3e 7a30 fa3e 5d89 613e 2e8d f23e
00000310: d5b4 c53e e81b e53e 8fe1 72be 7cff ee3e
00000320: 8182 85be 4f95 06bf 2d4f f73e fef6 c63e
00000330: efc4 9e3e b64e c4be ecbe 263e 6280 1bbf
00000340: 1641 4fbe 4eef 1f3c 8731 83be 833b ab3e
00000350: 01d9 393f 2e3f 913e 6567 1abe 3339 a8bd
00000360: 1e17 8ebe a206 17be c59d 88bd 3982 f63e
00000370: 8fcc 12be 9258 93bd f9b3 ae3c d377 5bbe
00000380: aa66 8cbe 60da cebe 8774 723e 288a 083f
00000390: da89 e1be ce5e 663e 4f31 cebe f074 85be
000003a0: 681d f0bd ec27 993e 1b99 043f f781 d23e
000003b0: 9060 abbe 8360 773e 33bb 793e 4313 f53e
000003c0: de21 893e ef64 c4be ab88 a33e 7446 163f
000003d0: 2068 3abe febe 8c3d 80c8 c13d 172b c5be
000003e0: b3ae f43e 519e 24be d535 d33e 024a ef3e
000003f0: 74ce 953d f7eb ef3e 769a d23e c082 973e
-0.17740111 0.13567527 -0.20180508 -0.61938316 0.17243055 -0.28859285 0.53169227 0.26410165
0.26597688 0.3124481 0.2677307 -0.017976483 -0.32526165 -0.4622547 0.6000148 0.49520156
-0.08498358 0.25159392 0.41629666 -0.1718461 0.05806235 -0.16810149 0.12423788 0.03647622
-0.25867397 0.29740173 0.46938622 0.005194579 -0.086991705 -0.4840372 0.05334068 -0.5781544
0.08677439 -0.072656296 -0.3570541 -0.34077063 0.21586579 -0.53864944 -0.45096064 -0.027757997
0.094909765 -0.45617223 -0.3878103 -0.13921636 -0.39322066 -0.25385284 -0.020427391 0.3456444
-0.10718979 0.43605915 0.109372914 -0.6232619 0.4127659 -0.21311702 0.1765831 0.10971749
-0.47770968 -0.5659574 -0.38000903 0.27452362 -0.08454049 0.2336605 0.18528141 -0.42129114
-0.050637815 0.7650504 -0.012877951 -0.25744835 0.58972776 0.18847512 0.20657435 -0.32774007
-0.5459381 0.47832337 0.4940985 -0.011162828 0.58541256 0.59407645 -0.5940453 0.21581922
0.32182944 -0.053198747 0.21159367 -0.4014722 -0.5932969 -0.32236135 0.14857616 -0.21859871
0.09779658 0.4208618 -0.29067218 -0.18506168 0.077872 0.40895262 -0.5109451 -0.4525288
-0.5168029 0.018836964 -0.39578652 0.22971228 0.08108476 -0.44603837 -0.51638055 -0.29132277
0.118458085 0.20020026 0.016106535 -0.25217837 -0.079140164 0.07450319 0.0675721 0.535742
0.563882 -0.72702086 0.4545453 0.45660648 0.32493177 -0.11490931 -0.28319746 0.3830979
-0.21684359 0.4329863 -0.4505531 0.13855453 -0.046783872 0.14939013 -0.50458676 -0.16955881
0.220667 0.29794315 -0.46571368 0.3704842 0.13956343 -0.38538867 -0.2762135 -0.47915122
0.29902586 0.3411352 -0.0950156 0.33917883 0.26628742 -0.11613433 -0.58718044 -0.21347293
-0.53740335 0.42016327 0.5722853 -0.33188465 -0.22339052 -0.12858601 -0.59326196 -0.07509531
0.005482305 -0.559261 0.54704714 -0.370742 -0.09551881 0.2052057 0.65398556 -0.44768295
-0.10698079 -0.05158797 -0.25935435 0.060265966 -0.42340213 -0.18203779 0.4708923 0.44979444
0.5279588 -0.08896112 -0.23882104 0.23080093 0.18759502 -0.24130432 0.14217156 0.025696805
-0.2869113 -0.30193278 0.28783062 -0.46239346 -0.3285411 0.012351506 0.5985783 0.35515156
0.19949561 -0.5566003 0.31492713 0.3714296 0.3175521 0.44833463 -0.3483939 0.3210659
0.33591303 0.4886511 0.22025056 0.47373337 0.38614526 0.44747853 -0.23718856 0.46679294
-0.2607613 -0.52571577 0.48302594 0.38860315 0.31009623 -0.38341302 0.16283768 -0.6074277
-0.20239672 0.0097616445 -0.25623724 0.3344384 0.72596747 0.28368515 -0.15078504 -0.08214035
-0.27752012 -0.14748624 -0.06670717 0.48146227 -0.14335845 -0.07194628 0.021326052 -0.21432428
-0.27422076 -0.40400982 0.23677264 0.5333581 -0.44050485 0.22497103 -0.40271994 -0.2606578
-0.11724359 0.2991327 0.5179612 0.4111478 -0.3347211 0.2415791 0.24387817 0.47866258
0.2678365 -0.38358256 0.31940207 0.5870125 -0.18203783 0.06872366 0.094620705 -0.38509437
0.47789535 -0.16076018 0.41252008 0.4673615 0.073147684 0.46859714 0.4113347 0.29591942

net.0.bias f4 [256]
00000000: 6a70 a2be b3b8 983e f616 5a3e a523 f4be
00000010: 5d84 da3e e582 88bd 7d70 9c3e 0424 0fbf
00000020: 4847 d9be ac04 4f3e f0b6 ee3e 654f 7a3e
00000030: b4b3 013f c246 0fbf 05cd e33e 5e6b 143e
00000040: a64a 6b3e 6137 8e3e a022 103e 7a0b 1d3f
00000050: 7cfb 113f 4abf a43e fc4a 103f c415 c3be
00000060: 32a9 ef3e 5684 0f3f cc0f c63e fa7c 063f
00000070: 1e01 d83e b912 ed3e dee5 3cbe d5bc 20bf
00000080: ef7d bb3e 9d81 d2bd 4327 d73e 9229 52be
00000090: 5584 e43e c936 14bf 0d02 96be adb2 833c
000000a0: a496 d7be d13e 7f3e cda5 003e fd49 dfbe
000000b0: 4e84 0fbf 8c7b 023e 5af1 d63e 7ea5 0e3f
000000c0: 70df a7be 44c6 e43c 72ab 2b3e a113 0b3e
000000d0: 789a a9be 8d8e 253d 619b b4bd b1e8 fb3d
000000e0: c3b8 be3d d368 fcbd 9808 40bd ad0c 05bf
000000f0: 55ce d53e 2fb1 3c3e 03b0 dd3d 0ec7 d5bd
00000100: 06a4 bdbc e1eb c13e 76f9 ab3e 074f a6be
00000110: 0b07 09bf faec fa3e 5941 e23d fed7 7d3e
00000120: b8e7 0dbe 6135 2bbe cee4 463e 473b cc3d
00000130: bf93 813e 5d49 40be 1b5c 29be b4f3 a13e
00000140: df47 2f3e 81e0 1bbe df2c b73e 6fe5 cabd
00000150: addf 1dbf 39ed 753e 89d7 cb3e adc7 78be
00000160: d2ee e9be 5b73 1c3f de46 a1bc d7e3 213f
00000170: ca1c 18bf 27a4 c23e 9a51 103f 6697 db3e
00000180: 87ba 04bf a69f 633e 3ebe 433e 8ade 183e
00000190: 43ea 29bd f2ca b6be 58a8 d73e 30ac 31be
000001a0: 4a99 153f 7b48 153e 5c0b a03d 7839 a1be
000001b0: 5dcc 4ebe ee12 223d 104e ad3e 2bfa ad3c
000001c0: 48ef 3b3e 4b22 2b3e e179 9abe 39f3 c83e
000001d0: d476 19bc dded e5bd ef45 db3d e840 a03d
000001e0: fc82 a8be aa92 cd3e 4966 a63e 0044 07bf
000001f0: 7687 9a3d fb7e 313e 4bfc 0dbf 0b78 fc3e
00000200: 6c71 193f b03e d0be 94ea 243d 7cc8 583e
00000210: 998d 733e bc96 62be f70e 93bc 33a1 9f3e
00000220: 854e bb3e 10be fabe cab0 b3be 62b9 433e
00000230: 03bf cd3d de50 0cbe a0f5 453e 57ca f3be
00000240: af05 d43e 99d8 e73e bee6 01bf da5e d0bd
00000250: 50c6 aa3e f80c 87be 28bf 2bbd 4e19 913d
00000260: e610 14bf 6558 6abe 78c5 b2be 5fad 5fbe
00000270: 75c0 e23e 2283 e23e 70fc 8ebd b85b e5be
00000280: 7f73 bd3e ad1f dbbe 9904 eb3e 0de1 06bf
00000290: c6a8 623e b572 02bc 05df 403e 6923 a4be
000002a0: 9bcd 983e c3b2 09be 16dc cfbe 2bf3 3a3e
000002b0: 9281 41be 8527 83be 754d ee3e 3cac 0d3c
000002c0: 1b15 f63d de69 413e 85c2 bbbd aa88 06bf
000002d0: 5456 023f fbc1 8dbe 5c2b 143f a156 72be
000002e0: ff7a 8d3d f6dd 973e 63fa fbbd 9ff4 2abe
000002f0: 2b0a 40bc 1521 f93d 5f45 b6be b9a7 a3be
00000300: a5c4 bf3d b99c 7bbc fcf6 593d 3ef2 ff3e
00000310: e992 a6be 5376 ca3e 861e 2e3e c435 bd3e
00000320: fe9f 9abe e291 003e 9222 1b3e 9d5f dfbe
00000330: 79f7 fc3e 1f15 c3be 3bb3 173f 6293 253c
00000340: 92ab ce3e 1b66 f1be 7c57 05be ad17 3d3e
00000350: e494 b53e d4cd ae3e cbbc a6be ddba df3d
00000360: 64ac a7bd 565a 963e 9394 10bf 0c28 bfbe
00000370: 3487 45be 155c 87be 470f f13d b11d b4be
00000380: 4cdb 853c c4a6 be3e 6679 17be a5a9 00bf
00000390: 80d7 6dbd a5e5 1f3f 8090 853e 3376 94bd
000003a0: af8f 093f dc3a 833e 10b8 093f fbb0 0abf
000003b0: d647 673d e57c 06bf 429a e2bd 067b d4be
000003c0: 5539 3cbe 0947 b13e e916 f63d 1db2 17bf
000003d0: f5a5 62bd 8136 c83e c8c9 9c3e 5a41 37bd
000003e0: 3467 30be 92b0 72be 85d6 933e 825b ac3e
000003f0: 27b1 873d 8a1a 0bbf 2614 61be a49f 1dbf
-0.3172639 0.29828414 0.21297821 -0.47683445 0.4267911 -0.06665591 0.30554572 -0.5591433
-0.42437196 0.20216626 0.46623945 0.24444349 0.5066483 -0.5596734 0.44492355 0.14494082
0.22977695 0.27776626 0.14075708 0.61345637 0.5702436 0.32177192 0.5636442 -0.38102543
0.46808773 0.56061304 0.38683927 0.5253445 0.42188352 0.46303347 -0.18447062 -0.62788135
0.36619517 -0.10278628 0.42022142 -0.2052367 0.4463221 -0.57896096 -0.2929844 0.01607641
-0.42107117 0.24926306 0.12563248 -0.43611136 -0.56061256 0.12742442 0.41981012 0.5572127
-0.32787657 0.027926572 0.1676462 0.13581707 -0.33125663 0.04041915 -0.08818699 0.12300242
0.09312584 -0.12324681 -0.046883196 -0.51972467 0.4175898 0.18426965 0.10824587 -0.10438357
-0.023149502 0.37875274 0.3358876 -0.32482168 -0.5352637 0.49008924 0.1104762 0.24789426
-0.13857925 -0.16719581 0.1942322 0.09972244 0.25308034 -0.18777986 -0.16539042 0.31631243
0.1711726 -0.1522236 0.3577642 -0.09907042 -0.6166943 0.24016275 0.39812878 -0.2429492
-0.45690018 0.6111352 -0.019687112 0.6323828 -0.5941893 0.38015863 0.56374514 0.42888945
-0.5184712 0.2222887 0.1911554 0.14928642 -0.041483175 -0.3570171 0.42120624 -0.1735084
0.58437026 0.1457843 0.07814667 -0.31489158 -0.20195146 0.039568834 0.3384862 0.021237453
0.18352997 0.167123 -0.3017111 0.39248064 -0.00936671 -0.112270094 0.10706698 0.0782488
-0.32912433 0.40150958 0.32499912 -0.52838135 0.075453684 0.17333595 -0.55463094 0.49310336
0.59938693 -0.40672827 0.040262774 0.21170229 0.23784484 -0.22127813 -0.017951472 0.31177673
0.36583343 -0.4897313 -0.35095817 0.19113687 0.10046198 -0.13702723 0.1933198 -0.4761531
0.41410586 0.45282438 -0.5074271 -0.101743415 0.33354425 -0.26377082 -0.041930348 0.070849046
-0.57838285 -0.22885282 -0.34916282 -0.2184348 0.44287458 0.4424067 -0.069817424 -0.44796538
0.3700218 -0.42797604 0.45901945 -0.5268715 0.22134694 -0.007961919 0.18835075 -0.32058266
0.29844365 -0.13447098 -0.405976 0.18256824 -0.18897083 -0.25616089 0.4654347 0.008647021
0.12015744 0.18888041 -0.09167961 -0.5255228 0.50912976 -0.27687058 0.5787866 -0.23665859
0.06908225 0.2966153 -0.12303617 -0.16694878 -0.011721174 0.12164513 -0.355998 -0.319639
0.09363679 -0.01535719 0.05321406 0.49989504 -0.3253396 0.395434 0.17003831 0.36955082
-0.3020019 0.1255565 0.15149906 -0.43627635 0.49407557 -0.38102052 0.5925786 0.01010594
0.40365273 -0.47148213 -0.13021654 0.18466063 0.35465157 0.3414141 -0.32565913 0.10924313
-0.08187178 0.29365796 -0.56476706 -0.3733524 -0.19289857 -0.2643744 0.11770492 -0.35178903
0.01633992 0.37236607 -0.14792404 -0.50258857 -0.058066845 0.62459785 0.26086807 -0.07249107
0.5373487 0.25630844 0.5379648 -0.541763 0.056464992 -0.52534324 -0.110645786 -0.4150011
-0.18381245 0.34624508 0.120160885 -0.59256154 -0.05533405 0.39104083 0.30622697 -0.04474006
-0.17226869 -0.23700169 0.28874603 0.33663565 0.06625586 -0.5433737 -0.21980342 -0.6157172

net.2.weight f4 [256, 256]
00000000: 659c 50bd 51fc 6b3d d857 603c 8f96 263d
00000010: 0d4d 09bd f9c2 ef3b 4e99 b43c cb12 90bc
00000020: 0bbb 2f3d d7af 71bd 0764 4fbd 22ad 073b
00000030: 4973 2bbd 9b6e b1bc 74cd 503c 7deb ccbc
00000040: 4e3e 3ebc 9697 05bd 546e 153c 5c12 1fbb
00000050: f31d d83b 89b9 18bd 1b88 143d a1e1 9bbd
00000060: 7db0 7c3c 817b e0bc e25a 8e3c 1869 f83c
00000070: 5b7d 1cbc 9b7a 85bc ae65 bbbd 3706 5fbd
00000080: 6e91 773c cca1 95bc e733 6b3d 2d99 14bd
00000090: bca7 363c 9ca0 e43b 29a9 923c 38b0 e6bc
000000a0: c0f1 263d 4d82 133c 5e0c 733d 0e45 9abc
000000b0: 8bca bd3a 5ad7 25bd 787a ed3c 4dc6 d1bc
000000c0: 98a8 2e3d 49a2 3e3d 79e2 223d c49a 4a3c
000000d0: b41e d73c 08cf fe3b 4845 52bc 22f7 c83c
000000e0: 7764 e13c 47e1 6bbd 675c 553c 193a 073c
000000f0: c832 223c afe3 4c3c 4627 3a3d a5dc 303d
00000100: c62f 70bd 770b b7ba 3806 a4bb f39a 4f3c
00000110: 8f4d feba ccde 02bd df91 1dbc 1a5a 56bd
00000120: c1f5 61bc 4646 1f3d 039c 343d 107d 89bc
00000130: 78c2 01bd fc38 35bd 3310 4c3c 86b4 2fbc
00000140: 781a 50bd 5d33 ff3c b9f3 13bd 68f9 923d
00000150: 73c8 a4bd a2b7 86bd db2c 2abd d8f3 d1bc
00000160: 6ad2 83bd 2539 583d ad37 09bb c706 703d
00000170: 2c71 ae3c 183e 26bc a59b 873c 9caf 943c
00000180: d5a9 1ebd 2b75 abbc a18a 83bc 14cd f3bc
00000190: 5396 6c3c 8708 99bd 2294 603d 2650 4e3d
000001a0: 83ad 563d f8b3 283b 44f2 b9bc d7d9 b43c
000001b0: 7a67 97bc f7a4 4c3d 4cca 1b3d 59c4 0c3d
000001c0: 766c 22bd ff28 313d 73c8 b9bc 6aa1 a4bc
000001d0: 96c4 7cbd 2235 7ebd 412f 12bc 1354 93bd
000001e0: f37b 153d ec6e 0d3d b4bf 5b3d b3e8 52bd
000001f0: cec9 283c 2a2e 9fbc 07af 23bb 4b26 363c
00000200: c4ba 1a3d 5891 eebc 7cd6 82bd 8769 7cbd
00000210: 1e7a 13bd 3da5 a03b 1586 88bd 04c1 ca3c
00000220: 3ce5 19bd becc eebc d363 3ebd f48b 853d
00000230: fcdc d43c 05da 023b 93da 3a3d de4d fabc
00000240: 5804 df3c fad2 20bd 438f 25bd 5791 7bbd
00000250: 0979 073d 90bd 13bd 0a1d 3ebd 7dda bbbc
00000260: 7ad1 75bc 1b48 cd3c 88ec 53bd 371b 973c
00000270: b5d2 0cbd b70f a8bc d333 343c 61b2 623d
00000280: f723 953c 5758 68bb 06bf 96bc 9a9f 203d
00000290: 5977 b3bc d14b a93c e0c9 a73c a47f 38bd
000002a0: cbf4 3f3d 4080 0abd e392 a5bc f97a ce3c
000002b0: 3403 6ebd 8d1a f03a 6067 9c3d 2d17 5dbd
000002c0: 5e1b febc 368f 2cbb 102f 58bd 16a6 0a3c
000002d0: a25a ed3c 50ff 463c 05fb 633d 51ad 243d
000002e0: 1c80 a63b 3b30 86bc acbd b9bc 40d1 203d
000002f0: 8bad a6bd 2bbe b2bc 90a7 03bd 69ff 3c3d
00000300: f4d8 3d3d 13e2 983c d75e 37bd f611 45bd
00000310: 9c18 14bd 02d1 cebc 0cc1 b8bc 347d ee3c
00000320: ba94 573d 1620 c43b 222b 14bd 2c90 1d3d
00000330: ae71 27bd 4bd0 d43c 658f 943d 617c 983c
00000340: fff8 273d 542c 893c 10de 683c 8923 59bd
00000350: 5e3c debc c037 1abd fb6a 2ebc 02c4 93bc
00000360: c5ba 16bd a2b1 173d 0ade 113d b40f 45bd
00000370: f20d 33bc 22a0 29bc b536 213d 328f d9bc
00000380: 14a9 8abd b980 e2bc faeb dc3c 7625 04bc
00000390: 2810 963c 760f 573d 0ae5 f13b 404a b13c
000003a0: 8edb 743d 63e6 8b3d ba0b b43c de6d b23c
000003b0: 5bf5 b43c a96c 0c3c 10ef 8ebd 541a c1bc
000003c0: 5210 733c 21b1 653c d028 133d 28e4 303c
000003d0: 5983 d2bc 2f11 853c 15fa 763d 241c 393d
000003e0: 6f91 a13c 6f6c 843b bd6c 8e3b 7049 4bbd
000003f0: 2157 1f3d 86a0 0f3d 9bb8 6dbc f556 a63c
-0.0509304 0.057613675 0.013692819 0.040670928 -0.033520747 0.0073169437 0.022045758 -0.017587086
0.042902987 -0.059005585 -0.050632503 0.002070256 -0.04185799 -0.021659186 0.012744296 -0.025014633
-0.011611534 -0.032615267 0.009120543 -0.0024272418 0.006595367 -0.037286315 0.036262613 -0.07611395
0.015422937 -0.027402641 0.01737732 0.03032355 -0.009551371 -0.016293814 -0.09150253 -0.054449286
0.015110357 -0.018265627 0.057422545 -0.036278892 0.011148389 0.006977154 0.017902927 -0.0281602
0.040757895 0.009003234 0.059337966 -0.018831756 0.0014479918 -0.04048858 0.028989062 -0.025607252
0.042641252 0.046541486 0.039766762 0.012366001 0.026259758 0.007776145 -0.012833901 0.024531905
0.027513726 -0.057587888 0.013022519 0.008253598 0.0098998025 0.012505456 0.04544761 0.043179173
-0.05863931 -0.0013965209 -0.005005624 0.01267122 -0.0019401776 -0.031950757 -0.009617298 -0.05233202
-0.013791502 0.038885377 0.044094097 -0.016783267 -0.0316796 -0.044243798 0.012455034 -0.0107241925
-0.050806493 0.031152422 -0.036121104 0.07176477 -0.08046045 -0.06577994 -0.041546684 -0.02562897
-0.06436618 0.052788872 -0.0020937726 0.058600213 0.021294199 -0.01014664 0.01655371 0.018150143
-0.038736183 -0.020929893 -0.016057314 -0.029760875 0.014440137 -0.074723296 0.05482877 0.050369404
0.052411567 0.0025742035 -0.022698529 0.02207653 -0.018481959 0.04996201 0.038034722 0.03436694
-0.039654218 0.043251988 -0.02267859 -0.0200965 -0.061710916 -0.06206239 -0.008922399 -0.0719377
0.03649516 0.03452961 0.05364962 -0.05149145 0.01030202 -0.019431192 -0.002497615 0.011117528
0.03777577 -0.02912204 -0.06388566 -0.061624076 -0.036005132 0.0049025104 -0.06666199 0.02475024
-0.03757213 -0.029150363 -0.04648192 0.065208346 0.02598428 0.0019966376 0.045618605 -0.030554708
0.027223751 -0.039263703 -0.04041983 -0.061417904 0.033074412 -0.036069453 -0.046414413 -0.022931332
-0.015003556 0.025058797 -0.051739246 0.018445594 -0.034380633 -0.020515306 0.010998684 0.055345897
0.018205626 -0.0035453045 -0.018401634 0.039214708 -0.021907495 0.020666035 0.020482004 -0.045043603
0.046864312 -0.033813715 -0.020211643 0.025205122 -0.058108523 0.001831846 0.07636905 -0.05397718
-0.031018909 -0.0026330478 -0.052779257 0.00846245 0.028973881 0.012145832 0.055659313 0.04020435
0.00508119 -0.01638042 -0.02267345 0.039262056 -0.081385694 -0.021819195 -0.032142222 0.046142016
0.04634948 0.018662488 -0.04476818 -0.048112832 -0.03615628 -0.025246147 -0.02255299 0.029112436
0.05263207 0.0059852703 -0.036173947 0.03846757 -0.040879898 0.025978228 0.07253913 0.018613996
0.041008946 0.01674477 0.0142131 -0.053012405 -0.027128395 -0.037650824 -0.010645623 -0.0180378
-0.03679921 0.03703464 0.035612144 -0.04811068 -0.010928618 -0.01035312 0.039358813 -0.026557539
-0.0677053 -0.02764927 0.026967991 -0.008065572 0.01831825 0.05250498 0.00738204 0.02164185
0.059779696 0.06831052 0.021978248 0.021780904 0.02208965 0.0085708285 -0.06979191 -0.023572125
0.014835434 0.014019282 0.035927594 0.010796584 -0.025697397 0.016243545 0.06029709 0.045192853
0.019722668 0.0040412466 0.0043464587 -0.049630582 0.038901452 0.035065196 -0.014509345 0.020305136

net.2.bias f4 [256]
00000000: 1b4b 453d e0f5 0a3c b206 76bd 1f38 e83c
00000010: cf96 a13c 0224 8dbd 70a7 afbc 82e6 aebd
00000020: 9c6b fa3c df21 ce3c 4dcd 08bd 814a f6bb
00000030: 9b49 eb3c 2512 4b3d a462 9f3b ac1d a8bc
00000040: 99f5 c53c df65 1dbd 5733 26bd 488a 81bd
00000050: 9027 b0bc e875 373c 1808 133c 119f 6fbd
00000060: 02c0 99bc 4780 1abd 754e aabd f840 ddbc
00000070: b722 743b 4564 f3bb 3568 f3bb c527 45bd
00000080: a02d 96bd d3b5 5fbc 088c 65bd 4ce3 35bb
00000090: 14c1 a0bc 7d91 b63c 611b 8d3d a6b5 353c
000000a0: 4e33 43bd 823b 1dbd a12b 4a3d 49ea 80bd
000000b0: bf6a 4d3c dc23 143d 10b2 3bbd 4e61 70bc
000000c0: e3c4 f0bc 3710 b8bc c10d 0f3c e2b4 c4bd
000000d0: cb85 00bd afb8 ecbd 6ebb 2dbd 8426 533c
000000e0: 0278 75bd c1a8 b2bc 90c2 d93c 8fe1 61bb
000000f0: abcb 843d 4701 9dbd f2d8 8ebd cf53 9ebd
00000100: 71eb b53b 1bc5 e9b9 f8c6 bc3b 0c29 8fba
00000110: e4e1 063d 6746 023d 0eb2 b0bc e111 a1bd
00000120: a3de cfbc 8364 7d3c 8357 40bc 4c78 f4bc
00000130: e6ec 4ebd 74db 1c3d 02e6 693d 4589 323c
00000140: f2c0 c5bd e158 043c fc96 39bd 9b2a 833d
00000150: 4685 53bd e2c9 773c 9497 9abc b596 bb3c
00000160: 9035 ebbd a3ec 78bd cf2e c5bd 4354 8abd
00000170: 428b 61bc a295 063d a7d2 debb 8feb 053d
00000180: ed7a 01bd d7ec b33c ce48 213d e03e a2bd
00000190: e26e f6bc 7bc2 173c e4d6 ea3b 0f65 f4bc
000001a0: e2af 9cbc d6fa ffbc 33c4 663d e31b 98bd
000001b0: ec94 f4bd 3be0 b9bc 6990 febc b3a6 83ba
000001c0: 4ec6 973c 7fc3 a4bd 9923 63bd 2944 19bd
000001d0: b434 2a3d 7d5d a3bd 0163 e63c f9bb ee3c
000001e0: 461b 8cba 2b29 80bc aeb1 43bd 625b b13c
000001f0: b96b 283d 102a 583c 7524 67bd 7add 72bd
00000200: 9f61 b13a 93f4 cdbb fddf 35bd 9ed9 8bbc
00000210: 05e6 4dbd 24f3 a1bc 4cbe 81bd 3c9f d1bb
00000220: 7e1d c73a 0c3d 93bc 498b 323d ce0f e2bc
00000230: e094 c63d 3916 dbbb a9b8 093d 57eb 113d
00000240: f36e 5d3d 5fc3 82bd 1aaf c9bd 0073 12b9
00000250: 93d8 1a3d 0c68 393d ec30 36bc 9ad0 6abc
00000260: 2b46 933b 89ea 27bc c83a 213d ee67 363c
00000270: 8213 6cbd 28bf 15bd 30a1 83bd aaa9 263d
00000280: e679 813d a53c 8b3d 0402 2a3d b646 c6bd
00000290: cfd2 1dbd ad9d a6bc f798 69bd 85ed 1bbd
000002a0: 1ca5 3e3d ea3a c5bc 9525 e23c b5d6 ef3c
000002b0: a9c0 68bc 53eb a5bd f083 e73b 9f7d 98bd
000002c0: c6e0 14bd 7def a6bd aaf2 52bc 0f4d 4cbc
000002d0: 3bea a13c eb1d 88bd ba2c 3c3d 93c5 9ebc
000002e0: 472c 2abd c144 dc3c bc35 92bd 3ae9 3cbd
000002f0: 1620 173c cd1e 6abd 7b87 f33c b12f 053d
00000300: 29af 2a3d e853 5a3d e3ec a4bb 345e b33c
00000310: 1b49 72bd 33d7 11bd 6c69 3e3d ea01 10bd
00000320: 8ea8 0fbd 0b92 33bd 9732 dfbc f702 e1bc
00000330: 118d 7a3d c50c c2bc 5b0d 90bd e8fc 66bc
00000340: 2a5c 573d 47de 223d 093e a1bd cb76 bfbc
00000350: 082b f8bd 320d febc 362f 7c3d 114e 04bc
00000360: 3c72 18bd 92d0 453c 1a22 e0bc bd27 a13c
00000370: 5fe3 8c3c 83af 003c da9f 4a3d 7fbf 7e3d
00000380: 4bc9 ffbc 2b04 c33c c2ec 1c3d ed52 393c
00000390: c070 98bd 8c57 4abd 949a 4abd 9907 b7bc
000003a0: 55dd 42bd 46a6 a0bd 69e7 bbbc 6074 36bd
000003b0: cb21 b6bc 4db5 07bd a9a6 12bd 73df a3bb
000003c0: 00d9 5b3c fc25 6ebb 5440 f0bc 6a2e 153d
000003d0: 6c72 e4bc ab56 a9bd be4d 803b a80d 313d
000003e0: 92f8 d0bc a106 773b 5124 80bd 7e07 efbc
000003f0: 09e5 14bd 5d62 27bd 04e9 ab3c 69a5 bd3c
0.04816733 0.008481473 -0.06006498 0.028347073 0.019725231 -0.068916336 -0.021442145 -0.085400596
0.03056889 0.025162635 -0.033398915 -0.007516206 0.028721621 0.04957785 0.004864054 -0.020521961
0.024164962 -0.03842723 -0.040576305 -0.06325203 -0.02150324 0.011197545 0.008974098 -0.058501307
-0.018768314 -0.03771999 -0.08315746 -0.027008519 0.0037252137 -0.0074277245 -0.007428194 -0.04813363
-0.07332921 -0.01365419 -0.056041747 -0.0027753888 -0.019623317 0.022286171 0.06889988 0.011090672
-0.04765635 -0.03838683 0.049358014 -0.06294686 0.012537657 0.03616701 -0.04582411 -0.014671637
-0.029390758 -0.02246867 0.0087313065 -0.09604813 -0.031377595 -0.11558663 -0.042415075 0.012887601
-0.0599289 -0.021808984 0.026582032 -0.0034466719 0.06484159 -0.07666259 -0.06974973 -0.07730829
0.0055517484 -0.00044588078 0.0057610236 -0.0010922267 0.03293027 0.031805422 -0.021569278 -0.07864738
-0.025374716 0.015465858 -0.011739614 -0.029842518 -0.050518893 0.038295224 0.05710412 0.010896985
-0.09655942 0.008077831 -0.045310006 0.06404611 -0.05164077 0.015123816 -0.018871106 0.022899011
-0.114848256 -0.06077255 -0.09628069 -0.06754353 -0.013766112 0.032857545 -0.006800014 0.03269535
-0.03161137 0.02196352 0.039376073 -0.07922149 -0.03008217 0.009262676 0.0071667302 -0.029833345
-0.019126836 -0.031247538 0.056339454 -0.07427194 -0.11942467 -0.02268993 -0.03107472 -0.0010044187
0.018527176 -0.080451004 -0.05545387 -0.03741852 0.041554168 -0.07976816 0.02812338 0.029142367
-0.001068928 -0.01564463 -0.04777687 0.02165002 0.041118357 0.013193622 -0.056431253 -0.059293248
0.0013533122 -0.006285259 -0.044403065 -0.017071541 -0.05026819 -0.019769259 -0.063351244 -0.006397156
0.0015191284 -0.017973445 0.043589864 -0.027595427 0.096963644 -0.0066859988 0.03362337 0.03562483
0.054060888 -0.0638492 -0.09847851 -0.00013966486 0.037804198 0.045265242 -0.011120062 -0.014331961
0.0044944487 -0.010248789 0.0393627 0.011133177 -0.05763579 -0.036559254 -0.064272285 0.040689148
0.063220784 0.067986764 0.04150583 -0.09681456 -0.03853112 -0.020338858 -0.057030644 -0.038068313
0.04654418 -0.024075944 0.027605811 0.029277185 -0.01420609 -0.08101525 0.0070652887 -0.07445835
-0.036347173 -0.081511475 -0.012875238 -0.012469544 0.01976501 -0.066463314 0.045941092 -0.01938132
-0.041546132 0.026888253 -0.07139155 -0.04612086 0.0092239585 -0.05715828 0.029727688 0.032516185
0.041670952 0.053302675 -0.005033122 0.021895505 -0.05915175 -0.03560562 0.046487257 -0.035158075
-0.035072856 -0.04384045 -0.027245803 -0.027467234 0.061169688 -0.02368773 -0.07033797 -0.0140983835
0.05257813 0.03976276 -0.078731604 -0.023372075 -0.121175826 -0.031012151 0.06156846 -0.008075253
-0.037218317 0.012073653 -0.02736001 0.019672269 0.017198263 0.007854345 0.049468853 0.062194344
-0.031223914 0.023805698 0.038311727 0.011311275 -0.0744338 -0.049399897 -0.049463823 -0.02234249
-0.04757436 -0.07844214 -0.022937493 -0.044544578 -0.02223291 -0.033131886 -0.03580347 -0.0050010025
0.013418436 -0.0036338558 -0.029327549 0.036421217 -0.027886592 -0.08268484 0.0039155176 0.043225914
-0.025509153 0.003769316 -0.06256927 -0.029178377 -0.036351237 -0.04086529 0.020985134 0.023150163

net.4.weight f4 [256, 256]
00000000: ec9a 483d 0e89 11bd df5e d6bc 18c6 27bd
00000010: 4e5a b33a ce9d 163d 0fbc 8d3d 6f61 af3c
00000020: 8663 813d 03e5 633d d68d f2bc c014 e93c
00000030: e081 0abd d60f 2dbc f294 c6bb 71eb 9d3c
00000040: 1b28 263d 9ff9 183d 3187 a23d 7408 9bbb
00000050: 8690 88bc 9e0b 4a3d 40e9 abbc c64b 31bb
00000060: 385c df3c 7d79 dd3c 4549 173c bed9 443d
00000070: db51 193d 2602 f3bc efda 893d ae28 debb
00000080: 20c0 11bd 39c6 993b ae9a 2abd fb51 903c
00000090: 8038 733c c346 21bc 0323 d6bb 85e9 ee3c
000000a0: 407d a13c 4f25 1e3d 9ce9 4cbd 653e 47bd
000000b0: 9351 35bd ab6d 2cbc c48b cebc efea 05bd
000000c0: bdde 113d 055c 5d3d 4da6 3d3d 1b9c 35bd
000000d0: e532 793c 8e65 52bc 143d 853d a0e7 b1bb
000000e0: ef5a 723d 42db b6bc 2099 18bd dfa0 773c
000000f0: ad82 c63c 1f6f 1f3d 1593 1f3c 2df4 903d
00000100: 450f 77bc b03d 56bd 7375 203c bf9a 973c
00000110: c051 8736 dc02 5c3d 9abb 36ba 8ee4 193d
00000120: 074e ab3d 9731 68bd 052e ad3c fb3d 79bc
00000130: ba94 a6bd 0ecd 8f3d 5bbf ec3c 8c43 3c3d
00000140: 6c75 00bd fd16 d43b 8f2c 233d f352 e5bc
00000150: 4e50 35bd 4936 7ebc 5d36 213d 9e08 24bd
00000160: 5018 663d c9a9 4c3d f159 41bd 55a3 a13d
00000170: c64e b3bc b033 f53c a0da 63bd fd8a 63bc
00000180: fc9d 673d f956 c6bc 55f9 c3bc 0275 1dbc
00000190: 9b01 8a3c 4a96 29bd b452 853d 617a 913c
000001a0: 4661 783c eca9 283d 9a95 ee3c 7d05 183c
000001b0: fa5c 51bd cdde 833d f0d9 583b c87e dd3c
000001c0: 2835 24bd 1b94 25bd 250a 9d3d f84e 3cbc
000001d0: b705 423d a61e 343d c953 8a3d a5be 163d
000001e0: e869 843d d03f 5c3c ea53 71bd ef88 1e3d
000001f0: 3399 c2bc 0f83 043d 5f50 f0bb ae16 fb3c
00000200: 5ee1 b4bb 3e20 a8bc ccac f2bc 3599 adbc
00000210: 28c7 87bc b3b7 afbb 00cd 603d 8e1d 653c
00000220: 83fd 80bd 99a8 823c 35d4 4abd a4b8 06bd
00000230: 53db 51bd db7d c23b ad53 03bd 0d7a a6bc
00000240: d126 3bbc 42ca 45ba 5d34 46bd 120f 4f3c
00000250: 514f 5ebd 4d0e fb3c 6512 4c3d 5f21 463d
00000260: 8401 8d3c 9d33 07bd 833d 07bc 7092 343d
00000270: cad2 1d3d f6eb f1bc a0f7 8ebc 7c24 99bb
00000280: 0288 db3c d79f 8a3b 380d 1d3d c379 20bd
00000290: ba5f c4bc d1e1 1f3d b5bc 7cbd bcdb 793c
000002a0: 2999 563d 1b94 5d3c 9590 70bd eee3 273c
000002b0: 6c75 0cbb 6898 0f3d ca3d 8f3b 997b 69bc
000002c0: b80e 933d df49 10bc 138f 5ebd 9cbd 833c
000002d0: c130 87bc 6e56 69bd 5e1f 56bc 70fe babc
000002e0: a12f 11bd 2be7 16bd f766 7d3d 5179 71bc
000002f0: 0633 ed3c 8f01 e3bb 82f2 0dbd 8517 ecbc
00000300: fe7e 3fbd ec44 31bd 8fa8 7fbd 9149 823d
00000310: 0fe2 78bc 728d 153d c5ac 6a3d 31d5 c23a
00000320: 83e9 8d3d 87c1 9b3c bd76 003d 2291 9d3c
00000330: f4db 99bc 1f5d 833d c586 8d3c 2f9d f43c
00000340: 38e7 8c3d d89c bc3b 0fd9 00bd 2093 9b3d
00000350: 3172 f13b c9a7 843d 272e ad3b a30d 28bd
00000360: bf1c 843d a9c1 b6bc c03e 95bc 1f0e c9bc
00000370: e41b 353d 8b4d 563d 31c3 c43c 86d1 dcbc
00000380: a368 aa3c 3900 f93c f0c5 7a3d c7af 943d
00000390: 8bca 8dbd 7f6d 6b3d 453f 713d ab94 e9bc
000003a0: 397f 6fbb bcc1 993c 8e04 f9bc e8ea ffbc
000003b0: f355 853c dc0f 9cbb 5088 1d3d f141 263c
000003c0: 4ee0 05bc 5db7 8fbc 9b93 d63c d574 683c
000003d0: 4d09 863d ae84 cc3c 56cf 1ebd 1aa4 223d
000003e0: 0290 883d 94be 223d a28e 153d 9cdb 883c
000003f0: 6c6e b13a 4418 f63c f3ac 923d 5fa5 01bd
0.04897587 -0.035531096 -0.026168285 -0.0409604 0.0013683529 0.036771588 0.06920635 0.021408765
0.06317811 0.055638324 -0.029608648 0.028452277 -0.033815265 -0.010562858 -0.006060236 0.019277306
0.04056559 0.037347432 0.07935942 -0.0047312323 -0.016670477 0.049327485 -0.020985246 -0.002705322
0.027265653 0.02703547 0.009233777 0.048059218 0.03743158 -0.02966411 0.067312114 -0.0067797517
-0.035583615 0.0046928194 -0.04165142 0.017617216 0.014845014 -0.009843531 -0.0065349354 0.029164085
0.019713044 0.0386098 -0.050027475 -0.04864349 -0.04426725 -0.010524194 -0.02521313 -0.032694753
0.03561281 0.054042835 0.046301175 -0.044338327 0.015209888 -0.012841595 0.0650579 -0.005429223
0.059168752 -0.022321347 -0.037255406 0.015114038 0.024232233 0.038924333 0.009739657 0.07077823
-0.015079324 -0.052304924 0.009793627 0.018506406 4.0328305e-06 0.053713664 -0.0006970704 0.037571482
0.08364492 -0.056687918 0.021140108 -0.015212531 -0.08133836 0.07021533 0.02889984 0.045962855
-0.031361982 0.006472467 0.039837416 -0.027993655 -0.044266038 -0.015515872 0.039358485 -0.04004728
0.05617553 0.049966607 -0.047204915 0.07892481 -0.021888148 0.029931873 -0.05562842 -0.013888118
0.05654715 -0.024211394 -0.023922602 -0.009610416 0.016846469 -0.041403092 0.06509915 0.01775855
0.015159911 0.041177675 0.02912407 0.009278652 -0.05111406 0.0643898 0.0033088885 0.027037993
-0.040089756 -0.040424448 0.076679505 -0.011493437 0.04736873 0.04397454 0.06754262 0.036802907
0.064655125 0.013442948 -0.058917917 0.03870481 -0.023754692 0.03235155 -0.0073337997 0.030650463
-0.00552003 -0.020523187 -0.029623412 -0.021191219 -0.016574457 -0.005362475 0.054883003 0.013984097
-0.062983535 0.015949534 -0.049518783 -0.03289093 -0.051234554 0.0059354133 -0.03206222 -0.02032187
-0.011422829 -0.00075450924 -0.04838978 0.01263787 -0.05427486 0.030646468 0.04982223 0.04837167
0.017212637 -0.033008207 -0.008254412 0.044084966 0.038531102 -0.02953146 -0.017452061 -0.0046735387
0.026798252 0.00423048 0.038342685 -0.03917862 -0.023971427 0.039033715 -0.061703403 0.015250143
0.05239216 0.013524081 -0.058731634 0.010247214 -0.0021432294 0.035057455 0.0043713795 -0.014250659
0.07180542 -0.008806675 -0.054335665 0.016081624 -0.01650274 -0.05696719 -0.013069002 -0.022826403
-0.035445813 -0.036841553 0.061865773 -0.014738397 0.028954994 -0.006927676 -0.0346551 -0.028819809
-0.04675197 -0.04327862 -0.06241661 0.06361688 -0.015190615 0.036511846 0.057293672 0.0014864561
0.069293045 0.01901318 0.031363238 0.019234244 -0.01878164 0.06414246 0.017276177 0.029860107
0.06880039 0.005756002 -0.031457003 0.07596421 0.007368349 0.06477315 0.005285043 -0.04102863
0.064507954 -0.022309141 -0.018218398 -0.024542866 0.04421605 0.052320044 0.024018856 -0.026955377
0.020801848 0.030395614 0.061223924 0.07260089 -0.06923398 0.05747747 0.05889823 -0.028513273
-0.0036544336 0.018769138 -0.03039768 -0.031239942 0.016276335 -0.004762633 0.038460076 0.010147558
-0.008171154 -0.01754349 0.02619343 0.014188011 0.06544743 0.02496561 -0.03877195 0.03970728
0.06668092 0.03973253 0.03651298 0.01670628 0.0013536937 0.030040868 0.07161894 -0.03165185

net.4.bias f4 [256]
00000000: 6d40 37bd 3d3d 1fbd c268 58bd 8a3a 99bd
00000010: 64f5 26bd ee75 973d 7eb0 e4bd 80d0 fd3b
00000020: 0a6b 4abd a5d7 d43c 2155 60bd b276 af3c
00000030: 2825 043c 1bb4 963c b320 133d 02e2 303d
00000040: a2a2 74bd 7430 2d3c 976a 243d a9ed 36bd
00000050: be86 dfbb 2456 a73b 02ba 9fbc 1a54 833d
00000060: 1e21 3fbb 66df b5bd ac07 d13c 6e14 233d
00000070: 4841 e8bc 13a2 963d 3463 103d 5d20 e13c
00000080: 1574 223d 140b 983b b5a4 56bd f1f7 23bb
00000090: 91cc 2f3d 8dfe 833c 98d6 a03b 86b4 37bd
000000a0: 6470 90bc 812c 9bbd f763 a53d 960b c0bc
000000b0: 5f45 a3bd 5182 53bd 31fb fbbc 18cd d8bc
000000c0: 3f0a 8cbd c8d9 0f3d 40b4 abbd c076 a5bc
000000d0: 0272 2cbd 7f9a 123c aadb 67bd a833 3c3d
000000e0: 4dd6 67bd 52b0 c33c df56 8bbc 822c 8e3d
000000f0: d724 e73a 1d51 92bc ebb4 b7bc 67b9 943d
00000100: f87e 813d c29b 723d f6f0 55b9 ba2a bbbc
00000110: e7aa 5b3c 1ce2 ffb9 dd71 6ebd 7760 2bbd
00000120: 5827 f43c aa13 643d 4810 a1bc 939a 813d
00000130: ccde 54bd 82f2 503b 618a 97bb 2982 89bb
00000140: d91d 92bc 4ad2 bcbc f6f7 033c 6181 993a
00000150: d688 5ebd fb71 dcbd f29a 86bd 86ac a43c
00000160: a220 323c c3b0 76bc e73a 293d 3f1d 2cbd
00000170: 7b2c 8cbd 3812 12bd 463b aabb 19af 663d
00000180: a472 d73c 4005 e6bc dc73 35bd accf 78bc
00000190: 495b adbc 91f3 3e3d 79ea 9c3d 32d6 d6bb
000001a0: cf23 49bc cfe2 17bb 5663 d1bc f583 36bd
000001b0: 3b4f bdbb 5fa8 663d 32ef 05bd 7426 31bd
000001c0: 436c 3dbd 21c9 0ebd 3bc6 7fbd e8e5 65bd
000001d0: 7732 223c 3b0e 913d c84e 733d bd21 84bc
000001e0: db04 243c 7cd3 a0bd c333 0a3d ee05 2ebc
000001f0: 6bb0 e4bc d90a 94bd e6d5 e3bc 063a e6bc
00000200: 32e3 1cbd 09cf 56bd 6e20 8ebc d80e c33c
00000210: 89bb 6ebd b685 d5bc 6135 a4bc 15cc a33c
00000220: bd83 fa3c 0d1d 81bd 9ce0 80bc 2fa9 c2bc
00000230: ed49 da3c 346f 4d3c d335 55ba e8eb 0a3c
00000240: ca46 4fbd d178 e33c b13b 13bd 7b64 17bd
00000250: 559b a7bd e157 bf3b b819 35bc 4971 7c3d
00000260: 32a0 79bd 727d 9dbd ff13 60bd 641a acbd
00000270: ebb9 8ebd adad 01bc d8e3 8a3b 8f24 72bd
00000280: 3529 153d 9099 253c 2c42 3c3c b29c 80bb
00000290: 041f d83c b058 3cbd 89e5 623d 0301 eabb
000002a0: ed94 aebd c89b 483d 9742 a73c eeb2 9ebd
000002b0: f826 89bd b3ea 99ba e548 e1bd 7b66 60bc
000002c0: 81c4 503d 35c3 36bc 6cec 9cbb 3f72 2c3d
000002d0: 4d70 20bd c698 44bd 65fa 24bb 2f3f 29bd
000002e0: 2b59 9cbc 0d3e 3ebd dfb9 0cbd 2bc9 1abd
000002f0: 14b9 75bd 0831 0e3d 9c3f 3c3d 91b5 9cbc
00000300: 2640 11bd 0623 0bbd c53c 853c 840b 283c
00000310: bcc9 05bd 4a66 43bd 1162 8f3d 04e2 2dbb
00000320: 018f ddbb 34ed 0dbc 960a eebd 5323 ac3c
00000330: cd10 42bd ac03 bfbc a54d a2bc 7d91 9b3b
00000340: dd0e 92bc 497d 9bbd c594 003d 2081 48bd
00000350: 00b6 95bd 0171 91bc 0eb3 18bd 4fb9 55bd
00000360: 4786 853c a7b2 983c 71d2 0cbd ca7d 80bc
00000370: 5eca 8cbd 59ff 68bd 64c7 343d ce8a debc
00000380: 9b37 cf3c e7a2 cabc 9c52 263d a50c 79bc
00000390: f0c7 5ebd fa36 9e3a c52a 2bbc 279d 813c
000003a0: 661d 2dbd edc5 35bd 9a6f 67bb 3955 0dba
000003b0: 6e4d fc3a 3c15 93bd 748e 443c 9267 34ba
000003c0: 2477 0dbd 4ebf eebb afdd 433d b9d2 183d
000003d0: 98d5 133d 4355 7f3c 2fd1 eabc e4d3 47bd
000003e0: 7e50 78bd 4135 bc3c 910f 78bd 93fe f9bc
000003f0: 1c4e 36bd 5e4d 523d 6b04 c0bd 91a4 c6bc
-0.044739176 -0.03887676 -0.05283428 -0.074818686 -0.040761366 0.0739554 -0.11166476 0.0077458024
-0.049418487 0.025981734 -0.054768685 0.021418903 0.008065499 0.018396428 0.035919856 0.043184288
-0.05972541 0.010570634 0.040140714 -0.044660244 -0.0068214824 0.0051067043 -0.019497875 0.064125255
-0.0029164026 -0.088805005 0.025516354 0.039814405 -0.028351441 0.07355132 0.035250857 0.027481252
0.039661486 0.0046399925 -0.05240317 -0.002501961 0.0429197 0.01611259 0.004908394 -0.044849895
-0.017631717 -0.07576848 0.080757074 -0.023443025 -0.07972216 -0.05163795 -0.030759426 -0.026464984
-0.06837892 0.0351198 -0.08383989 -0.020198226 -0.042100914 0.008947968 -0.056605972 0.0459477
-0.056600858 0.023887787 -0.017009197 0.06942083 0.001763488 -0.017860943 -0.022425136 0.07261925
0.063230455 0.059230573 -0.00020403028 -0.022847522 0.0134074455 -0.00048805855 -0.058214057 -0.041840043
0.029803917 0.055682816 -0.019661084 0.06328311 -0.05197029 0.0031882827 -0.0046246503 -0.0041964245
-0.017836498 -0.023049492 0.008054724 0.0011711532 -0.054329716 -0.107639275 -0.06572522 0.020101797
0.010872038 -0.015056792 0.04131594 -0.04202008 -0.068444215 -0.035661906 -0.005195054 0.05631933
0.026299782 -0.028078675 -0.044299945 -0.015186232 -0.021161692 0.046619 0.076619096 -0.006556296
-0.012276604 -0.002317596 -0.025560062 -0.044559438 -0.0057772673 0.056312915 -0.032698818 -0.043249562
-0.046245825 -0.03485978 -0.062444907 -0.05612746 0.009899727 0.07082792 0.059401304 -0.016129369
0.010010923 -0.078528374 0.03374077 -0.010621531 -0.027916154 -0.072286315 -0.027811956 -0.02810384
-0.038302608 -0.052443538 -0.017349448 0.023810789 -0.058284316 -0.026064735 -0.020044984 0.019994775
0.030580396 -0.06304369 -0.015732102 -0.023762314 0.026646579 0.01253872 -0.00081333256 0.008479096
-0.05060462 0.02776757 -0.035945598 -0.03696106 -0.08183924 0.0058393334 -0.011053495 0.061631475
-0.06094379 -0.076899424 -0.05470657 -0.08403471 -0.06969055 -0.007914943 0.004238587 -0.059116896
0.03641625 0.010107413 0.011490386 -0.0039249295 0.026381977 -0.045983016 0.055394683 -0.007141234
-0.08524499 0.04897669 0.020417495 -0.07748972 -0.06696886 -0.001174292 -0.11000232 -0.013696308
0.05096865 -0.011154939 -0.004788926 0.04210114 -0.0391696 -0.04799726 -0.002517366 -0.041320022
-0.019085487 -0.046445895 -0.034356948 -0.037789505 -0.059990957 0.03471473 0.0459591 -0.019129546
-0.035461567 -0.033968948 0.016264329 0.010256652 -0.032663092 -0.047704972 0.070011266 -0.002653242
-0.006761432 -0.008662511 -0.11623113 0.021012938 -0.047379304 -0.02331718 -0.019812414 0.004747568
-0.017829353 -0.075922556 0.031391878 -0.04895127 -0.07310104 -0.01775408 -0.037280135 -0.052178677
0.01629938 0.018639876 -0.03438038 -0.01568498 -0.06874536 -0.056884144 0.044135466 -0.027165797
0.02529507 -0.024735881 0.040606126 -0.015200769 -0.054389894 0.0012070828 -0.010447209 0.015822006
-0.042264365 -0.04437821 -0.0035314322 -0.00053914223 0.001924915 -0.071817845 0.011996854 -0.0006881888
-0.03453745 -0.007285989 0.047818836 0.037310336 0.03609237 0.015584293 -0.0286642 -0.04878606
-0.06062364 0.022974612 -0.06056172 -0.030516898 -0.044508085 0.051343314 -0.09375843 -0.024248393

net.6.weight f4 [2, 256]
00000000: 09fd 3ebd 95fe 87bd 628a 753d a29a 98ba
00000010: e721 4bbd 1522 82bd 51ca 083d afab 11bd
00000020: 8fb6 82bd e477 f33c a339 86bc 0130 95ba
00000030: f72a b5bc dbda 273b 542a 73bd 74d1 8dbd
00000040: 4d5f b8bb 5fae 02bc 02bb 7fbd b8f7 03bd
00000050: 975f 49bc d5d1 b4bc 9236 08bd b56b 36bd
00000060: 9992 83bb 3fe7 a63b 9a31 5839 4676 31bc
00000070: e7c9 0ebd 38da 2abd 48be 27bc 39db 1239
00000080: 663d d0bc eb4c 40bd da1f 033b f1a0 0dbd
00000090: c6c0 63bd 1690 793b a0ef 273d b180 513d
000000a0: 403f 683d 050c 2dbb 26fe e9bc 50a3 89bb
000000b0: be4f 153c 06c6 35bc a5d7 b8bc 13a1 4bbc
000000c0: 6338 4a3c 9489 c2bb fa6c 993b 7f1f 893c
000000d0: 1489 b2bc 41dd 96bc 685c e63b ca96 aabc
000000e0: 83c8 6cbd fa77 08bd 6419 7eba dc27 dcbc
000000f0: baed 083d bcf6 67bd 8c25 e33c d9a1 e6bc
00000100: 02d1 22bc e332 cabc e1cb 96bc 99ce a03b
00000110: 488a 7c3b a8ed a23c cbe5 84bc 11de 4ebc
00000120: de5a 6fbc 29fd 80bd 322a a2bc 1049 0c3b
00000130: 0976 563d 25b7 c6bc c191 10bc 97c9 55bd
00000140: 47c9 6abd f464 46bd 6645 b9ba c625 633a
00000150: 6138 febc accc 733b e2cf 38bc c4ff 83bc
00000160: 7de9 c5b9 a256 13bc cc43 623c f042 82bb
00000170: 24d7 103d fbd3 f4bc ce4a 20bc 0919 84bc
00000180: 6014 9c3c 6a52 233c e2b2 2b3b a964 47bd
00000190: 8efd 8ebc 7b9a ddbc 50b7 c1bc 785d 1c3d
000001a0: 3610 35bc 6842 50bd 253f af3b 4fc5 c5bc
000001b0: 718e e43b d8fa dfbc 26d0 e03b 4897 30bb
000001c0: 5a30 0dbd ff8d 663b b8e5 b33c 2803 49bc
000001d0: 999b 85bd b8ab 21bd e2f5 3fbd 7582 3e3c
000001e0: 9e3d abbc 95bd 473c 7c14 c2bb 61ef e9bc
000001f0: 2259 d4ba 9872 fb3b c2a4 0e3c 4b72 01bb
00000200: df18 07bc 0646 91bc b7b7 52bd 33e8 87bb
00000210: e446 a1bc c68f 363c 13db 8a3c 2eba 46bd
00000220: 8082 ca3d 0503 4b3c 6f53 83bd dfd0 9fbc
00000230: 6890 89bd 8895 b6bc 77c4 363c 786b 88bc
00000240: da07 b9bb b1ff 32bd 4e9d 7bbd 0120 493c
00000250: a43f 843c 3d75 1a3d 284c cfbc 8cda c2bc
00000260: c11c 243c c27c 493c 7a6c b2bc 22a1 b93c
00000270: fbbf 333d e27d 923b d206 00bd 92e6 543c
00000280: 7452 4d3c 1959 1bbd 1e48 17bc 19d4 84bd
00000290: e93c 24bc 0ce7 24bc a7a3 38bd 54bd 0fbc
000002a0: 9583 3e3a 780d a9bc 100a 06bd 750b 9d39
000002b0: 7ccc 6fbb e618 29bc 050d 153c af8c 953c
000002c0: cedb 9bbc cb5d 03bd d146 3dbd 4588 2cbd
000002d0: 2392 d43b d928 853c 3954 c03a e89a 443b
000002e0: 461f ecbb 0b98 b3bc c8c8 aabb 303d 88bd
000002f0: e448 343d 3e2a 6bbb 5c30 8abc 213f 4cbd
00000300: bc23 68bb bee7 e7bc 1642 d8bc 4848 1abd
00000310: acf1 493c b521 873d 956f 59bc c932 c439
00000320: c494 273c f11b 3cbd f5ce 8e3d 14c7 12bd
00000330: 3668 26bd e919 fe3b accc 05ba cc69 bd3b
00000340: 7112 45bd a643 f03b 94a5 48bc b1f6 cfbb
00000350: 08bf 8ab9 b96c d53c f7d4 88bd be0d 41bd
00000360: 1c21 213d e438 26bd a287 08bd ebcd bcba
00000370: bbbe 2a3c 248a ee3c f09f ac3b 57c8 23bd
00000380: 4b32 29b9 98d2 8dbd 418b 5fbd 21de 26bd
00000390: e465 e33b 607e 343c e6de 0bbc 2d46 25bc
000003a0: f02c 52bb 9c3e 493b 7e93 0abd df00 183d
000003b0: 6072 8abc 7627 0abc 4844 183c 8a32 f8bc
000003c0: d066 823c 0cc2 10bd 6cab ecbc a3db 5cbc
000003d0: e710 4abd f6bc 433b 4865 94bd fd6f 68ba
000003e0: 1ad9 263c 6962 743c 0a18 0b3d cd42 463c
000003f0: e0d8 e3bc 0eb9 c1bc 440c e93c c0b0 05bd
-0.046628032 -0.066403545 0.059946425 -0.0011642764 -0.04959288 -0.06354157 0.03339607 -0.03556412
-0.063824765 0.029720254 -0.016384905 -0.0011382104 -0.022115214 0.0025612626 -0.05936654 -0.06924716
-0.005626595 -0.007976144 -0.062434204 -0.032218665 -0.012290857 -0.022072712 -0.033255167 -0.04453631
-0.0040152785 0.0050934847 0.00020617843 -0.010831421 -0.034860518 -0.041712016 -0.010238238 0.00014005312
-0.025419902 -0.046948355 0.0020007999 -0.034577314 -0.055603765 0.0038080267 0.04100001 0.05114812
0.056700945 -0.002640487 -0.02856357 -0.0042003766 0.00911325 -0.011094576 -0.022563765 -0.01242854
0.012342545 -0.0059368107 0.0046821805 0.016738651 -0.02179388 -0.018416049 0.0070300587 -0.020823855
-0.05780841 -0.033317544 -0.00096931146 -0.026874475 0.03342984 -0.05663179 0.027727865 -0.028153347
-0.009937527 -0.024682468 -0.018407764 0.004907441 0.003853457 0.019888714 -0.016222855 -0.012626187
-0.014609067 -0.062982865 -0.01979551 0.0021405853 0.05235866 -0.024257252 -0.008823813 -0.052194204
-0.05732086 -0.04843612 -0.0014135062 0.00086649915 -0.031032743 0.0037200851 -0.011280032 -0.01611317
-0.0003774873 -0.008992823 0.013810109 -0.0039752647 0.035361424 -0.029886236 -0.00978346 -0.016125219
0.019052684 0.0099683795 0.0026199152 -0.04867998 -0.017454889 -0.027051201 -0.02364698 0.038175076
-0.011051228 -0.05084458 0.0053481036 -0.024141936 0.006974988 -0.027341291 0.0068607507 -0.002694564
-0.03446994 0.003517985 0.021960124 -0.012268819 -0.065238185 -0.039470404 -0.04686535 0.011627783
-0.020903405 0.012191196 -0.005922852 -0.028556528 -0.001620088 0.0076735727 0.0087062735 -0.0019751962
-0.008245676 -0.017733585 -0.051444735 -0.0041475534 -0.019687124 0.011142677 0.016950166 -0.0485174
0.09888172 0.012390857 -0.06412398 -0.019508777 -0.067169964 -0.022288099 0.011155239 -0.016652808
-0.005646688 -0.043700878 -0.061429314 0.012275697 0.016143627 0.037709463 -0.025304869 -0.023785852
0.010016621 0.012297811 -0.021780241 0.022659842 0.04388426 0.004470573 -0.031256504 0.012994425
0.012531865 -0.037926767 -0.009233503 -0.06485767 -0.010024288 -0.0100648515 -0.045077946 -0.008773167
0.0007267532 -0.020636305 -0.03272444 0.0002995391 -0.0036590388 -0.010320878 0.009097342 0.01825556
-0.01902571 -0.03207187 -0.046210114 -0.042122144 0.0064871474 0.01625483 0.0014673538 0.0029999558
-0.0072058765 -0.021923086 -0.0052119233 -0.066522956 0.044014826 -0.0035883333 -0.016868763 -0.049864892
-0.003542169 -0.028308745 -0.0263987 -0.03766659 0.0123256855 0.06598226 -0.013271232 0.0003742187
0.01022834 -0.045925085 0.06973068 -0.035834387 -0.040626727 0.0077545536 -0.0005104046 0.0057804342
-0.04811329 0.007332283 -0.012246508 -0.0063465466 -0.0002646374 0.02605282 -0.06681245 -0.047132246
0.039338216 -0.0405816 -0.033332475 -0.001440463 0.01042145 0.029118605 0.0052680895 -0.03998598
-0.00016135832 -0.06924933 -0.054576162 -0.040739182 0.0069396365 0.011016458 -0.00853703 -0.010087532
-0.0032070242 0.0030707484 -0.033832066 0.037110206 -0.016900241 -0.00843226 0.009293623 -0.030297536
0.015918165 -0.035341308 -0.028890334 -0.0134801 -0.049332526 0.0029867268 -0.0724588 -0.0008866785
0.010183597 0.014916041 0.033958472 0.0121008875 -0.027813375 -0.023647811 0.028448232 -0.032639265

net.6.bias f4 [2]
00000000: d21a 63bc e424 093d
-0.013861375 0.033482447
