normal/node/models/3150_model.pt (torch, 535780 bytes, 8 tensors)

net.0.weight f4 [256, 3]
00000000: e365 35be fd1d 303e 8484 e2be f2ea 12bf
00000010: 8d32 1d3e a8fd 6bbe be4e 043f b954 5d3e
00000020: b579 a53e d06c 963e 9aa2 883e 30cc 893e
00000030: c515 aabd a2f5 65bf aa8a ae3e 9ac5 f03e
00000040: 7736 65bd 783f 8f3e 7c74 cb3e 968f 32be
00000050: 1138 2c3e 8527 3cbe 3fd1 da3d dcdf 59be
00000060: 2a8b 42be b8e9 6c3e 62f1 063d 0726 9bbb
00000070: ec79 61b9 e5df 41bf 0097 b5bd d12e 3ebf
00000080: ef0c ae3d bb71 d3bd b33f 32be d0b3 3ebf
00000090: a90d 053d 4466 38bf 9a59 66bf 9f54 353a
000000a0: 1609 cc3d c816 2fbf 8134 eebe 6be8 f0bd
000000b0: c908 3ebf 75e5 9ebe c59c 41bb ffd2 57bd
000000c0: 8d64 a2bd abd8 d53e 7bd5 1dbf 7b5a a7be
000000d0: 412d 4d3f 40e1 ca3d 6b00 233e 027d 543d
000000e0: 5e60 29be 2d67 c0bd 4462 84bf b636 58be
000000f0: 990c 67bd e98a c13e 9795 573e aaf5 8abe
00000100: 8a50 d1bc 38e4 723f 1792 9cbd 3f9d 03bf
00000110: 053a f83e b27d 443e 7b79 603e 126a c93d
00000120: f042 84bd 24c6 a43e ebdb 8c3f 3311 81bd
00000130: 8ed2 4b3f e29c 183f 07d7 59be e0ef b43e
00000140: 6ddb 383f 7ebc adbd e5f6 293e 253f 2cbf
00000150: c632 7bbe 91a5 f6be 19b9 1b3f b3db 53bd
00000160: 2384 393e a2b6 563f 3e3f 7cbe d70d b1bd
00000170: 2d1d dbbe 00e4 d73e d60c e3be 3c49 48bd
00000180: 540d f8be 0c77 c03d 00a9 27bf 6d12 533e
00000190: 274b 853d 3971 13be 452f 1bbd 998e 0fbf
000001a0: 4ae2 193f 97e4 223e 584f 18bc e2c6 183d
000001b0: 7c1c 1fbd dbb2 413e c177 913e 525b 033f
000001c0: c3a5 223f 19fe 3fbf a1ff d43e 005c e93e
000001d0: 790d 163f 6ee1 dabc 51a7 e9be 4374 453d
000001e0: 59b3 2bbe 2779 dd3e e59b 33bf eb99 e63d
000001f0: 70d9 43be 58ac 8a3e 07bc f3be 1ec0 26be
00000200: 6dd7 d0bc 1a9a 663e 4b8c 11bf c7a7 bdbd
00000210: 2adc 213e 55b4 92be 5245 d3be 723f 42be
00000220: 703e c13e ebb1 3f3f 1692 6bbd e591 143f
00000230: fecf 023d d6af 88bd 74d9 17bf 68ab 2abf
00000240: 6598 e9be 5c73 b63e 7a42 4d3e 875c aebe
00000250: 2b00 adbd 90ea 11bf 30bd 12bf 4f31 39be
00000260: 2e25 27be aac3 ecbe a0e8 e43e b2df 4abf
00000270: 2c92 b43a da00 9e3e c194 1c3f 974a c0be
00000280: 2235 8e3c ce33 ebbe e0c6 6ebe a3ec 863d
00000290: f700 35bf 4051 30bd 64e9 3a3f 1059 613e
000002a0: d11a fc3e 30c9 f3bd 75c2 17be ce1a 533e
000002b0: 769e 663e ff9b d7bd 123d f13d 3210 723c
000002c0: b49f f3bd 5d3c 90be 6db6 3f3e 1674 4abf
000002d0: 40f5 90bd a1ad b2be e1d7 473f babd a93e
000002e0: 326f 5e3e 87ba d5be df2e 923e 1bdb b63e
000002f0: 5952 ba3e 4d6e d73e 5882 b4be c91e f13e
00000300: 337a a43e 72c6 f73e 6a40 b83e 0e20 dd3e
00000310: c457 b83e 87bc f83e 1162 eebd 7e5c c83e
00000320: 05f1 6fbf 8e1a cabe 9dad 843e d0a4 3bbe
00000330: 9e28 9b3e 290e cbbe 4485 bc3e 9c33 98be
00000340: 2b5c 0dbe 99be c23e cfd8 87bc cb42 8c3e
00000350: 0f0f 623f d8d0 883e baac 33be 9693 29be
00000360: a1de 80be d044 8fbd 4497 e5be 55c2 e93e
00000370: 871b 33be 4e9d 82bd cc5c 55bd 8ee9 b7bd
00000380: fc33 23bf c7d3 ccbe 0b6e 103e 99ca 0c3e
00000390: 3f53 e4be 7b26 e03e fdb7 0bbf 319b 87be
000003a0: 59d9 aebd 5dec 7cbd ca5a 003f facc ed3e
000003b0: 01c3 98be b487 6a3e b6f2 8c3e 301a 253f
000003c0: 2a09 523e bc48 0fbf 5fa2 803c 4f4e 0d3f
000003d0: 9c92 57be 41c9 253e b6da a0bd 2dd8 26bf
000003e0: 1c5d 453e a865 03bd a4d1 2f3f 59d1 e3bd
000003f0: c766 06be 5984 b93e 8448 2c3e 4ee7 7a3e
-0.17714648 0.1719894 -0.44241726 -0.5738975 0.15351315 -0.23045981 0.5168265 0.2161435
0.32319418 0.29379892 0.26686555 0.26913595 -0.083049335 -0.8982793 0.34090167 0.47025758
-0.055960145 0.2797811 0.39737308 -0.17437586 0.16818263 -0.1837445 0.10684442 -0.21276802
-0.189984 0.23136032 0.032945044 -0.004734758 -0.00021503092 -0.7573226 -0.088666916 -0.74290186
0.08498561 -0.10324427 -0.17407112 -0.7449312 0.03248373 -0.72031045 -0.8998047 0.00069172116
0.099626705 -0.68394136 -0.46524432 -0.1176308 -0.74232155 -0.31034437 -0.0029542905 -0.052691456
-0.07929335 0.41766867 -0.6165387 -0.3268622 0.80147177 0.09906244 0.15918128 0.05187703
-0.16540667 -0.09394679 -1.0342488 -0.2111462 -0.0564085 0.37801293 0.21053158 -0.27140552
-0.0255511 0.94879484 -0.07645052 -0.51411813 0.48481765 0.19188574 0.21921341 0.098346844
-0.0645808 0.3218242 1.1004614 -0.063021086 0.79618156 0.59614384 -0.21273433 0.3533926
0.7220982 -0.08483218 0.16598089 -0.6728385 -0.24531087 -0.48173192 0.6082931 -0.051723193
0.18116812 0.83872426 -0.246335 -0.08645218 -0.42795697 0.42166138 -0.4434573 -0.048897967
-0.4844767 0.093977064 -0.6549225 0.20612498 0.06508475 -0.1439866 -0.037886877 -0.5607696
0.60110915 0.15907513 -0.009296261 0.037299044 -0.038845524 0.18915884 0.28411677 0.5131122
0.6353418 -0.749971 0.4160128 0.45578003 0.5861431 -0.026718821 -0.45635465 0.04820658
-0.16767634 0.43256494 -0.7015975 0.11259826 -0.19125915 0.27084613 -0.4760439 -0.16284224
-0.025493348 0.22519723 -0.56854695 -0.092605166 0.15806642 -0.28653207 -0.41263825 -0.18969515
0.3774295 0.74880856 -0.057512365 0.5803512 0.031936638 -0.06674163 -0.5931618 -0.66667795
-0.4562408 0.35634887 0.2004489 -0.34054968 -0.08447298 -0.5699854 -0.5731993 -0.18085216
-0.16322777 -0.4624303 0.4470873 -0.7924758 0.0013776473 0.30860025 0.6116448 -0.37556908
0.01735932 -0.4593796 -0.23318052 0.065881036 -0.707046 -0.043046236 0.73012376 0.22006631
0.4923921 -0.11903608 -0.14820273 0.20615694 0.22521386 -0.10527801 0.11779226 0.014774369
-0.11895695 -0.28171054 0.18721934 -0.79083383 -0.07078028 -0.34898093 0.7806378 0.33152562
0.21722105 -0.41743872 0.28551385 0.3571404 0.3639095 0.4207634 -0.35255694 0.470938
0.3212448 0.4839359 0.35986644 0.43188518 0.3600446 0.48581335 -0.116397984 0.39133066
-0.9372714 -0.39473385 0.25913706 -0.1832459 0.30304426 -0.3965924 0.36820424 -0.29726875
-0.1380469 0.3803604 -0.016582875 0.2739471 0.8830423 0.26721835 -0.17546359 -0.16560206
-0.25169852 -0.06995547 -0.4484197 0.45656076 -0.1749097 -0.0637766 -0.05209045 -0.08980094
-0.63751197 -0.40005323 0.14104478 0.1374916 -0.44594762 0.43779358 -0.5457762 -0.2648559
-0.085375495 -0.06174885 0.50138533 0.46445447 -0.29836276 0.22903329 0.27528924 0.64493084
0.20511308 -0.5597036 0.015702425 0.55197614 -0.21052021 0.16190054 -0.07854216 -0.6517361
0.192738 -0.03207937 0.6867926 -0.11123914 -0.13125144 0.36233786 0.16824538 0.24502298

net.0.bias f4 [256]
00000000: fb2d 03bf c5c4 b33e 90e9 753e 9cd3 b9be
00000010: 60f1 d53e 5955 8fbd 28c9 b63e dbb5 41bf
00000020: 4323 3ebf 859b ce3d 013d bc3e 22d4 7abd
00000030: 8d8c 233e 82a0 20bf acde 163e f45c 00be
00000040: 99a7 65be df34 163f 852d 553e 1ca6 0f3f
00000050: be6b 233f c527 1f3f dbf9 053f 6f42 0abe
00000060: e88a 873f d585 f23e 312f 523f 9e28 ad3e
00000070: 5e26 613f d634 453f 23ef 24bf 6af1 f6be
00000080: 233b 383e 9f47 823b 2fc4 723f 099b f9bd
00000090: 160c 093f a002 15bf 923e eabd fe70 c9bd
000000a0: 79dd 19bf edbf 9c3e 7c07 d3bd 6221 3fbf
000000b0: da5b 1ebf 8525 0c3f 5442 ce3e d348 923e
000000c0: e2a1 32bf e707 b0be cae3 f83c 0cfb 84be
000000d0: 25a5 a7be dadc 98be a454 a5be 2521 b93d
000000e0: 87c1 0d3e 1eb3 b2bd 2d39 4dbc fb43 46bf
000000f0: a791 2c3f 6aac 903e 44d6 cb3d e3b0 2cbd
00000100: 446b 3e3d b9a8 8e3e f20c 2abd 195d 4abf
00000110: fada 00bf 884d 643f 30bf ac3e b36e 353e
00000120: 9e7d e7be 6b80 3abe b719 94bd 5ca8 07be
00000130: 8278 173e 9866 cdbe 0dc7 f8bd 85c8 b93e
00000140: 9174 5bbd e888 1cbe 6a60 073e d22a b9be
00000150: ff4a 5abf f42a 843e 94b1 8b3e 1d9f dabe
00000160: 2429 02bf ebf2 993f b2c4 cabe e5f6 893f
00000170: b27c b3be f6f5 273f b007 df3e 0a84 113f
00000180: 51bd 4fbf 4c8b 3fbc 07c6 a13e 008a 1abe
00000190: b080 5d3d 0b61 c9be c140 7e3e 2e57 31bf
000001a0: 5e93 1c3f 1598 e33d ff8b fc3d 82a9 2a3e
000001b0: f232 a5bd 6439 92be f5dc 9d3d 7071 0cbf
000001c0: 6406 88be 1f00 753e eed9 5abe 48af f63e
000001d0: f6d0 0c3e d3b4 a2be d753 473e 151c f2bd
000001e0: 5e70 8dbe 440c d73e 3a05 b23e a4ba 26bf
000001f0: dcf0 7b3e 3a4a e73c 513c 29bf de5f 0c3f
00000200: 77d1 363f 98f2 23bf 6a4f a3be 6b3e bb3b
00000210: 090d 833e 2a37 3bbf 395c d7bd 5a97 833e
00000220: eb4f 753f fcb5 15bf ac7d 11bf 361f 033e
00000230: 27f3 053e aa58 c13a b094 a33e 1c91 37bf
00000240: f4c1 0d3e c8d7 b83e 80fe 2fbf fcf8 cdbe
00000250: 909e a43e 5b4e 17bf 6c51 2a3e 14d5 cd3d
00000260: 5266 44bf 7b8a d2be 1c37 01bf f3d6 61be
00000270: e7aa ea3e 6d2b 4c3f 9cc0 f83c ed45 43bf
00000280: 0981 b03d 81ca ccbe 548f fe3e 7f93 c7be
00000290: d24e 66bc ce2b c5be 722a 1e3f af33 a3be
000002a0: 3aec 8e3e afa7 01bf 5ad3 58bf 5429 2f3e
000002b0: a6be 30bf e5b6 e9be 8f42 463f 6324 abbe
000002c0: 3538 b7be 063f fb3e cdbd 6cbc 7427 35bf
000002d0: 13de 643f d2b3 22bf 6232 223f 93f2 f2be
000002e0: cfbc 653e 0920 833d 232d 02bf c928 8bbe
000002f0: af94 8cbe 4deb acbd 9c02 35bf 038f 21bf
00000300: 90df b8bd 6d26 39be 29ed 0b3e 8bca 1b3f
00000310: 58a9 c4be 9e40 d93e a0ea 923d 63a6 e83e
00000320: d261 edbe 1acf 173f 8f12 43be 2f7b 20bf
00000330: 7c15 013f 1397 28bf 4eea 563f 1ee1 f5bb
00000340: 40c5 c13e ee50 68be b93f 1bbf 1ba8 76be
00000350: 9264 23bc 7c6a b03e 1c05 32bf a7a9 5e3d
00000360: d384 42be 6acb c43c 22ba 4cbf 3ab2 10bf
00000370: 8f74 ddbe 531b e1be e008 c33d 1ccb e7be
00000380: 7f1b aebe 0f8d ed3e d87c 13bf 7abb cfbe
00000390: 0cf6 b8be 52ea 4d3f ce6c 9d3e 9017 a2be
000003a0: 69a2 2b3f bb54 123e 5bd0 003f 2d2a 96be
000003b0: fdb9 a53d 9bb7 21bf 188f 10be c63b a7be
000003c0: 300c 1ebd f64e 553f 1ae8 db3d fb34 eebe
000003d0: 9b48 57bd 3f69 b43e 2bfc ac3e f185 a0be
000003e0: 2157 d4be f2e4 19bf 0707 a33e 75f7 3e3f
000003f0: 0cd4 84be 7d5c 50bf fbd3 e2be 14b6 37bf
-0.51242036 0.3511106 0.24014878 -0.36294258 0.41785717 -0.06998701 0.35700345 -0.75668114
-0.74272555 0.10088257 0.36765292 -0.061237462 0.15971585 -0.62744915 0.1473338 -0.12535459
-0.22427215 0.58674425 0.20818146 0.5611284 0.63836277 0.6217006 0.52334374 -0.13501905
1.0589266 0.4736773 0.8210326 0.3382005 0.8794917 0.77033746 -0.64427394 -0.4823106
0.17991309 0.003975823 0.948306 -0.12187774 0.53534067 -0.5820713 -0.114377156 -0.09836005
-0.60103565 0.30615178 -0.10304162 -0.74660313 -0.61858904 0.5474475 0.4028498 0.28571185
-0.69778264 -0.3438103 0.030382056 -0.25972784 -0.32743183 -0.29855996 -0.32291138 0.09039525
0.13843356 -0.0872557 -0.012525839 -0.7744748 0.6740975 0.28256541 0.09952977 -0.04216088
0.046489015 0.278631 -0.04151625 -0.79048306 -0.5033413 0.89180803 0.33739614 0.1771801
-0.45213026 -0.1821305 -0.07231467 -0.13247818 0.14792064 -0.40117335 -0.12147341 0.36285797
-0.053577963 -0.152866 0.13220373 -0.36165482 -0.85270685 0.2581402 0.2728392 -0.4269952
-0.50844026 1.2027258 -0.39603192 1.0778471 -0.35056072 0.6560968 0.43560553 0.568421
-0.8114825 -0.011690926 0.31596395 -0.15091705 0.054077804 -0.3933185 0.24829389 -0.6927365
0.61162364 0.11112992 0.1233139 0.16666225 -0.08066358 -0.2855941 0.0770816 -0.5486059
-0.26567376 0.23925827 -0.21372196 0.48180604 0.13751587 -0.31778583 0.19465576 -0.118217625
-0.27624792 0.42001545 0.34769613 -0.6512854 0.246036 0.028233636 -0.6610766 0.5483378
0.7141337 -0.64042044 -0.31896526 0.005714228 0.25595883 -0.7313105 -0.10515637 0.2570141
0.9582507 -0.5848081 -0.56832385 0.12804875 0.13081037 0.0014751155 0.31949377 -0.71705794
0.13843518 0.36102128 -0.6874771 -0.40229023 0.32152224 -0.59103936 0.16632622 0.10050407
-0.7671863 -0.41121277 -0.50474715 -0.22054653 0.45833513 0.7975376 0.03036528 -0.76278573
0.086183615 -0.39998248 0.49718726 -0.38979718 -0.014056878 -0.38509983 0.61783516 -0.3187537
0.27914602 -0.5064649 -0.84697497 0.17105609 -0.69040906 -0.4564735 0.7744531 -0.33426198
-0.3578507 0.4907152 -0.014449549 -0.70763326 0.8940136 -0.63555634 0.6335813 -0.47450694
0.22435306 0.064025946 -0.50850123 -0.27179554 -0.27457187 -0.084433176 -0.70707107 -0.63108844
-0.09027016 -0.18081065 0.13664688 0.6085593 -0.3841045 0.42432112 0.071736574 0.45439443
-0.46363693 0.59300387 -0.19050048 -0.62687963 0.5042341 -0.6585552 0.8395127 -0.0075036427
0.37845802 -0.22687122 -0.6064411 -0.24087565 -0.009972708 0.3445624 -0.69539046 0.05436101
-0.18995981 0.024022777 -0.79971516 -0.5652195 -0.4325299 -0.4396616 0.09523177 -0.45272148
-0.34005353 0.46396682 -0.5761237 -0.4057272 -0.3612522 0.8043567 0.30747074 -0.31658602
0.67044693 0.14290135 0.50317925 -0.29329053 0.08092115 -0.63170785 -0.14117086 -0.3266279
-0.03858584 0.8332361 0.10737629 -0.46524796 -0.052559476 0.35236546 0.3378614 -0.3135219
-0.41472724 -0.6011497 0.318413 0.7459634 -0.2594303 -0.81391126 -0.44302353 -0.71762204

net.2.weight f4 [256, 256]
00000000: 83d9 1bbd 0d61 843d 1756 073c 0f1a 583d
00000010: 6131 4abd 3d93 333c f671 4e3c 2cca 04bc
00000020: 0e64 593d 1d29 48bc 63e8 5dbd fe3a a43c
00000030: 0156 21bd dfb5 20bc e548 a73c 65d8 a4bc
00000040: 9941 bb3b 72df 1ebd 72ef 593c 2a51 3dbc
00000050: 74a4 183c bcf9 47bd b427 06bb d208 80bd
00000060: ab8f 7ebb bb16 f8bc ca1f 8dbb e50c e83c
00000070: 89e6 8abc a95b 06bd 56b5 0dbd 84e9 21bd
00000080: 613f c33c 417f e7bb b682 033d 90c2 d1bc
00000090: 865c 07ba 7670 be3c 4b4d c93c 1ddb 13bd
000000a0: 9a65 5c3d 1b50 92bb 524b 8d3d a37a 3fbb
000000b0: fed1 d43c c540 6fbd c985 453d b582 02bd
000000c0: 27f4 603d 752d 973d a066 4d3d 4415 8f3c
000000d0: 9869 f73c c26b d83c 92df 4d3c b900 143d
000000e0: 4e8b 073d f95b 3cbd 4e04 c53c 52d6 9a3c
000000f0: 658c b2bc 02b3 a13c bf39 283d f8d2 473d
00000100: 3387 60bd 8a78 3cbc f5ba 8e3a dfe7 ce3c
00000110: 8d44 423c 66a0 22bd ff23 aebc f338 70bd
00000120: 9588 283d 4fdf 423d 5364 843d 1356 56bc
00000130: 1b71 babc 650d 60bc 8749 bd3c 69c3 c6bc
00000140: dce1 59bd a706 1d3d e9b3 1abd ce6a db3d
00000150: 2dfa 85bd df00 70bd 5407 37bd 2499 d739
00000160: 394d 56bd b69b e93c 404c f33a 5c7f f23c
00000170: 533e 0b3d c475 99bb 81ad bd3c 8580 bb3b
00000180: 8000 eabc 8aac 64bc bfc8 f2bc b48f b4bc
00000190: 6b72 fa3c 7123 80bd dc9a 583d d6b6 953d
000001a0: 2a8c 6a3d 4236 44bb 63a8 8cbc 1085 d23c
000001b0: 9910 47bc 2975 863d 5e64 143d 7032 633d
000001c0: 019c c2bc 4de3 ea3c 69f9 7cbc b264 8ebc
000001d0: 0275 5ebd a5e0 d7bc 0ece 3abc 92ac f6bc
000001e0: 79b7 363d 530c d13c bef2 4a3d 2476 19bd
000001f0: cba1 3a3c 7ee5 1bbd 4db8 2b3c 6da3 793b
00000200: bd0b df3c 2cba adbc 9cbb 05bd 5336 07bd
00000210: a595 1fbd 0e4c 183d 04fc 3ebd ee57 893c
00000220: ae15 7ebd 141c 243b 24cc 05bd f0bf 913d
00000230: 02e6 fd3c 45d3 403c 087e 6f3d bc29 afbc
00000240: 4b44 d83c c88f babc 1f6f 0cbd f487 22bd
00000250: 20af 0a3d 10e1 1f3c f5de 05bd 3817 b3bc
00000260: b7fd babb 376c 223d 6ead 20bd c982 d83c
00000270: 5d0e 33bd 3a04 71bd 6464 793c 4b2b 953d
00000280: 96b9 a23c e1cc 683c 0f8f 1cbd 6abd 5e3d
00000290: 2105 53bc f3ba 363d d799 523c 5b1a cdbc
000002a0: cd53 0c3d 009a 3bbc 5b11 b03c dc0b 633b
000002b0: db5e 11bd c295 1d3c 6485 723d 8fd6 2cbd
000002c0: 6f54 07bc b3d9 bcbc 2266 4bbd 3afd 6f3c
000002d0: d561 af3c 7647 283d 1075 823d 9217 6a3d
000002e0: d7c7 413c a6bd d03b ceef bd3c b8e5 4b3d
000002f0: f743 f2bc 79e5 4b3c 7cf7 38bc e699 943d
00000300: ffdf 263d 31c6 ab3c 12e0 15bd 138e 6bbd
00000310: e634 c1bc df01 36bd 8202 9bbc 6a37 c73c
00000320: 7903 633d 1830 2fbc 04c7 18bd 7d7c 993d
00000330: 69cd 46bd 29bb 773d 5ac0 913d fefe c63c
00000340: 242a 393d ce94 ed3c 91bb 153d e4da c3bc
00000350: 7b6d fcbc 7962 45bd 087c 16ba c3c0 cfbc
00000360: 2d68 d0bc 9561 1b3d 8073 5f3d 2278 fabc
00000370: 1b17 6abc 5091 ed3b a6d7 623d fd3e 84bc
00000380: 43ed 26bd 85cb c1bc 1d88 543d 1a69 ff39
00000390: 139c e53c 6657 523d 0eb6 d638 dac2 053d
000003a0: 319b 453d cfed 8a3d e929 633c cf52 fa3c
000003b0: aa99 c83c 3064 c83c 6398 7ebd 97d2 86bc
000003c0: fc22 e73c 7328 d8bc 1e6a 113d 9b8c a93c
000003d0: 2316 96bc dbe2 3c3c dc9b 583d 4717 4d3d
000003e0: e27d 173d 1e58 6b3c 79cc 40bb 37c7 9dbd
000003f0: 7c72 9c3d c06b 393d 053d af3c 9be2 013d
-0.038049232 0.064638235 0.0082602715 0.052759226 -0.049363498 0.010960397 0.012600413 -0.008104842
0.053073935 -0.012216833 -0.0541767 0.02004766 -0.03938866 -0.009808986 0.020420501 -0.020122716
0.005714607 -0.038787313 0.013301717 -0.011554996 0.009316552 -0.04882215 -0.0020470442 -0.06251682
-0.0038842957 -0.030284276 -0.004306768 0.028326461 -0.01695563 -0.032802258 -0.034596764 -0.03952934
0.023833932 -0.0070647304 0.032107078 -0.02560547 -0.00051636284 0.023246985 0.024572989 -0.036097635
0.053807832 -0.0044651157 0.06899132 -0.0029217384 0.025979038 -0.05841138 0.04822329 -0.031862933
0.05492034 0.07381717 0.0501467 0.017466195 0.030201718 0.02641857 0.01256551 0.0361335
0.033091836 -0.04598615 0.024049904 0.018901024 -0.021795461 0.019738678 0.041070696 0.04878518
-0.054816436 -0.011503348 0.0010889458 0.02525705 0.011857164 -0.03970375 -0.021257399 -0.05864806
0.04114588 0.047576245 0.06464448 -0.013082045 -0.022759011 -0.0136750685 0.02310635 -0.0242631
-0.053193912 0.038336422 -0.037769232 0.10713731 -0.06541858 -0.05859458 -0.044684723 0.00041122094
-0.05231974 0.028516632 0.0018562153 0.029601745 0.033994984 -0.004683228 0.023154022 0.005722108
-0.028564692 -0.013957152 -0.029636739 -0.02204118 0.030572137 -0.0625676 0.05288206 0.07310264
0.057262577 -0.0029939567 -0.017170137 0.025698215 -0.012149953 0.06565315 0.03622853 0.055468023
-0.02375603 0.028672839 -0.015440323 -0.017382 -0.054310806 -0.026352236 -0.011401666 -0.030111585
0.044608567 0.025518572 0.049547903 -0.037466183 0.0113911135 -0.038060658 0.010480952 0.0038091794
0.027227277 -0.021206938 -0.03264962 -0.033010792 -0.03896107 0.037181906 -0.04662706 0.016765561
-0.062032394 0.002504115 -0.032665387 0.07116687 0.030993465 0.011769121 0.058469802 -0.021382205
0.026399752 -0.022773638 -0.03428566 -0.039680436 0.03385842 0.009758249 -0.03268333 -0.021861658
-0.0057065147 0.039653983 -0.039227895 0.02642955 -0.04371487 -0.05884192 0.015221689 0.07283648
0.019863885 0.014209003 -0.03822237 0.054379858 -0.012879641 0.044611882 0.012854061 -0.025036981
0.034259606 -0.011450291 0.02149265 0.003464452 -0.03549085 0.009618225 0.059209242 -0.042196807
-0.008259877 -0.023053026 -0.04965795 0.014647776 0.021408955 0.041083775 0.06369984 0.057151385
0.011827431 0.006370264 0.023185637 0.049779624 -0.029573424 0.012444847 -0.011289474 0.07255916
0.040740963 0.020968528 -0.036590643 -0.05750854 -0.023584794 -0.04443538 -0.018922094 0.024318416
0.055423234 -0.010692619 -0.03729917 0.074944474 -0.04853574 0.060481224 0.07116766 0.024291512
0.045206204 0.02900162 0.03655583 -0.023908086 -0.030813923 -0.048189614 -0.0005740528 -0.02536047
-0.0254403 0.03793486 0.05455351 -0.030574862 -0.014287735 0.0072499886 0.05538144 -0.016143316
-0.040753614 -0.023656616 0.05188762 0.00048715697 0.028028524 0.05135288 0.000102382255 0.032656528
0.048243705 0.0678364 0.013864973 0.030557064 0.024487335 0.024461836 -0.062157046 -0.016457839
0.028214924 -0.026386475 0.03550159 0.020696929 -0.018321102 0.011528696 0.052883014 0.050071027
0.036985286 0.0143642705 -0.002941875 -0.07704013 0.07639024 0.045268774 0.021391401 0.03171025

net.2.bias f4 [256]
00000000: a710 2f3d 7416 23bd 0514 00bd 7349 923c
00000010: 1189 a6bb 049d b3bd b3fb 2bbd 39e7 babd
00000020: 93ba 65bb 3984 5dbc 658a 22bd 8205 8abd
00000030: ce6f 5d3c e5f1 793c 3c1d 47bd 585c c3bb
00000040: c232 a83c 1d7a 9fbb a8ca 8bbd 6726 96bd
00000050: 7322 83bd 1b32 283d e2ea 10bd 1b0f 26be
00000060: c18d dbbc ed6e d7bc 6b2a c3bd 2232 16bd
00000070: 1484 9a3c 721f 6ebd f145 eb3c 4d0c b8bc
00000080: adf7 8ebd 9628 69bb 7998 a8bd e300 4a3c
00000090: 5b62 863c b40a a73b c803 3abb d0f1 4abc
000000a0: f9c2 59bd 8caf 93bd 8480 903c 2b93 c8bd
000000b0: 696e 10ba 5f41 2c3c cbc1 3bbd 0b58 b7bc
000000c0: 5beb 8dbd 3c0f 11bd 97c8 9abc 0ee9 b0bd
000000d0: 8085 67bd f1d1 dbbd 0919 e6bd 5e4f 663d
000000e0: 554e 92bd 5e15 45bd eed9 8f3c bebf 02bd
000000f0: e2cb b13d ed2c 9abd 2ddc 86bd 081f d6bd
00000100: f1a9 95bc e3d0 eb3c f9ac 0abb c910 0f3d
00000110: 801d c7bb 625d 263c 8b37 f1bc 4764 50bd
00000120: fca6 823b a15c 2abd 0616 fbbc 6755 47bd
00000130: af3f c0bd ae86 493d 6274 1e3b 3442 553c
00000140: 0c43 d8bd 7734 b6bb 7942 adbd cd31 04bd
00000150: 4842 33bd 25b6 3f3b d033 a53c 2cc6 12bc
00000160: e655 eabd 3dda b6bd 0062 babd 1f9a 0fbd
00000170: 45de 70bd afd3 713d 1da4 20bd a940 183d
00000180: b96b d0bc 131b cd3c 371d 8d3c cacf 95bd
00000190: 2d33 9cbc 7eec c4bc 3e9b c5bc 870c 183d
000001a0: 7774 d8bc 3790 1abd 8a79 283d d8cb aebb
000001b0: dbe6 f1bd f314 47bb bd92 16bd c5f1 1fbd
000001c0: 3429 acbc 105d abbd 2ad1 56bc 1a44 7fbc
000001d0: c248 bb3c 7a4a dfbd 75d8 643a 1112 973c
000001e0: 853a 003b f62e 73bd 9665 76bd f74d dd3c
000001f0: 51a2 993c a840 ed3c f5ca 7dbd 8c0b 9fbd
00000200: 0647 9cbc ea35 923c 5325 adbd 5fb9 a9bc
00000210: bf81 a2bd 7cd7 0bbd 8fa4 c63b c296 253d
00000220: 1c9a 96bd 8324 59bc f38d 96bb a876 9c3d
00000230: da7b c23d 9c2d ecbc accc 863d 3897 df3c
00000240: d5d9 2b3d 52bd 57bd 8994 41be 67f3 013e
00000250: 8490 dc3b 7f79 e63b a0d4 04bb 1282 0bbd
00000260: 31d5 25bd d49c 61ba 07d7 d43c feea c4bc
00000270: a597 abbd d59c 27bd e7c9 9fbd bdbb 033d
00000280: e277 dd3c 272e 7f3d 805f 2a3d a95b 9ebd
00000290: 6096 4abd 2ed3 023d 6485 bfbd e5ac 0dbc
000002a0: fac0 163d bdc5 eb3b 3349 67bc 736e dabc
000002b0: 42d4 6e3c daaf 92bd b3b0 9a3c 8f9e e1bd
000002c0: 6324 f239 0e2f c3bd bdb5 06bc 900c 00bd
000002d0: b039 91bc e39d 95bd 682b 3b3c 696c f03c
000002e0: 3316 96bd b82a e2bc 62d7 46bd ff53 aebd
000002f0: 444c 853c b2af 5fbd 8590 1b3c 3ed4 c1bc
00000300: 7f87 fb3b f871 3d3d 50ef ddbc 4bb1 373c
00000310: 3326 693d d3b5 73bd 8a28 c53c b6f6 88bd
00000320: 218e 31bd 6f2c 8ebd 8097 92bc ac79 35bd
00000330: 20c7 333d 9a36 58bc 66bf 84bd 904f 00bd
00000340: 4d85 38bc 11c5 2c3d 088a adbd 32da 94bc
00000350: b041 c8bd a7c3 1bbc 31ae 1f3d 754d dabc
00000360: 4371 e9bd 41a1 a73c 1db2 4bbd c9bc fd3a
00000370: 7590 3f3d fb38 ef3c 44b0 8d3d 450f a43c
00000380: bff6 233c 3961 523d c966 333d cd91 503d
00000390: 6102 79bd e7a6 98bd 3cf5 7abd 3556 65bd
000003a0: a1a2 d5bd 3c1e 6bbd f043 98bd 00b0 4abe
000003b0: 4114 063d 534e 07bd b150 69bd 8f44 153c
000003c0: 6194 8ebc 2834 29bd 2ef3 02bd 19f6 4f3d
000003d0: 7d1c 32bc b5f4 e1bd f49a 27bc 46b9 0f3c
000003e0: a0a0 a1ba b927 cc3c d2be 9cbd df60 f4bc
000003f0: 0840 59bd 06d9 0dbd 3817 2e3b 497f 9dbb
0.04274049 -0.039816335 -0.031269092 0.017857289 -0.0050822576 -0.08770183 -0.041988086 -0.091261335
-0.0035053834 -0.013520294 -0.039682765 -0.06739332 0.013515426 0.015255426 -0.048611864 -0.005961936
0.020532016 -0.004866852 -0.06825763 -0.073315434 -0.06403055 0.04106341 -0.03538025 -0.162167
-0.026800992 -0.02629801 -0.09529575 -0.036668904 0.018861808 -0.058135457 0.028719874 -0.022466803
-0.06980834 -0.003557717 -0.08232207 0.012329313 0.016404321 0.0050977115 -0.0028383601 -0.012386754
-0.053164456 -0.07211217 0.017639406 -0.09793695 -0.00055096165 0.010513633 -0.045839112 -0.02238085
-0.06929656 -0.03541492 -0.018894477 -0.08638202 -0.0565238 -0.107334025 -0.11235244 0.056228034
-0.07143847 -0.04811608 0.017559972 -0.03192114 0.08681466 -0.075281 -0.06584964 -0.104551375
-0.018269511 0.028786128 -0.0021160229 0.034928117 -0.0060765147 0.0101541 -0.02944543 -0.050876882
0.0039871912 -0.041592244 -0.03065015 -0.04866543 -0.09387147 0.049200706 0.0024178256 0.013016272
-0.10559663 -0.0055604535 -0.08459944 -0.032274056 -0.043764383 0.0029252854 0.020166308 -0.008958381
-0.11442165 -0.089283444 -0.09100723 -0.03505909 -0.058805723 0.059039768 -0.03921901 0.03717104
-0.025441991 0.025037324 0.017225845 -0.07315023 -0.019067371 -0.02403855 -0.024121877 0.037121322
-0.026422722 -0.03773519 0.041131534 -0.0053343587 -0.1181161 -0.0030377477 -0.036761034 -0.03904893
-0.02101574 -0.0836736 -0.013111392 -0.0155802015 0.022861842 -0.10902877 0.00087297644 0.018441232
0.001956613 -0.059370957 -0.060155474 0.027014716 0.018754156 0.028961495 -0.061961133 -0.07765874
-0.019076835 0.017847974 -0.08454385 -0.020718275 -0.07934903 -0.03414105 0.0060620974 0.040426977
-0.07353613 -0.013253334 -0.0045945584 0.076398194 0.09496279 -0.028830342 0.06582007 0.027293786
0.041955788 -0.052670784 -0.18904318 0.12690507 0.006731095 0.0070335264 -0.0020268336 -0.03405959
-0.04048652 -0.0008606438 0.02598144 -0.024037834 -0.08378533 -0.04092105 -0.07802182 0.032161463
0.027034704 0.062299874 0.041594982 -0.077323265 -0.049459815 0.031939678 -0.09351614 -0.008647178
0.03680513 0.007195203 -0.014116573 -0.026663994 0.014576973 -0.07162447 0.018883085 -0.11016571
0.00046184947 -0.09530459 -0.008222041 -0.03126198 -0.017727703 -0.07305505 0.011423923 0.029348569
-0.07328453 -0.02760826 -0.04854525 -0.08512115 0.016271718 -0.054610915 0.009494905 -0.023660775
0.0076760645 0.046251267 -0.027091652 0.0112117035 0.056921195 -0.059499573 0.024067182 -0.066876814
-0.043348435 -0.06942069 -0.017894506 -0.04430549 0.043891072 -0.013196612 -0.06481819 -0.031325877
-0.01126225 0.042180125 -0.08473593 -0.01817045 -0.09778154 -0.009507096 0.03898448 -0.026648263
-0.11398556 0.020462634 -0.04973041 0.001935863 0.046768624 0.029201975 0.069183856 0.020026812
0.010007559 0.05136225 0.043799195 0.050920296 -0.060793284 -0.07453709 -0.06126903 -0.055990417
-0.104314096 -0.05740188 -0.07434833 -0.19793701 0.03273416 -0.03303368 -0.05696172 0.009110584
-0.017404737 -0.041309506 -0.031970195 0.050771806 -0.01087105 -0.11033002 -0.010229815 0.0087722
-0.0012331195 0.024921285 -0.076535836 -0.029831348 -0.05303958 -0.034630798 0.0026564132 -0.0048064333

net.4.weight f4 [256, 256]
00000000: 6f61 0c3d c137 27bd 5c09 17bd 602c 42bd
00000010: 1cf0 42bc a9a9 e53c e831 683d 1a20 4c3c
00000020: 194d 6c3d 6d64 423d f44a 1dbd f229 283d
00000030: 928a 3bbd 70bf 8e35 11b3 d2bc 51f8 553c
00000040: 5d72 e03c e47f c93c a188 b03d fd2d 54bc
00000050: 76a2 15bd 794b 433d b9e7 7ebd 0974 dc3c
00000060: ff41 893c 6c69 a03c 43ed f539 c2ae 1a3d
00000070: 6a8a d13c 4eae 98bd d3a0 863d fc6b 4fbc
00000080: 21b9 39bd 3068 37bb 7e5c 2abd 6b05 903c
00000090: faa2 0e3c b8ea 69bd c48b bb3b 7a22 ea3c
000000a0: befc fa3c c28a 813d 6364 4fbd 58e5 8dbd
000000b0: ce90 21bd bda7 6bbc daf7 10bd bdc4 8ebc
000000c0: 4cd6 183d f189 5b3d e491 fb3c d9dd 51bd
000000d0: 68c1 f03b 6cbe a0bc 3008 1b3d 2911 68bc
000000e0: 40d2 4f3d 7158 bbbc 0a88 33bd edc0 a53c
000000f0: a3cc d83c 9ee1 f53c d8aa 333c 35e7 413d
00000100: 28bc c7bc d3d6 3ebd a6e5 b4bb 18b2 973c
00000110: 33b9 22bc e91c 2e3d 2ea8 b63a 854e 8c3c
00000120: 931c a03d 1648 59bd 1d98 613c baf7 29bd
00000130: b7c1 97bd f02e 863d 9392 283d a0bf 343d
00000140: 2dee 1bbd 8402 89bc 81be 153d 5e95 98bd
00000150: 2a45 4fbd 13f7 08bd dda4 793d 38fc 2ebd
00000160: 4841 363d 1d3c 0f3d 1ce7 59bd e564 923d
00000170: 7866 02bc e65e e93c e1f5 56bd 3e89 0ebc
00000180: 9a1e 2b3d 5580 21bd a3cd eebc d7e0 8abc
00000190: cf1b 123c dd26 31bd ab72 293d 202b f03a
000001a0: ab3d 883b 5042 053d d8e8 13bd bebf d53b
000001b0: b9c9 8cbd 2479 843d 4f1a 6abc 6cfb 8b3c
000001c0: 188b 06bd 2d39 48bd 2fc8 903d 69df 79bc
000001d0: 4d68 1f3d a326 233d af2b 883d 5919 bd3c
000001e0: 0569 3c3d e38f cc3c e2de 78bd 22d2 b93c
000001f0: 09ad 04bd 1c3a 433d 4cb9 d2ba 5f8c b63c
00000200: 2440 44bc 3cf6 93bc 8c1f c8bc a10e febc
00000210: f4b9 adbb cf49 c8bb f4bf 3e3d 34f0 2f3c
00000220: dc8c f7bc 8651 143c d45c 3ebd f57d 0bbd
00000230: cd6b 63bd f493 16bc 1d2c 0fbd 3034 d6bc
00000240: 2895 80bc eeaa 13bc b0c9 7abd 7351 e0bb
00000250: ac0d 73bd 5f35 373c 9333 223d bcbe b93c
00000260: 140e 95bc 1446 a7bc 0f58 90bc e809 f03c
00000270: 8f8d b33c cee9 833a 889d c0bc 92ff 6f3b
00000280: 43ef a53c 1fe6 363c 150c 843c e26d 41bd
00000290: 1032 eebc 1ec8 143d edb5 82bd 8de8 a23c
000002a0: 0ee0 893d f111 8c3b 69b9 83bd 3595 6e3c
000002b0: bc7e 4dbc df45 e23c 2d85 b7bc b7c1 9dbc
000002c0: 99e1 733d f9de ceba 70f2 3bbd eb5f 583c
000002d0: ea7c 4fbd 5f1c 8bbd 31c6 0abd 8fb6 07bd
000002e0: 7550 37bd d2c7 14bd 30f1 4a3d fef9 e6bc
000002f0: e09b df3c f4ab d4bc 316e e6bc 4e46 4d3c
00000300: 138b 01bd 2d4c 18bd 1890 8dbd 4a2f 7e3d
00000310: d342 aabc 90fd db3c 5c90 5a3d 9133 6d3b
00000320: de9c b03d 1b23 97bb 5834 043c f397 033d
00000330: f844 833b e7b9 6c3d a542 3f3c f149 ae3c
00000340: 3f65 3a3d 3687 90bb c81e d9bc 2b49 903d
00000350: 0069 243a 6766 863d 58aa 0d3c 3689 5abd
00000360: 04fa 343d f807 1bbd cc0e e3ba 35bd 28bd
00000370: 74a3 293d 94f1 563d 2411 553c 9ff0 c9bc
00000380: 208e ba3c 6f19 9d3c 485d 5b3d b1fa 8b3d
00000390: 7d7f 9bbd d71c c73c 6e24 223d 75dc 17bd
000003a0: 84f3 7e3b 4ac4 003c 0fbd 6dbd 14de 4cbd
000003b0: 2660 593c 77dd 5abc 1d41 b93c 2ebd 91bb
000003c0: efd4 8dbb 2570 d8bc 51ea 893c e81c a33c
000003d0: f1d9 963d def4 6c3b 405d 33bd 1205 243d
000003e0: b5ac 8b3d f3da 1b3c ef36 ed3c d2f4 9dbb
000003f0: 63b6 06bc fc28 9d3c ddb2 803d 6eda d8bc
0.034272607 -0.040824655 -0.03687416 -0.0474056 -0.011898067 0.028035002 0.05668822 0.0124588255
0.057690714 0.047459055 -0.03840156 0.041055627 -0.045786448 1.063554e-06 -0.025720151 0.0130596915
0.027398283 0.024597116 0.0861981 -0.012950418 -0.036531888 0.0476794 -0.062232707 0.026910799
0.016755102 0.019581519 0.00046906815 0.03776432 0.025578696 -0.07455121 0.065736435 -0.012660023
-0.04534257 -0.0027985685 -0.041592114 0.017580708 0.008705849 -0.05710861 0.0057234485 0.028580893
0.030638095 0.06325294 -0.050632846 -0.069285095 -0.039444737 -0.014383254 -0.03539262 -0.017427796
0.037313744 0.053598348 0.030709215 -0.05123696 0.0073472746 -0.01962205 0.037849605 -0.014164248
0.05073762 -0.02286932 -0.04383091 0.020233596 0.026464766 0.03001481 0.010966025 0.047339637
-0.024381712 -0.04659159 -0.0055205403 0.018517539 -0.00993185 0.04250804 0.001393562 0.017127285
0.0781795 -0.053047262 0.013769177 -0.041496016 -0.07409995 0.06551921 0.04115541 0.04412806
-0.03806894 -0.016724832 0.03655863 -0.074503645 -0.05060307 -0.033438753 0.06094824 -0.042721003
0.04449585 0.034969438 -0.05319892 0.0714815 -0.007959001 0.028487634 -0.052480582 -0.008699713
0.04177723 -0.039429028 -0.02915079 -0.016952915 0.008917763 -0.043249954 0.04136912 0.0018323399
0.004157742 0.032533944 -0.03611073 0.0065231016 -0.06874413 0.06468418 -0.014288499 0.01708766
-0.032847494 -0.048882652 0.07069432 -0.015251019 0.03891783 0.03983177 0.06648957 0.023083376
0.045998592 0.024970954 -0.060759433 0.022683207 -0.03239158 0.04766284 -0.0016076951 0.022283731
-0.011978183 -0.01806175 -0.024429105 -0.031012835 -0.0053017084 -0.0061123143 0.04656978 0.010738421
-0.030218534 0.00905264 -0.046475247 -0.03405567 -0.05552273 -0.009190548 -0.03495418 -0.026147932
-0.015696123 -0.009012921 -0.0612275 -0.006845647 -0.05933921 0.011182158 0.039599966 0.022673957
-0.01819519 -0.020419158 -0.017620115 0.029301599 0.021918086 0.0010064186 -0.023512617 0.0036620838
0.02025569 0.011163264 0.016119042 -0.047223933 -0.029076606 0.03632366 -0.06382356 0.01988628
0.06732188 0.0042745997 -0.064318486 0.014561941 -0.012542423 0.027621208 -0.02240237 -0.01925741
0.05954132 -0.0015783004 -0.045885503 0.013206462 -0.050656237 -0.06792521 -0.033880416 -0.033133086
-0.044754464 -0.036323376 0.04954642 -0.028195377 0.027296007 -0.0259609 -0.028128715 0.012528969
-0.031626772 -0.037182022 -0.06912249 0.062056817 -0.020783817 0.026854306 0.053360328 0.0036194066
0.0862367 -0.004612339 0.00806912 0.032127332 0.0040060245 0.057794478 0.011673604 0.021275492
0.045506712 -0.0044106496 -0.026503935 0.07045206 0.000627175 0.065625004 0.00864657 -0.05335351
0.044183746 -0.037849396 -0.0017323135 -0.041196067 0.041415647 0.05247648 0.013004575 -0.02465087
0.022772849 0.019177167 0.053555757 0.06834925 -0.07592676 0.024305744 0.039585523 -0.03707548
0.003890247 0.007859299 -0.05804163 -0.050016478 0.0132675525 -0.013358465 0.022614056 -0.004447601
-0.004328362 -0.026420662 0.016835364 0.019911245 0.07365788 0.0036156694 -0.043790102 0.040043898
0.068200506 0.009512651 0.028956858 -0.0048204446 -0.008222195 0.019184582 0.062841155 -0.026471343

net.4.bias f4 [256]
00000000: 5c0e 24bd e2bb 01bd 9a24 ffbc ceed 6dbd
00000010: 2491 f5bc 5366 943d 3536 a5bd 3f31 813c
00000020: 28da 26bd 4976 1a3d fd55 5bbd bcbc b93c
00000030: 8d28 743c 3daa 973c ef2c 3b3d c12f 573d
00000040: a035 69bd 1348 653c 6249 2f3d 82a2 0abd
00000050: 1a9b 8cbc 7165 4bbb e059 30bc 86f7 7f3d
00000060: 67de 393c d080 88bd 48a7 cb3c 510b 293d
00000070: 94f7 2bbd 910f 8f3d 7dd9 143d c180 1b3d
00000080: d220 523d 8240 8e3c 4de5 f4bd b163 ac3b
00000090: 06e0 813c 5a7b 973c 0f25 153d bb66 82bc
000000a0: d981 193c 2e08 6abd 93d9 ab3d e10c cdbc
000000b0: 0be8 8cbd e043 91bd 2029 98bc c15e 2fbb
000000c0: c27d 19bd 7419 113d 9b2b abbd 1fd9 2fbc
000000d0: 380b b5bc 8005 0dbb 7950 f0bd ed47 503d
000000e0: 05bb 35bd 2615 e63c 4471 713d d844 8e3d
000000f0: ceab 843c 5c2e 9dbc d300 ef3b dee9 9c3d
00000100: cc54 723d 8d69 403d eaac 833c 7313 823c
00000110: b9ca 2a3d af6b e63b 53b2 74bd 0a37 fdbc
00000120: 48cf 153d 5a1e 853d e37e a8bc e57b 833d
00000130: c4fc 02bd 7042 d83b 33e1 c9bb 8556 b93b
00000140: fab8 c6bb 4b1f 4cbc f244 533c 5342 04bc
00000150: 6c49 e0bc 4aeb d6bd c8bc 6bbd 399e 253d
00000160: 78c0 83bd e4a9 a9bc f0e7 3c3d 7ef7 0fbd
00000170: 19a9 41bd 9262 2bbd 9bb3 563b 5844 c83c
00000180: 922b 493d dfbf ed3c 8f7a 6ebc 30ea 8ebb
00000190: 6e7b 8dbb f44e f03c ae5d 8f3d a763 0b3c
000001a0: dfd2 9a3b 5f5e f03b cc60 9fbc 6108 20bc
000001b0: a544 1fbb 3d3a 833d 5cfc d3bc 5afb c5bc
000001c0: 7657 14bd 57b9 d2bc a1a2 dbbc 590f 1cbb
000001d0: 8777 bb3c ebbd 863d 6576 923d 94b6 a03b
000001e0: 4ecf ad3c d434 9bbd ea7a 383d 2bde 2cbc
000001f0: 0952 f1bc 8000 8abd f14a 3fbd 100d 87bc
00000200: 5829 0cbd 4bde 90bd 6162 27bc 8c99 b83c
00000210: 56ea 4abd c2cf 3cbc 6e40 fdbb 3259 7a3c
00000220: f076 8bbc 9b38 81bd 0144 b4bb 26ea eebc
00000230: 3237 0e3d edd6 dc3c ba0e dcba ef1f e93b
00000240: a1e3 7bbd 55d9 123d c55d f4bc c637 12bd
00000250: 370b 85bd 63b2 ed3c 31c1 8abc 3d5e 993d
00000260: 12a4 52bd 7d6e 8fbd a157 67bd 79fb 92bd
00000270: eb38 39bd 6ddc 43bc 3c9e c43b b645 f1bd
00000280: 8cc9 633d 0b7d 0a3d 631a 453c 5bc0 083c
00000290: c004 1d3d 32c7 95bd 17d2 8a3d 4b13 febc
000002a0: a16c 6bbd 02d5 5f3d 7a70 f73c 1be3 fabd
000002b0: 8932 4ebd 8223 543c 5d73 abbd 8095 023c
000002c0: 52e1 833d 2bc8 c8bc cd3b 863b 388a 5e3d
000002d0: 14b5 0cbd 711f 8cbd 2e77 023c 7b05 53bd
000002e0: 0a20 e6bb 1393 39bd 6f09 1cbd 599a 1abd
000002f0: 1897 e9bc d0a0 1a3d ab22 073d 1570 6abc
00000300: a322 3ebd ae8a d2bc ecab c13c b7df ce3b
00000310: d287 c4bc a63a 5dbc 103a b83d 0c2f 223a
00000320: 8645 143a b82a d9bb 01d9 83bd c882 cd3c
00000330: 32a6 23bd 331b 90bc 605c 48bc 20d1 1ebd
00000340: 62c0 81bc 4229 5ebd 5042 253d 6fc3 e6bc
00000350: c521 5dbd 8ccc cabb b87f e1bc cf8a 2fbd
00000360: d892 d43c 31f9 133d 7e59 12bd 679f e9bc
00000370: fa33 89bd 29f0 13bd 0e49 833d 7c2e acbc
00000380: c46b db3c 7f2c 53bc d0ac 463d 9959 80bb
00000390: 7ab0 37bd 03a3 833c 2246 3d3c 42d5 e63c
000003a0: 46a7 c9bc 76b9 25bd e979 0a3c 0afa f13c
000003b0: 7f58 e5bc eef7 6ebd a584 283d 2655 7e3b
000003c0: 61cb d6bc 8bf3 b03a 4e0e 503d 7469 473d
000003d0: 019b 3d3d d825 623c 5d0b f2bc b9ad 30bd
000003e0: 07ad 45bd e3fe 973c e4d6 1abd 2782 76bc
000003f0: 7830 19bd ea79 7c3d 3b15 9dbd 54b0 1abd
-0.040052757 -0.03167332 -0.031145383 -0.058088116 -0.029976435 0.07246079 -0.0806698 0.015770553
-0.040735394 0.03771046 -0.0535488 0.022673003 0.014902246 0.018513793 0.04569715 0.052535776
-0.056935906 0.013994235 0.042794593 -0.033846386 -0.017163802 -0.0031035806 -0.010763615 0.062491916
0.011344529 -0.06665194 0.02486004 0.041270558 -0.041984156 0.06985391 0.036340225 0.037964586
0.05130083 0.017364744 -0.11957798 0.0052609076 0.015853893 0.018491436 0.036412295 -0.015918126
0.009369337 -0.057136707 0.08391108 -0.025030555 -0.06880196 -0.07093024 -0.018574297 -0.0026759359
-0.037473448 0.035424665 -0.083579265 -0.010732918 -0.022100076 -0.002151817 -0.11734099 0.050849844
-0.04436781 0.028086256 0.05894591 0.06946725 0.016195204 -0.019187145 0.0072937994 0.07661794
0.0591629 0.04697566 0.016073663 0.015878415 0.041697238 0.00703188 -0.059740376 -0.030910034
0.036574632 0.0649993 -0.020568317 0.064201154 -0.031979337 0.006599717 -0.006160879 0.005656066
-0.0060645314 -0.012458633 0.012894856 -0.008072454 -0.02737876 -0.104940966 -0.057553083 0.040434096
-0.06433195 -0.020710893 0.04611963 -0.035148136 -0.047280405 -0.04184205 0.0032760862 0.024446651
0.049113818 0.029022155 -0.014555587 -0.0043614134 -0.0043176925 0.029334523 0.0700029 0.008507646
0.004724845 0.0073354687 -0.019455336 -0.009767623 -0.002430239 0.064075924 -0.02587717 -0.024167705
-0.03621622 -0.025723143 -0.026810946 -0.002381286 0.022884144 0.06579193 0.07151488 0.0049045775
0.021217015 -0.075784355 0.045039095 -0.010551016 -0.029458063 -0.067383766 -0.04670233 -0.01648572
-0.034219116 -0.07073649 -0.010216326 0.022534154 -0.049539886 -0.011524143 -0.007728628 0.015280055
-0.017024487 -0.06309625 -0.0055012708 -0.029164385 0.034720607 0.026957953 -0.0016789057 0.0071144025
-0.06149638 0.035851795 -0.029829869 -0.03569772 -0.0649628 0.029015725 -0.016937824 0.07488678
-0.051426 -0.07003496 -0.056480054 -0.07176871 -0.045220297 -0.011954409 0.0060003083 -0.117808744
0.055612132 0.033810657 0.012030217 0.008346642 0.038334608 -0.07313384 0.06778353 -0.031015059
-0.057476643 0.0546465 0.030205 -0.12250348 -0.050341163 0.012947919 -0.08371613 0.007970214
0.06439461 -0.02450951 0.0040964843 0.054331034 -0.034352377 -0.068419345 0.007962985 -0.0515189
-0.0070228623 -0.045306277 -0.038094934 -0.037744854 -0.02851443 0.03775102 0.032992046 -0.014308949
-0.04641975 -0.025700893 0.023641549 0.00631329 -0.023990545 -0.013502752 0.089954495 0.000618682
0.0005656112 -0.006627407 -0.064378746 0.025086775 -0.039953418 -0.017591095 -0.012229055 -0.038773656
-0.015838806 -0.054238565 0.040346444 -0.028169362 -0.053987283 -0.0061889347 -0.027526721 -0.042856988
0.025948927 0.03612632 -0.035729878 -0.028518392 -0.06699367 -0.036117706 0.064104185 -0.02101826
0.026784785 -0.012889027 0.04850465 -0.003916931 -0.044846036 0.016068941 0.0115523655 0.028177861
-0.024615895 -0.040460072 0.008451917 0.029538173 -0.0279963 -0.058341913 0.041142125 0.0038808077
-0.026220025 0.0013500316 0.050794892 0.048684552 0.0462904 0.013802968 -0.029546434 -0.043134425
-0.048260715 0.018554157 -0.037802592 -0.015045679 -0.03739974 0.061639704 -0.07670065 -0.037765816

net.6.weight f4 [2, 256]
00000000: ccd5 45bd 8600 96bd a9e5 9b3c 60c9 3f3c
00000010: 289e 4dbd 0751 b4bd debc ab3c 039e 3fbd
00000020: 579b 92bd 7c8b 613d 0274 e13b 9863 243d
00000030: e667 ae3c 6114 703d 6658 85bd 3059 a7bd
00000040: 34fd 393d 48b8 98bc 27af 90bd 9e0d 39bd
00000050: 12eb 14bd cddf 3ebd d7f9 59bd d09d 5abd
00000060: 9e42 3f3d 1534 833d 97c1 91bc 519e dbbc
00000070: eed4 283d b70d 4abd 7025 663d 3ec3 d53c
00000080: c1e7 fdbc af9e 8ebd ff76 e03b 367a 16bd
00000090: d28a 97bc 03e1 283c e8b5 4b3d d966 ac3c
000000a0: a1d7 953d 7bac 403d f5d7 3fbd b7c2 6a3d
000000b0: 05cc 003c be73 043d 7a5d eabc b210 11bd
000000c0: a496 343c 902b 3d3d ddbf 433c 2173 8a3d
000000d0: 0079 d7bc 2335 e53c 0f72 193d 28bf bc3b
000000e0: 2e16 9fbd 4ed6 37bd 034e 7a3a 4bb4 5dbd
000000f0: 94c8 c63c f6a0 9abd 52cc 4c3d 0b88 84bd
00000100: e3f1 56bd e184 39bd 0134 dfbc e7ae 6a3c
00000110: f08c a13c ca97 493d 55f7 363d 3aa2 dcbc
00000120: b15d 063d 0180 88bd 77af b83c 4b0d 5bbc
00000130: 330f a33d 5858 7dbc 3364 573d ac5d 80bd
00000140: d872 9dbd bd33 97bd d366 413d 101b 2ebc
00000150: 13ef 2fbd d601 e53b 1c58 523d 068c 04bd
00000160: 9790 053d 1e7e c6bc fc90 933d 1dfe 083d
00000170: 4fff 303d 24b0 15bd 3317 12bd e838 1337
00000180: f722 7a3d 33cd 2b3c aae8 95b8 5b14 77bd
00000190: 873f 9abd ec59 44bd 3e18 febc b7d2 033d
000001a0: 3146 50ba e7b9 66bd 1929 673d ad94 eebc
000001b0: 569a 433d b982 5abd 769c 253d a6f3 623d
000001c0: a233 76bd 42ef 9a3c eddd 0a3d d900 06bb
000001d0: fefa 93bd f48c 8fbd af31 63bd 8f85 113d
000001e0: 39dc 053d 9e04 7e3d 5dc3 d23c 9e28 44bd
000001f0: a378 8c3d 2f07 893d fc81 2b3d d0bd 263d
00000200: 32bc 3f3d 8bab 213c 75ae 8ebd 4d52 523d
00000210: 35ad 8fbc 49c2 a93c a36f 3f3d cb16 74bd
00000220: 1caa da3b 8ff2 213d cf4a 91bd a7c4 a1bc
00000230: f7c7 9cbd 18fe cdbb 03c9 413d a335 fabc
00000240: 7217 ad3b 375a 68bd d70b 85bd 533a 123d
00000250: 0715 1b3d d349 473d 30e4 eabc 636c 8fbd
00000260: f68b 823c d100 973d bde6 3ebd 415f 183d
00000270: beea 823d f55a df3c ed01 54bd 3561 e33c
00000280: fc12 ac3c 8e7f 66bd 73da 51bd eb83 96bd
00000290: 0234 4e3d 5dcb 87bb 2749 61bd e1a2 74bc
000002a0: bae2 c93c affc dabc 432f 2abd 046d 2d3d
000002b0: 3570 433d 8a8d 02bb e8d3 1d3d 8237 823d
000002c0: 5d9e e0bc e5d9 41bd bab1 80bd 7f54 5ebd
000002d0: 4479 7c3d 25e2 7e3b 63e7 463c 8a31 92bc
000002e0: e39f bbbc ce1b a9bc cd69 3c3d 381e 8fbd
000002f0: 396a 693d 0836 7c3d e6ab 4fbd 5f83 65bd
00000300: 6ee7 71bc c1af 4ebd 829a 56bd 20e0 d1bc
00000310: 2e5f 9e3c ee28 8d3d b969 2cbd 000f 563d
00000320: 4b9b 803c 3bc9 97bd 25fb 973d 87ca 37bd
00000330: 0e24 8abd 6261 9c3d 0d0b 2d3d 056c 20bc
00000340: 3516 5fbd 04f2 0c3c 3c77 06bd 6ef6 333b
00000350: c44c b73c e48a a53d 0032 8cbd 6b7e 89bd
00000360: a5e3 1a3d 8b8f 42bd 7b43 15bd f3aa b6bc
00000370: 41ae 9e3d 016b dd3c 9197 fabc 8b46 86bd
00000380: 0796 d9bc 49bc 9abd b8c7 93bd 1f9c 47bd
00000390: ea1f 493d 6493 a83c efed 1c3b 382d b63c
000003a0: 78ed 0dbd a603 8d3d f125 65bd d8aa 4a3d
000003b0: bf5b b53c 6f5f 033d 960e a33c dabf 17bd
000003c0: 8375 693d ce36 a1bd 796e 03bd ae82 1ebd
000003d0: 9a62 93bd 4868 9f3d c8cf 9ebd e997 283d
000003e0: 7e0c da3c b2ab b43c fd42 873d 9e21 6c3d
000003f0: c1ac 4abd 5219 70bd 8cc4 3f3d b52e 4fbd
-0.048299596 -0.073243186 0.019030409 0.011705726 -0.050199658 -0.08804517 0.020964082 -0.04678155
-0.07158535 0.055064663 0.0068802843 0.040134043 0.021289777 0.058613185 -0.06511001 -0.08171308
0.04540749 -0.01864256 -0.07064658 -0.045179002 -0.036356993 -0.04660015 -0.05321678 -0.053373158
0.04669439 0.06406418 -0.017792506 -0.02680889 0.04121869 -0.049329486 0.056188047 0.026094075
-0.030994298 -0.0696386 0.006850123 -0.036737643 -0.018498812 0.010307553 0.049734026 0.021045135
0.073165186 0.04703949 -0.046836812 0.0573146 0.007861142 0.032336943 -0.028609026 -0.035416313
0.011022244 0.046184123 0.011947599 0.0676024 -0.026302814 0.02797944 0.03746229 0.0057600923
-0.07767902 -0.04488211 0.0009548368 -0.05412702 0.024265565 -0.07550232 0.049999543 -0.06471261
-0.052476775 -0.04529274 -0.027246477 0.0143239265 0.019720525 0.049217023 0.044669468 -0.026932824
0.032804195 -0.0666504 0.022544606 -0.0133698685 0.079618834 -0.015462957 0.05258579 -0.062678665
-0.0768792 -0.07382915 0.0472172 -0.010626569 -0.04295261 0.0069887443 0.05135356 -0.0323601
0.032608595 -0.02423006 0.07205388 0.033445466 0.04321223 -0.036544934 -0.035666656 8.775132e-06
0.0610685 0.010485935 -7.148211e-05 -0.060322147 -0.07531648 -0.04793732 -0.031017419 0.032183375
-0.00079450296 -0.056329634 0.05643568 -0.029123629 0.047754608 -0.053347323 0.040432416 0.055408143
-0.060107835 0.018912915 0.03390305 -0.0020447283 -0.07225607 -0.070093066 -0.055467304 0.035527762
0.032680724 0.062016122 0.025727922 -0.047890298 0.06858947 0.06690823 0.04187201 0.040708363
0.046810336 0.009867559 -0.06966869 0.05134802 -0.017538646 0.020722525 0.046737324 -0.05959205
0.0066731106 0.039537963 -0.07094347 -0.019747091 -0.07655328 -0.006286394 0.04731084 -0.030543154
0.005282336 -0.05672666 -0.06496399 0.035700154 0.03786185 0.04865439 -0.028673261 -0.07003095
0.01593588 0.073732026 -0.046606768 0.037200216 0.0639243 0.027265051 -0.05175965 0.027756313
0.021005146 -0.05627399 -0.05123372 -0.0734938 0.050342567 -0.004144116 -0.055001404 -0.0149314115
0.024644244 -0.026731817 -0.04154898 0.042340294 0.04771443 -0.001992079 0.038532168 0.063582435
-0.027419263 -0.04732694 -0.06283899 -0.0542798 0.061639085 0.0038892117 0.012140128 -0.017845888
-0.022903388 -0.020643141 0.045999337 -0.06988186 0.056986067 0.061574966 -0.050701044 -0.05603349
-0.01476465 -0.05046058 -0.052393444 -0.025619566 0.019332495 0.06892572 -0.042093012 0.0522604
0.01569905 -0.074114285 0.07420949 -0.04487088 -0.06745158 0.07635762 0.042246867 -0.009791379
-0.054464538 0.008602623 -0.032828555 0.0027460116 0.022375472 0.08083132 -0.06845474 -0.067135654
0.037814755 -0.047500174 -0.036441308 -0.022298312 0.0774808 0.027028563 -0.03058985 -0.06556424
-0.026560796 -0.07555444 -0.07215828 -0.048732873 0.0491027 0.020578094 0.002394553 0.022238359
-0.034650296 0.068854615 -0.055944387 0.049479336 0.022138475 0.032073434 0.019904416 -0.0370482
0.056996834 -0.07871781 -0.032087777 -0.038698845 -0.07196541 0.07783562 -0.07754475 0.041160498
0.026617285 0.022054527 0.06604574 0.057649247 -0.049481157 -0.058617897 0.0468183 -0.050581653

net.6.bias f4 [2]
00000000: cba2 28bc 1084 593c
-0.010292719 0.013276115
