normal/node/models/8100_model.pt (torch, 535780 bytes, 8 tensors)

net.0.weight f4 [256, 3]
0	0xbe53c846	-0.20681867
1	0x3e1157e2	0.14193681
2	0xbf03b005	-0.5144046
3	0xbe514dde	-0.2043986
4	0x3d6dc2d1	0.05804712
5	0x3ed29aa9	0.4113362
6	0x3eeef363	0.46670064
7	0x3e5b679d	0.21426244
8	0xbc851a10	-0.01624778
9	0x3e8c3fdb	0.27392468
10	0x3e8dca66	0.2769348
11	0x3e92f269	0.2870057
12	0xbd0a248d	-0.033726264
13	0xbf81ed8e	-1.0150621
14	0xbec7a196	-0.38990468
15	0x3ed07d78	0.40720725
16	0xbda198d8	-0.07890481
17	0x3ec30b5e	0.3809461
18	0x3e9d5711	0.3073049
19	0xbe60c66d	-0.21950693
20	0xbe95cf87	-0.29259893
21	0xbe59143e	-0.21199128
22	0x3d3450c1	0.044022325
23	0xbe992ffb	-0.2991942
24	0xbe894ff7	-0.2681882
25	0x3e00e768	0.12588274
26	0xbe64e069	-0.2235123
27	0xbc1fb86c	-0.009748559
28	0x3a723b61	0.00092404155
29	0xbf9c9148	-1.2231836
30	0xbcfacdc9	-0.030615704
31	0xbf55132b	-0.83232373
32	0xbeab901e	-0.3350839
33	0xbe174d9d	-0.14775701
34	0xbdab8b87	-0.08376222
35	0xbf9b7371	-1.2144605
36	0xbe61696e	-0.22012874
37	0xbeeb67bb	-0.45977578
38	0xbfa57388	-1.2925882
39	0x3bf48f36	0.007463361
40	0x3d29f8f6	0.041497193
41	0xbfa2754a	-1.2692044
42	0xbeb88c3e	-0.36044496
43	0xbca2d46a	-0.019876678
44	0xbf61e14b	-0.88234395
45	0xbe661062	-0.22467187
46	0x3daf53d2	0.08560909
47	0x3f07bb2a	0.53019965
48	0xbda3d93f	-0.08000421
49	0x3e882c64	0.26596367
50	0xbf43b8b3	-0.76453704
51	0xbee91428	-0.4552319
52	0x3f272e1f	0.6530475
53	0xbdc3aaec	-0.09554085
54	0x3de35ccd	0.11101685
55	0x3d4f7633	0.050649833
56	0xbe856dbd	-0.26060286
57	0xbd21a754	-0.039466217
58	0xbf91e8dd	-1.1399189
59	0xbf297bea	-0.662047
60	0xbda5f500	-0.08103371
61	0x3ed3ea95	0.4138991
62	0xbf82e236	-1.0225284
63	0xbe793684	-0.24337202
64	0xbe14de9b	-0.14538042
65	0x3f80b6e0	1.0055809
66	0xbd2c7c82	-0.042110927
67	0xbf2ce119	-0.6753097
68	0xbee8e343	-0.45485887
69	0x3e313a81	0.17307474
70	0x3e60fe1c	0.21971935
71	0x3e29e0e5	0.16589697
72	0xbdc54dc3	-0.096339725
73	0x3eaef987	0.3417475
74	0x3fb43f08	1.4081736
75	0xbd93857c	-0.072031945
76	0x3f6c5274	0.92313313
77	0xbecfc425	-0.40579334
78	0xbe801c7e	-0.25021738
79	0x3e2e1ffd	0.1700439
80	0x3f3df932	0.74208367
81	0xbd935fd4	-0.07196012
82	0x3dfc222e	0.12311207
83	0xbf5d2e61	-0.86398894
84	0x3d6c4d2c	0.057690784
85	0xbea1fdaa	-0.31638843
86	0x3f38abc6	0.72137105
87	0xbd905675	-0.0704774
88	0x3e5fb79e	0.21847388
89	0x3f8d6911	1.1047689
90	0xbe938fdb	-0.2882069
91	0xbc90f5d4	-0.017695345
92	0xbf0bf2c1	-0.5466729
93	0x3eba415e	0.36377996
94	0xbeed69df	-0.46369836
95	0xbea4cd2c	-0.32187784
96	0xbee29ca2	-0.44260126
97	0x3de1757f	0.11008739
98	0xbf0524aa	-0.5200907
99	0x3e376c45	0.17912395
100	0x3d8be6fd	0.06831167
101	0xbdaf138c	-0.0854865
102	0xbdb02363	-0.086004995
103	0xbf3072df	-0.6892528
104	0xbd8f2e3b	-0.0699124
105	0x3df1d454	0.118080765
106	0xbcd3b56a	-0.02584334
107	0xbe82079d	-0.25396433
108	0xbd8ab252	-0.06772293
109	0x3e976cd5	0.2957522
110	0x3e3cdd3f	0.18443774
111	0x3efd2fd3	0.4945055
112	0x3f2b2287	0.6684956
113	0xbfb3fbd5	-1.4061228
114	0x3eb738ac	0.35785425
115	0x3ee14084	0.43994534
116	0x3ec4fb86	0.38473147
117	0xba956380	-0.0011397451
118	0xbed35a7a	-0.41279966
119	0xbea1f127	-0.31629297
120	0xbe37039f	-0.17872475
121	0x3eb54385	0.35403076
122	0xbf5bfc93	-0.8593227
123	0xbdc8742e	-0.097877845
124	0xbe6a76e7	-0.2289692
125	0xbe890cbe	-0.26767534
126	0xbeed2c09	-0.4632266
127	0x3d1cb239	0.038255904
128	0x3e8d1a1c	0.27558982
129	0x3d669196	0.056291185
130	0xbe311d9c	-0.17296451
131	0xbfbe53c9	-1.4869319
132	0x3e15fe7e	0.14647862
133	0xbe4c222a	-0.19934908
134	0xbf8917c9	-1.0710384
135	0xbd3c8a42	-0.04603029
136	0x3e7ab81f	0.24484299
137	0x3f835fbf	1.0263594
138	0xbd7a3693	-0.061087202
139	0x3f0e0368	0.5547395
140	0xbf8ea3f1	-1.1143781
141	0xbc93fdd2	-0.018065367
142	0xbf29d1d6	-0.6633581
143	0xbf2f009b	-0.683603
144	0xbf02dab6	-0.51114976
145	0x3e9b5daf	0.30344912
146	0x3e9cf490	0.30655336
147	0xbea4aaf1	-0.32161668
148	0xbd764fa3	-0.06013454
149	0xbf385410	-0.7200327
150	0xbeff7dca	-0.49900657
151	0xbdbaa18d	-0.091128446
152	0xbef67f1f	-0.4814386
153	0xbecc1cbd	-0.39865676
154	0x3e5c58a6	0.21518192
155	0xbf8c3fff	-1.095703
156	0xbc8244b3	-0.015901899
157	0x3ea5377a	0.32268888
158	0x3ea614e5	0.32437816
159	0xbe8bf2fc	-0.2733382
160	0xbd0b2b16	-0.033976637
161	0xbf09a5c4	-0.53768563
162	0xbe70fe80	-0.23534584
163	0x3d087c1d	0.03332149
164	0xbf4af3cd	-0.7927826
165	0xbd29fdfe	-0.04150199
166	0x3f346871	0.70471865
167	0xbf6069db	-0.8766152
168	0x3eed8a00	0.46394348
169	0xbddded15	-0.108362354
170	0xbf265786	-0.649773
171	0x3e36c7f3	0.17849712
172	0x3e7d830d	0.24757023
173	0x3e66d43e	0.22541901
174	0x3da0d9fa	0.07854076
175	0x3d0a282d	0.03372972
176	0xbf4852b2	-0.78251183
177	0xbe94004a	-0.2890647
178	0x3dc36f86	0.09542756
179	0xbf654950	-0.8956499
180	0xbda3d5b5	-0.07999746
181	0xbf1e9fa6	-0.61962354
182	0xbde1bf55	-0.11022822
183	0x3e9ca954	0.30597937
184	0x3e5b0f36	0.21392521
185	0xbf770d65	-0.96504813
186	0x3e79078a	0.24319282
187	0x3eaf7c25	0.34274402
188	0x3ecec9f8	0.40388465
189	0x3eb2b75d	0.3490552
190	0xbecc8be0	-0.39950466
191	0x3ec051c0	0.3756237
192	0x3e91ca4a	0.28474647
193	0x3ee80cd5	0.4532229
194	0x3ec74609	0.3892062
195	0x3ec55934	0.3854462
196	0x3e86c7ce	0.26324314
197	0x3ed3b813	0.41351375
198	0xbdfd4097	-0.12365835
199	0x3e9e7161	0.30945876
200	0xbf8a87be	-1.0822675
201	0xbe92e3f0	-0.28689528
202	0x3e06ce2b	0.13164584
203	0xbeb2b112	-0.3490072
204	0x3da08a54	0.07838884
205	0xbf177c1a	-0.5917374
206	0xbeb6e80c	-0.35723913
207	0xbe5cbc43	-0.21556191
208	0xbd7ed3a2	-0.062213548
209	0x3f131750	0.5745745
210	0xbd77e3bf	-0.06051993
211	0x3ea74297	0.32667992
212	0x3f964eba	1.1742775
213	0x3e5cdc5c	0.21568435
214	0xbe581207	-0.21100627
215	0xbf5a1c30	-0.8519926
216	0xbe8c27f0	-0.2737422
217	0xbd00a3d5	-0.031406242
218	0xbf05f0cf	-0.5232057
219	0x3ed5f217	0.41786262
220	0xbe287174	-0.16449529
221	0xbf0e4351	-0.55571467
222	0xbcfbb61e	-0.030726489
223	0xbd81acd5	-0.06331793
224	0xbf851ce4	-1.0399442
225	0xbd31f3e7	-0.043445494
226	0x3e08a90d	0.13345738
227	0x3f8843fd	1.0645748
228	0xbef8f034	-0.4862076
229	0x3eceb83b	0.40374932
230	0xbeb31beb	-0.34982237
231	0xbeae7b3d	-0.34078398
232	0xbda02294	-0.07819095
233	0xbe8f46c5	-0.2798368
234	0x3ef90eb5	0.48644033
235	0x3eff9c02	0.49923712
236	0xbf2bbe9b	-0.67087716
237	0x3e5d439b	0.2160782
238	0x3e8247aa	0.254453
239	0x3f83df03	1.0302433
240	0xbe331e34	-0.1749199
241	0xbed5883e	-0.41705507
242	0xbf41fb7f	-0.7577438
243	0x3efe43c2	0.4966107
244	0xbe7a43be	-0.24439904
245	0xbdb158a1	-0.08659483
246	0x3cab4546	0.020907056
247	0xbf322401	-0.6958619
248	0xbf145fff	-0.5795898
249	0xbb87568e	-0.004130191
250	0x3ee56c5a	0.44809228
251	0xbf16caee	-0.58903396
252	0xbe29f1fa	-0.16596213
253	0x3e85cf5b	0.26134762
254	0xbe49776b	-0.1967446
255	0x3e150f0d	0.14556523

net.0.bias f4 [256]
0	0xbf0e7719	-0.5565048
1	0x3f71b387	0.9441456
2	0x3dd62b5c	0.10457489
3	0xbea60ec6	-0.32433146
4	0x3e305594	0.17220145
5	0xbd976b8f	-0.07393562
6	0x3de5fbd6	0.112296745
7	0xbf50670c	-0.8140724
8	0xbf76e97e	-0.9645003
9	0x3d8bda48	0.06828743
10	0x3e1d836a	0.15382162
11	0xbe83adaa	-0.25718433
12	0xbe298a4e	-0.16556665
13	0xbf26ca15	-0.651521
14	0x3cdb5fc4	0.026779063
15	0x3ec5e5c9	0.38651875
16	0xbe8d828f	-0.2763867
17	0x3ed766bf	0.42070577
18	0x3e284420	0.16432238
19	0x3ed7b954	0.42133582
20	0x3e58c131	0.21167447
21	0x3f31030d	0.6914528
22	0x3e1e75a3	0.15474562
23	0xbd8a0d78	-0.0674085
24	0x3f8570c8	1.0425043
25	0x3e01f2e6	0.12690315
26	0x3f5755e7	0.8411545
27	0x3ea0f120	0.31433964
28	0x3f9b2aea	1.2122471
29	0x3f3f60a0	0.74756813
30	0xbf3d3587	-0.739098
31	0xbf25e1f9	-0.6479793
32	0x3e9a2707	0.301079
33	0x3d72b792	0.059257098
34	0x3f27652d	0.65388757
35	0xbe7c91a2	-0.2466493
36	0x3ed9e6c0	0.4255886
37	0xbf2878c8	-0.658093
38	0xbe6299cb	-0.2212898
39	0xbe6f5c13	-0.23374967
40	0xbf298b41	-0.6622811
41	0xbdab1576	-0.08353703
42	0x3e386541	0.18007375
43	0xbfaf9099	-1.3716003
44	0xbf32a016	-0.6977552
45	0x3f49b6b1	0.7879439
46	0xbd272529	-0.040806923
47	0x3e9211fb	0.28529343
48	0xbf19a36a	-0.60014975
49	0xbef38772	-0.47564274
50	0xbe8bf4a0	-0.27335072
51	0xbf081229	-0.5315271
52	0xbef4a69c	-0.47783363
53	0xbeb7b0fc	-0.35877216
54	0xbebcd375	-0.3688008
55	0xbeaba474	-0.33523905
56	0x3d8a7e80	0.06762409
57	0xbc4d17c9	-0.012517878
58	0xbe25cb9b	-0.1619095
59	0xbf5ebe7a	-0.87009394
60	0x3eaf3fe2	0.34228426
61	0x3e53df5f	0.20690678
62	0x3db44795	0.08802716
63	0xbe246919	-0.16055717
64	0x3d6a65fa	0.05722616
65	0x3e534521	0.2063184
66	0xbd9604f3	-0.07325163
67	0xbf69fd04	-0.91401696
68	0xbf7d15cf	-0.988614
69	0x3f8a311c	1.0796237
70	0x3e9459cd	0.28974763
71	0xbd80bd5e	-0.06286119
72	0xbf0432ae	-0.5163983
73	0xbe91785b	-0.28412136
74	0xbdc9947e	-0.09842776
75	0x3f157027	0.58374256
76	0x3ea524cf	0.32254645
77	0xbf187da6	-0.59566724
78	0xbe0d8763	-0.13821177
79	0x3ed5c2e8	0.41750264
80	0xbf2b8fa9	-0.67016083
81	0xbe9836c9	-0.29729298
82	0xbe0d32a7	-0.13788854
83	0xbf1435a5	-0.57894355
84	0xbf7fca7f	-0.9991836
85	0xbdc79cf6	-0.09746735
86	0xbe5bf6a4	-0.21480805
87	0xbda7695a	-0.08174391
88	0xbf718e33	-0.94357604
89	0x3f5106f4	0.81651235
90	0xbee53be3	-0.44772252
91	0x3f6cad22	0.9245168
92	0xbe84d702	-0.25945288
93	0x3f99ae8b	1.2006391
94	0x3fa48ed9	1.2856094
95	0x3ec66726	0.3875057
96	0xbf652071	-0.89502627
97	0xbbcad404	-0.006189825
98	0x3ea65879	0.32489374
99	0xbd47ba0f	-0.048761424
100	0x3daf5306	0.08560757
101	0xbec8cb8a	-0.39217788
102	0x3db8cd42	0.09023525
103	0xbf545f1a	-0.82957613
104	0x3e9d3494	0.30704176
105	0xbeb93c67	-0.36178896
106	0xbe89b5ea	-0.26896602
107	0xbe156261	-0.1458831
108	0xbd09fe91	-0.03369004
109	0xbeb09426	-0.34488028
110	0x3d590b20	0.052989125
111	0xbf3d2777	-0.73888344
112	0xbec4ea1a	-0.38459855
113	0x3e027655	0.12740453
114	0xbe12321a	-0.14276925
115	0x3f60f49d	0.8787325
116	0x3e4a962c	0.19783849
117	0xbeee6b35	-0.46566167
118	0x3f12d84e	0.57361305
119	0xbe9f4899	-0.31110075
120	0xbe92a3d2	-0.2864061
121	0x3de90074	0.113770396
122	0x3e71fd93	0.23631887
123	0xbf2c2e23	-0.672579
124	0x3e7fa1db	0.24964087
125	0xbe263a0e	-0.16233084
126	0xbf5a7e45	-0.8534892
127	0x3e2ca8ed	0.16861315
128	0x3f1b4597	0.6065306
129	0xbf32f9b1	-0.6991225
130	0xbee854b5	-0.45377126
131	0xbdc01126	-0.09378271
132	0x3e5c64d2	0.21522835
133	0xbf61ef9e	-0.8825625
134	0xbe65a31c	-0.22425503
135	0xbbb3d96b	-0.0054885647
136	0x3f903720	1.1266823
137	0xbf287288	-0.6579976
138	0xbf2fa114	-0.6860516
139	0x3f5f4037	0.8720736
140	0x3dbd7579	0.09250922
141	0x3d689306	0.056780837
142	0x3f69bcf0	0.9130392
143	0xbf430747	-0.7618298
144	0x3e28c7a5	0.16482408
145	0x3d9e8ff2	0.07742299
146	0xbf49253a	-0.7857243
147	0xbed7752a	-0.42081577
148	0x3e7a6851	0.24453856
149	0xbf22ebc5	-0.63641006
150	0x3dfe3174	0.12411776
151	0x3dfc902f	0.12332188
152	0xbf561f35	-0.8364137
153	0xbfa6fbc2	-1.304558
154	0xbef68d08	-0.48154473
155	0xbe687fc0	-0.22704983
156	0x3e1f524f	0.15558742
157	0x3e8c328a	0.27382308
158	0xbd4deb4b	-0.05027322
159	0xbf4bf5dd	-0.7967203
160	0xbc81e727	-0.015857292
161	0xbee53f26	-0.4477474
162	0x3f124ea9	0.57151276
163	0xbea3de10	-0.32005358
164	0x3e6eafd9	0.23309268
165	0xbf1be331	-0.6089354
166	0x3f28dc4c	0.65961146
167	0x3f0e3df6	0.55563295
168	0x3e5791c4	0.21051699
169	0xbf2890a9	-0.65845734
170	0xbf7bbdea	-0.9833666
171	0x3dd5697b	0.104205094
172	0xbf635218	-0.8879714
173	0xbee79e70	-0.45238066
174	0x3f440529	0.76570374
175	0xbf24938b	-0.6428763
176	0xbebc4fd7	-0.36779663
177	0x3f2b23cb	0.6685149
178	0x3c09c81c	0.008409526
179	0xbf45105b	-0.7697808
180	0x3f951fe3	1.1650356
181	0xbf4e88a9	-0.80677277
182	0x3ea969c1	0.33088496
183	0xbf35031b	-0.70707864
184	0xbd908366	-0.07056312
185	0xbdc97f5d	-0.09838746
186	0xbf0fb230	-0.5613127
187	0xbe911d8f	-0.28342864
188	0xbed10700	-0.40825653
189	0xbdc8405c	-0.097779006
190	0xbf5dc5f3	-0.8663017
191	0xbf53df00	-0.82762146
192	0xbe83c755	-0.25738016
193	0xbe817132	-0.25281674
194	0xbe09462c	-0.13405675
195	0x3ee8377c	0.4535483
196	0xbee16589	-0.44022778
197	0x3ec9915c	0.39368713
198	0x3c53010f	0.01287867
199	0x3e9550e8	0.2916329
200	0xbed6bbc3	-0.41940126
201	0x3f1a8d91	0.60372263
202	0xbe4f2cb8	-0.20231903
203	0xbf08a5b5	-0.5337785
204	0x3eaed2a6	0.34145087
205	0xbf392fdf	-0.7233867
206	0x3ea503f3	0.32229576
207	0xbf0978cb	-0.5369994
208	0x3ea91f3c	0.33031642
209	0xbe230883	-0.15921216
210	0xbf3eda84	-0.7455218
211	0xbebe39da	-0.37153512
212	0xbcd3dfdb	-0.025863579
213	0x3e9d71ab	0.30750784
214	0xbf522bea	-0.8209826
215	0x3d2c0726	0.041999005
216	0xbe7f0682	-0.24904826
217	0xbdd3c13c	-0.10339591
218	0xbf5a891d	-0.8536547
219	0xbf3292a0	-0.6975498
220	0xbf27a76b	-0.65489835
221	0xbeda6958	-0.42658496
222	0x3f241361	0.6409207
223	0xbf8f91c5	-1.121636
224	0xbedc4aab	-0.43025717
225	0x3eb7d178	0.35902
226	0xbf55ecd1	-0.8356448
227	0xbef434a0	-0.476964
228	0xbf00f5ce	-0.5037507
229	0x3f9ca29b	1.2237123
230	0x3e996c15	0.29965273
231	0xbebc7abe	-0.36812395
232	0x3f1808a8	0.5938821
233	0x3cda3e16	0.026640933
234	0x3eac60aa	0.336675
235	0xbe87a63b	-0.2649401
236	0xbe353aeb	-0.17698257
237	0xbf5860a6	-0.84522474
238	0xbedfcb67	-0.4370987
239	0xbeacc655	-0.33745065
240	0x3d5e679e	0.054298036
241	0x3ef103a2	0.47073084
242	0x3e1d403b	0.15356533
243	0xbf17fca4	-0.59369874
244	0xbdfbba6e	-0.12291418
245	0xbd944903	-0.072404884
246	0x3d9bed8a	0.07613666
247	0xbec19644	-0.37809956
248	0x3e96d4dd	0.29459277
249	0xbf39e9d4	-0.7262242
250	0x3e98e84e	0.29864734
251	0x3efd0894	0.49420607
252	0xbec2f988	-0.38081002
253	0xbf643c8b	-0.8915488
254	0xbf076405	-0.5288699
255	0xbf4004fd	-0.7500761

net.2.weight f4 [256, 256]
0	0xbc20b74d	-0.009809327
1	0x3dc3c11b	0.09558316
2	0x3affae4e	0.0019506903
3	0x3d4db951	0.05022556
4	0xbe093b0f	-0.13401435
5	0x3b24ef10	0.0025166906
6	0x3a33db49	0.0006860984
7	0x3cc31215	0.023812333
8	0x3da17609	0.078838415
9	0x3e06e970	0.13174987
10	0xbdf757ba	-0.120772794
11	0x3d61647d	0.055027474
12	0xbd5a40b6	-0.05328437
13	0x3db2870c	0.087171644
14	0x3d6733fb	0.056446057
15	0x3c4f6e49	0.012660571
16	0xbbe05f30	-0.0068472847
17	0xbdc1ead5	-0.09468619
18	0x3c184940	0.009294808
19	0xbdd41a70	-0.10356605
20	0x3d03e1f5	0.03219791
21	0xbd1a3af3	-0.037653875
22	0xbdac3b22	-0.08409716
23	0xbd8289f1	-0.063739665
24	0xbd1978ce	-0.037468724
25	0xbce510d5	-0.027962128
26	0xbcb0a16b	-0.021561345
27	0x3d1f87a1	0.038947705
28	0xbd6520ca	-0.055939473
29	0xbd82edf8	-0.06393045
30	0x3a91a26d	0.0011111029
31	0xbd50271b	-0.050818544
32	0x3d60df8d	0.054900695
33	0xbc35286f	-0.011057003
34	0xbca215cc	-0.019785784
35	0xbcfb0a1f	-0.030644475
36	0x3b8468f8	0.0040408336
37	0x3cfb11e1	0.030648174
38	0x3cafdaa4	0.02146656
39	0xbdc15cba	-0.09441514
40	0x3d86871b	0.06568738
41	0xbc631777	-0.013860575
42	0x3dd6e07d	0.104920365
43	0xbb1ec4c3	-0.0024226166
44	0x3d166d5f	0.0367254
45	0xbdb9885f	-0.09059214
46	0x3d9b6c6a	0.07589038
47	0xbda66076	-0.08123867
48	0x3da17b69	0.07884867
49	0x3de06166	0.10956077
50	0x3daf6800	0.08564758
51	0x3d3302a0	0.043703675
52	0x3d6fc9c0	0.058542013
53	0x3d7a4eb9	0.061110232
54	0x3d3cc65b	0.046087604
55	0x3d4bec91	0.049786154
56	0x3cd2ce9b	0.025733283
57	0xbd3b7e2b	-0.04577462
58	0x3cdf2c7f	0.027242897
59	0x3d574023	0.0525514
60	0xbda32e42	-0.07967807
61	0x3c9fb77c	0.019496672
62	0x3d18815e	0.03723275
63	0x3d0961d6	0.03354057
64	0xbd67cb0e	-0.056590132
65	0xbc911780	-0.017711401
66	0xbd28325d	-0.041063655
67	0x3d664ff9	0.05622861
68	0xbc02e96e	-0.007990224
69	0xbcb7052e	-0.022341337
70	0xbd0d9484	-0.034565464
71	0xbd89f807	-0.067367606
72	0x3d9c85bc	0.07642695
73	0x3d278662	0.04089964
74	0x3dd30f7d	0.103056885
75	0x3b877f1a	0.0041350247
76	0xbc43c81d	-0.011949566
77	0x3cad5c5a	0.0211622
78	0x3cc68a61	0.024235906
79	0xbd0b2b6d	-0.03397696
80	0xbd940feb	-0.072295986
81	0x3cf165cb	0.029467484
82	0xbda4ff46	-0.08056502
83	0x3e15c13d	0.14624496
84	0xbd742a7a	-0.05961082
85	0xbd90ba3d	-0.07066772
86	0xbd27d731	-0.040976707
87	0x3d086428	0.03329864
88	0xbd50b3a4	-0.05095257
89	0xbd1c5439	-0.03816626
90	0xbd4b17d2	-0.049583264
91	0x3bfef51d	0.0077806846
92	0x3d028dd6	0.031873547
93	0x3c49e339	0.0123222405
94	0x3d747aac	0.0596873
95	0xbd7401c0	-0.05957198
96	0x3ba00431	0.004883312
97	0xbd820855	-0.063492455
98	0xbd70ec7a	-0.05881927
99	0x3c5626b6	0.013070753
100	0x3d1cf945	0.03832366
101	0xbd79ddf7	-0.061002698
102	0x3d774f79	0.060378525
103	0x3cccde5c	0.025008373
104	0x3d2b4849	0.041816983
105	0xbca2f402	-0.019891743
106	0xbcac44c2	-0.02102888
107	0xbc8b3429	-0.016992645
108	0xbc83d220	-0.016091406
109	0x3d2e2763	0.04251803
110	0x3d446f50	0.04795772
111	0x3da385ad	0.07984481
112	0x3c4d08d1	0.012514309
113	0x3cedacbe	0.029013034
114	0xbc979910	-0.018505603
115	0x3c899535	0.01679478
116	0xbd6a25d5	-0.057164986
117	0x3bfafd11	0.0076595624
118	0xbd03c5b1	-0.032170955
119	0x3b368d31	0.0027855153
120	0x3d16b773	0.036796045
121	0x3c812cec	0.01576849
122	0x3d3a34f9	0.045460675
123	0x3bf04376	0.0073322607
124	0x3bc4fe8e	0.0060117906
125	0xbdd6fa8c	-0.10497007
126	0x3beda37a	0.007252154
127	0xbbd9e903	-0.0066500916
128	0x3c977433	0.018488025
129	0x3c527af0	0.012846693
130	0x3bfb46f2	0.0076683694
131	0x3b029deb	0.0019930552
132	0xbd3fc114	-0.046814993
133	0x3d988476	0.0744714
134	0xbd5afcfb	-0.053463917
135	0x3c3ede26	0.011649644
136	0xbe2651eb	-0.16242187
137	0x3d11821e	0.03552448
138	0x3b3f8328	0.0029222462
139	0x3d6b8ff5	0.057510335
140	0x3cdcc20b	0.026947996
141	0x3bae08d7	0.0053111124
142	0x3dbd18a1	0.09233213
143	0x3c8e57f3	0.017375922
144	0xbd2c9983	-0.042138588
145	0x3c3514a2	0.0110522825
146	0x3bb55bcd	0.005534625
147	0xbc25bfef	-0.010116561
148	0x3d1be464	0.038059607
149	0x3d400592	0.046880312
150	0xbcead392	-0.028665338
151	0xbcc7d13b	-0.024391761
152	0x3cf4f717	0.029902978
153	0x3d27a285	0.040926475
154	0xbd6862ca	-0.056734838
155	0x3cac51b8	0.02103506
156	0xbd62513e	-0.05525326
157	0xbe07da2b	-0.13266818
158	0x3c33f2c9	0.010983177
159	0x3ddffa6f	0.10936438
160	0xbd81bb6d	-0.06334577
161	0x3ca6d8d1	0.020367058
162	0xbdc2b2f4	-0.09506789
163	0x3d604428	0.0547525
164	0x3c8284ec	0.015932523
165	0x3da9e229	0.0829509
166	0xbcbe41bd	-0.023224706
167	0xbb1e1493	-0.002412115
168	0x3cd36ba3	0.025808161
169	0x3cb82139	0.02247678
170	0x3d70b474	0.058765844
171	0xbba49788	-0.0050229467
172	0x3b00d7b8	0.0019659828
173	0x3cb08781	0.021548988
174	0x3c5c460c	0.013444435
175	0xbc0ce931	-0.008600519
176	0xbcb36f46	-0.021903645
177	0xbd715b4d	-0.05892496
178	0xbd5dd108	-0.054154426
179	0x3d30cba7	0.043162968
180	0x3d10fa76	0.03539511
181	0x3d9c7967	0.07640343
182	0x3d98ea1e	0.07466529
183	0x3d6b6026	0.05746474
184	0x3c49c4d4	0.012314994
185	0x3c8e9084	0.017402895
186	0x3d783d57	0.060605373
187	0x3dcd7ff8	0.10034174
188	0x3bdb1747	0.0066861245
189	0x3d7dff0a	0.062010802
190	0x3c770f58	0.015079342
191	0x3ddf875b	0.10914489
192	0xbc8371ae	-0.016045418
193	0xbd0aa9aa	-0.03385321
194	0xbd2c8d6d	-0.04212706
195	0xbe151137	-0.14557348
196	0xbcd1c224	-0.025605269
197	0xbd39248a	-0.045200862
198	0xbd9224dc	-0.071359366
199	0x3cba0794	0.022708692
200	0x3d90ff5f	0.07079958
201	0xbd30b5d3	-0.04314215
202	0xbc60eef4	-0.013728846
203	0x3d98982f	0.07450902
204	0xbd74afed	-0.05973809
205	0x3dc8eaac	0.09810385
206	0x3d654191	0.055970732
207	0x3c3dadda	0.011577094
208	0x3d3cc13b	0.046082716
209	0x3cd41b22	0.025891844
210	0x3d90702e	0.070526466
211	0x3c844475	0.016145924
212	0xbd4125bd	-0.04715513
213	0xbd70f11a	-0.058823682
214	0x3cd3fa3c	0.025876157
215	0xbd0a49de	-0.03376185
216	0xbcf7531b	-0.030190995
217	0xbc8ce730	-0.017200083
218	0x3dbb3303	0.09140589
219	0x3bc500d2	0.0060120607
220	0xbd2053a1	-0.039142255
221	0xbd872997	-0.065997295
222	0x3dc095bf	0.09403562
223	0xbd153f73	-0.036437463
224	0xbb804b6a	-0.00391524
225	0xbcf3428c	-0.029694818
226	0x3db28026	0.087158486
227	0xbaeb74f3	-0.0017963931
228	0x3d33d37d	0.043902863
229	0x3d07e150	0.03317386
230	0xbd168209	-0.036745105
231	0x3d7e48c6	0.06208112
232	0x3d0abaf2	0.03386969
233	0x3d3162aa	0.043306984
234	0x3b8f5972	0.0043746764
235	0x3ccb9053	0.024849093
236	0x3c5100d2	0.012756543
237	0x3c9b3ca0	0.018949807
238	0xbd8da102	-0.069154754
239	0xbcdf9e97	-0.027297301
240	0x3cd76ff4	0.0262985
241	0xbde2bda8	-0.1107133
242	0x3d08ac21	0.03336728
243	0x3b21e500	0.0024703145
244	0xbcb586a8	-0.022158936
245	0xbb24a47c	-0.0025122454
246	0x3d23dd53	0.040005993
247	0x3d667cd4	0.05627139
248	0x3d98bdd3	0.07458081
249	0x3d03abf8	0.032146424
250	0xbc28ffd9	-0.010314905
251	0xbe052fee	-0.13006565
252	0x3df027cb	0.1172634
253	0x3da6645f	0.08124613
254	0x3d6abf31	0.05731124
255	0x3e23c825	0.15994318

net.2.bias f4 [256]
0	0x3bc297e6	0.005938518
1	0xbd5b57cb	-0.053550523
2	0xbd924ecd	-0.07143936
3	0x3a71d959	0.0009225808
4	0xbcce078a	-0.02515008
5	0xbde12aff	-0.10994529
6	0xbd8b9160	-0.068148375
7	0xbdda6b9b	-0.10665055
8	0xbd098c92	-0.033581324
9	0xbd0c95f7	-0.034322705
10	0xbd513046	-0.051071428
11	0xbdb086e9	-0.08619482
12	0xbc2e8815	-0.010652562
13	0xbc0bb2e7	-0.00852654
14	0xbd8cb873	-0.068711184
15	0xbc9c34d1	-0.019068154
16	0xbb9256de	-0.004465922
17	0xbd26ab23	-0.040690552
18	0xbdb32c7d	-0.0874872
19	0xbdc8771d	-0.09788344
20	0xbdc0d305	-0.09415249
21	0x3cde54e9	0.027140098
22	0xbd8ddb20	-0.069265604
23	0xbe327c19	-0.17430152
24	0xbd3376b2	-0.04381437
25	0xbd0f6047	-0.035003927
26	0xbdef5a23	-0.11687114
27	0xbd625d2f	-0.055264648
28	0xbc4ca0c1	-0.012489499
29	0xbdaf934a	-0.08573015
30	0x3bdd450b	0.0067526153
31	0xbd22de64	-0.03976287
32	0xbda9f893	-0.08299365
33	0xbc950a44	-0.018193372
34	0xbdda4c6f	-0.1065911
35	0xba86f198	-0.0010295389
36	0xbc912413	-0.017717397
37	0xbc851148	-0.016243592
38	0xbcbaf191	-0.022820266
39	0xbd10d99a	-0.03536377
40	0xbdd2e967	-0.10298424
41	0xbdda5fed	-0.10662828
42	0xb9701aa8	-0.00022898114
43	0xbdeb0cdb	-0.11477061
44	0xbcaed124	-0.02133996
45	0xbc4d7aaf	-0.012541457
46	0xbd65bf82	-0.05609084
47	0xbd3e4d76	-0.04646059
48	0xbdb77de2	-0.08959557
49	0xbd63e30e	-0.055636458
50	0xbd2f3f60	-0.04278505
51	0xbdd17929	-0.102281876
52	0xbda66946	-0.08125548
53	0xbdf74644	-0.12073949
54	0xbe0df25a	-0.13861981
55	0x3c4430ca	0.011974523
56	0xbdb1b580	-0.086771965
57	0xbd8f7387	-0.07004457
58	0xbb35302f	-0.0027647128
59	0xbd92616c	-0.07147488
60	0x3d991e9e	0.07476543
61	0xbdba20f2	-0.09088315
62	0xbdad6173	-0.084658526
63	0xbdf2d8d0	-0.1185776
64	0xbd10ce15	-0.035352785
65	0xbca84690	-0.02054146
66	0xbcccfd68	-0.025023177
67	0xbc19ed7c	-0.009395
68	0xbcd3ccf2	-0.025854561
69	0xbc0bbc1a	-0.008528734
70	0xbd5e96ef	-0.05434316
71	0xbd9a96ac	-0.0754827
72	0xbcb9aa4d	-0.022664214
73	0xbd93c585	-0.07215408
74	0xbd610e16	-0.054945074
75	0xbd79c140	-0.060975313
76	0xbdded62f	-0.10880696
77	0x3c29a5a7	0.010354436
78	0xbc8cbf75	-0.017181138
79	0xbce95a7f	-0.028485535
80	0xbe0df56c	-0.13863152
81	0xbd17b104	-0.03703405
82	0xbdb71c5b	-0.08940955
83	0xbd7f6f2f	-0.062361892
84	0xbdbd4868	-0.09242326
85	0xbc5fe83c	-0.013666209
86	0xbcbbb1fb	-0.022912016
87	0xbd0cc7c5	-0.034370203
88	0xbe089609	-0.13338484
89	0xbdd404b6	-0.10352461
90	0xbdd73bf1	-0.1050948
91	0xbd86a7bd	-0.06574962
92	0xbd98a61f	-0.0745356
93	0x3d0f6748	0.035010606
94	0xbdb75799	-0.08952255
95	0xbcb6cb08	-0.02231361
96	0xbd45d1ef	-0.04829591
97	0x3c2974f7	0.010342828
98	0xbcab9a61	-0.020947637
99	0xbdadb43d	-0.08481643
100	0xbcfd3c72	-0.030912612
101	0xbd3291ae	-0.043595962
102	0xbd4e46f5	-0.05036064
103	0xbd1a462a	-0.03766457
104	0xbd30d0d2	-0.043167897
105	0xbd3cdd59	-0.04610953
106	0xbd071027	-0.03297439
107	0xbd2ca633	-0.042150687
108	0xbe109a6e	-0.1412141
109	0xbcb465d6	-0.022021215
110	0xbd841624	-0.064495355
111	0xbd6e911e	-0.058243863
112	0xbd50db0d	-0.050990153
113	0xbdca2965	-0.09871177
114	0xbd362c03	-0.044475567
115	0xbd06b0c0	-0.032883406
116	0x3bb55959	0.0055343327
117	0xbddf10a1	-0.108918436
118	0xbc359c4e	-0.011084629
119	0x3b073ca2	0.0020635505
120	0xbc93b8b4	-0.01803241
121	0xbdbe57c3	-0.09294083
122	0xbda09d51	-0.07842506
123	0xbc3753a5	-0.011189376
124	0xbc4ce242	-0.012505116
125	0xbc993c56	-0.018705528
126	0xbdb227a2	-0.086989656
127	0xbdb9aea0	-0.0906651
128	0xbd2126ed	-0.039343763
129	0xbbba87b7	-0.005692448
130	0xbdd4ca93	-0.103902005
131	0xbd0da309	-0.03457931
132	0xbdcbcaad	-0.09950767
133	0xbd39a58e	-0.0453239
134	0xbd3f5730	-0.046714008
135	0x3d4eaea4	0.05045952
136	0xbdbe522e	-0.09293018
137	0xbd01fa0a	-0.031732596
138	0xbcb1fc73	-0.021726822
139	0x3c48b0bd	0.012249169
140	0x3d8ed28d	0.06973753
141	0xbd24dfaa	-0.040252365
142	0x3d265977	0.040612664
143	0x3c383bd0	0.011244729
144	0x3cada8fe	0.021198746
145	0xbd7ebb89	-0.062190566
146	0xbe4e9c1a	-0.20176736
147	0x3e254d9e	0.1614289
148	0xbc308e29	-0.010776081
149	0xbc7ff191	-0.015621559
150	0xbc98e865	-0.018665502
151	0xbd35468a	-0.044256724
152	0xbd75351b	-0.0598651
153	0xbd5db14b	-0.054124158
154	0x3c2a2d85	0.010386829
155	0xbd11b5e4	-0.035573855
156	0xbdcb518a	-0.09927662
157	0xbde1e376	-0.11029713
158	0xbdd29421	-0.102821596
159	0x3abc8736	0.0014383558
160	0x3aa36930	0.0012467261
161	0x3cf9095e	0.030399974
162	0x3c8f6a15	0.017506639
163	0xbdb770be	-0.08957051
164	0xbd8c87a3	-0.06861808
165	0x3d54114f	0.05177432
166	0xbde76d2e	-0.11300121
167	0xbcebe609	-0.028796213
168	0x3b9c989e	0.0047789356
169	0xbce71399	-0.028207587
170	0xbcfc1b8e	-0.030774858
171	0xbd32c84a	-0.04364804
172	0xbc1029b2	-0.008799003
173	0xbdb3a617	-0.087719135
174	0xbd530fd7	-0.051528778
175	0xbe02e7bf	-0.12783717
176	0xbca14fe4	-0.019691415
177	0xbdf73d61	-0.12072254
178	0xbcfd1d13	-0.030897653
179	0xbd5489e0	-0.0518893
180	0xbd266ced	-0.040631223
181	0xbdafbc29	-0.085808106
182	0xbc3617d7	-0.011114082
183	0xbcb3e3ea	-0.021959264
184	0xbdb83a49	-0.08995492
185	0xbd3a70c7	-0.04551771
186	0xbdb52522	-0.08844973
187	0xbde5aa6a	-0.112141445
188	0xbc0796d2	-0.008275704
189	0xbd88584d	-0.06657467
190	0xbc881323	-0.016610688
191	0xbd5624fd	-0.05228137
192	0xbc9247f9	-0.017856585
193	0x3c829944	0.015942223
194	0xbd34f00d	-0.044174243
195	0xbce98dc2	-0.028509978
196	0xbc86cf60	-0.016456306
197	0xbdace976	-0.08442967
198	0x3c954850	0.018222958
199	0xbdadc38f	-0.084845655
200	0xbd82b1a2	-0.06381537
201	0xbdbe4b0a	-0.09291656
202	0xbd20df33	-0.03927536
203	0xbd9b3265	-0.07577971
204	0x3d8c6a01	0.06856156
205	0xbd40552b	-0.046956223
206	0xbdf3334b	-0.11875018
207	0xbd7de5cc	-0.06198673
208	0xbce96547	-0.028490676
209	0x3c9ef0c4	0.019401915
210	0xbdf08877	-0.117447786
211	0xbd0c1f83	-0.03420974
212	0xbdd92688	-0.106030524
213	0xbd346f59	-0.044051502
214	0x3c7a1a74	0.015265096
215	0xbd4041e3	-0.046937834
216	0xbe0adf27	-0.13561688
217	0xbd0875fd	-0.033315647
218	0xbd6673b9	-0.056262705
219	0xbc795abf	-0.015219389
220	0x3c728a7e	0.014803527
221	0xbc48e2ae	-0.012261076
222	0x3d113bc3	0.035457384
223	0x3a15afd5	0.00057101
224	0xbc8bd3b3	-0.01706872
225	0x3c8bdc3c	0.01707279
226	0xbb3522fa	-0.0027639256
227	0x3d41ceab	0.047316235
228	0xbd94d8bd	-0.07267902
229	0xbdbf56cd	-0.09342728
230	0xbda20b4d	-0.07912312
231	0xbd919b43	-0.07109692
232	0xbdfa2799	-0.12214584
233	0xbe374618	-0.17897832
234	0xbdc05376	-0.09390919
235	0xbe48a446	-0.19593915
236	0xbcb4c1c9	-0.02206506
237	0xbd4794d3	-0.048725914
238	0xbda4398d	-0.080187894
239	0xbca4ba2c	-0.020108305
240	0xbd451c9f	-0.048123
241	0xbd5705a9	-0.052495632
242	0xbd4bdc30	-0.049770534
243	0x3c8f52ce	0.017495539
244	0xbc1ea6c0	-0.009683311
245	0xbe07eaa6	-0.13273105
246	0xbce3e73d	-0.027820224
247	0xbc8091b5	-0.015694479
248	0xbd3b32db	-0.045702796
249	0xbcaeb4aa	-0.021326382
250	0xbdda7392	-0.106665745
251	0xbd77800c	-0.06042485
252	0xbda8da8f	-0.08244812
253	0xbd1963a2	-0.037448533
254	0xbc8d2d46	-0.017233502
255	0xbcc36bf0	-0.02385518

net.4.weight f4 [256, 256]
0	0xba2a8d56	-0.0006506046
1	0xbd2ceb80	-0.042216778
2	0x3a4313ab	0.00074415904
3	0x3c4d74bf	0.0125400415
4	0xbc59dd43	-0.013297382
5	0x3cd83694	0.026393212
6	0x3d6cec18	0.057842344
7	0x3c360dff	0.011111735
8	0x3d97eef0	0.074186206
9	0x3d3c930e	0.04603868
10	0xbd238727	-0.039923813
11	0x3d8f76e7	0.07005101
12	0xbd41f642	-0.04735399
13	0x3cc85eb5	0.024459222
14	0xbcde7810	-0.02715686
15	0x3c3eee0e	0.011653436
16	0x3d9203d3	0.07129636
17	0x3d7cab5b	0.061686855
18	0x3db696e0	0.08915496
19	0xbd1d9b05	-0.038477916
20	0xbd0a1712	-0.033713408
21	0x3d32cca1	0.04365218
22	0xbe0e4aa4	-0.1389566
23	0x3dc0aae0	0.09407592
24	0x3c7b7a6a	0.01534901
25	0x3c95724c	0.018242978
26	0x393df43c	0.00018115429
27	0x3c5b46d5	0.013383587
28	0x3dcde95b	0.10054275
29	0xbd9b7aac	-0.07591757
30	0x3d30ed1d	0.04319488
31	0xbd04b055	-0.032394726
32	0xbd3f3edd	-0.04669081
33	0xbb924303	-0.004463555
34	0x3d35fc75	0.044430215
35	0x3c8654bb	0.016397825
36	0x3c02da93	0.0079866825
37	0xbd6fef3b	-0.058577757
38	0x3b8c7e78	0.004287537
39	0x3cdb5fd1	0.026779087
40	0x3d251c2b	0.040310066
41	0x3df63321	0.12021471
42	0xbbe5aae0	-0.0070088953
43	0xbd90ba3b	-0.07066771
44	0xbc89e5ee	-0.016833272
45	0xbc828ecf	-0.015937237
46	0xbd168f7e	-0.03675794
47	0xbc919154	-0.017769493
48	0x3d12f738	0.035880297
49	0x3de8b498	0.113625705
50	0x3d2ad1c4	0.041703954
51	0xbd57a121	-0.0526439
52	0x3c21d4aa	0.009877363
53	0xbcabbf34	-0.020965196
54	0x3d17fb63	0.037104975
55	0xbc9ae86a	-0.018909652
56	0x3db9081d	0.090347506
57	0xbcc8d414	-0.02451519
58	0xbd3a893b	-0.04554103
59	0x3c8f5082	0.017494444
60	0xbba7eaca	-0.0051244246
61	0x3ce9a46f	0.02852079
62	0x3dea5d06	0.11443524
63	0x3d3c58bc	0.04598306
64	0xbcd93956	-0.026516598
65	0xbd786be5	-0.06064977
66	0x3d5ef26d	0.054430414
67	0x3c5ae9e4	0.013361428
68	0xbc390514	-0.011292715
69	0x3d38b5cf	0.04509526
70	0x3d790576	0.060796224
71	0x3ca84a7b	0.020543328
72	0x3de3b83b	0.111191235
73	0xbd580b0f	-0.05274492
74	0x3c9061eb	0.017624816
75	0xbd2fcc43	-0.04291941
76	0xbd9a9cc9	-0.07549436
77	0x3de5f489	0.11228282
78	0x3d22966f	0.039694246
79	0x3d495a56	0.049158417
80	0xbd15739b	-0.036487203
81	0xbc55ef4a	-0.013057539
82	0x3d100cd7	0.035168495
83	0xbd96fee0	-0.07372832
84	0xbce914ac	-0.02845224
85	0xbd0e89f0	-0.034799516
86	0x3d235d24	0.039883748
87	0xbd35cf9f	-0.044387456
88	0x3d30d12d	0.043168236
89	0x3d096263	0.033541095
90	0xbd5f7d42	-0.054562815
91	0x3dbc8354	0.09204736
92	0xbc1a94b7	-0.00943487
93	0x3cad602e	0.021164026
94	0xbd44f7db	-0.048087936
95	0x3b10ffff	0.0022125242
96	0x3d645cad	0.055752445
97	0xbd27d02a	-0.040970005
98	0xbc9ebcff	-0.01937723
99	0xbc960097	-0.018310828
100	0x3bf67557	0.007521312
101	0xbd36bff3	-0.04461665
102	0x3cd21fc8	0.02564992
103	0x3929a4a3	0.00016178428
104	0x3b33b07f	0.0027418432
105	0x3cff90f9	0.031197058
106	0xbce05ece	-0.027388956
107	0xbcac345e	-0.021021064
108	0xbd8fdfb3	-0.07025089
109	0x3d2c8dbd	0.04212736
110	0xbc5a9484	-0.013341073
111	0x3c807f28	0.015685633
112	0xbd0e87c0	-0.03479743
113	0xbd4dc460	-0.050236106
114	0x3dce7e77	0.10082715
115	0x3c907111	0.01763204
116	0x3dccec3c	0.10005996
117	0x3c8eac9b	0.01741629
118	0x3d5433fc	0.05180739
119	0x3d8dcb32	0.06923522
120	0x3dcdd65b	0.10050651
121	0x3d12be5e	0.03582608
122	0xbd804962	-0.06263997
123	0x3c2e134c	0.010624718
124	0x3c838ee8	0.016059354
125	0x3dc5ace9	0.096521206
126	0xbac69476	-0.0015150446
127	0x3caae40d	0.020860696
128	0x3db394fa	0.087686494
129	0xbcb5e932	-0.022205923
130	0xbcd481d7	-0.025940819
131	0xbd0485e3	-0.032354247
132	0xbbe4cefb	-0.006982682
133	0xbbf4a20e	-0.0074656075
134	0x3d00a760	0.03140962
135	0x3ccf7c5e	0.025327858
136	0xbd015156	-0.03157171
137	0x3bfc72c7	0.007704112
138	0xbd440005	-0.04785158
139	0xbd2d9066	-0.042374037
140	0xbdc00ebb	-0.093778096
141	0xbc392343	-0.011299911
142	0xbcbf991a	-0.023388434
143	0xbd3a36c0	-0.04546237
144	0xbc589537	-0.013219169
145	0xbc2af167	-0.010433531
146	0xbd806b9b	-0.06270524
147	0xbd314591	-0.043279234
148	0xbd78db5d	-0.060756076
149	0x3c1f58e4	0.009725783
150	0x3cfc2346	0.030778538
151	0x3cae55c8	0.021281138
152	0xbca857ab	-0.020549616
153	0xbdc0971e	-0.09403823
154	0xbc9ff3dd	-0.019525463
155	0x3ce46e64	0.02788467
156	0x3ca616a4	0.020274468
157	0x3c2aa5ae	0.010415478
158	0xbc392c4b	-0.011302064
159	0x3d11be34	0.035581782
160	0x3cf25ef6	0.029586297
161	0x3cd01c0e	0.025404003
162	0x3d875fa5	0.066100396
163	0xbd475340	-0.048663378
164	0xbd046a44	-0.032327905
165	0x3d0bf364	0.034167662
166	0xbd858d12	-0.06521048
167	0x3d2f1f62	0.04275454
168	0x3df27ec0	0.11840582
169	0x3b8c98e9	0.0042906892
170	0xbd86b54b	-0.06577548
171	0x3c580b3a	0.01318627
172	0xbc83702b	-0.016044697
173	0x3cd74f9a	0.026283074
174	0xbcf8b777	-0.03036092
175	0xbca8d102	-0.020607475
176	0x3db5e9c5	0.088824786
177	0x3c4c2585	0.012460117
178	0x3b8fef36	0.00439253
179	0x3df1768d	0.1179019
180	0xbd55e7a4	-0.052222863
181	0xbd8de4d3	-0.069284104
182	0xbcf8d428	-0.030374601
183	0xbd99365a	-0.0748107
184	0xbd3cdda1	-0.0461098
185	0xbd1b1107	-0.037858035
186	0x3dc858d1	0.097825654
187	0xbcf4376b	-0.029811582
188	0x3db7d347	0.08975845
189	0xbd0dd87f	-0.034630295
190	0xbc29fa67	-0.010374642
191	0x3e04add6	0.12956938
192	0xbd092778	-0.033484906
193	0xbd2f3860	-0.042778373
194	0xbd905185	-0.070467986
195	0x3cf6a40d	0.030107522
196	0xbce66b47	-0.028127326
197	0x3ce03551	0.027369173
198	0x3db7528d	0.08951292
199	0x3b0da0d1	0.0021610747
200	0x3e0c1e69	0.13683476
201	0xbbc53827	-0.006018657
202	0x3c798081	0.015228392
203	0xbb96e687	-0.0046051177
204	0xbca7b778	-0.020473227
205	0x3d9f8fa2	0.07791068
206	0x3d05821a	0.032594778
207	0x3bdda6ab	0.006764253
208	0x3d34d87d	0.04415177
209	0x3d690a4a	0.056894578
210	0xbd7493a3	-0.05971111
211	0x3e1277e3	0.14303546
212	0xba3c89e0	-0.0007192176
213	0x3dcb21c1	0.099185474
214	0x3bf64ae9	0.007516254
215	0xbd603bc8	-0.05474451
216	0x3d34028e	0.04394775
217	0xbd6503d6	-0.05591186
218	0x3d0fdcf4	0.035122827
219	0xbd30d2ff	-0.04316997
220	0x3cf29f2d	0.029616917
221	0x3dc0038b	0.09375676
222	0xbbd39623	-0.0064571067
223	0xbcd5fd9f	-0.026121913
224	0x3d2f2b16	0.0427657
225	0x3d221394	0.039569452
226	0x3dd22f66	0.10262947
227	0x3d8939a9	0.06700451
228	0xbd9e51f8	-0.07730478
229	0x3cbb0fb4	0.022834636
230	0x3d7d5742	0.061850794
231	0xbd1d8939	-0.038460944
232	0x3b2243cb	0.0024759646
233	0x3ceded98	0.029043958
234	0xbd73a163	-0.059480082
235	0xbd52744b	-0.051380437
236	0x3c9e0ab0	0.019292206
237	0xbc7112b3	-0.014713931
238	0x3d8b79a4	0.068103105
239	0xbd0756bb	-0.033041697
240	0x3c7680b9	0.015045338
241	0xbced830f	-0.028993158
242	0x3c7e10dd	0.01550695
243	0x3d34c80b	0.04413609
244	0x3dd1a4aa	0.10236485
245	0x3b113ab8	0.0022160243
246	0x3ca1529b	0.01969271
247	0x3d1dfa79	0.038568947
248	0x3dd8e19c	0.105899066
249	0xbcabf0e7	-0.020988895
250	0xbc372c48	-0.011179991
251	0x3cc66cf4	0.024221875
252	0x3ca4d7db	0.02012246
253	0x3c0b3da3	0.008498582
254	0x3d837d2f	0.06420361
255	0xbce909e7	-0.028447105

net.4.bias f4 [256]
0	0xbd1ec2c8	-0.038759977
1	0xbd0961d9	-0.03354058
2	0xbd2cd445	-0.042194624
3	0xbd75824e	-0.05993872
4	0xbcef3d66	-0.029204082
5	0x3db0781c	0.08616659
6	0xbdb8d218	-0.09024447
7	0x3bd745cd	0.0065696
8	0xbd02ec72	-0.031963773
9	0x3d0d9b56	0.034571968
10	0xbd91abf4	-0.071128756
11	0x3c4ac9fd	0.012377259
12	0x3c8ed133	0.017433738
13	0x3c1d78e4	0.009611342
14	0x3d347e15	0.044065554
15	0x3d7be0ad	0.061493564
16	0xbd94d331	-0.07266844
17	0x3c51cf77	0.012805811
18	0x3d26d686	0.04073193
19	0xbceb176e	-0.028697696
20	0xbc4778c0	-0.012174785
21	0xbaecb68c	-0.0018059774
22	0xbb4ad38b	-0.0030948843
23	0x3d819b25	0.063284196
24	0x3b01555e	0.001973472
25	0xbd8c285f	-0.06843638
26	0x3c920aab	0.017827353
27	0x3d1de706	0.0385504
28	0xbd479cc2	-0.04873348
29	0x3d9e46b2	0.07728328
30	0x3c370da5	0.011172687
31	0x3ccb652f	0.024828522
32	0x3d83757a	0.06418891
33	0x3c937c3c	0.018003576
34	0xbdeb2881	-0.11482335
35	0x3bd3c252	0.006462374
36	0x3b80e3ec	0.0039334204
37	0x3c0c2926	0.008554732
38	0x3d14394a	0.036187448
39	0xbcb4adf7	-0.02205561
40	0x3b666f69	0.003516162
41	0xbd66002b	-0.056152504
42	0x3dbb7d95	0.09154812
43	0xbcfcbf75	-0.030853013
44	0xbd993b88	-0.07482058
45	0xbda4ff6b	-0.080565296
46	0xbc94889c	-0.018131547
47	0xbc827ba1	-0.015928091
48	0xbd29ca79	-0.04145286
49	0x3cd95d18	0.026533648
50	0xbdb17f02	-0.08666803
51	0xbca785a5	-0.020449469
52	0xbc9e5be7	-0.019330932
53	0xbc7d2f8f	-0.015453233
54	0xbdf8211a	-0.121156886
55	0x3d41b904	0.047295585
56	0xbd4561a5	-0.048188824
57	0x3d17dc0c	0.037075087
58	0x3d4dc7ec	0.05023949
59	0x3da93f58	0.08264035
60	0x3c28a682	0.010293605
61	0xbcfdea6e	-0.030995574
62	0xbbb994cc	-0.00566349
63	0x3db0bdd5	0.086299576
64	0x3d6a9103	0.0572672
65	0x3d15e522	0.03659547
66	0x3ca0a267	0.01960869
67	0x3c54a15e	0.012977926
68	0x3cc5828b	0.0241101
69	0xb92a9416	-0.0001626763
70	0xbd9ea74e	-0.077467546
71	0xbcccbd08	-0.02499248
72	0x3cc27f34	0.023742296
73	0x3d9138fe	0.070909485
74	0xbcfae9b4	-0.030629016
75	0x3d55b412	0.05217368
76	0xbd4d2b4b	-0.050090116
77	0xbbdde7fe	-0.0067720404
78	0xbccd31e8	-0.025048211
79	0x3c9a8d97	0.018866343
80	0x3b97c7cf	0.0046319733
81	0x3a640426	0.0008698128
82	0xbc72db6d	-0.014822823
83	0xbc4361f9	-0.011925214
84	0xbd515e3d	-0.051115263
85	0xbde83e0e	-0.11339961
86	0xbd9d1454	-0.07669893
87	0x3d4db486	0.05022099
88	0xbd900016	-0.070312664
89	0xbcd84e78	-0.026404604
90	0x3d1e3709	0.038626704
91	0xbd303a50	-0.04302436
92	0xbd612ffb	-0.0549774
93	0xbd278718	-0.04090032
94	0x3c60434b	0.013687919
95	0x3c91912a	0.017769415
96	0x3d2e7494	0.042591646
97	0x3c6c43f0	0.014420494
98	0xbd007433	-0.031360816
99	0xbbde13e4	-0.0067772735
100	0xbc5b8d7e	-0.013400434
101	0x3cc5daf1	0.024152251
102	0x3d88db8a	0.06682499
103	0xbaf2f031	-0.0018534717
104	0xbc3f24ca	-0.011666486
105	0x3c7d392d	0.015455526
106	0xbcff6974	-0.031178214
107	0xbb6e8d22	-0.003640004
108	0xbc254090	-0.010086194
109	0x3d4a76ca	0.049429692
110	0xbd1b6fb7	-0.037948336
111	0xbd0bd6ad	-0.034140278
112	0xbcf423fb	-0.029802313
113	0xbd0c63aa	-0.034274735
114	0xbd195ba2	-0.037440903
115	0xbc8ff572	-0.017573092
116	0x3d14d10c	0.036332175
117	0x3d6182ea	0.05505649
118	0x3da61288	0.08109003
119	0xbbe0c395	-0.0068592527
120	0x3c5ea5b5	0.013589312
121	0xbdbb64e1	-0.091501005
122	0x3d0ee7e3	0.034889113
123	0xbc52410a	-0.012832889
124	0xbd4f8dde	-0.050672404
125	0xbdaf68a0	-0.085648775
126	0xbd698ac2	-0.057017095
127	0xbce53497	-0.027979178
128	0xbd362880	-0.044472218
129	0xbdaad2d6	-0.08340995
130	0xbb088491	-0.002083097
131	0xbb7ba481	-0.0038397613
132	0xbd61ee78	-0.055159062
133	0xbced1fab	-0.028945765
134	0xbc736fa4	-0.01485816
135	0x3c5808f6	0.01318573
136	0xbce3995f	-0.027783094
137	0xbdb7156f	-0.08939635
138	0x3b778a20	0.0037771538
139	0xbd1b0e51	-0.03785545
140	0x3d4363b7	0.047702517
141	0x3cab1695	0.020884791
142	0xbc350ce0	-0.011050433
143	0x3b39ca06	0.0028349175
144	0xbd9c0050	-0.07617247
145	0x3d435089	0.047684226
146	0xbca19c84	-0.019727953
147	0xbd65e533	-0.056126785
148	0xbdac5764	-0.08415106
149	0x3b81d43d	0.0039620684
150	0xbc2d23e4	-0.010567639
151	0x3db77713	0.089582585
152	0xbd3a6a88	-0.045511752
153	0xbdb95484	-0.09049323
154	0xbd81c527	-0.06336432
155	0xbdcec468	-0.10096055
156	0xbd4ab218	-0.04948625
157	0xbcac4b74	-0.021032073
158	0xb85d76ed	-5.2801264e-05
159	0xbe00bc70	-0.12571883
160	0x3d5c8c29	0.053844605
161	0x3d22de4d	0.039762784
162	0x3cc0e4b2	0.02354655
163	0x3c8da023	0.017288273
164	0x3cf40c55	0.029791037
165	0xbda66dfc	-0.081264466
166	0x3d9403df	0.07227301
167	0xbd124359	-0.03570876
168	0xbd809ff3	-0.06280508
169	0x3d7b7b34	0.061396793
170	0x3d1edc1e	0.03878414
171	0xbe0a23c4	-0.13490206
172	0xbd56bb97	-0.052424993
173	0x3c2b1f91	0.010444538
174	0xbdc2edad	-0.09517989
175	0x3985a1fb	0.00025488422
176	0x3d899556	0.06717937
177	0xbd0659bf	-0.032800432
178	0x3c865dfe	0.01640224
179	0x3d5b9f0f	0.053618487
180	0xbd7b7aa2	-0.06139625
181	0xbd7de635	-0.06198712
182	0x3b95e50e	0.0045744246
183	0xbd744cd0	-0.059643567
184	0x370defb4	8.460065e-06
185	0xbd084613	-0.033269953
186	0xbd35aaf1	-0.044352476
187	0xbd14c8fd	-0.03632449
188	0xbd106c44	-0.0352595
189	0x3cfb7dc6	0.030699622
190	0x3cd10c42	0.02551854
191	0xb985ff91	-0.0002555815
192	0xbd688841	-0.056770567
193	0xbd1c0593	-0.038091253
194	0x3d091812	0.03347022
195	0x3c64d606	0.013967043
196	0xbd62384a	-0.055229463
197	0xbcf35af9	-0.029706465
198	0x3dc44b37	0.095846586
199	0x3a6d4670	0.00090513285
200	0xbc1c8a22	-0.009554418
201	0xbcd11247	-0.02552141
202	0xbd92b1c7	-0.071628146
203	0x3c4de0e2	0.012565823
204	0xbcecaec2	-0.028891925
205	0xbd0417ef	-0.032249387
206	0xbca98e3c	-0.020697705
207	0xbd0db1bd	-0.034593333
208	0xbbcc7807	-0.0062398943
209	0xbd82b521	-0.06382204
210	0x3d1c71a0	0.0381943
211	0xbcf1e938	-0.029530153
212	0xbd22d520	-0.039754033
213	0xbc39cf40	-0.011340916
214	0xbd00e292	-0.031466074
215	0xbd22fd36	-0.039792262
216	0x3c85f8da	0.016354013
217	0x3d448c01	0.04798508
218	0xbd25c838	-0.040474147
219	0xbd20dc74	-0.03927274
220	0xbd971c0a	-0.07378395
221	0xbd41813d	-0.04724239
222	0x3d85b77c	0.065291375
223	0xbbf330a0	-0.007421568
224	0x3c19526a	0.009358028
225	0x39d9eed0	0.00041567395
226	0x3d76c6dd	0.060248245
227	0x3c1ffa0d	0.009764207
228	0xbd3fdb90	-0.04684025
229	0x3c169bfa	0.009192461
230	0x3c31e64f	0.0108581325
231	0x3c7de9f4	0.015497673
232	0xbcb6da67	-0.02232094
233	0xbd462a47	-0.048380163
234	0x3ca37f53	0.019958174
235	0x3c6250ba	0.013813192
236	0xbd25466a	-0.040350355
237	0xbd881d98	-0.066462696
238	0x3cfa3c01	0.03054619
239	0x3c93e3a5	0.018052885
240	0xbcfece32	-0.031104181
241	0x3c46a5b7	0.01212447
242	0x3d0103f2	0.031497903
243	0x3d41e125	0.047333855
244	0x3d639578	0.055562466
245	0x3b89ae48	0.004201684
246	0xbc980dfe	-0.01856136
247	0xbd5700c8	-0.05249098
248	0xbd888cb6	-0.066674635
249	0x3c118ffa	0.008884424
250	0xbd3e6faf	-0.04649323
251	0xbca7d999	-0.0204895
252	0xbd011d1e	-0.03152191
253	0x3d94a5e6	0.07258205
254	0xbdafe90d	-0.08589373
255	0xbd30e5a0	-0.043187737

net.6.weight f4 [2, 256]
0	0xbd6cd82e	-0.057823353
1	0xbdb229f1	-0.08699406
2	0x3cd04376	0.025422793
3	0x3c433cf3	0.011916387
4	0xbd53fe63	-0.051756274
5	0xbdd6334c	-0.10459003
6	0x3d11933e	0.03554081
7	0xbd3f56b0	-0.04671353
8	0xbd9c3a74	-0.076283365
9	0x3d8e0f41	0.06936503
10	0x3ca63c3c	0.020292394
11	0x3d5fedb2	0.054670043
12	0x3d076d92	0.03306348
13	0x3d95a36d	0.073065616
14	0xbd8c2274	-0.06842509
15	0xbdbaa8cd	-0.091142274
16	0x3d6e7501	0.058217052
17	0xbd04066d	-0.03223269
18	0xbd89f74b	-0.067366205
19	0xbd676ad6	-0.05649837
20	0xbd700469	-0.058597956
21	0xbd2d092b	-0.04224507
22	0xbd74fd6f	-0.059812006
23	0xbd7bbae9	-0.06145755
24	0x3d4430d4	0.04789813
25	0x3d40f8ec	0.04711239
26	0x3b325e8e	0.0027217004
27	0xbc8970b3	-0.016777372
28	0x3d5e6d49	0.05430344
29	0xbd81ff5d	-0.06347535
30	0x3dbbf22f	0.09177052
31	0x3d272cb6	0.040814124
32	0xbd368683	-0.044561874
33	0xbd8d3fc2	-0.068969265
34	0xbd5b5182	-0.05354453
35	0xbd42018e	-0.047364764
36	0xbc96a47d	-0.018388981
37	0x3c019a55	0.007910331
38	0x3cf66802	0.030078892
39	0x3c04d531	0.008107469
40	0x3db3f88e	0.087876424
41	0x3d814d38	0.063135564
42	0xbd4426df	-0.047888633
43	0x3d91927e	0.07108019
44	0x3ca4ba92	0.020108495
45	0x3d3dfc84	0.046383396
46	0xbcf81ff5	-0.030288676
47	0xbd1c2911	-0.0381251
48	0x3c3f3d3f	0.011672317
49	0x3d788f8a	0.060683765
50	0x3cbba706	0.022906791
51	0x3da75973	0.08171358
52	0xbcee502a	-0.02909096
53	0x3d2c9f82	0.042144306
54	0xbc5af0e4	-0.013363097
55	0x3c64f3b6	0.013974121
56	0xbdc28ca1	-0.09499479
57	0xbd4f0fd5	-0.050552208
58	0x3c6cd00e	0.014453901
59	0xbd8caa8f	-0.06868469
60	0x3d1fc1ee	0.039003305
61	0xbd9cf05c	-0.076630324
62	0x3d80fb06	0.06297879
63	0xbd89900b	-0.06716927
64	0xbd5e05af	-0.05420464
65	0xbcf01820	-0.029308379
66	0xbd02b801	-0.03191376
67	0xbd0a5b45	-0.033778448
68	0x3cddfd0b	0.0270982
69	0x3d82b0ad	0.063813545
70	0x3d6b7ac2	0.057490118
71	0xbd1070f7	-0.03526398
72	0x3d3fc29d	0.046816457
73	0xbd8020bf	-0.06256246
74	0x3d16fd3d	0.0368626
75	0xbb8252f5	-0.0039771744
76	0x3dbb8315	0.09155861
77	0xbbdb57a5	-0.0066937977
78	0x3d858875	0.06520168
79	0xbd9b8842	-0.075943485
80	0xbdac7c8b	-0.08422192
81	0xbdaa2cf2	-0.08309354
82	0x3dab349b	0.08359643
83	0xbc450c0b	-0.012026797
84	0xbd241f39	-0.04006884
85	0xb9ec407c	-0.00045061472
86	0x3d9f8cfa	0.07790561
87	0xbd20a58e	-0.039220385
88	0xbcc78821	-0.024356904
89	0xbcd904ba	-0.026491512
90	0x3db126f3	0.08650007
91	0x3d448cc8	0.047985822
92	0x3d674f43	0.056472074
93	0xbd35c317	-0.044375505
94	0xbd2b6675	-0.041845758
95	0xbca32ea2	-0.019919697
96	0x3d4d7af7	0.050166097
97	0x3c8e9674	0.017405726
98	0x3b472e5c	0.0030392623
99	0xbd72dc4d	-0.059292126
100	0xbd9f57ae	-0.077803954
101	0xbd35008d	-0.04418998
102	0xbd0370d7	-0.032090034
103	0x3d220013	0.039550852
104	0xbc3fbf2e	-0.011703296
105	0xbd66d263	-0.056352984
106	0x3d909d5a	0.070612624
107	0xbcdb18cb	-0.02674522
108	0x3d7ccf60	0.061721206
109	0xbd5023fe	-0.050815575
110	0x3d5f176e	0.054465704
111	0x3d60763c	0.054800257
112	0xbd96c29b	-0.07361337
113	0x3d04715c	0.03233467
114	0x3cb8eda2	0.02257425
115	0x3c888917	0.016666932
116	0xbdaa9feb	-0.08331283
117	0xbd84be8d	-0.06481657
118	0xbd765c0f	-0.060146388
119	0x3d498093	0.049194884
120	0x3d3f0936	0.046639644
121	0x3db23d25	0.08703069
122	0x3be22862	0.0069017867
123	0xbd2f7340	-0.04283452
124	0x3dd2838e	0.10278998
125	0x3da45251	0.08023513
126	0x3d3fd860	0.04683721
127	0x3d3b0c89	0.04566625
128	0x3d7d3e1f	0.06182682
129	0x3ccc483b	0.024936786
130	0xbd902f6e	-0.070402965
131	0x3db7cbd0	0.08974421
132	0xbce22bf6	-0.027608853
133	0x3d0e6650	0.03476554
134	0x3d7a44ab	0.061100643
135	0xbd92e5f7	-0.071727686
136	0x3b54a647	0.0032447742
137	0x3d92f7d4	0.07176176
138	0xbd95512b	-0.07290872
139	0xbcd059be	-0.025433417
140	0xbdac7cbe	-0.0842223
141	0xbc82b2ed	-0.01595446
142	0x3d7cf4bd	0.061756838
143	0xbd1ad7ec	-0.037803575
144	0x3b0ce249	0.002149718
145	0xbd8a6b6f	-0.067587726
146	0xbd9486db	-0.07252284
147	0x3d5549f6	0.052072488
148	0x3d6f7ec3	0.0584705
149	0x3d9aae65	0.07552794
150	0xbd1d9d07	-0.03847983
151	0xbdabf886	-0.083970115
152	0x3cc2552d	0.023722256
153	0x3dc08ca6	0.094018266
154	0xbd154a9f	-0.036448117
155	0x3d8fdb67	0.070242696
156	0x3da0bb5c	0.07848236
157	0x3cccafd9	0.024986194
158	0xbd3e7c59	-0.046505306
159	0xbcbe88d1	-0.023258599
160	0x3b0f06f2	0.0021824208
161	0xbd6fee95	-0.05857714
162	0xbd7624c9	-0.060093675
163	0xbdb41efe	-0.08794974
164	0x3ce52410	0.027971298
165	0xbc8e4888	-0.01736857
166	0xbd7cc140	-0.061707735
167	0xbd159575	-0.036519486
168	0x3d1e8472	0.03870053
169	0xbcf96b3b	-0.03044664
170	0xbd354415	-0.04425438
171	0x3a9fe1d5	0.001219804
172	0x3d12f2ec	0.0358762
173	0xbbdaaee0	-0.0066736788
174	0x3ca93ddc	0.02065938
175	0x3d9f4107	0.07776075
176	0xbd0c086b	-0.034187716
177	0xbd59609e	-0.053070657
178	0xbd93779b	-0.07200547
179	0xbd8626e2	-0.06550385
180	0x3d9e8030	0.077392936
181	0xbd664862	-0.056221373
182	0x3be86ba5	0.0070929104
183	0xbce55dc1	-0.027998807
184	0xbcb0cf20	-0.02158314
185	0xbcbae02f	-0.022811977
186	0x3d705ec0	0.05868411
187	0xbd7d65b5	-0.061864574
188	0x3d92b509	0.07163436
189	0x3d9b1503	0.07572367
190	0xbd192392	-0.037387438
191	0xbd80f606	-0.06296925
192	0xbc2b923c	-0.010471877
193	0xbd4d22d2	-0.050082035
194	0xbd706dc5	-0.058698434
195	0xbc9cea35	-0.019154647
196	0x3d1386b3	0.03601713
197	0x3db32c1e	0.08748649
198	0xbd2f243c	-0.042759165
199	0x3ce3b61f	0.027796803
200	0x3cc6d1a3	0.024269884
201	0xbd8c1803	-0.06840517
202	0x3db48d4c	0.08816013
203	0xbd48bab8	-0.049006194
204	0xbd8b8578	-0.068125665
205	0x3db6ed48	0.089319766
206	0x3d66f724	0.056388035
207	0xbd4d69a3	-0.05014957
208	0xbd642676	-0.05570074
209	0x3cb95780	0.022624731
210	0xbd15c084	-0.03656055
211	0xbb28122e	-0.0025645602
212	0x3cde440c	0.027132057
213	0x3dc364d3	0.09540715
214	0xbdabf1ee	-0.08395754
215	0xbdae6a98	-0.08516425
216	0x3d56b3e1	0.05241764
217	0xbd6e0d1d	-0.058117975
218	0xbd31f83c	-0.043449625
219	0xbbcc58af	-0.006236158
220	0x3dbb487a	0.09144683
221	0x3bf1340a	0.00736094
222	0xbd0033d2	-0.03129942
223	0xbd99d64f	-0.07511579
224	0xbd227f36	-0.0396721
225	0xbdb8b58f	-0.090190046
226	0xbdadbe94	-0.084836155
227	0xbd3b36d2	-0.045706578
228	0x3d44a41b	0.048008066
229	0x3d0db8a9	0.034599934
230	0xbb804a0b	-0.0039150766
231	0x3c362fef	0.011119827
232	0xbd1a55f8	-0.037679642
233	0x3daa2421	0.08307672
234	0xbd812d07	-0.063074164
235	0x3d9912a7	0.07474261
236	0x3c8b38e9	0.01699491
237	0x3d3c7573	0.046010446
238	0x3d03338a	0.032031573
239	0xbd3562df	-0.044283744
240	0x3d933617	0.07188051
241	0xbda498a0	-0.080369234
242	0xbd2a8600	-0.0416317
243	0xbd5e0cbf	-0.054211374
244	0xbda583a7	-0.08081751
245	0x3dbc2b18	0.09187907
246	0xbda99ad3	-0.082814835
247	0x3d63b764	0.055594817
248	0x3d25f64d	0.040518094
249	0x3ce5f80f	0.028072385
250	0x3da3dead	0.080014564
251	0x3d1a9114	0.037736014
252	0xbd4aabab	-0.04948012
253	0xbd8663ef	-0.065620296
254	0x3d66b12b	0.056321304
255	0xbd6a0c25	-0.05714049

net.6.bias f4 [2]
0	0xbcc54d99	-0.024084853
1	0x3c8152fc	0.01578664
