checkerboard/cfm/models/24000_model.pt (torch, 535792 bytes, 8 tensors)

net.0.weight f4 [256, 3]
000000 43 e2 52 bd f7 62 36 3e d9 01 70 bd 54 86 cb be
       -0.05148531 0.1781119 -0.058595512 -0.39750922
000010 d2 90 05 3d fd 14 7e be 9d 51 d4 3e 73 12 6e 3e
       0.032608815 -0.24812694 0.41468516 0.23249225
000020 8b e1 2f 3e 27 de 82 3e 2f f6 83 3e 2d 52 93 3e
       0.17175882 0.25560114 0.2577376 0.28773633
000030 c8 48 3a be ca 61 da be 4a 2b d5 3e c2 0e 0f 3f
       -0.18191826 -0.42652732 0.4163459 0.55881894
000040 a1 9d ce bd a7 6b ab 3e 62 88 a4 3e da fc 28 be
       -0.10088659 0.3348057 0.32135302 -0.16502705
000050 7a fa 2a bd cb 7a 41 be bf d1 5c 3e d9 c6 0b 3e
       -0.04174278 -0.18894498 0.21564387 0.13650073
000060 d0 f7 9a be 5a be 9a 3e 19 66 f0 3e bf e4 11 3d
       -0.3026719 0.30223352 0.46952894 0.03561854
000070 06 db b4 bd bb b3 cf be a7 c2 00 3e 13 5f 19 bf
       -0.08830838 -0.4056681 0.12574254 -0.59910697
000080 91 49 85 bd 3b 12 22 bd 91 ff 86 be 6e 06 bd be
       -0.06508172 -0.039568167 -0.26366857 -0.36918968
000090 9e 33 1f 3e 20 22 cc be 45 da af be a1 b6 08 3d
       0.15547034 -0.39869785 -0.34346214 0.033377293
0000a0 ed 25 fb 3d 75 9b e4 bc 2e 88 6a be 3a 2c 0b be
       0.12263093 -0.027906159 -0.22903511 -0.1359109
0000b0 21 ab 03 bf fb 53 d8 bd 2d 25 bb bc 0d a8 1e 3e
       -0.51432997 -0.10562893 -0.022844875 0.15493794
0000c0 5b 30 5f bd c7 97 0d 3f df 74 e9 bb a5 de 2b bf
       -0.054489475 0.5530972 -0.007124528 -0.67136604
0000d0 a7 6d 2a 3f 10 ad c2 be d3 0d dd 3d e9 02 00 3e
       0.66573566 -0.3802266 0.107936524 0.1250111
0000e0 c3 27 8e be ea b1 ea be fb 29 a7 be fd b6 81 bd
       -0.2776471 -0.45838863 -0.32649216 -0.0633373
0000f0 95 f2 0c be 15 b6 21 3e f9 a6 88 be 53 cd aa be
       -0.13764413 0.15792115 -0.2668989 -0.33359775
000100 b0 26 bc bd ec 8a 0c 3f c8 41 d0 ba 62 70 69 be
       -0.091870666 0.5489948 -0.0015888745 -0.22796777
000110 5b 1a f2 3e c9 07 e3 3d 08 b8 4f 3e c1 36 4f bd
       0.47285733 0.11085469 0.20285046 -0.050589327
000120 40 24 f1 be f3 4e e1 3e 1d df a0 3e d1 dc 51 3d
       -0.4709797 0.44005546 0.31420222 0.051235978
000130 35 d8 bf 3e 77 34 8c 3e df 70 03 bf 90 2c 49 3e
       0.3746964 0.27383777 -0.513441 0.19645905
000140 e8 40 15 3e 2d f2 81 bd cb c2 21 3e 05 da 0b bf
       0.14575541 -0.063450195 0.15796964 -0.54629546
000150 59 2f 01 bf 5f 1d bc be cb f5 df bc d3 d1 2c be
       -0.5046287 -0.36741158 -0.027338883 -0.16876917
000160 f6 81 3e 3b 35 ab cb 3d 19 6e 54 be 52 02 3a be
       0.0029069162 0.099447645 -0.20745124 -0.18164948
000170 56 a7 e5 3d 49 20 27 3f 00 b4 58 bf d4 9d b6 be
       0.112135574 0.6528364 -0.8464966 -0.35667288
000180 d5 8b cc be 18 6c 82 3c 9a d2 d4 be 1e 7e 09 3c
       -0.39950433 0.015920684 -0.41566926 0.008391885
000190 6c bb 0b 3b 94 14 18 be 54 8a dd be ac 37 b3 be
       0.002132143 -0.148516 -0.43269598 -0.35003412
0001a0 41 38 71 bd 2e f7 eb 3b 4f be c5 39 b3 3a 2e 3e
       -0.05889154 0.007201097 0.0003771656 0.1701458
0001b0 79 94 ba bd 77 6e 62 3d c6 f8 60 be 7f f2 31 3f
       -0.0911035 0.05528113 -0.219699 0.69510645
0001c0 63 5e 35 3f 6c 58 fe be 79 8b bd 3e 81 ff cb 3e
       0.7084715 -0.49676836 0.37020472 0.39843372
0001d0 51 09 0c 3f 67 54 d9 bd 92 4d 30 be 09 42 c8 3e
       0.54701716 -0.106118016 -0.1721709 0.3911288
0001e0 50 28 4c be 2e e6 23 3f 33 0a e5 be c7 3c 60 3d
       -0.19937253 0.640231 -0.44734344 0.05474546
0001f0 b2 b3 42 bd 6d 29 44 3e bd e6 ab be 9a 12 2b be
       -0.047534652 0.19156428 -0.33574477 -0.16706315
000200 a4 a8 f2 3d c2 29 02 3f f9 03 00 bf 20 23 d5 3e
       0.11848572 0.5084497 -0.5000606 0.4162836
000210 f6 3a 22 3e 8d 98 0b bf 66 8c e0 3c 82 ee ce be
       0.15842804 -0.5452965 0.027410697 -0.40416342
000220 9a be 5a 3e 22 9f 81 3e 01 a7 04 be 24 a2 89 3e
       0.21361771 0.2531672 -0.12954332 0.26881516
000230 5a 6c e4 bd a7 72 ba 3c 8d 25 fd be 61 f7 c8 be
       -0.11153479 0.022759749 -0.4944271 -0.39251235
000240 57 f0 1a bf 4c 5a 18 3f c5 c4 d9 3e 20 d6 14 be
       -0.6052298 0.5951278 0.42532936 -0.14534807
000250 2a 58 1b be 5d 3d 20 be 1c c6 20 bf 86 cd d0 bd
       -0.1517035 -0.15648408 -0.6280229 -0.101954505
000260 9c 0c 39 be b9 ff 31 bf 75 9c 2e 3f 11 01 d7 be
       -0.18071216 -0.69530827 0.68207484 -0.41993
000270 d9 2a 00 3b 44 8a 40 3c c7 ad 41 3f 80 d8 eb be
       0.001955679 0.011751715 0.7565579 -0.46063614
000280 79 c5 99 bd 6b fa f1 bd 18 15 f5 bc c9 8c 4d bb
       -0.07508368 -0.118153416 -0.029917285 -0.0031364432
000290 14 82 ad be 92 83 04 be 93 b7 06 3f 93 c5 a1 3e
       -0.33888304 -0.12940815 0.5262386 0.3159605
0002a0 82 25 17 3f 18 9b 67 bd 93 a7 2a bd 41 76 11 3e
       0.5904161 -0.056544393 -0.041663717 0.14205267
0002b0 d1 79 12 3e ae 72 dd bd 96 a8 f6 3b 8a 92 24 3a
       0.14304282 -0.10812889 0.007527421 0.00062779395
0002c0 a4 31 af bd 5b fe d6 be 77 09 10 3f 8a 0c 04 bf
       -0.0855439 -0.41990933 0.5626444 -0.51581633
0002d0 98 5d 78 be 03 d9 f1 bc 5f 71 9f 3e 10 8e 7d 3e
       -0.24254453 -0.029522425 0.31141183 0.24761224
0002e0 33 ad 42 3e 3d d1 d1 be d2 1c 93 3e 56 41 91 3e
       0.19011383 -0.4097995 0.28732926 0.2837016
0002f0 f8 0f 7f 3e 7a 39 f5 3e d2 46 90 be e7 58 ec 3e
       0.24908435 0.47895414 -0.28179032 0.46161577
000300 df d8 8c 3e 96 b6 e5 3e 2c 60 85 3e fb f3 b1 3e
       0.2750921 0.44865865 0.26049936 0.34756455
000310 9c 94 b6 3e d5 5f 98 3e 4c 64 6a bd a5 24 ae 3e
       0.35660255 0.29760614 -0.057224557 0.34012333
000320 a4 9f b7 be 4a b9 23 bf 21 b5 21 3f ad 79 a1 3e
       -0.35863984 -0.63954604 0.63167006 0.31538144
000330 7c 02 fc 3e fc 02 f6 be e2 16 d3 3e b9 c6 f4 be
       0.49220645 -0.48049152 0.41228396 -0.47807863
000340 b7 91 99 be 04 59 20 be ff a5 43 be bc 6f 23 3e
       -0.29993984 -0.15658957 -0.19106291 0.15960592
000350 bb 75 fd 3e d4 55 2a 3e ef 65 16 be fd 59 a4 bd
       0.49503884 0.16634303 -0.14687322 -0.080249764
000360 88 d1 2d bb 9b 15 a6 bb 9f 1f bf 3c 8d 9e a0 3e
       -0.0026522595 -0.0050684935 0.023330508 0.31370965
000370 0e fd aa bd 73 0b 58 3e 58 2a 28 bc f5 5d c0 bd
       -0.083490476 0.21098118 -0.010264002 -0.09392921
000380 12 57 91 be ce ae b0 be d2 80 f1 3d 11 ad b2 3e
       -0.28386742 -0.34508365 0.11792149 0.34897664
000390 cf 71 89 be fa bd ee 3d bc 68 f6 be df fa 35 be
       -0.26844642 0.11657329 -0.4812678 -0.17771481
0003a0 2b 51 bd bd 98 f2 c1 3e 70 91 04 3f cb 33 dc 3e
       -0.09243997 0.37880397 0.5178442 0.43008265
0003b0 79 d4 50 be 65 70 d7 3d 96 05 13 3e 7b e8 b4 3e
       -0.20393552 0.105194844 0.143576 0.3533362
0003c0 96 f2 7b 3e 78 74 96 be 50 bf 9e 3e e3 e1 28 3f
       0.24604258 -0.29385734 0.31005335 0.65969676
0003d0 50 cb 01 be 6f 9e ac 3e 99 eb 57 bb d8 b5 8f be
       -0.12675214 0.33714625 -0.0032946824 -0.28068423
0003e0 3d 26 9b 3e fc ec c5 bd 97 01 c2 3e 12 83 c8 3e
       0.3030261 -0.09664342 0.37891838 0.391625
0003f0 c6 23 48 3d 12 32 15 3f e2 2a f9 3e 64 cb 06 3e
       0.04886224 0.58279526 0.4866553 0.13163525

net.0.bias f4 [256]
000000 92 fb 4a be cd b8 a1 3e a0 7d ea bb 0f 3d 09 bf
       -0.19822529 0.31586304 -0.007156089 -0.53608793
000010 4e 87 14 3e b3 25 b5 bd c7 c3 9e 3e 91 77 18 bf
       0.1450474 -0.08845081 0.3100874 -0.59557444
000020 02 8e f8 be 1f a3 c1 3e 64 ce c7 3e e4 e8 87 3e
       -0.48545843 0.37819764 0.3902465 0.2654487
000030 9d 9a 1e 3f 28 f0 5c be 5f e0 01 3f 14 66 0f bd
       0.6195467 -0.21575987 0.5073299 -0.03500946
000040 ad 85 2d 3e 51 da 03 3e 2e e6 86 3e 29 5f ad 3e
       0.16945525 0.1287625 0.26347488 0.33861664
000050 e0 15 db 3e a4 17 45 3d ff af 93 3e b6 cf 1e be
       0.42790127 0.04811825 0.28845212 -0.15508923
000060 2b 12 a5 3e c3 36 96 3e 4f 3b 88 3e 7f 1b 12 3f
       0.32240424 0.29338655 0.2660775 0.57073206
000070 d4 89 98 3e fe 5b 15 3e 5c aa 9e be 61 8a 21 bf
       0.29792655 0.14585873 -0.3098935 -0.63101774
000080 64 7d db 3e fa 03 d9 3d 65 51 9c 3e 4c 54 ce bd
       0.42869103 0.105964616 0.3053085 -0.10074672
000090 c9 48 8f 3e 85 26 00 bf dd 76 74 be 3b af f4 bd
       0.27985218 -0.50058776 -0.23873468 -0.11947485
0000a0 3f 1f c0 be a5 f1 08 3d f6 7e 6d 3c 8a 5c ef be
       -0.3752384 0.033433575 0.014495602 -0.4675029
0000b0 ff 5c 12 bf c4 5a 9a bc 58 5c a2 3e 99 31 ed 3e
       -0.5717315 -0.018842109 0.31711078 0.46326903
0000c0 76 03 05 bf ed d1 17 3e 32 79 24 3d a0 32 02 3e
       -0.51958406 0.14826174 0.040154643 0.12714624
0000d0 77 2c e9 be d1 6a b3 3b cb 0c 62 3e 51 1c 68 bc
       -0.45541736 0.00547538 0.22075193 -0.014166907
0000e0 62 42 45 3e 00 84 f1 3c 70 39 76 3d 36 99 f8 be
       0.19263604 0.029481888 0.06011337 -0.4855439
0000f0 2e 51 dd 3d dc 72 cc 3e 14 80 d1 bc e2 68 dc bd
       0.108064994 0.3993138 -0.025573768 -0.10762192
000100 b6 00 78 bd 09 88 8c 3d bd 4f c6 3e cb fe db be
       -0.060547553 0.06861884 0.3873271 -0.4296783
000110 b0 d7 ee be d7 79 b8 3e 49 3c e8 bd e8 3b 89 3e
       -0.46648932 0.36030456 -0.113396235 0.26803517
000120 4b ab 06 bc ba 6d f8 bd ba 33 67 3e 05 26 a4 bd
       -0.00821955 -0.12130304 0.22578326 -0.08015064
000130 7e 3a af 3e 24 8f 5f be 75 41 86 bd 68 26 d4 3c
       0.34224313 -0.21831948 -0.06555454 0.02589722
000140 4c 7a 99 3d 9d 90 cb bd 27 33 2e 3e fa 6d 55 be
       0.074940294 -0.09939692 0.170117 -0.20842734
000150 65 f9 2b bf f9 61 cd 3e 6c 2c 4b 3e fe 84 a6 be
       -0.6717742 0.4011381 0.19841164 -0.3252334
000160 fd 73 d3 be 5e ae 09 3f fd 4d 16 be 7e b2 cf 3e
       -0.4129943 0.5378169 -0.14678188 0.40565866
000170 15 e3 0d bf b2 dd e6 3e 7e 6e 1e 3f fb 0f d4 3e
       -0.55424625 0.45091015 0.6188735 0.41418442
000180 ff 48 07 bf 09 c1 20 3e ba 63 34 3d 73 45 f7 3c
       -0.5284576 0.15698637 0.04404042 0.030184483
000190 23 0b 61 3e 5d ea 78 be 0a 3e ec 3e 78 a7 aa be
       0.21976905 -0.24308152 0.46141082 -0.33330894
0001a0 c8 74 19 3f 5d 07 99 bd 45 b5 5a 3e 21 81 f8 be
       0.5994382 -0.074721076 0.21358211 -0.48536018
0001b0 ce 4d 3f be b5 38 b0 bd e6 d2 db 3e 9e 96 7f bc
       -0.18682024 -0.08604566 0.4293434 -0.015599875
0001c0 3e 83 84 3e 57 6e 08 bd a8 43 9a be 0d bf 7d 3e
       0.2588138 -0.033308353 -0.30129743 0.24779911
0001d0 0b 6d 35 3e 92 b9 ed 3d c8 5b 8e bd a4 ae 94 3e
       0.17717378 0.1160766 -0.069511 0.2903949
0001e0 6e ee d8 be ed 33 88 3e e3 c0 74 3e 8d a5 a2 be
       -0.42369407 0.26602116 0.23901705 -0.3176693
0001f0 fe ec b7 3d f4 eb 84 bd 26 fe 19 bf b0 da 90 3e
       0.089807495 -0.06490317 -0.60153425 0.28291845
000200 b7 0d 96 3e 49 93 4e bd 34 1b 14 3c e8 88 b2 3e
       0.2930734 -0.05043343 0.009039689 0.34870076
000210 89 02 88 3d ab d2 cf be c5 52 33 3e 9e 01 67 3e
       0.066411085 -0.40590414 0.17512043 0.2255921
000220 2f 48 8d 3e 21 1b ab be 5c 5b 9b bd 4b 6f 75 3e
       0.27594134 -0.33419135 -0.07585785 0.23968236
000230 77 64 5a 3e 57 34 e8 3a 40 f2 1f 3e 73 07 bf be
       0.21327387 0.0017715794 0.15619755 -0.3731037
000240 f7 12 b1 3e 96 bb 9e 3e b9 a2 d2 be eb fe 10 be
       0.34584782 0.31002492 -0.41139773 -0.14159743
000250 91 9a c2 3e ac 07 ed be de db 63 3e 29 8d 23 3d
       0.3800855 -0.46294916 0.22251841 0.039929543
000260 57 e6 6d be 0c 61 a3 be b9 91 ba be 34 dc 49 be
       -0.23232399 -0.31909978 -0.36439303 -0.19712907
000270 89 c1 76 3e 85 19 5b 3e 4e d9 09 bc bc b3 d8 be
       0.24097265 0.21396454 -0.008413626 -0.42324626
000280 4b cf dd 3e 70 a5 62 be f9 fe de 3e a5 f2 a1 bc
       0.43322214 -0.22133422 0.43553904 -0.019769022
000290 a1 6d 53 3e aa 5f e6 bc ab 13 8d 3e 9b dc cc be
       0.20647289 -0.028121788 0.27554068 -0.4001206
0002a0 7e 5a 7c 3e 2a c6 81 be 35 a1 2e bf 3f c7 1a 3e
       0.24643895 -0.253465 -0.6821473 0.15115069
0002b0 6c ae f0 be 07 0d b5 be 4b 5a 41 3e 18 41 15 be
       -0.47008073 -0.35361502 0.188821 -0.14575613
0002c0 7e 26 5d 3d e9 1e 56 bd 3f 47 30 be 78 f3 f1 be
       0.053991787 -0.052275572 -0.17214678 -0.47256064
0002d0 74 98 bd 3e 25 be c2 be c6 ba 25 3e 52 fd 82 bd
       0.37030375 -0.38035694 0.1618453 -0.06395973
0002e0 5a 82 6e 3d e8 24 cc 3e 82 c0 40 be 4e 3d 87 3d
       0.05822978 0.39871907 -0.18823436 0.0660349
0002f0 c1 93 49 3e a4 da 95 3e f1 7e 1b bf 69 a6 f1 be
       0.1968527 0.29268372 -0.6074057 -0.47197273
000300 71 b9 b2 3b 81 b4 1a be 8d 4d 51 3e ea 43 bd 3e
       0.0054542352 -0.1510792 0.2043974 0.36965877
000310 3e ba 6f be 17 04 e0 3e c5 95 cb 3d 0c b9 a3 3e
       -0.2341089 0.4375312 0.09940676 0.31977117
000320 4b 02 d3 be 6e 2f 44 bd 0a af 2c 3e 90 53 08 bf
       -0.41212687 -0.047896795 0.16863647 -0.53252506
000330 ae a2 e6 3e a1 c5 d5 be 90 da 18 3f ec dd 89 3d
       0.4504599 -0.4175234 0.597085 0.06731781
000340 ac 8a 17 3f ce e3 d3 be 86 a6 08 be e9 be 1b 3e
       0.5919597 -0.4138474 -0.13344774 0.15209545
000350 10 53 83 3e ed 31 29 3e b3 94 0e bf 63 92 0c be
       0.2564931 0.16522951 -0.55695647 -0.13727717
000360 db 78 65 3d 18 d0 45 3e 47 ff 00 bf ed 4a 6d be
       0.05602346 0.19317663 -0.5038952 -0.23173113
000370 70 b1 b9 be 8a 51 ae be d3 c5 c5 3d 21 9b e6 be
       -0.36268187 -0.34046584 0.096568726 -0.4504023
000380 84 53 cc 3d 09 8f 05 3f 8f c6 7c be 05 bf 1e bf
       0.09976867 0.5217138 -0.24685119 -0.6201022
000390 bf f6 de bc b7 2c 21 3f a0 c2 9d 3d f7 3f 1f be
       -0.027217267 0.62958854 0.077031374 -0.15551744
0003a0 2f ee 7a 3e 71 3e b1 3e 4f d9 05 3f 05 d3 1a bf
       0.24504922 0.34617952 0.5228471 -0.6047824
0003b0 08 31 57 3d 47 9e f7 be 9b 5d 9b bd a6 d9 d0 be
       0.052536994 -0.48362944 -0.07586213 -0.40791053
0003c0 02 b3 fa 3d f7 54 2c 3e 5f 61 cc 3d 1a 53 0c bf
       0.12241174 0.16829287 0.099795096 -0.548143
0003d0 7b 1c 31 bd ba 50 ce 3e 0e 68 90 3e a5 ea b5 bd
       -0.04324005 0.40295964 0.28204387 -0.088826455
0003e0 e5 da 68 be 16 9a d8 be d3 c6 57 3e 29 68 49 3e
       -0.22739752 -0.42305058 0.21071939 0.1966864
0003f0 9f 90 07 3e da 69 c4 be 73 2b bf bc 91 f6 e1 be
       0.13238762 -0.38362008 -0.023336148 -0.44133428

net.2.weight f4 [256, 256]
000000 6e e1 2f bd 40 ed 8b 3d 88 c7 0a 3d 75 ed 64 3d
       -0.042939596 0.06832361 0.033881694 0.05589052
000010 19 a4 94 bd d5 2b ff bb 95 7e 33 3d 0b 5f c9 bc
       -0.07257862 -0.0077872076 0.04382189 -0.024581453
000020 d5 57 bc 3c 03 88 52 bd bd c8 91 bd 85 b4 0e bd
       0.0229911 -0.051399242 -0.07118366 -0.034840126
000030 b6 23 f6 bc 56 83 f5 bc 63 0d 87 3c 5c 58 c8 bd
       -0.030046325 -0.029969852 0.016485875 -0.09782478
000040 c3 1d ae ba ec 54 40 bd a4 ec 35 3d 79 04 4c bd
       -0.0013284016 -0.046955988 0.04441513 -0.049808953
000050 6c bc 83 bb 8b 17 db bd 5f 02 0e 3d e9 dd 4c bd
       -0.0040202644 -0.1069785 0.03467023 -0.050016318
000060 23 49 89 3d a4 06 9e bc 7b 1c a2 3d 72 b9 f4 3c
       0.06703403 -0.019290276 0.079155885 0.029873583
000070 86 73 07 bd c5 e9 4b bd d0 f0 89 bd 53 b9 31 bd
       -0.033069156 -0.049783487 -0.067353845 -0.04338963
000080 f5 3e 41 3d d2 9c d4 bc 4f 8c ce 3c 75 1b 19 bd
       0.04717918 -0.025953684 0.025213389 -0.0373797
000090 b7 1f 1d bd bb 5b cc 3c 47 c2 27 3c be 10 96 bd
       -0.038360324 0.024946084 0.01023919 -0.07327412
0000a0 8d 02 48 3d 92 db bc 3c 63 53 44 3d 35 68 53 3d
       0.048830558 0.023053918 0.047931086 0.05161305
0000b0 c5 be da 3b bc 87 84 3c ef 9a 91 bb 32 f3 9e bd
       0.0066755735 0.016178004 -0.0044435184 -0.077612296
0000c0 3b d6 06 bb 32 aa 2f 3d 50 70 d4 3d 51 fb 63 bc
       -0.0020574469 0.04288692 0.103729844 -0.013914899
0000d0 43 26 ac ba cd ba 95 3d 44 50 88 3b e7 75 7c 3c
       -0.0013133961 0.0731102 0.004159959 0.0154089695
0000e0 94 31 94 3c 04 43 06 bd 5d 84 76 3c 69 6c b1 3c
       0.018090047 -0.032778755 0.015046206 0.02165814
0000f0 c5 73 fd bc b4 27 2b 3d ea cc 2e 3d 73 14 e8 3d
       -0.030938992 0.04178591 0.04267589 0.113320254
000100 ab 91 ea bd c8 05 3f bc 00 97 98 bc 6f b1 db bc
       -0.11453565 -0.011659093 -0.01862669 -0.026818005
000110 52 4f 8f 3d c4 88 13 bd 7c 04 7d 3b ad 0e 2b bd
       0.06997551 -0.0360191 0.003860741 -0.041762043
000120 f1 17 dc 3c e8 29 7c 3d 05 53 02 bc 90 f4 9e 3c
       0.026866885 0.061563402 -0.007954364 0.019403726
000130 e9 56 b5 3b a7 31 7d bd 98 e3 59 3c 6d 3b 93 3c
       0.005534042 -0.06181493 0.0132988915 0.017972672
000140 26 65 45 bd bb f2 02 3d 53 ae 31 bd d2 38 a5 3d
       -0.048192166 0.031969767 -0.04337914 0.08067478
000150 f6 d5 ac bd 5c 44 50 bb 82 3f 09 bd 0e e8 81 3c
       -0.08439247 -0.0031779027 -0.03350783 0.015857723
000160 8e 6a 1d bd 8b 26 4b 3d 50 99 6b bd 50 bb ef 3d
       -0.038431697 0.049597304 -0.057519257 0.11705649
000170 14 bc 23 3d 14 92 96 bd 3d 39 17 bd b5 70 85 bd
       0.039974287 -0.07352081 -0.03691982 -0.06515638
000180 9c 58 4b bd af 24 e1 bd 8a cf a3 bb d9 9c f4 bc
       -0.04964505 -0.10993325 -0.004999106 -0.029859947
000190 75 bf 48 3d ef bb ec bd 48 bf 08 3d 3c f2 77 3c
       0.049010713 -0.11559283 0.033385545 0.015133437
0001a0 1b 17 e8 3c 31 34 40 3c 1f 5f b3 bb b4 3a 5f 3c
       0.02833133 0.011731193 -0.005473986 0.013624836
0001b0 01 74 8a bc fd 76 7b 3d ec c9 2f 3d 91 73 dc 3d
       -0.016901018 0.061392773 0.042917177 0.1076423
0001c0 20 c7 29 bd 82 bd 55 3d 6b 31 c1 bd 51 e0 88 bc
       -0.041449666 0.05218268 -0.09433254 -0.016708525
0001d0 34 df 9a bd 9b ec e7 bc ad 3c fa bb ec 34 9f bd
       -0.07562104 -0.028311064 -0.0076366276 -0.07773766
0001e0 9f 96 3a 3c 3d 1b 50 3d 68 00 72 3d 17 d0 40 bd
       0.01138845 0.050807226 0.05908242 -0.04707345
0001f0 2e aa c2 bc 6b b4 1e bd 85 1e a7 3c e5 90 23 bc
       -0.023762789 -0.03874628 0.020400295 -0.009983276
000200 93 56 8d 3c 6a e9 0e bd 87 d2 50 bd b0 6e 27 bd
       0.017253196 -0.03489057 -0.050982025 -0.040877044
000210 59 f1 3d bc 3d e5 d8 bb 08 ae 2f 3d 35 7a c9 bc
       -0.011593186 -0.006619124 0.04289058 -0.024594406
000220 e2 f2 f3 bb 79 16 99 bc 66 bb 5a bd fc 67 8c 3d
       -0.0074447254 -0.018687474 -0.053401373 0.06855771
000230 8f 01 6c 3d 40 65 ff 3a dc 71 ea 3d 8d c5 cb bb
       0.057618674 0.0019485131 0.11447498 -0.0062186182
000240 cd 7b 2a bd 53 41 16 bc 21 47 69 bd c2 23 06 bd
       -0.041621972 -0.009170848 -0.0569526 -0.032748945
000250 b1 15 cf bc 18 24 d6 bc 3d 69 3c bc 1e c6 8f bd
       -0.025278898 -0.026140258 -0.0114997 -0.0702021
000260 73 21 70 bc 7c e2 8c 3d 2b a8 9f bd 33 59 29 bd
       -0.014656412 0.06879136 -0.07795747 -0.041344833
000270 b0 73 13 bd f9 b6 c6 bd 86 95 26 3d 82 63 82 3d
       -0.035999 -0.09702868 0.04066994 0.06366636
000280 ac b2 85 bc 6c 12 88 3c cd 8f dd bc 95 a9 7d 3d
       -0.016320549 0.016610347 -0.027046109 0.061929304
000290 cd 1f 62 bc 34 75 df 3c eb bc cb 3c 30 06 8a bd
       -0.013801527 0.027277566 0.024870357 -0.067394614
0002a0 59 51 89 3d 05 a2 6f bc 72 70 ce bc d1 48 15 3d
       0.06704969 -0.014626031 -0.025200102 0.036446396
0002b0 b2 24 47 bd 41 92 32 bc d9 4b 46 3d 1b e3 80 bd
       -0.04861898 -0.010899127 0.048412178 -0.06293317
0002c0 33 53 96 bc f2 92 97 bd 2b 03 43 bd 59 7b 59 3c
       -0.01835022 -0.074010745 -0.047610443 0.013274037
0002d0 6f 9f 21 3d 35 24 79 3d cc 9f 83 3d 8a 56 05 3e
       0.03945869 0.060825545 0.06426963 0.13021293
0002e0 1f 64 6b bd 01 ec 8b bc 8d 46 2e 3d ab 23 e5 3c
       -0.05746853 -0.017080309 0.04254775 0.02797111
0002f0 58 fd 88 bd 6b e9 89 bd 43 d5 c9 bd 6b a0 2c 3d
       -0.066889465 -0.06733974 -0.098551296 0.042145174
000300 c5 ab 35 3d 60 0c 2d bd 98 49 6f bd 9b 26 0b be
       0.044353265 -0.04224813 -0.058419794 -0.13588946
000310 d7 73 33 bc 08 b3 a5 bc 5a f2 18 bd 62 f4 a8 3b
       -0.010952911 -0.02022697 -0.0373405 0.005156086
000320 5f 31 3e 3d 99 45 16 3d 3f 87 45 bd ba d3 ce 3c
       0.046433803 0.036687467 -0.048224684 0.025247443
000330 d3 ee 80 bc 93 e6 b8 3d db 67 a8 3d 88 cb 2b 3d
       -0.01573888 0.090283535 0.08222934 0.04194215
000340 34 ee 42 3d c5 4a 3d 3d 9d ad 95 3c bd a7 76 bd
       0.04759045 0.046213884 0.018271262 -0.06021856
000350 5d 88 0c 3b ad 6d 50 bc c7 2f 66 bd 24 09 83 3c
       0.0021443584 -0.012721461 -0.056197908 0.01599557
000360 3a 2c 07 bc 5b 48 fc 3c 8f ca f3 3c 0a 36 17 bd
       -0.0082502905 0.03079622 0.029759673 -0.03691677
000370 87 cd 7c 3c 21 74 f8 3c b4 56 d0 3d 9e e0 07 3d
       0.015429861 0.030328812 0.10172787 0.033173196
000380 fb 66 52 bd a2 27 d6 bc 18 47 ca 3d 2b dc bf bc
       -0.05136774 -0.026141945 0.09876841 -0.023420414
000390 18 65 12 3c f8 b5 19 bc 93 b2 8b 3c 3d 66 79 bd
       0.008935235 -0.009381764 0.017052924 -0.060888518
0003a0 fb fb b8 3d 6e ed e5 3c e1 9d 89 3d 22 93 fb 3b
       0.090324365 0.028067317 0.06719566 0.0076774517
0003b0 65 b7 5a 3d 49 b4 cb bb 6c 60 7e bd a6 82 38 ba
       0.053397555 -0.00621656 -0.062103674 -0.0007038511
0003c0 2a 4e 33 3d c1 a9 47 bd 43 a7 a5 3c e0 42 87 3c
       0.043775715 -0.048745874 0.020221358 0.01651138
0003d0 68 8b 8b bd 4a 22 99 3c 8a 9c a4 3d 2b e8 8d 3c
       -0.06813699 0.018693108 0.0803767 0.01732262
0003e0 65 b3 36 bc 52 17 c5 bc 36 a3 36 3c b2 19 b4 bd
       -0.011151169 -0.024058972 0.011147311 -0.087939635
0003f0 2c 43 54 3d 7a 89 b1 3c 9d 69 ed bb 52 07 75 3c
       0.051821873 0.021672 -0.007245256 0.014955359

net.2.bias f4 [256]
000000 ba 14 61 3d 76 da 56 bb 52 01 38 bd a5 dc 1d 3c
       0.054951407 -0.0032784021 -0.044923134 0.009635125
000010 f2 a6 42 3d 1a 4c 8f bc 6f 3b 90 3c ea bf 0b bc
       0.047522493 -0.017492343 0.017606465 -0.008529643
000020 a3 74 d1 3d 12 f0 2d 3d 8e d5 19 3d e2 3a b9 bc
       0.10227325 0.042465277 0.037557177 -0.022611085
000030 22 a1 1c 3d 0d cb 0b 3d a2 c2 ac bc ae 71 37 3b
       0.038239606 0.03412919 -0.021088902 0.0027991342
000040 58 42 0b 3d 44 b0 c6 3c e7 0f 44 bc 13 6b 84 bd
       0.033998817 0.024253972 -0.011966682 -0.06465735
000050 ce 81 af bc 82 09 20 3d c0 d8 bb bc e8 12 18 bd
       -0.0214242 0.039071567 -0.022930503 -0.037127405
000060 37 c6 3a 3b 11 b7 38 bb 49 de a6 bd 06 a0 16 bd
       0.0028499493 -0.0028185288 -0.08147866 -0.036773704
000070 9d 5f 74 3c 3b 56 d7 bc f9 58 7b bc 83 fa 93 bc
       0.014915374 -0.026286235 -0.015341037 -0.01806379
000080 46 de 74 bc 6d 05 45 3d 64 47 12 bd ef b7 94 3c
       -0.014945572 0.048100878 -0.035712615 0.018154113
000090 3b e3 20 bb 72 8d 3d 3d 81 e1 03 bd 56 d0 b9 3c
       -0.0024549502 0.04627747 -0.03219748 0.02268235
0000a0 50 f5 50 bd 65 3a 2a bd b0 c1 98 3d 02 cb fa bc
       -0.0510152 -0.041559596 0.07458818 -0.03061438
0000b0 a5 f9 8e 3a 83 00 4f 3d 31 6a 2b bd 46 ca 34 bd
       0.001090814 0.050537597 -0.04184932 -0.044138215
0000c0 ea b8 93 bc 21 aa 33 bd c4 38 00 3c 4b fe 95 bd
       -0.01803251 -0.04386342 0.007826034 -0.07323893
0000d0 a7 30 8c bc e3 86 4f bd f7 50 5d bd 95 c3 d2 3c
       -0.017113043 -0.050665747 -0.054032292 0.025728026
0000e0 d3 1a a1 bd 3e 28 21 3c a6 ce 85 3d fd e5 72 3c
       -0.078664444 0.009836255 0.06533556 0.014825341
0000f0 bc 06 11 3d fe f1 75 bd 62 a9 0b be 4f bf 21 bd
       0.035406813 -0.060045235 -0.13638833 -0.039489087
000100 04 67 c4 bc 94 ba 3e 3c 20 29 b8 3d 71 de c7 bc
       -0.023974903 0.011641163 0.08992219 -0.02439806
000110 e2 7b 45 3d a3 56 4e 3d 26 90 6f bc 3b d6 4c bd
       0.048213847 0.050375592 -0.01462177 -0.050008994
000120 f3 d9 ab bc ff 50 45 3c 13 3b 1b bd 91 18 58 3c
       -0.02097795 0.012043237 -0.037898134 0.013189451
000130 00 29 cc bc 8c bb f5 3c b8 d2 1b 3c d4 d6 20 3d
       -0.024921894 0.029996656 0.0095106885 0.039267376
000140 e2 ba 20 bd f1 6d bc bd da 51 bd 3c f3 f1 11 3d
       -0.039240725 -0.09200657 0.023110319 0.03563113
000150 83 03 56 bd dc c4 8d 3d 10 0b 03 bd 54 51 52 3d
       -0.052249443 0.069223136 -0.031992972 0.05134709
000160 6c bb 59 bd a1 e4 97 bd 22 52 e8 bc 9a 5b 42 bd
       -0.053157255 -0.074166544 -0.028359476 -0.04745064
000170 a1 ee 58 bc 74 e2 94 3c 06 a8 cb bd bf 1b 49 3d
       -0.013240487 0.018174388 -0.09944157 0.049098726
000180 b5 f0 71 3d ff bd 86 3d 10 10 3b bc f6 6e 63 3a
       0.059067447 0.06579208 -0.011417404 0.0008675897
000190 ce d7 85 3d d6 a2 50 3c 70 56 2a bc 3d cf a5 bc
       0.06535302 0.012734136 -0.010396585 -0.02024042
0001a0 b5 8d ac 3c 9b a6 0b 3d fc 6c 29 3b 47 4b d7 bd
       0.021063665 0.034094434 0.0025852313 -0.10512405
0001b0 7d c5 31 bd 88 c4 18 3b a9 3a 99 bc b0 86 4c 3d
       -0.04340123 0.00233105 -0.01870473 0.049933136
0001c0 92 3a db 3c 8a 81 99 bc cb 0b 3f bd 3c 5e d0 bc
       0.026761327 -0.018738527 -0.046642106 -0.02543556
0001d0 9d 6d 89 3d 8d 1c 0d bd 5a b8 66 3c 12 6d 72 3b
       0.0671036 -0.034451056 0.014082039 0.003699128
0001e0 ed 13 06 3d 3b 5c 56 bd 0e 4c f6 bc 38 6d 6a 3c
       0.032733846 -0.05233405 -0.030065563 0.014308266
0001f0 f0 a9 40 3d e2 01 2a 3d c3 e3 c1 bd 75 b9 c8 bc
       0.047037065 0.0415057 -0.0946727 -0.024502495
000200 35 8d a6 3c c3 ee ac 3b 79 fe 51 bc fc f1 4a 3d
       0.020331005 0.005277486 -0.012817019 0.04954718
000210 a8 ca 0a bd 83 ea 8b 3c 1c 97 2d bd b3 27 cc 3b
       -0.033884674 0.017079597 -0.042380437 0.0062303185
000220 26 60 07 bc 8c c6 85 3d 33 b6 92 3d 47 6f 4d bc
       -0.00826267 0.065320104 0.07163658 -0.012538738
000230 44 f7 fe 3c 47 65 46 3d c6 f9 a7 3c 49 f8 87 3d
       0.031123765 0.04843643 0.020504843 0.066391535
000240 03 c9 d1 3c ad d2 a0 bc 36 e6 31 bd 9b 96 16 3d
       0.025608545 -0.019631708 -0.043432437 0.036764722
000250 8c 1d 91 3d 0a 82 60 3d 7a 8d f6 3b c9 f6 4b 3d
       0.07085714 0.054811515 0.0075241895 0.0497959
000260 54 06 dc bc 76 b2 30 bd 72 b6 3e 3d db 3e 80 3d
       -0.026858486 -0.043138944 0.046560712 0.06261989
000270 12 0f 66 bd 66 ae 32 bd c5 82 77 bd 73 fb b0 3d
       -0.056166716 -0.04362335 -0.060427446 0.0864171
000280 05 3a 75 3d 3f f0 be 3d 8a 2f 3b 3d 45 8e bb bd
       0.059869785 0.09323167 0.045699634 -0.09157995
000290 a0 a1 e7 bc ac 3c 4d bc e4 dc 59 bc 87 f5 18 bd
       -0.028275311 -0.012526672 -0.013297293 -0.037343528
0002a0 a4 05 ae 3c 29 71 fa 3b 4b 86 26 3d 58 c6 51 3d
       0.021242924 0.0076428843 0.040655416 0.051214546
0002b0 8a 05 ce 3a 30 18 4c bc a4 45 14 ba 37 9a 4c bd
       0.0015718204 -0.012456939 -0.0005656129 -0.04995176
0002c0 66 12 e5 bc 9b c2 65 bd 03 1e b9 3c e9 89 a1 bb
       -0.027962875 -0.056093793 0.022597319 -0.0049297702
0002d0 1a 61 8d 3c 2f e9 f1 bc 8a 45 75 3d f9 a1 2f bc
       0.017258216 -0.029530136 0.05988077 -0.01071977
0002e0 9b e7 5c 3c 69 1a e3 bb c0 7a 75 bd 52 77 18 bd
       0.013482953 -0.0069306386 -0.059931517 -0.037223168
0002f0 b8 aa 7b bd a8 16 c1 bc 1c 7e ce 3b eb 09 a2 3d
       -0.061442107 -0.023570374 0.0063016545 0.07912048
000300 fc 6e b0 3c df c7 a1 3d 4b a1 d0 3c 4a 92 6d 3b
       0.021537296 0.078994505 0.025467535 0.0036250525
000310 0f a2 37 bd db e1 f0 bc 32 a0 9d 3d c6 e4 d5 bc
       -0.044832285 -0.029404571 0.076965705 -0.026110064
000320 88 fb 53 bc 28 5a 3d bd d3 91 95 bb f7 c6 98 bc
       -0.012938388 -0.046228558 -0.0045645027 -0.018649561
000330 0a 61 80 3c ba 4a 80 3c 36 b7 15 bd 0b 4e 89 bc
       0.015671272 0.015660632 -0.036551677 -0.016760847
000340 d6 19 47 3d 07 be 88 bd ae f9 b9 bd 50 db c7 3b
       0.048608623 -0.0667687 -0.09080826 0.006099142
000350 e6 e4 49 bd 6a 81 c3 3a 6e 5d d7 3d 0e 19 95 bc
       -0.04929056 0.0014915888 0.10515867 -0.018200424
000360 46 9f 03 bd 27 e3 2e 3d 19 9e 06 bd 60 65 6c 3d
       -0.032134317 0.042697098 -0.032865617 0.057713866
000370 01 68 c7 3c 68 6e d8 3c 6e 7f 32 3d b0 5a 8d 3d
       0.024341585 0.026419833 0.043578558 0.06902063
000380 21 93 ba 3c b1 21 92 3d fc 3a 8e 3d 4b 81 56 3d
       0.022775235 0.071353324 0.06944844 0.052369397
000390 a7 7a 51 bd 09 0e 78 3c d0 48 1b bd 87 ae d5 3b
       -0.05114236 0.015140065 -0.037911236 0.0065210494
0003a0 cd 29 84 bd f7 a8 bd bd e3 8c c6 bb 88 22 62 bb
       -0.06453285 -0.09260743 -0.0060592755 -0.0034505446
0003b0 e4 4d 55 bc fb 4c 30 3d 4c c4 4c bd 92 2f 46 3c
       -0.013019059 0.043042164 -0.04999189 0.012096303
0003c0 70 d7 2a bc fc 66 88 3a 96 3b d8 3c e8 50 2d bd
       -0.010427341 0.0010406668 0.0263956 -0.042313486
0003d0 58 bb ee 3b 46 84 95 bd 4b 90 4c 3d e7 ef 7b 3b
       0.0072855167 -0.0730062 0.049942296 0.0038442553
0003e0 52 57 51 bd d6 5c 5e 3c 6c 7b 64 bd da 74 15 bd
       -0.051108666 0.0135719385 -0.055781767 -0.03648839
0003f0 df c8 8a bd 2a 36 ba bc da 71 1e 3d a4 a0 b9 3c
       -0.06776594 -0.022730906 0.038682796 0.022659607

net.4.weight f4 [256, 256]
000000 15 c1 04 3d 74 ae 8e bc 8e c9 c7 bc 01 30 0b bd
       0.0324107 -0.01741717 -0.024388101 -0.033981327
000010 c2 f3 c8 3b f2 4a e4 3c ff d9 2e bc 97 87 cc 3b
       0.006132574 0.027867768 -0.0106720915 0.0062417495
000020 b4 b3 28 3a ac 1a 74 3d 6d d5 56 bc fc 8f d2 3c
       0.0006435469 0.05959575 -0.013112408 0.025703423
000030 57 74 9d bd ef 5f 17 3d 91 8d 4e 3c 49 66 26 3d
       -0.07688206 0.036956724 0.012606994 0.04062489
000040 70 f7 7b bb 2d e2 33 3c a5 20 66 3d 2c bf ca bb
       -0.0038447045 0.0109792175 0.056183476 -0.0061873402
000050 4a 53 4d bd 07 07 76 3c 35 0a 8d bc 57 e6 98 bb
       -0.05012826 0.015016324 -0.017216781 -0.0046661305
000060 d4 d7 7c 3c ef 7f 42 3d 1d c0 8d 3c 9c 68 27 3d
       0.015432317 0.04748529 0.01730352 0.040871248
000070 a2 68 d9 3c 8b 0e bb bc a6 31 42 3d 4e 4b bc bc
       0.02653915 -0.022834083 0.04741063 -0.022985127
000080 ad a8 df 3c 23 fd 19 3d 36 8c 9a bd b0 73 a0 3c
       0.02730211 0.037594926 -0.07546274 0.019586414
000090 ac a0 b1 bb de cb 44 bb 16 6f db 3c a1 67 e1 3c
       -0.005420765 -0.003002874 0.026786368 0.027515234
0000a0 8a af 84 3c ad eb c6 3c 13 ee 83 bd 26 81 02 bd
       0.016196985 0.0242823 -0.064418934 -0.031861447
0000b0 1b 30 0d bc 6a 26 d9 3b e1 60 5d bc 60 6f 06 bd
       -0.008617426 0.0066268938 -0.013511867 -0.03282106
0000c0 9f 7a 62 3d d4 1b 4b 3b 8f 38 86 3c 22 3f 1c bd
       0.05529272 0.0030991929 0.016384391 -0.038146146
0000d0 20 0f 51 3a 5e 67 49 3c 58 c3 90 3c 8a 01 43 3b
       0.0007974971 0.012292711 0.017671272 0.0029755556
0000e0 69 df 2d 3d 39 44 8a 3c 8e dc b5 bc c9 db e6 3c
       0.04244939 0.016878234 -0.022199895 0.028180974
0000f0 18 d1 fa 3b 56 7c ec 3c 65 8b 12 3c 09 54 70 3b
       0.0076543204 0.028867882 0.008944367 0.0036671183
000100 13 df f3 bc 40 5c bb bc 92 78 8f bd c0 a9 be 3c
       -0.029769456 -0.022871137 -0.07005419 0.023274302
000110 74 11 bd 3c 2e db 24 3d cf 1a b8 b9 f0 d8 c2 3c
       0.023079611 0.04024809 -0.0003511519 0.023785084
000120 b5 c5 c7 3d d0 b7 b8 3b e6 64 ab 3c ed 17 81 bc
       0.097545065 0.0056371465 0.020922136 -0.015758479
000130 ce be 47 bc d6 46 2c 3d 14 ef 5a 3b 12 07 e7 3c
       -0.0121914875 0.042059742 0.0033406662 0.028201614
000140 0c e2 57 bc f0 74 96 3c 38 9d 39 3d 2c 10 84 bc
       -0.013176452 0.018366307 0.04531595 -0.016120993
000150 e7 a2 cc bd 7d 59 09 3d 8e 44 a3 3c 70 6e 86 bc
       -0.09992009 0.03353261 0.01993015 -0.016410083
000160 ae 8d 2e 3d 9e af 48 3d e6 f8 21 bd 24 27 eb 3c
       0.042615585 0.048995607 -0.03954401 0.028705187
000170 b9 f5 fa 3c 1f f0 ad bc fc 03 9e bd 15 e4 f1 bc
       0.030634748 -0.021232663 -0.07715604 -0.029527703
000180 d6 76 44 bc 3e 90 98 3c c5 11 76 bd a0 d2 a2 bc
       -0.011991223 0.018623468 -0.06007554 -0.019875824
000190 6a b0 2e 3d 62 df 61 bc 43 17 8a 3d 73 ac 94 bc
       0.04264871 -0.013786169 0.06742718 -0.018148636
0001a0 6f 96 51 3c 32 4f 58 3d c1 f7 09 bc de 6c 96 3c
       0.012792214 0.0528099 -0.008420886 0.018362459
0001b0 02 78 c3 bc 1a 93 5a 3d 8e 15 c3 bc 18 c8 c4 3c
       -0.023860935 0.053362943 -0.023813989 0.024021193
0001c0 9f 7d 1d bd b8 9a d1 bb 7d 4d b3 3c f2 51 df bc
       -0.03844988 -0.0063966177 0.021887535 -0.027260754
0001d0 35 35 ae 3b 01 ce 51 3d b9 79 12 3d cd 37 3e 3d
       0.0053164014 0.05122185 0.035760615 0.046439935
0001e0 34 91 95 3c b4 f3 67 bc d9 2a 51 bd e8 02 6e 3c
       0.018257715 -0.014157224 -0.051066253 0.01452706
0001f0 87 f4 00 bd e7 cd e0 3b 55 cc 5c bb 04 c6 4d 3d
       -0.0314832 0.006860483 -0.0033691127 0.05023767
000200 2d a6 27 bd dc 97 6a bd 4f 9d d8 bc e3 3d 4f bc
       -0.040929962 -0.05727373 -0.026442198 -0.012649032
000210 be df 2a bc 49 84 14 bb 58 58 85 bc 8c 8a 86 bc
       -0.010429321 -0.0022661856 -0.016277477 -0.016423486
000220 a1 f7 87 3c fb ef bb 3b 30 d2 81 bc 52 66 f9 bc
       0.01659757 0.005735395 -0.015847296 -0.030444298
000230 91 81 3a bd 8b cb 80 3c d8 fb 0f bd f0 34 c9 bc
       -0.04553372 0.015722057 -0.035152286 -0.024561375
000240 e1 e2 42 bd 71 06 cf ba be 2d e6 bc 3d d8 1e 3d
       -0.04757965 -0.0015794766 -0.028097983 0.03878044
000250 63 45 ed bc 04 83 29 3c 9d 93 52 3d 2e 8f 0c 3d
       -0.02896375 0.010346178 0.051410306 0.034316234
000260 34 f5 55 bd 30 ad 47 bd 76 a9 e8 ba cd df 7d 3d
       -0.052235797 -0.04874915 -0.0017750699 0.06198101
000270 a1 18 41 3d eb 55 4f bc 49 cb 9f ba 69 ac 68 bc
       0.04714263 -0.012654762 -0.0012191321 -0.014201262
000280 99 5b 54 3c 90 b4 5f 3c 47 5d 72 3c cc 48 18 bd
       0.012961292 0.013653889 0.014792747 -0.0371788
000290 fa fa 57 3d 06 6d b8 3c 35 7e 85 bd cd 22 1b bd
       0.052729584 0.022512924 -0.06518213 -0.037874985
0002a0 3d ba 18 3d 42 22 cd bc 91 08 07 bd 52 fb ef 3c
       0.037286986 -0.02504075 -0.032967154 0.029294644
0002b0 79 c4 b7 bc 74 45 d2 3c b4 76 c4 3b 1f d3 0a bd
       -0.022432553 0.025667883 0.005995596 -0.033892747
0002c0 95 cf 13 bc 20 8d 3c bd 8b 0a 6b 3b 08 dc 75 bc
       -0.009021659 -0.046033025 0.0035864438 -0.015006073
0002d0 74 e9 8b bb 89 18 03 bd a9 22 54 bd 06 12 fc 3a
       -0.004269773 -0.03200582 -0.051790867 0.0019231446
0002e0 05 ee 7c bd 7f 30 d9 bc 1a 33 fe 3c 59 4b c7 bc
       -0.06175043 -0.026512383 0.031030226 -0.02432792
0002f0 7d c5 a9 bc 01 e5 fb bc b9 43 e6 bc af a2 d2 bb
       -0.020724053 -0.030748846 -0.028108465 -0.006428085
000300 29 19 f8 bb d4 95 27 bd 8c 15 5b ba 42 76 d8 3a
       -0.0075713587 -0.04091437 -0.0008357398 0.0016514736
000310 92 31 be bc f9 c9 e1 3c 95 2e cc 3c aa 04 f7 3c
       -0.023216996 0.027562128 0.024924556 0.030153591
000320 f9 13 13 3c 38 1e ae bc 9e 93 26 bc 19 f2 8a 3c
       0.00897693 -0.021254644 -0.010167031 0.016961144
000330 c0 76 0b bd 42 2d 90 bc 3e ee e3 bc 8f 7d b4 3b
       -0.034048796 -0.017599706 -0.027823564 0.005508132
000340 5b e1 94 bb 19 dc 2b 3a 44 d8 10 bd bc 5a 0a 3d
       -0.004543466 0.00065559294 -0.035362497 0.033777937
000350 45 a3 40 3c 30 ca 7f 3d 44 ca 43 bc 0d df 5b bd
       0.0117576765 0.06244868 -0.011950079 -0.053679515
000360 88 9a 97 3a b1 f0 08 bd 38 0c e5 bc c7 16 40 bd
       0.001156644 -0.033432666 -0.027959928 -0.046896722
000370 16 95 e3 bb 81 cb 67 3d a4 3c e5 3c fc 98 68 bc
       -0.0069452627 0.05659056 0.027983017 -0.014196631
000380 9c fd ef 3c c4 4c 6e bd b2 cb 6e 3c 20 19 de 3c
       0.029295735 -0.05817868 0.014574932 0.02711159
000390 13 93 74 bd 88 02 ba 3c 41 42 e6 3c c3 01 95 3c
       -0.059710573 0.022706285 0.028107764 0.018189317
0003a0 79 14 ce 3c 9b e4 83 3c 69 90 e7 bc 51 8b 17 bc
       0.025156246 0.016100219 -0.028267102 -0.009249524
0003b0 f7 83 50 bc 88 85 d6 3c 39 57 ee 3b fc 76 77 38
       -0.012726775 0.02618672 0.0072735813 5.9000202e-05
0003c0 96 d9 f2 bc 38 ea 05 bc 62 f4 59 bc f2 65 c6 3c
       -0.029644769 -0.008173518 -0.013302894 0.024218533
0003d0 f9 81 24 3d 26 21 13 3d b2 d2 1a bd 96 da 4c 3d
       0.040163014 0.035920285 -0.03779859 0.050013147
0003e0 62 7e ee 3c 19 89 77 bc 09 d5 6e bc 8c 89 04 bc
       0.029112998 -0.01510837 -0.014577159 -0.008089434
0003f0 55 e1 8e 3b e1 5b bd 3b a5 38 a4 3d 09 1f 00 bd
       0.0043603578 0.005778775 0.080186166 -0.031279597

net.4.bias f4 [256]
000000 aa 50 22 bd a1 58 e9 bd 25 4c 5f 3b bf 88 56 bd
       -0.03962771 -0.11393858 0.0034072485 -0.052376505
000010 64 cc ce bd ff ad 38 3d 76 49 43 bd 73 f0 96 3a
       -0.10097578 0.04508781 -0.04767748 0.0011515751
000020 23 2a bc bd 52 4d c1 3c e9 fb 84 bc 99 f7 63 3d
       -0.091877244 0.02359644 -0.016233401 0.05565605
000030 d4 b9 8f 3d 07 69 a3 bc 36 99 b0 3b 52 03 7b bc
       0.07017866 -0.019947542 0.005389358 -0.015320616
000040 b6 72 d1 bc 3b 50 47 3c d6 e4 ed 3b 5b 22 15 bd
       -0.025567394 0.0121651245 0.0072599454 -0.036409717
000050 5f c4 9f bd f1 a0 dd bc 46 97 a2 bd a4 5d 50 3d
       -0.07801127 -0.027054282 -0.07939009 0.050870553
000060 a5 68 0b 3d b6 c8 9c bd de a5 f1 3c 18 f6 a4 3c
       0.034035344 -0.0765547 0.029498037 0.020136878
000070 67 4f 8e bb 6d 8f 48 3d 79 d8 3b 3d b6 bf 99 3d
       -0.0043429616 0.048964906 0.04586074 0.07507269
000080 7e 15 3d 3d 05 07 cc 3b f1 d5 21 bd 0e c1 0d bd
       0.046163075 0.0062264227 -0.03951067 -0.03460794
000090 08 8f 05 3d 56 29 8c 3c d6 bf 2f 3d b1 db 1a 3b
       0.03260711 0.017109554 0.04290756 0.0023629481
0000a0 8b b5 4a 3c f4 a4 b8 bc bc 1e 5e 3d 02 cb a6 bd
       0.012372385 -0.022539593 0.05422853 -0.081441894
0000b0 7b 8f 37 bc c0 07 1c bd 4a 2f ff bc 66 28 cb 3b
       -0.011203642 -0.03809333 -0.031150479 0.006199884
0000c0 d8 01 8f bc 36 c2 35 3d 0b 23 a0 bd 41 e3 b8 3b
       -0.017456934 0.044374667 -0.07819184 0.005642325
0000d0 81 df 00 bd 0b 7b f2 bc 50 27 d8 bc ba d3 35 3d
       -0.03146315 -0.029599687 -0.026385933 0.04439137
0000e0 f6 73 a7 bd d6 ca 76 3c 6b 4d 6e 3d 91 8d 0b 3c
       -0.08176415 0.015063008 0.0581793 0.008517639
0000f0 2a 66 03 3d dd 71 e4 bd ec d0 c0 3c a1 5d 78 3d
       0.032079853 -0.1115453 0.023537122 0.060636166
000100 e2 d8 36 3c c3 07 48 3d 9a 89 9a 3b a3 a9 70 3d
       0.011160107 0.048835527 0.0047161104 0.05875553
000110 22 f5 25 3d 88 af 61 3a 86 52 f6 bc 07 23 82 bd
       0.04051698 0.0008609225 -0.030068647 -0.06354337
000120 94 6b 8c 3d bf b3 0e 3d f4 72 e5 bc e2 61 95 3d
       0.068564564 0.034839388 -0.028008915 0.0729406
000130 1a 64 c7 bd 44 62 75 ba 0c 03 01 bd e5 59 e8 bc
       -0.0973589 -0.0009360651 -0.031497046 -0.028363178
000140 33 84 2f bd 88 0a 58 3a 0b 14 24 3d fd ad ef bb
       -0.042850684 0.00082413154 0.040058177 -0.007314442
000150 0d 0d 1b be 5b 7a 1e bd ed f8 99 bc 8f af d0 3b
       -0.15141697 -0.038690906 -0.018795455 0.0063685845
000160 aa e2 c9 3c 8f 79 26 bd f7 fc 8b 3c 6d 1a 90 bc
       0.024644215 -0.04064327 0.017088396 -0.017590726
000170 b5 c3 8e bc a2 fd e9 bc 21 3d fc bb 95 8a 19 3d
       -0.017427305 -0.028563324 -0.007697717 0.037485678
000180 4f 9b a0 bc 24 ff 4b 3d 53 16 39 bd e8 20 a7 3b
       -0.019605307 0.049803868 -0.045187306 0.0051003583
000190 2e f2 87 bc 82 17 92 3b 01 75 70 3d e9 1a 23 3c
       -0.016594972 0.0044583688 0.058705334 0.009955146
0001a0 04 83 bc 3c b4 32 94 bb 57 0c f3 b9 99 90 1f bd
       0.023011692 -0.004522646 -0.00046357766 -0.03895626
0001b0 83 8e 26 3d 66 e5 54 3d da 9a 95 bc 1d e9 9d bc
       0.040663254 0.051976584 -0.018262316 -0.019276196
0001c0 15 fe ff bc 0a 73 44 bb 08 b2 de bd 63 c9 9d bc
       -0.031249085 -0.0029975795 -0.108738005 -0.019261068
0001d0 a4 01 68 bd ef 30 3b 3d 01 26 c3 3c 92 b4 a7 3c
       -0.05664219 0.045700964 0.023821833 0.020471845
0001e0 f4 3d 24 3d 10 33 9f bb 07 3a 9e 3d 08 00 00 be
       0.040098146 -0.004858382 0.077259116 -0.12500012
0001f0 e6 57 63 3c 87 4e dc bb 8e f4 25 ba 8c fe 29 3c
       0.013875937 -0.0067232284 -0.0006330692 0.01037563
000200 15 dc a4 bc 5e de fa bc 9d db c8 bc 38 31 ff 3b
       -0.020124475 -0.030623611 -0.024518782 0.0077878498
000210 a8 5e 63 bd 96 9a 21 3d 20 eb b2 3c be cc 19 39
       -0.055510193 0.039454065 0.021840632 0.0001466749
000220 77 70 a0 3c 3e 00 06 be 13 d8 df bc 4c 51 79 bc
       0.019584877 -0.1308603 -0.027324712 -0.015217137
000230 bc 55 bd 3b d7 d1 5b 3c 4d 17 54 bd dd 47 61 bc
       0.0057780426 0.013416729 -0.051780034 -0.013750044
000240 89 0e 74 bd f9 b7 bc 3c fa f5 38 bd 2f 94 8e bd
       -0.059584174 0.023036944 -0.045156457 -0.069618575
000250 af 28 b5 bd ec 6d 98 3d 47 5e 5b 3b 4c fc 28 3d
       -0.088456504 0.07442841 0.0033472942 0.041256234
000260 ee c7 ed bc 4d ca af bd 43 73 d9 bd 0b ca ee bd
       -0.029025998 -0.08583508 -0.106176876 -0.116596304
000270 3c 47 5d bc ab 31 57 bd 8c 33 26 3c 8e b0 91 bd
       -0.013505753 -0.0525376 0.010144126 -0.07113753
000280 c4 8e cd 3c ef 95 9a bd de 55 11 bc cb 84 c8 bd
       0.02509249 -0.07548129 -0.00887057 -0.09790953
000290 d7 42 4d 3d 7b 2c 5f bd 52 73 0c 3d 56 db bc bd
       0.05011257 -0.05448578 0.034289666 -0.092215225
0002a0 c3 13 3a bd 0a f6 04 3d 58 49 c7 bd f0 c4 1c bd
       -0.045429002 0.032461204 -0.09730786 -0.03827375
0002b0 56 cc 53 bd 5b 84 1c 3d 52 32 ab bc 8b a7 d1 3b
       -0.05170854 0.03821216 -0.020898018 0.0063981465
0002c0 0b c3 3d 3d 4b c8 91 bd e5 19 02 3a 41 99 01 3d
       0.046328586 -0.07118281 0.0004962965 0.031640295
0002d0 2e 4d 3e bd f3 79 f5 bc ff 74 68 3c 73 5f c8 bc
       -0.046460323 -0.029965376 0.01418805 -0.024459576
0002e0 b6 f6 9e 3b 43 7d 13 be 52 82 32 bd cf 2a b5 bd
       0.0048511876 -0.14403252 -0.043581314 -0.08846056
0002f0 18 a9 c3 bb f1 99 89 3d 6a 45 2e 3d 00 ab b1 3c
       -0.0059710853 0.06718815 0.042546667 0.021687984
000300 16 01 50 bd 10 ca 3e bd eb 4a b3 3c 5b 97 a8 bc
       -0.050782286 -0.04657942 0.02188631 -0.020579984
000310 71 d1 8b bc 16 01 89 3c e9 3e a1 3d 43 8d 7c 3c
       -0.017067643 0.01672415 0.07873327 0.015414539
000320 9d 09 57 bc a9 bc 54 bd 5f 98 d6 bd 76 f4 90 bc
       -0.013124851 -0.051937733 -0.10478281 -0.017694693
000330 d4 80 21 be da 47 60 bd e0 ef bf bc ea 57 9b 3b
       -0.157718 -0.054756023 -0.023429811 0.004740705
000340 a8 29 15 be ec e6 69 bd 01 30 24 3c 92 2b 5a 3a
       -0.14566672 -0.05710499 0.010021211 0.00083225325
000350 a2 1b d5 bc fa 03 7f 3c f2 8d dc bd 8e 70 30 bd
       -0.026014153 0.015564913 -0.107692614 -0.04307609
000360 f3 c7 7d 3d 10 dc ba bd 4e 0e 53 bd 91 25 2d bd
       0.061958265 -0.09124005 -0.051527314 -0.042272154
000370 89 c0 e0 bd f6 99 6e bb 90 96 6d 3d 11 ae c2 bd
       -0.10974223 -0.0036407686 0.058004916 -0.09505857
000380 dc 79 d1 3b e1 36 9f bd 01 76 40 3d 25 d6 0c bd
       0.0063927006 -0.07774139 0.046987537 -0.03438391
000390 ab 50 42 bd 8c fe af 3c 94 6d 9f bc 70 f2 4f 3d
       -0.047440212 0.021483682 -0.01946143 0.050768316
0003a0 06 28 8f bd b1 1d 21 bc 13 ce 87 bb 62 06 8d 3c
       -0.06990056 -0.009833739 -0.004144439 0.017214958
0003b0 af 7a 27 3d 11 1b d2 bb 7e 03 dd 3b 6c 2e bf bd
       0.040888485 -0.006411918 0.006744801 -0.09335026
0003c0 da 95 98 3b 9a 02 8e bc 39 5c 28 3d 34 3a 1a 3d
       0.0046565356 -0.017335225 0.041103575 0.037653163
0003d0 93 e8 0c bd 83 14 d1 bb ed ac 16 be ea ec 89 bc
       -0.034401488 -0.006380619 -0.14714403 -0.016836602
0003e0 cb 9f 0b bc 84 5f 83 3a f7 10 b6 bc 9c 45 9b bd
       -0.008521984 0.0010022973 -0.022224886 -0.07581636
0003f0 93 80 09 bd 0e 40 2e 3d 2b 54 47 bd b9 7c fc bc
       -0.033569884 0.042541556 -0.048664253 -0.030821191

net.6.weight f4 [2, 256]
000000 d3 e6 1d b9 89 41 6b bd 02 eb 3e 3a 6a fb b3 b9
       -0.00015058675 -0.057435546 0.00072829437 -0.0003432886
000010 55 1a fa bc 09 ca 4e 3a 05 1c f9 b8 f9 aa 09 3a
       -0.030530134 0.0007888382 -0.00011878464 0.0005251612
000020 b5 dd 1f bd 8c 26 8c 3c a1 97 11 ba 6c a6 d6 b9
       -0.039029796 0.017108224 -0.00055539055 -0.00040941255
000030 81 3b 2b 3d b1 34 1a 3d a4 ca 00 bd 53 e6 22 bd
       0.041804794 0.037647907 -0.031443253 -0.039770436
000040 5d 47 19 3c a2 31 bf 39 5e da 2d b9 4a 3a f8 b9
       0.009355393 0.00036467338 -0.00016579914 -0.00047345675
000050 88 e6 b1 bb 33 95 cd b8 34 1b 1b ba 91 c1 c0 b8
       -0.005429093 -9.802952e-05 -0.00059168343 -9.191328e-05
000060 f4 5a 9a 39 e2 90 1b 3d 0c de 14 bd 75 b3 66 3a
       0.00029440934 0.037979968 -0.036344573 0.0008800545
000070 ec af 04 ba df 9a 3c 39 66 98 fb b9 5d 4f 12 39
       -0.0005061615 0.00017986771 -0.00047987996 0.0001395321
000080 ee 69 03 38 50 e8 56 39 4e f0 ec 38 5e 61 e7 bc
       3.133149e-05 0.00020495174 0.00011298117 -0.02824467
000090 4c 24 36 bd c0 af a0 b9 7c 9a a5 b9 63 d2 db b9
       -0.04446821 -0.00030648522 -0.00031586352 -0.00041927685
0000a0 40 b4 08 ba 98 c2 d0 b9 ac db 44 ba 48 85 fd 3b
       -0.00052148476 -0.00039817835 -0.00075095403 0.0077368356
0000b0 2a da 2a ba a8 7e 00 38 08 d1 68 ba 43 d0 ca b9
       -0.00065174943 3.0635536e-05 -0.0008881246 -0.0003868361
0000c0 6a 21 a9 b9 9c be 5d ba b8 ce ac b9 05 db ad 39
       -0.00032259087 -0.0008458884 -0.00032960414 0.00033160314
0000d0 ef 4f a6 39 65 ba 6e ba de 3e 20 3a 30 df c9 bc
       0.00031721542 -0.00091067544 0.00061128836 -0.024642557
0000e0 51 22 b5 bb 0a e6 13 ba 20 c4 39 b7 86 68 d7 bc
       -0.0055277725 -0.00056418835 -1.1072523e-05 -0.026294958
0000f0 5e 54 da 39 9d b0 03 bd fc 53 72 ba 85 8f 3a ba
       0.0004164306 -0.032150853 -0.0009244082 -0.0007116723
000100 42 45 6b 38 96 32 97 39 31 ed 3c b8 a0 ca 84 37
       5.6092867e-05 0.00028838654 -4.5043595e-05 1.582998e-05
000110 72 8f 62 b9 b1 8f df 39 67 0c b4 39 ff 25 5d 3a
       -0.00021606477 0.00042640933 0.00034341516 0.0008436143
000120 e3 f9 a3 39 15 a5 81 ba ad b3 f3 b8 58 f8 e0 b9
       0.00031275963 -0.0009891117 -0.0001162061 -0.0004290964
000130 75 4a 03 3c b7 82 aa 3a e2 b7 08 3d 4b 0e c3 bc
       0.008013357 0.0013008927 0.03337849 -0.023810526
000140 13 8d d2 bc f7 24 22 ba cc e5 ac b9 a9 e2 b2 38
       -0.025702035 -0.0006185318 -0.00032977608 8.52992e-05
000150 15 2d a2 bc f8 7e a9 3b 93 d6 6e ba a5 16 98 3a
       -0.019796887 0.0051726066 -0.00091109535 0.0011603428
000160 71 d0 ae b9 c3 45 3d 3a 39 cc 37 3d ce a9 b7 ba
       -0.00033343167 0.0007220173 0.044872496 -0.0014012398
000170 79 49 ee b9 58 0e 88 b9 1d 0a 1e 3a 4f 67 08 3a
       -0.0004544964 -0.00025950628 0.00060287287 0.00052033825
000180 e5 25 92 3a d7 e9 60 3c 2c 1a 66 b9 7a ac e2 b9
       0.001115021 0.013727627 -0.00021944259 -0.00043234584
000190 62 b9 7f 39 cd 21 c0 39 58 5b 1a 3a cf 1a 13 ba
       0.00024387756 0.00036646277 0.0005888245 -0.00056116
0001a0 04 d8 86 39 72 f4 94 ba 4b 34 44 ba 03 fe 46 3a
       0.00025719416 -0.0011364354 -0.0007484599 0.0007590951
0001b0 4b 76 36 3d 9b db d8 b9 08 a9 86 3a 1e 05 7e 39
       0.044546407 -0.0004136235 0.0010273764 0.00024225234
0001c0 f4 78 b4 ba e2 7a f1 b9 cb a0 96 bb 5a 88 3d 3b
       -0.0013768957 -0.00046058657 -0.0045968047 0.0028920383
0001d0 94 91 33 bd d5 29 69 bd 38 5f 01 b7 7f 50 e3 39
       -0.043840006 -0.05692466 -7.711169e-06 0.00043356788
0001e0 bd a8 b5 ba 00 87 85 3d 4c d1 8e 3b 32 28 c5 bc
       -0.0013859492 0.0651989 0.004358446 -0.024067018
0001f0 0c 68 db 3b 12 bb 29 3d a7 80 8b 39 5a 90 40 3a
       0.006695753 0.04143817 0.00026608 0.0007345729
000200 c8 85 59 b8 c4 0a b4 b9 d8 ec 41 3a 70 f4 8d 3d
       -5.1861425e-05 -0.00034340296 0.0007397658 0.069313884
000210 b4 41 6b 38 82 21 89 ba 4a c1 25 3a 5b ed 98 b9
       5.6089557e-05 -0.0010462257 0.0006323053 -0.00029168543
000220 24 51 b0 39 59 0b 57 3b 25 74 97 bd 66 bb b3 3c
       0.0003362979 0.003281316 -0.073952 0.021939944
000230 ec c5 3c bd 90 2b fb 3a ca 53 a6 3c 7c 39 a3 b9
       -0.04608719 0.0019162763 0.020303626 -0.00031132612
000240 fa 7e 2e b9 b9 97 8d b9 7c 8b ff 39 8c c6 89 3c
       -0.00016641236 -0.00027006658 0.00048741314 0.016818307
000250 fe d1 70 3d fb 45 4a 3b 57 5d a3 ba 52 6b f1 39
       0.058794014 0.0030864466 -0.001246373 0.00046047062
000260 d1 5f 32 ba a9 3a b4 b9 b8 d5 a1 bb 8d f7 2d 3d
       -0.0006804439 -0.0003437598 -0.0049388073 0.04247241
000270 7c 46 14 3c 96 1b f8 3a 8f 87 e0 b9 6b 8b 0d 3d
       0.009050008 0.001892912 -0.00042825608 0.034556787
000280 a2 29 cb 39 76 dc b8 bc 8a c6 28 3a 97 14 94 bc
       0.00038750196 -0.022566061 0.0006438276 -0.018076224
000290 6e 7d d3 b9 93 23 c1 b9 ef 67 31 39 7a 8d af bb
       -0.0004033851 -0.00036838333 0.00016918754 -0.0053574415
0002a0 3c 04 69 3a 78 34 13 3a 31 ea 11 bd 54 4d 60 3a
       0.00088888756 0.00056154234 -0.035623733 0.00085564447
0002b0 60 2a 0a 34 4d d1 0d ba 2f 90 3d b9 a3 f6 30 3a
       1.2867667e-07 -0.00054099114 -0.00018078157 0.0006750619
0002c0 1e 79 3c 3a e5 e0 17 bd 88 5f 97 38 58 1a 37 38
       0.0007189679 -0.03707971 7.218035e-05 4.3655135e-05
0002d0 c5 91 8d 3d 32 db 76 b9 27 e7 47 ba c9 1e f2 b8
       0.06912569 -0.00023542045 -0.0007625692 -0.000115451934
0002e0 e4 2a 81 b9 8e c0 b4 bc 39 65 fd 39 9e cd ba bc
       -0.00024636753 -0.022064473 0.00048331337 -0.022803124
0002f0 cc 64 14 3a 98 e9 2f ba 50 5e 34 3a 5f c6 75 bd
       0.0005660772 -0.00067105284 0.0006880509 -0.060003635
000300 2a 8a ec 37 72 97 8b 38 a1 66 93 b9 2f db de 3a
       2.819773e-05 6.6562454e-05 -0.0002811449 0.0017002578
000310 24 a2 1b 3a 44 24 a7 3c 54 85 7d ba 18 8d 8b b8
       0.00059369416 0.020403035 -0.00096710515 -6.654317e-05
000320 22 9e 28 bb 77 cc 37 bb ab cc c8 3c d0 97 a3 36
       -0.002572902 -0.0028045455 0.024511656 4.875452e-06
000330 82 b9 27 bd 3f 4e 08 3d 7a 23 f5 b9 91 d6 03 3a
       -0.0409484 0.033277746 -0.00046756474 0.00050292263
000340 ca 21 8e bd d4 f3 a5 3c cd 18 38 ba b8 c5 5c 39
       -0.069400385 0.020257868 -0.00070227386 0.00021054491
000350 86 5a e6 b9 cf 39 a3 b9 e9 35 35 bd 09 7b 1a bd
       -0.00043936464 -0.00031132853 -0.044240866 -0.03771499
000360 d2 70 3c 38 8a f7 f9 bc f2 72 74 bc 1e 6b ea 38
       4.4927765e-05 -0.030513544 -0.014919983 0.000111779416
000370 98 49 4f 3a ba bf a0 b9 c3 ff 63 ba b1 f1 4a bd
       0.00079073897 -0.00030660426 -0.0008697474 -0.0495469
000380 36 b3 76 3a 6f e3 9c bb f5 5a 16 b9 d1 ff 89 39
       0.000941086 -0.0047878544 -0.00014338999 0.00026321274
000390 0c 33 df 3c 9f 77 01 ba ae 01 cb ba 81 64 3c b8
       0.02724602 -0.00049387844 -0.0015488171 -4.4916294e-05
0003a0 a7 0b 04 bd 78 92 c9 39 07 da 86 ba da 4d 83 ba
       -0.032237675 0.00038446835 -0.0010288366 -0.0010017708
0003b0 63 c8 ff b8 73 82 80 3a 7d 6b 81 bb 3b 82 4f bd
       -0.000121966725 0.0009804502 -0.003949581 -0.050661307
0003c0 a2 cd a7 39 fe 8a 6b 39 6c e7 b6 b8 b9 75 fe b9
       0.0003200593 0.00022463125 -8.721542e-05 -0.00048534365
0003d0 25 e7 a6 bc 2b 67 c4 3c cd 77 8b bd 82 68 f0 3c
       -0.02037389 0.023974976 -0.068099596 0.029346708
0003e0 b6 6d d1 b7 0d 1b e7 b9 ee a7 a7 3a 9f 97 e5 3c
       -2.496583e-05 -0.00044079908 0.0012791136 0.0280264
0003f0 70 22 6a 3a 03 3f 55 b8 2d 97 c1 39 06 ea 80 3a
       0.0008931523 -5.084184e-05 0.00036924463 0.000983537

net.6.bias f4 [2]
000000 fb c7 f0 3c ae d4 20 3d
       0.029392233 0.039265327
