checkerboard/cfm/models/3000_model.pt (torch, 535780 bytes, 8 tensors)

net.0.weight f4 [256, 3]
-0.14824097 0.23317632 -0.17571199 -0.5390794 0.17382921 -0.2986864 0.5273034 0.22760783
0.33656925 0.28439218 0.2779009 0.28705823 -0.2638342 -0.47751585 0.4979006 0.50798476
-0.10441626 0.34831738 0.4264166 -0.15032518 0.09133171 -0.17226377 0.22862627 0.068589345
-0.25558868 0.31976643 0.3507048 0.013454745 -0.0981238 -0.40284726 0.11197161 -0.60127544
0.038722012 -0.06954811 -0.3546558 -0.3926613 0.1598264 -0.49274844 -0.3470957 -0.032489214
0.13355228 -0.38649 -0.34260753 -0.13593258 -0.47926992 -0.19740996 -0.018228512 0.18332705
-0.07090716 0.47881323 0.040228028 -0.587315 0.48720238 -0.29884627 0.16778809 0.10140181
-0.2212156 -0.5247916 -0.4080523 0.1219622 -0.08917873 0.25899294 -0.03519163 -0.34528863
-0.08441678 0.57053417 0.00078849617 -0.20542976 0.5539307 0.15931842 0.25476792 -0.16967322
-0.49665123 0.41635793 0.37223062 0.07675739 0.5401885 0.47048774 -0.5638718 0.18486838
0.17872103 -0.05444415 0.25400928 -0.47477952 -0.578804 -0.41742048 0.027506568 -0.2167281
0.06952912 0.255721 -0.22316198 -0.24532649 -0.03508716 0.4895396 -0.59424895 -0.23303865
-0.4794044 -0.008454222 -0.42209455 0.23344487 0.07156719 -0.21173988 -0.49651057 -0.37850523
-0.014352745 0.17043959 0.03723655 0.03992359 -0.12264055 0.06878587 -0.057068866 0.5949289
0.61347765 -0.5549924 0.43714848 0.472589 0.51462317 -0.1446287 -0.2661975 0.34128064
-0.17642605 0.5457342 -0.50178236 0.11914101 -0.0899147 0.26328784 -0.44787598 -0.22078209
0.12531304 0.391939 -0.45578733 0.4584305 0.113452755 -0.46807536 -0.009279448 -0.4991475
0.29423797 0.2309825 -0.12161725 0.3588124 -0.028150309 -0.072589315 -0.5797061 -0.28291935
-0.51114726 0.50129646 0.42167506 -0.31269643 -0.20983543 -0.17779626 -0.6212584 -0.11925543
-0.113940276 -0.5482681 0.5703344 -0.428181 -0.0839082 0.1488276 0.5786797 -0.48908058
-0.09134514 -0.14274459 -0.20496419 0.07209876 -0.46667263 -0.18584664 0.4889795 0.3328588
0.5169953 -0.0843352 -0.024173386 0.21130972 0.21359889 -0.06598152 0.120732225 0.023590257
-0.052983522 -0.32935402 0.40558392 -0.5181533 -0.24494313 0.015938241 0.38013023 0.34396625
0.19947349 -0.4031334 0.33621165 0.3733303 0.3406243 0.50515944 -0.33986494 0.4346914
0.31343934 0.5031597 0.28804266 0.44490698 0.39680028 0.41929296 -0.18478857 0.437836
-0.3381789 -0.5374666 0.5238715 0.29325357 0.39488253 -0.4003576 0.4023103 -0.56103164
-0.29356843 -0.12106243 -0.22533126 0.29888007 0.5402561 0.28739184 -0.1134589 -0.05233737
-0.24356042 -0.16188407 -0.15610275 0.45166484 -0.1716494 0.16699922 -0.003214038 -0.1785283
-0.2822749 -0.41936204 0.22407946 0.3364342 -0.40781277 0.15609442 -0.4667748 -0.27069694
-0.15849634 0.27630082 0.5503717 0.4218923 -0.18154444 0.21779887 0.26704365 0.48228744
0.26827782 -0.35231894 0.37625533 0.5993741 -0.20768014 0.2987056 0.1263776 -0.4035767
0.4613675 -0.12211633 0.47099835 0.3473293 0.07821471 0.4775673 0.49153772 0.27840734
00000000: 7bcc 17be c6c5 6e3e d8ed 33be 1c01 0abf
00000010: 4900 323e 6ced 98be 5bfd 063f 0712 693e
00000020: ce52 ac3e da9b 913e 0749 8e3e 4cf9 923e
00000030: 4715 87be f57c f4be d4ec fe3e 4a0b 023f
00000040: 31d8 d5bd a856 b23e 4753 da3e d8ee 19be
00000050: 1f0c bb3d ea65 30be 011d 6a3e 9278 8c3d
00000060: 85dc 82be 6db8 a33e 948f b33e 4a71 5c3c
00000070: 21f5 c8bd ff41 cebe 5f51 e53d 30ed 19bf
00000080: f99a 1e3d 3d6f 8ebd 7295 b5be e70a c9be
00000090: 88a9 233e 8649 fcbe 87b6 b1be 6913 05bd
000000a0: eec1 083e 04e2 c5be 416a afbe e931 0bbe
000000b0: de62 f5be d625 4abe f653 95bc 16ba 3b3e
000000c0: c637 91bd 0227 f53e 25c6 243d 475a 16bf
000000d0: 9772 f93e 6102 99be a4d0 2b3e c1ab cf3d
000000e0: 5886 62be be58 06bf 3bec d0be 51c7 f93d
000000f0: 57a3 b6bd b99a 843e 1925 10bd acc9 b0be
00000100: b4e2 acbd 870e 123f 15b3 4e3a 2e5c 52be
00000110: 67ce 0d3f 5e24 233e f170 823e d1be 2dbe
00000120: 1249 febe de2c d53e 0395 be3e fa32 9d3d
00000130: cb49 0a3f c5e3 f03e e759 10bf 234e 3d3e
00000140: a502 373e d400 5fbd 810d 823e 4d16 f3be
00000150: 802c 14bf 23b8 d5be 7455 e13c f9ed 5dbe
00000160: 4965 8e3d dded 823e 9384 64be de36 7bbe
00000170: 8eb7 0fbd efa4 fa3e b320 18bf afa1 6ebe
00000180: 7e74 f5be 9483 0abc c71c d8be 2c0c 6f3e
00000190: d291 923d 57d2 58be a236 febe 70cb c1be
000001a0: c727 6bbc b787 2e3e 5a85 183d eb86 233d
000001b0: f82a fbbd 9bdf 8c3d 0bc1 69bd 434d 183f
000001c0: df0c 1d3f fb13 0ebf edd1 df3e 2ff7 f13e
000001d0: 58be 033f 8c19 14be 0a4b 88be 56bc ae3e
000001e0: 08a9 34be 3db5 0b3f cf74 00bf 3400 f43d
000001f0: 3325 b8bd aacd 863e 0050 e5be b314 62be
00000200: 1052 003e 3bac c83e f55c e9be 67b7 ea3e
00000210: eb59 e83d 93a7 efbe d308 18bc 4390 ffbe
00000220: 5ca6 963e ad86 6c3e 7712 f9bd 42b6 b73e
00000230: 7a9b e6bc b5a9 94bd 9e67 14bf ceda 90be
00000240: 8cda 02bf f754 003f cbe5 d73e bf19 a0be
00000250: 19df 56be 3910 36be ca0a 1fbf 313c f4bd
00000260: 8559 e9bd 4c5b 0cbf 6f01 123f 8a3a dbbe
00000270: 10d8 abbd 4366 183e 5a24 143f c568 fabe
00000280: 2913 bbbd a32b 12be 22e2 51be 84a8 933d
00000290: b7ef eebe 954e 3ebe 855b fa3e 786c aa3e
000002a0: ce59 043f efb7 acbd 4407 c6bc 9361 583e
000002b0: abb9 5a3e 5221 87bd 7542 f73d 5b40 c13c
000002c0: 4005 59bd 17a1 a8be b2a8 cf3e b2a5 04bf
000002d0: 5fd2 7abe ea90 823c 6ea0 c23e 581c b03e
000002e0: c742 4c3e 8067 cebe ef23 ac3e 2625 bf3e
000002f0: 4f66 ae3e 2152 013f c702 aebe df8f de3e
00000300: 1f7b a03e 13cf 003f 547a 933e d9ca e33e
00000310: 6829 cb3e 91ad d63e 3739 3dbe 0a2c e03e
00000320: c925 adbe 6997 09bf 711c 063f 5525 963e
00000330: 0b2e ca3e acfb ccbe 9efb cd3e c59f 0fbf
00000340: 9a4e 96be 94ef f7bd 3dbd 66be cf06 993e
00000350: 394e 0a3f 0625 933e 245d e8bd b65f 56bd
00000360: e767 79be f0c4 25be 66d9 1fbe 9d40 e73e
00000370: dcc4 2fbe d801 2b3e 9ca2 52bb 1fd0 36be
00000380: 5686 90be 9fb6 d6be 1675 653e 1a41 ac3e
00000390: d6cc d0be 37d7 1f3e 1bfd eebe ca98 8abe
000003a0: dd4c 22be 4d77 8d3e 29e5 0c3f 4402 d83e
000003b0: c9e6 39be ab06 5f3e f2b9 883e 61ee f63e
000003c0: b65b 893e 2663 b4be 8aa4 c03e 9570 193f
000003d0: 1aaa 54be f1ef 983e 2169 013e 9ba1 cebe
000003e0: 5c38 ec3e 2018 fabd b226 f13e 25d5 b13e
000003f0: 092f a03d b383 f43e d5aa fb3e 688b 8e3e

net.0.bias f4 [256]
-0.28766212 0.2713379 0.22081403 -0.44575706 0.3203683 -0.056512784 0.33729792 -0.5703414
-0.49973246 0.2759374 0.47286788 0.2143427 0.59280884 -0.5264769 0.428474 0.07995844
0.17649223 0.17423041 0.21283954 0.49333352 0.5105343 0.20536987 0.5210247 -0.27633777
0.38986787 0.5136972 0.31207177 0.51597124 0.35395372 0.36750346 -0.33433732 -0.5863019
0.39607576 -0.019938018 0.33903047 -0.1249456 0.3242182 -0.509178 -0.18894863 -0.03179219
-0.41284716 0.252784 0.050792065 -0.4277382 -0.5447158 0.023573892 0.33059332 0.53931916
-0.46972528 0.043551143 0.10225328 0.07782185 -0.46063483 -0.0142643135 -0.060209572 0.02053312
0.20269558 -0.02227376 0.014857191 -0.5148158 0.30494452 0.307888 0.07307154 -0.06781836
-0.020925544 0.22312526 0.31733766 -0.40203205 -0.46397415 0.39079309 0.028567178 0.2411764
-0.1818432 -0.10714904 0.16042505 -0.022021094 0.27102897 -0.18656865 -0.09074894 0.27805382
0.15925118 -0.090965055 0.3942057 -0.19778866 -0.5917866 0.33559924 0.42524496 -0.3073825
-0.41484994 0.53400916 -0.04105326 0.5153293 -0.5413314 0.3891864 0.5617816 0.39615318
-0.5248699 0.1984676 0.18222263 0.06667648 0.08552307 -0.30679905 0.41598746 -0.27773353
0.570723 0.08164744 0.16140416 -0.46544737 -0.14118868 -0.050610177 0.37149763 0.027991096
0.15917216 0.17004271 -0.26969483 0.306821 0.12852761 -0.0769251 -0.0025278404 0.124216445
-0.30164006 0.38671824 0.31865025 -0.44529098 0.13470009 0.07078551 -0.5532268 0.46823552
0.50758916 -0.34866378 0.025449 0.24421008 0.24339652 -0.33679977 0.08249986 0.29520828
0.29456395 -0.42253977 -0.27829123 0.18871836 0.18374604 -0.06711958 0.1711302 -0.4149679
0.37395772 0.39036116 -0.43618664 -0.16426502 0.3530445 -0.39979225 0.051245205 0.07594011
-0.5470998 -0.20102002 -0.36084577 -0.18603374 0.4128259 0.35486984 0.015378029 -0.42564514
0.30031097 -0.32671714 0.41814125 -0.4245187 0.17540462 0.02095309 0.18915142 -0.41762322
0.26609772 -0.23268974 -0.5764103 0.1562686 -0.4311733 -0.32801476 0.38000655 -0.061449386
0.06038648 0.08789888 -0.05900568 -0.5235683 0.43637452 -0.39412984 0.5252652 -0.12177516
0.10482149 0.35151583 -0.20378512 -0.12752384 -0.0041147345 0.18757035 -0.51238924 -0.3602023
0.039204482 -0.08807804 0.13931993 0.42749932 -0.2635569 0.38832095 0.09696229 0.39315367
-0.4223751 0.028072791 0.064927265 -0.51274157 0.474011 -0.3955348 0.57631224 0.0880004
0.50510246 -0.40403628 -0.19621846 0.11335238 0.34826258 0.27391633 -0.46995866 0.012296633
-0.027732495 0.23862758 -0.48528656 -0.31519702 -0.30308738 -0.36633366 0.1174623 -0.36528558
-0.025569038 0.48578244 -0.23643197 -0.47013342 -0.08531266 0.58442205 0.27409005 -0.11696355
0.5448414 0.23302643 0.5206019 -0.4781931 0.08973308 -0.47992688 -0.058041207 -0.4212931
-0.12997487 0.2638059 0.12183841 -0.5344452 -0.012957917 0.41933557 0.33826423 -0.14388683
-0.16796166 -0.37086415 0.1898458 0.26093578 0.114272416 -0.5332888 -0.21186464 -0.5164779
00000000: 7348 93be cdec 8a3e 131d 623e 453a e4be
00000010: 5007 a43e f379 67bd 50b2 ac3e e501 12bf
00000020: efdc ffbe ab47 8d3e bd1b f23e a77c 5b3e
00000030: 52c2 173f 31c7 06bf f260 db3e 40c1 a33d
00000040: 61ba 343e 7569 323e 9cf2 593e 3696 fc3e
00000050: 60b2 023f 7b4c 523e e061 053f 257c 8dbe
00000060: c39c c73e a981 033f dfc7 9f3e b116 043f
00000070: 6c39 b53e 6a29 bc3e 432e abbe e217 16bf
00000080: 71ca ca3e 0e55 a3bc 6795 ad3e 7be3 ffbd
00000090: eeff a53e 7d59 02bf c07b 41be 8738 02bd
000000a0: b460 d3be e86c 813e 570b 503d 8000 dbbe
000000b0: 7f72 0bbf 091e c13c 8743 a93e d210 0a3f
000000c0: d57f f0be af62 323d 2b6a d13d 1061 9f3d
000000d0: 54d8 ebbe deb4 69bc 509e 76bd 1335 a83c
000000e0: 6e8f 4f3e 7677 b6bc 936b 733c f8ca 03bf
000000f0: b021 9c3e 7fa3 9d3e 88a6 953d 5ae4 8abd
00000100: 0c6c abbc f37a 643e 157a a23e 25d7 cdbe
00000110: 058e edbe 0816 c83e b705 ea3c f2f6 763e
00000120: 1b35 3abe f570 dbbd 7746 243e 9565 b4bc
00000130: 4fc4 8a3e da0b 3fbe 95da b9bd 125d 8e3e
00000140: be12 233e e34b babd 54d5 c93e 1c89 4abe
00000150: 547f 17bf aad3 ab3e b5b9 d93e 3d61 9dbe
00000160: 3667 d4be d3b4 083f 7727 28bd 9fec 033f
00000170: b294 0abf 7143 c73e ebd0 0f3f 97d4 ca3e
00000180: e05d 06bf 173b 4b3e 9298 3a3e ae8d 883d
00000190: b826 af3d c414 9dbe 4ffc d43e 1733 8ebe
000001a0: e71a 123f c636 a73d 2247 253e 1e4f eebe
000001b0: c493 10be 9e4c 4fbd f034 be3e 954d e53c
000001c0: 07fe 223e ad1f 2e3e 7115 8abe a417 9d3e
000001d0: be9c 033e e88a 9dbd 20aa 25bb 3165 fe3d
000001e0: 9170 9abe efff c53e 2026 a33e 2efd e3be
000001f0: d2ee 093e fef7 903d 46a0 0dbf 91bc ef3e
00000200: 5df1 013f 0f84 b2be 6c7a d03c 3512 7a3e
00000210: f03c 793e 0571 acbe b0f5 a83d 8a25 973e
00000220: 16d1 963e 2257 d8be 307c 8ebe 633f 413e
00000230: ec27 3c3e fe75 89bd c13c 2f3e ac76 d4be
00000240: 6377 bf3e 6bdd c73e db53 dfbe 1735 28be
00000250: 40c2 b43e 92b1 ccbe 7ee6 513d 7d86 9b3d
00000260: bc0e 0cbf 31d8 4dbe c7c0 b8be a17f 3ebe
00000270: eb5d d33e 80b1 b53e 21f4 7b3c 29ee d9be
00000280: 5cc2 993e 7847 a7be 9c16 d63e 845a d9be
00000290: 459d 333e d1a5 ab3c e9b0 413e b6d2 d5be
000002a0: f63d 883e 3846 6ebe a08f 13bf e004 203e
000002b0: bfc2 dcbe 8df1 a7be 3890 c23e 5ab2 7bbd
000002c0: d057 773d 5404 b43d f1af 71bd 9208 06bf
000002d0: 7b6c df3e 63cb c9be c877 063f 4165 f9bd
000002e0: a6ac d63d e2f9 b33e 0cad 50be 9c95 02be
000002f0: e5d4 86bb 7112 403e f12b 03bf 706c b8be
00000300: e194 203d 4262 b4bd e2a9 0e3e 31e1 da3e
00000310: eef0 86be 01d2 c63e 2a94 c63d 704b c93e
00000320: 8d41 d8be e9f8 e53c 96f8 843d 0843 03bf
00000330: 92b1 f23e 8a83 cabe 3389 133f 8e39 b43d
00000340: 654e 013f d8dd cebe 7eed 48be 4b25 e83d
00000350: 794f b23e c33e 8c3e 6c9e f0be d177 493c
00000360: 422f e3bc ca5a 743e 7b77 f8be 8161 a1be
00000370: 452e 9bbe 1690 bbbe 1390 f03d b606 bbbe
00000380: 2976 d1bc 7ab8 f83e 391b 72be 54b5 f0be
00000390: 67b8 aebd af9c 153f 8855 8c3e 968a efbd
000003a0: ba7a 0b3f 7b9e 6e3e 2b46 053f bad5 f4be
000003b0: fac5 b73d fab8 f5be 9ebc 6dbd bbb3 d7be
000003c0: 2218 05be 9111 873e 6b86 f93d 67d1 08bf
000003d0: 714d 54bc 27b3 d63e f830 ad3e 1257 13be
000003e0: 24fe 2bbe e8e1 bdbe f066 423e 6099 853e
000003f0: a807 ea3d 9d85 08bf 0bf3 58be e537 04bf

net.2.weight f4 [256, 256]
-0.05334933 0.0593252 0.011675725 0.05595727 -0.042495504 0.012634087 0.022220876 -0.020257074
0.0362515 -0.05126142 -0.041525405 0.010377337 -0.020043423 -0.030293701 0.01641088 -0.03791888
-0.007990924 -0.043995652 0.016559616 -0.010403283 -0.0072511407 -0.04923806 0.045302365 -0.060462583
0.0049500028 -0.025944874 0.014542862 0.02938301 -0.010703769 -0.032456458 -0.045963015 -0.019950317
0.024581183 -0.011241998 0.054632585 -0.030639706 -0.010687156 0.023483606 0.027856369 -0.03288911
0.035808105 0.009402322 0.065244876 0.01924785 0.021106798 -0.047076307 0.019066747 -0.034900755
0.03434249 0.06411112 0.055553798 -0.0034782484 0.013294514 0.030476628 0.0010396544 0.008804215
0.033897765 -0.04418805 0.020646367 0.00703226 -0.002680407 0.022694807 0.04103457 0.06677868
-0.053827815 -0.010362894 -0.022847017 0.0048025586 0.03690344 -0.03113037 -0.022894692 -0.050704453
0.030926252 0.053799834 0.05372355 -0.025073165 -0.031578578 -0.02109091 0.027424224 -0.017745432
-0.039794993 0.045550108 -0.027957717 0.06038988 -0.06528314 -0.045868367 -0.042641163 -0.0008842393
-0.041765492 0.053085163 0.0069014165 0.049211174 0.03711346 -0.013538811 0.01152746 0.010763921
-0.03915899 -0.025017312 -0.015418285 -0.030264033 0.025519133 -0.06700907 0.03843161 0.03676508
0.038402162 0.008071366 -0.017919464 0.040312793 -0.0068622413 0.035694905 0.03477366 0.07098555
-0.03408136 0.036990628 -0.013785672 -0.02024147 -0.050037604 -0.0311392 -0.009559547 -0.039401434
0.042784117 0.033131707 0.052255545 -0.035271816 0.0142815905 -0.02495572 0.024085172 0.008200702
0.024656294 -0.035310417 -0.03428539 -0.04080032 -0.03309459 0.024815366 -0.024371933 0.02332558
-0.050394256 -0.012251625 -0.04230897 0.05469262 0.03401626 0.014472579 0.06527941 -0.029228741
0.019683966 -0.03743076 -0.041330352 -0.0429911 0.03380621 -0.0027008976 -0.0344271 -0.020153817
-0.016791234 0.059839904 -0.05122944 0.023354067 -0.03454061 -0.030899012 0.019215174 0.068701826
-0.00095566537 0.015620566 -0.037036594 0.05670344 -0.01626285 0.04489396 0.036032937 -0.039121356
0.0403052 -0.01831855 0.006762248 0.011885941 -0.04375346 0.011569675 0.06379823 -0.041994218
-0.025798563 -0.01668432 -0.0496817 0.0021491903 0.027933232 0.038308315 0.059438378 0.079048455
0.012683268 0.013812271 0.013956379 0.032194674 -0.04236761 -0.0005383403 -0.021230249 0.063190095
0.048235055 0.017042702 -0.034454957 -0.057026554 -0.012675743 -0.042092495 -0.017921964 0.026011258
0.042816333 -0.0034866987 -0.053511884 0.042714786 -0.03796053 0.053069293 0.06322258 0.036624722
0.04951621 0.03302124 0.019474274 -0.03141092 -0.030476585 -0.039679214 -0.019092279 -0.018817015
-0.013041275 0.05514141 0.04515624 -0.040961854 -0.025085464 0.015398963 0.05895685 0.0042402586
-0.048710644 -0.024714995 0.055984553 0.00728669 0.010168742 0.044713262 0.013680232 0.01919661
0.05845376 0.052401323 0.012535962 0.03644568 0.03386003 0.04329941 -0.05838237 -0.013674951
0.027652608 0.00945718 0.035896186 0.01769865 -0.02099543 0.023881832 0.06525539 0.03397755
0.026584972 -0.0052779783 -0.0004528529 -0.055704918 0.06764398 0.033929255 0.010317008 0.02842072
00000000: d484 5abd fbfe 723d 8a4b 3f3c 7333 653d
00000010: c40f 2ebd 34ff 4e3c 8e08 b63c 2af2 a5bc
00000020: 747c 143d 7ff7 51bd 8b16 2abd b505 2a3c
00000030: 1b32 a4bc 7f2a f8bc 1c70 863c d450 1bbd
00000040: 5dec 02bc c934 34bd 08a8 873c 8872 2abc
00000050: fa9a edbb d9ad 49bd f98e 393d 9da7 77bd
00000060: a233 a23b 588a d4bc 2f45 6e3c a3b4 f03c
00000070: dc5e 2fbc 10f1 04bd b743 3cbd d96e a3bc
00000080: 7a5e c93c 5b30 38bc 6bc6 5f3d 1f00 fbbc
00000090: 2e19 2fbc b160 c03c 0a33 e43c bbb6 06bd
000000a0: 85ab 123d 320c 1a3c 1b9f 853d abad 9d3c
000000b0: 2ae8 ac3c 16d3 40bd de31 9c3c 18f4 0ebd
000000c0: b6aa 0c3d b14c 833d 618c 633d 53f3 63bb
000000d0: 3cd1 593c 1faa f93c 0345 883a 8e3f 103c
000000e0: 62d8 0a3d 87fe 34bd 9222 a93c df6e e63b
000000f0: c4a9 2fbb 76ea b93c de13 283d 43c3 883d
00000100: 8e7a 5cbd 21c9 29bc ab29 bbbc c85e 9d3b
00000110: 1028 173d 1e05 ffbc a68d bbbc 79af 4fbd
00000120: 0d59 fd3c 375d 5c3d 3a0d 5c3d 3d66 cdbc
00000130: 8a58 01bd d8c6 acbc c4a8 e03c de5e 91bc
00000140: 1300 23bd c092 3a3d 9507 e5bc 615b 773d
00000150: 2bb3 85bd 78e0 3bbd 80a8 2ebd 4ccc 67ba
00000160: 4b12 2bbd d46f 593d 4725 e23b a891 493d
00000170: 4904 183d e4d1 5dbc acdd 3c3c 285b 303c
00000180: 2d65 20bd 1bf1 ccbc f99c 7cbc 47ec f7bc
00000190: 800d d13c 0d3c 89bd 776a 1d3d fb96 163d
000001a0: 964b 1d3d c33d 043c d7cb 92bc 071f 253d
000001b0: a7dc e0bb d234 123d d36e 0e3d df60 913d
000001c0: e598 0bbd 7c83 173d 4ddd 61bc 70d1 a5bc
000001d0: 3bf4 4cbd a317 ffbc a59f 1cbc 6663 21bd
000001e0: 663e 2f3d 1db5 073d e909 563d 2e79 10bd
000001f0: 55fd 693c f06f ccbc 444e c53c 3d5c 063c
00000200: fffb c93c a8a1 10bd d66e 0cbd 3d1e 27bd
00000210: 318e 07bd 9849 cb3c a6a7 c7bc 4915 bf3c
00000220: 356a 4ebd 0abb 48bc 2c4c 2dbd 5e05 603d
00000230: a254 0b3d 651e 6d3c 36b1 853d 1d71 efbc
00000240: 4540 a13c ff50 19bd 044a 29bd 7017 30bd
00000250: 6178 0a3d 8b01 31bb 6e03 0dbd 9e19 a5bc
00000260: c58d 89bc b01a 753d f6d5 51bd 0751 bf3c
00000270: 747a 0dbd ed1f fdbc 2469 9d3c 8bb3 8c3d
00000280: 9e85 7aba 67ed 7f3c afb3 17bd de41 683d
00000290: ab39 85bc bbe2 373d 4697 133d b73d 20bd
000002a0: 1117 253d c910 96bc d995 dd3b 40bd 423c
000002b0: d436 33bd bc8e 3d3c a5a8 823d 2102 2cbd
000002c0: 8257 d3bc 8ead 88bc 0a7f 4bbd 6ed9 0c3b
000002d0: 3cd4 e43c 2ee9 1c3d a875 733d 28e4 a13d
000002e0: 7bcd 4f3c dd4c 623c 4ca9 643c 90de 033d
000002f0: a989 2dbd 681f 0dba 0feb adbc cf69 813d
00000300: 1f92 453d 239d 8b3c a420 0dbd ad94 69bd
00000310: ebad 4fbc 2e69 2cbd 15d1 92bc 9015 d53c
00000320: 2e60 2f3d 1981 64bb 472f 5bbd b3f5 2e3d
00000330: 807c 1bbd 305f 593d d77a 813d ce03 163d
00000340: 82d1 4a3d 4841 073d 8388 9f3c bda8 00bd
00000350: 08aa f9bc ac86 22bd 6967 9cbc 2426 9abc
00000360: 12ab 55bc f6db 613d c0f5 383d 9ec7 27bd
00000370: 0880 cdbc ef4b 7c3c bd7c 713d def1 8a3b
00000380: d084 47bd 1a77 cabc 0f50 653d 30c5 ee3b
00000390: cc9a 263c 4125 373d 0d23 603c 3642 9d3c
000003a0: 366d 6f3d c5a2 563d a363 4d3c 1148 153d
000003b0: d1b0 0a3d b95a 313d 5a22 6fbd e70c 60bc
000003c0: b987 e23c 4af2 1a3c e107 133d c2fc 903c
000003d0: 9cfe abbc d5a3 c33c 9ea4 853d 0b2c 0b3d
000003e0: bac8 d93c e4f2 acbb e36c edb9 d72a 64bd
000003f0: ed88 8a3d 67f9 0a3d ab08 293c 92d2 e83c

net.2.bias f4 [256]
0.05353905 0.013975823 -0.047095735 0.028323822 0.04483935 -0.054829307 -0.019432494 -0.03578316
0.06322806 0.0549905 0.032373674 -0.030100903 0.049049083 0.046824716 -0.010803241 0.037828773
0.023621265 0.028974997 0.0063558123 -0.053063788 -0.014150005 0.024787024 -0.046546273 -0.030747984
0.024541123 0.020334534 -0.054542832 -0.020785723 0.027250396 -0.0066960175 -0.011243779 -0.024682172
-0.01562777 0.069579855 -0.06476886 0.010106513 -0.0032539926 0.04385729 0.02665719 0.018818432
-0.036139227 -0.051734164 0.05643671 -0.030042833 0.009682026 0.060907185 -0.002293012 -0.011591173
-0.021796796 -0.007865577 0.0087472545 -0.04597482 -0.023349876 -0.046808694 -0.024733553 0.012076642
-0.040289823 -0.0042867432 0.025565397 -0.010771648 0.053201426 -0.028005738 -0.06818135 -0.049433574
-0.0031912816 -0.006004303 0.049175423 -0.011040328 0.05290915 0.035491463 -0.0180294 -0.038105167
-0.03057901 0.033750966 -0.018175201 0.0010034108 -0.029419765 0.032526337 0.050641328 0.02013952
-0.05327013 -0.017609732 0.0034670436 0.044997185 -0.056337837 0.05934665 -0.0318775 0.029162051
-0.07040681 -0.042431097 -0.0485055 -0.056650247 -0.01465685 0.040967416 -0.051538475 0.040578343
0.032728568 0.05784269 0.019380616 -0.0060951035 0.033263117 0.02697011 -0.01993347 -0.044826116
0.023746265 0.017069057 0.034419302 -0.051629245 -0.05909006 -0.0004229789 -0.016199907 0.024604132
0.015324103 -0.019660195 -0.040035862 -0.03073052 0.038320214 -0.04167947 0.016664892 0.032643717
0.030351939 -0.029919283 -0.028653877 0.024767408 0.026358051 0.0146421455 -0.056693684 -0.02772211
0.012313809 0.005671511 -0.030596701 0.035113696 -0.04207898 0.027944159 -0.0514311 0.020105623
-0.0064651044 0.04546539 0.056825127 0.008585705 0.060604986 0.016627075 0.037095148 0.040367495
0.0726209 -0.0023481678 -0.060827866 0.011584018 0.06718393 0.048086677 0.021538153 0.03900191
-0.0022497608 -0.021950085 0.05192871 0.047606926 -0.046103626 -0.03643082 -0.05363316 0.061423782
0.03690059 0.0612865 0.049374625 -0.047513086 -0.029658608 -0.020212853 -0.030230632 -0.037115276
0.041434105 -0.017149642 0.03328886 0.053144168 -0.012690109 -0.021680422 -0.004840637 -0.03744259
-0.02992386 -0.03343476 0.005023361 -0.0016507762 0.017891468 -0.015155047 0.04107241 -0.009544689
-0.008022947 0.014578494 -0.05247452 -0.06607307 0.016613374 -0.044442754 0.028833399 0.04453189
0.03466039 0.05637395 0.031982552 0.010507523 -0.05052829 -0.018203868 0.050097227 -0.02304947
-0.021314023 -0.059555087 -0.006018872 -0.029978316 0.038453575 -0.0034541388 -0.05596917 -0.013840236
0.04967771 0.016640853 -0.07274816 -0.01571323 -0.056726865 -0.020518485 0.09018618 0.014502148
-0.047363333 0.014324414 -0.046659265 0.028899686 0.016835567 0.01659346 0.055699944 0.07028164
-0.014890104 0.03388102 0.054040696 0.020537393 -0.02632787 -0.03660041 -0.034143057 -0.005362141
-0.044083644 -0.05824156 -0.017181143 -0.02023826 -0.025871491 0.022904074 -0.045867648 0.0077400682
-0.0064270333 -0.0077711274 0.024208458 0.016641716 -0.010420513 -0.059684977 0.012081838 0.033020895
-0.025481965 -0.0047195796 -0.05859233 -0.025348295 -0.04616049 -0.030828938 0.030400941 0.0132160885
00000000: c34b 5b3d dafa 643c 75e7 40bd 5c07 e83c
00000010: 77a9 373d b294 60bd e530 9fbc 5d91 12bd
00000020: b77d 813d b83d 613d 429a 043d 2b96 f6bc
00000030: b1e7 483d 46cb 3f3d 1400 31bc 58f2 1a3d
00000040: 6281 c13c f95c ed3c 6b44 d03b 6a59 59bd
00000050: 6cd5 67bc 280e cb3c 4ea7 3ebd 32e3 fbbc
00000060: 770a c93c 9c94 a63c 4e68 5fbd d246 aabc
00000070: 393c df3c 446a dbbb d437 38bc 4432 cabc
00000080: cf05 80bc e27f 8e3d 89a5 84bd ca95 253c
00000090: f040 55bb b4a3 333d 2e60 da3c 1d29 9a3c
000000a0: ba06 14bd 34e7 53bd 2e2a 673d 631c f6bc
000000b0: 5ca1 1e3c d079 793d 5c46 16bb e7e8 3dbc
000000c0: 328f b2bc 9fde 00bc a550 0f3c 1850 3cbd
000000d0: 3d48 bfbc 79ba 3fbd 059e cabc 1cdd 453c
000000e0: f106 25bd cf77 8cbb 866e d13c 917b 30bc
000000f0: bde9 593d 4a6c e5bc aaa2 8bbd dc7a 4abd
00000100: d224 51bb bfbf c4bb 2b6c 493d 7ee2 34bc
00000110: 44b7 583d 7f5f 113d 64b2 93bc 2a14 1cbd
00000120: d580 fabc 743e 0a3d 29e4 94bc e184 833a
00000130: b801 f1bc 563a 053d 486d 4f3d a2fb a43c
00000140: c831 5abd 4942 90bc 5737 633b f84e 383d
00000150: 81c2 66bd 7915 733d fb91 02bd 41e5 ee3c
00000160: 7231 90bd 3bcc 2dbd b4ad 46bd 170a 68bd
00000170: 4923 70bc 73cd 273d 021a 53bd 7a35 263d
00000180: 640e 063d 75ec 6c3d 19c4 9e3c 6fb9 c7bb
00000190: e83e 083d 6cf0 dc3c 844b a3bc 979b 37bd
000001a0: 8787 c23c 68d4 8b3c 41fb 0c3d 3079 53bd
000001b0: 6b08 72bd 44c3 ddb9 abb5 84bc 9b8e c93c
000001c0: f211 7b3c 6b0e a1bc a5fc 23bd 92be fbbc
000001d0: a8f5 1c3d 18b8 2abd d084 883c 6bb5 053d
000001e0: a1a4 f83c 4919 f5bc 89bb eabc 05e5 ca3c
000001f0: d7ec d73c 9ce5 6f3c a337 68bd 7a19 e3bc
00000200: dcbf 493c 15d8 b93b efa5 fabc 61d3 0f3d
00000210: 025b 2cbd 26eb e43c 6ba9 52bd 8cb4 a43c
00000220: 3ad9 d3bb eb39 3a3d 77c1 683d 0fab 0c3c
00000230: ef3c 783d 8135 883c 15f1 173d 6358 253d
00000240: 44ba 943d b8e3 19bb a426 79bd e5ca 3d3c
00000250: ba97 893d 89f6 443d c870 b03c 77c0 1f3d
00000260: b970 13bb aad0 b3bc 33b3 543d 7bff 423d
00000270: 28d7 3cbd 7c38 15bd 72ae 5bbd 8197 7b3d
00000280: 1325 173d 8e07 7b3d 0c3d 4a3d 159d 42bd
00000290: 9cf6 f2bc 6d95 a5bc 3ba6 f7bc 3006 18bd
000002a0: cfb6 293d 687d 8cbc e659 083d b3ad 593d
000002b0: 2dea 4fbc 249b b1bc 359e 9ebb 675d 19bd
000002c0: e222 f5bc e3f2 08bd 029b a43b dc5e d8ba
000002d0: 2191 923c e04c 78bc 8b3b 283d 5461 1cbc
000002e0: ae72 03bc a3da 6e3c 86ef 56bd 5151 87bd
000002f0: c518 883c 9b09 36bd 0534 ec3c 1267 363d
00000300: 0ef8 0d3d 5fe8 663d 2300 033d bf27 2c3c
00000310: c1f6 4ebd 4720 95bc c032 4d3d 3ed2 bcbc
00000320: bf9a aebc 09f0 73bd f539 c5bb 1695 f5bc
00000330: 7f81 1d3d d55e 62bb ee3f 65bd 28c2 62bc
00000340: db7a 4b3d 6652 883c fdfc 94bd 08b9 80bc
00000350: 6e5a 68bd 6216 a8bc 88b3 b83d 6b9a 6d3c
00000360: 0e00 42bd f2b0 6a3c c91d 3fbd 09bf ec3c
00000370: beea 893c 02ef 873c a025 643d d2ef 8f3d
00000380: 9ff5 73bc d3c6 0a3d c759 5d3d 093e a83c
00000390: 8cad d7bc 50ea 15bd 97d9 0bbd e6b4 afbb
000003a0: 0d91 34bd b48e 6ebd 78bf 8cbc b5ca a5bc
000003b0: 73f0 d3bc 53a1 bb3c b7df 3bbd 66a0 fd3b
000003c0: dd99 d2bb f1a4 febb d150 c63c 3554 883c
000003d0: cdba 2abc 3c78 74bd e7f2 453c eb40 073d
000003e0: 8ebf d0bc b4a6 9abb 83fe 6fbd 3aa7 cfbc
000003f0: c812 3dbd f88c fcbc 650b f93c 4b88 583c

net.4.weight f4 [256, 256]
0.041284382 -0.012735304 -0.058407262 -0.0564012 -0.0019936357 0.055889398 0.052522756 0.02421796
0.039573442 0.0497054 -0.032995883 0.028845724 -0.033996053 -0.015535981 -0.014004492 0.017059049
0.01328518 0.005284025 0.034678288 -0.0070699803 -0.06831998 0.036499787 -0.03579362 0.00034396554
0.025615279 0.026933445 0.044639446 0.024711944 0.013010536 -0.045887735 0.052851588 -0.0064795157
-0.037674043 0.00082299137 -0.059760135 0.013650077 -0.017554756 -0.04203007 0.0444172 0.024981506
0.01645904 0.0485934 -0.06717609 -0.06356748 -0.050887708 0.0069362978 -0.03331368 -0.0333065
0.05615239 0.041407384 0.016690524 -0.04647255 0.0051125544 -0.0042462144 0.021291489 -0.004895758
0.036339074 -0.0011057865 -0.037775364 0.03149839 0.0041564084 0.03764932 0.002057038 0.055908337
-0.025932059 -0.0631268 -0.0241368 0.0020758975 0.003120049 0.035879664 -0.022559883 0.0033158227
0.07692474 -0.036352187 -0.011459577 -0.042694643 -0.076879166 0.07038137 0.03140626 0.0451974
-0.014347918 -0.02516638 0.04970277 -0.024226906 -0.054481816 -0.0259347 0.057130415 -0.020490086
0.047634117 0.040067002 -0.059352152 0.05782888 0.0021419816 -0.008186068 -0.058668997 -0.035433475
0.020880109 -0.017093923 -0.04619489 -0.0011448574 0.021672 -0.043492604 0.057316866 0.006480131
0.0019017161 0.055454545 0.005301192 0.026269687 -0.064937845 0.070588276 -0.02397006 0.029468581
-0.025983926 -0.02849192 0.044082303 -0.033358473 0.031870708 0.035919502 0.054868657 0.00927517
0.025388854 -0.012030538 -0.05353346 0.0044103027 -0.05219348 0.014806214 -0.00032786533 0.030534483
-0.0317835 -0.04432949 -0.0063851257 -0.014004139 0.0210046 -0.0018524937 0.035093725 -0.0032600076
-0.013501576 0.012595018 -0.030914176 -0.062973 -0.063907474 0.018810371 -0.05044622 -0.041820087
-0.037628908 0.0021555598 -0.025443763 0.019987648 -0.049155302 0.024592211 0.039332032 0.040149458
-0.027754676 -0.045678187 -0.014551552 0.050709993 0.024109863 -0.030589566 -0.02564428 -0.006341684
0.015410097 0.0015300967 0.0020360867 -0.04341111 0.0068280627 0.036937732 -0.038258955 -0.0074095954
0.06280371 -0.014017701 -0.047738902 0.03338203 -0.010444241 0.05371461 -0.014362845 -0.0044524088
0.043952107 -0.05251726 -0.03321579 -0.008215722 -0.039756387 -0.057276055 -0.05125926 -0.027928106
-0.04429198 -0.0391391 0.02968029 0.001238935 -0.0028807956 -0.027125286 -0.041340645 -0.03614638
-0.024749748 -0.0398743 -0.06291164 0.06278663 -0.03762174 0.02393717 0.038884446 0.0077587054
0.05981069 0.025009492 0.0015201736 0.025902787 0.00060056493 0.0430902 -0.003077916 0.02310872
0.05176998 -0.0067242873 -0.020733643 0.060240738 0.0032070049 0.06701254 -0.016380135 -0.043761227
0.043373182 -0.023818586 -0.009648962 -0.022589428 0.022975722 0.027611634 0.015157453 -0.0077282544
0.030239083 0.015632441 0.064107575 0.068112776 -0.076387 0.040303513 0.026170583 -0.01981641
0.0059298654 -0.0064803115 -0.027005527 -0.043842692 -0.006548529 -0.0016174407 0.008147424 -0.002699506
-0.0306492 -0.034324832 0.02224803 0.03872252 0.04711393 0.02551813 -0.06117177 0.047121845
0.04587978 0.00759014 0.05282098 -0.017133566 -0.013379032 0.011017413 0.08072559 -0.031746697
00000000: d019 293d bda7 50bc 743c 6fbd f204 67bd
00000010: a8a7 02bb 48ec 643d 1a22 573d be64 c63c
00000020: c317 223d e497 4b3d b126 07bd de4d ec3c
00000030: 723f 0bbd a18a 7ebc 1973 65bc 6bbf 8b3c
00000040: 15aa 593c 9d25 ad3b d20a 0e3d 4bab e7bb
00000050: 58eb 8bbd cd80 153d 559c 12bd 4656 b439
00000060: 22d7 d13c 87a3 dc3c dad7 363d b470 ca3c
00000070: 252a 553c c7f4 3bbd e87a 583d 1e52 d4bb
00000080: 1950 1abd 04be 573a 0bc7 74bd 93a4 5f3c
00000090: fece 8fbc b927 2cbd cfee 353d 04a6 cc3c
000000a0: 1cd5 863c df09 473d 9e93 89bd ab2f 82bd
000000b0: a16f 50bd e249 e33b ed73 08bd 666c 08bd
000000c0: 0c00 663d ca9a 293d 91ba 883c 005a 3ebd
000000d0: 3787 a73b d423 8bbb 7d6b ae3c 986c a0bb
000000e0: 48d8 143d 0af0 90ba 57ba 1abd 7504 013d
000000f0: 7b32 883b 2c36 1a3d 5fcf 063b 2400 653d
00000100: 786f d4bc a048 81bd 8aba c5bc c80b 083b
00000110: bc79 4c3b 8ef6 123d 81cf b8bc 464e 593b
00000120: b88a 9d3d 08e6 14bd f3c0 3bbc 94e0 2ebd
00000130: d372 9dbd 1c24 903d daa3 003d e920 393d
00000140: 8813 6bbc b929 cebc 2295 4b3d 8177 c6bc
00000150: 5328 5fbd 0275 d4bc 9501 6a3d d3da a7bc
00000160: fe1b 433d 4c1d 243d 3e1b 73bd fadd 6c3d
00000170: 7d60 0c3b dc1e 06bc e74e 70bd b122 11bd
00000180: c30c ab3c 8e08 8cbc da36 3dbd 0a0f 96ba
00000190: 7a89 b13c 4d25 32bd 17c5 6a3d 4757 d43b
000001a0: 0143 f93a 4e24 633d 9fb5 ad3b 8733 d73c
000001b0: 22fe 84bd 9690 903d dc5c c4bc 1868 f13c
000001c0: 3edc d4bc e367 e9bc a58f 343d e5a2 08bd
000001d0: dc8a 023d 5420 133d f5bd 603d e2f6 173c
000001e0: 49fc cf3c bc1b 45bc e745 5bbd 4d84 903b
000001f0: d5c8 55bd c395 723c 57e5 abb9 7423 fa3c
00000200: 6a2f 02bd d792 35bd 513a d1bb 9e71 65bc
00000210: d711 ac3c 60cf f2ba 70be 0f3d daa5 55bb
00000220: b735 5dbc 565b 4e3c ba3f fdbc fdf7 80bd
00000230: ece1 82bd 3518 9a3c b2a0 4ebd 8a4b 2bbd
00000240: c520 1abd 4b44 0d3b 706f d0bc 23bd a33c
00000250: 1257 49bd 9b75 c93c a01a 213d c273 243d
00000260: c65d e3bc 0d19 3bbd a269 6ebc 48b5 4f3d
00000270: 0c82 c53c f896 fabc f413 d2bc e7cd cfbb
00000280: a27a 7c3c 878d c83a de6f 053b d9cf 31bd
00000290: f1bd df3b 054c 173d 6cb5 1cbd 31cc f2bb
000002a0: 3b9f 803d 80aa 65bc de89 43bd 98bb 083d
000002b0: 521e 2bbc da03 5c3d 2352 6bbc 83e5 91bb
000002c0: 2007 343d 571c 57bd 480d 08bd 3c9b 06bc
000002d0: 98d7 22bd 4c9a 6abd 3bf5 51bd 7cc9 e4bc
000002e0: 826b 35bd 5250 20bd 1424 f33c c363 a23a
000002f0: bbcb 3cbb d935 debc cf54 29bd 3a0e 14bd
00000300: fcbf cabc 3c53 23bd d1d7 80bd 4796 803d
00000310: 4119 1abd e217 c43c 4c45 1f3d bd3c fe3b
00000320: 0efc 743d b5e0 cc3c 9040 c73a 1532 d43c
00000330: 3b6f 1d3a 597f 303d ddb6 49bb 804e bd3c
00000340: c20c 543d 6957 dcbb 9ad9 a9bc febe 763d
00000350: 9d2c 523b df3d 893d a22f 86bc f93e 33bd
00000360: 14a8 313d 321f c3bc ae16 1ebc 770d b9bc
00000370: 9537 bc3c cb31 e23c f756 783c 4c3d fdbb
00000380: f4b7 f73c 9b0f 803c d54a 833d b67e 8b3d
00000390: ca70 9cbd 4c15 253d b163 d63c 0656 a2bc
000003a0: 514f c23b cb58 d4bb b23a ddbc 6594 33bd
000003b0: 0b95 d6bb 4e00 d4ba c67c 053c 32ea 30bb
000003c0: 0814 fbbc 3298 0cbd 8041 b63c 819b 1e3d
000003d0: 89fa 403d 660b d13c 408f 7abd d602 413d
000003e0: 70ec 3b3d b6b6 f83b d05a 583d b15b 8cbc
000003f0: ba33 5bbc 6182 343c 7553 a53d d308 02bd

net.4.bias f4 [256]
-0.06117596 -0.07072879 -0.018796112 -0.045341786 -0.06272738 0.057048652 -0.03753543 0.00029569515
-0.061411303 0.027240042 -0.043213326 0.04584993 0.036337588 0.028200692 0.02629198 0.0225232
-0.041639034 0.01800926 0.023001071 -0.0646013 -0.03997132 -0.007964417 -0.039388806 0.0467889
0.010576494 -0.0608783 0.0145817315 0.022471832 -0.012737911 0.05381195 0.053671997 0.07018542
0.025158335 0.0028071345 -0.040984202 -0.025121326 0.026337273 0.03027041 0.049344674 -0.016175821
0.023861155 -0.054733843 0.060587864 -0.027831234 -0.03201838 -0.03473753 -0.027289394 -0.007353097
-0.031298913 0.037552997 -0.060284194 -0.00963438 -0.047501512 -0.0020345883 -0.042315383 0.047188662
-0.06701888 0.0022165251 0.04677845 0.03801123 0.027279327 -0.041989297 0.02477908 0.06197041
0.040730808 0.046205442 0.0035606057 0.054468933 0.039062414 0.023608554 -0.027224367 -0.062717855
0.06637291 0.053152937 -0.010796537 0.06072834 -0.038790867 -0.010155479 -0.019915555 -0.010897924
-0.028987091 -0.01870201 0.03834621 -0.0037212288 -0.076545894 -0.06959743 -0.036928218 0.015484252
0.017635489 -0.029669957 0.040328167 -0.022219617 -0.027349709 -0.031368602 -0.029327037 0.031885352
0.04073141 0.034712072 -0.031317532 -0.017692266 -0.0323113 0.010979518 0.05725802 0.009745728
0.010985424 -0.0068644243 -0.013070475 -0.028125394 0.0065678856 0.04965943 -0.019273726 -0.016930684
-0.04567983 -0.011423199 -0.047081605 0.0022432972 -0.006326945 0.053436182 0.023941346 0.01973957
0.050618224 -0.05814098 0.053622227 -0.048683237 -0.003916634 -0.047127932 -0.0065078386 -0.0028857333
-0.009686972 -0.045606982 -0.030642727 0.023852576 -0.049490098 0.025982318 0.001679191 -0.0003692374
0.018096095 -0.06753745 -0.027298808 -0.0386426 0.011233998 0.026871517 0.012638344 -0.016743848
-0.0537013 0.016041912 -0.04690335 -0.041722335 -0.07519395 0.054147 0.0047938745 0.05263264
-0.033132184 -0.05791716 -0.06640539 -0.08952311 -0.03506787 -0.022359578 -0.0060044965 -0.04967308
0.057522368 -0.011502588 -0.016982699 -0.0268024 0.053276543 -0.07024824 0.050504398 -0.01921186
-0.03169678 0.016467024 -0.009491164 -0.05602981 -0.07075606 0.03124327 -0.040507212 0.013127881
0.019713769 -0.040070176 -0.0051141917 0.03731419 -0.030781832 -0.036291443 0.02282432 -0.035074525
-0.010429125 -0.07839971 -0.035690982 -0.055456888 -0.009298128 0.062284905 0.038615655 -0.017702637
-0.04230264 -0.05207503 -0.0038294427 -0.012143065 -0.011306188 -0.007934715 0.064788714 0.016553268
0.029833501 -0.015351266 -0.051029637 -0.0002961074 -0.08653256 -0.03461105 0.007878815 0.00044313862
-0.05023951 -0.05329617 0.018150993 0.0052394834 -0.029267054 0.011494488 -0.07559347 -0.06115998
0.037872512 -0.0063631097 -0.03586251 -0.039914623 -0.063160226 -0.016573431 0.05333391 -0.048724387
0.023410615 -0.04347105 0.033689246 -0.033650562 -0.04525326 0.03702203 0.020111702 0.038005527
-0.051594812 -0.017446186 -0.0059078485 0.03514079 0.030297613 -0.033333734 0.034060616 -0.029801423
-0.0013011876 -0.011328892 0.04055806 0.02341775 0.014118462 0.02432765 -0.07303225 -0.0374431
-0.022410544 0.030200705 -0.042246435 -0.020497823 -0.061515067 0.04818977 -0.051568173 -0.047148436
00000000: a593 7abd 41da 90bd 4efa 99bc 4fb8 39bd
00000010: 3677 80bd d9ab 693d c0be 19bd 8807 9b39
00000020: 6b8a 7bbd 8226 df3c 7500 31bd 23cd 3b3d
00000030: b9d6 143d 2305 e73c 4762 d73c 9382 b83c
00000040: b18d 2abd 2888 933c be6c bc3c b04d 84bd
00000050: f8b8 23bd 307d 02bc 2856 21bd b8a5 3f3d
00000060: 0849 2d3c 865b 79bd 37e8 6e3c d916 b83c
00000070: acb2 50bc eb69 5c3d 2bd7 5b3d 60bd 8f3d
00000080: da18 ce3c e7f7 373b 0ddf 27bd 3dcb cdbc
00000090: 44c1 d73c a7f9 f73c a41d 4a3d 2883 84bc
000000a0: 7878 c33c 9830 60bd fb2a 783d 54fe e3bc
000000b0: b425 03bd f148 0ebd 028e dfbc 40f2 f0bb
000000c0: 4a33 00bd 2cd1 193d 8fec 76bd 85d9 1dbc
000000d0: f290 42bd ba56 05bb e552 2dbd e648 413d
000000e0: 3241 89bd 1f43 113b c39a 3f3d aab1 1b3d
000000f0: e578 df3c f8fc 2bbd 7ffd ca3c afd4 7d3d
00000100: 59d5 263d eb41 3d3d 0d59 693b d11a 5f3d
00000110: e9ff 1f3d ba66 c13c a305 dfbc 3872 80bd
00000120: 85ee 873d e5b6 593d f5e3 30bc 48be 783d
00000130: 2ce3 1ebd 2b63 26bc f225 a3bc 358d 32bc
00000140: 5676 edbc f534 99bc ea10 1d3d dcdf 73bb
00000150: 18c4 9cbd 1989 8ebd 0b42 17bd a9b1 7d3c
00000160: 4d78 903c 690e f3bc 262f 253d ea05 b6bc
00000170: 7f0c e0bc 5d7c 00bd 413f f0bc 379a 023d
00000180: fbd5 263d 3f2e 0e3d d046 00bd 5fef 90bc
00000190: db58 04bd 70e3 333c 6387 6a3d 8cac 1f3c
000001a0: 35fc 333c f7ee e0bb 8c25 56bc 3a67 e6bc
000001b0: 6b37 d73b b067 4b3d efe3 9dbc 38b2 8abc
000001c0: c61a 3bbd 5f28 3bbc a4d8 40bd 4804 133b
000001d0: 4352 cfbb e6df 5a3d a420 c43c e1b4 a13c
000001e0: 0e55 4f3d 3c25 6ebd fba2 5b3d 1368 47bd
000001f0: 1b57 80bb 3809 41bd b53f d5bb 921e 3dbb
00000200: 1bb6 1ebc 63ce 3abd 7506 fbbc 7a66 c33c
00000210: 21b6 4abd dfd8 d43c 4d18 dc3a 3496 c1b9
00000220: 433e 943c 1351 8abd c0a1 dfbc b447 1ebd
00000230: ce0e 383c a821 dc3c 0f11 4f3c 652a 89bc
00000240: e5f5 5bbd 546a 833c ba1d 40bd 0ae5 2abd
00000250: 49ff 99bd 3fc9 5d3d ef15 9d3b 5395 573d
00000260: 9db5 07bd 8b3a 6dbd 8dff 87bd e457 b7bd
00000270: 54a3 0fbd 6f2b b7bc 5ec1 c4bb 0076 4bbd
00000280: 939c 6b3d 5a75 3cbc 4d1f 8bbc b590 dbbc
00000290: 8138 5a3d 4fde 8fbd b3dd 4e3d 3162 9dbc
000002a0: 7cd4 01bd dae5 863c d480 1bbc 847f 65bd
000002b0: 8ee8 90bd e3f1 ff3c e4ea 25bd 5316 573c
000002c0: c57e a13c a020 24bd f394 a7bb c4d6 183d
000002d0: 2e2a fcbc 56a6 14bd 11fa ba3c 4eaa 0fbd
000002e0: ecde 2abc 0790 a0bd b530 12bd c326 63bd
000002f0: 2d57 18bc 751e 7f3d 732b 1e3d 1f05 91bc
00000300: 8845 2dbd a04c 55bd 63f7 7abb b5f3 46bc
00000310: 973d 39bc 9b00 02bc f2af 843d b89a 873c
00000320: 6365 f43c e083 7bbc 7404 51bd dd3e 9bb9
00000330: fc37 b1bd 51c4 0dbd 2516 013c 0f55 e839
00000340: f2c7 4dbd 164d 5abd 64b1 943c f9af ab3b
00000350: 76c1 efbc 6153 3c3c c0d0 9abd e382 7abd
00000360: 3520 1b3d a281 d0bb 91e4 12bd 847d 23bd
00000370: 265a 81bd 01c5 87bc a874 5a3d 3993 47bd
00000380: 9ec7 bf3c b30e 32bd bcfd 093d 2cd5 09bd
00000390: 7b5b 39bd 6aa4 173d 4cc1 a43c afab 1b3d
000003a0: 1555 53bd 4eeb 8ebc a096 c1bb caef 0f3d
000003b0: b332 f83c f488 08bd 2583 0b3d 1d22 f4bc
000003c0: 9c8c aaba d19c 39bc 3520 263d 95d6 bf3c
000003d0: 1f51 673c c84a c73c ef91 95bd f05d 19bd
000003e0: 5196 b7bc 7867 f73c 990a 2dbd 0deb a7bc
000003f0: 39f7 7bbd a362 453d 2639 53bd b81e 41bd

net.6.weight f4 [2, 256]
-0.012471674 -0.06345904 0.0065737176 0.00057685026 -0.043554045 -0.009956852 0.00017337981 -0.004836757
-0.060466107 0.02293765 0.013445867 0.010743632 0.041768406 0.027451977 -0.054817908 -0.056908146
0.023935847 -6.3816144e-05 -0.029983478 -0.02117673 -0.016615104 -0.00051515514 -0.02800703 -0.0027861304
0.027306305 0.05327216 -0.009202645 -0.0018254773 0.0121725295 0.00042669332 0.0032168112 0.000256903
-0.0047765244 -0.03242824 -0.0007014595 -0.045108564 -0.022829507 0.00028283882 0.0027280797 0.00018312078
0.010699923 0.0053264457 -0.014088171 0.028636964 -0.00015491477 0.008648767 0.000608188 -0.00038557564
0.00093950395 0.018636331 0.0007510833 0.03942789 -0.010263907 -0.007005041 -0.0022947236 -0.011622038
-0.042063247 -0.0046054684 -0.0028153504 -0.04545029 -3.7994847e-05 -0.053664178 0.023706343 -0.01995672
-0.02024078 -0.029465599 0.00027901318 -0.0004082231 -0.0008624973 0.0014625752 0.004390117 -0.00041239848
-0.0002762595 -0.0430771 0.00075206807 -0.0013919608 0.04400576 -0.0009663532 0.03213559 -0.042595968
-0.046282556 -0.008849767 0.011788199 -0.0010052006 -0.026620116 0.01072246 0.0011950559 -0.00481138
-0.00237412 -0.003086008 0.043942846 0.00055720145 0.01769368 -0.008443596 -0.026446158 -3.911664e-05
0.039965 0.009883187 -2.0114292e-05 -0.010096377 -0.006987277 -0.011775525 0.00060328055 -0.0074433885
0.0112423645 -0.025608543 0.016247254 -0.009331823 0.041227058 -0.015470388 0.011183933 0.0040719947
-0.0015042069 0.013481048 0.0129683465 0.002391471 -0.06037363 -0.063879184 -0.02362445 0.011814944
0.0062833494 0.057086866 0.026328078 -0.039030816 0.030847006 0.04658089 0.018153794 0.02211547
0.00536565 0.00015116778 -0.018807372 0.04604899 -0.00036750597 2.4112785e-05 -0.0006174118 -0.028404133
0.00026596122 0.02497522 -0.06717049 0.012759903 -0.04869648 -0.0006899201 0.031482946 -0.008020748
0.0005866589 -0.0020717192 -0.026597442 0.019723354 0.032449964 0.021396026 -0.0026622717 -0.0043134717
-0.00025395522 0.02857054 -0.03870351 0.033800263 0.039526198 0.0019314442 -0.022076404 0.021556394
0.0040032 -0.036699526 -0.02640914 -0.050176583 0.02249077 0.004426796 -0.005519587 -0.0133907385
0.0037776562 -0.0025325546 -0.033089943 0.010144234 0.03081436 0.00011811093 0.0026249562 0.035574313
-0.008723459 -0.04468236 -0.015851958 -0.010969538 0.052536007 -0.025446897 7.5734744e-05 -0.000121296165
-0.00032250886 -0.025180101 0.023220072 -0.055210385 0.017208677 0.024385195 -0.017575372 -0.027367994
7.931663e-06 -0.018150391 -0.012352577 -0.011255392 0.008197799 0.039168112 -0.011429318 0.042852018
0.009002406 -0.044236217 0.05104708 -0.03254028 -0.0576499 0.04571005 0.011875002 7.837257e-05
-0.05797257 0.024196338 -0.011009046 0.0014968229 0.010747721 0.03413025 -0.06735927 -0.056968953
0.00028745306 -0.034325328 -0.051409837 -0.0069275913 0.042789616 0.0052967137 -0.0063294936 -0.035617333
3.113506e-06 -0.059290007 -0.005784024 -0.028901804 0.03855141 0.0035842229 -0.009686988 0.00027722662
-0.039406773 0.02130128 -0.0111578535 0.025993183 0.0069919545 -0.00053993915 0.0010574331 -0.013445839
0.0012602482 -0.03434402 -0.030724233 -0.030071892 -0.05588883 0.054992698 -0.05976277 0.016559768
0.00097047776 -0.00053040776 0.04294837 0.047332205 -0.014818841 -0.01505662 0.028786728 -0.030308612
00000000: fe55 4cbc d0f6 81bd 5768 d73b c437 173a
00000010: ba65 32bd 1022 23bc 4acd 3539 a97d 9ebb
00000020: 4fab 77bd bde7 bb3c 0e4c 5c3c 0f06 303c
00000030: 5915 2b3d f8e2 e03c be88 60bd 8418 69bd
00000040: 1c15 c43c 08d5 85b8 e99f f5bc d27a adbc
00000050: 661c 88bc 7a0b 07ba 006f e5bc 8397 36bb
00000060: 79b1 df3c e933 5a3d b1c6 16bc db44 efba
00000070: 4a6f 473c cfb5 df39 23d1 523b f0b0 8639
00000080: 6484 9cbb 79d3 04bd 26e2 37ba c2c3 38bd
00000090: f204 bbbc fc49 9439 95c9 323b 1c04 4039
000000a0: bb4e 2f3c 7789 ae3b 12d2 66bc 1198 ea3c
000000b0: 9e70 22b9 8fb3 0d3c ce6e 1f3a 1627 cab9
000000c0: 0b49 763a 38ab 983c 59e4 443a 247f 213d
000000d0: f229 28bc 8b8a e5bb 1363 16bb 5c6a 3ebc
000000e0: 834a 2cbd 78e9 96bb be81 38bb 152a 3abd
000000f0: a85c 1fb8 f8ce 5bbd ce33 c23c 467c a3bc
00000100: fecf a5bc d761 f1bc 8448 9239 c706 d6b9
00000110: 3719 62ba e1b3 bf3a f8da 8f3b 3037 d8b9
00000120: ecd6 90b9 9d71 30bd 6f26 453a 7472 b6ba
00000130: 623f 343d de52 7dba 9ca0 033d 1c79 2ebd
00000140: c792 3dbd 9dfe 10bc 4a23 413c efc0 83ba
00000150: 6e12 dabc 42ad 2f3c 6ca3 9c3a c8a8 9dbb
00000160: 2097 1bbb 9f3e 4abb 6afd 333d 2811 123a
00000170: 56f2 903c 0257 0abc 9da5 d8bc 2c11 24b8
00000180: 57b2 233d 17ed 213c 1dbb a8b7 466b 25bc
00000190: 87f5 e4bb 22ee 40bc 7925 1e3a abe7 f3bb
000001a0: e531 383c 02c9 d1bc f618 853c 81e4 18bc
000001b0: b4dd 283d 8377 7dbc d13c 373c 5e6e 853b
000001c0: cf28 c5ba 9ddf 5c3c 3079 543c 3aba 1c3b
000001d0: 574a 77bd 17d3 82bd 1088 c1bc 7893 413c
000001e0: 8ee4 cd3b ebd3 693d fbad d73c c7de 1fbd
000001f0: dcb2 fc3c 9acb 3e3d 44b7 943c 812b b53c
00000200: 56d2 af3b cb82 1e39 eb11 9abc de9d 3c3d
00000210: d1ad c0b9 d045 ca37 ced9 21ba c9af e8bc
00000220: b670 8b39 d598 cc3c af90 89bd ea0e 513c
00000230: f675 47bd c1db 34ba 43f4 003d 7569 03bc
00000240: 03ca 193a aec5 07bb e1e2 d9bc df92 a13c
00000250: 41ea 043d b846 af3c 8279 2ebb 0658 8dbb
00000260: 4b25 85b9 c40c ea3c 9287 1ebd 2572 0a3d
00000270: 39e6 213d 8328 fd3a 93d9 b4bc 0997 b03c
00000280: 472d 833b 3e52 16bd fb57 d8bc f685 4dbd
00000290: 903e b83c a80e 913b a7dd b4bb d464 5bbc
000002a0: 8e92 773b 37f9 25bb 5289 07bd 0034 263c
000002b0: 666e fc3c 53b2 f738 7507 2c3b 5fb6 113d
000002c0: d7ec 0ebc da04 37bd f7db 81bc 94b9 33bc
000002d0: ff2f 573d 0376 d0bc c8d3 9e38 6260 feb8
000002e0: 6816 a9b9 8046 cebc 0538 be3c 4924 62bd
000002f0: 36f9 8c3c 76c3 c73c 3afa 8fbc d832 e0bc
00000300: 3c12 0537 21b0 94bc 7762 4abc 8968 38bc
00000310: 1050 063c be6e 203d 0942 3bbc 9985 2f3d
00000320: d47e 133c 0931 35bd be16 513d f548 05bd
00000330: 4d22 6cbd 763a 3b3d 5e8f 423c f45b a438
00000340: a574 6dbd 6637 c63c 495f 34bc 0b31 c43a
00000350: 3617 303c 29cc 0b3d a8f3 89bd 4758 69bd
00000360: 4cb5 9639 b798 0cbd 1f93 52bd d900 e3bb
00000370: 2a44 2f3d 0e90 ad3b a467 cfbb 7be3 11bd
00000380: a0f1 5036 14da 72bd e987 bdbb 7ac3 ecbc
00000390: 15e8 1d3d 48e5 6a3b 2cb6 1ebc ba58 9139
000003a0: ff68 21bd 0680 ae3c 6ecf 36bc a8ef d43c
000003b0: c41c e53b b48a 0dba 9199 8a3a f04b 5cbc
000003c0: ea2e a53a 51ac 0cbd 63b1 fbbc 5459 f6bc
000003d0: b0eb 64bd 0640 613d cec9 74bd 5aa8 873c
000003e0: a967 7e3a 100b 0bba a1ea 2f3d 6adf 413d
000003f0: b9ca 72bc 0bb0 76bc 25d2 eb3c c449 f8bc

net.6.bias f4 [2]
0.009853437 0.028516589
00000000: 4f70 213c 9f9b e93c
