checkerboard/cfm/models/36000_model.pt (torch, 535792 bytes, 8 tensors)

net.0.weight f4 [256, 3]
00000000: e9ef ebbc e8fa f53d 4e1f b8bb fc60 aebe
00000010: ee06 bb3c 389b 86be 694d d43e ef05 603e
00000020: 8bd5 2e3e 7a1f 853e d02b 883e 318e 993e
00000030: 5ade 21be b0c5 c9be 509f c53e dc40 203f
00000040: 2545 c5bd 6418 aa3e 6d2f 903e 6a5e 26be
00000050: 5578 78bd c2b5 45be 01b6 553e db21 1e3e
00000060: 219f 94be 784c 973e 2d72 fb3e aa20 0d3d
00000070: a450 c2bd 615d d2be 0814 e43d 34e8 17bf
00000080: 2f97 afbd f53b cabc 0673 60be 62ee bcbe
00000090: 290c 223e ca3e babe 3f12 b6be 689b e43c
000000a0: 985f 4c3d 5419 ae3d 0457 58be 9c83 f6bd
000000b0: 5d71 08bf f3e0 85bd d15b 82bc 0fae 173e
000000c0: f7d0 52bd b287 173f 8482 efbb 27bd 37bf
000000d0: b01b 383f b5d3 c2be d6f6 bf3d 37a7 ff3d
000000e0: 11a3 97be c09d debe 25d4 95be 3d3d ccbd
000000f0: 2413 03be eca5 183e 6f5e 8ebe b126 a4be
00000100: bdb0 c5bd 58c5 053f 1b1d fdbc d108 6dbe
00000110: b4ab ca3e 396d 963d 7dbc 063e 866d 83bc
00000120: e58f f4be c29f e33e c32d 9e3e 0c82 413d
00000130: 611b 983e 69c1 643e b914 eebe f383 523e
00000140: 066c 0f3e b7d1 61bd 830e 1d3e 5161 0fbf
00000150: c70e fabe 5aff adbe 7877 30bd a285 e1bd
00000160: 2a43 2fbc 00b4 443d 17cc 3cbe 5955 29be
00000170: c6e0 0f3e 3081 3b3f 712f 72bf cd52 cabe
00000180: c591 b7be d39b ad3c 05f2 d4be 3a69 28bb
00000190: 9b50 16bb ce15 1dbe 6915 cabe 0af8 adbe
000001a0: 6b8e 9cbd 1c84 8a3b ddbb c93a fd0c 593e
000001b0: 8205 a5bd fb8c 2d3d 943c 75be f2be 3d3f
000001c0: c2fe 433f 6739 f8be d0ff b73e b237 c33e
000001d0: 5313 0f3f 868d a4bd 11b9 0ebe 0846 c63e
000001e0: 3973 5abe b2c4 2b3f add3 e1be ccd3 0a3c
000001f0: 972c d7bb b669 0c3e fcf0 a1be ace2 21be
00000200: 1cdc d93d a818 093f a64f 04bf fae3 d93e
00000210: 03ba 303e 5d45 13bf 94ac b33c deda aebe
00000220: 0fc9 553e 0fd3 773e bf2a f9bd 1335 6b3e
00000230: 9d5b 01be be70 bc3c 1198 eabe 88fe cdbe
00000240: 2f6a 22bf f296 233f 462a e13e 9390 b0bd
00000250: 637e c5bd eb19 38be b48b 1bbf 3400 cfbd
00000260: 9184 3cbe 83bb 3dbf 9379 3b3f 1295 d8be
00000270: 3b73 0cba 37a7 5f3b 49fd 4a3f 5fd0 dabe
00000280: c92b 93bd fdb5 f2bd 0b20 85bc e206 1abc
00000290: 5370 a9be aaed edbd 475a 0d3f 6308 a03e
000002a0: a178 283f e3b2 50bd 7704 17bd 6556 e63d
000002b0: cdb7 eb3d 5ed0 f7bd fd69 103b 586a 6aba
000002c0: 1e66 c2bd 39b7 dfbe 2ca6 1d3f d323 08bf
000002d0: bf42 60be 82a4 16bd 0d15 8e3e 0453 673e
000002e0: 7fc9 333e 3552 d7be 0f95 793e 9931 813e
000002f0: ba45 7b3e b930 f13e d7c9 8ebe 8b07 e93e
00000300: f2a1 833e 4e0f e83e ed6a 853e e6ee 9e3e
00000310: cf4b aa3e f599 8f3e 799f 30bd 49a4 9e3e
00000320: a55f babe 67bb 2ebf 2d0d 2f3f d1e0 a73e
00000330: aa1d 043f b724 febe 4525 da3e ecb0 ecbe
00000340: 88d7 8dbe 7054 2cbe fb8f 17be 95cf f83d
00000350: 2e97 f23e f2db 133e 5c60 0ebe c8fd c7bd
00000360: 8275 7b3a 70ad 28bb 04e4 7038 72a4 833e
00000370: b1be 7dbd 1b81 4d3e 0f26 81ba d771 9abd
00000380: 1006 95be 9d84 99be 470d b83d 35d7 a83e
00000390: 4c7e 43be e5a5 bb3d 59f3 f1be ad02 1ebe
000003a0: 421e a7bd 2e02 c43e 8c44 063f 6f4b df3e
000003b0: 30c3 4bbe ef2d 8b3d 6485 cb3d a527 9a3e
000003c0: 23b4 6d3e 6d64 8abe 1e82 953e fe87 3c3f
000003d0: 63b2 f3bd 056a b13e 9d6a d8bc 7d36 6dbe
000003e0: bab4 793e 52bf ccbd 9be1 a53e f89c ca3e
000003f0: a6af 143d aace 1f3f 86c5 f83e cfa1 e33d
-0.028800922 0.12010747 -0.005618966 -0.34058368 0.022830453 -0.26290298 0.4146531 0.21877263
0.17073648 0.26000577 0.26595926 0.29991296 -0.15807477 -0.39408636 0.38598108 0.6259897
-0.09632329 0.33221734 0.28161183 -0.16246954 -0.060661633 -0.19307616 0.2087021 0.15442602
-0.29027656 0.2955053 0.49110547 0.03445498 -0.09488037 -0.41086867 0.11136633 -0.5933869
-0.08573758 -0.024686793 -0.21918878 -0.36900622 0.15824951 -0.3637603 -0.35560796 0.027906135
0.049895853 0.08500925 -0.21126944 -0.12036821 -0.5329798 -0.06537046 -0.015912922 0.14812492
-0.051468816 0.5919143 -0.00730926 -0.71773 0.7191725 -0.38052145 0.09373252 0.124830656
-0.29616597 -0.4347973 -0.29263416 -0.09972618 -0.1280027 0.14907044 -0.27806422 -0.3206077
-0.09652851 0.5225425 -0.030897668 -0.23147894 0.39584124 0.07345051 0.1315784 -0.016043436
-0.47766033 0.44457823 0.30894288 0.047243163 0.29708388 0.22339405 -0.46500185 0.20558147
0.14006051 -0.05513164 0.15337567 -0.5600787 -0.488394 -0.3398388 -0.043082684 -0.110118166
-0.0106971655 0.048023224 -0.18437229 -0.16536464 0.14050588 0.73244 -0.9460364 -0.39516297
-0.358534 0.021192467 -0.41590896 -0.0025697486 -0.0022936228 -0.15340349 -0.3946946 -0.339783
-0.076443516 0.0042271744 0.0015391071 0.21196361 -0.08057691 0.042370778 -0.2394889 0.74119484
0.76560605 -0.48481295 0.35937357 0.3812843 0.5588886 -0.08034806 -0.13937785 0.38725305
-0.21333016 0.6709701 -0.44106808 0.008473348 -0.006566595 0.137122 -0.3162917 -0.15809125
0.10637686 0.5355325 -0.51684034 0.42556745 0.17258458 -0.57527715 0.021932878 -0.34151357
0.20877479 0.24201606 -0.12166356 0.22969465 -0.12632604 0.023002978 -0.45819142 -0.40233254
-0.63443273 0.639022 0.43977565 -0.08621325 -0.09643247 -0.17978637 -0.60760045 -0.101074606
-0.18409945 -0.74114245 0.7323238 -0.42301232 -0.0005357747 0.0034126767 0.7929273 -0.427371
-0.07186086 -0.11851118 -0.01625063 -0.009401055 -0.3309351 -0.116175964 0.5521588 0.312564
0.65809065 -0.05095185 -0.036869492 0.11246947 0.115096666 -0.1210029 0.002203583 -0.0008942238
-0.094921336 -0.43694475 0.61581683 -0.53179663 -0.21900462 -0.03677798 0.27750435 0.22590262
0.17557333 -0.42054906 0.24373268 0.25233153 0.24538317 0.47107485 -0.27888367 0.45513567
0.25709492 0.45324177 0.2605814 0.3104164 0.33260962 0.28047147 -0.043120835 0.30984715
-0.36401096 -0.68254703 0.6837948 0.3278871 0.51607764 -0.49637386 0.4260656 -0.4622873
-0.277035 -0.16829085 -0.14801018 0.12148968 0.47380966 0.14439371 -0.13903946 -0.09765202
0.00095924 -0.0025738142 5.7432815e-05 0.257114 -0.061949436 0.20068781 -0.0009853261 -0.075412445
-0.29106188 -0.29983988 0.089869075 0.3297669 -0.19091147 0.09162501 -0.47255972 -0.15430708
-0.08160068 0.38282913 0.52448344 0.4361224 -0.19898677 0.067958705 0.099375516 0.3010837
0.23213248 -0.27029744 0.29200834 0.7364501 -0.11899259 0.346512 -0.026418025 -0.23165317
0.24385348 -0.09997429 0.32398686 0.39572883 0.036300324 0.6242472 0.48588198 0.11114847

net.0.bias f4 [256]
00000000: a773 16be 83e6 9c3e 13eb bbbc 1f26 0abf
00000010: 9bb5 ad3d 81c6 c3bd 3f43 9c3e 8cc3 1abf
00000020: e99c fbbe eb09 cb3e de96 bf3e dccc 8e3e
00000030: f9c0 1d3f c307 b5bd cf14 033f 283e 86bd
00000040: 633f 2e3e 52f9 023e 7211 883e d84f 9b3e
00000050: 6269 d93e dfa8 95ba c12e 373e cbed d3bd
00000060: 2a1c 993e b8fc 5d3e 3e9a 7f3e f7d6 133f
00000070: c86f 8d3e 9e47 a53d 6f79 a1be 5c03 2cbf
00000080: 4ed7 de3e 8362 e43d 05ed 953e caa0 02be
00000090: 7b8a 8e3e c1cd 05bf c96c 8bbe 6825 1fbe
000000a0: 69c7 c5be b40f 80bd 7d12 23bc 6fee ebbe
000000b0: 18fb 16bf 05bc 49bd 9f96 9f3e 39b8 e93e
000000c0: 9473 07bf f136 1f3e b4fb 043d 9300 043e
000000d0: f726 e7be 10ec 513b 9664 743e b070 d6bc
000000e0: 1714 453e 2b9d 4a3d fb02 8f3d bd79 01bf
000000f0: 5f43 513d fbee d23e e133 2dbd f4f0 15be
00000100: afd3 97bd 97a6 0e3d bee1 c43e 564f dfbe
00000110: 6cfe eabe ca94 af3e 5e9e 20be df0a 883e
00000120: 2569 0fbb f1eb 01be f336 743e 9833 e1bd
00000130: 7875 b93e fec2 73be f84c 8ebd aef1 7cbd
00000140: aa9f 513d b4fa cebd 7ccf ae3d ef5f 61be
00000150: e5b0 33bf 5e88 d03e c3aa d33d c6b9 a5be
00000160: 8330 d2be b4aa 083f 772a 24be 1428 c63e
00000170: 6249 0fbf ea5f e83e 6d17 203f f78e d33e
00000180: 3845 07bf d5f1 093e 0706 21bd 173e 903c
00000190: 0767 8c3e da07 72be 2985 e73e 4a9d a9be
000001a0: 62e5 1a3f af5f 20be 14f0 5e3e d0f4 f4be
000001b0: f36c 6ebe 8a42 c9bd 2336 de3e 985c 75bb
000001c0: 9809 8a3e 24a9 c4bd 49e6 9abe 54e9 7a3e
000001d0: 4f98 2a3e 94ff 4f3e 399d b5bd 97a2 9d3e
000001e0: c95f e3be cae1 793e 137d 643e a7fc a0be
000001f0: 71df 983d feb0 00be c8fe 20bf b5dd 843e
00000200: afb6 423e c166 cf3d 0136 ca3b 7e05 c03e
00000210: ed9e 093d d65c e1be 4a39 433e d178 5d3e
00000220: cf8c 823e 2147 a1be 562b 38bd 59dc 7d3e
00000230: a985 5a3e 4174 6c3b 3662 1c3e f08a cdbe
00000240: 4d44 b03e 6a32 9d3e 00d1 d8be 4dda 0bbe
00000250: 31a8 c13e df06 02bf cb14 893e 59bc cc3c
00000260: 9b29 d5bd 88cb 9ebe 135c c4be 810d 4fbe
00000270: dfb1 803e a579 1c3e 1739 84bc 2d94 f2be
00000280: bcff e63e a642 39be 0574 e83e 01d4 7b3b
00000290: 7469 533e 8ecc 28bd 8bf8 913e 2280 cebe
000002a0: 22ab 7a3e e569 80be 227d 39bf f8c0 293e
000002b0: e891 f8be 99d3 b3be 9cc8 cd3d 19ed 3abe
000002c0: 4d46 793d 8821 c3bd 4fb2 61be 1c97 f3be
000002d0: 0624 bb3e 0472 c3be 30ea ae3d 998e 51bd
000002e0: 1fc7 693d 679d c93e 8ba0 46be 4a62 8c3d
000002f0: ff78 5d3e 4f63 9d3e b801 27bf 0157 0fbf
00000300: bcaa a03b d4a7 26be 7a7c 693e 2650 b83e
00000310: d6e3 73be 9871 e03e 00a1 c93d b10f a13e
00000320: 0c4a cabe 7c28 b5bd 91d8 2e3e 3768 0bbf
00000330: c201 e43e d26c dfbe d14e 193f cba9 413d
00000340: 63bb 173f 2419 d1be c3a7 01be 84af 223e
00000350: c622 7a3e ffc2 173e 7e7a 12bf ddb3 32be
00000360: f980 b13d ca9a 2f3e 6bcb 09bf f5cb 6fbe
00000370: 8ead c3be 06f4 abbe 6447 c73d 3baa e1be
00000380: c9a7 e63d 8b2b 053f 1b75 81be 11bd 2bbf
00000390: 2b00 94bc 75b9 213f 249b 7ebc bad2 39be
000003a0: eb87 283e d06d c03e 41da 033f a6de 27bf
000003b0: 2d40 da3c 9c48 fbbe 7bb3 bbbd a606 ccbe
000003c0: ef4b 213e 9b71 123e ed23 b73d 326d 0cbf
000003d0: 5df9 3bbd a18f c83e 37e1 883e b36e 7cbd
000003e0: 19aa 87be 2f07 dcbe 2dea 533e a251 333e
000003f0: 0b54 073e 9d9f b0be 43e7 9fbb 5dfd dcbe
-0.14692555 0.30644616 -0.02293924 -0.5396442 0.08481904 -0.09559346 0.30520055 -0.6045463
-0.4914315 0.39656004 0.3741979 0.2789067 0.6162258 -0.08839371 0.51203626 -0.06554824
0.17016368 0.1279042 0.2657581 0.30334353 0.42463213 -0.0011418125 0.17888929 -0.1034809
0.299043 0.21678436 0.24961182 0.57749885 0.27624345 0.080703005 -0.3153796 -0.67192626
0.4352364 0.11151602 0.29282394 -0.12756649 0.27840027 -0.5226708 -0.27231434 -0.15541613
-0.386287 -0.06252995 -0.009953138 -0.46080348 -0.5897689 -0.049251575 0.31169602 0.45648363
-0.52910733 0.15548302 0.032466605 0.12890844 -0.45146915 0.0032031573 0.23866495 -0.02617678
0.19245945 0.049466293 0.0698299 -0.5057638 0.05108964 0.41197953 -0.042285804 -0.14642698
-0.07413422 0.03482684 0.38453478 -0.43615216 -0.45897233 0.34293205 -0.15685412 0.26570794
-0.002188274 -0.12687661 0.23849086 -0.10996169 0.36222434 -0.23804852 -0.069482744 -0.06175392
0.05117766 -0.101064116 0.08535668 -0.22009252 -0.70191795 0.4072904 0.103353046 -0.32368296
-0.41052637 0.5338547 -0.16031824 0.38702452 -0.5597135 0.45385677 0.62535745 0.4132001
-0.52839994 0.13471158 -0.03931239 0.017607732 0.27422354 -0.23635808 0.4521878 -0.33127815
0.6050626 -0.156615 0.2177127 -0.47843027 -0.23283748 -0.098271444 0.43400678 -0.0037439223
0.26960444 -0.096025735 -0.3025382 0.2450307 0.16659664 0.20312339 -0.088678785 0.3078811
-0.44409016 0.24402538 0.22313337 -0.31442758 0.07464493 -0.12567517 -0.62888765 0.259504
0.19015001 0.101270206 0.0061709885 0.3750419 0.03359883 -0.4401614 0.19064823 0.21628119
0.25498053 -0.3149958 -0.044963203 0.24791087 0.2134005 0.0036080035 0.1527184 -0.40145063
0.3442711 0.30702525 -0.42346954 -0.13657494 0.37823632 -0.50791734 0.26773676 0.024992155
-0.10408326 -0.31014657 -0.38351497 -0.20219995 0.25135705 0.15280779 -0.016140504 -0.47378674
0.45116985 -0.1809183 0.45401016 0.0038425925 0.20645696 -0.041210704 0.28509936 -0.40332133
0.24479344 -0.2508079 -0.7245656 0.16577518 -0.48548818 -0.35122374 0.10048029 -0.18254508
0.06085806 -0.0952788 -0.22040676 -0.47576225 0.3655092 -0.38172925 0.085407615 -0.051161382
0.057074662 0.393779 -0.1939718 0.06854685 0.21628188 0.3073983 -0.65237 -0.5599213
0.0049031656 -0.16274959 0.2280139 0.35998648 -0.23817381 0.43836665 0.098451614 0.31457284
-0.39509618 -0.088456124 0.17074801 -0.54455894 0.4453259 -0.4363771 0.5988589 0.047281068
0.59270304 -0.40839493 -0.12661652 0.15887266 0.24427328 0.14820479 -0.5721816 -0.17451425
0.08667178 0.17148891 -0.53826016 -0.23417647 -0.3821835 -0.33584613 0.097304136 -0.44075188
0.11262471 0.52019566 -0.25284657 -0.6708537 -0.018066486 0.6317361 -0.015539918 -0.18146792
0.16458099 0.3758378 0.51504904 -0.6557411 0.02664193 -0.49078834 -0.091650926 -0.39848822
0.15751623 0.1430115 0.08942399 -0.5485412 -0.04589211 0.3917208 0.26734325 -0.06162901
-0.26496962 -0.4297423 0.206948 0.17511609 0.13215654 -0.34496775 -0.0048798635 -0.4316205

net.2.weight f4 [256, 256]
00000000: 220a 3abd d9ce 6f3d 2885 473d 4a28 4e3d
00000010: f98c 83bd 8eb3 aabb 78de 493d 1528 dabc
00000020: 3683 123d 443e 65bd 800c 96bd 9011 33bd
00000030: 762a c7bc a65f 27bd 7024 0e39 8624 e1bd
00000040: 53d3 18bb 43f0 1cbd 40c4 0f3d a33d 70bd
00000050: 2424 92bc 8159 02be 5459 243d 344a 6bbd
00000060: 496c c33d ea06 a6bc b270 d63d bbc9 973c
00000070: a9bd 2abd efd9 75bd e694 a3bd b78b 85bd
00000080: cfd3 0f3d 66b4 f6bc d4e5 8a3c b83e 1dbd
00000090: 3cc8 5cbd 3e29 3a3d 42d6 d53b 266f 88bd
000000a0: f683 573d 06c8 513d 9c8b d33c f2a5 4d3d
000000b0: 7256 20bc ecdf 2c3d e468 91bc f4de 9fbd
000000c0: 021f a73b 4468 053d 5dac d43d 858f f5bb
000000d0: 2731 18bc f5bf 8b3d e6a0 d9bb d62c da3c
000000e0: 5bfd d93c e0bb f7bc d81d 3eb9 ec8c a93c
000000f0: 2cc3 43bd ed93 133d 01ce 403d 23ba f33d
00000100: eb3d 1cbe 9d9e 72bc 5851 b6bc e793 a5bc
00000110: 0933 8c3d 5539 42bd ba85 bb3b 69bf 11bd
00000120: 26c2 c43c f1c0 8a3d 4efd dbbc f0f6 f43c
00000130: 0451 ad3b 312e b8bd 3037 063d d0c7 0f3d
00000140: 3eca 4ebd 54ca 083d d74c 0dbd 97b5 b93d
00000150: 9bd8 c4bd 8420 b03b da81 0fbd 168c 2b3c
00000160: 90af 33bd d3ca 2a3d 4dff acbd 603a 123e
00000170: 699e c03c 0225 b2bd b13f 46bd 2c9b acbd
00000180: 70ca 5abd 8130 05be 2aa8 723c c936 04bd
00000190: bd21 463d 5377 dfbd f899 003d 67e3 c33c
000001a0: bbf4 a23c f9d9 d53c 2751 d4ba dc1b 093c
000001b0: 5c1d 0cbc 402b ae3d d942 043d 6102 e43d
000001c0: 8155 0ebd 08cc 5a3d f63b 0bbe a9e3 c3bc
000001d0: 6c26 c0bd 7a57 16bd a38e 60bb 9e67 bdbd
000001e0: b6ee 653c d2df 463d a789 873d d9d2 77bd
000001f0: af8c 4abd 60ac f7bc 855b a43c a500 a8bc
00000200: fad5 6e3c fcf9 42bd fbf8 40bd ee32 2dbd
00000210: 8cf1 a03b 2705 96bc db74 4b3d 319d 4ebd
00000220: 0cbd 963c d2e0 febc 2ba4 3dbd 1989 b03d
00000230: 6ff7 703d ee0e 95bc e8f0 e23d 2db4 be3c
00000240: 3525 3abd dc26 47bc efca 8fbd ad81 3ebd
00000250: 9e27 65bd 7200 0abd 9914 81bc f10a d0bd
00000260: ae21 a1bc 290f 883d 60ab acbd 7726 1fbd
00000270: 7ec2 19bd 58bf eebd a0c3 683d 5ece 6c3d
00000280: a3d7 49bc f40d a93c 9797 f9bc 20cb c13c
00000290: 4043 dcbc 3840 be3c fc1a 083d b634 70bd
000002a0: 2929 783d c6d5 dbbc c486 07bd 396d fb3c
000002b0: 2680 2cbd 2960 17bd 2d37 1c3d fa18 63bd
000002c0: a3a0 8cbc 271e c7bd 749f 29bd 4cb1 493c
000002d0: b026 0c3d c9c3 6f3d 8d6d 5e3d e7be 083e
000002e0: f857 bebd b3bc b1bc b23b 963d 7c9b c93c
000002f0: 4596 b0bd 214e aebd a539 02be f265 e63c
00000300: 2ce4 1d3d 3150 61bd 4a3f 69bd 648d 16be
00000310: 4608 c9ba 49de e9bc 4ec1 04bd f705 80bb
00000320: 2cdd 393d 1aba a03c d4e4 69bd f1f8 633c
00000330: a86b d2bb e4ed 003e bd47 ab3d 0abf 2c3d
00000340: ff49 173d 6e89 1b3d a4ff 063d b555 81bd
00000350: 9e52 993a 07d4 03bb e7d7 4abd cd44 153d
00000360: 0e2d 333b 1429 003d 2aeb cd3c e127 19bd
00000370: 4ecf 373d 3ab4 2b3d 1062 c33d 2dc3 003d
00000380: 2196 73bd 8544 40bc 7de1 cd3d 9341 fbbc
00000390: 6074 b03c 4937 cabc 06ad 2d3d 5443 b3bd
000003a0: 2f7e c13d b2bd a73c 4abb af3d 7487 97bb
000003b0: 1db9 823d 899d d1bc 91e7 6abd 9884 753a
000003c0: 1c75 9f3c 9b92 6bbd 947a 3f3c 21ed 6a3c
000003d0: 48e5 89bd c302 8c3c 0cb4 b13d db74 703a
000003e0: 688a e5bc 1ae2 42bc 651a 323b ee7b cdbd
000003f0: c2e6 703d d742 723c 0c03 9b3a ff92 873b
-0.04541982 0.058546875 0.048710972 0.05033139 -0.06423373 -0.005209393 0.04928443 -0.02663044
0.035769664 -0.055967584 -0.07326603 -0.04371792 -0.02431224 -0.0408627 0.0001355575 -0.109932944
-0.0023319318 -0.03831507 0.035099268 -0.05865253 -0.017839499 -0.12729456 0.040124252 -0.057443812
0.09542138 -0.020266969 0.10470714 0.01852881 -0.04168478 -0.06002229 -0.079873845 -0.06520789
0.035114106 -0.030115318 0.016955294 -0.03838989 -0.053901896 0.045449488 0.0065257857 -0.06661825
0.052616082 0.051216148 0.025823407 0.050207086 -0.009786235 0.042205736 -0.017750211 -0.07806197
0.005100132 0.03257014 0.10384438 -0.0074939155 -0.009289063 0.06823722 -0.006641495 0.026632708
0.026610067 -0.030240953 -0.0001813093 0.02069708 -0.047793552 0.036029745 0.04707146 0.11900737
-0.15257995 -0.014808324 -0.022255585 -0.020212127 0.06845672 -0.047417957 0.0057227286 -0.035582934
0.024018358 0.06775082 -0.026854184 0.029902905 0.005289199 -0.08993185 0.032767475 0.035102665
-0.050485842 0.03339608 -0.03449711 0.09067839 -0.09611627 0.00537497 -0.035035945 0.010470411
-0.0438686 0.041697334 -0.08447132 0.14280081 0.023513036 -0.08698465 -0.048400585 -0.08428034
-0.053415716 -0.13006784 0.014810601 -0.03227881 0.04837202 -0.10911431 0.031396836 0.023912145
0.019892087 0.026104914 -0.0016198502 0.008368459 -0.008551922 0.08504343 0.032290313 0.11133266
-0.03474951 0.053417236 -0.13597092 -0.023912268 -0.093823284 -0.036704518 -0.0034264706 -0.09248279
0.014033964 0.048553295 0.06618052 -0.060503814 -0.049450573 -0.030233562 0.020063171 -0.02050812
0.014577383 -0.047601685 -0.047112446 -0.0422849 0.004911607 -0.018313004 0.04967199 -0.05044288
0.018400691 -0.031113062 -0.04629914 0.08619899 0.05882972 -0.018195596 0.110811055 0.023279274
-0.04544564 -0.012155261 -0.070211284 -0.046510387 -0.055945985 -0.03369183 -0.015756892 -0.10158337
-0.01966938 0.066435166 -0.08431125 -0.038855042 -0.037538998 -0.1165759 0.056827188 0.057813995
-0.012319478 0.020636536 -0.030467791 0.023656428 -0.026887536 0.023223981 0.03322886 -0.05864402
0.06058613 -0.026835334 -0.033087507 0.03069173 -0.0421144 -0.03695694 0.038138557 -0.05544374
-0.017166441 -0.09722548 -0.041411832 0.012310337 0.034216583 0.058536325 0.054303695 0.13354073
-0.092941225 -0.021696424 0.07335605 0.024610274 -0.08622412 -0.08510996 -0.12717302 0.028124783
0.03854768 -0.055008117 -0.056945123 -0.14702374 -0.0015337549 -0.028548377 -0.032410912 -0.003906961
0.04537694 0.01961999 -0.057102993 0.013914333 -0.006421525 0.12590748 0.08363292 0.042174377
0.036935803 0.03797286 0.03295864 -0.063151754 0.0011697595 -0.0020115392 -0.049522307 0.036442567
0.0027340087 0.031289175 0.025136549 -0.037391547 0.044875436 0.041919924 0.09540188 0.031436134
-0.059469346 -0.011735086 0.10052774 -0.030670917 0.021539867 -0.024684565 0.042401336 -0.08753076
0.09447896 0.020476196 0.085806444 -0.0046243016 0.06382964 -0.025587814 -0.057349745 0.00093657663
0.019465022 -0.05751286 0.01168694 0.0143387625 -0.06733185 0.01709116 0.08676919 0.0009172686
-0.028020099 -0.011894727 0.0027176377 -0.10033403 0.058813818 0.014786444 0.001182647 0.0041373963

net.2.bias f4 [256]
00000000: ef0c 703d 43b4 1dbc e852 16bd 383a adbb
00000010: 9665 363d b134 64bc 3edc c43c 2f57 ce3a
00000020: 8331 e83d 84ff 223d cc53 1e3d 248a c8bc
00000030: d020 2b3d 64d3 e93c 3b8f d4bc 0f76 bfbc
00000040: 12d7 263d 1076 d73c ecc4 42bc af50 7ebd
00000050: 7567 6cbc dd0e 193d 9dcf 34bc 8b67 29bd
00000060: 1c65 95ba 687b c4bb 2a42 cbbd 67c2 37bd
00000070: 1ac7 433c 3c3c 1cbd da0f 95bb 3bb7 81bc
00000080: 39c6 47bc b553 563c 5237 65bc 94c5 ae3c
00000090: 31ad 2e3b 7759 313d eef9 95bd 6041 7a3c
000000a0: 5db6 68bd 94a4 25bd 8566 973d 2e33 05bd
000000b0: 5c94 483b 5242 493d ff1e 67bd 5042 41bd
000000c0: 8e01 a4bc a33d cdbc de11 813c fd6b cabd
000000d0: 8f89 85bc 61cb 4ebd 92ab a4bd 17a8 cc3c
000000e0: ba8b c1bd ae9e 583c 787d 9e3d 645d a53c
000000f0: 5238 023d a178 8bbd 512b 45be 9aaa 1abd
00000100: cddc 15bd 1da9 143c 545c dd3d ed20 10bd
00000110: 3c06 4b3d 1c32 573d 3373 29bc 8ebd 53bd
00000120: ecf7 2bbc b2e3 e73b 5972 2fbd fb96 c33c
00000130: 1f20 8bbc 9012 253d 7bfd d9bb 7177 2e3d
00000140: ad34 0fbd 7f3c dbbd 9be4 013d a455 153d
00000150: e684 02bd 30df 973d 5199 07bd d1c1 773d
00000160: 8c14 03bd 7535 cbbd fb87 01bc 6342 37bd
00000170: 6414 60bc 9b6d 513c 5562 01be 10fd 5e3d
00000180: 819c 8a3d 8713 8b3d a1c7 1ebd 9662 c93b
00000190: ef1e a23d 04a8 dc3a 7ddc c03a 7b39 a3bc
000001a0: 0c1c e83c 56e7 5e3d 6fee 36bc ef7f 0ebe
000001b0: e7eb 24bd f721 bcba 0d24 8fbc d0fe 6b3d
000001c0: 695a 1a3d aafb 88bc f687 3cbd 27fc d1bc
000001d0: 7903 973d 96b1 ffbc b369 183d ffd2 50bc
000001e0: cb80 fa3c 0d2f 86bd 18f6 00bd d30b 103c
000001f0: fc5d 733d 5137 4e3d bf58 f0bd 17db cabc
00000200: 999d d63c b319 153c f53d 96bc 48e4 4d3d
00000210: 19f3 01bd c44c b23c d12c 17bd 51e3 e7bb
00000220: 44e1 eebb 64a0 9a3d ca2d 993d b7e6 52bc
00000230: cd52 b33c 8d55 683d ae66 523c 18aa 943d
00000240: 25f2 fe3b a77d 0bbd c37b 23bd 8e58 113d
00000250: 9991 9c3d 84a7 4d3d ac83 803b 99a2 543d
00000260: 6ee0 e8bc 4b64 38bd c3cd 363d 0cb7 753d
00000270: cfac 70bd cfc7 3abd 2ceb 85bd 69c2 ca3d
00000280: 246d 813d ea7f cf3d e24e 4f3d 4ff1 dcbd
00000290: 5816 57bc b82a 22bc d9c4 0cbc a1b9 15bd
000002a0: 3fa0 af3c 8757 353c 43e9 353d 64a3 603d
000002b0: 2ae8 3b3c a438 ecbb 003e fd3a 7342 4cbd
000002c0: 6d29 b2bc 2c48 1cbd 1e9f 013d 8426 96ba
000002d0: 582a c53c 4838 adbc fb66 883d 0bde 90bc
000002e0: 6c5b 6a3c f873 29bb 3b20 5cbd b96d 0fbd
000002f0: e69e b9bd b4f4 6fbc f9c3 2f3b 1b9b bb3d
00000300: 84ef 7c3c ef17 b33d f89a b43c 97f9 94ba
00000310: 0e89 1cbd d123 01bd cf9e a53d a1ea f1bc
00000320: 87ef 24bc c1ed 26bd 0faf b1bb cd2d 82bc
00000330: dbfd 1d3c dcd4 ca3c 7fe5 f0bc a6af 89bc
00000340: 7316 3d3d fd18 d9bd 5d03 cbbd 590d 853c
00000350: b402 3cbd 9169 233b e564 c93d c0dd 18bd
00000360: 5dc9 f5bc d98a 563d 940a e4bc ae0d a83d
00000370: 5587 dc3c b34d f03c 8af9 273d c710 9a3d
00000380: a476 023d 80f0 903d 509c 933d f814 763d
00000390: a199 5dbd 5a7c 073d 1fef 29bd 9f73 2cba
000003a0: 03d8 87bd 4d69 e5bd c25f e63b 9bea 82ba
000003b0: 21a5 ff3a 209c 2f3d 9d91 58bd b010 7a3c
000003c0: 478c 63bc 4999 113c 7156 fe3c b4aa 77bd
000003d0: f597 813c 81a5 a5bd 68b5 713d 91c6 97bc
000003e0: 40d1 f9bc 301f 5f3c c89d 6abd 3277 23bd
000003f0: 0361 aabd 9f24 77bc c558 163d 23f5 eb3c
0.058606084 -0.009625497 -0.03670016 -0.005286481 0.044530474 -0.013928578 0.0240308 0.0015742535
0.113375686 0.03979446 0.038654134 -0.024479933 0.04177934 0.028543182 -0.025947204 -0.023371724
0.04073245 0.026301414 -0.01188777 -0.062088665 -0.014428963 0.03736769 -0.011035827 -0.041358512
-0.0011397931 -0.0059961565 -0.09924729 -0.04486313 0.011949325 -0.03814338 -0.004549009 -0.015834441
-0.012193256 0.013081481 -0.01399024 0.021334447 0.0026653523 0.04329821 -0.07323061 0.015274376
-0.05681454 -0.040440157 0.07392601 -0.032519512 0.0030606007 0.049135514 -0.056426045 -0.04718238
-0.020020273 -0.025053805 0.01575559 -0.098838784 -0.016300945 -0.050486926 -0.08040537 0.024982495
-0.09450479 0.013221426 0.07738775 0.020186134 0.031791992 -0.068101175 -0.19254805 -0.037760355
-0.036587525 0.009073523 0.10808626 -0.03518765 0.049566492 0.052538022 -0.010342407 -0.051694445
-0.010496121 0.007076704 -0.04283366 0.023875704 -0.01698309 0.040300906 -0.0066525317 0.042594377
-0.034962345 -0.10704898 0.031712156 0.036458626 -0.031865023 0.074156165 -0.0331052 0.060487572
-0.032002017 -0.099223055 -0.007905955 -0.044741046 -0.0136767365 0.01278248 -0.12635167 0.054440558
0.06768132 0.06790834 -0.0387646 0.0061457856 0.07916056 0.001683474 0.0014714148 -0.01992487
0.028333686 0.054419838 -0.011165245 -0.1391599 -0.040264037 -0.0014353384 -0.017473245 0.057616055
0.037683878 -0.016721565 -0.0460281 -0.02563293 0.07373709 -0.03121261 0.037210178 -0.012745618
0.030578991 -0.06551943 -0.031484693 0.008791882 0.059415802 0.050345723 -0.11735677 -0.024762673
0.026198195 0.009100365 -0.01834009 0.050266534 -0.031725977 0.02176512 -0.036907975 -0.007076659
-0.0072900373 0.07550123 0.07479437 -0.0128723895 0.021890068 0.056722213 0.012841864 0.07259005
0.0077803307 -0.03405538 -0.03991295 0.035484843 0.07644958 0.050208583 0.0039219465 0.051912878
-0.028427329 -0.04501752 0.044629823 0.05998902 -0.058758553 -0.04560071 -0.06538996 0.09900362
0.06319645 0.101318195 0.050612338 -0.107882135 -0.013127886 -0.00989788 -0.008591854 -0.036553983
0.021438716 0.011068231 0.04441191 0.05484332 0.011468926 -0.0072089005 0.0019320846 -0.04986806
-0.021748269 -0.038154766 0.031645887 -0.001145557 0.024068043 -0.021145001 0.06660267 -0.017684003
0.014304023 -0.0025856476 -0.053741675 -0.03501675 -0.090635106 -0.014645744 0.002681969 0.091604434
0.015437964 0.08744799 0.022046551 -0.0011365887 -0.038216643 -0.031528298 0.08086931 -0.029530825
-0.010066873 -0.040754084 -0.00542248 -0.01589098 0.009643043 0.024759702 -0.029406307 -0.016807389
0.046163987 -0.10600469 -0.09912751 0.016241716 -0.045901015 0.0024934749 0.09833697 -0.037320852
-0.030003244 0.05237851 -0.027837075 0.08205734 0.02692 0.029333925 0.041009463 0.07522731
0.031851426 0.07077122 0.072075486 0.06007859 -0.05410159 0.033077575 -0.04148781 -0.0006578508
-0.06632998 -0.11201725 0.007030458 -0.0009988131 0.0019504168 0.0428735 -0.052873243 0.015262768
-0.013888425 0.008886644 0.031047078 -0.06046553 0.01581953 -0.08088208 0.059010893 -0.018527301
-0.030495286 0.0136182755 -0.05727938 -0.039908595 -0.08319285 -0.015084415 0.03670575 0.028803414

net.4.weight f4 [256, 256]
00000000: 0417 d23c dbdd bfbc 0ce2 08bc 191e 0fbd
00000010: 80c4 d3bb 4516 b83c 5dbe c3bb b840 673c
00000020: 931d 1cbc a5b9 883b 82af 10bc 8d6a 5abb
00000030: cc37 dcbc ae34 8b3c 17c2 e2bb aef0 2d3d
00000040: eed6 bd3c 85e6 843b a775 133c aa8e 5b3b
00000050: f41b a9bb 001b 95bb 8ab1 3dbc d0a1 23bc
00000060: 1c94 313c 2ae7 443d 5802 a33c 2b46 ac3c
00000070: 545c 3cbc a652 f5bc 41e1 093d 6215 bebb
00000080: baf8 633c dc3c 003d 2df4 35bd 63d3 a43c
00000090: 34eb 52ba 04a3 2abb 6db3 f13c f01f 503d
000000a0: 3c63 aa3c 0b35 0c3c d93a cdbc 20a6 86bb
000000b0: 0689 553c 0456 313c c122 bbbb a3c2 acbb
000000c0: c911 023d 5b2b 993b 09b9 2b3c f167 55bd
000000d0: b78b c1ba 0325 5c3c c1ea 743c 9f54 36bc
000000e0: ca66 0a3d a751 893c 02d2 9c3a 3ef8 4e3c
000000f0: cf22 2dbc 38f4 d53c 182f ad3b 642d fabb
00000100: 7c8d 01bd 433e 8cbb 3361 78bd b25c db3c
00000110: 4055 fe3b 23ea 4c3c 0911 b2bc 8eff 7c3b
00000120: 937c 8c3b 6e87 52bc fa96 163c afad 94bc
00000130: 0491 d63b e93a 173d 98fb cbbb 053f 383c
00000140: e177 de3b 83a5 9f3c 43dc 243d 3c59 8d3a
00000150: bb73 c7bd eee1 d2bb 3e0d 45bc 9c36 b1bc
00000160: 5697 1b3d a0c7 413d d0c6 1abd 32ab 8f3c
00000170: 5ef2 fcbb b928 06bc 6e2e 91bd c7d2 4bbc
00000180: 0b04 a3bc ad54 bd3b 61a7 3ebd 427f 66b9
00000190: f557 b43c 3725 c5bc 6750 813d 1d82 65bc
000001a0: 8080 4a3c ed86 233d 2142 b8bb 5c72 6c3c
000001b0: 5e30 56bb 6546 9f3c 07ef 1f3c 9309 083c
000001c0: e30c 25bc ec29 15bc 4f27 a23b 1d7a 05bc
000001d0: 3ccb 6dbb cb0e 473d 798e 093d 503f 243d
000001e0: 2ef2 a0ba 9d06 b4b9 49a1 28bd 77c0 313c
000001f0: 2386 a0bc 2255 85ba d475 d1bb b271 123c
00000200: 0de3 aabc 688d 90bc 7f84 ceba 31c8 d63b
00000210: 0492 13bc 382a afbb 6282 83bc 5a01 fcbb
00000220: 96e9 4e3c a840 e0b9 b067 02ba 2451 1cbd
00000230: cf79 92b8 8ac2 9e3c 0d4b af3c 871a c4ba
00000240: eec7 3abd 7dc7 d2ba 2613 1bb9 016f ed3c
00000250: 1576 e1bc 82ff 7b3a 0d4c 493b 753c 9d3c
00000260: 9647 e9ba 6912 0bbd 34d8 d2bc dd3c 723c
00000270: 83ba 043d 2cdf 2bbb 28f4 3a3a 1b93 cabb
00000280: 5d4a bb3c 5719 b13b caed 4d3b 8338 29bd
00000290: 7405 393d 1a49 c03a 2ba5 03bd 6ccc 88bc
000002a0: d41f 983c 6128 7abb 4196 1abd aa21 e23c
000002b0: dbb8 b7bc 4266 1c3c 8cae f13a d8ab 09bc
000002c0: 6761 91bb 6bf5 1a3c 70e9 9abb 16a1 a53c
000002d0: 4b4e 05bc cfc7 bfbc 1cb7 ddbc ed97 e9ba
000002e0: 09b4 0bbd e5f2 a8bc 7567 0e3c cab9 b2bb
000002f0: 7bc0 f2bc 2f15 603b 62b3 a53b 2d37 d6ba
00000300: 28d4 513c ba78 46bc 0d45 c93b 8185 a7bb
00000310: bbfb dabc 4241 933c 6aaf ba39 8c12 ac3c
00000320: cc20 823c fbae 1dbc 48cd 633c 56e1 213c
00000330: b277 a03a 5fbb c23b caed a5bc 515c 97bc
00000340: 87bb 5abb a4ab 373b 79c5 05bd 78b4 2bbc
00000350: b7a8 baba 241a 6c3c 2fcc 5ebc 2b25 6fbd
00000360: 7aca bebc 0a3a d93a 77aa a93c b16e 26bd
00000370: d7c2 44bc bc6c 893c 6b37 8fba f21a cabc
00000380: a397 fcbb b4c5 35bd a028 233c 5f1e 103c
00000390: 5b08 63bd caf0 0b3c 20eb 583b 5007 a13c
000003a0: b52e bd3c bd0d 323b 0c40 14bb 94a0 a93c
000003b0: 5454 9abc a6bd c73b 04be 753c 58d3 88bc
000003c0: 78cc 20bc cec8 e3bb 36ad 87bc d633 c13c
000003d0: f467 c63a 03a5 f73c 0171 c2bc 2c3c 473d
000003e0: 5244 c13c 6436 0a3c dfef c93a 1e67 6ebc
000003f0: 08a5 943b b81f 063d 5842 d33b b1c0 0fbd
0.02564574 -0.023421219 -0.008354675 -0.034940813 -0.0064626336 0.022471556 -0.005973621 0.014114551
-0.009528535 0.004172521 -0.008830907 -0.003332767 -0.026882075 0.016992893 -0.00692011 0.04246586
0.023173776 0.0040558004 0.0090002185 0.0033501782 -0.005160803 -0.004550338 -0.011577973 -0.00998731
0.010838535 0.048072018 0.019898579 0.021029552 -0.011496622 -0.029946636 0.033662084 -0.005800889
0.0139142815 0.03130804 -0.044422317 0.020120328 -0.0008045912 -0.0026037106 0.029504502 0.050811708
0.020799272 0.008557568 -0.025052475 -0.004109159 0.013033157 0.01082373 -0.00571093 -0.005272226
0.031755242 0.004674358 0.010481128 -0.05210108 -0.001476637 0.013436559 0.014948548 -0.011128574
0.033789434 0.016762568 0.0011964443 0.012632428 -0.010567381 0.02611743 0.005285155 -0.0076348055
-0.03162907 -0.004279883 -0.06063957 0.026777599 0.0077616274 0.012506994 -0.021736639 0.003860447
0.0042873113 -0.012849672 0.009191269 -0.018149225 0.006548049 0.036921415 -0.0062250607 0.011245494
0.006789193 0.019488102 0.04024912 0.001078404 -0.09738871 -0.0064356243 -0.012027083 -0.021632485
0.037986122 0.047309518 -0.03778726 0.017537687 -0.007719322 -0.00818842 -0.07088934 -0.01244039
-0.019899389 0.0057779164 -0.046546344 -0.00021981917 0.022014597 -0.024065597 0.06314164 -0.014008072
0.012359738 0.039923597 -0.0056231176 0.014431562 -0.0032682638 0.019442746 0.009761578 0.008303064
-0.010073873 -0.009104233 0.0049485336 -0.00814679 -0.0036284467 0.048598092 0.03358314 0.040099442
-0.0012279206 -0.00034337203 -0.04116944 0.01084911 -0.019595211 -0.0010172466 -0.00639222 0.00893824
-0.02086022 -0.017645553 -0.001575604 0.0065546264 -0.009006981 -0.005345609 -0.016053382 -0.007690591
0.012628933 -0.00042772782 -0.0004974557 -0.03816332 -6.984511e-05 0.019379873 0.021398092 -0.0014961519
-0.045600824 -0.0016081181 -0.00014789085 0.028983595 -0.027522126 0.0009612964 0.0030715496 0.019193867
-0.0017797824 -0.033953104 -0.02573786 0.014785019 0.032404434 -0.002622555 0.0007131719 -0.006182087
0.022862608 0.005404632 0.003142225 -0.04131366 0.045171216 0.0014670223 -0.03213994 -0.016699038
0.018569864 -0.003817104 -0.03774095 0.027603943 -0.022427013 0.009545865 0.001843886 -0.008402787
-0.00443666 0.009457926 -0.004727535 0.020218413 -0.008136342 -0.023410706 -0.027064852 -0.0017821767
-0.03410724 -0.020623634 0.008691658 -0.0054542767 -0.029632797 0.0034192314 0.0050567845 -0.0016343348
0.01280693 -0.012113744 0.0061422647 -0.0051123505 -0.026731363 0.017975453 0.00035607378 0.021004938
0.01588478 -0.009624238 0.013903923 0.009880384 0.0012242703 0.0059427465 -0.020254988 -0.018476637
-0.0033375935 0.002802589 -0.032659028 -0.010480039 -0.0014240955 0.014410529 -0.013598486 -0.058385056
-0.023289908 0.0016573083 0.020711167 -0.040632907 -0.012009344 0.016775481 -0.001092655 -0.024671052
-0.007708506 -0.044377998 0.009958416 0.0087963035 -0.05542789 0.008541295 0.003309913 0.019656807
0.02309356 0.0027168833 -0.0022621183 0.020706452 -0.018839039 0.006095606 0.014998917 -0.016702339
-0.009814374 -0.006951428 -0.016562086 0.023584288 0.0015137182 0.03023005 -0.023735525 0.04864137
0.023592148 0.008435819 0.001540657 -0.014550952 0.004536275 0.032745093 0.006447118 -0.035095874

net.4.bias f4 [256]
00000000: 170f e4bc 9892 04be 7402 733c 087b 7fbd
00000010: 084f fbbd 5220 4c3d 9d44 5abd b751 f33b
00000020: a36b d2bd eb42 1f3d 5016 04bc f8bb 543d
00000030: 2053 9f3d 67db f5bc 50a2 5cbc d5e5 e6bc
00000040: 00b1 ecbb f26f 3e3b 676d ba3b 5dcb 18bd
00000050: 5e67 98bd c15d e5bc 8739 bbbd c991 813d
00000060: da91 283d 22cd babd b9d8 9f3c b973 8b3c
00000070: 7926 07bc 19d5 4e3d 4ccc 1b3d a9fe ac3d
00000080: c2e2 643d 312e 113c a128 2dbd d1f5 78bd
00000090: f042 c83c 8066 2c3c fe3d 4b3d 5c89 f6ba
000000a0: 820c af3b 52ac b1bc 4154 623d 31a3 b2bd
000000b0: 87fe 94bc c5fa 19bd 1b03 e4bc 245d 0d3b
000000c0: 2efe 3bbb 04f8 173d 124f a7bd 01ee 963c
000000d0: 7a42 cbbc 1593 f8bc 7bae 00bd b3cc 983c
000000e0: 7d30 51bd 4d4f 363c 62c4 893d 2751 31ba
000000f0: 91a6 2c3d 552b 0abe 7c15 c13c ed4f 813d
00000100: fe90 fb3b d36f 783d 6864 213c 759e 4f3d
00000110: 4810 463d fc19 893b a9e7 8cbc a430 81bd
00000120: 4cbd 8f3d b247 013d 8143 06bd 3d9b 8a3d
00000130: 40f9 05be 171d a33a adbd febc 8505 6abd
00000140: a5e6 77bd bb71 853b 7c73 463d 5aed b3bb
00000150: cee4 3bbe 6a60 9fbc 94a2 a2bc e376 8a3c
00000160: 0d54 a53c c865 12bd ff29 ab3c 1487 d2bc
00000170: 8bd5 3abc efb7 f6bc e0eb 383c 8c62 463d
00000180: 4d81 3cbd 1bed 3d3d 4178 3dbd 911a 1b3c
00000190: 7269 eebb f0bd 043c 5cb3 953d a019 be3c
000001a0: 30b5 bc3c 648a 95ba 4607 afbb 136a b8bc
000001b0: 8d69 3c3d b8a1 493d 9740 b5bc 8526 89bc
000001c0: e7c3 b7bc 0b4d ba38 504e 07be a0fc 19bd
000001d0: bba1 8ebd 168b 083d c737 123d fd34 ec3c
000001e0: c298 1a3d 6456 863b 9c47 c73d e943 20be
000001f0: 7d59 963b db3d b5bb 8859 753a 2e0c 203c
00000200: c972 8abc 4202 b0bc b295 e1bc 0ec7 f53b
00000210: 4e8b 4abd 2240 3b3d 5f82 bc3c 1e86 783a
00000220: a490 ab3c 8e00 24be 38ed 07bd 8fca 49bc
00000230: 9532 83bc 356d 013d da0c 84bd fdab d6bc
00000240: 9bbc 57bd 4b61 8f3c b459 2abd dbbe 91bd
00000250: df26 abbd bb83 6c3d e25d 063c 0647 743d
00000260: 0f53 e4bc 0fce 90bd bd85 fabd d0a3 f6bd
00000270: edbc 783c bdfb 25bd 2f2a 883c be36 96bd
00000280: 7786 e63c 4698 c4bd 7904 cabb db36 e8bd
00000290: 4b38 3b3d a68d 41bd 9a77 f63c fb02 eebd
000002a0: ee53 14bd 25d9 013d 56d5 f4bd c36b 54bd
000002b0: f564 49bd ccad 013d 2090 7fbc a1b2 823b
000002c0: ebb5 6d3d 861e afbd 3f0d 93ba 422f f73c
000002d0: 542e 46bd ae08 f4bc 00e8 a63b cda1 56bc
000002e0: f7da 393b c49e 30be 2f55 36bd b123 cfbd
000002f0: d174 213c 883a 923d 9331 183d ace5 c03c
00000300: 0458 37bd 0c74 26bd a91e e33c 7f78 c7bc
00000310: ad76 7dbc 9655 ff3c 073f ad3d 729a 293c
00000320: 466a 02bd 7893 87bd 6c94 ebbd a781 90bc
00000330: 1499 3dbe 342d 62bd 8ffa d8bc 1ab5 5b3b
00000340: b2f2 33be efa2 88bd a066 1c3c b27a 243c
00000350: c491 e1bc 34c9 ae3c 21b1 e8bd fe94 8dbd
00000360: fa2a 7e3d 5776 edbd 91e2 8bbd 0826 d1bc
00000370: bfb8 a2bd bb72 9a3b 10cb 803d bb67 d6bd
00000380: 7c61 1cbb c33a 47bd 6713 343d 103e abbc
00000390: 75aa 56bd 94a5 953c ab4e 8f3b e13e 6f3d
000003a0: 651e b0bd 7a96 5abc d39d 9abb a0ea 913c
000003b0: 05fc 0e3d 42e4 353b 5a46 e5bb e306 00be
000003c0: de22 363c 078e 39bc d109 0f3d f331 fc3c
000003d0: b832 61bd ece6 c7bc 22c2 2dbe c226 6bbc
000003e0: 9ca8 4cbc d38a 43bc 3dff aebc 6f1a cebd
000003f0: ca2a eebc 0bc3 493d b2dd 48bd 2fd9 5bbc
-0.027839227 -0.12946546 0.014832128 -0.06237319 -0.122709334 0.04983551 -0.05328809 0.0074255127
-0.10274436 0.038882177 -0.00806196 0.051937073 0.07779527 -0.030011846 -0.013466433 -0.028185764
-0.0072232485 0.0029058424 0.0056893113 -0.037303317 -0.07441591 -0.027998807 -0.09141832 0.063266344
0.04115472 -0.09121157 0.019512521 0.017022954 -0.008248919 0.050496195 0.03803663 0.0844701
0.055880316 0.008861111 -0.042275075 -0.060781304 0.02444598 0.010522485 0.049619667 -0.0018809247
0.005342067 -0.021688614 0.055256132 -0.087225325 -0.018187774 -0.037592668 -0.027833512 0.0021570409
-0.0028685438 0.03710176 -0.08169378 0.018424036 -0.024811972 -0.030343572 -0.031416398 0.018652296
-0.051071633 0.011127305 0.0672691 -0.0006764107 0.042151038 -0.13493092 0.023569815 0.06314073
0.0076771965 0.06065352 0.009850599 0.050688226 0.04835537 0.004184006 -0.017200308 -0.063081056
0.070185274 0.031562515 -0.03277922 0.067678906 -0.13083363 0.0012444583 -0.031096304 -0.05713417
-0.060522694 0.0040723956 0.04844998 -0.005490941 -0.18349001 -0.019455153 -0.019852914 0.016902393
0.02018168 -0.035741597 0.020894049 -0.025699176 -0.011403452 -0.030117003 0.011286706 0.048433825
-0.04602175 0.0463687 -0.04625726 0.009466783 -0.0072757537 0.008101925 0.07309601 0.023205578
0.023035616 -0.0011409041 -0.0053414432 -0.022511518 0.0459991 0.049226493 -0.022125525 -0.016742
-0.02243228 8.8835215e-05 -0.13213468 -0.037594438 -0.069644414 0.033335768 0.035697725 0.02883386
0.037743337 0.004099654 0.09730455 -0.15650906 0.0045883046 -0.0055310554 0.00093593495 0.009768529
-0.016900437 -0.021485452 -0.0275372 0.007500536 -0.049449258 0.04571546 0.023011385 0.0009480434
0.020942993 -0.16015837 -0.033185214 -0.01231636 -0.01601533 0.03159829 -0.06447764 -0.026205057
-0.052670103 0.017502448 -0.041589454 -0.07116481 -0.083570234 0.057742815 0.008201094 0.059638046
-0.027871637 -0.070705526 -0.1223254 -0.120429635 0.015181762 -0.04052328 0.016621677 -0.0733466
0.02814029 -0.09599356 -0.006165084 -0.11338588 0.045707982 -0.047254227 0.030086327 -0.11621662
-0.036212854 0.031701226 -0.11954753 -0.051860582 -0.049168546 0.031659886 -0.015598327 0.0039885794
0.05803482 -0.08550744 -0.0011219158 0.030173901 -0.048384026 -0.029789295 0.0050935745 -0.0131001
0.0028359273 -0.17248064 -0.04451483 -0.101142295 0.009854511 0.0714007 0.037156653 0.023547016
-0.044761673 -0.040638015 0.02772458 -0.02434945 -0.015470189 0.03116874 0.08459287 0.010351764
-0.03183963 -0.06619924 -0.115029186 -0.017639948 -0.18515426 -0.05521889 -0.026486663 0.0033524693
-0.1757305 -0.06671702 0.009545952 0.0100390185 -0.027535327 0.021336176 -0.1136191 -0.06913184
0.062052704 -0.11594837 -0.068303235 -0.02553083 -0.07945394 0.004713384 0.06288731 -0.10469004
-0.0023861816 -0.048640024 0.043963816 -0.020903617 -0.052408654 0.01826743 0.0043733916 0.058409575
-0.08599547 -0.0133415405 -0.004718521 0.017812073 0.034908313 0.002775446 -0.006996912 -0.12502627
0.011116711 -0.011325366 0.03492147 0.030785536 -0.05498001 -0.024402104 -0.16968587 -0.014352502
-0.0124913715 -0.011934954 -0.021361941 -0.100636356 -0.029073138 0.049258273 -0.04903955 -0.01341848

net.6.weight f4 [2, 256]
00000000: 6565 973a 2a62 57bd 566b 5e3b c5e1 10bb
00000010: 1d24 7dbc df0d 9739 f68a 1a3a 58c4 c0b8
00000020: d9c9 1bbd 867d 013d 2838 4e3b 9c16 9537
00000030: b5f9 013d ebdf 263d 514c d3bc c811 0bbd
00000040: e99f 663a e201 c439 1302 f4b9 3562 053a
00000050: 20f9 853a 323b c8ba d862 0fba 834e 86b9
00000060: 56da 7bb9 bec1 e73c 84a2 0dbd e5b5 84ba
00000070: aad7 ebb9 7b2e 2c3a 09d0 a2ba 3419 253b
00000080: 8e2f f8ba 3ae4 51ba fc01 713a a1c9 80bc
00000090: 4f74 4fbd b35f f13a a4af 3a3a 4360 513a
000000a0: b7eb 153b 0ab0 4d3a 8cde 953a ebc0 4aba
000000b0: d9a4 dd3a a128 6aba d67e e53a 0e3e d339
000000c0: a6e8 deb8 4902 a83a ef40 98ba e65d da39
000000d0: 7943 ad3a d86c 0539 0a69 493b 91e1 07bc
000000e0: a3b2 7bb8 ca68 6739 a77c 873a 7d3c debb
000000f0: 25e6 96b8 ff2f bdbc 5b36 01ba 8f0f 86b9
00000100: ef10 0939 f034 4137 35c7 c5ba 9f22 e7ba
00000110: 9046 87b9 65c5 823a 71da b83a 51e6 c0ba
00000120: c18a 4aba 4666 64ba 94eb 4838 ec0c cc37
00000130: 81ce 183a 0fef 7e3a 187f 003d 00ce 8aba
00000140: 319b acbb 7385 98ba 9afb 4839 6c73 9239
00000150: 6b93 a6bc c932 2c3b c46f d13a 7e16 5eb9
00000160: 4b97 4d39 41b1 0eb8 916f 533d 5c73 b03a
00000170: 60c3 5b39 3249 983a 140e 9b3a ff69 2d3a
00000180: 2fe8 84bc a0fb 013c 3158 26ba 1041 1a3b
00000190: f68a 973a f800 d737 e48b af3a 42be 173b
000001a0: 8757 bf3a 70d6 24b9 2854 9f38 3932 23b9
000001b0: f301 233d 9f19 c9b9 88d0 44ba 166d 513a
000001c0: 1d97 4039 a46a 03b9 cda4 4dbb 3d25 6a3b
000001d0: cf0c 1dbd e242 40bd a2f9 9b3a bc4e 4d3a
000001e0: a67f a139 0248 863d f760 d6b9 164c 88bc
000001f0: 681e 653b bb95 dd3c 84ba 73b9 5937 84b9
00000200: e144 e23a 313f f939 508f 133b 78ab 933d
00000210: 1660 fe39 a7c9 873a be33 61ba 9b32 813a
00000220: 78ba f0ba 98eb 1aba 4203 92bd 4fd5 8b3c
00000230: ed7b fcbc 812c cd3a e496 3a3c cf3f f3b9
00000240: 3acd 2b39 13a3 88ba 0656 0eba 13d8 0a3c
00000250: 3251 783d 46da a73a f625 d2ba 8c92 963a
00000260: 8c4a 923a 7791 023a d74d e9bb 733d 363d
00000270: ccdf a939 2867 d8ba ff86 e1b9 c6b8 d43c
00000280: bef3 9a38 6582 53bc 8c2a 6c3a d89c 26bc
00000290: 556d f03a 05c5 473a fb73 7a39 7389 0bbb
000002a0: 2987 09ba 6e29 afba 2c24 08bd f32a 113a
000002b0: 60e2 04b7 a020 7e39 cd80 ad3a 8554 69b9
000002c0: df02 56ba e3d8 d7bc b7c5 7cba e092 21b8
000002d0: aeae 903d 1eed d53a bd75 0cba 4753 cd3a
000002e0: 9d1c 013a 31a1 87bc 6c59 52ba 37d0 6bbc
000002f0: d123 9cba bbcd 92ba e0a9 0e39 0a31 7fbd
00000300: 25e6 a13a 2fb1 8c3a 2cf9 033a 5047 aab8
00000310: ec2f 2aba 5b33 4c3c 3957 3d3a 863b 3cb9
00000320: 98f4 51b8 fd9d 77bb 39f5 8d3c a6e9 c7ba
00000330: 4834 2abd 7176 0c3d d227 743a e14b b0b7
00000340: 6f58 9abd f207 1c3b 76d9 96b9 1e38 cb39
00000350: 2322 6cba 7880 f33a eb1e ffbc 1314 9bbc
00000360: 15e6 053a 4407 e9bc 108a 5939 1894 933a
00000370: b067 ae39 651d 0a3b 83a2 203a 6e4e 7abd
00000380: bd7e a2ba 9100 283b c070 abba 63e1 d139
00000390: 575c 963c 4761 6339 c833 bf3a 2bc0 583a
000003a0: ba61 9abc 610c 083a 4b86 673a 9159 9f3a
000003b0: 9217 073a 35a0 873b ba2d 6bba a577 60bd
000003c0: a75b cb3a 1d95 11ba 57e1 50b9 6c95 7938
000003d0: e8ae 02bc 18f4 de3b 89c3 91bd fe2e 033d
000003e0: 3ab0 093b 4482 5ebb ca96 213a b934 a23c
000003f0: 155b e5b9 1dbc d63a a49b ba3a 527b cbba
0.0011550604 -0.05258385 0.003393849 -0.0022107225 -0.015450505 0.000288113 0.00058953406 -9.191845e-05
-0.038034294 0.03161385 0.0031466577 1.7772712e-05 0.03173228 0.04074089 -0.025793226 -0.033952504
0.0008797632 0.00037385436 -0.00046540852 0.00050881814 0.001022134 -0.0015276431 -0.0005469746 -0.00025616967
-0.00024018562 0.028290626 -0.034578815 -0.001012501 -0.00044983375 0.00065682054 -0.0012421618 0.0025192024
-0.0018935071 -0.00080067257 0.0009193716 -0.015721144 -0.05064803 0.0018415361 0.00071215094 0.00079870614
0.0022876093 0.0007846361 0.0011434122 -0.00077344355 0.001691009 -0.0008932446 0.0017509114 0.0004029129
-0.00010629119 0.0012818064 -0.0011616031 0.0004165016 0.0013218961 0.00012724416 0.0030732774 -0.008293525
-6.000943e-05 0.00022068914 0.0010336832 -0.006782113 -7.195425e-05 -0.023094175 -0.0004929059 -0.00025570064
0.00013071646 1.1516022e-05 -0.0015089276 -0.0017634219 -0.0002580178 0.0009977041 0.0014103187 -0.0014717077
-0.00077263644 -0.00087127497 4.7903115e-05 2.4324712e-05 0.00058291113 0.00097249536 0.031371206 -0.0010589957
-0.0052675237 -0.0011636451 0.00019167215 0.00027933286 -0.020333966 0.0026275387 0.0015978743 -0.00021179949
0.00019606685 -3.402052e-05 0.05162007 0.0013462114 0.0002095825 0.0011618494 0.0011829757 0.0006615221
-0.016223995 0.007933527 -0.0006345539 0.0023537315 0.0011561799 2.5630448e-05 0.0013393131 0.0023154174
0.0014598229 -0.00015720143 7.597386e-05 -0.00015563601 0.03979678 -0.00038356797 -0.000750788 0.00079889724
0.00018366841 -0.0001253286 -0.0031378746 0.0035727762 -0.038342293 -0.046938784 0.0011899958 0.0007831862
0.00030803418 0.06556703 -0.00040889505 -0.016637843 0.003496075 0.027048936 -0.00023243768 -0.0002521824
0.0017262959 0.00047540062 0.002251584 0.072104394 0.00048518245 0.001035978 -0.0008590779 0.0009857
-0.0018366119 -0.000590974 -0.07129528 0.017069487 -0.030820811 0.0015653522 0.011388514 -0.00046396113
0.00016384284 -0.0010424576 -0.00054296886 0.008474368 0.06062431 0.001280614 -0.0016033042 0.0011487766
0.0011161133 0.00049807824 -0.007119875 0.044492196 0.00032400934 -0.0016510235 -0.00043015924 0.025967013
7.388693e-05 -0.012909506 0.00090090255 -0.01016923 0.001834313 0.0007620606 0.00023885064 -0.0021291643
-0.00052462757 -0.0013363787 -0.03323762 0.0005537711 -7.92052e-06 0.00024235481 0.0013237238 -0.00022252098
-0.000816388 -0.026348537 -0.0009642499 -3.852218e-05 0.070645675 0.0016321277 -0.00053581205 0.0015665077
0.0004925223 -0.016556354 -0.0008024189 -0.014392904 -0.001191253 -0.0011200228 0.00013605459 -0.062302627
0.0012351914 0.0010733957 0.0005034383 -8.119515e-05 -0.0006492126 0.012463416 0.0007222775 -0.00017951251
-5.005728e-05 -0.0037783377 0.017328845 -0.0015252128 -0.041553766 0.034292642 0.0009313795 -2.1016169e-05
-0.075363986 0.0023808447 -0.0002877225 0.00038760988 -0.00090077723 0.0018577715 -0.031142673 -0.01893047
0.0005107832 -0.028445847 0.00020746165 0.0011259345 0.0003326512 0.002107465 0.0006127732 -0.061109953
-0.001239739 0.0025635103 -0.0013079867 0.00040031513 0.018354578 0.00021684646 0.0014587576 0.00082683814
-0.018845428 0.0005189833 0.0008831962 0.001215743 0.00051533536 0.004138971 -0.00089713524 -0.054801602
0.0015514985 -0.00055535306 -0.00019920371 5.9505386e-05 -0.007976271 0.0068040006 -0.071173735 0.032027237
0.002100958 -0.0033952156 0.0006164132 0.01980053 -0.00043746145 0.0016382966 0.0014237058 -0.0015524423

net.6.bias f4 [2]
00000000: 4e1f 193d f2e8 343d
0.03738337 0.044167466
