checkerboard/cfm/models/40000_model.pt (torch, 535792 bytes, 8 tensors)

net.0.weight f4 [256, 3]
00000000: 0645 bebc 0bb8 cb3d d673 133c 1a80 a8be
00000010: 9feb a53c 1625 89be a468 d43e a61e 5a3e
00000020: e90f 2d3e 5871 853e 38be 883e 4674 9b3e
00000030: ca85 18be 9dc4 c3be a6af c23e 4f6a 263f
00000040: 3a63 c5bd a891 a83e 5d4a 883e df43 28be
00000050: ec2c 84bd eb06 44be 9200 573e 8250 223e
00000060: 150e 93be 326c 923e ecae fe3e 92f4 133d
00000070: f3b8 cdbd 5d09 d5be 3d2c d53d 4dfb 17bf
00000080: c5a5 b4bd 1212 b3bc 0942 51be d03a bdbe
00000090: 9da4 213e efc1 b4be bf29 b7be aa4a 533c
000000a0: 22d4 bb3c c4c3 c73d b7c4 55be d2ec eabd
000000b0: bc1d 09bf e97f 51bd 86d5 78bc 2bc3 173e
000000c0: 5609 49bd 23b5 1a3f ae36 d1bb c80a 3cbf
000000d0: 3d83 3b3f 120e c2be e2cd b63d 008f fd3d
000000e0: 48d9 99be 9290 dbbe 99fa 8dbe 5770 d2bd
000000f0: 2a5c ffbd ddd3 163e 7598 8ebe 671d a1be
00000100: 97ec c4bd e4a5 043f 5aa2 11bd c385 6fbe
00000110: b0ad bf3e ce57 6f3d 96b2 e03d cca6 e7bb
00000120: 78d1 f4be 0e53 e53e f74b 9e3e 622e 203d
00000130: b471 893e 378a 573e 0468 e6be e4a0 553e
00000140: 0348 0b3e 11b0 5ebd ca2b 1d3e cd13 10bf
00000150: dc38 f8be f16d a7be 34f9 37bd 4ef8 b6bd
00000160: a58c 52bc 9384 1f3d 691f 37be 5776 23be
00000170: 0168 1b3e 6eab 423f 1e56 78bf a9da d0be
00000180: fd7a b2be cc46 ac3c 3c6e d6be 9355 57bb
00000190: e35e a0bb 28cd 1dbe 7e9c c2be 59e7 aabe
000001a0: c3da a0bd 233d ba3b e5d4 ae3b 7967 613e
000001b0: 58ad a0bd eeb4 1f3d 6c22 7bbe cff6 413f
000001c0: ca50 483f 6691 f7be a5da b63e 80b0 be3e
000001d0: 5373 0f3f abfd 98bd baed 04be 98a1 c43e
000001e0: fe4b 61be fbe0 2d3f 0ed0 e0be 108f f23a
000001f0: cb72 9639 d9e4 063e 6982 9ebe 4369 1cbe
00000200: 74be d83d fb44 0b3f 25bc 05bf 6904 d93e
00000210: 805c 373e efd3 14bf f3c2 7e3c 4a84 a5be
00000220: fa40 513e 5175 723e e56a f9bd d5ac 5b3e
00000230: 251b 04be 83ce a43c 6859 e6be e80f d0be
00000240: 64ae 25bf dccd 253f 1b23 e43e ee5d 92bd
00000250: ba9e 9dbd 5bbd 3dbe 8a73 1abf dd79 cbbd
00000260: bfe0 38be e586 42bf 83ae 3e3f 58da d8be
00000270: 7b88 48ba 08bc 193b 1070 4c3f 3e3b d6be
00000280: 0952 8ebd ccbb ecbd 2f63 99bc 89df 11bc
00000290: e716 abbe f730 e6bd ee30 0f3f 8059 9f3e
000002a0: bd56 2e3f d314 54bd b2b7 1bbd 2281 d93d
000002b0: deb8 da3d 2592 ffbd 2cee 74ba 188e 68bb
000002c0: acef c3bd a0ff e2be e8ed 203f 9fdc 09bf
000002d0: d3bb 56be 5785 18bd 7cea 8b3e 090f 5f3e
000002e0: 3f5f 2f3e 56d5 d9be d676 663e a95e 763e
000002f0: 6910 7a3e 8b6a f13e 37ad 8dbe 2940 e63e
00000300: e0a9 803e ba59 e83e cc04 843e f088 993e
00000310: 00b5 a23e 6efa 8d3e 9489 1fbd 5cf5 993e
00000320: 767d bbbe 3101 33bf cc31 323f ed7f ab3e
00000330: 8104 063f 4eec ffbe f39a d93e da2c ebbe
00000340: c092 87be 19f7 2ebe 1d77 09be 2712 e33d
00000350: 17f1 ed3e 491e 0d3e efa1 0cbe 1993 d3bd
00000360: f81c 5aba 4cb1 e2b8 89b6 89ba 61c2 773e
00000370: 4ae9 6ebd 52a6 483e 881d 8b3a 0d92 95bd
00000380: f3f5 96be fc72 91be 96a3 a13d b47e a53e
00000390: cfb9 2dbe 0699 a53d 17e5 f2be b3fb 15be
000003a0: b316 a3bd 93a9 c33e e8cb 073f a71e de3e
000003b0: 46de 4dbe aa36 623d 4b67 a93d 3de9 943e
000003c0: a160 653e 8016 87be 38a5 933e d1a5 433f
000003d0: 98d2 f2bd 124d b13e d528 f4bc 0169 5dbe
000003e0: 9916 6f3e 7c13 ccbd 2e8f 9c3e c8a0 c93e
000003f0: 5c90 113d d974 223f 902e f83e 0b77 dc3d
-0.023226272 0.09947213 0.008999785 -0.32910234 0.020253954 -0.26786107 0.41486084 0.21300754
0.169006 0.26063037 0.26707625 0.30362147 -0.14894786 -0.38235942 0.38024634 0.65005964
-0.096380666 0.32923627 0.26619235 -0.16432141 -0.06453881 -0.19143264 0.20996311 0.15851024
-0.2872168 0.2859817 0.4974283 0.036121912 -0.10045042 -0.41608706 0.104088284 -0.5936783
-0.088206805 -0.021859203 -0.20435347 -0.36958933 0.15785451 -0.3530421 -0.35774037 0.012896219
0.022928301 0.09754136 -0.20875822 -0.11470951 -0.53560996 -0.051147375 -0.015187627 0.14820544
-0.04908117 0.6043264 -0.006384692 -0.7345395 0.7324713 -0.3790136 0.08925988 0.12380791
-0.30048585 -0.42883736 -0.27730253 -0.102753334 -0.12468751 0.14729257 -0.2785069 -0.31467745
-0.096154384 0.5181563 -0.03555522 -0.2339087 0.374372 0.058433346 0.109715626 -0.0070694443
-0.47816062 0.44789928 0.30917332 0.039106734 0.2684456 0.21048819 -0.45001233 0.20862156
0.13601689 -0.05436713 0.15348735 -0.56280214 -0.4848088 -0.32701066 -0.044915393 -0.08934079
-0.012850915 0.038944792 -0.17883076 -0.15963112 0.15176393 0.7604283 -0.97006404 -0.40791824
-0.34859458 0.021029852 -0.41880977 -0.0032857403 -0.004894124 -0.15410292 -0.3801002 -0.3337963
-0.078542255 0.0056835576 0.0053354376 0.22012128 -0.07845563 0.038990907 -0.2452485 0.75767225
0.78248274 -0.48353118 0.35713688 0.37244034 0.56035346 -0.07470258 -0.1298131 0.38404536
-0.22001645 0.6792142 -0.43908733 0.0018505771 0.00028695757 0.13173236 -0.3095887 -0.15274529
0.10583201 0.5440213 -0.5224021 0.42386177 0.1790638 -0.58135885 0.015549409 -0.3232749
0.20434943 0.23677565 -0.12178592 0.21452649 -0.1290098 0.020118004 -0.44990087 -0.40637136
-0.64719224 0.6476724 0.44558033 -0.07146822 -0.0769629 -0.18529265 -0.6033255 -0.09935353
-0.18054484 -0.7598708 0.74485034 -0.42354083 -0.00076497317 0.0023458023 0.79858494 -0.41842073
-0.06949241 -0.11559257 -0.018724052 -0.008903393 -0.3341591 -0.11239808 0.55934036 0.3112297
0.681011 -0.051777672 -0.038016982 0.10620333 0.10679792 -0.12479047 -0.00093433517 -0.0035485085
-0.09567198 -0.4433565 0.62863016 -0.53852266 -0.20970087 -0.037236538 0.27327335 0.21783079
0.17126177 -0.42545575 0.2250627 0.24059547 0.24420322 0.47151598 -0.27671215 0.44970825
0.25129604 0.45380956 0.2578491 0.29987288 0.31778717 0.27730125 -0.038949564 0.30070007
-0.36619157 -0.6992369 0.69607234 0.33496037 0.5235062 -0.49984974 0.4250103 -0.45932657
-0.2647915 -0.17086448 -0.13424344 0.11087447 0.46473 0.13781084 -0.13733648 -0.10330791
-0.0008320357 -0.00010809544 -0.001050667 0.24195243 -0.05832795 0.19594696 0.0010613659 -0.073032476
-0.2948452 -0.2840804 0.0789253 0.3232323 -0.16965412 0.080858275 -0.47440407 -0.14646797
-0.07963314 0.38215312 0.5304551 0.4338276 -0.20104322 0.055227913 0.08271655 0.29084197
0.22400142 -0.26384354 0.2883699 0.7642489 -0.11856574 0.34629112 -0.029804626 -0.21622087
0.23348464 -0.09964654 0.30577987 0.3938048 0.035538062 0.63459545 0.48473024 0.10764893

net.0.bias f4 [256]
00000000: f1c0 05be e26d 9b3e 0355 ecbc dcb8 0abf
00000010: 2409 903d c842 cabd 962b 9c3e 47b0 1bbf
00000020: 7e96 fcbe 9220 cb3e 0d96 be3e 8801 913e
00000030: aee4 1d3f 04f9 91bd 64d1 033f 12ed 8dbd
00000040: 6bd2 2f3e 6e12 033e 0b12 893e 321f 993e
00000050: eb4f da3e c049 52bc 288a 1b3e a5d3 b3bd
00000060: c875 973e 0192 483e 1ec0 7a3e 558d 143f
00000070: 73d9 8a3e d56e 8b3d 1ccc a1be 9687 2fbf
00000080: 5ecf de3e 5b94 eb3d 48cd 953e f03a 0abe
00000090: 812b 8e3e 55b0 08bf b4c4 92be fc6a 29be
000000a0: 8a80 c7be 470f 92bd bade 66bc c709 edbe
000000b0: af13 19bf babc 6dbd 69a8 9f3e 994d e83e
000000c0: 54dd 07bf da10 223e f493 073d f020 033e
000000d0: 036b e8be bb3f 953b d1f0 763e 3b6d eabc
000000e0: bb5c 433e c6b6 593d 9db0 943d c465 03bf
000000f0: 77b0 283d b2b7 d43e 3730 40bd d340 25be
00000100: 9fd2 a8bd 9dbf dd3c 05d5 c33e 78a2 debe
00000110: 5319 ecbe 9e38 ad3e c2de 2dbe 5d04 873e
00000120: 120a 2d3b 0625 02be 15b3 753e 2a18 f1bd
00000130: 9804 ba3e c09c 79be 07eb 98bd a94e a3bd
00000140: 7eb1 3c3d 053d d1bd 84dd 8f3d 474c 67be
00000150: 95e8 35bf 867c d03e 4bf3 a03d 6f7f a5be
00000160: 2b46 d2be 3a2b 093f f1f6 28be d0ca c43e
00000170: 9855 10bf 05c6 e93e 49c0 203f 3f72 d33e
00000180: de61 07bf 6508 043e 19df 86bd 45c7 733c
00000190: b5ca 933e 212b 72be edbc e53e ebde a8be
000001a0: e4ca 1b3f 97ae 34be 0193 603e ca19 f4be
000001b0: ffb4 82be 0e28 ccbd 0f9d de3e a25c 33bb
000001c0: 353d 8b3e 685e e2bd 5a46 9dbe 6ba1 783e
000001d0: 6857 263e 6f0d 6b3e 25a1 bdbd cb8f 9f3e
000001e0: e390 e6be 324d 783e 9826 613e 55e4 a0be
000001f0: 984e 8c3d 43d1 10be ed95 23bf ba10 803e
00000200: 4341 233e d17d d13d 36dc dd3b dd94 c33e
00000210: 9aea d83c 6d23 e8be 521b 463e fe07 593e
00000220: d4c7 803e aebb a0be 4001 28bd 4e41 803e
00000230: 664a 593e 4972 7f3a a4d2 1c3e cc7a d0be
00000240: bd70 af3e bce7 9d3e eb17 dcbe 6f88 0abe
00000250: cec0 c03e 5da6 05bf 41c6 8b3e c6f5 933c
00000260: af40 92bd 6f34 9ebe 1a92 c7be 88e2 53be
00000270: 3480 823e afeb 0e3e 318e 93bc 277a fbbe
00000280: f43b e73e 1e8b 31be 1d86 ea3e 0bf3 233b
00000290: 9c61 513e 9532 35bd 692c 943e bf17 cebe
000002a0: 4f6f 7c3e 2bcf 7ebe 9a88 3cbf fc16 2e3e
000002b0: 009c fabe 7c11 b4be 1b0e a03d 03f9 43be
000002c0: d882 843d ca92 d7bd 11b0 6fbe 1a0c f4be
000002d0: 32c6 b93e c13c c4be e9db 963d f8d4 4dbd
000002e0: e97f 5d3d d60d c83e 4206 46be a027 8f3d
000002f0: c3ed 5e3e 5e64 9e3e f698 29bf 8531 16bf
00000300: 7fb3 a53b 5d95 2bbe d3a1 6c3e 08e6 b73e
00000310: f81d 74be e34e e13e c627 cc3d 830d a03e
00000320: 5b21 c8be 8427 c2bd 4d9b 2e3e ebd1 0cbf
00000330: f230 e23e c922 e2be 0ce8 193f d18a 2d3d
00000340: 56e7 173f 9391 d0be 7274 00be cc9a 253e
00000350: a334 793e 05aa 133e fe3f 13bf 1f4d 3fbe
00000360: e4f0 ba3d 410c 2b3e 7cdb 0bbf ecf6 6fbe
00000370: 2388 c6be 1eae abbe 3989 cd3d d330 e2be
00000380: 69be e93d e685 043f 8749 82be ac97 30bf
00000390: 86b5 82bc 54fa 213f 4e67 febc 1519 3fbe
000003a0: 1a73 223e 1dee c33e c16b 033f d4c9 2cbf
000003b0: 2a8a 943c dbd4 febe 7310 c2bd 934b ccbe
000003c0: 46c9 203e 4c8f 0c3e 45fd ad3d 5d30 0dbf
000003d0: 98f4 4fbd d720 c73e d66e 863e 55a9 4abd
000003e0: 615d 8bbe 346d dcbe 1091 513e 7caf 2c3e
000003f0: 3d37 083e d396 adbe 3507 0c3b ecb4 dbbe
-0.13061883 0.3035727 -0.02884913 -0.54188323 0.070329934 -0.09876019 0.30502003 -0.6081585
-0.49333566 0.39673287 0.37223855 0.2832148 0.6167706 -0.07127574 0.5149138 -0.06929983
0.17170112 0.12799999 0.26771578 0.29906613 0.42639098 -0.012834966 0.15189421 -0.08780602
0.29582047 0.19586946 0.2448735 0.58028156 0.27119026 0.06808249 -0.31601036 -0.6856626
0.43517584 0.11502906 0.2925818 -0.13499045 0.27767566 -0.5339406 -0.28665698 -0.16544718
-0.38965255 -0.0713182 -0.014091188 -0.46296522 -0.5979566 -0.05804131 0.31183174 0.45371702
-0.53072095 0.15826741 0.033100083 0.12805533 -0.45394143 0.0045547164 0.24115302 -0.028616538
0.19078343 0.053152822 0.07260249 -0.5132716 0.041183915 0.41546398 -0.04692098 -0.1613801
-0.08243298 0.027068907 0.38248459 -0.4348333 -0.4611307 0.33832258 -0.16979507 0.26370516
0.0026403707 -0.12709436 0.23994096 -0.11772187 0.3633163 -0.24376202 -0.07466703 -0.079739876
0.046067707 -0.10216717 0.070246726 -0.22587691 -0.71058017 0.40720004 0.078589045 -0.32323787
-0.4106916 0.53581583 -0.1650045 0.38435984 -0.56380606 0.4565889 0.62793404 0.412981
-0.5288371 0.12893827 -0.06585521 0.0148790525 0.2886559 -0.23649265 0.448707 -0.32982573
0.6085646 -0.17644726 0.21931078 -0.47675925 -0.25528714 -0.09968577 0.434792 -0.0027368446
0.27195135 -0.11053163 -0.30717736 0.24280326 0.1624428 0.22954343 -0.092592515 0.31164393
-0.45032415 0.24248198 0.21987379 -0.31424204 0.06850928 -0.14142327 -0.63900644 0.2501276
0.15942864 0.10229076 0.006770636 0.3819951 0.026479054 -0.45339528 0.1934636 0.21194455
0.25152457 -0.31393188 -0.041016817 0.25049824 0.21219787 0.0009744508 0.15314728 -0.40718687
0.342657 0.30840862 -0.42986998 -0.13528608 0.37647098 -0.52206975 0.27299693 0.01806153
-0.07141244 -0.3089938 -0.38978654 -0.20691884 0.25488436 0.13957094 -0.018012138 -0.49116632
0.45162928 -0.17338225 0.45805445 0.002501669 0.20447391 -0.044237692 0.28940132 -0.40252492
0.24651836 -0.24883716 -0.7364594 0.17000955 -0.48947144 -0.3516959 0.078151904 -0.19137959
0.06470269 -0.10526045 -0.23407008 -0.47665483 0.36284024 -0.38327602 0.07366163 -0.05025193
0.054077063 0.39073056 -0.19338325 0.0698998 0.21770386 0.3093595 -0.66249025 -0.5866931
0.005056798 -0.16756196 0.23108606 0.35917687 -0.23839557 0.44005498 0.09968524 0.3126031
-0.39087948 -0.09480193 0.1705143 -0.5500781 0.44177967 -0.44167164 0.601197 0.042368714
0.59337366 -0.40736064 -0.1254442 0.16172332 0.24336486 0.14420326 -0.5751952 -0.18681763
0.091279775 0.16703893 -0.5463178 -0.23434037 -0.3877574 -0.33531278 0.10035939 -0.44177875
0.11413271 0.5176681 -0.25446722 -0.6898143 -0.015955698 0.63272595 -0.031055119 -0.18661912
0.1586422 0.38267604 0.51336294 -0.67495465 0.018132288 -0.4977177 -0.09475794 -0.3990141
0.1570178 0.13726538 0.08495573 -0.5515192 -0.050770372 0.38892242 0.26256436 -0.049477894
-0.2721968 -0.43052065 0.20465493 0.16863817 0.13302322 -0.33904132 0.00213666 -0.4291147

net.2.weight f4 [256, 256]
00000000: ed51 3fbd c1fb 693d 5c8d 4f3d 1e0e 323d
00000010: 8b2c 83bd 8341 ebbb 14cd 413d 9995 e6bc
00000020: ce2f 193d 66b7 69bd 0ac2 9ebd 0bf8 49bd
00000030: fb19 cabc 407d 49bd c13a 09bb 6117 e7bd
00000040: d0e7 253b 1531 0bbd fed7 083d cccb 70bd
00000050: 6df1 8abc 245e 06be c87a 2f3d ee3e 83bd
00000060: fe9c d83d e36b 67bc 78d0 e73d 4801 9b3c
00000070: b4ab 28bd b2d3 75bd 530d abbd d780 97bd
00000080: 2ce1 0d3d 23b3 01bd eab0 813c 1448 18bd
00000090: fdac 5cbd 9996 5e3d de44 a93b ea54 8bbd
000000a0: 5b68 633d e945 673d caae a93c c458 463d
000000b0: 6352 afbc 1d55 3e3d 918a 8cbc 2317 a7bd
000000c0: 1bbf 073c c77f f03c cf2a db3d be20 71bb
000000d0: cc7e 3cbc b7e1 8b3d c43f c1bb 51fa 0a3d
000000e0: fd49 e53c 6213 0bbd 8ca2 d4ba 6915 b43c
000000f0: 2024 50bd b15d 0e3d cf0d 473d d8c4 ed3d
00000100: 3277 25be 3471 6bbc 14bd 97bc 5b3d 8bbc
00000110: c004 883d a2b4 43bd 20ef a43b cf21 16bd
00000120: ec55 ba3a cc4d 833d 5caa f6bc adb9 f83c
00000130: 1690 f73b 5fac cbbd 4ecc 123d 914f 333d
00000140: 375c 64bd 16c1 013d 1b20 0cbd 7720 c63d
00000150: 5849 cebd a4a5 5b3b 76b8 efbc 3dd8 263c
00000160: c223 52bd c983 2c3d 9c80 b6bd 3c11 1c3e
00000170: d626 8e3c 8d59 b9bd e281 4ebd 147d b8bd
00000180: 165e 64bd a19a 0bbe 8fad b93c db1a 06bd
00000190: 45e1 3d3d f6ec d9bd ac7b 123d 3913 e23c
000001a0: 505b ba3c 9579 e43c f627 b9bb 8488 483b
000001b0: ef17 ecbb 9d54 c03d 4871 093d 9e1e e23d
000001c0: ac18 fdbc c8ff 723d e69b 15be 0e8c c4bc
000001d0: 5e8c c7bd d93a 22bd 6845 0cbb 95bd c4bd
000001e0: e1cd 2c3c 90f4 423d e4be 8a3d 2bad 83bd
000001f0: 59e3 65bd 86df e3bc b159 973c d784 a7bc
00000200: 79df 993c 9637 53bd f8db 4abd 7108 29bd
00000210: 09d8 c13b fa64 89bc 551c 4c3d 0392 63bd
00000220: ea35 e93c 5e61 26bd 1a34 0abd f60f be3d
00000230: ee66 703d 6793 13bd 2b86 e63d c8e3 d43c
00000240: 8afa 4abd 293d 58bc aeef a5bd c125 53bd
00000250: ab30 7cbd 15fc 08bd 7c7e 92bc 7edc dfbd
00000260: 71fd afbc 1a15 883d b3bf adbd fe34 15bd
00000270: 02fd 17bd 282a f5bd 2ff8 733d 5b99 763d
00000280: 1150 bcbb c29c ad3c d848 e9bc 440d 3b3c
00000290: f38c f1bc 6434 8f3c 1084 013d c20e 62bd
000002a0: 6530 6b3d a2dc 01bd 4ec2 03bd 5770 dc3c
000002b0: a089 36bd 1273 3dbd 3f25 183d 37be 6ebd
000002c0: 384a 4cbc 3668 d6bd 8c7b 1fbd 7c8a 373c
000002d0: 7148 103d 93e9 743d b84d 453d 2e4a 073e
000002e0: 1966 cabd d5b4 ccbc 7fd8 a43d b583 ba3c
000002f0: f4ab b2bd e7e0 b3bd da2f 04be 1424 fb3c
00000300: 0e0e 293d 1ea1 7dbd 0c30 76bd 74fb 17be
00000310: 3e85 413b de34 f8bc 799a 0dbd d5a9 95bb
00000320: 71a7 293d 5980 bc3b 5af0 7ebd a076 213c
00000330: 194b c3bb c2b6 093e c137 b53d 5a9f 193d
00000340: 414e 123d 96c7 f23c e187 193d 5c0d 8abd
00000350: 9bd1 2cba ceb3 38bb fb17 3ebd 0559 303d
00000360: 05e7 a93b 15dc e23c 84f2 cf3c ba3e 2dbd
00000370: 5e1f 603d a529 243d d16e c23d f72e ee3c
00000380: 4336 75bd ab63 10bc e59e d53d ca37 12bd
00000390: ae2b d63c e37e e1bc ab9c 683d 47ed c5bd
000003a0: dd58 b83d 8b0f bd3c 5177 c13d 4031 47bc
000003b0: b1f0 813d ccd6 eebc d7a2 78bd 515d 183b
000003c0: fca5 103c 0ca1 70bd eb82 293c b293 2b3c
000003d0: f5d2 8bbd f968 583c 80ce b03d f8f9 b6b7
000003e0: fa27 e1bc c4de 0cbc 3ed1 ec3a cfa2 d0bd
000003f0: 554a 6a3d 3190 4e3c 50b3 843c 7543 64bb
-0.04670899 0.057124857 0.05067192 0.043470494 -0.0640498 -0.0071794405 0.04731472 -0.028147506
0.037399106 -0.057059668 -0.07751854 -0.049308818 -0.024670592 -0.049191713 -0.002093956 -0.11283756
0.0025315173 -0.033982355 0.03340911 -0.058788106 -0.016960824 -0.1312185 0.042841703 -0.06408487
0.10576819 -0.014124843 0.11319059 0.01892151 -0.041179374 -0.06001634 -0.08352151 -0.07397621
0.03463857 -0.03166498 0.01583143 -0.037178114 -0.053875912 0.05434284 0.0051656803 -0.068033054
0.055519443 0.056463156 0.020713229 0.048424497 -0.02140159 0.04646789 -0.017155917 -0.0815871
0.008285309 0.029357804 0.107015245 -0.0036793198 -0.01150484 0.06830161 -0.005897494 0.033930127
0.027989382 -0.03395403 -0.0016222759 0.021982865 -0.0508157 0.03475732 0.048597153 0.116098106
-0.1615875 -0.014370251 -0.018522777 -0.01699703 0.06641531 -0.047779687 0.0050333887 -0.036653336
0.001421628 0.06411323 -0.03011053 0.030361975 0.007555018 -0.099449866 0.03583937 0.043777052
-0.055752005 0.03167828 -0.034210306 0.09674161 -0.10072583 0.0033515478 -0.029262763 0.010183391
-0.051303633 0.042117868 -0.08911249 0.1524095 0.017352503 -0.090502836 -0.050416835 -0.09008232
-0.05575379 -0.13633205 0.022665767 -0.032740455 0.046357412 -0.106409 0.035762474 0.027597057
0.02274862 0.027890006 -0.0056505157 0.0030598948 -0.0072050015 0.09391139 0.0335553 0.11040996
-0.030895554 0.059325963 -0.14610252 -0.023992565 -0.0974357 -0.039606903 -0.0021403674 -0.096064724
0.010547132 0.047596514 0.06774691 -0.064295135 -0.05612502 -0.027816545 0.018475385 -0.020449085
0.018783318 -0.051566683 -0.049526185 -0.041267816 0.005915646 -0.016771782 0.049831707 -0.05555917
0.028468091 -0.0406202 -0.033741094 0.09280388 0.05869191 -0.036029246 0.11256059 0.02598752
-0.04955534 -0.0131981755 -0.08102356 -0.051549677 -0.06156985 -0.03344353 -0.017882578 -0.109307274
-0.021483155 0.0664465 -0.08483829 -0.03642749 -0.03710652 -0.11970931 0.05956286 0.060204845
-0.0057468493 0.021192912 -0.028477117 0.011416737 -0.029486155 0.017481036 0.031620085 -0.055189855
0.0574192 -0.031704552 -0.032167725 0.026909037 -0.044564843 -0.046252318 0.037144896 -0.05828687
-0.012468867 -0.104690954 -0.038936183 0.011202451 0.035225336 0.059793066 0.04816982 0.13211891
-0.09882755 -0.024988571 0.08049106 0.022767881 -0.08724204 -0.08783131 -0.12908879 0.030656852
0.04127317 -0.06192123 -0.060104415 -0.14842016 0.0029528881 -0.030298647 -0.034571145 -0.0045673647
0.04141945 0.005752605 -0.062240936 0.009854943 -0.00595988 0.13448623 0.08848525 0.037505485
0.03571916 0.029636186 0.0374831 -0.06740829 -0.0006592513 -0.0028183344 -0.04640959 0.043053646
0.0051850104 0.027692834 0.025384195 -0.04229615 0.054717414 0.040078778 0.09493793 0.029075129
-0.0598662 -0.008812825 0.10430697 -0.035697736 0.026143875 -0.027526325 0.056790035 -0.09664398
0.09001324 0.0230787 0.09446586 -0.012157738 0.06344736 -0.029155158 -0.06070217 0.002324898
0.008828636 -0.058747336 0.010346155 0.010472225 -0.06827346 0.013208621 0.08633137 -2.1812491e-05
-0.027484883 -0.008598033 0.001806773 -0.10187303 0.057199795 0.01260762 0.016198784 -0.0034830247

net.2.bias f4 [256]
00000000: a020 823d 72ab 5dbc 3eac 0bbd a13e 52bc
00000010: c3e8 293d 7bd4 58bc fd33 d63c bd04 183b
00000020: dd80 f13d 68f6 213d 2bf9 1c3d 0416 c6bc
00000030: 0dc0 2d3d c908 ee3c c461 00bd 5161 1ebd
00000040: 7df3 253d d88d ae3c 4d30 39bc f6f1 82bd
00000050: a28c 83bc c196 2e3d d7d1 1abc 9a18 30bd
00000060: e957 6fbb 439a 02bc 0fc8 d2bd 7941 41bd
00000070: e133 6d3c 2750 22bd 69ef cc3a a1db 65bc
00000080: c178 6bbc 9e4e 853a ac60 ffbb 2c2f 993c
00000090: 7ebf 863b 90df 303d 8932 a7bd 2e39 8e3c
000000a0: 05a6 6cbd 12b3 23bd 92f8 963d 8ca7 04bd
000000b0: 950c eb3b 3068 503d 00d3 74bd 82b5 4dbd
000000c0: c09a a0bc b936 aabc 000d 8a3c 0eac d5bd
000000d0: 53b9 88bc cd3b 47bd e315 b0bd f976 b83c
000000e0: 1494 cfbd 56b3 803c deac a63d 4564 de3c
000000f0: f8b9 093d 3180 93bd c01a 5ebe 0aae 1ebd
00000100: debb 21bd 228e 133c 7e5f f03d 1874 0cbd
00000110: 2117 443d ff0f 553d e79f 66bb 5391 58bd
00000120: dda2 0dbc d29c 9d3b d9ad 41bd f6de e53c
00000130: 887c 8bbc 5871 3f3d a353 53bc 8c7b 323d
00000140: e1e9 03bd 8221 e6bd ff17 0a3d 3f3c 0a3d
00000150: baed b4bc 090f 963d 61b1 10bd f765 813d
00000160: a738 f7bc 19ef e6bd c833 d138 bc94 3cbd
00000170: d53d 3dbc 0988 353c 0cc4 0cbe 4f19 6d3d
00000180: 555d 8d3d 499c 8e3d 155a 3bbd 471d 1a3c
00000190: 6885 ab3d 6038 e538 77bb 043c 3775 b5bc
000001a0: df4b ed3c b8cd 683d 2fa9 6ebc 598c 16be
000001b0: 43e9 21bd d0d3 76bb de42 9dbc 664c 7d3d
000001c0: 3a3f 2f3d 81ff 64bc f5a4 43bd efc5 d8bc
000001d0: 6e5d 983d 5d57 fabc 5be5 2c3d f219 94bc
000001e0: dde4 023d 7a9c 8dbd 6579 efbc fee4 133c
000001f0: a0a5 7e3d 62fb 623d 56a1 ffbd ff86 d2bc
00000200: 02df e13c cc9a 0c3c 635e 78bc 4623 573d
00000210: 0f4f ebbc ed91 af3c 3021 12bd 98c2 4bbc
00000220: f45e d1bb 67b3 a63d 992e 9f3d 6542 7dbc
00000230: 9626 8c3c 53b1 723d 1f7b 353c 5f84 973d
00000240: 8c6e be3b 0cda 23bd 82c5 25bd 0ae1 e93c
00000250: dd7e a13d 9c08 523d c199 693b f767 643d
00000260: 6c88 e6bc 7fe7 3cbd 1fa1 3e3d 9428 813d
00000270: 4339 77bd 0a66 3dbd 53d0 87bd 95b4 cf3d
00000280: a46b 853d 1972 d23d be5c 563d 79a6 efbd
00000290: efec 2dbc cb4e fbbb ef0a 17bc e50e 1dbd
000002a0: 5fb1 ac3c f177 6e3c ed8f 443d e1ca 5c3d
000002b0: 4fc2 8e3c fd50 38bc 7497 e93a 23f9 46bd
000002c0: 8a35 b2bc a440 08bd 7c81 fc3c 56a7 81bb
000002d0: fbfa d53c 3d6e 9cbc 32bb 873d d22a a1bc
000002e0: 3cd7 5c3c 392c a3bb fb4f 53bd a31f 0fbd
000002f0: 41e8 c6bd bc1b 44bc e300 b23b ccc6 bf3d
00000300: 537b 453c d3e9 bb3d 6775 b73c a4e5 7fbb
00000310: 31bb 2ebd fb28 f4bc 67d3 a23d 3a5b 00bd
00000320: 2c7e 1fbc e521 21bd ea2b cbbb bf4b 45bc
00000330: c173 c13b 0091 f53c 875f c2bc 34e9 68bc
00000340: 01e4 363d 2c0c fcbd ef09 d3bd fcfe 973c
00000350: 5df6 39bd 887e df3b f1ca c63d 908b 32bd
00000360: 5bca 04bd 6740 573d 6e6b e3bc 9cb2 b33d
00000370: 41a4 fe3c 9c8c ff3c 0a05 203d 6d85 9b3d
00000380: 5597 073d 259a 943d b1bc 943d 96ec 863d
00000390: 3922 66bd 4db2 143d 0ebb 2abd e0ab 63bb
000003a0: e95c 84bd dd53 f6bd b061 223c 3402 05bb
000003b0: e8ec 5e3b eaf4 363d f496 60bd d33f 963c
000003c0: f07b 72bc 2883 1c3c ac8e 043d 5089 88bd
000003d0: 6e8a 9f3c d214 a8bd 71b5 803d 7e9f e3bc
000003e0: 2ca1 b2bc 22e4 773c 9902 6cbd 0b87 25bd
000003f0: 1d79 acbd f2e6 5fbc c904 123d 0be5 e73c
0.06353879 -0.013529645 -0.03409981 -0.012832315 0.041481744 -0.013234253 0.026147837 0.0023196184
0.11792157 0.039541632 0.038323563 -0.02418042 0.042419482 0.029056923 -0.031343237 -0.038667027
0.04051541 0.02130787 -0.01130302 -0.06393807 -0.01605827 0.04262424 -0.009449444 -0.042992212
-0.0036520904 -0.007971349 -0.102920644 -0.04718158 0.014477701 -0.03962722 0.0015635315 -0.014029414
-0.014372052 0.0010170524 -0.0077935066 0.018699251 0.004112183 0.043181956 -0.08163936 0.01736125
-0.057775516 -0.039965697 0.0737163 -0.032386348 0.0071731308 0.05088061 -0.059771538 -0.050221927
-0.01960504 -0.020778047 0.016851902 -0.104332075 -0.016689932 -0.048641015 -0.085979246 0.022517668
-0.101356655 0.015710514 0.081384405 0.027147422 0.03362462 -0.07202185 -0.21689892 -0.038740195
-0.039485805 0.009006055 0.11736964 -0.034290403 0.04787362 0.05201721 -0.0035190524 -0.052872967
-0.008644787 0.004809954 -0.047284935 0.028060418 -0.017027155 0.046738952 -0.0128983585 0.043574855
-0.032205466 -0.1123686 0.03371429 0.03374886 -0.022086013 0.073270865 -0.03532541 0.063182764
-0.030178381 -0.11276073 9.9755416e-05 -0.04604028 -0.011550386 0.011079797 -0.13746661 0.057885464
0.06902567 0.06963403 -0.045740206 0.009406394 0.083750546 0.000109300716 0.008101336 -0.022150619
0.028966842 0.056836814 -0.014566704 -0.14701976 -0.039529096 -0.0037662871 -0.019196924 0.061840437
0.042784907 -0.0139769325 -0.047764737 -0.02646157 0.07439695 -0.030559236 0.042210918 -0.018078778
0.031956542 -0.06914611 -0.02923269 0.009026764 0.06216967 0.05541552 -0.12481944 -0.025699137
0.027572159 0.008581828 -0.015159222 0.052523874 -0.028724222 0.021431888 -0.03567618 -0.0124365315
-0.006389493 0.08139687 0.0777256 -0.015457724 0.017108243 0.05925114 0.011076718 0.07398295
0.005811518 -0.040002868 -0.04047156 0.02854969 0.078855254 0.05127774 0.0035644623 0.05576321
-0.028141223 -0.04611921 0.046540376 0.06306568 -0.060357343 -0.04623989 -0.066315316 0.10141865
0.065146714 0.10275669 0.05233454 -0.11701674 -0.010615571 -0.007669305 -0.009218915 -0.038344283
0.02108067 0.014554963 0.04798882 0.053904418 0.017426638 -0.011249778 0.0017821626 -0.04857744
-0.021754045 -0.03326477 0.030823462 -0.0039567156 0.026120653 -0.019095534 0.066275015 -0.019673739
0.01347905 -0.004979637 -0.051589947 -0.03494228 -0.09712268 -0.011969503 0.0054322346 0.09364089
0.012053329 0.09175458 0.022394849 -0.0039046789 -0.04265899 -0.029804697 0.07950478 -0.031337
-0.009734672 -0.039338965 -0.0062003033 -0.012041985 0.0059036915 0.029976368 -0.023727192 -0.014215756
0.044651035 -0.12307009 -0.10304629 0.018554203 -0.045400966 0.0068205036 0.09706677 -0.04359013
-0.032419544 0.052551653 -0.027761187 0.087743014 0.031084182 0.031194977 0.039067306 0.07593808
0.033103306 0.07255963 0.072625525 0.06588094 -0.05618498 0.036302853 -0.041682296 -0.0034739897
-0.06463034 -0.120277144 0.009910986 -0.0020295503 0.003401572 0.044667162 -0.05483146 0.01834098
-0.014800057 0.009552754 0.032362625 -0.06666815 0.019475188 -0.08207096 0.06284607 -0.027786013
-0.021805368 0.015130075 -0.057619665 -0.04041199 -0.08421538 -0.0136659015 0.035649095 0.028307458

net.4.weight f4 [256, 256]
00000000: a315 c03c 36b1 cebc f428 a9bb cbbf 11bd
00000010: 8810 56bb ea84 3a3d 0b72 5a3a a66f dc3a
00000020: 1a25 91bc 8857 463c 01e9 a3bb c171 0f3c
00000030: 023c 9bbc 2607 943c f8e7 febb d94a 353d
00000040: bc24 c23c f4a7 1bbb d0f6 323c e0dc 1f3c
00000050: caea 7ebc 5f8a 963b 3e1f efba 68ba 44bc
00000060: d7a0 043c 4945 663d 0b97 963c b387 273c
00000070: a1dd dcba bbdb b0bc 1575 383d b03c 073c
00000080: fbf0 a2bb 8d0d 143d f8b3 94bc 093a f93a
00000090: 35b6 11bb 852a 293c 3902 ca3c 0252 333d
000000a0: 396c 453c eac5 573c 231a ecbc c0c0 bf39
000000b0: f0ad 4539 eeb3 0fbc 78e3 a13b c2d8 2cbc
000000c0: 3daf 573c 2eed aa3c 879a 9c3c 29c9 47bd
000000d0: 1b95 dfbb 6380 a33c 6082 8a3c 2a8d 97bb
000000e0: 607f e83c 61eb 14b9 f665 14bc 388c 473c
000000f0: f9dc bcbb f83f d43c 50cd 223c e46e 873b
00000100: 8bdd 00bd 2a99 b03b 7886 86bd 2595 343d
00000110: 7343 e03b 0bad b63b d375 7dbc 5be1 95bb
00000120: cf21 01bc 5462 2bbd 8009 83bb d673 3cbc
00000130: 03b5 4ebc a376 e33c c194 75bb c4ca 833c
00000140: 4715 033b 3e19 e53b 9678 de3c 1d45 b5bc
00000150: 7d4f c1bd 9ffd d2bc d7f1 913b da59 9cbc
00000160: 1cc9 023d d94c 473d 2b21 00bd f174 9a3b
00000170: aef6 4f3a c656 90bc 1539 6ebd 3aaa 39bc
00000180: ff4c f6bc 707c 623c 9942 efbc 1fb0 833b
00000190: 22a2 063c 32eb 97bc 47a8 813d 4ff7 7abc
000001a0: 0668 123c 04a9 ab3c 1561 85bc 6ea9 4e3c
000001b0: 4dfe 30bc bb3b ce3c 48b9 65b8 e7a0 3c3b
000001c0: baee 80ba 50f7 4cbc d80b 233c 2fea 9bbb
000001d0: 399a 673b 8123 533d fe14 fd3c f82f 1d3d
000001e0: e4d8 a6ba 39bf 963a acc5 a8bc c5b6 983b
000001f0: 9dcf b3bc e09b 7fbb 1fe7 41bc 20ca 353c
00000200: a163 c9bc f7e9 6bbc 3f78 7ebc 9e80 8bbb
00000210: 29fc b4bc 5bdb 00bd 9f36 76bc a262 80bc
00000220: 9932 e73c 1e3d e4bb d005 dcba bf51 dcbc
00000230: caed 1bbc 27eb d53b 17b4 283c 6430 74ba
00000240: 5f6a 1dbd d4fa 423c 4b76 f33b 47b6 e13c
00000250: 3e00 b4bc 52d3 e4b9 a6fc 8c3b 6e8d b63c
00000260: c89f b0bb 8485 9dbc 491c debc 7b6b ef3b
00000270: a5bc 133d a527 8abc 8fd9 7b3a b3ea 69bc
00000280: b1f9 5d3c 85ba a43a 017b 50bc bb81 13bd
00000290: efaf 5d3d 202d f43b c553 01bd 04d3 6cbc
000002a0: 5538 233c fa18 b4b9 1a5b cbbc da5c 0c3d
000002b0: 4864 e7bc 1e06 683c b240 803b 7409 21bb
000002c0: 70c4 78bc ca1c 0c3c da21 683b b6b9 7d3c
000002d0: d833 3d3c 8f49 d6bb f07b 02bd dc25 733b
000002e0: b265 e5bc 1cb0 83bc 7fb7 0c3c 8884 71bc
000002f0: c747 d8bc facd 1bbc 5c28 a23b 4966 91bc
00000300: a27b 5f3c 9656 87bc c46a e63b e078 16bc
00000310: ce85 c2bc e4b1 c13c 690b 103c b312 d13c
00000320: 8765 7c3c 2c8e 80ba 7b56 103b 82fb bbbb
00000330: df71 e73b 6111 0a3c 9689 99bc eb9f 83bc
00000340: aab7 af3b a64c a1bb 0a73 0cbd 0f07 49bc
00000350: 731e c63b 3855 083c 4ee0 10bc eb80 67bd
00000360: 0cae b8bc e8a2 1cbb a806 b83c 8465 28bd
00000370: 9b73 313c 13c8 7b3c 386c 2abc d93c febc
00000380: 6dc9 96bc 6019 24bd 2b80 1a3c 4747 a73b
00000390: 40e3 3bbd 9742 eaba 8e28 893c 4aa1 a93c
000003a0: 8c93 ce3c 2435 e13b 3c6b bdbb 87b6 983c
000003b0: 479b a0bc fe76 323c 5397 d63b a9e7 44bc
000003c0: c55d 56bb 8f2f e6ba fc2f 2c3b 10b7 b93c
000003d0: 5c2d 8eba bc34 1f3d dc49 94bc b79f 2e3d
000003e0: ba16 8e3c 93e4 263a 3757 fcbb 86b2 34bb
000003f0: 0683 f6bb 62ea 733c f969 4f3c 20dc 0cbd
0.023447817 -0.025230985 -0.0051623527 -0.0355833 -0.0032663662 0.045536913 0.0008333034 0.0016817942
-0.017717887 0.01210583 -0.0050021415 0.008755148 -0.018949512 0.018069815 -0.0077791177 0.044260833
0.023699157 -0.002375123 0.0109231025 0.009757251 -0.015558908 0.004594132 -0.0018243564 -0.012007333
0.008094988 0.05621842 0.01838257 0.010225224 -0.0016850719 -0.02158915 0.045033533 0.008254215
-0.0049725748 0.036145736 -0.018152222 0.0019014488 -0.0022233848 0.010325079 0.024659263 0.04377938
0.012049728 0.013169745 -0.028821057 0.0003657397 0.00018852181 -0.008770926 0.0049404465 -0.010549726
0.013164339 0.02086505 0.019116653 -0.048775826 -0.0068231947 0.01995868 0.01690787 -0.0046249824
0.02838105 -0.00014202065 -0.0090575125 0.012179427 -0.0057636467 0.025909409 0.009936646 0.0041330922
-0.03146128 0.0053893523 -0.06568617 0.044087548 0.006843978 0.0055748275 -0.015469986 -0.0045739836
-0.007881596 -0.04184182 -0.003998935 -0.011502227 -0.012616399 0.027766531 -0.0037472697 0.016087897
0.0020001696 0.0069915345 0.02715711 -0.022127682 -0.09438989 -0.025755702 0.0044538784 -0.019085813
0.031930074 0.048657272 -0.03128163 0.0047136475 0.00079331815 -0.017619502 -0.058159906 -0.011332089
-0.030066011 0.0138236135 -0.02920656 0.004018798 0.008217366 -0.018544767 0.063309245 -0.015317752
0.008935934 0.020954616 -0.016281644 0.012613637 -0.0108028175 0.025174966 -5.477041e-05 0.0028782429
-0.0009836771 -0.012510136 0.009951554 -0.0047581415 0.0035339727 0.05154753 0.030893799 0.038375825
-0.0012729433 0.0011501081 -0.02060207 0.0046604597 -0.021949584 -0.003900282 -0.011834889 0.011095554
-0.02458364 -0.014399043 -0.015531599 -0.0042572757 -0.022092896 -0.031459194 -0.015027671 -0.015672032
0.028222369 -0.0069652935 -0.00167864 -0.026894448 -0.009517143 0.0065282765 0.010296843 -0.0009315072
-0.03843152 0.011900622 0.007429873 0.027552737 -0.021972772 -0.00043644995 0.004302579 0.022284236
-0.005390141 -0.019228704 -0.027113097 0.007306514 0.036068577 -0.016864607 0.0009607309 -0.014277148
0.013548301 0.0012567794 -0.012724639 -0.036012392 0.05412286 0.0074516684 -0.03157403 -0.014454607
0.009962161 -0.00034350884 -0.024823714 0.034268238 -0.02824606 0.014161615 0.0039139623 -0.0024572285
-0.015183553 0.008551786 0.0035420568 0.0154861715 0.011548005 -0.0065395306 -0.031856477 0.0037101423
-0.028002594 -0.016075186 0.008588671 -0.014741071 -0.026401414 -0.009509558 0.004948659 -0.017748969
0.013640316 -0.01652078 0.0070317704 -0.009184092 -0.023745444 0.023644395 0.008791783 0.025521612
0.015405065 -0.0009807996 0.0022024203 -0.005736769 0.007063135 0.008426995 -0.018742364 -0.016067466
0.0053624706 -0.0049224673 -0.034289397 -0.012269749 0.0060461103 0.008321099 -0.008842541 -0.05651943
-0.02254393 -0.002390081 0.022464111 -0.041112438 0.010830785 0.015367526 -0.010401778 -0.031034874
-0.018406594 -0.040063262 0.009429972 0.0051049325 -0.04587102 -0.0017872629 0.01674297 0.020706791
0.02521684 0.00687279 -0.0057806056 0.018641723 -0.019605292 0.010892628 0.006548801 -0.012018123
-0.00327097 -0.0017561781 0.0026273718 0.022670299 -0.0010847258 0.03886865 -0.018101625 0.042632785
0.017344821 0.00063664577 -0.0077008265 -0.0027572229 -0.0075229434 0.014887424 0.012659543 -0.034389615

net.4.bias f4 [256]
00000000: 2fa6 b9bc 4b88 08be 4437 973c 6d14 88bd
00000010: 0066 04be 4d06 4e3d 2a4a 56bd d4a7 353c
00000020: c826 d9bd 4140 1e3d 1b19 4fbb c84f 583d
00000030: 8e02 a43d b677 04bd b168 aabc 82ef 02bd
00000040: 81d4 8bbb c082 933a 03f9 853b b75e 14bd
00000050: ae9c 5abd a9c6 d0bc 18ab c2bd 5543 863d
00000060: 48e3 2c3d c909 c6bd 8d60 343c 9610 563c
00000070: 05fa 4abc decb 493d 850f 2a3d 6439 b93d
00000080: 9173 6c3d 32d5 0d3c 3f49 2abd d258 8fbd
00000090: f263 b03c 2bda 1b3c fdcd 4f3d 9541 fd39
000000a0: 8f32 0d3c 3278 b3bc 36f8 783d d38a a3bd
000000b0: 8f84 1abc 4110 36bd ccbe ebbc 56da a13b
000000c0: 697a 193b 0afa 273d a111 a9bd 634e a03c
000000d0: 6eec a0bc fbb6 01bd 299b c0bc 5bdb 6e3c
000000e0: a316 62bd ae72 403c c1e9 983d 69ad 833c
000000f0: 28ed 383d 1cb2 10be b037 e73c 243a 863d
00000100: 9afa 2d3c 221b 813d 665f 173c 58fd 603d
00000110: c47f 583d 3bbc a43b 3fa6 1bbc 604a 82bd
00000120: 0c41 923d 3e1e 003d 5800 03bd d649 8c3d
00000130: 363d 11be d0a1 183c 35a4 14bd 921d 4ebd
00000140: 08ea 6bbd 8e8b 403b 9ff0 4e3d 0c41 afbb
00000150: 5906 46be dd73 69bc 5a05 a6bc edbd b13c
00000160: 2369 d03c fb1d 12bd cbae c23c 3f11 dabc
00000170: 197a 6abc 3428 03bd b2c8 893c 4c38 543d
00000180: 6a0d 6cbd aa51 363d 970e 32bd 4ed9 393c
00000190: 4c5b 65bb 8a18 9e3b 3a6f a33d 90ed e73c
000001a0: 640c bc3c c54a f0ba 1937 38bb 8278 77bc
000001b0: bce5 373d f8f8 413d 57b8 afbc eea9 62bc
000001c0: 3700 bebc 083f 37b9 1ebe 0fbe 8e5e 30bd
000001d0: 5ba9 97bd d4a9 f03c 58e8 1e3d a7a9 f73c
000001e0: 6438 0d3d f2e1 933b 8c73 c63d bac8 29be
000001f0: 5c5c 95bb 4b21 1ebc 4eaa 0f3b c4ab e43b
00000200: 5893 37bc fdc3 85bc 9a08 c0bc 5e8b f53b
00000210: de19 46bd 7f47 493d 9995 b93c 4ed6 8cb8
00000220: ae44 b43c e9af 2dbe 459c 10bd 847e 29bc
00000230: 3272 cdbc 27b0 c23c 70a9 85bd 2678 efbc
00000240: 7001 44bd 2eb6 613c 0375 3dbd 6b65 92bd
00000250: 1384 a6bd 44b3 7a3d 21d8 af3b e33f 8a3d
00000260: ad79 e1bc 0e46 88bd d38e 02be f05e fcbd
00000270: 9b28 883c c70c 2ebd 9ca6 9b3c ab12 99bd
00000280: 9586 083d 7305 cfbd 2ae7 9ebb 9b54 f0bd
00000290: 5b9c 563d 71bd 3cbd 2792 f03c 7d32 00be
000002a0: 39a7 08bd 5978 fe3c 6dd6 00be 6273 58bd
000002b0: 79e2 38bd 7751 fd3c 9d6d 5dbc e62d 9c3b
000002c0: 8f66 703d 5283 b7bd 67af 843a f76e 023d
000002d0: e015 47bd 78c9 d5bc 231f 9e3b 4739 09bc
000002e0: 7e28 e43a 9f93 3abe 0135 32bd a968 d8bd
000002f0: bbdf 343c 17d3 8e3d 3977 243d 5019 b73c
00000300: 561e 24bd f3ed 1bbd 35bb 093d c977 d4bc
00000310: b21a 80bc b022 093d 6bab b93d 8d5c 303c
00000320: 15be 03bd 0dfa 91bd 7247 e9bd d2c7 9abc
00000330: 417c 45be 39b0 74bd 2b41 00bd 50ff 6f39
00000340: 7998 3bbe 020c 73bd 1293 293c 86a1 463c
00000350: 0701 eebc 1cd4 e13c 24de ebbd 5476 a0bd
00000360: ce96 883d a68e fbbd 8eff 89bd c1e1 b5bc
00000370: 5551 a3bd ee53 323c 847b 883d 69c0 dbbd
00000380: a6ca ffba 9a22 54bd fd14 3d3d 6454 a0bc
00000390: 193a 5abd 93b3 a73c 7909 243b ea3a 713d
000003a0: 5eec bdbd 43ee 23bc 318a 9bbb df6b a03c
000003b0: 2686 113d 16b0 0d3c 8b73 46bc 0a16 06be
000003c0: 3d1b 573c 036b 05bc de7f f63c e0ad e93c
000003d0: f994 81bd 4b92 c7bc d556 33be d9f4 6dbc
000003e0: ddb8 51bc 8652 82bc cad1 abbc e90a e2bd
000003f0: 8533 00bd 247b 673d bf38 51bd 0e98 2fbc
-0.02266225 -0.13333242 0.01845897 -0.06644521 -0.12929535 0.050298978 -0.052316822 0.011087377
-0.106031 0.038635496 -0.0031600657 0.05281046 0.080083 -0.032340728 -0.020801874 -0.031966694
-0.004267276 0.0011254176 0.0040885224 -0.03622314 -0.053372078 -0.025485354 -0.0950529 0.06555811
0.04220894 -0.09669835 0.011009348 0.013065478 -0.012388711 0.04926669 0.041518707 0.090441495
0.0577274 0.008656787 -0.04157376 -0.06999363 0.021532033 0.0095124645 0.050733555 0.00048304783
0.008618011 -0.0219079 0.060783587 -0.07985463 -0.0094310185 -0.044449095 -0.028777502 0.0049393578
0.002341891 0.04100994 -0.082553156 0.019568628 -0.019643988 -0.031668644 -0.023511486 0.014578666
-0.05519737 0.011746092 0.0746646 0.0160739 0.045148045 -0.14130443 0.028224796 0.06554058
0.01061883 0.06304003 0.009239053 0.054929107 0.05285622 0.0050273216 -0.009500085 -0.06361842
0.07141313 0.03127884 -0.03198275 0.068500206 -0.14183506 0.009315923 -0.036289413 -0.05032117
-0.057596236 0.0029380056 0.050522443 -0.0053483304 -0.19338359 -0.014248815 -0.020266224 0.021697009
0.025440758 -0.035673123 0.023764988 -0.026619552 -0.014311337 -0.032020763 0.016819332 0.0518115
-0.05762998 0.044511475 -0.043470945 0.011343313 -0.0034997044 0.0048247026 0.07980199 0.02831152
0.022955127 -0.001833283 -0.0028109013 -0.015104415 0.044896826 0.047356576 -0.021450205 -0.01383446
-0.023193462 -0.00017475721 -0.14037368 -0.043058924 -0.07405349 0.029377855 0.0387958 0.030232264
0.034477606 0.0045130188 0.096900076 -0.16580477 -0.0045581292 -0.009651492 0.0021921578 0.006978484
-0.011204563 -0.016328806 -0.023441602 0.0074934205 -0.048364513 0.04914045 0.022654342 -6.7156376e-05
0.022005405 -0.16961636 -0.03530528 -0.010345105 -0.025078867 0.023765637 -0.06526458 -0.029232096
-0.047852933 0.013776345 -0.04625417 -0.0714825 -0.0813066 0.061206117 0.0053663407 0.06750467
-0.02752384 -0.06653987 -0.12749796 -0.123227954 0.016620925 -0.042492654 0.019000344 -0.07474264
0.033331472 -0.10108461 -0.0048493342 -0.11734887 0.052395206 -0.046079103 0.029366566 -0.1251926
-0.0333626 0.031063246 -0.12581797 -0.052844413 -0.045137856 0.030922635 -0.013514903 0.0047662137
0.058691557 -0.08960594 0.0010123075 0.031844106 -0.048604846 -0.026097044 0.004825489 -0.008375472
0.0017407087 -0.18220375 -0.04350758 -0.10566837 0.01103967 0.06973856 0.040152762 0.022350937
-0.040067993 -0.038068723 0.0336258 -0.025936024 -0.01563773 0.033480346 0.090658985 0.010764253
-0.0321637 -0.071277715 -0.1139058 -0.01889411 -0.1928568 -0.05973837 -0.03131215 0.00022887927
-0.18319882 -0.059337623 0.010350006 0.012123471 -0.029053224 0.027566962 -0.11516979 -0.07835069
0.06669389 -0.122830674 -0.06738196 -0.022202374 -0.07974497 0.010884268 0.06664184 -0.10730059
-0.001951535 -0.05179081 0.046162594 -0.01957149 -0.053278062 0.02047137 0.002503006 0.058894075
-0.09273599 -0.0100055365 -0.0047466983 0.019582687 0.035528325 0.008647939 -0.0121125085 -0.13094345
0.013129053 -0.008143189 0.030090269 0.028525293 -0.063272424 -0.02436175 -0.17513593 -0.014523708
-0.0128004225 -0.01590849 -0.020974059 -0.11037237 -0.031299133 0.05651392 -0.051079508 -0.010717405

net.6.weight f4 [2, 256]
00000000: 8dcd 4bbb 4587 51bd 67fc 7fbb 1afc 18b9
00000010: 26a0 3ebc d663 c039 b62b a13a 4494 1abb
00000020: c745 21bd 6aee 0d3d 9b6d 5cbb 8b65 5d3a
00000030: 564d ea3c e03a 283d ff56 d3bc afd1 09bd
00000040: 11e7 e6ba b176 c53a 50cf 14ba 362b 1fbb
00000050: 9add 72ba 1043 ab3a f986 783a f094 abb9
00000060: 14e8 10ba 5b31 c63c 818b 00bd ccde 13bb
00000070: 2a7d f4ba 0bf5 013b 4704 313a 1667 38bb
00000080: 7437 8fba 5687 b73a a046 003a b15a 44bc
00000090: d57c 55bd c452 81b8 3a0f 5dbb f036 193a
000000a0: 4156 983a 96e8 2b3b 90f1 5eba 1819 ccb9
000000b0: 6adf 53b9 693e 913a c030 28bb 5857 59ba
000000c0: f9c0 b0b8 9eaa e2ba ed02 d1ba 94a8 20bb
000000d0: 9494 24bb e384 fa3a d1de 61b9 94d0 95bb
000000e0: faa7 293a 2c65 2eba 010b 31bb d881 02bb
000000f0: 9b33 7dba 48a8 a2bc b06d 16b9 32c7 943a
00000100: 12fe e83a 6aef 863a 25d8 0abb a579 993a
00000110: 1be2 37bb ebc6 e2ba 6406 1bbb 8cfe ee39
00000120: 6c90 bf3a 1163 19bb 5d93 2c3a 717f a0ba
00000130: c9bb e8ba 8d13 b83a 7e8c 003d ab89 13bb
00000140: c011 b6ba 6ee4 9c3a 589b 73ba 4784 e4ba
00000150: fda6 abbc 5de9 5d3b 8812 8139 186c bc3a
00000160: 16ac feba a0de 60b9 aa75 593d 7c1c 15bb
00000170: d222 47ba a419 34ba 81bd b539 922e dbba
00000180: 6743 a8bc a7c0 dc3b 29c6 c4b7 20b3 caba
00000190: b3ee 46bb eca3 ef3a 604a 82b9 47c0 c3ba
000001a0: 21b1 4b3b 528f 393a a83e a3b9 dc80 e1ba
000001b0: 24fb 153d 34bf 0c3b c670 9eba cb87 1ebb
000001c0: 2a60 4bba f304 57bb 45a2 01bb 7275 5e3b
000001d0: 4c96 1abd 2cad 2fbd 46c6 bcba b7cc 20b9
000001e0: 70ad e0ba bd07 833d 9180 1cbb 825f 6abc
000001f0: d8fa fc3a 5814 a53c 5714 1839 9713 25ba
00000200: ad08 03ba 0ab6 59ba e982 62ba ae27 963d
00000210: a072 4838 743a 383a ac4a 883a 2e6c 1cba
00000220: 4064 b2ba 7c2f 12bb 7842 8ebd d157 903c
00000230: d364 c3bc 7525 db3a 3f4f 163c 453c 233b
00000240: 26ec beba 9576 72ba 7292 3b3a 93f0 ce3b
00000250: a5c8 753d 7ec0 56bb 22a2 b0b9 b26b 79ba
00000260: 2d1b abb9 129a 2fbb 0287 babb 4a46 363d
00000270: f466 bab9 1adb e13a beef 3bbb cdf5 c33c
00000280: 3ee5 8db9 f0b8 2cbc 4e7c 00bb 5d72 09bc
00000290: 96ba ddba d60b f1b9 c9fa b33a 625f 2eba
000002a0: 0874 223a 5311 66ba c5aa 01bd dc90 fc38
000002b0: 0ad3 5a39 be53 e239 6293 65b8 6d2b 87ba
000002c0: a468 4eb8 6e1d b3bc c0e2 473a a177 b639
000002d0: 85b1 923d c9f9 ccb9 a3b9 2cbb 9e11 8cba
000002e0: 998e 603a cfd8 8cbc dc73 7239 1eb3 57bc
000002f0: 20c6 7139 12a3 46ba 0829 a13a bff7 81bd
00000300: 62a2 d0ba 559b 54bb 829f 6eba 13ae ae3a
00000310: f089 94ba 728a 243c 140f 53ba 1803 0c3b
00000320: 906f a2ba a65c f9ba f10d 953c 880d c239
00000330: 5c04 2dbd a21f 0e3d aee8 833b 7f41 b6ba
00000340: 1335 9ebd 19ba 9ab9 0fb2 a2ba d5db 52bb
00000350: 6c58 01bb 2881 8dba c869 ebbc 44ca 5bbc
00000360: bff5 6cba 3b0a e3bc de64 fcba 3141 083a
00000370: 4aa3 ce3a 0990 41ba ad39 6fba 422e 80bd
00000380: 743a 6a3b 9039 5b3b 8682 c6ba 169e e9b9
00000390: d80d 263c 2a0a a2ba 9a3f 573a d7a4 f6ba
000003a0: 1865 63bc 33e1 abba 2142 bbba f11e 393a
000003b0: 3916 e8ba 5098 743a 486d b0b7 8084 58bd
000003c0: d807 f939 8d7d ab3a 8c1f 083b fba0 163a
000003d0: a3c9 78bb e8fc 823b 4b20 94bd 07be 013d
000003e0: 3ae8 4abb 2652 d5ba 93bf 28bb 0d8e 943c
000003f0: 5682 31ba c52d c43a ecb4 8439 5557 cfb9
-0.003109786 -0.051154394 -0.0039060356 -0.00014589765 -0.011634862 0.00036695477 0.0012296352 -0.0023586908
-0.039373185 0.034651197 -0.0033634666 0.0008445612 0.02860133 0.041071773 -0.025798319 -0.033647235
-0.001761647 0.001506528 -0.0005676644 -0.002428723 -0.00092645886 0.0013066251 0.0009480562 -0.0003272663
-0.00055277464 0.024193456 -0.03138304 -0.0022563217 -0.0018653024 0.0019829895 0.00067526515 -0.0028137616
-0.001092656 0.0014002125 0.00048933364 -0.011984513 -0.052121002 -6.166616e-05 -0.0033731 0.0005844673
0.0011622385 0.0026231161 -0.00085046235 -0.00038928608 -0.00020205756 0.0011081222 -0.0025663823 -0.00082909083
-8.428278e-05 -0.001729328 -0.0015946307 -0.0024514543 -0.0025112974 0.001911309 -0.00021540678 -0.0045719836
0.0006471869 -0.0006652649 -0.0027014615 -0.0019913819 -0.0009658874 -0.019855633 -0.00014345977 0.0011350869
0.0017775914 0.001029474 -0.002118596 0.0011709227 -0.0028058353 -0.0017301714 -0.0023654932 0.0004558455
0.0014615185 -0.0023404995 0.0006583238 -0.0012245012 -0.001775616 0.0014043913 0.031383984 -0.0022512476
-0.0013890788 0.0011969933 -0.00092928624 -0.0017434441 -0.02095365 0.003386102 0.00024618604 0.0014375476
-0.0019429948 -0.00021445239 0.05309073 -0.0022752574 -0.0007596436 -0.0006870276 0.00034664202 -0.0016722253
-0.020539952 0.006736833 -2.3457296e-05 -0.001546476 -0.0030354678 0.0018283105 -0.00024850946 -0.0014934622
0.003108092 0.00070785463 -0.00031136465 -0.0017204541 0.03661646 0.002147627 -0.0012088052 -0.0024189826
-0.0007758165 -0.0032809346 -0.0019780558 0.0033944515 -0.03774099 -0.04288976 -0.0014402352 -0.00015335051
-0.0017141532 0.0639796 -0.0023880342 -0.014304997 0.0019300831 0.020151302 0.00014503427 -0.00062971696
-0.0004998546 -0.0008305019 -0.0008640723 0.07331787 4.779047e-05 0.0007027753 0.001039823 -0.0005967048
-0.0013610199 -0.0022306135 -0.06946272 0.01762 -0.023851788 0.0016719537 0.009174167 0.002490775
-0.0014566227 -0.00092492375 0.0007155306 0.0063153 0.060005803 -0.0032768543 -0.00033690134 -0.0009514644
-0.0003263591 -0.0026794714 -0.0056923637 0.044500627 -0.0003555339 0.0017231435 -0.0028676833 0.023920918
-0.00027064414 -0.010542139 -0.0019605341 -0.008389083 -0.0016916569 -0.0004597592 0.0013731356 -0.00066517864
0.00061970996 -0.0008776385 -0.031657 0.000120432785 0.00020868718 0.00043168472 -5.4735116e-05 -0.0010312625
-4.921168e-05 -0.02186462 0.0007625036 0.00034802876 0.071627654 -0.00039096017 -0.0026355765 -0.0010686403
0.00085661706 -0.017193226 0.0002312208 -0.013165263 0.00023057358 -0.00075774 0.0012295553 -0.06346082
-0.0015917534 -0.0032441218 -0.0009102748 0.0013327025 -0.0011332612 0.010042774 -0.0008051258 0.0021364149
-0.0012392867 -0.0019024804 0.018195124 0.00037012645 -0.042240486 0.034698136 0.0040255403 -0.0013905017
-0.07724967 -0.00029511823 -0.0012412685 -0.0032174487 -0.0019736541 -0.0010795938 -0.028736964 -0.013414923
-0.00090393046 -0.02771484 -0.0019256135 0.00051977026 0.0015765217 -0.00073838286 -0.0009125721 -0.06258823
0.0035740407 0.0033451058 -0.00151451 -0.00044559006 0.010135137 -0.0012362648 0.00082110765 -0.0018817437
-0.013879083 -0.0013113379 -0.0014286676 0.00070618006 -0.0017706818 0.00093305577 -2.1031723e-05 -0.052860737
0.00047498825 0.0013083682 0.0020770757 0.0005746034 -0.0037961982 0.003997434 -0.07232722 0.031675365
-0.0030961172 -0.0016275092 -0.0025748953 0.018134141 -0.0006771436 0.0014967254 0.000253118 -0.00039547184

net.6.bias f4 [2]
00000000: 77bf 1e3d c03a 3c3d
0.038756814 0.045954466
