checkerboard/cfm/models/50000_model.pt (torch, 535792 bytes, 8 tensors)

net.0.weight f4 [256, 3]
000000 89 57 9a bb c5 ee 17 3d 73 5e 44 3d f5 d1 9b be
       -0.004710142 0.037092943 0.047941636 -0.30433622
000010 e8 4e 86 3c 2a 61 8c be cf d7 d3 3e 69 1b 4f 3e
       0.016395047 -0.2741788 0.41375586 0.202253
000020 d5 f0 26 3e 67 b7 86 3e 36 fe 89 3e 36 a1 9d 3e
       0.16302808 0.263118 0.2695176 0.30787057
000030 f2 5f 07 be ac 84 b4 be dc 12 bb 3e 1d 0e 34 3f
       -0.13220194 -0.3525747 0.36537826 0.70334035
000040 9b ca c1 bd c2 4c a9 3e cc d3 6f 3e c9 f4 25 be
       -0.09462472 0.33066374 0.23420638 -0.1620666
000050 9f 52 96 bd e8 2e 41 be 49 a5 5a 3e 0b c8 2c 3e
       -0.073399775 -0.1886555 0.21352114 0.16873185
000060 b3 8a 8c be 35 1d 8b 3e 64 64 02 3f 57 99 f7 3c
       -0.2744957 0.2717072 0.50934434 0.030224485
000070 9d f7 d8 bd eb db d6 be f5 c6 b4 3d 8d 71 18 bf
       -0.105941035 -0.4196466 0.088270105 -0.59548265
000080 6e d3 cd bd 3e 55 64 bc bd 9c 30 be 65 c6 bc be
       -0.10050093 -0.013936339 -0.17247291 -0.36870113
000090 ed 28 1e 3e 6e 41 a9 be c2 6f bb be 9f 27 8f 3b
       0.154453 -0.3305773 -0.36608702 0.004368737
0000a0 47 98 6d 3b 79 48 4b 3d 90 5b 51 be e2 74 e1 bd
       0.0036254094 0.049629662 -0.20445085 -0.11008622
0000b0 3d de 0a bf bf d4 0c bc 93 37 66 ba 4b f6 0b 3e
       -0.5424536 -0.0085956445 -0.0008782085 0.13668172
0000c0 15 10 49 bd fc 3f 22 3f ce 5b 12 bc 91 5e 43 bf
       -0.049087603 0.6337888 -0.008933021 -0.7631617
0000d0 30 f5 42 3f fd 5f be be 06 b0 a7 3d da 83 f6 3d
       0.76155376 -0.37182608 0.08187871 0.120368674
0000e0 77 4e 9e be 84 2b d2 be 70 ea 81 be 08 62 e6 bd
       -0.3091924 -0.41048825 -0.25374174 -0.11249167
0000f0 c4 3c f0 bd d8 cd 17 3e 8e 6f 8f be 30 06 97 be
       -0.1173034 0.14824617 -0.28014797 -0.29496908
000100 08 94 bf bd 22 41 ff 3e 6d 83 1b bd 41 02 58 be
       -0.093544066 0.4985438 -0.037967134 -0.2109461
000110 3f 3e aa 3e ac 05 e8 3c 77 25 46 3d f1 bf 61 3c
       0.33250615 0.028323017 0.048375573 0.013778673
000120 d7 b3 f3 be 9f b1 e4 3e 6c 81 9c 3e 48 39 05 3d
       -0.47598144 0.44666764 0.3056749 0.03252533
000130 9d e3 52 3e 78 1a 35 3e 56 06 d4 be 02 fa 51 3e
       0.2059464 0.17685878 -0.41411084 0.20505527
000140 16 a4 03 3e 15 0d 52 bd b1 e8 1e 3e 30 1a 12 bf
       0.12855563 -0.051282007 0.15518452 -0.5707121
000150 b4 0d f2 be f8 c3 9d be 3a ea 4b bd ae 13 f7 bc
       -0.4727608 -0.30813575 -0.049783923 -0.030160751
000160 8d 36 3a bb 90 96 d3 3b c9 a2 25 be fa 9f 1b be
       -0.0028413862 0.0064571574 -0.16175379 -0.15197745
000170 df 7b 2d 3e 8d 29 4c 3f 8d c8 83 bf eb 2a e2 be
       0.16941784 0.797509 -1.0295578 -0.4417337
000180 a4 08 aa be 5c fb 9b 3c 17 27 da be 48 87 7e b8
       -0.33209717 0.019040756 -0.42607948 -6.068431e-05
000190 14 bd d8 ba 10 61 15 be 2b 4c b2 be 0c 39 a9 be
       -0.0016535842 -0.14587808 -0.34823737 -0.33051336
0001a0 d6 71 ae bd e5 2c 7b 3b b7 26 bd 3b 34 ff 73 3e
       -0.08517806 0.003832632 0.0057724374 0.23827821
0001b0 c1 42 94 bd d6 5c c8 3c cd b7 85 be f3 c2 4e 3f
       -0.07239295 0.02445833 -0.2611679 0.8076622
0001c0 7a fa 50 3f 95 01 f8 be 6a 06 b2 3e 2a 14 b5 3e
       0.81632197 -0.48438707 0.3477052 0.35366946
0001d0 3c 18 11 3f 5d ee 70 bd 1e bf ce bd 91 cb c2 3e
       0.56677604 -0.05882107 -0.100950465 0.38045934
0001e0 3f 92 6c be 75 18 31 3f 30 3b df be f3 ab de 3a
       -0.23102663 0.69177943 -0.43599844 0.0016988501
0001f0 b1 38 f0 3a 14 16 f2 3d a3 98 95 be cc 7d 0d be
       0.0018327442 0.11820617 -0.29218015 -0.13817519
000200 25 3a d3 3d bd 4b 0d 3f c3 35 0a bf be 42 d9 3e
       0.103138246 0.5519369 -0.53988284 0.42433733
000210 81 20 41 3e 3e 4e 19 bf 43 c0 8a 3b 23 7b 8c be
       0.18860056 -0.59885013 0.004234345 -0.27437696
000220 5c c4 37 3e 48 ba 62 3e c6 71 f1 bd 3b 3a 37 3e
       0.17945999 0.22141373 -0.11789279 0.17893307
000230 65 2a 0e be 36 f5 5c 3c 77 c6 dc be b2 55 d4 be
       -0.1388336 0.013486197 -0.43120167 -0.4147163
000240 9d d7 2b bf eb bb 2a 3f 28 ee eb 3e c6 f6 23 bd
       -0.67125875 0.6669299 0.46080136 -0.040030263
000250 d0 57 3c bd 41 91 42 be b4 78 15 bf 28 53 c1 bd
       -0.045982182 -0.19000722 -0.58387303 -0.09439689
000260 44 83 38 be e4 2e 4b bf 83 0e 46 3f 00 a7 d5 be
       -0.18018824 -0.79368424 0.77365893 -0.41728973
000270 1c 55 3e bb a1 08 85 b9 7f 1a 4f 3f 6c c7 ca be
       -0.0029042428 -0.00025374166 0.80899805 -0.39605272
000280 87 41 83 bd b6 01 ed bd 32 56 8f bc 91 41 a2 bb
       -0.06408983 -0.11572592 -0.017497156 -0.004951664
000290 6f 5b a9 be 0e dd db bd 58 81 13 3f 8d 51 9d 3e
       -0.3307757 -0.10735522 0.5761924 0.3072628
0002a0 55 96 3c 3f 1b e6 47 bd 57 96 00 bd c4 98 b5 3d
       0.7366689 -0.04880343 -0.031393375 0.08867028
0002b0 ea dd b2 3d 97 d9 02 be 29 3f 31 ba e6 fc 27 ba
       0.08733733 -0.12778316 -0.0006761426 -0.0006408229
0002c0 6a ca a6 bd 70 be e1 be 2d e3 2b 3f a9 e3 0a bf
       -0.08144076 -0.44090605 0.6714352 -0.5425363
0002d0 6b f3 3e be 98 14 aa bc 56 de 81 3e 3a b4 51 3e
       -0.18647544 -0.020761773 0.2536494 0.20478907
0002e0 59 0c 29 3e 86 66 dd be 1b af 41 3e 17 0b 5c 3e
       0.16508617 -0.43242282 0.18914454 0.21488605
0002f0 2a cf 6e 3e 65 95 f5 3e 3b 36 83 be 9f 71 e0 3e
       0.23321214 0.4796554 -0.25627312 0.43836686
000300 d0 3c 75 3e 88 6b e7 3e e7 44 82 3e 6d 18 88 3e
       0.2394898 0.45199227 0.25443193 0.26581135
000310 f3 a0 96 3e 42 bf 87 3e af a0 07 bd eb bd 8d 3e
       0.2941967 0.26513106 -0.033112224 0.27683958
000320 bc 3a bd be 11 2f 3b bf 6a cd 38 3f 31 89 b2 3e
       -0.36958873 -0.7311869 0.72188437 0.34870294
000330 d1 b9 07 3f 69 57 03 bf d7 63 da 3e 9e ff e5 be
       0.5301791 -0.5130525 0.42654297 -0.44921583
000340 05 0c 78 be 0b 74 37 be bc 46 cb bd 8c 42 94 3d
       -0.24223335 -0.1791536 -0.09925601 0.07239255
000350 2e 4e e6 3e 20 d0 02 3e 8a b9 02 be 3d 46 e9 bd
       0.4498152 0.12774706 -0.1276609 -0.1139035
000360 b5 50 7b bb 6c f1 1f 3b ef 18 a6 b7 ac 87 58 3e
       -0.0038347666 0.0024405373 -1.9800353e-05 0.21145505
000370 97 82 47 bd 81 88 32 3e 6f 7b 6c 3b b8 49 89 bd
       -0.048708525 0.17434885 0.0036084314 -0.06703514
000380 e4 68 98 be 32 c1 74 be 49 e3 5e 3d 92 d4 9b 3e
       -0.29767525 -0.23901823 0.054415975 0.30435616
000390 11 08 f2 bd 9e 08 5d 3d 5d 82 ee be cd c4 f1 bd
       -0.11817945 0.053963296 -0.46583834 -0.11805115
0003a0 56 4b 9e bd da 18 c3 3e 57 14 0b 3f 0c 19 d7 3e
       -0.07729213 0.38104898 0.5432791 0.42011297
0003b0 8e b0 4b be 4c a4 0b 3d bb 10 1c 3d 72 fc 86 3e
       -0.19891569 0.034092233 0.038101893 0.26364475
0003c0 09 73 53 3e 30 17 7e be 2c 1c 8d 3e 36 c7 52 3f
       0.20649351 -0.24813533 0.27560556 0.8233522
0003d0 6f 72 ec bd 7d bc b4 3e a3 bd d5 bc e9 de 31 be
       -0.11545264 0.35300055 -0.026091402 -0.1737019
0003e0 ab 9b 55 3e 12 36 be bd 5c 51 88 3e 25 6c c2 3e
       0.20860164 -0.09287657 0.26624572 0.37973133
0003f0 7e 49 d4 3c bf a3 27 3f 32 9e f6 3e 15 68 d0 3d
       0.02591395 0.6548423 0.48167568 0.10176102

net.0.bias f4 [256]
000000 ef 08 a5 bd b9 7c 99 3e eb 4f 24 bd ce c8 0c bf
       -0.080583446 0.29977968 -0.04011528 -0.54993904
000010 28 9e 04 3d bf 00 c6 bd 34 1c 9b 3e dc 46 1d bf
       0.032377392 -0.09668111 0.30294955 -0.6143625
000020 a5 4c ff be ab a0 cf 3e a9 3a b9 3e 00 27 96 3e
       -0.49863163 0.40552267 0.36177567 0.2932663
000030 92 28 1d 3f c7 7a 0d bd 86 2a 04 3f 6a 14 a2 bd
       0.6139003 -0.034540918 0.51627386 -0.0791405
000040 3e 1c 2f 3e 4f f9 05 3e 28 60 8b 3e 6f 81 92 3e
       0.17100617 0.13083385 0.272218 0.28614375
000050 88 75 d8 3e 03 e3 44 bd 7c a0 c0 3d fc d5 51 bd
       0.4227717 -0.048068058 0.0940561 -0.051229462
000060 13 78 90 3e 2a 7d 0f 3e c4 46 6d 3e 44 1a 15 3f
       0.2821661 0.1401259 0.23171526 0.58243203
000070 44 f3 84 3e a6 d0 c6 3c 66 c4 a4 be e5 ce 37 bf
       0.25966847 0.024269413 -0.3218109 -0.7180007
000080 b7 7c dd 3e 18 58 d9 3d 20 33 93 3e c7 bf 14 be
       0.43259212 0.10612506 0.28749943 -0.14526282
000090 ff ea 8a 3e 93 d1 11 bf c8 4d a1 be 05 95 36 be
       0.27132413 -0.5696041 -0.31504655 -0.17830284
0000a0 63 45 ce be c2 30 86 bd b2 90 ba bc 96 41 ee be
       -0.40287313 -0.065522686 -0.022774074 -0.46534413
0000b0 a3 d3 1b bf ef 01 a9 bd 5a 5c 9d 3e 69 a2 e6 3e
       -0.60869807 -0.08252322 0.3073452 0.45045784
0000c0 10 03 08 bf 8d 8b 22 3e 19 66 f6 3c 54 fa 06 3e
       -0.53129673 0.15873547 0.03007798 0.1318143
0000d0 10 c3 e9 be 52 62 93 3b 09 a8 7a 3e 8c 5b 12 bd
       -0.45656633 0.0044978047 0.24478163 -0.035731837
0000e0 9f 12 47 3e 4d 5c 7f 3d 1c 0a 75 3d ea bd 06 bf
       0.19440697 0.062343884 0.059824094 -0.52633536
0000f0 00 31 0c 3c 2a 32 d8 3e b0 3d 7f bd da 3f 4a be
       0.008556604 0.42225772 -0.06231469 -0.1975092
000100 e9 a1 c3 bd 43 58 e1 3b 69 80 c2 3e 93 23 dd be
       -0.09552366 0.0068769767 0.37988594 -0.43191203
000110 1a 18 ed be a3 47 a6 3e b4 f1 4d be 08 9e 84 3e
       -0.4630745 0.3247653 -0.20111734 0.25901818
000120 6b 00 f8 ba 1a 87 f9 bd 4e da 7c 3e aa 15 0a be
       -0.0018921023 -0.12183972 0.24692652 -0.13484827
000130 9b 8e bd 3e 43 0e 84 be 0b 9e b3 bd de 46 fd bd
       0.37022862 -0.2579213 -0.08770379 -0.123670325
000140 5e 9f f3 3c ff e1 c4 bd 82 fe f5 3c 2e 6b 7c be
       0.029739078 -0.09613418 0.030028585 -0.24650261
000150 37 e6 3a bf 3b a5 d2 3e 64 41 58 3c f3 5b a6 be
       -0.7300753 0.41141686 0.013199184 -0.32492027
000160 4d 0b d3 be 48 e5 08 3f f4 06 35 be c4 7a bd 3e
       -0.4121956 0.53474855 -0.17678434 0.37007725
000170 e9 d9 12 bf da e9 e8 3e 88 63 21 3f 50 e7 d0 3e
       -0.57363755 0.45490915 0.630425 0.40801477
000180 8c a4 08 bf f4 b5 f7 3d 6d d8 11 be 14 60 0f 3c
       -0.5337608 0.12095252 -0.14242716 0.008750934
000190 32 ad a1 3e e7 56 6a be ad 4f e1 3e 45 f5 a6 be
       0.3157745 -0.22884713 0.440061 -0.32609
0001a0 c1 16 1c 3f b7 a3 43 be 2f 83 59 3e 3e fa f6 be
       0.6097222 -0.19105421 0.21241449 -0.48237795
0001b0 dd 00 98 be 65 41 da bd 6e 50 de 3e ae 00 87 bb
       -0.2968816 -0.10657004 0.43420738 -0.004119954
0001c0 43 0b 93 3e 01 38 13 be 01 1e a0 be 03 7a 78 3e
       0.2871953 -0.14376833 -0.3127289 0.24265294
0001d0 9b 84 1c 3e e1 3e 91 3e 50 e4 cd bd 09 93 a2 3e
       0.1528496 0.28368285 -0.10053313 0.31752804
0001e0 00 ae ea be 45 f9 6f 3e de 1b 5a 3e b3 df a0 be
       -0.45835876 0.23434933 0.21299693 -0.3142067
0001f0 2b 04 60 3d ab 34 42 be e3 77 27 bf 81 c1 69 3e
       0.054691475 -0.18965404 -0.6541731 0.22827722
000200 aa 4d a0 3d 7d 36 93 3d 9a 44 15 3c 78 02 cd 3e
       0.07827313 0.07188127 0.009110594 0.40040946
000210 41 b0 66 3c e3 26 00 bf 91 fc 43 3e 40 4c 4f 3e
       0.014080108 -0.50059336 0.19139315 0.20243931
000220 43 f3 6d 3e 27 e2 99 be b2 1e ae bc 5b 4f 84 3e
       0.23237328 -0.30055353 -0.021254871 0.25841793
000230 d9 8d 54 3e 4a af 82 3a 82 1e 1b 3e d2 a1 d8 be
       0.20757236 0.0009970453 0.15148357 -0.4231096
000240 26 0e af 3e fa 25 a0 3e 61 de dd be 77 c3 04 be
       0.34190482 0.31278974 -0.43333724 -0.12965189
000250 eb 96 c0 3e 83 43 10 bf e0 2f 93 3e 7e 9b 7d 3b
       0.3761514 -0.56353015 0.28747463 0.0038697417
000260 45 b5 0d bc 9b 2c a0 be d2 f0 ce be 1a a8 54 be
       -0.008649175 -0.3128403 -0.40418106 -0.2076725
000270 5c da 85 3e e7 ad ce 3d f0 49 d5 bc b7 62 05 bf
       0.26143157 0.10091763 -0.026036233 -0.5210375
000280 d4 f5 ea 3e 1c df 29 be 69 10 ef 3e c8 b1 aa 3b
       0.45890677 -0.16589016 0.46692207 0.0052091815
000290 19 cc 50 3e 12 11 53 bd 6d 85 96 3e 48 67 cc be
       0.20390357 -0.05152995 0.2939867 -0.39922547
0002a0 ae e5 7c 3e 8e 92 80 be c4 44 46 bf cc ae 32 3e
       0.24696991 -0.25111812 -0.7744868 0.17449492
0002b0 82 0e fc be b4 5a b6 be 21 02 f3 3c 99 96 56 be
       -0.4922982 -0.35616076 0.029664101 -0.20955886
0002c0 be ff 8d 3d c2 d6 04 be a0 f8 87 be 27 f6 f7 be
       0.069335446 -0.12972549 -0.26556873 -0.48429987
0002d0 33 8b b8 3e 86 06 c6 be 6a a3 1f 3d 7c 24 4f bd
       0.360437 -0.38676852 0.038974203 -0.050571904
0002e0 67 e8 51 3d 26 4f c6 3e f7 33 50 be d3 93 56 3d
       0.051247027 0.3873226 -0.20332323 0.05238707
0002f0 6c 9d 5f 3e 7b f3 a1 3e 14 51 2b bf a3 14 27 bf
       0.21837395 0.31631073 -0.6692059 -0.65265864
000300 4e dc 65 3b 2d 13 2f be 42 be 75 3e c0 5e b4 3e
       0.0035073939 -0.17097159 0.23998359 0.3522854
000310 de 35 74 be 9d 42 e3 3e 3c 4d d0 3d 6a bd 9c 3e
       -0.23848674 0.4438676 0.10170981 0.3061326
000320 b0 fb c4 be d4 a6 c5 bd 32 ee 2f 3e 1c e5 0e bf
       -0.38473272 -0.096509606 0.17180708 -0.55818343
000330 e0 c4 e0 3e 57 b2 e9 be 9f 33 1a 3f 20 3c cb 3c
       0.43900204 -0.45643875 0.6023502 0.024808943
000340 e1 5e 17 3f 01 12 cf be 97 39 fa bd 11 15 2e 3e
       0.5912915 -0.40443423 -0.12218016 0.17000224
000350 01 ba 74 3e b4 d5 07 3e 10 4e 14 bf 74 b1 5a be
       0.2389908 0.13265115 -0.57931614 -0.21356755
000360 10 60 e1 3d 29 60 19 3e d9 ba 12 bf 6e 6b 6c be
       0.110046506 0.14978088 -0.57316357 -0.23087856
000370 2a 89 cd be c6 b5 aa be f7 6f d2 3d aa ae e2 be
       -0.4014371 -0.33341807 0.10275262 -0.44273883
000380 03 17 fa 3d 49 4d 04 3f 6b 62 83 be 30 35 3a bf
       0.122114204 0.5168043 -0.25661024 -0.7273741
000390 9e 34 38 bc 7f ee 21 3f 21 da 28 bc c5 fe 4b be
       -0.011243014 0.6325454 -0.010305912 -0.19921406
0003a0 8b a0 06 3e d2 f7 ca 3e 1e ec 02 3f 88 ef 35 bf
       0.1314718 0.39642197 0.51141536 -0.7106862
0003b0 f9 07 86 3b a3 16 01 bf 11 d3 be bd 5e 2b cc be
       0.004090306 -0.50425166 -0.093176015 -0.39876837
0003c0 fa 99 18 3e ea 7a f9 3d be 22 95 3d 6b 3c 0f bf
       0.14902487 0.12181647 0.07282017 -0.55951566
0003d0 aa 3f 58 bd 9f 82 c4 3e 01 45 81 3e 22 3f 63 bc
       -0.05279509 0.38380906 0.25247958 -0.0138700325
0003e0 44 0d 93 be 86 de dd be b3 9b 48 3e bd b7 13 3e
       -0.28721058 -0.43333834 0.19590645 0.1442556
0003f0 bf e4 08 3e 88 14 a1 be 41 f2 02 3b e1 ec d8 be
       0.1336851 -0.31460977 0.001998082 -0.42368224

net.2.weight f4 [256, 256]
000000 bf 01 42 bd 0f 2c 34 3d d1 e7 6c 3d 38 78 18 3d
       -0.047364946 0.04398733 0.057838265 0.037224025
000010 dc 2f 74 bd 7c fe 8c bb 2a 6f 32 3d 00 91 d3 bc
       -0.059615955 -0.004302798 0.043563046 -0.025825977
000020 9c 13 1d 3d 67 02 85 bd 99 e1 b2 bd f6 25 67 bd
       0.03834878 -0.06494599 -0.087344356 -0.056432687
000030 d1 2e c8 bc 77 c2 3b bd 3d 85 6e bc 7a c7 a7 bd
       -0.024436386 -0.045839753 -0.014558134 -0.08192344
000040 52 b4 42 3c e7 1c 00 bd 2e 14 cf 3c 3c 6c 79 bd
       0.011883812 -0.031277563 0.025278177 -0.060894236
000050 51 47 f5 bc ef 79 0e be e1 a0 5d 3d 99 bc 9b bd
       -0.029941233 -0.13913701 0.054108504 -0.076043315
000060 dc 79 e6 3d 30 c6 32 bc 8e a1 f3 3d 5c 88 51 3b
       0.112537116 -0.010911509 0.118960485 0.0031972146
000070 22 61 2c bd 7b c9 4a bd 68 e5 b3 bd c9 0a 95 bd
       -0.04208482 -0.049508553 -0.0878399 -0.07277448
000080 49 25 b5 3c 64 fb 09 bd e7 1c 31 3c d5 78 f3 bc
       0.022112506 -0.03368701 0.0108101135 -0.029720703
000090 4f 8a 85 bd 33 d5 76 3d 47 07 47 3c 22 44 62 bd
       -0.06520521 0.060261916 0.012147731 -0.055240758
0000a0 59 66 82 3d 42 cd 8a 3d cd ab 72 3c e9 17 61 3d
       0.063671775 0.06777431 0.014811468 0.054954443
0000b0 b2 5b 28 bd af 8a 23 3d 06 c4 fe bc 35 ed b3 bd
       -0.041103072 0.03992718 -0.03109933 -0.08785478
0000c0 a3 7a 4f 3c ae 5f c7 3c b2 1c e2 3d 4e 83 d9 ba
       0.012663516 0.024337616 0.110406294 -0.0016594918
0000d0 91 31 ab bb 63 f0 8a 3d 80 e7 b2 bc fc 36 49 3d
       -0.0052244146 0.067841314 -0.021838903 0.049124703
0000e0 a2 b6 0d 3d 85 60 24 bd 8c 53 66 bb 2e 26 f3 3c
       0.034598 -0.04013111 -0.0035145013 0.029681291
0000f0 f4 08 71 bd 53 2b fc 3c f2 4c 55 3d 17 f7 f3 3d
       -0.05884643 0.030782377 0.052075334 0.11912363
000100 e1 ab 33 be c2 64 74 bc 86 c8 b2 bc 93 4d 5d bc
       -0.17546035 -0.014916601 -0.021824133 -0.013507265
000110 23 70 94 3d 68 93 51 bd 82 67 a9 bb d8 63 10 bd
       0.07247951 -0.05116597 -0.00516981 -0.03525147
000120 56 f8 5d bb 6d c5 8b 3d bc 1f 24 bd da cb d2 3c
       -0.0033869944 0.06824765 -0.040069327 0.02573197
000130 9c 5a 00 bc 55 e0 d2 bd 2b 13 19 3d e0 72 69 3d
       -0.007834103 -0.10296694 0.037371796 0.05699432
000140 de 55 80 bd d6 25 0b 3d 86 ca c8 bc 44 8c de 3d
       -0.06266378 0.03397163 -0.024510633 0.10866597
000150 c1 bc d4 bd 70 ff b3 bb e7 45 dd bc 43 4d 55 3c
       -0.103875645 -0.005493097 -0.027010871 0.013018909
000160 8f 04 65 bd ea c3 18 3d df 78 bc bd a2 24 23 3e
       -0.05591255 0.037296213 -0.09202742 0.15931943
000170 67 9d 4a 3c 98 6e ce bd c0 75 75 bd a7 18 d0 bd
       0.012366629 -0.10079688 -0.05992675 -0.10160952
000180 c7 07 61 bd a0 f9 16 be 6e 8c 26 3d cf 45 1f bd
       -0.054939058 -0.14743662 0.040661268 -0.038884934
000190 06 97 14 3d 5d 6f e5 bd 32 61 15 3d 5a 46 fd 3c
       0.03627684 -0.112028815 0.036469646 0.030917335
0001a0 a9 14 6f 3c 4a 67 25 3d 88 12 ab bc 66 d5 62 bc
       0.014592328 0.040381707 -0.02088286 -0.013844823
0001b0 ad 0f 12 3b 6c 8f e4 3d 2a 6e b5 3c 47 23 e7 3d
       0.0022287176 0.11160168 0.022147257 0.112860255
0001c0 98 54 fc bc fe da 8c 3d 57 26 1f be 38 96 06 bd
       -0.030802056 0.06877707 -0.15541969 -0.032858104
0001d0 54 cf dc bd 67 d9 83 bd 2a 48 76 bb b3 7e db bd
       -0.10781732 -0.064379506 -0.0037579634 -0.10717525
0001e0 da b0 0b 3c bc 04 0c 3d ec 55 92 3d a0 5e 8b bd
       0.008526051 0.034184203 0.071452945 -0.06805158
0001f0 ed c4 8c bd fe 2f 4e bc e7 d5 b5 3c a1 9c d0 bc
       -0.06873498 -0.012584684 0.022196723 -0.025465311
000200 1d ef bc 3c 90 5c 71 bd 81 5a 69 bd b8 be 51 bd
       0.023063237 -0.058926165 -0.056971077 -0.051207274
000210 da 11 8b 3c 1e 90 c8 bc e6 00 59 3d bc c5 8c bd
       0.016976286 -0.024482783 0.052979372 -0.06873652
000220 a5 5a 0f 3d cd 03 62 bd 9c ca ac bc d2 63 c1 3d
       0.034998555 -0.055179406 -0.021092705 0.09442867
000230 a6 7b 72 3d 6b 34 d4 bc 92 40 e6 3d a2 69 fc 3c
       0.05919995 -0.025903901 0.112427846 0.030812088
000240 da 3c 60 bd f6 f0 f6 bc a4 6b cb bd 11 25 64 bd
       -0.054745533 -0.030144196 -0.0993264 -0.05569941
000250 c0 c7 9e bd e3 8b 25 bd bc e5 f1 bc b4 87 fa bd
       -0.07752943 -0.04041661 -0.029528491 -0.122329146
000260 c8 92 cb bc 8c a4 9a 3d 29 33 ad bd 59 67 2d bd
       -0.024850264 0.07550916 -0.08457024 -0.042334888
000270 8e 17 36 bd a9 77 02 be 4e b9 86 3d d9 40 69 3d
       -0.044456057 -0.12740959 0.06578313 0.05694661
000280 ac cc c6 bb ae c1 f6 3c ad 79 20 bd 8e b4 92 bb
       -0.0060668793 0.03012165 -0.03917854 -0.00447709
000290 b1 11 30 bd bf 5d ec 3b 4c ae c4 3c be 7f 53 bd
       -0.04298562 0.007213324 0.024008892 -0.051635496
0002a0 bb d0 53 3d ca a4 09 bd 89 fb 14 bd 93 66 79 3c
       0.051712733 -0.03360442 -0.036372695 0.0152222095
0002b0 52 7d 59 bd b7 69 48 bd d7 22 f9 3c 97 4b 49 bd
       -0.05309803 -0.048928943 0.03041212 -0.049144354
0002c0 3f 63 86 ba 63 a2 e2 bd 91 22 d8 bc 70 9b 60 3c
       -0.0010252966 -0.11066129 -0.02638367 0.013708934
0002d0 87 a0 db 3c a6 9a 84 3d 98 bc 4a 3d 0d 3f 09 3e
       0.026809944 0.06474809 0.049496263 0.13402958
0002e0 1e 84 dc bd 45 4d df bc 2e 84 ab 3d a2 0d bc 3c
       -0.10767387 -0.027258525 0.08374821 0.02295572
0002f0 0f f3 bc bd 19 0e c8 bd 64 af 08 be 4c 0d 01 3d
       -0.09226047 -0.09768314 -0.13348156 0.03150682
000300 58 ea 31 3d c0 53 8b bd 4e 67 80 bd 52 e4 1f be
       0.04343638 -0.068030834 -0.06269704 -0.15614441
000310 28 1e e5 3b f4 23 24 bd 9b 66 2c bd 22 c3 02 bc
       0.0069921203 -0.04007335 -0.04209004 -0.007981094
000320 fe c0 35 3d ad 1d d0 3b 96 0f b1 bd 16 13 e0 3b
       0.044373505 0.006351194 -0.08645551 0.0068382127
000330 de 6a 7d bb 81 ea 11 3e c6 60 ae 3d f1 f6 00 3d
       -0.0038668434 0.14249612 0.08514552 0.0314855
000340 ad 93 f1 3c 25 b3 c6 3c f5 f1 1f 3d a9 28 9a bd
       0.029489363 0.024255345 0.039049108 -0.075272866
000350 7f d1 88 bc f4 c6 b6 3a e2 3e 2a bd c4 29 8a 3d
       -0.016701458 0.0013944791 -0.041563876 0.067462474
000360 fb 65 1b 3c 19 10 c3 3c ae 10 9c 3c a4 92 58 bd
       0.009484763 0.023811387 0.019050922 -0.052874222
000370 12 45 98 3d 5a 68 02 3d 47 f8 bb 3d f7 18 09 3d
       0.07435049 0.0318378 0.091782145 0.033471074
000380 16 3a 80 bd 38 9c b4 3a 8c 4f e2 3d 0e fb 28 bd
       -0.06261079 0.0013779467 0.110503286 -0.04125505
000390 b3 15 e8 3c 61 8c 19 bd 24 4b 72 3d ed 15 cd bd
       0.02833066 -0.03748739 0.05915369 -0.10013948
0003a0 b2 8c 99 3d 5d 19 f0 3b eb 57 ca 3d dd 73 a2 bc
       0.074975386 0.0073272423 0.0988005 -0.019830639
0003b0 86 85 8e 3d 54 8c 71 bc 7b 53 6b bd 3d d6 80 3c
       0.06959061 -0.0147429295 -0.05745266 0.015727157
0003c0 51 ff 32 bc f9 df 8c bd e5 c6 af 3b 3e 5e a0 3c
       -0.01092513 -0.06878657 0.0053642862 0.019576188
0003d0 5f 33 94 bd af 53 c2 3b 5b 66 b6 3d 85 5f 25 3b
       -0.07236361 0.005930386 0.089062415 0.0025233936
0003e0 ad 3f c7 bc 98 c3 c5 bb 12 3e 09 bb c5 db e3 bd
       -0.024322355 -0.0060352795 -0.0020941538 -0.11125902
0003f0 df 13 4c 3d 44 7c f3 3b b2 ca 12 3d 7e 92 eb bb
       0.049823638 0.007430585 0.035837837 -0.007189094

net.2.bias f4 [256]
000000 3c 97 88 3d f0 b6 a8 bc 5c 6e df bc 00 2b d7 bc
       0.06669471 -0.020595044 -0.027274303 -0.026265621
000010 fc 5b 11 3d 8e ef fc bb 8d c4 fa 3c f3 0f a6 3b
       0.035488114 -0.007718987 0.0306113 0.0050678193
000020 80 02 05 3e 82 fa 25 3d cc 8a 2d 3d 68 2d d8 bc
       0.12989235 0.040522106 0.042368695 -0.026388839
000030 d4 c3 34 3d 0a c8 c9 3c 67 5c 18 bd 50 0d 8f bd
       0.04413207 0.024631519 -0.037197497 -0.06984961
000040 97 44 38 3d 77 7b dd 3c 8b e2 21 bc b5 ac 81 bd
       0.044987287 0.027036412 -0.009880672 -0.063317694
000050 19 bd 9c bc 34 32 3f 3d 3c 95 1d bc 52 3d 4d bd
       -0.019133138 0.046678737 -0.0096181 -0.050107308
000060 75 3f a7 bb 06 a4 75 bc dd 25 e9 bd c0 a9 69 bd
       -0.005104 -0.0149927195 -0.11384175 -0.05704665
000070 8a c0 1f 3c 93 92 3a bd fc d4 8f 3c e0 2a 27 bc
       0.009750495 -0.04554994 0.017557614 -0.010203093
000080 f9 34 60 bc 7a c9 e4 bc b1 23 8e 3b d5 4b a2 3c
       -0.013684505 -0.027928103 0.004337751 0.01981155
000090 02 6d 5e 3b 06 65 1b 3d 38 81 e5 bd 18 1e 85 3c
       0.0033939485 0.03793814 -0.11206287 0.016249701
0000a0 fd 7d 7e bd da b5 10 bd 3d f1 96 3d fe cc f9 bc
       -0.06213187 -0.035329677 0.07370231 -0.030493256
0000b0 7b 75 20 3c 21 b6 5e 3d 6c e5 9e bd 15 41 56 bd
       0.0097936345 0.05437291 -0.077586025 -0.05230816
0000c0 dd 4f 9e bc d0 04 f0 bc 7d 35 88 3c 05 38 fe bd
       -0.019325191 -0.02929917 0.016627068 -0.12413029
0000d0 96 a7 9a bc d3 64 4f bd 81 65 d1 bd 06 8e a7 3c
       -0.01887874 -0.050633263 -0.102244385 0.020453464
0000e0 47 5b eb bd bb d0 79 3c 9d 9a b1 3d 32 81 0d 3d
       -0.11492019 0.015247519 0.08672068 0.03454704
0000f0 dc 57 f7 3c 47 b8 88 bd 6d e1 7e be ad a7 1e bd
       0.030193262 -0.06675773 -0.2489068 -0.038734127
000100 b3 3a 1b bd 66 cd ad 3b 5b 63 03 3e ba 8c 14 bd
       -0.037897777 0.0053040264 0.1283087 -0.03626702
000110 d0 5f 34 3d b5 ba 54 3d e1 4c 53 3c b2 5d 54 bd
       0.044036686 0.05193587 0.012896747 -0.051847167
000120 55 67 ec bb 3a dd bb 3a b3 a4 57 bd 18 af a5 3c
       -0.0072144666 0.0014332898 -0.052647304 0.020225093
000130 05 fc 11 bc b8 71 5e 3d 56 a6 92 bc 22 13 28 3d
       -0.008910184 0.05430767 -0.01790158 0.04103387
000140 57 69 04 bd 76 11 f4 bd a0 23 22 3d a6 81 09 3d
       -0.032327022 -0.11917393 0.039584756 0.033570908
000150 9f 24 ce bb 2d 53 98 3d ee 54 0d bd f8 90 8d 3d
       -0.0062909867 0.074377395 -0.034504823 0.06912416
000160 d2 ae d9 bc 88 7d 05 be ea ae 77 3c 4a 86 40 bd
       -0.026572619 -0.13036168 0.015117386 -0.047003068
000170 0d 52 38 bc 4a d8 13 3c 4e e8 1e be 86 2b 76 3d
       -0.011250031 0.009023735 -0.15518305 0.0601001
000180 a5 84 97 3d dc 84 92 3d cb 91 85 bd d2 09 1b 3c
       0.07398347 0.07154247 -0.065219484 0.009462791
000190 9e b1 c9 3d be 52 5d bc dc 74 a9 3c 1f e7 38 bd
       0.09848331 -0.013508497 0.020685606 -0.04514229
0001a0 cb f1 03 3d 40 24 7f 3d 91 51 d1 bc 18 a9 29 be
       0.032213014 0.06229043 -0.02555159 -0.1656841
0001b0 16 6e 24 bd ff a9 1c bb 1b 08 ae bc aa 01 82 3d
       -0.04014405 -0.0023905037 -0.0212441 0.06347974
0001c0 b9 af 44 3d b6 0b 36 bc 24 ea 41 bd e3 a2 e3 bc
       0.048019145 -0.011111191 -0.047342435 -0.027787631
0001d0 50 dc a3 3d 2e 02 03 bd 1f 00 2d 3d ab 9c d1 bc
       0.08001006 -0.0319845 0.042236444 -0.0255874
0001e0 60 ac 02 3d 96 49 9c bd c2 d8 d4 bc 54 e9 72 3b
       0.03190267 -0.07631223 -0.025982264 0.0037065344
0001f0 77 ea 93 3d 37 94 80 3d 69 e0 09 be c6 2b f6 bc
       0.07222455 0.0627827 -0.13464512 -0.03005017
000200 a3 75 cd 3c 63 19 1d 3c e4 bf 62 bc 66 11 5e 3d
       0.025080508 0.009588572 -0.013839696 0.05421581
000210 a9 b5 f5 bc 3c a1 9e 3c 2a 4f fa bc 6e 1c b9 bc
       -0.029993849 0.019363992 -0.030555326 -0.022596564
000220 13 a1 ea bb 9c e1 ac 3d 19 c9 94 3d 99 80 aa bc
       -0.007160315 0.08441469 0.07264919 -0.020813273
000230 14 81 4f 3c c1 5f 8c 3d be ee b2 3b ae 24 8f 3d
       0.012665052 0.06854201 0.005460589 0.06989418
000240 f4 56 28 bc 13 dc 68 bd 29 2e 21 bd 8c f7 c9 3c
       -0.0102746375 -0.056850504 -0.039350662 0.024654172
000250 48 7a a7 3d 17 a6 39 3d 5e d9 45 bb cd cb 59 3d
       0.0817762 0.04532441 -0.0030189375 0.053172875
000260 58 3a ff bc d3 32 2d bd 28 c1 3b 3d 12 63 8c 3d
       -0.03115575 -0.042284798 0.045838505 0.06854834
000270 8b 6f 81 bd 8a fa 2e bd b1 b7 8f bd 7a 39 dc 3d
       -0.06320103 -0.0427194 -0.07017458 0.1075315
000280 05 bf 85 3d 39 d5 de 3d cf 50 68 3d f8 86 06 be
       0.06530575 0.10880513 0.05671769 -0.13137424
000290 26 73 05 3c ed 27 ff bb 15 45 e9 ba f0 bd 1c bd
       0.008145129 -0.007786742 -0.0017797077 -0.038267076
0002a0 44 fa c8 3c 36 97 86 3c 24 87 44 3d 75 ee 70 3d
       0.024533398 0.016429525 0.047980443 0.05882116
0002b0 b5 17 9a 3c 37 58 74 bc fd 3a 3c ba e8 b7 3e bd
       0.018810133 -0.01491361 -0.0007180421 -0.046562105
0002c0 c8 75 9d bc 38 ad e7 bc c6 df 10 3d 75 f7 c0 bb
       -0.019221202 -0.02828084 0.035369657 -0.005888874
0002d0 64 89 d8 3c 09 ac 8e bc 96 70 8f 3d 51 1b c9 bc
       0.0264327 -0.017416017 0.07003896 -0.024549158
0002e0 a0 68 2c 3c 2d ac af bb d8 06 3b bd 58 c4 13 bd
       0.010522991 -0.005361101 -0.045660824 -0.03607592
0002f0 f5 30 e5 bd 15 3f e0 bb ee 83 df 3a e6 fd cc 3d
       -0.111909784 -0.0068434575 0.0017052868 0.10009365
000300 59 01 46 3c 3d 60 ce 3d 72 0a 7c 3c 30 91 ba bb
       0.012085282 0.1007695 0.01538335 -0.005693577
000310 eb d2 21 bd bf b0 00 bd 5d 0e a6 3d d6 3e 26 bd
       -0.039507788 -0.03141856 0.08108208 -0.04058727
000320 26 e5 0e bc 27 a3 cc bc 93 57 68 bb ff d2 08 bc
       -0.008721625 -0.02498014 -0.003545259 -0.008351087
000330 4d 46 c9 ba 18 0d 17 3d a4 23 6c bc 0f c7 64 bc
       -0.0015356034 0.03687772 -0.014412794 -0.013963475
000340 f6 eb 3b 3d 74 e3 1a be 42 82 f0 bd ac 25 c4 3c
       0.045879327 -0.15125829 -0.11743595 0.023943745
000350 de ee 40 bd 0d b2 24 3c 6c ec bc 3d 57 d1 2a bd
       -0.0471028 0.010052216 0.092247814 -0.04170355
000360 52 33 ed bc ac ea 5f 3d 2d fb e4 bc e4 0f df 3d
       -0.028955135 0.05466716 -0.027951801 0.10891703
000370 61 f3 26 3d e6 1c ee 3c 36 93 14 3d 22 b5 a2 3d
       0.040759448 0.029066514 0.036273204 0.079447046
000380 82 da 27 3d 21 24 85 3d c5 99 a0 3d 4a f6 99 3d
       0.04097987 0.06501032 0.07841829 0.07517679
000390 bf 38 63 bd 17 2f 28 3d 09 95 39 bd 17 70 80 3b
       -0.05547404 0.041060533 -0.045308147 0.003919612
0003a0 1a 01 87 bd ee 93 10 be 0d 0e 92 3c ae 03 e0 ba
       -0.06592007 -0.1411893 0.017828966 -0.001709094
0003b0 90 d5 62 3b ec fa 30 3d cc 17 78 bd 4d 1e 8c 3c
       0.0034612156 0.043208048 -0.06056957 0.017104292
0003c0 b3 6a ca bc c0 7f 73 3c c8 56 0d 3d f2 13 ae bd
       -0.024709081 0.014862001 0.03450659 -0.08499898
0003d0 7f 0c b4 3c 1e 0a af bd 48 d3 89 3d 9c c9 47 bd
       0.021978615 -0.085468516 0.06729752 -0.048776254
0003e0 76 91 25 38 db 82 7a 3c f4 c8 73 bd ef d1 25 bd
       3.9474537e-05 0.015289987 -0.059517816 -0.04048341
0003f0 cf f7 ba bd 47 df 59 bc 30 b5 2c 3d cd c5 c6 3c
       -0.09129297 -0.013297862 0.04216498 0.02426424

net.4.weight f4 [256, 256]
000000 8e ef 00 3d 41 ba b9 bc 60 b4 52 3c 53 c6 0f bd
       0.031478457 -0.02267182 0.012860388 -0.035101246
000010 dc 41 4b bc 59 61 b2 3c 44 58 f5 bb 26 c3 7d bc
       -0.012405839 0.021774935 -0.0074873287 -0.015488422
000020 03 d5 18 3b 68 ba 07 bc 7e a3 e4 b9 a0 e5 7f 3b
       0.0023320324 -0.008284189 -0.0004360936 0.003904678
000030 65 4a d7 bc 97 df 3d 3c 36 55 78 3a 5d 1f 0a 3d
       -0.026280591 0.0115889525 0.00094731466 0.033721317
000040 b2 aa a1 3c d0 59 7a bb fb 1b 85 bb a0 ee 04 3c
       0.019734714 -0.0038200505 -0.0040621734 0.008113533
000050 0d 2c 79 bc e3 a5 02 ba 1b fd 6b bc 0c 33 62 bc
       -0.015208256 -0.00049838255 -0.014403607 -0.013806116
000060 c0 9b b4 3b d3 7b 52 3d a5 db 70 3c 67 4b 3d 3b
       0.005511731 0.05138762 0.014700805 0.0028884055
000070 93 4e a9 3b 5e ec 1c bb 5f f5 fc 3c e4 a3 b8 bb
       0.0051668375 -0.0023944597 0.03087872 -0.0056347717
000080 b3 c0 91 3c 7a 10 f6 3c 5e 4a 9e 39 81 d6 99 bb
       0.017792081 0.030037154 0.00030191516 -0.0046947603
000090 6b f3 7f bc c4 13 8c 3c 76 21 a0 3c b8 c6 29 3d
       -0.015622 0.017099269 0.019547205 0.04144928
0000a0 c3 52 1a 3c 44 bf 7b 3c 0f 31 60 3a 62 6d 2b 3c
       0.009419146 0.0153654255 0.0008552232 0.010463091
0000b0 29 0e 8d bc 4b 5f 65 bc 19 2d 79 bb a2 5b 0c 3c
       -0.017218666 -0.01399977 -0.0038021265 0.008566769
0000c0 68 5d b7 3a b2 21 84 3c 9d b7 16 3c e6 a3 53 bd
       0.0013989629 0.016129348 0.00919905 -0.051669978
0000d0 11 c3 d2 bb 0a e9 79 bc 56 4c 86 3c e4 e5 02 bb
       -0.006431945 -0.015253315 0.016393822 -0.0019973451
0000e0 20 40 eb 3c 6c 87 57 39 c7 d3 34 38 55 c1 ec bb
       0.0287171 0.00020554446 4.3112577e-05 -0.0072251954
0000f0 10 d7 c7 bb ef 5b a0 3c 99 66 d3 39 94 bb 3d 3c
       -0.0060986355 0.019575087 0.00040321497 0.011580367
000100 2c 4e 0a bd 20 c4 07 3a 98 98 7d bd 28 45 22 3d
       -0.033765957 0.0005179066 -0.061913103 0.039616734
000110 55 64 90 bc db 00 1b 3c 29 45 60 bc 0c 00 73 3a
       -0.017625967 0.009460653 -0.013688364 0.00092697213
000120 ba ca d7 ba a3 24 ac bb b6 35 07 3b 6e 4a 53 bc
       -0.0016463615 -0.005253391 0.002063138 -0.012896163
000130 1b d0 41 bb 54 be fa 3c 07 fe 20 bc 76 8f 25 3c
       -0.0029573503 0.030608334 -0.00982619 0.0101050045
000140 63 29 9b bb 53 77 4f 3c dc 3a 97 3c 3d ea 7b bc
       -0.0047351583 0.012662726 0.018460684 -0.015375671
000150 b3 5d 96 bd 68 52 34 bc 0e bd e5 3b ab 29 8e bc
       -0.073420905 -0.011005975 0.0070110625 -0.017353853
000160 c1 89 06 bb 25 cd 23 3d 48 20 00 bd 9a ce 2e 3c
       -0.0020528885 0.039990563 -0.031280786 0.010669375
000170 66 db 8b bb d9 94 9b bc 8c c3 40 bd 6f 0b b7 bb
       -0.0042680977 -0.018991875 -0.047061488 -0.00558608
000180 fe 84 d9 bc 48 24 70 bb 95 e3 6f bc a0 bc d1 bb
       -0.026552673 -0.003664272 -0.014641662 -0.0064006597
000190 86 9a 79 ba 71 b8 ad bc 22 c9 76 3d 46 88 85 bc
       -0.0009521622 -0.021206113 0.06025041 -0.016300332
0001a0 b3 9e 06 bb 2e 3b 8c 3c c1 f0 0f bc 00 e1 2f 3c
       -0.002054137 0.017118063 -0.008785428 0.0107347965
0001b0 83 12 27 bb 2a cd a9 3c 3e 4b 42 3c 5c 3d f2 3b
       -0.0025493212 0.020727713 0.011858759 0.0073925685
0001c0 1b fc 01 3c 43 30 c6 bb 03 1e 0a bc 6c f3 7c 3b
       0.007933642 -0.0060482337 -0.008430007 0.003859724
0001d0 b7 09 07 3c 3a fd 4a 3d 7f 2c c8 3c e3 3c 1f 3d
       0.008242062 0.049557902 0.02443528 0.038876425
0001e0 92 53 81 3c b8 51 41 3b 3b 59 63 3c c5 dd 91 bc
       0.01578692 0.002949817 0.013876255 -0.017805943
0001f0 c8 a8 92 bc 86 c6 73 bb ce 5d 13 bc f4 72 82 bc
       -0.017902747 -0.0037197187 -0.008994533 -0.015923955
000200 c8 b3 13 bc 4f 00 68 bc 07 b2 be bb 67 f0 2e bc
       -0.009015031 -0.01416023 -0.0058195624 -0.010677434
000210 09 38 6b bc 0e 75 1d bc cd d1 cb bc ff dc e3 3b
       -0.014356622 -0.009610428 -0.024880314 0.006953835
000220 ab 88 b4 bc 95 79 2f bc 01 da 06 bc 55 1a c4 bc
       -0.022037825 -0.01071014 -0.008230687 -0.023938337
000230 9e 6b 29 ba 77 0e 0f 3b 12 ce 57 3c 5f 72 e2 bb
       -0.00064628746 0.002182869 0.01317169 -0.0069106068
000240 09 82 0d bd db c6 97 3c 5f 1d 46 bc cc 1e c3 3c
       -0.03454784 0.018527439 -0.012091964 0.023818396
000250 45 85 06 bb 03 67 48 bc 49 e3 a0 bc b4 32 93 bb
       -0.0020526212 -0.012231591 -0.019639628 -0.0044921283
000260 27 4e cf 3b 4e 93 b9 bb 56 bd 92 bc 51 81 86 bc
       0.006326455 -0.005663312 -0.017912548 -0.016419085
000270 89 60 a9 3c c4 33 0b bc d7 be 67 3b 5c 40 96 bc
       0.020675914 -0.008496229 0.0035361552 -0.018341236
000280 03 cc 4c 3c 86 98 6f ba 84 e6 d2 bc 6f 0f 1d bd
       0.012499812 -0.0009139854 -0.025744684 -0.038344797
000290 5d 7c 15 3d b7 e7 22 3c ec 2d 95 bc d7 52 ce bb
       0.036495555 0.00994294 -0.018210374 -0.0062964964
0002a0 a2 18 16 bc 21 ed 5a 3c 8a ab 4f bc a3 08 dc 3b
       -0.009161146 0.0133622 -0.012675175 0.0067148968
0002b0 8b d8 e6 bc 32 a8 27 3c d5 01 55 bc ff 6c e6 bb
       -0.028179428 0.010232972 -0.013000925 -0.0070320363
0002c0 23 2a 9d bc e7 d1 dc 3c 0c 89 db 3a 61 df 0b bc
       -0.019185131 0.026955558 0.0016749217 -0.008537144
0002d0 26 62 9b 3c 85 ed 96 bc b9 9b 2a bd 62 5e c8 3b
       0.0189677 -0.018423805 -0.041652415 0.006114767
0002e0 00 66 99 bb d9 f5 25 bc 5e a4 76 3c 33 b1 9e bc
       -0.004681349 -0.010129415 0.015053837 -0.019371605
0002f0 e4 40 da bc 74 e3 06 bc b9 30 8e 3c 5a 2d fa bb
       -0.02664227 -0.00823294 0.017357217 -0.007634801
000300 41 70 81 3c e9 e4 a7 bc a6 86 88 bc 8e e3 4e bc
       0.015800597 -0.020494895 -0.016665768 -0.012627495
000310 e9 ff 50 bc 25 fa b4 3b 87 2f 9a 3b 40 0e b1 3c
       -0.012756326 0.0055229836 0.0047053727 0.02161324
000320 31 94 25 3c 5b 31 13 3c 58 29 2e bb 13 db a4 bb
       0.010106132 0.008983935 -0.0026574936 -0.0050309985
000330 cb bd 4c ba ac a1 9e ba a6 5f 61 b8 96 5e c0 bc
       -0.0007810264 -0.0012102625 -5.373326e-05 -0.023482602
000340 62 5e 92 3c b9 08 2d 3b 56 b7 18 bd 5e 8b 19 bc
       0.01786727 0.0026402904 -0.037284218 -0.009371607
000350 31 08 c6 bc 94 3d c1 3c e1 a9 2b bc 1d 7a f9 bc
       -0.024173828 0.023588933 -0.010477514 -0.030453736
000360 a7 df dc bc 41 16 49 3b 20 6e 08 3b 2d d6 26 bd
       -0.026962114 0.003068343 0.0020817593 -0.040731598
000370 7e 9e 57 bb 42 bb 36 3c 1e 17 73 3b 2a 9f 69 bb
       -0.0032900865 0.011153044 0.0037092636 -0.0035647848
000380 f7 5d 25 3c 8c 0c 13 3b c6 e7 95 ba 6e 4d 27 bb
       0.010093204 0.0022437898 -0.0011436872 -0.002552833
000390 12 22 4a bd 0f a3 23 bc 39 f1 89 3c 1e bc ad 3c
       -0.0493489 -0.009987607 0.016838657 0.021207865
0003a0 b6 5a b1 3c 40 a4 0f 3b 92 06 33 bc 13 b7 27 3c
       0.0216497 0.002191797 -0.010926859 0.010236519
0003b0 0b 0e 33 bd e4 43 a7 bb a9 0b 13 bc c9 f2 ce bb
       -0.043714564 -0.0051045287 -0.008974948 -0.0063155633
0003c0 e8 18 71 bb 44 5b 72 3a 84 f3 85 3b 32 b6 a2 3c
       -0.0036788527 0.0009245167 0.004087867 0.019862268
0003d0 47 b0 89 3a f3 bc 12 3d 97 63 07 bc 78 06 38 3d
       0.0010504805 0.035824727 -0.00826349 0.044928044
0003e0 84 7e 4a 3c a1 f2 05 3a be 37 2a bc c0 1a 83 ba
       0.012359265 0.0005109702 -0.010389267 -0.0010002479
0003f0 69 ab 69 bb 44 91 b2 bc 6f 5b b0 3b c7 9f 1a bd
       -0.0035655147 -0.021797784 0.0053819935 -0.03775003

net.4.bias f4 [256]
000000 62 bb a3 bc ed e8 11 be 29 e9 e6 3c 08 4e 90 bd
       -0.019986812 -0.1424901 0.028187351 -0.07046133
000010 ac a0 0d be b6 e6 52 3d 19 45 74 bd 22 46 35 3c
       -0.13830823 0.051489554 -0.05963621 0.011064084
000020 5c 4d e4 bd 89 a8 e7 3c f7 fc 0b 3c e6 9c 67 3d
       -0.11147568 0.028278606 0.008544198 0.056546114
000030 45 23 b7 3d fc 6b 0f bd 31 b3 11 bd 94 a0 33 bd
       0.08942274 -0.03501509 -0.03557128 -0.04385431
000040 01 5f 10 bc 0a 6e a5 b9 82 ab 9c bb c8 38 cd bc
       -0.008811713 -0.00031553238 -0.0047811875 -0.02505149
000050 fd 65 57 bd da 96 ef bc e7 7a dc bd 83 ae 86 3d
       -0.052587498 -0.029246736 -0.10765629 0.06576254
000060 7d 01 52 3d 1b 66 d8 bd 9b 99 b4 bc 93 df 2e 3c
       0.05127095 -0.1056635 -0.022045901 0.010673421
000070 51 de 8a bc 72 34 47 3d 7e 33 29 3d a4 42 c6 3d
       -0.016951712 0.048634 0.041308872 0.096806794
000080 80 0a 75 3d 03 e7 37 3c 7d 61 46 bd 2e cf a8 bd
       0.059824467 0.011224511 -0.048432816 -0.082426414
000090 fc b5 5a 3c e3 74 c5 3b 16 e3 74 3d 37 80 af 3a
       0.0133490525 0.006025897 0.05978688 0.0013389651
0000a0 b0 e8 0f 3c aa d7 b5 bc 25 21 87 3d a6 20 9f bd
       0.008783504 -0.022197563 0.06598119 -0.07769899
0000b0 1b bb c5 bb e8 68 4d bd c5 ca e4 bc fb 0a 34 3c
       -0.0060342676 -0.050148875 -0.02792872 0.010988946
0000c0 64 c7 10 3c bb c3 28 3d f7 5b 96 bd 02 ac eb 3c
       0.008836601 0.041202288 -0.0734176 0.028768543
0000d0 a3 fc 50 bc 33 64 07 bd 00 98 a4 bc ba 4e e3 3c
       -0.012755546 -0.03305454 -0.02009201 0.0277475
0000e0 96 bb 65 bd 31 ef 93 3c 8e bd a8 3d be 1c 10 3d
       -0.0560871 0.018058391 0.0823928 0.03518366
0000f0 6c 3f 4b 3d 15 7a 1d be 74 e8 ae 3c 7d 1d 89 3d
       0.04962103 -0.15378602 0.021351077 0.066950776
000100 18 15 0e 3c 8d 03 7a 3d 86 2c 44 3c e2 2e 6e 3d
       0.008672021 0.061038543 0.011973506 0.05815018
000110 9e f7 83 3d 6b d8 b4 3b fd 21 5e bc f1 b7 69 bd
       0.064437136 0.005518963 -0.013557908 -0.057060186
000120 8b a7 8c 3d 00 2b fd 3c 7c d9 02 bd e8 68 8b 3d
       0.06867894 0.030904293 -0.03194569 0.06807119
000130 14 3f 29 be d7 5d 08 3c 7f d4 48 bd 62 d3 4e bd
       -0.16527969 0.008323154 -0.049030777 -0.05049456
000140 6c 09 40 bd b6 29 6d 3b 5f ba 71 3d 93 92 03 bc
       -0.046883985 0.0036188192 0.059015628 -0.0080305515
000150 21 cc 5d be 8b 98 b0 bb fb f5 80 bc a6 d7 e6 3c
       -0.216599 -0.0053892783 -0.015742293 0.028179001
000160 08 93 9d 3c 31 56 fe bc 23 c7 e2 3c 85 63 b8 bc
       0.019235149 -0.031046959 0.027682846 -0.022508392
000170 de 08 7d bc 41 f2 f0 bc 47 73 8f 3c 06 fa 6c 3d
       -0.015444009 -0.02941239 0.017511023 0.05785563
000180 63 97 cd bd c4 91 27 3d 9b 94 1d bd 76 5d be 3c
       -0.1003864 0.040910497 -0.0384718 0.023237925
000190 3d 84 f5 3b 2e c0 a4 3b a1 c8 b3 3d a7 89 df 3c
       0.0074925707 0.0050277924 0.08778501 0.027287317
0001a0 9f 2c fb 3c a2 6f df ba bb 29 84 3b e3 21 3b bc
       0.030660925 -0.0017046819 0.004033295 -0.011421653
0001b0 5e 82 33 3d f8 e7 33 3d a8 31 b4 bc ec 79 ed bb
       0.0438255 0.043922395 -0.021996334 -0.0072472002
0001c0 94 61 b1 bc de 62 16 3b 63 2c 23 be 2f 39 75 bd
       -0.021652974 0.0022947113 -0.15934901 -0.059868988
0001d0 e9 ae a6 bd da 0d 86 3c a3 c0 34 3d c0 05 0b 3d
       -0.0813883 0.016364027 0.044129025 0.03394103
0001e0 12 cb 0b 3d 63 7e 89 3b 75 e1 c9 3d 4e 60 3d be
       0.03412921 0.0041959747 0.09857456 -0.18493769
0001f0 d7 f1 f5 bc cc 31 ef bc e8 9d 55 bb 52 c0 d8 3b
       -0.030022545 -0.02919855 -0.003259534 0.0066147232
000200 4f 4f d8 bb 8c 1b 8a bc 42 10 fb bc f1 06 07 3c
       -0.006601251 -0.016858838 -0.0306474 0.008241401
000210 b1 36 38 bd b5 f9 50 3d fa 4f fb 3c c0 6f f6 3a
       -0.044974033 0.05101939 0.030677784 0.0018801615
000220 94 88 ad 3c 80 e8 44 be 79 16 26 bd ea 3c 2d bc
       0.02118329 -0.19229317 -0.040548775 -0.010573605
000230 55 ef 3f bd 31 f2 ac 3c b4 b1 8b bd cf d4 10 bd
       -0.046859104 0.02111158 -0.068210036 -0.0353592
000240 a7 7f 31 bd 54 28 1c 3c 63 8f 3b bd 80 04 94 bd
       -0.04333463 0.009531099 -0.04579104 -0.07227421
000250 62 c7 a1 bd cc f4 7a 3d 62 9e 8f bb d6 97 90 3d
       -0.078993574 0.061268613 -0.0043828944 0.070602104
000260 cd fd 08 bd c9 1b 5e bd c0 19 14 be 05 2c 01 be
       -0.03344517 -0.054225717 -0.14462948 -0.12614448
000270 64 a2 ad 3c fd b5 1b bd 7b 17 d9 3c 63 8d a4 bd
       0.021195598 -0.038015354 0.026500454 -0.0803478
000280 f9 5f 11 3d b5 0b e1 bd b8 1b 33 bc 18 9e f7 bd
       0.035491917 -0.10988561 -0.010931902 -0.12090701
000290 1e 89 67 3d be 89 48 bd 89 98 b7 3c dd 2f 15 be
       0.05652725 -0.048959486 0.022411602 -0.1456904
0002a0 e1 28 cf bc 1a 2a 09 3d 26 bf 0a be 7b 79 58 bd
       -0.025288047 0.033487417 -0.1354948 -0.052850228
0002b0 37 f5 30 bd 72 cd de 3c ed 7e 21 3b 38 1a ae 3b
       -0.043202605 0.027197573 0.0024642304 0.005313184
0002c0 09 0f 80 3d 50 57 c5 bd c6 75 bb 3a b0 37 06 3d
       0.06252868 -0.09635794 0.0014302067 0.03276795
0002d0 ae cb 47 bd bf ab d9 bc 45 16 a0 bb e3 0e 36 bc
       -0.04877823 -0.026571153 -0.0048854672 -0.011111948
0002e0 3e 38 ba bb b7 0f 53 be 13 b2 2e bd bf 99 f3 bd
       -0.005682974 -0.20611463 -0.042650294 -0.11894559
0002f0 b1 cb 2c 3c a1 fc a2 3d 31 d0 1c 3d 5e 4a 9b 3c
       0.010546611 0.079583414 0.038284484 0.01895636
000300 1e f5 2b bd 87 ce e3 bc 10 40 24 3d e4 c0 e6 bc
       -0.04198181 -0.02780844 0.040100157 -0.02816815
000310 cd 3b 1e bc 9a 64 58 3d d5 cf b5 3d f3 a7 0a 3c
       -0.009657812 0.052830316 0.088775314 0.008462894
000320 0c 90 ed bc 2b 3c bb bd 46 ad df bd 70 8e 99 bc
       -0.028999351 -0.091423355 -0.10921721 -0.018744677
000330 dd 4d 53 be 08 ca 75 bd c1 bf 14 bd 31 e7 f5 3b
       -0.20635171 -0.060007125 -0.036315683 0.007504367
000340 26 5d 47 be f6 f6 f6 bc 51 b9 7e 3c 90 8b 9c 3c
       -0.19469127 -0.030147057 0.015547113 0.019109517
000350 98 f1 f6 bc f3 93 ec 3c f9 0f fe bd 13 79 ca bd
       -0.030144498 0.028879141 -0.1240539 -0.09886374
000360 fb e2 8f 3d 8e aa 0a be eb 41 82 bd 0c 5d 6d bc
       0.07025715 -0.13541624 -0.06360229 -0.014487516
000370 78 26 9d bd d2 2e 93 3c a5 d5 88 3d a0 06 f6 bd
       -0.07673353 0.017966662 0.066813745 -0.12012982
000380 df 8b 83 bc 8f 68 5e bd e1 43 33 3d 83 be 65 bc
       -0.016057907 -0.054298934 0.043765906 -0.014022472
000390 30 fd 26 bd 4a 41 ab 3c 98 2a ab 3b 49 17 8d 3d
       -0.040768802 0.020905156 0.0052235834 0.06889207
0003a0 8f 4b c9 bd 3c f9 d7 bb 65 0d de bb ac 1c 81 3c
       -0.09828865 -0.0065909903 -0.006776499 0.015760742
0003b0 3a 94 04 3d 09 b1 96 3c e0 aa a7 bc 68 df 0e be
       0.032367922 0.018394964 -0.020467222 -0.1395241
0003c0 83 33 b0 3c 4a 51 b9 b8 f1 61 58 3c 41 0d d9 3c
       0.021508938 -8.836629e-05 0.013206945 0.026495578
0003d0 47 83 11 bd 90 a6 0c 3c cf 3d 3c be 3e ed b9 bc
       -0.035525586 0.0085846335 -0.18382953 -0.022696134
0003e0 9d 27 58 bc 6a 75 da bc a6 64 9b bc 55 dd 01 be
       -0.013193038 -0.026667316 -0.018968891 -0.12682088
0003f0 0a 36 db bc ae 2c 4d 3d c6 4b 46 bd 48 ee bf bb
       -0.026759166 0.050091438 -0.048412107 -0.0058572628

net.6.weight f4 [2, 256]
000000 d5 d2 bc 39 36 81 3d bd 4f f8 49 39 97 33 b8 ba
       0.00036015236 -0.046265803 0.00019261356 -0.0014053461
000010 4e 6e 47 bb 6a 69 64 bb e6 06 76 ba 53 3f ff 39
       -0.0030430737 -0.003485287 -0.0009385183 0.0004868457
000020 76 61 32 bd 60 b3 26 3d 0b e1 c2 3a e4 48 b7 ba
       -0.043549977 0.04069841 0.0014868093 -0.0013983515
000030 6c e5 97 3c 17 6f 25 3d a5 44 9f bc 0e 8c f4 bc
       0.018542014 0.040389147 -0.019441912 -0.02985194
000040 7a bd 38 bb e7 5f 33 ba c9 25 2a bb ae cd 62 3b
       -0.0028189109 -0.00068425987 -0.0025962463 0.0034607458
000050 97 e1 46 3b e5 7e 49 ba 7e 46 86 38 6f 19 b1 bb
       0.0030346864 -0.000768645 6.402748e-05 -0.0054046432
000060 1b 8e 82 ba 6b e6 34 3c c5 21 9a bc ff fe f8 b9
       -0.0009960564 0.011041264 -0.01881493 -0.00047492233
000070 03 e3 29 bb c4 f2 53 3a e5 24 ae 37 0b 67 08 b9
       -0.0025922663 0.0008085186 2.0759597e-05 -0.00013008357
000080 75 f0 27 bb 80 e9 70 ba 1c fe 44 bb fd 5d ae bb
       -0.0025625501 -0.00091900676 -0.0030058688 -0.005321263
000090 7b 19 67 bd 6e 22 b1 ba 98 07 fb 3a 11 76 24 bb
       -0.056420784 -0.0013514289 0.0019152043 -0.0025094787
0000a0 53 5f 88 bb d9 fc 39 3b fd dd 8f ba 86 7b 84 39
       -0.004161754 0.0028379469 -0.0010976192 0.00025269034
0000b0 df a3 7a 3b df 6e ac ba 03 e6 10 3a d4 24 7d 3a
       0.0038244647 -0.0013155601 0.00055274385 0.0009656672
0000c0 83 cb c2 bb 2d d3 65 bb 3b 16 17 3b e9 3b 03 3b
       -0.0059446706 -0.0035068498 0.0023054022 0.0020024723
0000d0 7d f1 5f ba 34 60 16 b9 30 48 90 3b a7 f2 8d 3a
       -0.00085427595 -0.00014340953 0.0044031367 0.0010829762
0000e0 62 a6 61 ba df 66 f0 ba 90 7f 26 bb b2 3d 9f ba
       -0.0008607862 -0.0018341205 -0.0025405623 -0.0012149124
0000f0 43 03 12 ba 8a 10 2b bc c2 53 33 bb 90 f3 10 bb
       -0.0005569944 -0.010440955 -0.0027363156 -0.002211783
000100 0e c5 ab bb c3 11 1e bb 4d f9 1a 3a f4 2c d6 3a
       -0.0052419966 -0.0024119474 0.00059117825 0.0016340301
000110 e2 3b 0d 3b 1e 56 66 b7 5e 84 0d bb a9 db 4c 3b
       0.0021550586 -1.3729119e-05 -0.002159379 0.0031258857
000120 18 ea 29 bb c2 e0 38 bb c1 9b 00 3b 27 ce 96 ba
       -0.0025926884 -0.0028210138 0.0019624087 -0.001150553
000130 c9 2c 85 bb 8b dc 12 3b f5 2e f1 3c 3b c8 f7 39
       -0.0040641767 0.0022409286 0.029441336 0.00047260695
000140 ab 9c 7b ba cb 1a 67 bb 5b 8b 71 ba fb 28 1c 3b
       -0.00095982355 -0.0035263773 -0.0009214186 0.0023828137
000150 29 6d b5 bc bd f1 6f 3b 38 85 0d 3b 79 14 a0 3a
       -0.022146778 0.0036612593 0.0021594297 0.0012213133
000160 f9 31 8d ba 51 4c f6 39 0a 05 66 3d dd d5 85 ba
       -0.0010772339 0.00046977637 0.05615715 -0.0010210831
000170 48 b6 1f bb 41 08 24 bb 76 88 dc b9 0a 95 ee 39
       -0.0024370123 -0.0025029334 -0.0004206334 0.0004550594
000180 29 13 b7 bc 93 0c d4 3b b4 72 7a 37 65 aa 31 3b
       -0.022348003 0.0064712255 1.4927868e-05 0.002710962
000190 36 93 fe 3a 8e df 40 ba e6 c8 a1 b9 ce c8 56 bb
       0.0019422534 -0.0007357531 -0.00030857994 -0.0032773498
0001a0 85 0c 52 3b 98 36 b6 ba 69 0c b4 ba 89 20 2b 3a
       0.003205092 -0.0013901768 -0.0013736609 0.00065279804
0001b0 8d 96 ed 3c bf 33 9b ba 4a dd 44 ba c7 bd 4f 3b
       0.029002452 -0.0011840983 -0.0007509781 0.003169881
0001c0 99 95 4e 3a 4d 4d fb 3a e5 56 61 bb 61 16 9b 3b
       0.0007880568 0.0019172818 -0.0034384069 0.0047328924
0001d0 f5 da 14 bd f1 b2 0a bd 7b e4 39 3b fc 3c 04 bb
       -0.036341626 -0.033862058 0.0028364945 -0.002017795
0001e0 91 99 16 bb fb 7e 7c 3d d4 12 b4 bb 5c 2a 6e bc
       -0.0022979716 0.061644536 -0.0054954085 -0.014536466
0001f0 2f 80 e4 39 05 50 57 3b 53 aa 7c bb e8 29 5f 3a
       0.00043583053 0.0032854092 -0.003855367 0.00085130194
000200 68 a2 46 39 f6 aa 05 ba b8 4e 66 b8 9b e0 99 3d
       0.00018943253 -0.00050990225 -5.4909586e-05 0.07513543
000210 88 68 b3 38 da 3f 01 3b b9 6b 99 3a 25 c3 96 bb
       8.5548556e-05 0.0019721896 0.0011705077 -0.0046008998
000220 ed 1a d8 ba 37 4a 61 bb 50 ff 7e bd 8b 3a 2b 3c
       -0.0016487517 -0.003437651 -0.062255204 0.010450969
000230 0e 79 90 ba b2 95 46 3b aa 15 8e 3c 65 5d 50 bb
       -0.0011022405 0.0030301628 0.017344315 -0.0031793949
000240 fc 10 49 3a 41 a3 21 bb 24 50 0a b9 f5 b9 05 3b
       0.00076700724 -0.0024663957 -0.0001319056 0.0020405028
000250 a1 da 76 3d b8 f0 5d 39 a3 25 89 bb 59 71 b7 3a
       0.060267095 0.00021165877 -0.004185395 0.0013995572
000260 09 8d bf ba 19 f4 33 3b 2f e7 9d bb 43 3e 28 3d
       -0.0014614175 0.0027458726 -0.004818819 0.041075002
000270 d7 75 eb 3a 35 cf 94 3a 7e 73 1e bb f4 72 93 3c
       0.0017964196 0.0011353256 -0.0024177725 0.01799915
000280 29 c7 2b 3b 6d f9 f8 bb 5e 58 71 ba 76 21 4f bb
       0.0026211238 -0.0075980932 -0.0009206588 -0.0031605638
000290 3e 9f d6 ba 8f 8f 14 3a d5 94 48 ba 63 39 c4 b9
       -0.0016374362 0.0005667144 -0.0007651572 -0.0003742679
0002a0 53 6d 70 3b d9 f5 8d 3b 72 3c e1 bc cc 52 8d 39
       0.0036686256 0.004332286 -0.027494643 0.00026955304
0002b0 a6 6c 50 bb 37 0d 45 3a db 77 07 3a bf f1 2a bb
       -0.003180304 0.0007516923 0.0005167701 -0.0026084033
0002c0 1e c9 65 3b 62 98 55 bc ee 23 c8 b9 b7 d7 c8 39
       0.0035062502 -0.013036819 -0.00038173742 0.00038307693
0002d0 02 76 91 3d 7c 12 5f bb dc f0 fc ba 6f 20 96 37
       0.07102586 -0.0034038117 -0.0019297856 1.7896497e-05
0002e0 48 53 57 bb ae 28 9c bc 0b 20 30 bb 74 7c 09 bc
       -0.0032856036 -0.019062366 -0.0026874568 -0.008391488
0002f0 bf 82 06 3a e1 2b 30 3a 46 9f 8c 3a 87 9b 85 bd
       0.0005131177 0.00067204057 0.001072862 -0.06523805
000300 50 4e 38 bb 25 32 21 3b 12 2b 22 ba 26 aa 81 bb
       -0.002812285 0.002459654 -0.00061862275 -0.003957051
000310 f0 dd a2 38 44 da 35 3b f3 ce 02 bb 4e 8b 8e 39
       7.766101e-05 0.0027748505 -0.0019959777 0.0002718814
000320 cb 9b 9d ba c9 81 d2 ba f0 08 a5 3c c2 c3 37 3b
       -0.0012024579 -0.0016060408 0.020145863 0.0028040265
000330 44 9f 2e bd 2b e1 09 3d bd 7e 72 3a 8b 2c a0 3b
       -0.042632356 0.033662003 0.0009250453 0.0048881224
000340 fd dc a4 bd 04 b8 1e 3b 14 92 82 ba 3c ad d0 b8
       -0.08049963 0.0024218569 -0.0009961748 -9.95048e-05
000350 83 45 b4 bb 4f 24 03 3b 64 89 b0 bc b4 a0 df ba
       -0.0055014505 0.0020010655 -0.021549888 -0.0017061443
000360 72 1f df 39 14 0c b9 bc b9 56 86 39 e3 0a 92 ba
       0.00042557303 -0.022588767 0.00025623085 -0.001114216
000370 ec 3e 3d 3b 10 3f 2f bb dd c6 0b bb b4 e9 81 bd
       0.0028876616 -0.002674047 -0.0021328249 -0.063434035
000380 64 9a 83 bb ba a3 2c bb 98 ce 3b ba 01 55 56 3a
       -0.0040162075 -0.0026342706 -0.0007164269 0.0008176119
000390 ce 23 0b 3b 6a 1c 4a bb 33 f1 14 ba db f2 bf ba
       0.0021231058 -0.003083969 -0.00056816934 -0.001464452
0003a0 a7 1b bd ba a8 04 55 3a 76 25 1d bb e3 d4 6d bb
       -0.0014427797 0.0008125999 -0.0023978627 -0.003629022
0003b0 50 71 c1 ba 02 ed 6e b8 25 47 43 3a 66 5c 58 bd
       -0.0014758501 -5.6964353e-05 0.0007449261 -0.052822493
0003c0 f5 c9 16 3a db e3 33 3a ef 42 76 bb e9 6b 29 bb
       0.000575214 0.0006862261 -0.0037576517 -0.0025851673
0003d0 e1 c8 ba 38 35 b1 21 3a 87 93 98 bd 75 04 ea 3c
       8.906588e-05 0.00061680685 -0.074500136 0.028566578
0003e0 0c 5c 9d ba 5c d9 52 bb c0 68 d0 3a 0e 6b 37 3c
       -0.0012005582 -0.0032173013 0.0015900359 0.011194957
0003f0 5c 9d f0 3a 20 15 44 bb 37 d7 0e ba 2e 29 44 3b
       0.0018357444 -0.0029919818 -0.00054489396 0.0029931772

net.6.bias f4 [2]
000000 4a 3f 29 3d 38 a5 4d 3d
       0.041320123 0.050206393
