checkerboard/cfm/models/78000_model.pt (torch, 535792 bytes, 8 tensors)

net.0.weight f4 [256, 3]
00000000: bc35 20bb d860 5abb 97c4 42ba 120d 7cbe
00000010: 0676 123c 9316 92be 8c53 c43e 2a59 343e
00000020: 6f3d 183e 6b14 8e3e d1ee 893e 47d2 ac3e
00000030: 468f 7fbd dd80 6cbe 0534 a93e dc25 4c3f
00000040: 8ea5 debd 8b69 ac3e 0d4f 333e 2845 1abe
00000050: c912 d1bd f4b5 42be e2d1 593e 0a25 543e
00000060: c1a2 6dbe 8f9d 763e aaad 0a3f acd9 eb3c
00000070: 3a27 e0bd 2d75 e0be 9419 923d 1a21 15bf
00000080: 0628 f5bd b023 b7bb 8e40 c7bd 0d7d c1be
00000090: 71ba 173e 16b3 98be ee1b c6be 3573 083b
000000a0: 8da2 5fb9 7ad9 09bb 1ab9 3fbe 76a8 aebd
000000b0: 9f03 0ebf 6128 a53a 03b3 283b 8c51 223d
000000c0: 6ba7 50bd b09b 303f 4573 32bc 6e17 51bf
000000d0: 68f3 523f 445c b4be 9c14 6f3d e7e1 e03d
000000e0: bd9e a7be 7352 babe 0e3c 3cbe 13ba 0ebe
000000f0: 285b cabd 99b9 133e c615 96be 759d 71be
00000100: 437c a7bd 0d35 ed3e a3fa 48bc b993 bbbd
00000110: 47a5 7b3e 9292 86bb df70 bebb 3fae 833a
00000120: 3e51 f4be 7d13 e03e c01b 983e 5c85 8f3b
00000130: 4acd 123d 785e a63d 50a6 afbe 55e1 323e
00000140: 3153 df3d f916 47bd 4a20 213e 1c69 17bf
00000150: 4568 dbbe 18fb 81be cbd5 8abd 6469 943a
00000160: 1331 903b b25f d2ba a217 06be a4c3 ffbd
00000170: 3e10 593e b026 663f 049e 92bf d370 fdbe
00000180: 4da2 98be b15d 583c 2f3a debe 7abc 4cbb
00000190: af56 f1ba b81c 8cbd a446 85be d9f0 9fbe
000001a0: 1571 e0bd 36d7 5839 d25a 043c 207a 843e
000001b0: c64d 7cbd 59e3 523b 8cc5 95be e5fe 693f
000001c0: 227e 603f 6524 debe b763 9d3e f99c a13e
000001d0: 8d95 143f db00 67bc aada 6ebc 2267 b93e
000001e0: fdfa 78be 8acd 343f 8308 d4be 9f71 20ba
000001f0: 02b6 5b3b 3ce3 863c 283b 6ebe 6466 cebd
00000200: f0aa b93d 0570 163f a8d0 0ebf 356a dc3e
00000210: d8f8 553e 24d4 23bf 7e4a 1dbc cc61 c8bd
00000220: beb5 ab3d 2a15 483e 58eb b7bd 71d7 d93d
00000230: fa1e 37be f94d 483c 0fc1 c2be 5bac dbbe
00000240: 0422 36bf 1855 363f cb41 ff3e 8744 3bbc
00000250: e4a7 85bc ebfe 20be b307 fbbe 29b3 a5bd
00000260: 88dd 2ebe b3ee 59bf cd20 583f 96c1 cbbe
00000270: 3996 49bc 2faf 32bc 4ffd 523f 4bf7 a4be
00000280: 14a0 5bbd b2ae dfbd a4cb 03bc ad7f 28bb
00000290: dadf a2be 7733 e7bd 4749 173f 6ffd 973e
000002a0: 423f 5c3f 51f4 50bd e3db 77bc 6dc1 563c
000002b0: 4a8c c23c 222b d5bd 5d79 a2b8 6bd2 caba
000002c0: 6e14 0bbb bbe7 e7be a936 393f fae5 08bf
000002d0: 0aad d3bd 82ba 6439 65d0 5c3e e0ba 413e
000002e0: aa56 0f3e db08 e7be 9888 c43d 719e cc3d
000002f0: afe3 523e 1fe1 fa3e 8c1f 64be dc9e d73e
00000300: bdd0 623e a30b d13e 3dd2 843e 3e06 343e
00000310: 3ced 553e a460 743e 9eac 9abc f843 5b3e
00000320: f41e c7be 9612 49bf 4d2d 473f f587 c33e
00000330: 691b 0e3f 63ae 06bf 2c89 de3e b315 d2be
00000340: 05a5 3bbe b0d5 51be 46b3 b3bc 70ac 943c
00000350: eb8a d13e aec6 e03d d385 d7bd 2263 0cbe
00000360: fee9 a43a e81b 223c 0339 73bb f52b de3d
00000370: 85fa eebc e91b 023e 5d8a b13b 4a55 80bd
00000380: bb2c 9bbe 2c7b d1bd 3140 ee3c 8b3b 883e
00000390: b583 9cbd 6035 ed3b de10 e5be db71 55bd
000003a0: f81f 1dbd e349 c93e 9d1d 0a3f 2c77 c53e
000003b0: 9d64 44be 5e49 163b 0f78 873c ea2e 653e
000003c0: 3817 313e 8d43 4fbe 7224 7d3e dc9b 703f
000003d0: 00d2 06be 2526 b93e 75d8 a6ba c0ce 3abd
000003e0: ecd3 0e3e b7b0 93bd 4a04 233e 8c27 b03e
000003f0: 4007 4a3c 5038 333f ab09 f73e f8cd aa3d
-0.002444609 -0.0033321884 -0.0007429807 -0.24614361 0.008939272 -0.28532848 0.3834499 0.17612138
0.14867185 0.27749953 0.26940015 0.3375418 -0.062392496 -0.23096032 0.330475 0.7974527
-0.10871421 0.33674273 0.17510624 -0.15065444 -0.10208661 -0.19014722 0.2127147 0.20717254
-0.23206617 0.24083541 0.5417124 0.028790317 -0.10944982 -0.43839398 0.07133785 -0.58253634
-0.119705245 -0.005588971 -0.0972911 -0.3779072 0.14817216 -0.29824132 -0.38693184 0.0020820622
-0.00021327492 -0.0021034167 -0.18722954 -0.08528225 -0.55474275 0.0012600535 0.0025741465 0.03962855
-0.050940912 0.6898756 -0.01089174 -0.81676376 0.8240266 -0.35226643 0.058369264 0.109805875
-0.32738295 -0.3639103 -0.18382284 -0.13938169 -0.09880668 0.14426269 -0.29313487 -0.23595221
-0.08177998 0.46329537 -0.012266788 -0.09159035 0.24574767 -0.004106828 -0.005811795 0.0010046436
-0.47718233 0.43764868 0.29708672 0.0043799113 0.03584031 0.08123487 -0.34306574 0.1746877
0.109045394 -0.048605893 0.15734974 -0.5914476 -0.4285299 -0.25386882 -0.06779059 0.0011322913
0.0044003814 -0.0016050248 -0.13094953 -0.12488487 0.21197602 0.8990278 -1.1454473 -0.4950014
-0.29811326 0.0132059315 -0.43403766 -0.003124027 -0.0018412675 -0.06841415 -0.26030457 -0.3123844
-0.10959069 0.00020679538 0.008078294 0.25874424 -0.061597608 0.0032178967 -0.2925228 0.91404563
0.87692463 -0.43387142 0.3074014 0.31565073 0.58040696 -0.014099325 -0.014578501 0.36211497
-0.24314494 0.7062613 -0.41412744 -0.00061204465 0.0033525233 0.016465776 -0.23264754 -0.10078123
0.09065807 0.5876468 -0.55787134 0.4304978 0.20895708 -0.63995576 -0.00960028 -0.09784278
0.08384274 0.19539323 -0.08980435 0.10636795 -0.1788291 0.012225621 -0.38037917 -0.42904934
-0.71145654 0.7122359 0.49854884 -0.011429912 -0.016315408 -0.15722243 -0.49029312 -0.08090813
-0.17076695 -0.8512985 0.8442505 -0.39796132 -0.012303882 -0.010906025 0.8241777 -0.3221992
-0.05361946 -0.10921992 -0.008044157 -0.0025710866 -0.3181141 -0.11289113 0.5909619 0.29685542
0.86034024 -0.05101425 -0.015128109 0.01310764 0.023748536 -0.104086176 -7.7473676e-05 -0.0015474086
-0.0021221894 -0.45293984 0.7234903 -0.53475916 -0.10335739 0.00021813254 0.21563871 0.18918943
0.13997903 -0.45123944 0.09596366 0.09991158 0.20594667 0.4899988 -0.22277659 0.42113388
0.2214994 0.4082919 0.2594165 0.17580506 0.20891279 0.2386499 -0.018881138 0.21412647
-0.38890803 -0.78543985 0.778035 0.38189664 0.55510575 -0.52609843 0.4346403 -0.4103218
-0.18324669 -0.20491672 -0.02193607 0.01814863 0.40926298 0.10975395 -0.10523572 -0.13709691
0.0012581942 0.009894349 -0.003711284 0.10848228 -0.029172191 0.1270596 0.0054181055 -0.062662676
-0.30307564 -0.10228571 0.029083343 0.26607928 -0.076423086 0.007239029 -0.4473943 -0.052110534
-0.038360566 0.39314184 0.53951436 0.38567483 -0.19179006 0.0022931914 0.01653674 0.22381178
0.17294014 -0.20240612 0.24720934 0.9398782 -0.13166046 0.36161914 -0.0012729304 -0.04560733
0.1394803 -0.0721144 0.15919605 0.34405172 0.01233083 0.700078 0.48249564 0.08340067

net.0.bias f4 [256]
00000000: ab77 723b d03a 993e 01c6 89bd c67e 0fbf
00000010: 03c4 f9bc ef3b b3bd 5a6e 953e 2f57 1fbf
00000020: 71ca ffbe 9031 d73e 219c b23e bc13 993e
00000030: c4c5 193f 6b6d f539 0f86 063f 7f6e c1bc
00000040: fbc9 353e c502 0c3e ef6a 913e 383c 823e
00000050: ccfc d13e bd7e 02be 9786 e2bc b8fd ea3b
00000060: bd77 7f3e 7f1f 0ebc 4f16 4e3e e153 163f
00000070: b632 6a3e 2e5b 94ba 4668 a2be c007 41bf
00000080: 35af dc3e 9f62 573d 7a26 8c3e f169 28be
00000090: a295 803e 71f0 21bf 580c c0be ab67 5ebe
000000a0: 53b8 d6be 28fd 70bc d7d7 09bd ac84 eebe
000000b0: 1404 1ebf 15a5 ddbd 3d00 933e 108f e63e
000000c0: 764c 08bf fbea 073e c57e 103d 0111 113e
000000d0: a5e8 ebbe a062 433c 4c4c 793e d097 3dbd
000000e0: b7db 563e d565 aa3d 71de f03b 9c2a 0ebf
000000f0: 3f5b 80bd 52f5 dd3e d67a c1bd 09a1 87be
00000100: b8c6 dabd 2f98 1bbd 2391 bd3e 7928 dcbe
00000110: 0dd7 ecbe 65c9 943e 90d3 7dbe bb8d 7b3e
00000120: ee79 43bb fee2 bcbd 0fcc 833e 9563 1ebe
00000130: 9e55 b93e 8f2d 92be ac19 04be 5615 09be
00000140: 2382 94bb 43c8 acbd ef65 29bd 09c6 89be
00000150: a42d 44bf bc02 d33e 624d 17bb 6c90 a8be
00000160: 2735 cebe 2a33 063f c923 49be 4b39 ad3e
00000170: c6ce 16bf 3e7f e53e e24c 203f e9f4 cc3e
00000180: ab26 0abf b50d e53d 4065 2bbe ad8e 843b
00000190: fe56 b73e f1b7 6fbe ede5 de3e c3cd a5be
000001a0: 93bd 1c3f 99f0 4abe a6d8 513e 3f2f 02bf
000001b0: c3a4 cabe 2b34 cabd 90f2 dc3e 85d6 99ba
000001c0: 1945 a53e 3158 3cbe 2653 a5be cd0f 743e
000001d0: 8866 0d3e 31ec 913e 0b6c debd bfbe a33e
000001e0: ee26 f4be 411f 5e3e 9103 423e 1f90 99be
000001f0: f0cd 0b3d bcd6 70be 70c8 2fbf 52f3 313e
00000200: 6a2b c83b f149 f13b 7a43 913c 8554 df3e
00000210: 968c 5dbb b5fc 17bf f94c 443e b334 3f3e
00000220: fb16 413e 2458 87be 4b93 c63a 2c64 8a3e
00000230: 7237 453e 6b8d 973b 05d2 213e 0ff8 dbbe
00000240: a7fb af3e 80c1 a03e 05f3 d9be b36d f6bd
00000250: aa57 c13e 5f4f 20bf 1399 9b3e f13b 44bc
00000260: 5e83 403b 1874 a1be 7ea0 ddbe ab9e 67be
00000270: 6e00 8a3e 2104 023a 3f67 5dbd 17ef 0ebf
00000280: fa3a ed3e e16a 25be eb58 f63e c598 f43a
00000290: 39f9 523e 3d8a 64bd 91f7 9e3e 021a c9be
000002a0: c2aa 803e 3c14 83be 4a4d 58bf 88d9 323e
000002b0: 0523 01bf ee4d b3be abd8 a6bd d4b7 6ebe
000002c0: 86f6 b13d e3d9 24be 7b25 a5be 1379 f7be
000002d0: 8d0b b53e de75 c9be 324a a43b 5302 43bd
000002e0: 4436 253d f838 c53e ec7b 59be 6714 c83b
000002f0: 357f 513e afd2 a63e ca2b 2dbf a7b8 3fbf
00000300: 41a6 013a d9e6 29be 610c 723e a7ef af3e
00000310: 3476 82be da0a ee3e f060 da3d 3ae5 963e
00000320: 5b85 c0be 8abc 88bd 4ad1 193e 3978 12bf
00000330: 8be4 dd3e 8df7 fdbe bf5c 1a3f bcf7 50bc
00000340: bb7e 193f 0c09 c8be f515 e9bd f7f7 433e
00000350: 90ba 633e 3f54 a63d a13b 16bf 9c2f 80be
00000360: 5e59 223e 31e4 003e 149a 1ebf c0b6 63be
00000370: a035 d7be 5313 acbe 01b4 f43d 3c0f e4be
00000380: 468e 0f3e 7101 053f aff2 82be 6866 53bf
00000390: 5b9f 37bb 9595 213f f2e5 efba 52b4 63be
000003a0: 1306 513d f486 c93e 1c6b 013f a30c 4cbf
000003b0: a01f 0dbc b2f4 00bf 85fe 7ebd 09fe c6be
000003c0: 722e aa3d 34c2 b53d a35f 433d d97d 14bf
000003d0: 11b2 87bd 2166 bf3e c937 6e3e 1dae 0a3c
000003e0: 1026 a6be 46db e0be c349 353e 3b6e b43d
000003f0: 275a 0c3e bb31 70be c34f b33b 762f d3be
0.0036997597 0.29927683 -0.067272194 -0.56052816 -0.030488973 -0.08751666 0.29185754 -0.62242407
-0.49959138 0.4203 0.34884742 0.2989787 0.6006739 0.00046811564 0.5254831 -0.023612259
0.1775283 0.13672931 0.28401896 0.25436568 0.4101318 -0.1274366 -0.027652068 0.007171359
0.2494802 -0.008674501 0.20125698 0.5872174 0.22870907 -0.0011318678 -0.3172018 -0.7540245
0.43102422 0.052584287 0.27373105 -0.16446663 0.2511416 -0.6325751 -0.37509418 -0.21719234
-0.41937503 -0.014708795 -0.033653107 -0.46585596 -0.6172497 -0.108225025 0.2871112 0.45031023
-0.5324167 0.13273232 0.035277147 0.14166643 -0.4607593 0.0119253695 0.24345511 -0.046287358
0.20982252 0.08320204 0.007350736 -0.55533767 -0.06267404 0.43351227 -0.09447257 -0.26490048
-0.10682434 -0.03798693 0.37024793 -0.42999628 -0.4625782 0.29059902 -0.24787736 0.24565785
-0.0029827314 -0.09222983 0.25741622 -0.15467675 0.36198133 -0.28550383 -0.12900418 -0.13387045
-0.004532115 -0.084366344 -0.041356977 -0.269089 -0.7663214 0.41213024 -0.0023086895 -0.32922685
-0.40274927 0.5242182 -0.19642557 0.33832774 -0.5890926 0.4482364 0.62617314 0.40030602
-0.5396525 0.11184255 -0.16737843 0.0040453286 0.35808557 -0.23410012 0.43534794 -0.32383546
0.6122677 -0.19818343 0.20492801 -0.5085334 -0.39578828 -0.098732315 0.4315381 -0.0011736905
0.3227928 -0.18393017 -0.3229 0.23834153 0.13808644 0.28500512 -0.10860451 0.31981465
-0.4768595 0.2169161 0.18946673 -0.29992768 0.034131944 -0.23519415 -0.6866522 0.17377976
0.006108691 0.007363551 0.01773237 0.4361917 -0.003380572 -0.59369975 0.19169988 0.18672447
0.18856423 -0.26434433 0.0015150098 0.2702955 0.19259432 0.0046250126 0.15802772 -0.4296269
0.34371683 0.3139763 -0.42568222 -0.12032642 0.37762195 -0.6262111 0.30390224 -0.011977182
0.0029375176 -0.31533885 -0.43286508 -0.22619121 0.26953453 0.00049597217 -0.05405354 -0.5583357
0.46334058 -0.16154052 0.48114714 0.0018661252 0.20602883 -0.055795897 0.31048253 -0.39277655
0.25130278 -0.25601375 -0.84492934 0.17465794 -0.5044406 -0.35020393 -0.08146795 -0.23312312
0.08689599 -0.16098742 -0.32255158 -0.4833456 0.35360375 -0.39347738 0.0050137276 -0.04760964
0.040334955 0.38520026 -0.21238679 0.006105948 0.20458682 0.32582614 -0.6764494 -0.7489113
0.0004945733 -0.16591968 0.23637535 0.34362528 -0.25480807 0.46492654 0.106630206 0.2947176
-0.37601742 -0.06676586 0.15021244 -0.57214695 0.43338427 -0.4960293 0.6029777 -0.012754377
0.59959 -0.39069402 -0.11381141 0.1913756 0.22239137 0.081215374 -0.58684736 -0.25036323
0.15854403 0.12587048 -0.61953855 -0.22237682 -0.420331 -0.33608493 0.119483955 -0.44542873
0.14019117 0.51955324 -0.25575778 -0.82578135 -0.0028018567 0.6311887 -0.0018302782 -0.22236755
0.051031183 0.39360774 0.5055406 -0.7970678 -0.008613497 -0.50373375 -0.062254447 -0.38865688
0.0830964 0.08874932 0.04769863 -0.5800453 -0.0662576 0.37382606 0.23263468 0.008464363
-0.32450914 -0.43917292 0.17703919 0.08810087 0.13706265 -0.2345647 0.005472155 -0.41247147

net.2.weight f4 [256, 256]
00000000: cd88 e7bc afb7 c03c 5c17 9c3d c07b c03c
00000010: 1583 6bbd d304 d73b 813f 353d 2b24 f4bc
00000020: 79ef c13c bdf4 57bd 2b8e dabd d1a2 31bd
00000030: 0030 63bc 5a96 4c3c 97da 06bd 5944 78bc
00000040: cbd4 863c 440e 79bc 69dd 653c 5c46 76bd
00000050: 6070 4ebd f611 26be 8984 a53d 6bf6 c2bc
00000060: 2f97 f73d 52a2 37bc a887 ff3d d97d afbc
00000070: 66b7 13bd 2940 473b f8b0 d6bd a931 98bd
00000080: a837 ed3b 63d4 09bc f5a0 9a3a be57 42bd
00000090: d2e7 92bd bc5c ac3d 29f5 f53c 3de1 1cbd
000000a0: 4010 923d bef2 1b3d d7ea 1a3c 6cc9 5f3d
000000b0: d22d b0bd 0c9d e73b 2708 5abd 6fc8 b9bd
000000c0: c4d3 9b3c fb17 483d b1f4 013e d770 643c
000000d0: 5321 26bd 0fde 963d 3b21 feba 348e 803d
000000e0: debe 5d3d f1c1 7dbd dd29 ff3a 9704 3f3d
000000f0: fad6 90bd b627 f43c da42 4e3d 7d7a 013e
00000100: 6405 52be 7921 ffbc f508 eebc 7a43 bbbb
00000110: 3fdf 8f3d f38c 4bbd 46ab 82bd 2250 7abc
00000120: 4ec1 36bc e3d6 813d 37cf cfbc 7afd 2db8
00000130: a2a4 97bc 66ba e2bd 5fea 393d 5c9c 2c3c
00000140: c480 acbd 2678 333d a5da c2ba d330 d43d
00000150: ddc2 07be 70e7 99bb a1ff 50bd bc92 a43c
00000160: e524 afbd 832b fd3c 4cc9 bcbd 5296 2d3e
00000170: 5cd4 9cbc ef60 dfbd 0589 8cbd 70cd e0bd
00000180: 79f0 85bd 1c20 19be b6f4 333d aa67 65bd
00000190: d5e1 673d f5d2 02be e04d 123d 64e5 203d
000001a0: 1aec 2a3b f46c 073d b81f f3bc 55e5 58bd
000001b0: 2374 d63c e32f 173e be65 743b 3a94 d73d
000001c0: db11 a8bc 6e9b 5c3d b748 28be 9aad 49bd
000001d0: 8133 0ebe deb8 5bbd 17be 68bc 23c5 b6bd
000001e0: 2097 10bb 3700 813c 4160 b83d 610d c1bd
000001f0: bcb3 c2bd 98c5 34bc c636 cc3c e38b e4bc
00000200: 8bbe 0a3c 8505 503b 99b2 93bd 737d 4fbd
00000210: 22fa 68bc 68ac 09bd cb47 433d 1654 d1bd
00000220: 74e9 2d3d f15a aabd 6738 cfbc f5bb cf3d
00000230: 32a8 643d 05af e7bc 4961 ff3d d88d 643d
00000240: 9999 5dbd 2c03 76bd 83bd 0ebe 8a98 82bd
00000250: 0e19 e0bd 8365 4bbd 33e0 98bc b1de 16be
00000260: c5e7 49bd 5272 b23d dec5 c1bd baf5 67bd
00000270: 78a8 d9bc 7bd7 16be 8bae b33d 9c89 7c3d
00000280: 62cd b8ba f45b 563c 9b14 22bd 753d 07b9
00000290: 40df 8abd a1c5 85bc 0df6 973c fef0 35bd
000002a0: 9c54 6d3d 8e53 2abd 5d4f 2ebd 37d3 7d3c
000002b0: 26cd 95bd 9bdd 98bd d62a a13c d4a1 25bd
000002c0: 4cc6 bf3b 4eae e8bd 121f 7abc 898e ab3b
000002d0: 8dce 4f3c dec7 9b3d 3f5e 463d 882a ff3d
000002e0: f537 06be 5a2b 6dbc 230f bb3d e84a 2838
000002f0: 05b0 95bd 9bc1 a2bd 3603 0ebe 26c3 013d
00000300: 9dcc cd3c a0cc 94bd dd8e 8abd 8c30 29be
00000310: 913a 053c 5ab8 48bd ef83 60bd 7dfc 40bc
00000320: 28a6 cd3c 9f2b 063c ff02 94bd 627f b0bc
00000330: fd26 893b bb8c 243e 7407 a33d 65ee 843c
00000340: e048 ae3c 5bc7 f23a 1ba3 2f3d ce6f 90bd
00000350: 5c71 1dbd 33ea b7bc 71e3 0fbd 778f 9e3d
00000360: d23b 703c 7e85 583c 4f51 123c 2583 a1bd
00000370: 27a4 cf3d e53c 4a3c 5173 be3d 8669 e13c
00000380: 0850 74bd 0f61 033d 5909 053e be65 24bd
00000390: 5984 1c3d 121e 14bd 6ac9 07bd 1ef3 eabd
000003a0: 3ed7 963d 100f 87bc 7e1c d83d 8a58 eabc
000003b0: 89f7 aa3d 87c6 2a3c a282 73bd 58ad e33a
000003c0: c375 8a3c b925 b0bd efc6 85bc 62ed 0a3c
000003d0: a958 a8bd ef67 50bc e410 d13d 975f 723c
000003e0: e6fc adbb a06d bbbb 0a50 21bc e53a 05be
000003f0: 1a7c 1a3d 5be8 9ebb 0450 133d 05fa 9cbc
-0.028263474 0.023525087 0.07621643 0.023496509 -0.057498056 0.0065618544 0.044250015 -0.029802402
0.02367376 -0.052723635 -0.10671648 -0.043368164 -0.013866425 0.0124870185 -0.032923307 -0.015153014
0.01645889 -0.015201155 0.014029839 -0.060125694 -0.050400138 -0.16217789 0.0808192 -0.023799142
0.12089383 -0.011208134 0.12477046 -0.021422314 -0.036063574 0.0030403233 -0.10482973 -0.07431347
0.0072393008 -0.008412453 0.0011797237 -0.04744696 -0.071731225 0.08416125 0.030024128 -0.03830074
0.07132006 0.038073294 0.009455404 0.05463545 -0.086024895 0.007068282 -0.05323043 -0.09071433
0.019021876 0.048850995 0.12690999 0.013942919 -0.040559124 0.07366573 -0.0019388566 0.06277123
0.054137103 -0.061952535 0.0019467432 0.046635237 -0.070722535 0.029804092 0.050356723 0.12644382
-0.20509869 -0.03114389 -0.029057005 -0.005714831 0.07025003 -0.049694967 -0.06380324 -0.015277894
-0.011154486 0.063398145 -0.025367362 -4.1482483e-05 -0.01851112 -0.11070709 0.04538953 0.010535326
-0.084229976 0.043815754 -0.0014866187 0.10360875 -0.13257928 -0.004696779 -0.051025037 0.0200895
-0.08551959 0.030904537 -0.09218082 0.16951874 -0.01914423 -0.109071605 -0.06862072 -0.10976684
-0.06540007 -0.14953655 0.043934546 -0.056007065 0.056611855 -0.12775786 0.0357188 0.039281264
0.002608067 0.03306289 -0.02967821 -0.052953083 0.026178425 0.14764361 0.0037292088 0.10526319
-0.020516327 0.053859167 -0.16433989 -0.049237825 -0.13886835 -0.0536431 -0.014205477 -0.089243196
-0.0022062734 0.015747173 0.09002734 -0.0942638 -0.09506938 -0.011033438 0.024928462 -0.027898734
0.008468281 0.003174157 -0.07211799 -0.050656747 -0.014219793 -0.033611685 0.04767589 -0.10221116
0.042458966 -0.08318127 -0.02529545 0.10143272 0.055824466 -0.028281698 0.124697275 0.055799335
-0.05410156 -0.06006162 -0.1393948 -0.06376751 -0.10942279 -0.049657356 -0.018661594 -0.14733388
-0.0492933 0.08713211 -0.09461568 -0.056630827 -0.02656959 -0.14730637 0.08773526 0.061654672
-0.0014099295 0.013083447 -0.039570432 -0.00012897498 -0.06780863 -0.016329588 0.018549943 -0.04441928
0.057942018 -0.04158359 -0.042556155 0.015492252 -0.073145196 -0.07464143 0.019673746 -0.040437534
0.0058524963 -0.11361371 -0.015266197 0.0052354974 0.012683523 0.07606481 0.048429724 0.12459284
-0.13107283 -0.014475668 0.091337465 4.0124083e-05 -0.07308964 -0.079470836 -0.13868412 0.03168025
0.025121981 -0.072655916 -0.0676553 -0.16522425 0.008131639 -0.049003936 -0.05481332 -0.011778948
0.025103644 0.008189111 -0.07227134 -0.021545116 0.004185556 0.1606931 0.07960406 0.016226957
0.021274984 0.0018522547 0.04288016 -0.07052575 -0.038438186 -0.022450542 -0.035129014 0.077422075
0.0146627 0.013215421 0.008930518 -0.07886342 0.101387314 0.01234362 0.092993386 0.027516138
-0.059646636 0.032074984 0.12991847 -0.04013609 0.038212154 -0.03616149 -0.033151068 -0.11472152
0.07365273 -0.016486675 0.105523095 -0.028606672 0.08347995 0.010423309 -0.059450753 0.0017370386
0.016901856 -0.08600945 -0.01633021 0.008479448 -0.082200356 -0.012720092 0.102083 0.014793298
-0.005309689 -0.0057198554 -0.009845743 -0.13010748 0.03771601 -0.0048494763 0.03596498 -0.019162187

net.2.bias f4 [256]
00000000: 63c3 a13d 89e2 44bd 99a6 07bd 63a0 7cbd
00000010: 161c 393d 513f 88bb e0a4 193d 5e39 e53b
00000020: c311 143e a847 3b3d 08c9 243d ff5b abbc
00000030: cbcb 373d 01f1 cf3c 24b6 2abd d64a f6bd
00000040: af14 663d 81f2 453d 7e45 fc3a c8a2 76bd
00000050: b9fd 18bc 6aa2 463d 2970 07bc c822 96bd
00000060: 2f4d aebc 44c3 21bd 030b f7bd 8a30 55bd
00000070: 28f5 373c 7e31 45bd 3695 563d 92fb 1dbc
00000080: 8d61 62bc 7c82 a0bd f108 153c e9e5 d33c
00000090: 53a1 823c a4ff 1c3d 9c28 2ebe 5abe 963c
000000a0: 1a4c 83bd 9e97 03bd 3171 a83d 5ad3 d0bc
000000b0: 0da1 a83c 9c9c 783d db03 d7bd 2e97 32bd
000000c0: 4385 aebc 6556 c6bc 6692 963c 9a0c 35be
000000d0: acf5 6ebc b52d 2dbd d41a 21be 6753 be3c
000000e0: 65a4 2bbe 2747 c63c 404f ae3d c1e9 cb3c
000000f0: a9a5 ea3c 1643 c8bd 8d68 aabe a201 09bd
00000100: 42e4 b43b ae6d 213c 1f97 163e 6824 28bd
00000110: d4d6 423d 23a7 5e3d adc6 c43c d63d 3fbd
00000120: 5089 903b e583 c43b c82f 37bd 9c2c d4bb
00000130: 9de0 113b 6a80 be3d 9ea8 2fbd 51ad 453d
00000140: 295a 00bd 09e5 13be 97a8 403d 771a 1e3d
00000150: 294a a13c 09c1 a33d 48b5 0bbd 0c7a a23d
00000160: efc2 d7bc 8541 27be a2fa 2b3d 3741 32bd
00000170: 0ded a2ba 9118 883c 7f3d 29be 3577 823d
00000180: 1b3e 973d efdc 973d c305 bdbd 35cc d53b
00000190: 9fcc f03d 45d2 6cbd 8106 f33c 35de 87bd
000001a0: 22c1 243d 6a01 983d 12aa 14bd 87d3 48be
000001b0: 13e5 0ebd 65bc 853a b854 a0bc 49bc 8e3d
000001c0: dc68 5f3d 36a0 91bc 9e54 16bd ec78 e2bc
000001d0: e13b b83d 264f 1abd 6636 a03d 36e7 46bd
000001e0: 661d 083d f9da a8bd 1d5a aebc dd10 673c
000001f0: c905 bb3d 4b8b 853d 8ebc 30be 9cb7 a4bc
00000200: 26ec ff3c b580 023c 3e18 c6bb b050 633d
00000210: e5d6 76bc 95ad d03c 7508 0bbd 56e5 d4bc
00000220: 77d6 e5ba 7d38 be3d 294f 753d 0735 d9bc
00000230: 1603 893c 79e8 ac3d 820f 003c a810 a03d
00000240: 2ee3 76bd 493c e9bd 1458 c7bc 4d61 ebbb
00000250: 3ecf b63d 77af 333d bb02 8b3a 1fe3 3e3d
00000260: 52d5 9cbc 4457 44bd d78b 273d 39ad 933d
00000270: cfe9 84bd efbd 21bd bf02 adbd 9e70 f53d
00000280: bac6 7a3d 3b18 f23d 3897 893d 6648 31be
00000290: e097 2a3d 44cc 34bc 73b6 773b 2c0e 0cbd
000002a0: eb1b 0d3d 35db ba3c 9beb 163d 8876 6b3d
000002b0: b6a8 413d d5fb 6bbc 5e9d 533c 0f3b 33bd
000002c0: 140e 4dbc c7c4 b9bc 4508 4f3d 38b5 3bbb
000002d0: 6d57 e13c 1ea7 dabb be36 9f3d bf1c a3bc
000002e0: 732d 993c 42c2 593b d760 f0bc 45c7 04bd
000002f0: afd6 04be 7d54 1ebb 8294 123c e981 e43d
00000300: bd4d a43c cbd3 cf3d b3b1 9b3c bc58 86bb
00000310: e698 15bd ae1a d7bc ddea aa3d d047 76bd
00000320: 5023 febb f4e8 463c cf2e 0c3c c622 253b
00000330: 8962 a1bb ff99 223d 2e33 6abc 6b85 b9bc
00000340: 87f3 2e3d 05fa 49be 5e75 0ebe 6d62 173d
00000350: 73ad 02bd 63ee 113c 616c 8a3d 9471 21bd
00000360: b38f 91bc 8a93 773d 091a 74bc 5afc 163e
00000370: f043 343d d5c2 d93c 9160 283d 8265 9e3d
00000380: 0d68 403d 360b 593d 337a b33d b40f a13d
00000390: 8842 7cbd daa7 3e3d f728 22bd 3ddf e33b
000003a0: b909 90bd 761d 48be 0b35 c23c 4e31 073c
000003b0: 47b2 cc3b 787f 303d 6c68 6cbd dfd3 a53c
000003c0: d09c 0ebd ca91 a93c 62b0 003d 874d e3bd
000003d0: 74fa c73c 18a2 dbbd 2abd 823d 4d48 d5bd
000003e0: ace8 293d 58fe 633c c06f 5ebd 2923 10bd
000003f0: 5da2 f3bd 5ff0 08bc e1e2 1c3d 5b41 ccb9
0.07898595 -0.048067603 -0.033117864 -0.061676394 0.0451928 -0.0041579385 0.037510753 0.006995364
0.144599 0.045722634 0.04023078 -0.02091789 0.044872086 0.025383474 -0.04167761 -0.120259926
0.05617207 0.048326973 0.0019246785 -0.060213834 -0.009337836 0.048494734 -0.008266487 -0.07330853
-0.021277038 -0.03949286 -0.12062647 -0.052048244 0.011227883 -0.048142903 0.052388392 -0.009642499
-0.013817203 -0.07837388 0.00909637 0.025866466 0.015946066 0.038329735 -0.17007679 0.018401314
-0.064109996 -0.032127015 0.082247145 -0.025491405 0.020584607 0.06069623 -0.10498782 -0.043601207
-0.021303779 -0.024211118 0.018380355 -0.17680588 -0.01458494 -0.042279918 -0.1573289 0.023233129
-0.1676193 0.02420385 0.085112095 0.024891736 0.028643446 -0.097784206 -0.3328289 -0.033448823
0.0055203745 0.00985281 0.14706086 -0.041050345 0.047568157 0.054358613 0.024020517 -0.04668983
0.0044109 0.0059971684 -0.044723302 -0.0064750444 0.0022259124 0.09301837 -0.042885415 0.04826099
-0.031335983 -0.14442839 0.04703578 0.038599458 0.019688683 0.07995803 -0.03410843 0.07933435
-0.026338069 -0.16333587 0.04198707 -0.043519225 -0.0012430266 0.016613277 -0.16527365 0.06370393
0.073848926 0.074151866 -0.092296146 0.0065245875 0.117577784 -0.057817716 0.029666187 -0.066341795
0.04022325 0.07422145 -0.036295004 -0.19611941 -0.03488643 0.0010203241 -0.019571647 0.06969506
0.05454336 -0.01777659 -0.03670179 -0.02764555 0.08995796 -0.037673138 0.07822876 -0.048560344
0.03323116 -0.08244891 -0.021283204 0.014103142 0.09131963 0.06520709 -0.17259428 -0.020107083
0.031240534 0.007965256 -0.0060453704 0.05549687 -0.015065883 0.025473395 -0.033943612 -0.025988262
-0.0017535229 0.09288118 0.059889946 -0.026514543 0.016725104 0.08442778 0.007816197 0.07815677
-0.06027525 -0.113884516 -0.024333991 -0.00718323 0.08926247 0.04386851 0.0010605672 0.04660332
-0.019144688 -0.047934785 0.040904846 0.07210774 -0.06489908 -0.039487775 -0.084477894 0.11984371
0.061224677 0.11821028 0.06718296 -0.17312774 0.041648746 -0.011035029 0.0037797957 -0.034193203
0.034450453 0.022809604 0.036845785 0.057486087 0.047280036 -0.014403303 0.012915937 -0.043757495
-0.0125155635 -0.022676839 0.050544996 -0.002864195 0.027507508 -0.006672754 0.07774113 -0.019911168
0.01869843 0.003322736 -0.029343052 -0.0324166 -0.1297252 -0.0024159246 0.00894654 0.11157591
0.0200566 0.10147818 0.019005632 -0.0040999334 -0.03652277 -0.026257839 0.08345578 -0.06012708
-0.0077556744 0.012140501 0.008556082 0.0025197729 -0.0049250764 0.039697643 -0.014294429 -0.022646626
0.042712715 -0.19724281 -0.1391196 0.0369591 -0.031903695 0.0089069335 0.06758953 -0.039414957
-0.017768716 0.06044344 -0.014898785 0.14744702 0.044010103 0.026582161 0.041107718 0.07734205
0.04697423 0.052989207 0.08763542 0.07864323 -0.061586887 0.046546794 -0.03958985 0.0069541023
-0.070331044 -0.19542488 0.023706933 0.008251501 0.0062468383 0.043090314 -0.057716772 0.02024263
-0.034817517 0.0206994 0.03141821 -0.110987715 0.024411418 -0.10724276 0.063837364 -0.10414181
0.04148166 0.013915621 -0.05430579 -0.03518978 -0.11896203 -0.00835809 0.038302306 -0.00038958606

net.4.weight f4 [256, 256]
00000000: 33e3 a23a 83a2 58bc 5be4 3ebc 33a4 01bd
00000010: 3ae0 69ba 01f8 ce3b aef7 b5ba 1be4 e4bb
00000020: d6f2 313b c59e 22bc e8a9 4fbc b284 05bc
00000030: 8280 023c 0a09 c03b 2141 bf3c 1e81 043d
00000040: ca91 ac3c 5244 de3b 6ae8 83bb bd1e 9b3c
00000050: a07a 1cbc bf25 9f3b 363f 4abb 50a2 b4bc
00000060: 81de 23bb ec9a 5b3d 312e a53c 783c 2a3c
00000070: 4b3f 5bbc 7997 d6bc cbc4 253d 46f6 fd3b
00000080: 2863 203c ec1e da3b a66c e43b cd99 d83b
00000090: c866 06bc 4813 763c 7142 063c 3895 663c
000000a0: 3f33 b6ba 62d4 3dba 4edc 86bc 9db9 95bb
000000b0: de20 d63b 65bc 873a 33bd f3bb 39f4 4a3c
000000c0: ce1d 40bc 445d 8a3b 250b 023c ca6e 62bd
000000d0: 2dbd c7bc 1fc6 823c ac00 47bb c46e 533c
000000e0: e2ed fb3c 3237 8b3b acbd 8ebb b4c6 82bc
000000f0: de91 823c 02ad 813c c630 dfbb 1826 2b3b
00000100: 297c c1bc 77fb 86bb fd69 02bd fe07 0a3d
00000110: e49b 11bc 1dfe 2dbc 29ac 89bc a6fd 7e3c
00000120: f1e3 ebba e852 9ebc 6973 d43c 29c5 20bb
00000130: 1663 5ebc c4f1 ee3c b80e 83bc 83d5 96ba
00000140: 69f0 5ebb 14c3 63ba ad59 163c f821 e5bb
00000150: f13c 0dbc d1d6 04b9 0012 713b b41d 19ba
00000160: 54e6 eabb f283 0c3d e882 dcbc e051 c7ba
00000170: a811 5fbc 570d 09bb b3aa b9bc 853f abbb
00000180: 97d9 a6bb 0c21 e4bb 0cbd 64ba cb0e 7a3b
00000190: f03f 8ebc bae5 9ebc a1d2 663d 643a a4bc
000001a0: ea63 85bc 91ff 783b cf7f 343c 9d12 37ba
000001b0: 2cb9 e53c adfd 573b d067 32bc b758 e43a
000001c0: c61e 293b a2ee 9a3c 503b 60ba 2467 fc3b
000001d0: cda3 9ebc 31f8 273d 3e22 273c c120 213d
000001e0: eca4 f43b 66a1 a63b 322d a6bb 084b 9fbc
000001f0: 8c42 983b ec7c 3bbc e781 86bb de8e 04bc
00000200: e690 dcb9 71eb 3b3b 50c2 363b 4774 7ebb
00000210: f951 673c 4113 16bc 4c69 0cba d48a 2cbb
00000220: 2d61 81b9 fb3f d0bb a860 0a3c 69df ae3b
00000230: e222 06bc 7cc6 0ebb a043 9cbb 8e46 a3bb
00000240: a49a ddbc 5f14 9e3c d5ef 193c 773e d03c
00000250: 6867 1ebc a5ed b8bb 6cc8 bdbb b364 603a
00000260: db53 1c3c 1a48 6c3b f8d8 cdbb 2801 b43b
00000270: 1017 033c a7ba 25bc 6bd8 3f3c 45d6 64ba
00000280: 3a06 6cbb 8fba 073c 8108 603c 008a 1abd
00000290: d938 cd3c f5b9 04bc b5d2 90bb 730c 93bc
000002a0: 5f2c 343c 9634 0fbc 44e5 7abc b7a6 613c
000002b0: 7966 92bc 2f47 b8bb 4352 6bbc 9766 b6bb
000002c0: b8f9 56ba 6ac5 8d3b 04c3 4dbb 5e81 ce3b
000002d0: defd d93b 8c54 8ebc 3f6b e9bc eb08 00bc
000002e0: bbd6 56bc cc82 1abc 3116 873c dc07 61bc
000002f0: af6c a83b faad b9bb 2c0f 073c 68fc ecbb
00000300: 4466 cf3c be2d a3bc 9b1e b83b 2c61 e63a
00000310: adca 673b 2c9c 45bc 265b 343b 2cb2 f33c
00000320: 2f0b 543c 00a8 8e3c 085a 81ba c6d1 75bb
00000330: 0d43 e33a e04f 44bc 3cb9 38bc cbd6 5fbc
00000340: 81ba 193c d94c 74bb 51d7 05bd 0d67 043c
00000350: 32df 71bb 48c9 353a 08ef a8bc ffd6 27bc
00000360: c0e9 f3bb cda3 a33b c305 ecbb 9059 05bb
00000370: 1eb4 86bb 9fac e9bb 889c 663a ae3c bcbc
00000380: 3d17 3ebc 1f4b 89bc a822 49bc 356d c03b
00000390: a2f0 34bd a996 1dbc aa50 3bbc e1da 463d
000003a0: 6904 133c de88 dbba 5450 2c3c fbbe 353c
000003b0: 23a9 3abc d93c 9fbc 111e febb 3653 143b
000003c0: 8ccd cb38 67fc 98bb 04c0 93bc a25b 213c
000003d0: 3ed5 70bb 47a3 2f3d 3e7a 3cbb ec96 cf3c
000003e0: 7ce7 753c 729e e139 2e11 243c e7d8 113c
000003f0: 2d2e 623b 8652 48bc 5b7f fabc 5c53 30bd
0.001242733 -0.01322234 -0.011651124 -0.031650733 -0.0008921657 0.0063161855 -0.0013883018 -0.0069852
0.0027152798 -0.009925549 -0.012674786 -0.008149313 0.007965209 0.0058604525 0.023346486 0.0323497
0.021065611 0.0067830468 -0.0040255086 0.018935556 -0.00955072 0.0048567946 -0.003086043 -0.022050053
-0.0025004449 0.053614542 0.020163627 0.010390393 -0.013381789 -0.026195275 0.04047088 0.0077503053
0.009789266 0.006656518 0.0069709597 0.0066101314 -0.008203216 0.015019245 0.008194552 0.014073662
-0.001390077 -0.00072414253 -0.016462471 -0.004569246 0.00653468 0.0010355829 -0.007438326 0.012387329
-0.011725856 0.004222544 0.007937227 -0.055281438 -0.024382198 0.015963612 -0.003036539 0.012904827
0.03075308 0.004248523 -0.0043561067 -0.01596389 0.015938696 0.015829567 -0.006811234 0.0026115235
-0.023618774 -0.0041193324 -0.03183936 0.03369903 -0.008887265 -0.010619667 -0.016805725 0.015563404
-0.0017997009 -0.019326642 0.025933938 -0.002453158 -0.013573429 0.029168017 -0.01599823 -0.0011507723
-0.0034017807 -0.00086884317 0.009176654 -0.006992575 -0.008620487 -0.00012668526 0.003678441 -0.0005840913
-0.0071685705 0.03430552 -0.02691789 -0.0015206896 -0.013615049 -0.0020912492 -0.022664404 -0.005226078
-0.0050918567 -0.0069619473 -0.000872568 0.003815579 -0.017364472 -0.019396652 0.056353215 -0.020047374
-0.016282994 0.0037994126 0.0110168 -0.00069836696 0.028042398 0.00329576 -0.010889009 0.0017421459
0.0025805696 0.018912617 -0.000855376 0.007702725 -0.019365216 0.04100818 0.010201035 0.039337877
0.0074659493 0.005085158 -0.0050713057 -0.019444957 0.004646605 -0.011443358 -0.004104841 -0.008090703
-0.00042069628 0.002867427 0.0027886815 -0.003882663 0.014118665 -0.009159864 -0.00053562666 -0.0026327865
-0.000246772 -0.0063552833 0.008445896 0.005336691 -0.008187028 -0.0021785786 -0.0047688037 -0.004982776
-0.027051277 0.019296823 0.009395559 0.02542041 -0.009668209 -0.005643564 -0.0057917144 0.0008559927
0.009541477 0.0036053718 -0.006281968 0.005493302 0.008001104 -0.010115302 0.011709313 -0.00087294384
-0.0036014454 0.008284225 0.0136739025 -0.037729263 0.025051521 -0.008100976 -0.0044196495 -0.017950272
0.010996907 -0.008740565 -0.01531345 0.013772658 -0.017871128 -0.00562372 -0.014362874 -0.005566429
-0.0008200663 0.004326512 -0.0031396756 0.006302043 0.006652578 -0.0173743 -0.028493522 -0.007814626
-0.013112719 -0.0094305985 0.016490074 -0.013734784 0.005139909 -0.0056664916 0.008243363 -0.0072322376
0.025317319 -0.019919273 0.005618883 0.0017576567 0.0035368607 -0.01206116 0.002752015 0.029748045
0.0129421195 0.017414093 -0.000986875 -0.0037509068 0.0017338708 -0.011981934 -0.011274632 -0.0136620505
0.009382845 -0.003727725 -0.032676045 0.00808121 -0.0036906716 0.00069345953 -0.020621791 -0.01024413
-0.0074436367 0.004993892 -0.0072028353 -0.0020347573 -0.004110827 -0.0071311737 0.00087971287 -0.022978153
-0.01160222 -0.016759453 -0.012276329 0.0058723935 -0.044174798 -0.00961844 -0.011432806 0.048548583
0.008973219 -0.0016749164 0.010517199 0.011092897 -0.011392864 -0.019438194 -0.007755049 0.0022632605
9.7180804e-05 -0.0046687606 -0.018035896 0.009848507 -0.0036748196 0.042880323 -0.0028759385 0.02534052
0.015008803 0.00043033395 0.010013862 0.008901811 0.0034512386 -0.012226706 -0.030578306 -0.043048248

net.4.bias f4 [256]
00000000: 2dd2 f6bb aaf8 2cbe 21f7 0f3d b0e3 98bd
00000010: c6d4 c4bd a624 853d e4f9 68bd 290e 853c
00000020: 466a 0abe 310a bb3c 2d0e 813c f4f5 3e3d
00000030: 4773 c33d c036 21bd e6b7 61bd 01e2 aabd
00000040: 1166 4ebb 26f4 183b c7a0 efba 5967 96bc
00000050: bb7d 13bd 55f4 d6bc ae7e 1abe 6777 a23d
00000060: 4208 613d bc0c 90bd c5f8 3ebd 9b43 4f3c
00000070: 016d aebc c2d0 5f3d 87aa 613d f5bb e13d
00000080: 86f1 8e3d b35d af3c afa2 10bd e9bf b3bd
00000090: 6f55 c3bc afe2 1a3c 05e8 8b3d 86b5 eb3b
000000a0: ca59 3e3c 07b7 b5bc 435d 943d 15b5 afbd
000000b0: 52ea 0bbc 67eb 25bd 516d 87bc 6c44 2c3c
000000c0: e158 d93c 1378 433d 0ded 8cbd 41ed 1b3d
000000d0: 2de4 43bb 4a8a 07bd e5bf a4bc 2c6b ae3c
000000e0: d8d8 4ebd ee8f 813c d878 ae3d f241 fe3c
000000f0: 797c 7a3d 3a4a 0bbe 69f1 f83c 6039 9c3d
00000100: cef9 803c ee14 713d 7918 9b3c a5ec 6a3d
00000110: 1cd5 8d3d 6ffe 533c 8dec 56bb e8d3 5dbd
00000120: 8201 9d3d 81c3 263d b520 e0bc e9a8 913d
00000130: d882 60be 2f47 9a3c 072a c6bd 39bf 19bd
00000140: f3d5 01bd 6d5f 023c 1105 863d 96e2 28bc
00000150: eaf4 86be 81ab 1fbc 4be1 69bc cad6 0e3d
00000160: d9e7 b23c 3b0c 1bbd d1d2 153d 870f 52bc
00000170: cd29 72bc 500a 82bc ff42 dc3c 6e47 693d
00000180: e5fd 27be f21e ba3c 0fe1 d9bc 4e76 cf3c
00000190: bd59 603c 5078 e2b9 dc54 ca3d 84bd 1c3d
000001a0: 821b 8e3d f647 d13b a29c 373c 1477 32bb
000001b0: f512 733d a3ab 333d bd01 a3bc f9d5 40ba
000001c0: 54b3 72bc c5c2 3fbb ba34 4cbe 6c12 c7bd
000001d0: 84ff e7bd 584e 19bd 258e 033d 18cd 2b3d
000001e0: 3475 473d 7e8c 3dbc be11 ec3d ab8d 62be
000001f0: d545 75bc 4e2c a7bc 79fa 88bc 9ff8 1a3c
00000200: 59a0 88bb 122d 61ba 4b01 9ebc d5a5 fa3b
00000210: f9ea 29bd bff3 713d 5a3d 0b3d 9d20 d53b
00000220: e037 d83c b613 78be 549c 98bd 3595 93bb
00000230: 981e cbbc 7365 973c e71a 85bd c2dd c4bc
00000240: cd90 32bd 49d1 d63b d182 16bd b294 b6bc
00000250: e7c1 a2bd 883e 8e3d 0fdd 583a 4130 953d
00000260: 2c2e 03bd a240 35bd 85e4 3abe 4af7 0cbe
00000270: 685c 2c3d 66ba 21bd 3c67 063d baa7 c9bd
00000280: b752 203d 9fd3 0abe 3d90 93bc 2e86 f3bd
00000290: f742 7b3d 815f 3ebd 677b b43c b1e1 2cbe
000002a0: 1cc7 97bc 676d f03c 22b1 2ebe 81ce 3cbd
000002b0: 3269 30bd 7b11 0f3d 9d0f 23ba fac8 d53a
000002c0: b115 753d 2898 cfbd 0fd0 0d3c e826 2c3d
000002d0: 429e 58bd fdc3 6dbc a487 12bc ccb0 34bc
000002e0: ccfe b13a 5d2f 84be 2412 13bd 616b f5bd
000002f0: f033 ce3c 5135 ac3d 4300 3b3d 6ff7 6f3b
00000300: 5c0e b9bc 097e edbc 4cd2 133d beb4 dbbc
00000310: 1544 553b c954 903d 7611 c83d 8f46 fd3b
00000320: e0da 2bbc a889 09be 3edf bdbd 1ab8 c3bc
00000330: f925 75be a7de 7bbd b155 e5bc 2732 d63b
00000340: 8e0a 6bbe 6f1c e4bc fe1a 783c c89b 8b3c
00000350: 618e 8cbc f9fb c33c 5763 0fbe 8b7f 97bd
00000360: dbf8 a93d 6f84 2dbe 0543 8abd 96b0 fbba
00000370: 54ad 9abd d350 023d 3c00 ae3d c182 27be
00000380: 3d69 58bc 0936 3bbd 4c49 3f3d a909 48ba
00000390: 52b4 03bd edeb 253d 0de8 113c 509a 8b3d
000003a0: 78b8 3dbd f938 7fbb 157b 373c 16aa d63c
000003b0: be2d d83c c90b eb3c 2ba6 59bd 5e17 0fbe
000003c0: b36e 993c fa2f 85b9 9de6 7f3c ab61 d63c
000003d0: 189e 9ebc 6a99 ff3b fbf9 51be 7fa1 19bd
000003e0: 06dc a4bc 9820 6abd db61 cdbc dc3d 25be
000003f0: 539e f0bc 7d09 4e3d d9a9 46bd 205e 3e3b
-0.007532379 -0.16891733 0.03514779 -0.07465303 -0.09610896 0.06501131 -0.05687894 0.016242104
-0.13517103 0.022832008 0.01575383 0.046621278 0.09543472 -0.039358854 -0.05510702 -0.08343888
-0.0031493942 0.0023338883 -0.0018282168 -0.018359827 -0.036008578 -0.026239553 -0.15087387 0.079329304
0.054939516 -0.07033679 -0.046623964 0.012650396 -0.021292211 0.054642446 0.05509427 0.11022178
0.06979661 0.021406984 -0.035311397 -0.08776838 -0.023844449 0.00945346 0.068313636 0.00719327
0.011618087 -0.022182 0.07244351 -0.085794605 -0.008539753 -0.0405077 -0.016531618 0.01051436
0.026531639 0.047721934 -0.06881151 0.03806806 -0.0029890642 -0.033090867 -0.020111034 0.021291338
-0.050499767 0.015815701 0.08519143 0.031037305 0.061153863 -0.13602534 0.03038855 0.07628131
0.015744116 0.05885785 0.018932568 0.057354588 0.06925413 0.01293908 -0.0032794804 -0.054157168
0.07666303 0.04071379 -0.027359346 0.07112295 -0.21924913 0.018832771 -0.09675985 -0.03753588
-0.03169818 0.007957322 0.06543935 -0.010307929 -0.2635873 -0.00974548 -0.014274905 0.034872808
0.02183907 -0.03785346 0.036578003 -0.012821085 -0.014780474 -0.015874058 0.026887415 0.056952886
-0.16405447 0.022719834 -0.026596574 0.025324967 0.01369327 -0.0004319572 0.09879467 0.038266674
0.069388404 0.0063867522 0.011206778 -0.002723162 0.05934425 0.043864857 -0.01989829 -0.0007356103
-0.014813263 -0.0029260379 -0.19941989 -0.097203106 -0.113280326 -0.03742823 0.03211798 0.04194364
0.048695758 -0.0115691405 0.115268216 -0.22124355 -0.014970263 -0.020406868 -0.016720997 0.00945869
-0.0041695056 -0.0008589785 -0.019287726 0.0076491632 -0.041483853 0.059070345 0.033994056 0.006504132
0.02639383 -0.24226269 -0.07451692 -0.004503871 -0.024794862 0.018480992 -0.06499272 -0.024031524
-0.043595124 0.0065557105 -0.03674585 -0.0222877 -0.0794714 0.06945521 0.00082726864 0.07284594
-0.032026455 -0.04425109 -0.18251236 -0.13766208 0.042080313 -0.039484404 0.032813296 -0.098464444
0.039141383 -0.1355729 -0.018013114 -0.11890827 0.06134316 -0.0464778 0.0220315 -0.1688297
-0.01852756 0.029349042 -0.17059758 -0.046095375 -0.043069072 0.03492878 -0.0006220283 0.0016310506
0.05983514 -0.101364434 0.008655562 0.04202929 -0.0528853 -0.014512059 -0.008943472 -0.01102848
0.0013579964 -0.25817385 -0.035905972 -0.119833715 0.02517125 0.08408607 0.045654546 0.0036615988
-0.022589855 -0.028990762 0.036089227 -0.026819583 0.00325418 0.070474215 0.097689554 0.0077293585
-0.010489196 -0.13431418 -0.09271096 -0.023891497 -0.23940267 -0.061491635 -0.027994962 0.0065367403
-0.22953245 -0.02784559 0.015143154 0.017042056 -0.017157735 0.02392386 -0.14002739 -0.07397374
0.082994185 -0.1694505 -0.06751064 -0.0019202407 -0.07552591 0.03181536 0.084961385 -0.16358472
-0.0132086845 -0.04570583 0.04670076 -0.0007630834 -0.03215439 0.0405082 0.008905423 0.06816542
-0.0463185 -0.003894387 0.011198779 0.02620415 0.026389 0.028692143 -0.053136986 -0.13973758
0.018729543 -0.00025403482 0.015618947 0.026169619 -0.019362494 0.007800271 -0.20505516 -0.03750753
-0.020124447 -0.05715999 -0.025071075 -0.16136879 -0.02937237 0.050302017 -0.048501823 0.0029047802

net.6.weight f4 [2, 256]
00000000: 5e3b 6f3a ff0d 26bd 5122 dfb9 1cc6 b13a
00000010: a272 0fbb 3181 22ba 040c feb7 4dde 213a
00000020: f664 78bd e11c 383d 9435 c33a 978c deb9
00000030: 27cb 643b c3e2 143d 6cf1 72bc 6df7 87bc
00000040: 6e8a e139 8266 e639 b300 aeba b710 a9ba
00000050: f8d1 71b9 24ce b5b9 49d1 e539 1936 c7ba
00000060: 40a0 da3a 645a 08bb fc4b 2939 b9fe 02ba
00000070: 4c0f 7339 760f 9e39 b959 23ba c597 313a
00000080: 2163 0cba 7e53 20ba a16c 36ba 8cb4 51ba
00000090: 80af 69bd a8bd 463a c2ef 08ba 77a1 b8ba
000000a0: 9742 4fb9 fa15 67ba ad4a 90b9 9659 4039
000000b0: 6de9 bfba d870 4c3a 0e37 063a a3eb b7b9
000000c0: 4e1f 2cba 0d71 9d3a 865a 8239 2dff 5f3a
000000d0: 3397 b9b9 8515 7cba 483c a13a 95a5 e5b8
000000e0: 543f 65ba 07ea abba 8aba 393a 1f69 c53a
000000f0: f8ef baba c66c 7339 31a8 793a 78c8 47ba
00000100: 3a49 adb7 f67f 663a d656 3c3a f6d2 0bbb
00000110: 41e7 9c3a 9a6f 633a a4d8 26ba 2976 c439
00000120: bb99 99ba 2cf9 9f37 158d f239 3d13 2a3a
00000130: 5c40 1cbb 68eb 583a 859d bc3c 3228 1cb8
00000140: 75f3 8f3a 3cf0 7a3a 293e 4eba 7611 f1b8
00000150: 50f1 c8bc 4969 063a 2e62 91ba 7d8e e0ba
00000160: c0f2 c539 c768 ec39 0ab1 753d deda bab9
00000170: cb89 503a 430a 263a 3058 8e36 bd22 dfb9
00000180: ed79 aebc ee4a 853b 6f04 133a c338 8a3a
00000190: 2788 d0b9 bd45 caba 286c 893a cbd9 8c3a
000001a0: 5c64 3bba 346f 1b3a 9e38 4bb9 b8a8 233a
000001b0: 67bf 8d3c a6b1 d7ba 39fd f5b9 96ef 503a
000001c0: 43a9 b43a aa94 ef39 ded3 e5ba 1b4f 373a
000001d0: 455c 17bd aa66 b5bc 49fa 1eb9 e876 e1b8
000001e0: 61f5 843a 3944 293d 7353 84ba 39f3 52bc
000001f0: b8c6 8ab7 b7a4 a2ba 721e 593a 31ea 6d39
00000200: 219c aa3a d4b8 04ba 33a3 d1ba 6e44 963d
00000210: f8ae d83a 3c1f beb8 d978 113a 706a e838
00000220: e17f b0b8 85d7 a13a 3b5e 20bd f26d 0c3c
00000230: 6886 13ba 5841 15ba f3cb 013d adcd e33a
00000240: 27b4 52ba 845b 7fba 46e9 953a 9f19 ac38
00000250: 136d 683d 727d 6c3a f077 e639 4cf8 8639
00000260: 0151 dfb9 43bc 91ba afad 66bb 5f8f 053d
00000270: 15d9 bdba be46 0d3a 715e 3dba e3ce 223b
00000280: a4d9 c33a d428 d6bb 8a24 3139 49be 88b9
00000290: da5f 8dba 0b0c 9b3a 19a2 313a f14d bd3a
000002a0: 8d00 9439 5cb9 90ba b0bc d7bc 7bde ae3a
000002b0: 1d9d 48ba e7c6 ae39 d6c0 21bb bb61 59ba
000002c0: 2c32 973a 25ba e0bb 8124 9a3a 8fa7 21ba
000002d0: 4693 843d d22c f0b9 55bc 473a d132 13ba
000002e0: 997c 04bb 2069 ddbc 5a2c 093a 03ae 3b3b
000002f0: 0a75 9e39 7e60 9f3a 3d59 273a a24d 51bd
00000300: a1ac 1cb7 e853 b039 b173 073b 6ad9 e1b9
00000310: 28b5 afba 1c6d 6a3a b7fb d339 a2c1 963a
00000320: ebb8 5b39 2b73 d0ba 3097 5d3c 3a23 fdb9
00000330: 7692 2abd 7aea 163d 33a4 b4ba e7c1 b33a
00000340: 19c1 babd b5ee ceb9 7f60 70ba 6df3 a23a
00000350: 59cc ca3a c608 583a 628b 4cbc 1ac0 2abb
00000360: 069a faba 1f6c 53bc 3ca3 4c3a 6b46 0fba
00000370: 5d84 a539 3a1f e9ba 0bc6 8fba 832c 6abd
00000380: 1610 d639 8b07 87ba 0f56 e9b8 cb5c ed38
00000390: fd3c c2ba 49c1 06bb 54ac e239 7616 9dba
000003a0: 750c dd3a 1247 553a 3838 4d3a d723 2d3a
000003b0: c0a5 7939 0a5f a8ba 40a3 4e3a fa80 33bd
000003c0: 8bb3 6a3a 2c84 6a3a 6c96 7439 6e16 4cba
000003d0: f5a3 2bba ee0f bbba 6c9c bcbd 2c75 463b
000003e0: 3ad1 a3ba a29e e5bb f8cc 8f39 38d4 d53b
000003f0: 74de 7439 23b3 8fba 2063 5bb8 497f e838
0.0009125973 -0.04054069 -0.00042559442 0.001356307 -0.0021888395 -0.00061990606 -3.0284755e-05 0.0006174788
-0.06064316 0.044949416 0.0014893287 -0.00042447887 0.0034911127 0.03634907 -0.014828067 -0.016597474
0.00043018482 0.00043945393 -0.0013275355 -0.0012898658 -0.0002306177 -0.00034676597 0.00043834213 -0.0015198617
0.0016679838 -0.002080583 0.00016145402 -0.0004997063 0.00023179984 0.00030147628 -0.0006231326 0.00067746296
-0.00053553475 -0.0006115957 -0.0006958936 -0.0007999621 -0.057052135 0.00075813616 -0.0005223715 -0.0014086206
-0.00019765865 -0.00088152254 -0.00027521458 0.0001834392 -0.001464171 0.00077987975 0.0005119898 -0.00035080043
-0.0006565944 0.0012011841 0.00024862977 0.0008544799 -0.00035398602 -0.0009616244 0.001230129 -0.00010950413
-0.00087450934 -0.001311601 0.00070849864 0.0015061236 -0.001426219 0.00023214807 0.00095236587 -0.000762112
-2.0657306e-05 0.00087928714 0.00071845704 -0.002133546 0.0011970775 0.0008675993 -0.00063646794 0.0003747207
-0.0011718789 1.9070307e-05 0.0004626295 0.0006487852 -0.0023842072 0.00082748244 0.02302433 -3.7230733e-05
0.001098259 0.0009572541 -0.0007867539 -0.00011495028 -0.02452913 0.0005127383 -0.0011091882 -0.0017132309
0.0003775563 0.00045091493 0.05998329 -0.00035639753 0.0007955103 0.00063339266 4.242196e-06 -0.00042559757
-0.021298373 0.00406777 0.00056082656 0.0010545481 -0.00039774293 -0.001543216 0.0010484504 0.001074606
-0.00071484386 0.00059293513 -0.0001938068 0.00062430976 0.017303182 -0.0016456142 -0.00046918707 0.00079702714
0.0013783354 0.00045696396 -0.0017534455 0.00069926836 -0.03695323 -0.02214368 -0.00015161293 -0.00010750984
0.0010143929 0.041324828 -0.0010095671 -0.012875372 -1.6543418e-05 -0.0012408708 0.000828243 0.00022689324
0.0013016501 -0.0005062942 -0.0015994072 0.07337271 0.0016531637 -9.065724e-05 0.0005549319 0.000110824476
-8.416153e-05 0.0012347555 -0.039152365 0.008571135 -0.0005627633 -0.0005693636 0.03168864 0.0017380022
-0.0008037709 -0.0009741115 0.0011437319 8.2063714e-05 0.056744646 0.00090213784 0.0004395838 0.00025743467
-0.00042594227 -0.0011118728 -0.0035198738 0.032607432 -0.0014484251 0.00053892646 -0.00072238507 0.0024842552
0.0014942181 -0.006535629 0.00016893647 -0.00026081715 -0.0010786012 0.0011829151 0.00067761686 0.0014442784
0.0002822917 -0.001104157 -0.02633509 0.0013341451 -0.0007652806 0.0003333606 -0.002468159 -0.0008292456
0.0011535338 -0.0068581277 0.0011760147 -0.0006166631 0.06473403 -0.0004580976 0.0007619311 -0.0005615177
-0.0020215868 -0.027027667 0.0005232744 0.0028637655 0.0003022331 0.0012159494 0.0006383842 -0.051099427
-9.338518e-06 0.0003363185 0.0020668323 -0.0004307733 -0.0013405429 0.000894265 0.00040432598 0.0011501799
0.00020954355 -0.0015903463 0.013524815 -0.00048282166 -0.041643582 0.036844708 -0.0013781845 0.0013714404
-0.09118862 -0.00039469232 -0.00091696525 0.0012432166 0.0015472277 0.00082410534 -0.012484403 -0.0026054443
-0.0019119389 -0.012904196 0.0007806306 -0.000546551 0.0003156987 -0.0017785795 -0.0010969056 -0.057171356
0.00040829246 -0.0010301931 -0.000111263354 0.00011318325 -0.0014819201 -0.0020561984 0.00043234474 -0.0011984843
0.0016864674 0.00081358955 0.00078285066 0.0006604767 0.00023808237 -0.0012845707 0.00078826025 -0.043824174
0.00089531456 0.0008946087 0.0002332569 -0.00077853247 -0.0006547564 -0.0014271715 -0.092095226 0.0030282242
-0.0012498267 -0.007007436 0.000274278 0.0065255426 0.00023352524 -0.0010963421 -5.2305986e-05 0.00011086331

net.6.bias f4 [2]
00000000: 9498 713d 9294 8a3d
0.0589834 0.06766619
